transformers/results/informer/configs/hyperopt/trial_42/informer_model_20251129_113621.pt (torch, 620309 bytes, 106 tensors)

input_embedding.weight f4 [24, 8]
0.025472833 -0.06738933 0.06437573 0.113060206 0.026731368 0.06438423 -0.00097069 0.02745263
0.16376518 0.09807268 0.43324772 0.11037502 0.057242613 0.41366825 0.072007254 -0.034642298
0.046526637 -0.015818868 0.006365869 0.04046097 0.0467051 0.007202717 -0.0014148665 0.0369528
0.026305024 -0.06524751 0.044141192 0.073300965 0.0110726105 0.044139277 0.079634614 0.026260244
0.07163651 -0.12425631 0.008539165 0.045463577 0.013926074 0.033587523 -0.080863826 0.047150366
0.055123005 -0.05717035 0.00978767 0.060399175 0.06166188 0.009348996 0.037003186 0.04752583
0.22330627 -0.4127693 -0.26182878 -0.20536867 -0.20811528 -0.036949296 0.027324183 0.18888967
0.009386952 -0.13046426 0.026295716 -0.043309964 -0.038242493 0.025676232 -0.01416209 0.00028443275
0.27076748 -0.14979519 0.0916051 -0.10600777 -0.1193425 -0.09700863 0.21338993 0.26429734
0.34427357 -0.39686152 -0.19351423 -0.24361001 -0.15010133 -0.0072125704 -0.0068497793 0.29680434
-0.4291329 -0.17049362 0.13904013 -0.13779216 0.042003006 -0.049224738 0.08286124 -0.50409746
-0.012226732 -0.041744415 0.014244379 -0.015538296 0.04411432 0.015297478 -0.13597941 -0.0069236294
0.18499328 -0.06800666 -0.33903965 -0.041976396 -0.04108665 -0.2824124 -0.012345383 -0.11756573
0.039429326 -0.12500744 0.0011901482 -0.014857627 -0.04102519 0.0019352972 0.037413497 0.03531334
-0.20802854 -0.020354679 -0.073665135 0.03409372 0.04936844 -0.10453756 0.07702858 -0.3074116
-0.2976442 -0.1492374 0.12001942 -0.25987175 -0.25521687 -0.008334229 -0.13435344 -0.5284584
0.20936131 0.18031788 0.017157072 -0.06409964 -0.09964141 -6.758156e-05 -0.03181406 -0.05571204
-0.18808764 -0.2309475 0.032440253 -0.011759772 0.019105524 0.01785573 0.013119716 -0.15417847
-0.38511515 0.106140964 0.11990595 0.12898286 0.120251626 -0.14449926 -0.023692241 -0.451006
0.0355644 -0.11935372 -0.0009507106 -0.055314872 0.031978603 -0.0022358666 -0.04063328 0.026593033
0.5195251 -0.048433054 0.11158578 -0.055026542 0.055533774 0.026664434 -0.04405051 0.50479877
0.018608958 -0.19642545 0.03624794 -0.018067922 -0.024676375 0.036836315 -0.029668918 0.014140533
-0.38872838 0.19894014 0.12200821 -0.006762064 0.04317406 0.04801655 -0.018312637 -0.23602176
-0.0026238512 -0.0496518 0.007915851 -0.04636677 -0.007589186 0.007814433 -0.065945156 -0.0072667208
00000000: 67ac d03c 6b03 8abd 6cd7 833d 1c8c e73d
00000010: befb da3c e1db 833d e775 7eba 57e4 e03c
00000020: 0fb2 273e 54da c83d a5d2 dd3e 4c0c e23d
00000030: 3b77 6a3d 53cc d33e 8a78 933d 15e5 0dbd
00000040: b792 3e3d 9296 81bc c898 d03b 67ba 253d
00000050: d94d 3f3d c504 ec3b 0b73 b9ba d25b 173d
00000060: a27d d73c 7da0 85bd 65cd 343d d11e 963d
00000070: e569 353c 63cb 343d 7917 a33d b91f d73c
00000080: 2ab6 923d 187a febd dbe7 0b3c 0438 3a3d
00000090: 302a 643c 1293 093d ef9b a5bd be20 413d
000000a0: a9c8 613d 752b 6abd 775c 203c 2065 773d
000000b0: 2b91 7c3d 882c 193c a790 173d 72aa 423d
000000c0: 66aa 643e 7f56 d3be 6c0e 86be 2a4c 52be
000000d0: 2c1c 55be 2558 17bd f7d6 df3c 4b6c 413e
000000e0: bbcb 193c 6c98 05be 1d6a d73c ca65 31bd
000000f0: 29a4 1cbd f656 d23c 1c08 68bc eb1f 9539
00000100: 09a2 8a3e e963 19be 749b bb3d 9a1a d9bd
00000110: d769 f4bd 76ac c6bd e482 5a3e fb51 873e
00000120: a044 b03e 6f31 cbbe 9828 46be e774 79be
00000130: 2ab4 19be 6d57 ecbb 1d74 e0bb bdf6 973e
00000140: 4fb7 dbbe e195 2ebe 8960 0e3e 6319 0dbe
00000150: 580b 2c3d e19f 49bd 27b3 a93d 880c 01bf
00000160: a252 48bc 31fc 2abd 4161 693c 5694 7ebc
00000170: 38b1 343d 46a2 7a3c 303e 0bbe 9ddf e2bb
00000180: e16e 3d3e 1347 8bbd 9b96 adbe 71ef 2bbd
00000190: 7a4a 28bd 5c98 90be 4a44 4abc 4dc6 f0bd
000001a0: a580 213d f301 00be bffe 9b3a 686d 73bc
000001b0: 080a 28bd cca9 fd3a e53e 193d b9a4 103d
000001c0: 6f05 55be dbbe a6bc bfdd 96bd dba5 0b3d
000001d0: 9036 4a3d ca17 d6bd 29c1 9d3d 0e65 9dbe
000001e0: d264 98be b0d1 18be becc f53d e90d 85be
000001f0: c9ab 82be 4a8c 08bc f393 09be 0d49 07bf
00000200: d062 563e 40a5 383e fd8c 8c3c ac46 83bd
00000210: cc10 ccbd 93ba 8db8 764f 02bd 4f32 64bd
00000220: 0c9a 40be 807d 6cbe 12e0 043d 0fac 40bc
00000230: 3083 9c3c 2e46 923c 14f4 563c f6e0 1dbe
00000240: d02d c5be 6f60 d93d 4091 f53d 1514 043e
00000250: 7c46 f63d 9df7 13be 3b16 c2bc 42ea e6be
00000260: faab 113d b96f f4bd 1c39 79ba d991 62bd
00000270: fffb 023d 9e87 12bb 156f 26bd a2d9 d93c
00000280: 99ff 043f bd61 46bd 1687 e43d 8363 61bd
00000290: 6277 633d 5f6f da3c 4f6e 34bd 7e3a 013f
000002a0: d071 983c c123 49be b878 143d 2e03 94bc
000002b0: 1c26 cabc ade1 163d 3b0c f3bc b2ad 673c
000002c0: 6807 c7be f7b6 4b3e 71df f93d 4e94 ddbb
000002d0: 48d7 303d 00ad 443d 6204 96bc b0af 71be
000002e0: ebf4 2bbb b05f 4bbd 7cb1 013c 15eb 3dbd
000002f0: b5ae f8bb 1c08 003c 410e 87bd ac1d eebb

input_embedding.bias f4 [24]
0.039978683 0.3874678 0.03435954 -0.011200642 -0.08858104 0.005070535 -0.16217159 -0.070482686
-0.28743118 -0.22080728 0.25864762 0.03177453 0.035069756 -0.13841568 -0.049609873 -0.35622257
-0.048397478 0.028537711 0.12661973 0.015869297 -0.29019505 -0.22421518 0.10984965 0.045431096
00000000: b0c0 233d 2e62 c63e 97bc 0c3d e682 37bc
00000010: fa69 b5bd bb26 a63b 4f10 26be 3a59 90bd
00000020: 2e2a 93be 4e1b 62be 766d 843e 0226 023d
00000030: 4ea5 0f3d d7bc 0dbe b933 4bbd ce62 b6be
00000040: 6f3c 46bd ebc7 e93c 9aa8 013e 5400 823c
00000050: 7294 94be aa98 65be daf8 e03d f515 3a3d

pos_encoder.pe f4 [1, 5000, 24]
0.0 1.0 0.0 1.0 0.0 1.0 0.0 1.0
0.0 1.0 0.0 1.0 0.0 1.0 0.0 1.0
0.0 1.0 0.0 1.0 0.0 1.0 0.0 1.0
0.84147096 0.54030234 0.44767085 0.8941984 0.21378067 0.9768817 0.099833414 0.9950042
0.04639923 0.99892294 0.021542681 0.9997679 0.009999833 0.99995 0.0046415734 0.9999892
0.0021544332 0.9999977 0.0009999998 0.9999995 0.00046415895 0.9999999 0.00021544348 1.0
0.9092974 -0.41614684 0.8006131 0.59918165 0.41767687 0.9085956 0.19866931 0.9800666
0.09269851 0.9956942 0.043075364 0.99907184 0.019998666 0.9998 0.009283047 0.9999569
0.004308856 0.9999907 0.0019999985 0.99999803 0.00092831784 0.9999996 0.00043088695 0.99999994
0.14112 -0.9899925 0.98414314 0.17737612 0.60226107 0.7982992 0.2955202 0.9553365
0.1387981 0.9903207 0.06458805 0.997912 0.0299955 0.99955004 0.01392432 0.9999031
0.006463259 0.99997914 0.0029999954 0.9999955 0.0013924765 0.99999905 0.00064633036 0.9999998
-0.7568025 -0.6536436 0.9594254 -0.28196275 0.75899875 0.6510921 0.38941833 0.921061
0.18459873 0.98281395 0.08607077 0.996289 0.039989334 0.9992001 0.018565293 0.9998276
0.008617632 0.99996287 0.003999989 0.999992 0.0018566349 0.9999983 0.0008617738 0.99999964
-0.9589243 0.2836622 0.73169005 -0.68163747 0.88064283 0.47378072 0.47942552 0.87758255
0.23000173 0.97319025 0.10751353 0.9942036 0.049979165 0.99875027 0.023205869 0.9997307
0.010771966 0.999942 0.004999979 0.9999875 0.0023207928 0.9999973 0.0010772172 0.9999994
-0.2794155 0.96017027 0.349127 -0.93707544 0.961569 0.27456328 0.5646424 0.8253356
0.2749093 0.9614702 0.12890638 0.9916568 0.059964005 0.99820054 0.02784594 0.9996122
0.012926248 0.99991643 0.0059999637 0.999982 0.0027849504 0.9999961 0.0012926605 0.99999917
0.6569866 0.75390226 -0.10731243 -0.9942253 0.9980355 0.06265094 0.6442176 0.7648422
0.31922466 0.94767904 0.15023942 0.98864967 0.06994285 0.997551 0.032485418 0.9994722
0.0150804715 0.9998863 0.006999942 0.9999755 0.003249107 0.99999475 0.0015081038 0.99999887
0.98935825 -0.14550003 -0.5410444 -0.840994 0.9883562 -0.15215816 0.717356 0.6967067
0.36285242 0.9318466 0.17150272 0.98518366 0.07991469 0.9968017 0.03712419 0.9993107
0.017234625 0.99985147 0.007999914 0.999968 0.0037132632 0.9999931 0.001723547 0.9999985
0.4121185 -0.91113025 -0.86028963 -0.5098056 0.9329786 -0.35993198 0.78332686 0.62161
0.4056986 0.91400695 0.19268642 0.98126036 0.089878544 0.9959527 0.041762162 0.99912757
0.019388698 0.999812 0.008999879 0.9999595 0.0041774185 0.9999913 0.0019389901 0.99999815
-0.5440211 -0.8390715 -0.99749476 -0.070740685 0.8344632 -0.55106366 0.84147096 0.54030234
0.44767088 0.8941984 0.21378069 0.9768817 0.099833414 0.9950042 0.04639924 0.99892294
00000000: 0000 0000 0000 803f 0000 0000 0000 803f
00000010: 0000 0000 0000 803f 0000 0000 0000 803f
00000020: 0000 0000 0000 803f 0000 0000 0000 803f
00000030: 0000 0000 0000 803f 0000 0000 0000 803f
00000040: 0000 0000 0000 803f 0000 0000 0000 803f
00000050: 0000 0000 0000 803f 0000 0000 0000 803f
00000060: a46a 573f 4151 0a3f 1d35 e53e 30ea 643f
00000070: 52e9 5a3e eb14 7a3f 7675 cc3d 98b8 7e3f
00000080: 1e0d 3e3d 6ab9 7f3f 477a b03c caf0 7f3f
00000090: 57d6 233c b9fc 7f3f 5718 983b 4bff 7f3f
000000a0: 6431 0d3b d9ff 7f3f 6d12 833a f8ff 7f3f
000000b0: 5c5a f339 feff 7f3f abe8 6139 0000 803f
000000c0: b7c7 683f 3311 d5be fbf4 4c3f f863 193f
000000d0: bed9 d53e b999 683f f86f 4b3e a5e5 7a3f
000000e0: b7d8 bd3d d1e5 7e3f cb6f 303d 2cc3 7f3f
000000f0: 3ed4 a33c e5f2 7f3f ec17 183c 2dfd 7f3f
00000100: 4e31 8d3b 64ff 7f3f 6812 033b dfff 7f3f
00000110: 5b5a 733a f9ff 7f3f abe8 e139 ffff 7f3f
00000120: c381 103e 2670 7dbf cef0 7b3f 16a2 353e
00000130: c82d 1a3f 565d 4c3f 6c4e 973e ef90 743f
00000140: 1721 0e3e a885 7d3f bd46 843d 2977 7f3f
00000150: 1fb9 f53c 83e2 7f3f d522 643c a6f9 7f3f
00000160: bfc9 d33b a2fe 7f3f 929b 443b b5ff 7f3f
00000170: c283 b63a f0ff 7f3f 7f6e 293a fdff 7f3f
00000180: cfbd 41bf 3055 27bf e79c 753f 6c5d 90be
00000190: be4d 423f f9ad 263f d761 c73e a7ca 6b3f
000001a0: 7307 3d3e b299 7b3f df45 b03d cc0c 7f3f
000001b0: dbcb 233d 94cb 7f3f 3e16 983c b4f4 7f3f
000001c0: f830 0d3c 91fd 7f3f 5712 833b 7aff 7f3f
000001d0: 545a f33a e3ff 7f3f a9e8 613a faff 7f3f
000001e0: 107c 75bf 2c3c 913e 0a50 3b3f cb7f 2ebf
000001f0: cf71 613f 6393 f23e 4377 f53e 40a9 603f
00000200: 9385 6b3e ff22 793f 0e30 dc3d 2184 7e3f
00000210: f4b6 4c3d 19ae 7f3f 3c1a be3c 5aee 7f3f
00000220: e67c 303c 33fc 7f3f ddd6 a33b 2eff 7f3f
00000230: 7118 183b d3ff 7f3f 6931 8d3a f6ff 7f3f
00000240: 8c0f 8fbe b8cd 753f c6c0 b23e 2de4 6fbf
00000250: 6329 763f 8f93 8c3e 688c 103f 3249 533f
00000260: e9c0 8c3e e922 763f 0900 043e 38dd 7d3f
00000270: d19c 753d 128a 7f3f 2b1d e43c 96e6 7f3f
00000280: 9dc8 533c 86fa 7f3f 589b c43b d2fe 7f3f
00000290: b783 363b bfff 7f3f 7d6e a93a f2ff 7f3f
000002a0: 4630 283f bdff 403f 9fc6 dbbd 8d85 7ebf
000002b0: 417f 7f3f 234f 803d 72eb 243f b3cc 433f
000002c0: 6a71 a33e 189b 723f 5dd8 193e 2518 7d3f
000002d0: 323e 8f3d 815f 7f3f 6e0f 053d 69dd 7f3f
000002e0: 1514 773c 8cf8 7f3f c55f e53b 65fe 7f3f
000002f0: f8ee 543b a8ff 7f3f 91ab c53a edff 7f3f
00000300: 9546 7d3f f6fd 14be e381 0abf 624b 57bf
00000310: e904 7d3f 59cf 1bbe a5a4 373f 5f5b 323f
00000320: cbc7 b93e 808d 6e3f 699e 2f3e ff34 7c3f
00000330: 50aa a33d 652e 7f3f 890f 183d d3d2 7f3f
00000340: a12f 8d3c 44f6 7f3f 1212 033c e7fd 7f3f
00000350: 385a 733b 8cff 7f3f a4e8 e13a e7ff 7f3f
00000360: 3201 d33e d53f 69bf f13b 5cbf 9f82 02bf
00000370: afd7 6e3f 0149 b8be 1c88 483f d521 1f3f
00000380: bab7 cf3e 5cfc 693f 974f 453e e133 7b3f
00000390: 3e12 b83d c2f6 7e3f cd0e 2b3d d3c6 7f3f
000003a0: 0cd5 9e3c aef3 7f3f 3a74 133c 59fd 7f3f
000003b0: bae2 883b 6eff 7f3f b625 fe3a e1ff 7f3f
000003c0: f844 0bbf 64cd 56bf d15b 7fbf 7ee0 90bd
000003d0: 619f 553f 8212 0dbf a46a 573f 4151 0a3f
000003e0: 1e35 e53e 30ea 643f 53e9 5a3e eb14 7a3f
000003f0: 7675 cc3d 98b8 7e3f 210d 3e3d 6ab9 7f3f

encoder_layers.0.attention.query_projection.weight f4 [24, 24]
1.018751e-39 8.88849e-40 1.01901e-39 1.022089e-39 2.86739e-40 1.019646e-39 -7.46456e-40 2.89463e-40
-1.023108e-39 3.329e-41 1.02166e-39 2.87521e-40 -3.33537e-40 7.30907e-40 -2.11918e-40 -3.98169e-40
-2.2053e-40 2.90125e-40 -6.2481e-40 2.91406e-40 6.26347e-40 2.87251e-40 5.85238e-40 2.90555e-40
-3.03657e-40 -7.16547e-40 -1.021007e-39 9.80274e-40 -1.21257e-40 -1.017564e-39 -4.7484e-41 -9.55611e-40
-5.1177e-41 -1.021433e-39 -4.8118e-41 -7.18482e-40 1.022522e-39 -8.15137e-40 -1.019606e-39 -7.232e-41
1.019688e-39 -7.2115e-40 -1.023e-39 -9.54925e-40 9.95125e-40 -6.4052e-40 -8.71624e-40 -7.21899e-40
1.023032e-39 1.019956e-39 3.5269e-41 1.86392e-40 5.45486e-40 1.022781e-39 1.13472e-40 5.68239e-40
-1.30914e-40 9.77379e-40 7.93083e-40 1.017704e-39 -1.022941e-39 7.38278e-40 -1.022963e-39 1.01844e-39
-1.02065e-39 1.022932e-39 1.021242e-39 8.12968e-40 -1.018175e-39 9.79318e-40 1.020661e-39 6.80869e-40
-1.39089e-40 -2.22324e-40 -5.76236e-40 1.01997e-39 1.021863e-39 -8.38463e-40 1.01696e-39 1.017483e-39
1.48908e-40 -5.47071e-40 -9.77235e-40 -1.38929e-40 2.37062e-40 1.018417e-39 -1.019997e-39 3.10403e-40
-3.9745e-41 1.02167e-39 7.6948e-41 1.017238e-39 6.47404e-40 1.021893e-39 -6.47588e-40 1.020036e-39
-7.23338e-40 -3.6183e-40 -5.08e-40 5.04837e-40 -4.1445e-41 -2.55241e-40 -8.3616e-40 -1.75117e-40
-1.019969e-39 2.9203e-40 5.43652e-40 -1.71031e-40 -8.27453e-40 -1.7371e-40 -1.021582e-39 5.37289e-40
-1.10729e-40 5.2246e-40 5.41453e-40 -5.20416e-40 -5.46994e-40 -1.70709e-40 5.41055e-40 -1.7233e-40
-8.61451e-40 1.19801e-40 1.56375e-40 3.47804e-40 -2.64265e-40 7.88634e-40 9.97059e-40 -3.747e-42
-1.02212e-39 4.52646e-40 7.86559e-40 2.91393e-40 3.11866e-40 2.42881e-40 -1.1594e-40 3.96703e-40
1.020224e-39 2.11557e-40 -1.66123e-40 2.47694e-40 -7.88228e-40 7.42e-41 2.11124e-40 2.12789e-40
4.0579e-41 -1.022319e-39 1.30878e-40 4.4289e-40 3.6674e-40 -7.2e-42 -8.49033e-40 3.65132e-40
1.84893e-40 1.020096e-39 -2.72513e-40 2.45765e-40 8.458e-41 -9.80252e-40 -1.021761e-39 5.51143e-40
-4.88315e-40 -1.019433e-39 1.0213e-39 -7.83191e-40 -2.94875e-40 -7.45204e-40 1.020501e-39 -8.19897e-40
2.0899e-41 3.88869e-40 1.32972e-40 5.11478e-40 -1.93898e-40 1.018905e-39 -2.80602e-40 8.47992e-40
1.53079e-40 -3.33457e-40 1.019652e-39 6.72737e-40 -1.022515e-39 5.83997e-40 1.017224e-39 -5.5593e-40
-1.021398e-39 6.58099e-40 1.017182e-39 4.61763e-40 -1.7066e-41 5.67599e-40 1.022263e-39 4.47569e-40
-3.45636e-40 -6.03131e-40 5.8358e-40 2.149e-40 4.98956e-40 1.48776e-40 1.04471e-40 -3.26874e-40
-1.017249e-39 -8.85192e-40 3.42699e-40 -6.75579e-40 2.35631e-40 3.09608e-40 9.42012e-40 -3.973e-40
-1.018525e-39 1.013786e-39 -2.4387e-41 -6.7752e-40 1.7179e-40 1.010758e-39 -7.05111e-40 -6.76695e-40
-4.7632e-40 -4.45753e-40 -6.17863e-40 5.13748e-40 8.7235e-40 9.26986e-40 8.14224e-40 -8.78446e-40
1.3071e-40 -8.85458e-40 1.02115e-39 -5.00371e-40 5.96262e-40 -4.98326e-40 -4.884e-42 1.019184e-39
-1.017937e-39 -4.99769e-40 1.017501e-39 -4.35894e-40 -1.023207e-39 7.40246e-40 1.020728e-39 -5.00617e-40
-4.25971e-40 4.29708e-40 -2.80474e-40 -8.3808e-40 -8.86167e-40 5.62526e-40 -1.015744e-39 -1.018958e-39
8.96789e-40 -8.8449e-40 4.54255e-40 -1.021697e-39 -1.017881e-39 -1.017075e-39 1.51528e-40 1.022038e-39
00000000: dd17 0b00 c0ad 0900 9618 0b00 2b21 0b00
00000010: 501f 0300 5c1a 0b00 d120 0880 e826 0300
00000020: 0224 0b80 cd5c 0000 f91f 0b00 7e21 0300
00000030: c4a1 0380 79f5 0700 be4e 0280 ef55 0480
00000040: bf66 0280 c028 0300 b7cd 0680 522c 0300
00000050: 00d2 0600 bd20 0300 685f 0600 f329 0300
00000060: 794e 0380 71cd 0780 271e 0b80 9bac 0a00
00000070: 0452 0180 8e14 0b80 5e84 0080 db67 0a80
00000080: a98e 0080 571f 0b80 2286 0080 d6d2 0780
00000090: 6022 0b00 45e0 0880 3f1a 0b80 99c9 0080
000000a0: 7a1a 0b00 46da 0780 b523 0b80 f165 0a80
000000b0: 01d6 0a00 82f9 0680 bc7d 0980 5cdc 0780
000000c0: cc23 0b00 391b 0b00 5162 0000 9607 0200
000000d0: 98f0 0500 1923 0b00 503c 0100 0530 0600
000000e0: ef6c 0180 89a4 0a00 cba2 0800 f214 0b00
000000f0: 8b23 0b80 050a 0800 9b23 0b80 ff16 0b00
00000100: 281d 0b80 8523 0b00 cf1e 0b00 39da 0800
00000110: 4216 0b80 f1a9 0a00 301d 0b00 fc69 0700
00000120: b983 0180 c06b 0280 5046 0680 431b 0b00
00000130: 8a20 0b00 4b21 0980 df12 0b00 5414 0b00
00000140: 189f 0100 03f5 0580 22a4 0a80 4783 0180
00000150: d594 0200 ef16 0b00 561b 0b80 4761 0300
00000160: cb6e 0080 0020 0b00 80d6 0000 a513 0b00
00000170: b30c 0700 9f20 0b00 360d 0780 721b 0b00
00000180: 5fe0 0780 a3f0 0380 1988 0580 487f 0500
00000190: 8873 0080 82c7 0280 e01a 0980 28e8 0180
000001a0: 421b 0b80 102e 0300 7beb 0500 c4dc 0180
000001b0: 9a02 0980 3ce4 0180 c11f 0b80 bed9 0500
000001c0: ab34 0180 68b0 0500 5ae5 0500 b5aa 0580
000001d0: ccf4 0580 dedb 0180 3ee4 0500 63e0 0180
000001e0: 6061 0980 f54d 0100 e9b3 0100 89c9 0300
000001f0: aae0 0280 6496 0800 65db 0a00 720a 0080
00000200: 4121 0b80 cbed 0400 9b90 0800 492c 0300
00000210: 5b65 0300 0ea5 0200 3243 0180 d951 0400
00000220: f81b 0b00 bc4d 0200 15cf 0180 78b2 0200
00000230: 4295 0880 d7ce 0000 874c 0200 2b51 0200
00000240: 1e71 0000 cf21 0b80 d66c 0100 99d2 0400
00000250: 52fe 0300 1214 0080 c23e 0980 d7f9 0300
00000260: 6803 0200 9d1b 0b00 a8f7 0280 18ad 0200
00000270: c6eb 0000 8bac 0a80 4120 0b80 5d00 0600
00000280: 3951 0580 c419 0b80 f81e 0b00 3887 0880
00000290: fe35 0380 531d 0880 be1c 0b00 8aed 0880
000002a0: 423a 0000 023c 0400 ac72 0100 cb91 0500
000002b0: 821c 0280 4b18 0b00 340e 0380 db3b 0900
000002c0: b9aa 0100 8ba1 0380 601a 0b00 5153 0700
000002d0: 5b22 0b80 f25b 0600 9b13 0b00 b50d 0680
000002e0: 3e1f 0b80 832a 0700 7d13 0b00 3507 0500
000002f0: 932f 0080 3c2e 0600 a721 0b00 a4df 0400
00000300: 7ec3 0380 4991 0680 c95a 0600 0e57 0200
00000310: e36e 0500 ba9e 0100 3923 0100 318f 0380
00000320: ad13 0b80 8ea3 0980 4ebb 0300 3d5b 0780
00000330: d890 0200 105f 0300 f241 0a00 8353 0480
00000340: 3c17 0b80 060a 0b00 fb43 0080 a660 0780
00000350: e1de 0100 9501 0b00 90ad 0780 5a5e 0780
00000360: c92f 0580 94da 0480 5aba 0680 1f98 0500
00000370: c27f 0900 0f18 0a00 badd 0800 c090 0980
00000380: 5e6c 0100 4ca4 0980 8d1e 0b00 d572 0580
00000390: 237e 0600 216d 0580 9d0d 0080 1219 0b00
000003a0: 9815 0b80 2771 0580 6114 0b00 18bf 0480
000003b0: 4924 0b80 810f 0800 601d 0b00 8473 0580
000003c0: 6fa3 0480 daad 0400 d90d 0380 3a20 0980
000003d0: 46a6 0980 1820 0600 7b0f 0b80 7118 0b80
000003e0: e2c3 0900 99a1 0980 47f2 0400 1320 0b80
000003f0: 7015 0b80 3113 0b80 66a6 0100 0721 0b00

encoder_layers.0.attention.query_projection.bias f4 [24]
2.90547e-40 1.0226e-39 1.02018e-39 1.019536e-39 6.37637e-40 2.27041e-40 -7.68092e-40 5.57366e-40
-6.03843e-40 -4.96152e-40 -1.017197e-39 -3.787e-41 4.2846e-40 8.056e-41 -8.6037e-41 8.23e-40
1.018623e-39 -3.06209e-40 -7.71622e-40 5.54506e-40 7.9718e-40 8.9208e-41 -5.22212e-40 -2.8966e-40
00000000: ed29 0300 9822 0b00 d91b 0b00 0d1a 0b00
00000010: 79f1 0600 e678 0200 215d 0880 b611 0600
00000020: 4593 0680 1267 0580 8813 0b80 9169 0080
00000030: 5faa 0400 92e0 0000 d6ef 0080 30f6 0800
00000040: 8217 0b00 9655 0380 f866 0880 bd09 0600
00000050: 37ae 0800 adf8 0000 b7af 0580 7427 0380

encoder_layers.0.attention.key_projection.weight f4 [24, 24]
-4.46231e-40 2.42335e-40 8.3226e-41 9.5853e-41 1.1217e-40 -1.6803e-41 5.22644e-40 1.1865e-40
-1.020634e-39 -3.47068e-40 8.40534e-40 1.0826e-41 2.65092e-40 -6.75e-41 1.58652e-40 2.9892e-41
6.37728e-40 -1.71194e-40 -6.57472e-40 -1.42548e-40 7.31287e-40 1.62496e-40 6.755e-40 1.174e-41
-2.3578e-41 -1.44513e-40 -2.30568e-40 -2.15862e-40 7.64205e-40 -6.885e-42 3.52254e-40 -7.7437e-41
5.614e-40 -1.53481e-40 -6.55833e-40 4.2996e-41 -9.60611e-40 -1.4102e-40 1.87904e-40 -8.6501e-41
-5.64188e-40 -1.51728e-40 8.47631e-40 2.2213e-40 8.55334e-40 6.06883e-40 -7.86382e-40 3.05248e-40
-6.4556e-41 1.29124e-40 2.1548e-41 8.1194e-41 -4.7812e-41 1.88426e-40 -9.9737e-41 1.19671e-40
-1.70684e-40 -5.20004e-40 2.60365e-40 2.03501e-40 -4.55458e-40 8.4005e-41 9.98897e-40 8.39512e-40
-3.33913e-40 -9.7284e-41 -7.6267e-41 1.04569e-40 -6.01512e-40 1.4908e-40 -6.32452e-40 1.53519e-40
-6.91139e-40 -3.04386e-40 -7.79928e-40 -2.29261e-40 6.5513e-40 4.78853e-40 5.75028e-40 -5.17914e-40
-7.31206e-40 -4.96088e-40 -8.62408e-40 7.10954e-40 -4.52126e-40 2.83492e-40 6.71619e-40 -3.75786e-40
-7.48707e-40 -2.46996e-40 7.5283e-40 2.30512e-40 -8.90968e-40 2.57759e-40 6.93601e-40 -6.26883e-40
9.51846e-40 -5.68929e-40 -4.8207e-41 7.80773e-40 -9.56893e-40 -3.4697e-40 -1.0201e-39 1.022069e-39
-8.2779e-41 -4.92924e-40 8.73029e-40 5.23703e-40 -6.78853e-40 -4.71485e-40 2.0083e-41 4.78609e-40
-1.018283e-39 7.38418e-40 -7.03123e-40 5.2707e-40 6.35834e-40 -4.15558e-40 -8.03161e-40 -1.09956e-40
1.01893e-39 4.78315e-40 1.01783e-39 1.018947e-39 -1.021761e-39 1.020518e-39 -1.020426e-39 1.017542e-39
-7.86313e-40 -6.30448e-40 -1.019243e-39 4.06291e-40 -1.017935e-39 -1.022581e-39 -1.018144e-39 5.19649e-40
1.019283e-39 4.43987e-40 -4.90026e-40 5.76341e-40 -2.7349e-40 4.97419e-40 8.8363e-41 4.00487e-40
9.82619e-40 5.64086e-40 8.56116e-40 -1.31045e-40 -1.47372e-40 -5.59911e-40 6.2838e-40 7.29346e-40
-7.85278e-40 -2.09979e-40 -9.27626e-40 -4.8189e-40 1.4375e-40 9.84863e-40 4.93975e-40 -7.48019e-40
9.09524e-40 7.33765e-40 -2.07033e-40 -5.62288e-40 1.018637e-39 -1.07592e-40 -8.60331e-40 9.38989e-40
1.9572e-40 -3.01638e-40 -2.16566e-40 -1.86067e-40 -6.98825e-40 8.8306e-41 2.19328e-40 -2.17029e-40
-7.87199e-40 -5.77556e-40 -2.9529e-40 4.961e-40 5.94931e-40 -4.6006e-41 9.21578e-40 -4.17105e-40
-7.3096e-41 2.4276e-41 -6.47094e-40 1.15662e-40 1.022527e-39 -4.51913e-40 3.72104e-40 -3.651e-41
-1.28575e-40 2.47055e-40 -1.18097e-40 4.07872e-40 1.021077e-39 3.48224e-40 -1.39516e-40 -2.42716e-40
-8.4198e-41 4.71624e-40 -1.020718e-39 -2.27131e-40 1.019557e-39 -1.47267e-40 -6.25841e-40 1.022784e-39
-4.0395e-41 -4.54741e-40 -1.66188e-40 9.1218e-41 6.5466e-40 2.31e-41 1.17809e-40 -1.59769e-40
1.04554e-40 -6.0201e-41 -2.3095e-41 -2.28592e-40 9.39184e-40 5.40694e-40 6.18312e-40 -2.94361e-40
-2.76281e-40 -7.32452e-40 -1.019518e-39 5.12081e-40 -1.019254e-39 -4.1837e-41 1.022509e-39 5.10164e-40
-1.022586e-39 8.37958e-40 1.76877e-40 4.77644e-40 -4.63387e-40 5.92605e-40 7.33835e-40 -1.02194e-40
1.36258e-40 -9.5948e-41 -1.56787e-40 -1.675e-42 -1.37074e-40 -3.3969e-41 -1.82186e-40 -1.67873e-40
-2.89815e-40 5.2389e-41 -4.51933e-40 -2.24746e-40 -4.96722e-40 -1.90878e-40 -7.95135e-40 6.86646e-40
00000000: e9db 0480 88a3 0200 00e8 0000 330b 0100
00000010: af38 0100 d72e 0080 ebb0 0500 bf4a 0100
00000020: 1d1d 0b80 7cc7 0380 1127 0900 2e1e 0000
00000030: f8e2 0200 2abc 0080 42ba 0100 5453 0000
00000040: baf1 0600 38dd 0180 c428 0780 5e8d 0180
00000050: 88f6 0700 f9c4 0100 055b 0700 ba20 0000
00000060: ba41 0080 d892 0180 bb82 0280 bc59 0280
00000070: 4b52 0800 3113 0080 f1d5 0300 ddd7 0080
00000080: f41c 0600 d8ab 0180 3224 0780 db77 0000
00000090: cb75 0a80 1b89 0180 cd0b 0200 21f1 0080
000000a0: ba24 0680 f5a6 0180 da3a 0900 356b 0200
000000b0: 5350 0900 be9b 0600 1d90 0880 e852 0300
000000c0: f5b3 0080 f267 0100 113c 0000 56e2 0000
000000d0: 4885 0080 410d 0200 0716 0180 984d 0100
000000e0: ccdb 0180 8fa9 0580 cbd5 0200 4737 0200
000000f0: a2f5 0480 2cea 0000 85e0 0a00 3824 0900
00000100: d0a2 0380 300f 0180 9ad4 0080 7f23 0100
00000110: c58c 0680 939f 0100 05e3 0680 f3ab 0100
00000120: 9d86 0780 8150 0380 1f7e 0880 167f 0280
00000130: 3c22 0700 d936 0500 f242 0600 bca3 0580
00000140: 4ef6 0780 e466 0580 0b64 0980 dabd 0700
00000150: 58ec 0480 4316 0300 3350 0700 8a17 0480
00000160: 1727 0880 86b0 0280 9532 0800 9382 0200
00000170: a8b3 0980 87ce 0200 7a8d 0700 7fd3 0680
00000180: 5c5d 0a00 f131 0680 6286 0080 7a80 0800
00000190: 6e6b 0a80 36c7 0380 a01b 0b80 1d21 0b00
000001a0: c1e6 0080 125e 0580 a681 0900 dfb3 0500
000001b0: 5e64 0780 4f22 0580 fc37 0000 2b36 0500
000001c0: 8f16 0b80 690a 0800 05a8 0780 42bd 0500
000001d0: 72ec 0600 6886 0480 e3be 0880 8332 0180
000001e0: 5d18 0b00 5935 0500 4c15 0b00 6918 0b00
000001f0: 4120 0b80 ca1c 0b00 881c 0b80 7e14 0b00
00000200: ec8f 0880 6fdd 0680 3c19 0b80 936c 0400
00000210: 9715 0b80 8a22 0b80 2c16 0b80 92a8 0500
00000220: 5919 0b00 a8d5 0400 fe55 0580 9b46 0600
00000230: 61fa 0280 9a6a 0500 52f6 0000 655c 0400
00000240: 24b3 0a00 7124 0600 8152 0900 4d6d 0180
00000250: d09a 0180 ce18 0680 abd7 0600 1ff1 0700
00000260: 098d 0880 5649 0280 d819 0a80 503f 0580
00000270: b790 0100 66b9 0a00 0061 0500 2c25 0880
00000280: 62e7 0900 70fd 0700 2041 0280 6e1f 0680
00000290: 8c17 0b00 ec2b 0180 415e 0980 8539 0a00
000002a0: 9621 0200 d848 0380 b35b 0280 ae06 0280
000002b0: 0a9c 0780 29f6 0000 6663 0200 fd5c 0280
000002c0: 6492 0880 fe49 0680 2637 0380 ed66 0500
000002d0: 6d7a 0600 3f80 0080 fc08 0a00 b88a 0480
000002e0: c3cb 0080 ac43 0000 d60b 0780 6b42 0100
000002f0: 6422 0b00 c0eb 0480 460d 0400 c665 0080
00000300: 6a66 0180 b0b0 0200 3549 0180 fb70 0400
00000310: 591e 0b00 b5ca 0300 ea84 0180 98a4 0280
00000320: b6ea 0080 b222 0500 591d 0b80 2679 0280
00000330: 1c1a 0b00 859a 0180 97d0 0680 1b23 0b00
00000340: 9b70 0080 a2f3 0480 44cf 0180 47fe 0000
00000350: ed20 0700 6540 0000 6748 0100 5fbd 0180
00000360: 7423 0100 d1a7 0080 6140 0080 397d 0280
00000370: 103a 0a00 3ce3 0500 9abb 0600 8f34 0380
00000380: 2902 0380 c7f9 0780 001a 0b80 7993 0500
00000390: 4419 0b80 a074 0080 5722 0b00 218e 0500
000003a0: 8e22 0b80 e31f 0900 10ed 0100 7a33 0500
000003b0: bc0b 0580 f173 0600 a2fd 0700 e01c 0180
000003c0: d57b 0100 770b 0180 0fb5 0180 ab04 0080
000003d0: 1b7e 0180 b15e 0080 dcfb 0180 f6d3 0180
000003e0: e327 0380 0a92 0000 ceeb 0480 8072 0280
000003f0: a968 0580 1714 0280 83a8 0880 177a 0700

encoder_layers.0.attention.key_projection.bias f4 [24]
1.91011e-40 2.49444e-40 1.02654e-40 5.47012e-40 2.90137e-40 2.02425e-40 -2.34374e-40 7.5475e-41
-1.53354e-40 -8.4175e-41 -1.88134e-40 1.19094e-40 7.43637e-40 1.6018e-40 7.72312e-40 7.0328e-41
3.08785e-40 3.743e-41 -2.6766e-41 -1.5415e-40 4.7438e-40 4.86538e-40 5.841e-41 -1.3612e-41
00000000: 7614 0200 59b7 0200 281e 0100 d9f4 0500
00000010: c928 0300 4734 0200 578d 0280 65d2 0000
00000020: 7dab 0180 a5ea 0080 710c 0280 fc4b 0100
00000030: f518 0800 84be 0100 e468 0800 0cc4 0000
00000040: c45c 0300 5768 0000 9d4a 0080 b5ad 0180
00000050: 612a 0500 454c 0500 d3a2 0000 f225 0080

encoder_layers.0.attention.value_projection.weight f4 [24, 24]
-0.04828109 -0.003755251 0.0014942718 0.011709288 0.002376176 0.06480094 0.0047309343 -0.09356883
0.02940019 -0.15384245 -0.023600692 -0.062256116 0.008925445 -0.08203466 0.10359038 -0.1000563
0.070447624 0.14484856 -0.18732964 0.02322178 -0.01126402 0.09660057 -0.036809098 0.042855915
-0.018052494 -0.018943358 0.0063907607 -0.0061380444 -0.15928416 -0.060682744 0.0054308567 0.073752224
-0.035964023 -0.08515262 0.025628455 -0.13115232 0.012731866 0.101512715 0.022188911 -0.056316946
0.03804658 0.04405926 -0.068426296 -0.08539818 -0.085218124 0.04629549 0.00507849 -0.07609098
-0.01693341 -0.08774132 0.033731982 -0.012476346 0.07544514 0.07402544 0.01632611 0.053808905
0.0041240654 0.07235397 -0.04073118 0.05737175 0.011067525 0.051873617 0.008699088 -0.097039044
0.04621023 0.069509715 -0.12755524 -0.10847119 -0.046322417 -0.057407856 0.011650297 0.09501047
0.002123848 0.11552459 0.0017248027 -0.0029222157 -0.073510244 -0.040525977 -0.01390636 -0.07220086
-0.009760788 -0.00043974552 0.0076191896 0.12467393 0.0077492786 -0.018664032 0.007246766 -0.041011117
0.023452852 -0.13179964 -0.051696815 0.027567748 -0.032713465 0.036829542 -0.0030116616 0.10849208
0.06955261 0.11342032 0.027091356 0.022751788 0.0771141 0.043187913 0.08045109 -0.004556114
0.05781428 0.006551443 0.023345402 0.16126072 0.028590115 -0.08238636 0.006385397 -0.12176972
0.07014977 -0.06886009 -0.07901145 0.101882316 -0.07382803 -0.01634051 -0.0098494785 -0.13236591
-0.005771836 -0.05208557 -0.018390568 -0.0009862746 -0.031475347 0.096548736 0.0067352825 0.10648313
-0.00250609 0.053585242 0.03231379 0.0297021 -0.020466942 -0.08293532 -0.019077346 0.09049353
-0.035200704 0.077427745 0.12573376 0.03195867 0.016911153 -0.120756686 -0.026998678 -0.094139576
0.0038480097 0.08374781 0.024145858 0.0052372967 -1.8303235e-05 -0.03200048 -0.02842156 0.011393279
-0.030942323 0.01922968 0.0515039 0.06324216 -0.019920062 -0.09235042 0.02751536 0.12246913
-0.045908242 0.08931012 0.099994265 -0.029660475 -0.038541555 -0.038852695 -0.03740349 0.04079649
-0.0032774084 0.09057797 0.0028931226 0.004027991 0.053253822 0.043003574 -0.01602028 0.038057595
0.0007134617 -0.043819666 0.004399343 -0.07174983 -0.0024147092 -0.038838744 -0.021364292 0.052092582
-0.018430453 0.08957989 0.042958125 -0.01063439 0.034471463 0.082165614 -0.01269182 0.058564868
0.0020226773 0.08913031 0.014400977 0.030704344 -0.08639379 -0.05867561 0.05313249 -0.15742253
-0.056542892 0.0043204683 0.11016087 -0.04204283 -0.06792416 -0.039123304 0.061776258 0.18783742
-0.061965108 -0.028026503 0.18802463 -0.1811078 0.0637683 0.06990047 0.060643077 -0.103810504
0.0015455249 0.013216316 -0.012415781 -0.00091460755 -0.038337022 0.011117895 0.020249473 0.034429863
0.030307623 0.057294615 -0.05693755 0.0064814715 -0.015246903 -0.02594622 -0.020944286 -0.04776264
-0.01814739 -0.12532957 -0.0038896552 -0.051042046 0.033558402 -0.0054952097 -0.0093857255 -0.06540394
0.060443476 -0.12044798 0.044652555 -0.029911228 0.03942502 0.037707932 0.041709848 0.03801331
-0.045956954 0.070450366 -0.048361573 0.1355646 -0.013061342 -0.017605638 -0.066439085 0.11361842
00000000: 64c2 45bd a81a 76bb 71db c33a 50d8 3f3c
00000010: 9eb9 1b3b 5bb6 843d f405 9b3b 04a1 bfbd
00000020: abd8 f03c e088 1dbe 3d56 c1bc 4500 7fbd
00000030: 083c 123c ca01 a8bd 3127 d43d 51ea ccbd
00000040: d846 903d 2e53 143e 57d3 3fbe 9a3b be3c
00000050: b98c 38bc 85d6 c53d 23c5 16bd af89 2f3d
00000060: d3e2 93bc 1a2f 9bbc 9669 d13b a621 c9bb
00000070: 631b 23be 788e 78bd 54f5 b13b 680b 973d
00000080: 034f 13bd 7f64 aebd c4f2 d13c cb4c 06be
00000090: 5199 503c e6e5 cf3d 85c5 b53c 99ac 66bd
000000a0: bbd6 1b3d 7c77 343d 1623 8cbd 3ee5 aebd
000000b0: d786 aebd 57a0 3d3d 7669 a63b 96d5 9bbd
000000c0: efb7 8abc b9b1 b3bd 8c2a 0a3d 9769 4cbc
000000d0: fb82 9a3d a69a 973d 56be 853c ba66 5c3d
000000e0: 2b23 873b 512e 943d bdd5 26bd a4fe 6a3d
000000f0: 9054 353c 6e79 543d 9f86 0e3c 68bc c6bd
00000100: f046 3d3d 1c5b 8e3d d79d 02be 2526 debd
00000110: 93bc 3dbd 8024 6bbd e3e0 3e3c d994 c23d
00000120: 4230 0b3b 2898 ec3d c612 e23a a582 3fbb
00000130: 8a8c 96bd 91fe 25bd 80d7 63bc 0bde 93bd
00000140: b6eb 1fbc a58d e6b9 65aa f93b 0c55 ff3d
00000150: a9ed fd3b 50e5 98bc 4776 ed3b 46fb 27bd
00000160: 3220 c03c 7cf6 06be 0ac0 53bd c2d5 e13c
00000170: 8efe 05bd 93da 163d 4c5f 45bb 1831 de3d
00000180: 9971 8e3d ea48 e83d b1ee dd3c f561 ba3c
00000190: ffed 9d3d cfe5 303d 8bc3 a43d 744b 95bb
000001a0: abce 6c3d 7dad d63b db3e bf3c 8821 253e
000001b0: d135 ea3c 2eba a8bd 983c d13b 6762 f9bd
000001c0: afaa 8f3d 8506 8dbd c1d0 a1bd ada7 d03d
000001d0: 2633 97bd 89dc 85bc b55f 21bc ee8a 07be
000001e0: ab21 bdbb ae57 55bd d1a7 96bc e245 81ba
000001f0: 4bec 00bd 58bb c53d a5b3 dc3b d413 da3d
00000200: 373d 24bb 337c 5b3d 775b 043d d251 f33c
00000210: 4aaa a7bc fed9 a9bd 1848 9cbc ac54 b93d
00000220: 9d2e 10bd 7092 9e3d 5ac0 003e 18e7 023d
00000230: 4289 8a3c 484f f7bd 552c ddbc 40cc c0bd
00000240: e42e 7c3b f983 ab3d 89cd c53c a19d ab3b
00000250: e689 99b7 ef12 03bd 55d4 e8bc e0aa 3a3c
00000260: c17a fdbc 9087 9d3c c1f5 523d 1b85 813d
00000270: 662f a3bc 3822 bdbd e467 e13c 18d1 fa3d
00000280: 480a 3cbd 39e8 b63d cbc9 cc3d 86fa f2bc
00000290: c0dd 1dbd 0124 1fbd 6734 19bd 381a 273d
000002a0: cac9 56bb f180 b93d 8b9a 3d3b 3dfd 833b
000002b0: ae20 5a3d 8424 303d f63c 83bc 48e2 1b3d
000002c0: 9b07 3b3a 407c 33bd 5d28 903b 93f1 92bd
000002d0: 1940 1ebb 6015 1fbd 2b04 afbc 085f 553d
000002e0: 76fb 96bc a975 b73d dcf4 2f3d dd3b 2ebc
000002f0: f331 0d3d 7246 a83d 5af1 4fbc b7e1 6f3d
00000300: e58e 043b f489 b63d 13f2 6b3c ad87 fb3c
00000310: 3aef b0bd d655 70bd 74a1 593d 5f33 21be
00000320: 8599 67bd b792 8d3b 069c e13d 1a35 2cbd
00000330: d21b 8bbd c23f 20bd 1a09 7d3d 7458 403e
00000340: 20cf 7dbd d697 e5bc 8789 403e 5374 39be
00000350: f498 823d fa27 8f3d e064 783d 9a9a d4bd
00000360: 3693 ca3a 3f89 583c 8f6b 4bbc 46c2 6fba
00000370: 4807 1dbd d527 363c 39e2 a53c 5406 0d3d
00000380: b147 f83c c2ad 6a3d 5937 69bd 8662 d43b
00000390: 25ce 79bc 2b8d d4bc 5a93 abbc c2a2 43bd
000003a0: d6a9 94bc 6556 00be 96e9 7ebb 7711 51bd
000003b0: 8974 093d 2911 b4bb 96c6 19bc 80f2 85bd
000003c0: 9493 773d 6ead f6bd 99e5 363d 6408 f5bc
000003d0: 217c 213d a273 1a3d f2d7 2a3d d8b3 1b3d
000003e0: 5c3d 3cbd 4848 903d c916 46bd 72d1 0a3e
000003f0: 3dff 55bc b339 90bc 3711 88bd c6b0 e83d

encoder_layers.0.attention.value_projection.bias f4 [24]
0.108090594 -0.08240878 -0.16790113 -0.08079653 -0.09610152 0.08854789 -0.13413675 -0.017439932
-0.049535453 0.0012807035 0.09760878 -0.026054356 -0.024623385 -0.14482573 -0.026960455 -0.06263472
-0.006653382 -0.088940784 -0.022129482 -0.045573276 -0.059367806 -0.13584939 -0.049303796 -0.10784536
00000000: 9a5e dd3d efc5 a8bd 46ee 2bbe a778 a5bd
00000010: e0d0 c4bd 9958 b53d 255b 09be 30de 8ebc
00000020: b0e5 4abd 47dd a73a 1de7 c73d f26f d5bc
00000030: fbb6 c9bc 324d 14be 2cdc dcbc a246 80bd
00000040: 9d04 dabb 9626 b6bd e348 b5bc 0bab 3abd
00000050: a82b 73bd 1a1c 0bbe c7f2 49bd 07de dcbd

encoder_layers.0.attention.out_projection.weight f4 [24, 24]
0.0029122403 -0.01176013 -0.0019198626 0.00081770367 0.00043344774 -0.0008307743 -0.0081668915 0.00312172
-0.015152526 -0.0012469423 0.00641427 -0.0012311193 -0.0057909084 0.0020090614 0.0010161026 -0.013847972
-0.0005181698 -0.010088863 -0.0015681884 -0.0059099197 -0.0005490683 -0.0050427085 0.0025768767 -0.0006814554
-0.0006449507 4.9279555e-05 -0.0024613794 -0.0018435969 -0.0029440806 -0.0013668374 -0.007997829 -0.003263534
0.0002467523 0.006101029 -0.0041434034 -4.111023e-05 0.00021609853 -0.013318277 -0.0015505813 -0.0030063596
0.00057576987 -0.0066643036 -0.0032957576 -0.0057631433 0.0042079343 0.0058903378 -0.003288121 -0.0069543277
0.0033408762 -0.014253811 -0.0020582685 0.0011195124 0.0003314754 -0.00048724576 -0.0079784645 0.004401757
-0.018684823 -0.0028547496 0.008887129 -0.0015619168 -0.006780886 0.005480571 0.0017993179 -0.015878988
-0.00023648544 -0.010214155 -0.0009838747 -0.005749925 -0.0017246437 -0.0070390687 0.003666959 0.00034443135
0.0027181671 -0.010630014 -0.001752771 0.00057341397 7.684349e-05 -0.0008721634 -0.008073975 0.0025181784
-0.014474922 -0.00072704593 0.005585779 -0.0011607737 -0.0053579183 0.0011012802 0.0006567696 -0.013095493
-0.00036549312 -0.009749527 -0.0016269819 -0.0057932828 -0.0001033943 -0.003983397 0.0021961948 -0.001092945
-0.00012263194 0.0054826387 -0.0041834703 -0.0024643098 -0.004325462 -0.0010069105 -0.012015405 -0.0005061288
0.014799543 0.0092298705 0.016971 -0.00061723124 0.0023481746 -0.024468426 -0.00085158675 -0.030053435
0.0011615301 -0.011633263 -0.0045867 -0.008695346 0.0017236323 0.020520857 -0.006050153 -0.009325883
0.0029832912 -0.0140896235 -0.0021674526 0.00076551555 -0.0002546802 -0.0004920754 -0.008370283 0.0039454177
-0.017095394 -0.0021953762 0.008549483 -0.0014613151 -0.0064820675 0.004474205 0.0016068548 -0.015365926
8.54106e-05 -0.010303195 -0.0013523691 -0.0060591595 -0.0014077688 -0.0064643594 0.0029480185 -0.00039290555
0.0040530637 -0.01489907 1.7052145e-06 0.00019019173 0.0007179363 -0.0030710876 -0.013782984 -0.0047496497
-0.0023809455 0.0122811 0.0063720816 -0.00072286767 -0.008254469 -0.033068858 -0.004276018 -0.021611648
-0.0013823275 -0.015043198 -0.004054355 -0.010079826 0.0049481904 0.006978149 -0.00064492575 -0.0040701074
0.0004421039 -0.005217953 -0.002998548 -0.0009206166 -0.0024023084 -0.00032957058 -0.0075155143 -0.00013865312
-0.007858867 0.0022002491 0.0031161795 -0.0008128618 -0.0025036957 -0.0043707993 0.00041397332 -0.007132233
0.0008755155 -0.007444034 -0.0023266925 -0.0053364537 0.0010871437 0.0014726405 -0.00084744865 -0.004165479
0.002131057 -0.008484547 -0.0020165646 -9.717786e-06 -0.00070202403 -0.0008415776 -0.008175657 0.0014442214
-0.01155849 0.00044545226 0.0038624038 -0.0009862161 -0.0043311617 -0.0013742426 0.0002542277 -0.0111755505
-4.034629e-05 -0.0091287065 -0.0018615309 -0.005897871 0.0005787702 -0.0022694475 0.0010656146 -0.0022725596
0.015652426 -0.07707534 0.0077022803 0.0033037278 0.0076022865 -0.0059936796 -0.032588977 -0.047725063
-0.042267017 -0.010490643 0.029281667 -0.0059148516 -0.002820772 -0.09578981 -0.036881674 -0.08649107
-0.0043574916 -0.03832381 -0.017637033 -0.026374009 -0.0050351117 -0.06783771 0.003305184 -0.0010416697
-0.09146116 -0.06429845 -0.08814047 -0.05570981 -0.114156164 0.045175202 0.0550845 -0.05095936
0.1283353 -0.055188745 -0.042821694 -0.06238757 0.11804512 0.16584486 0.03343091 0.17403196
00000000: 49db 3e3b 8fad 40bc e6a3 fbba 2a5b 563a
00000010: 5f40 e339 52c8 59ba 6dce 05bc c595 4c3b
00000020: 4d42 78bc 7170 a3ba cc2e d23b 825d a1ba
00000030: a9c1 bdbb 75aa 033b bf2e 853a 9be2 62bc
00000040: c9d5 07ba c24b 25bc ac8b cdba 00a8 c1bb
00000050: 5aef 0fba 4e3d a5bb d1e0 283b b3a3 32ba
00000060: e911 29ba 85b1 4e38 184f 21bb d9a4 f1ba
00000070: 7af1 40bb 7427 b3ba 5309 03bc 04e1 55bb
00000080: 885e 8139 24eb c73b 63c5 87bb c66d 2cb8
00000090: 8298 6239 e734 5abc e03c cbba 5806 45bb
000000a0: 43ef 163a 3b60 dabb a3fd 57bb c0d8 bcbb
000000b0: b6e2 893b bc03 c13b 847d 57bb 21e1 e3bb
000000c0: 9af2 5a3b d188 69bc 04e4 06bb 9abc 923a
000000d0: e0c9 ad39 0575 ffb9 1bb8 02bc 9d3c 903b
000000e0: ea10 99bc c016 3bbb 529b 113c 3bb9 ccba
000000f0: 3232 debb 5d96 b33b 17d7 eb3a a714 82bc
00000100: 14f9 77b9 4559 27bc 5bf5 80ba de69 bcbb
00000110: 710d e2ba fda7 e6bb 5d51 703b cb94 b439
00000120: 4723 323b 8329 2ebc 3cbd e5ba 2951 163a
00000130: 0927 a138 e5a1 64ba b548 04bc 0608 253b
00000140: 3928 6dbc 3a97 3eba e908 b73b 1a25 98ba
00000150: 7a91 afbb d558 903a 102b 2c3a 7b8e 56bc
00000160: a89f bfb9 7bbc 1fbc 7440 d5ba 94d5 bdbb
00000170: 64d5 d8b8 2887 82bb 09ee 0f3b 2641 8fba
00000180: c396 00b9 b5a7 b33b 7e15 89bb 4280 21bb
00000190: 9bbc 8dbb 4ffa 83ba 43dc 44bc bbad 04ba
000001a0: c879 723c e238 173c c406 8b3c b0cd 21ba
000001b0: d5e3 193b 0272 c8bc 053d 5fba 9f32 f6bc
000001c0: 7c3e 983a 7199 3ebc 074c 96bb ed76 0ebc
000001d0: 81eb e13a 5b1b a83c 5d40 c6bb 97cb 18bc
000001e0: 5283 433b 2ad8 66bc d20b 0ebb e1ac 483a
000001f0: 9986 85b9 9ffe 00ba 8323 09bc 9048 813b
00000200: a40b 8cbc 4de0 0fbb 2113 0c3c 9989 bfba
00000210: 8667 d4bb 5a9c 923b 1a9d d23a 5dc1 7bbc
00000220: 771e b338 bbce 28bc fa41 b1ba ea8b c6bb
00000230: e284 b8ba fad2 d3bb 8b33 413b e4fe cdb9
00000240: 90cf 843b 3b1b 74bc b9de e435 346e 4739
00000250: e433 3c3a 4d44 49bb 06d2 61bc f3a2 9bbb
00000260: a309 1cbb ab36 493c e5cc d03b d47e 3dba
00000270: c13d 07bc 3673 07bd d71d 8cbb e90a b1bc
00000280: 372f b5ba bf77 76bc 65da 84bb db25 25bc
00000290: 6e24 a23b f5a8 e43b 3c10 29ba 895e 85bb
000002a0: 2eca e739 5dfb aabb 4a83 44bb 8955 71ba
000002b0: 0c70 1dbb 37ca acb9 b444 f6bb 6a63 11b9
000002c0: 7ac2 00bc 0e32 103b d138 4c3b 3b16 55ba
000002d0: 0b15 24bb ec38 8fbb 8f0a d939 82b5 e9bb
000002e0: da82 653a 15ed f3bb 6c7b 18bb 6bdd aebb
000002f0: 7d7e 8e3a 9e05 c13a 5127 5eba 927e 88bb
00000300: 34a9 0b3b c502 0bbc 5728 04bb 9309 23b7
00000310: 0908 38ba 519d 5cba 31f3 05bc 074c bd3a
00000320: d25f 3dbc 978b e939 6220 7d3b ec43 81ba
00000330: 6bec 8dbb ee1f b4ba dd49 8539 a819 37bc
00000340: 8039 29b8 9290 15bc 9dfe f3ba ee42 c1bb
00000350: 9cb8 173a 03bb 14bb 18ac 8b3a 39ef 14bb
00000360: 8439 803c add9 9dbd 6963 fc3b 5b83 583b
00000370: 9a1c f93b a166 c4bb 057c 05bd 5b7b 43bd
00000380: 2e20 2dbd f2e0 2bbc 1be0 ef3c 5fd1 c1bb
00000390: b3dc 38bb 732d c4bd 3d11 17bd 3b22 b1bd
000003a0: 4ac9 8ebb 6df9 1cbd 8a7b 90bc 4e0e d8bc
000003b0: 94fd a4bb 7fee 8abd c99b 583b a388 88ba
000003c0: fd4f bbbd e8ae 83bd fe82 b4bd f82f 64bd
000003d0: b5ca e9bd a209 393d 49a0 613d c3ba 50bd
000003e0: 546a 033e 980d 62bd cd65 2fbd 1c8a 7fbd
000003f0: a4c1 f13d 3cd3 293e daee 083d 6f35 323e

encoder_layers.0.attention.out_projection.bias f4 [24]
0.052999564 0.01673742 0.058798447 0.04482982 0.10018966 0.055189263 0.09043215 0.0253979
0.02933269 -0.023297464 0.059012845 0.102376245 -0.06647717 0.039716873 -0.033994336 0.03736893
0.025603203 0.0155666135 0.078595676 -0.0031407475 0.08935484 0.0053465804 -0.08955024 0.0301561
00000000: 1216 593d ea1c 893c a4d6 703d 799f 373d
00000010: 3d30 cd3d 230e 623d 7e34 b93d 420f d03c
00000020: 1c4b f03c 53da bebc 74b7 713d a3aa d13d
00000030: 2f25 88bd 29ae 223d a53d 0bbd 2a10 193d
00000040: cfbd d13c 1c0b 7f3c c5f6 a03d 00d5 4dbb
00000050: acff b63d 5e32 af3b 1e66 b7bd ed09 f73c

encoder_layers.0.feed_forward.0.weight f4 [8, 24]
8.706635e-05 0.018488517 -0.00059885456 0.00017063513 0.0036827812 -0.0043427325 0.023123413 -0.00060632837
0.0005267497 0.006420816 -0.027541779 0.03155488 0.025422024 0.0012077976 0.004393221 -0.046141908
0.027634207 0.08194324 -0.009904979 0.007785428 -0.005123723 0.0006108937 0.0053379945 0.057316538
0.00040440616 0.004220243 -0.0002770589 0.0004903775 0.010490703 -0.003281547 0.02772321 0.00056892325
0.0010236498 0.040363062 -0.04601241 0.014467825 0.012550703 0.0009751719 -0.09558087 -0.082399234
0.029607423 -0.04344174 -0.0059859306 0.005588208 -0.071382515 0.0012985198 -0.040126942 -0.018476814
-0.0006799662 -0.031246781 -0.0022106078 -0.00049945037 0.0034393829 -0.01032333 0.059343524 0.0026666315
0.0005118527 -0.041115593 -0.03131359 0.023654427 0.008806265 -0.0036278148 0.06017836 -0.08542466
0.094197966 -0.027852042 -0.027237127 0.021037448 -0.13633855 -0.000344347 -0.03864313 0.01587701
2.5266285e-05 0.03312515 -0.0010108982 0.0001729866 0.020596966 -0.006325501 0.055063155 0.0005439226
0.0007573381 -0.018414281 -0.047542717 -0.008420088 0.06501649 0.0034228547 -0.12942597 -0.06943962
-0.019340115 0.038514018 -0.013917994 0.0005712163 -0.03710995 0.00078534195 -0.013008558 -0.03210477
0.0003116445 0.0503291 2.1757465e-05 0.000411989 0.0088405 -0.0038227339 0.020672794 -0.00035528833
0.00031885694 0.21030435 -0.03330117 0.016055645 -0.0022602186 -0.002670251 0.024387939 -0.16474049
0.033151913 0.035940252 -0.04157947 0.03973467 -0.002030833 0.00071429857 0.010772692 -0.052577965
-1.5320846e-06 0.052290436 -0.00067955605 0.00017570685 0.007222325 -0.0053601023 0.019397534 -0.0006014224
0.00030711127 -0.02082596 -0.0714599 0.09312811 -0.040891018 0.006372554 0.05840256 -0.03292836
0.0641276 0.10759908 -0.02163598 0.017315177 -0.0038811595 0.0002233838 0.07273442 0.024638018
0.0012837566 0.06340122 0.00059963565 0.0012919587 0.012687009 -0.0028147323 0.021174526 0.0022378964
0.0016767633 0.020701172 -0.08403745 0.027211752 -0.107605584 0.0027623384 -0.029610123 -0.07065486
-0.008029929 0.026785538 -0.0105496505 -0.0030233215 -0.025159981 0.002614198 0.030331854 -0.042530976
-0.00046799472 0.034297556 0.00070472475 -6.462055e-05 -0.050479274 0.0054896954 -0.08563627 -0.00036478243
-0.0019752404 -0.12703554 0.11391824 0.0012069345 0.009539766 -0.0010957541 0.07467247 0.1264343
0.0075741573 0.020707898 0.003956691 -0.004417418 -0.13602915 -0.0020971769 0.15284225 -0.0052889525
00000000: 6497 b638 3b75 973c 73fc 1cba 85ec 3239
00000010: d15a 713b 7b4d 8ebb 506d bd3c 02f2 1eba
00000020: 9315 0a3a b565 d23b 4c9f e1bc b13f 013d
00000030: d941 d03c f64e 9e3a 02f5 8f3b 4cff 3cbd
00000040: 2261 e23c dbd1 a73d 7e48 22bc e71c ff3b
00000050: e7e4 a7bb 6224 203a 58ea ae3b bfc4 6a3d
00000060: 7a06 d439 f749 8a3b 3742 91b9 ad8c 003a
00000070: 33e1 2b3c 390f 57bb c91b e33c cb23 153a
00000080: fd2b 863a bd53 253d 8277 3cbd 750a 6d3c
00000090: 77a1 4d3c aea2 7f3a e7bf c3bd eec0 a8bd
000000a0: 448b f23c f7ef 31bd a025 c4bb 491d b73b
000000b0: ff30 92bd 1833 aa3a 265c 24bd b05c 97bc
000000c0: c23f 32ba 40f9 ffbc d8df 10bb 8ced 02ba
000000d0: 4567 613b 2f23 29bc 3212 733d a7c2 2e3b
000000e0: da2d 063a d368 28bd ae42 00bd eec6 c13c
000000f0: 2748 103c a2c0 6dbb 967d 763d 20f3 aebd
00000100: ddea c03d f729 e4bc 6520 dfbc ba56 ac3c
00000110: 559c 0bbe 7989 b4b9 4248 1ebd 8110 823c
00000120: eff2 d337 3dae 073d 1d80 84ba bd63 3539
00000130: f8ba a83c 2646 cfbb e789 613d 0796 0e3a
00000140: 1988 463a 8cd9 96bc 27bc 42bd 69f4 09bc
00000150: 5e27 853d f951 603b 3e88 04be 5c36 8ebd
00000160: 296f 9ebc e0c0 1d3d 4c08 64bc adbd 153a
00000170: 9a00 18bd 68df 4d3a d921 55bc 4b80 03bd
00000180: 3764 a339 e325 4e3d cd83 b637 3a00 d839
00000190: bfd7 103c d586 7abb fe59 a93c fe45 bab9
000001a0: 412c a739 065a 573e cf66 08bd 2187 833c
000001b0: 2d20 14bb 61ff 2ebb 37c9 c73c bbb1 28be
000001c0: 4dca 073d 1636 133d 3c4f 2abd d2c0 223d
000001d0: b917 05bb c43f 3b3a f27f 303c fe5b 57bd
000001e0: 07a2 cdb5 7f2e 563d 3c24 32ba f33d 3839
000001f0: 41a9 ec3b cca3 afbb 94e7 9e3c c6a8 1dba
00000200: c703 a139 349b aabc 9159 92bd f3b9 be3d
00000210: 577d 27bd dcd0 d03b 8637 6f3d e3df 06bd
00000220: 5555 833d e85c dc3d f03d b1bc 8fd8 8d3c
00000230: 0d5b 7ebb 223c 6a39 c9f5 943d abd5 c93c
00000240: b943 a83a 80d8 813d de30 1d3a f156 a93a
00000250: 2cdd 4f3c 5f77 38bb 3376 ad3c aca9 123b
00000260: d7c6 db3a 8195 a93c d41b acbd 2eeb de3c
00000270: 5160 dcbd 5908 353b ee90 f2bc 7fb3 90bd
00000280: f78f 03bc 586d db3c 71d8 2cbc eb22 46bb
00000290: 4e1c cebc f752 2b3b 827a f83c f634 2ebd
000002a0: 305d f5b9 987b 0c3d 47bd 383a e584 87b8
000002b0: 5bc3 4ebd e7e2 b33b 1262 afbd 4540 bfb9
000002c0: 0973 01bb 9b15 02be f74d e93d 0032 9e3a
000002d0: ae4c 1c3c 689f 8fba e1ed 983d fe77 013e
000002e0: a330 f83b 9ca3 a93c 21a7 813b fdbf 90bb
000002f0: 3a4b 0bbe ca70 09bb ae82 1c3e f34e adbb

encoder_layers.0.feed_forward.0.bias f4 [8]
0.07905382 0.05423573 0.036528096 -0.027592182 -0.0926541 0.044527765 -0.023037996 -0.035944235
00000000: f8e6 a13d 4926 5e3d 7c9e 153d 0009 e2bc
00000010: 6fc1 bdbd bf62 363d 2eba bcbc 433a 13bd

encoder_layers.0.feed_forward.3.weight f4 [24, 8]
0.0016064362 0.007753125 0.0011023675 0.0035450005 -0.0024877263 -0.0011770799 0.002483513 -0.011321216
0.0017441778 0.007825546 0.0011877278 0.0037320498 -0.0022691572 -0.0009789702 0.0028058472 -0.011365645
0.0020659138 0.008329797 0.0015432381 0.004005566 -0.0023207199 -0.0007221465 0.0029742122 -0.01101619
0.0016725012 0.007809525 0.00096903456 0.0036214374 -0.0023891034 -0.001123719 0.00255643 -0.0114289895
0.009065113 0.036022034 0.0058581745 0.014238832 -0.005755553 0.0018690845 0.00796273 -0.015551626
0.001765777 0.007906874 0.001226744 0.0037868747 -0.0024265088 -0.00088342145 0.0026918892 -0.011084138
0.0019427685 0.008291 0.001480575 0.0038430959 -0.0023388886 -0.0009391331 0.0027953286 -0.010928559
0.0018169561 0.007903058 0.0012029611 0.0036876674 -0.0023360995 -0.0009381319 0.0026607034 -0.011097002
0.0019328191 0.008055165 0.0014590503 0.003845997 -0.0023786472 -0.0008069273 0.0028408242 -0.011057119
-0.017341208 0.0042060367 -0.008090534 -0.0033890163 -0.0026906298 -0.018170975 -0.005420284 -0.033555686
0.023034425 0.040658094 0.036904994 -0.026276033 -0.088877104 -0.05211086 -0.075474784 0.0005683594
0.0046659918 0.027182773 0.0080640735 0.014559009 -0.009137884 -0.0020902932 0.007193031 -0.03310512
0.0015604427 -0.0048819315 -5.6163008e-05 0.0011058676 -0.0019894165 0.00520592 0.0048801973 -0.0034104818
0.0017923614 0.008013446 0.001280984 0.0037463994 -0.0024025152 -0.00093217444 0.002729204 -0.011150922
0.02394485 -0.017164532 -0.075683825 -0.031725537 0.009493318 0.028537096 -0.040336452 0.20116842
0.061309636 0.062097505 0.016789926 0.037847165 -0.009537978 0.03589498 0.019789886 -0.0001577934
0.0015657911 0.0030695216 -0.00037163126 0.00076385314 -0.0020764468 -0.0040096245 0.0008092758 -0.017478669
0.01439763 0.010655479 -0.02047596 0.0055930205 -0.00062200695 -0.027109 -0.0050832215 -0.10604147
0.0020174647 0.008240843 0.0015113908 0.0039237556 -0.0024356628 -0.00076968514 0.0028359254 -0.0110783735
0.0014963367 0.0075655663 0.00096089346 0.0034772386 -0.0023451562 -0.0011906567 0.00250407 -0.011444461
0.09626422 0.055429306 0.20436996 0.084942095 0.18812954 0.15706508 0.011565312 -0.10105187
0.0017253016 0.007768527 0.0011369557 0.0036440182 -0.0023955863 -0.0010185661 0.002524743 -0.011248299
-0.06883362 -0.14175041 -0.024681197 -0.11181304 -0.043629102 0.043523975 -0.14933059 0.21074086
0.0020021345 0.0136490725 0.0019517061 0.0057119476 -0.0035826743 -0.0028559586 0.0035015529 -0.019103015
00000000: 0e8f d23a ed0d fe3b 517d 903a 3d53 683b
00000010: 1f09 23bb 3f48 9aba 6fc2 223b 9f7c 39bc
00000020: e59c e43a b836 003c 88ad 9b3a 6895 743b
00000030: 24b6 14bb ca50 80ba 4ee2 373b f836 3abc
00000040: 4864 073b b379 083c 7a46 ca3a 1f41 833b
00000050: 3817 18bb 6e4e 3dba 00eb 423b 407d 34bc
00000060: d437 db3a 0be7 ff3b cf06 7e3a a355 6d3b
00000070: 8192 1cbb c149 93ba c789 273b a840 3bbc
00000080: d785 143c d78b 133d eef5 bf3b fd49 693c
00000090: 1499 bcbb 12fc f43a 1c76 023c 3fcc 7ebc
000000a0: a571 e73a d58b 013c b3ca a03a 372d 783b
000000b0: 1006 1fbb 6995 67ba 686a 303b 3f9a 35bc
000000c0: 7ea4 fe3a f9d6 073c da0f c23a 73dc 7b3b
000000d0: 0a48 19bb 2830 76ba d531 373b b30d 33bc
000000e0: ee26 ee3a d47b 013c adac 9d3a cbac 713b
000000f0: 3f19 19bb f7ec 75ba 325f 2e3b 33d0 35bc
00000100: a656 fd3a d0f9 033c 9b3d bf3a 1f0d 7c3b
00000110: 14e3 1bbb f987 53ba 1f2d 3a3b eb28 35bc
00000120: 260f 8ebc cbd2 893b 298e 04bc 421a 5ebb
00000130: 4755 30bb 4cdb 94bc a39c b1bb b071 09bd
00000140: b1b2 bc3c 1a89 263d b129 173d d640 d7bc
00000150: 3305 b6bd 3272 55bd 8692 9abd f4fd 143a
00000160: 2de5 983b 68ae de3c 2d1f 043c e988 6e3c
00000170: 10b7 15bc 4dfd 08bb 84b3 eb3b 3c99 07bd
00000180: c587 cc3a 9cf8 9fbb 9290 6bb8 c2f2 903a
00000190: df60 02bb 6c96 aa3b 10ea 9f3b 6482 5fbb
000001a0: abed ea3a d44a 033c b1e6 a73a 2786 753b
000001b0: 8473 1dbb 2b5d 74ba 72dc 323b 5bb2 36bc
000001c0: fd27 c43c a29c 8cbc 1f00 9bbd a3f2 01bd
000001d0: dd89 1b3c a1c6 e93c d637 25bd 18ff 4d3e
000001e0: d01f 7b3d f459 7e3d 078b 893c a105 1b3d
000001f0: 2e45 1cbc 9d06 133d 661e a23c 5875 25b9
00000200: 3b3b cd3a 072a 493b 81d7 c2b9 513d 483a
00000210: ff14 08bb 2b63 83bb 9425 543a 6d2f 8fbc
00000220: 09e4 6b3c 5194 2e3c 33bd a7bc a845 b73b
00000230: 2e0e 23ba b213 debc 2791 a6bb 452c d9bd
00000240: 7137 043b 9a04 073c dc19 c63a d992 803b
00000250: a49f 1fbb b2c4 49ba efda 393b 1182 35bc
00000260: ba20 c43a 92e8 f73b 78e4 7b3a 62e2 633b
00000270: 31b1 19bb cf0f 9cba 531b 243b 8c81 3bbc
00000280: 2d26 c53d d709 633d 5c46 513e 1ff6 ad3d
00000290: 08a5 403e abd5 203e 6f7c 3d3c 48f4 cebd
000002a0: 8423 e23a 218f fe3b e705 953a 7bd0 6e3b
000002b0: 45ff 1cbb 6881 85ba 2976 253b c94a 38bc
000002c0: a4f8 8cbd 0527 11be 3930 cabc 3cfe e4bd
000002d0: 6eb4 32bd 3246 323d 1eea 18be 74cc 573e
000002e0: 3e36 033b 5ca0 5f3c 64d0 ff3a 4a2b bb3b
000002f0: 4dcb 6abb 092b 3bbb 4f7a 653b ed7d 9cbc

encoder_layers.0.feed_forward.3.bias f4 [24]
0.016899401 0.0063009793 0.017862482 0.018857457 0.02734695 0.019756751 0.028688228 0.01495165
0.018460665 0.16164787 0.05790704 0.07015876 -0.12645571 0.009275242 0.0669622 -0.094323985
0.042251457 -0.0013310252 0.019171309 0.018607864 -0.111725375 0.017978422 0.107438855 0.03521094
00000000: 9d70 8a3c 7278 ce3b 5754 923c f47a 9a3c
00000010: b606 e03c e9d8 a13c 9303 eb3c c4f7 743c
00000020: d23a 973c 0587 253e ef2f 6d3d 65af 8f3d
00000030: 9b7d 01be 2ff7 173c 7a23 893d ef2c c1bd
00000040: dd0f 2d3d cb75 aeba 260d 9d3c 856f 983c
00000050: 46d0 e4bd 7c47 933c e708 dc3d 5939 103d
