transformers/results/encoder_only/month_10_October/encoder_only_transformer_model_20251127_051903.pt (torch, 577870 bytes, 30 tensors)

input_embedding.weight f4 [24, 8]
00000000: 6faa 993c 5a38 563d a55d 42bd 2a2a d03c
00000010: d7e9 043c 0652 42bd ad68 45bc 26b0 8f3c
00000020: 52a8 e13d 6e81 98bd 8644 3c3c 732e e3bc
00000030: 3337 f33c bf88 a03b bd3c 9539 d072 d23d
00000040: 0ea1 7a3e 69a8 3abc 3669 debe 7843 fc3d
00000050: 5450 163d 2e64 dcbe 0022 76bd fb10 783e
00000060: 917f 2dbd 3562 f2bc 7349 10be 5857 59bd
00000070: f3aa 18bd be08 11be f5e1 203d 9e0e 41bd
00000080: 3081 553d f5aa f3bd 6137 d6bd f4b1 a1bc
00000090: f201 3bbd 4102 c9bd 7920 22be 0d59 1b3d
000000a0: 19ce ad3e 0e49 5ebd 8ed0 023d 002e 713e
000000b0: d5e3 393e 89c3 37bd ca3b d93d 9455 ad3e
000000c0: 9592 e83e 14b5 a7be 6a41 57be 2ee3 3bbe
000000d0: a22c 16be 84b7 183e d9bb b9bc 1b65 df3e
000000e0: 3ac3 d4be 380a a5bc 1273 c03d 3750 56be
000000f0: 3e09 0abe b796 83be 826e 0c3d 723e 0abf
00000100: 7a38 c13e cb98 2fbe 64e4 5a3d 8db6 4abe
00000110: bae1 46be 573c 6abe 6620 343e e9f2 c33e
00000120: 1869 203f df9c b1be 5e78 b5be 342b 8abe
00000130: 4bff 86be ca67 253d 2565 9cbc a99f 153f
00000140: dd29 e8be 6cb0 fabd 7f8e 823c 25c5 00be
00000150: 9859 70bd 6d72 2ebe 3ce2 853d 5367 0bbf
00000160: 3cd5 0dbf 697d 133d d7ed ed3d bf2a 58be
00000170: ce7c 09bd 8d77 643e 16d9 83be b6df 11bf
00000180: 039a 183f 3d98 f7bd eb47 96bd 82fc 64be
00000190: 4b82 20be 6df0 c33d e7df efbc e00c 913d
000001a0: 4bea f13d ca4c 56be ada8 77be 1298 88be
000001b0: 3174 42be e013 6fbe 50bf 353e 7059 f33d
000001c0: 03a0 29be df3c 99bc a9f5 22be 002c 00bc
000001d0: 391d 90bc 2f0a 40be d7ab 5f3d 5572 94be
000001e0: 1302 8ebe 0bea 24be 5696 bc3c b8e1 78be
000001f0: b1d7 8ebe e66e 03be 640b 6cbd 3f28 09bf
00000200: 1802 3f3d 7fd7 09bd 736d 093f 77c4 763d
00000210: 0b43 18bc b72f 053f 0002 0cbd bc70 8abe
00000220: e286 19bf fee0 62be c814 ddbd 03da 5abe
00000230: d332 38be cf2e 94be aba0 db3d d0f9 18bf
00000240: 89a1 7a3e df05 30bc b6b3 0bbd e3a9 5b3d
00000250: 9279 2c3e 4b68 0abe 509b 15be 6945 4d3e
00000260: dee7 acbe e982 d7be 07c4 653e d03a c5be
00000270: 7742 1ebe 9183 5b3e 2053 dbbd 1163 cabe
00000280: a070 063f ead6 eb3d c8bc c43d d515 2fbe
00000290: a0a5 863d 6460 3a3c d722 ebbc a869 013f
000002a0: bd97 8b3d cfbf 3dbe 6065 1bbe 7105 3fbe
000002b0: 5bfa a2bc 2aaa 17be 61a0 d5be a28d 613d
000002c0: 9abf c7be f861 833e 3032 063d 733a 22be
000002d0: 0640 fe3d 0cd0 07bd 9452 fe3c b466 89be
000002e0: d3de 5bbe cc69 cbbc 8540 e43c 405a 8dbe
000002f0: bca4 f6bd 5424 95bb 14d9 a2bd 561a d8be
0.018758027 0.052299835 -0.047452588 0.02541073 0.008112392 -0.047441505 -0.012048882 0.017540049
0.11018433 -0.07446562 0.011490947 -0.02773211 0.029689407 0.004899114 0.00028464748 0.10275805
0.244755 -0.011392691 -0.43439645 0.12317556 0.0366977 -0.4304518 -0.06009102 0.24225228
-0.042357985 -0.029587844 -0.14090519 -0.053061813 -0.037272405 -0.14163491 0.03927799 -0.04713308
0.052125156 -0.11897842 -0.104597814 -0.019738175 -0.045656152 -0.09814883 -0.158327 0.037926722
0.33946303 -0.05426889 0.031937174 0.23552704 0.18153317 -0.04486421 0.10607107 0.33854353
0.45424333 -0.3275534 -0.21021047 -0.18348381 -0.14665464 0.14913756 -0.02267258 0.43631825
-0.41555196 -0.020146474 0.09396948 -0.20929037 -0.13480088 -0.25700924 0.034285076 -0.54001534
0.377384 -0.1714813 0.053440467 -0.197962 -0.19422045 -0.2287458 0.17590484 0.38271263
0.6266036 -0.34689996 -0.35443395 -0.26986086 -0.26366648 0.040382184 -0.019091198 0.5844675
-0.4534444 -0.12240681 0.015937088 -0.12575205 -0.058679193 -0.17035837 0.065372914 -0.54454535
-0.55403495 0.036008272 0.1161763 -0.21110056 -0.03356629 0.2231123 -0.2575156 -0.5698198
0.59610003 -0.12089584 -0.07337936 -0.22361949 -0.15674703 0.09567342 -0.02928157 0.07082534
0.11812266 -0.2092773 -0.24185438 -0.2667852 -0.18989636 -0.23347425 0.17748761 0.11882293
-0.16564946 -0.018705783 -0.15914024 -0.00782299 -0.01759206 -0.18753885 0.05460724 -0.28993478
-0.27735958 -0.16104905 0.023020905 -0.24304855 -0.27898934 -0.12835273 -0.05762805 -0.53577036
0.046632856 -0.03365278 0.5368263 0.060245957 -0.009293328 0.5202593 -0.034181595 -0.27039135
-0.5997144 -0.2215614 -0.10794979 -0.21372227 -0.17988138 -0.28941962 0.10724004 -0.59756184
0.24475683 -0.010743587 -0.034106933 0.053628813 0.1684325 -0.13516347 -0.14610028 0.20046009
-0.3377065 -0.42092064 0.2243806 -0.38521433 -0.15455042 0.21436907 -0.10709214 -0.39528707
0.525156 0.11515601 0.0960632 -0.17098172 0.06574559 0.01137552 -0.028703136 0.50551844
0.06816051 -0.185302 -0.1517539 -0.1865442 -0.01989477 -0.14811006 -0.41723922 0.055066712
-0.39013368 0.25660682 0.032762706 -0.15842609 0.12414555 -0.033157393 0.031045236 -0.2683617
-0.2147172 -0.024830721 0.027862797 -0.27607918 -0.12043139 -0.00455145 -0.079515606 -0.42207593

input_embedding.bias f4 [24]
00000000: 1873 233d 4496 d03d a122 4b3d aeba 20bd
00000010: 7d17 07be e0a6 803d 6ee2 36bc 79b9 d23c
00000020: adb5 cebe 10e2 6ebe dd26 813e b95f 653c
00000030: 2fad e4bc dfb2 a3be cbf6 1f3d 2d4c b5be
00000040: e514 5db9 5686 48bc 076c 863c da0f fdbd
00000050: 20fb 99be b0f4 adbe f6bd ad3d 338a 1d3e
0.039904684 0.10184911 0.04959357 -0.03924053 -0.13192554 0.06281829 -0.0111623835 0.025723206
-0.40372983 -0.23328424 0.25224963 0.013999873 -0.027914612 -0.31972405 0.03905372 -0.3540968
-0.00021083986 -0.012239059 0.016408933 -0.12356539 -0.30074406 -0.33975744 0.08483498 0.1538475

pos_encoder.pe f4 [1, 5000, 24]
00000000: 0000 0000 0000 803f 0000 0000 0000 803f
00000010: 0000 0000 0000 803f 0000 0000 0000 803f
00000020: 0000 0000 0000 803f 0000 0000 0000 803f
00000030: 0000 0000 0000 803f 0000 0000 0000 803f
00000040: 0000 0000 0000 803f 0000 0000 0000 803f
00000050: 0000 0000 0000 803f 0000 0000 0000 803f
00000060: a46a 573f 4151 0a3f 1d35 e53e 30ea 643f
00000070: 52e9 5a3e eb14 7a3f 7675 cc3d 98b8 7e3f
00000080: 1e0d 3e3d 6ab9 7f3f 477a b03c caf0 7f3f
00000090: 57d6 233c b9fc 7f3f 5718 983b 4bff 7f3f
000000a0: 6431 0d3b d9ff 7f3f 6d12 833a f8ff 7f3f
000000b0: 5c5a f339 feff 7f3f abe8 6139 0000 803f
000000c0: b7c7 683f 3311 d5be fbf4 4c3f f863 193f
000000d0: bed9 d53e b999 683f f86f 4b3e a5e5 7a3f
000000e0: b7d8 bd3d d1e5 7e3f cb6f 303d 2cc3 7f3f
000000f0: 3ed4 a33c e5f2 7f3f ec17 183c 2dfd 7f3f
00000100: 4e31 8d3b 64ff 7f3f 6812 033b dfff 7f3f
00000110: 5b5a 733a f9ff 7f3f abe8 e139 ffff 7f3f
00000120: c381 103e 2670 7dbf cef0 7b3f 16a2 353e
00000130: c82d 1a3f 565d 4c3f 6c4e 973e ef90 743f
00000140: 1721 0e3e a885 7d3f bd46 843d 2977 7f3f
00000150: 1fb9 f53c 83e2 7f3f d522 643c a6f9 7f3f
00000160: bfc9 d33b a2fe 7f3f 929b 443b b5ff 7f3f
00000170: c283 b63a f0ff 7f3f 7f6e 293a fdff 7f3f
00000180: cfbd 41bf 3055 27bf e79c 753f 6c5d 90be
00000190: be4d 423f f9ad 263f d761 c73e a7ca 6b3f
000001a0: 7307 3d3e b299 7b3f df45 b03d cc0c 7f3f
000001b0: dbcb 233d 94cb 7f3f 3e16 983c b4f4 7f3f
000001c0: f830 0d3c 91fd 7f3f 5712 833b 7aff 7f3f
000001d0: 545a f33a e3ff 7f3f a9e8 613a faff 7f3f
000001e0: 107c 75bf 2c3c 913e 0a50 3b3f cb7f 2ebf
000001f0: cf71 613f 6393 f23e 4377 f53e 40a9 603f
00000200: 9385 6b3e ff22 793f 0e30 dc3d 2184 7e3f
00000210: f4b6 4c3d 19ae 7f3f 3c1a be3c 5aee 7f3f
00000220: e67c 303c 33fc 7f3f ddd6 a33b 2eff 7f3f
00000230: 7118 183b d3ff 7f3f 6931 8d3a f6ff 7f3f
00000240: 8c0f 8fbe b8cd 753f c6c0 b23e 2de4 6fbf
00000250: 6329 763f 8f93 8c3e 688c 103f 3249 533f
00000260: e9c0 8c3e e922 763f 0900 043e 38dd 7d3f
00000270: d19c 753d 128a 7f3f 2b1d e43c 96e6 7f3f
00000280: 9dc8 533c 86fa 7f3f 589b c43b d2fe 7f3f
00000290: b783 363b bfff 7f3f 7d6e a93a f2ff 7f3f
000002a0: 4630 283f bdff 403f 9fc6 dbbd 8d85 7ebf
000002b0: 417f 7f3f 234f 803d 72eb 243f b3cc 433f
000002c0: 6a71 a33e 189b 723f 5dd8 193e 2518 7d3f
000002d0: 323e 8f3d 815f 7f3f 6e0f 053d 69dd 7f3f
000002e0: 1514 773c 8cf8 7f3f c55f e53b 65fe 7f3f
000002f0: f8ee 543b a8ff 7f3f 91ab c53a edff 7f3f
00000300: 9546 7d3f f6fd 14be e381 0abf 624b 57bf
00000310: e904 7d3f 59cf 1bbe a5a4 373f 5f5b 323f
00000320: cbc7 b93e 808d 6e3f 699e 2f3e ff34 7c3f
00000330: 50aa a33d 652e 7f3f 890f 183d d3d2 7f3f
00000340: a12f 8d3c 44f6 7f3f 1212 033c e7fd 7f3f
00000350: 385a 733b 8cff 7f3f a4e8 e13a e7ff 7f3f
00000360: 3201 d33e d53f 69bf f13b 5cbf 9f82 02bf
00000370: afd7 6e3f 0149 b8be 1c88 483f d521 1f3f
00000380: bab7 cf3e 5cfc 693f 974f 453e e133 7b3f
00000390: 3e12 b83d c2f6 7e3f cd0e 2b3d d3c6 7f3f
000003a0: 0cd5 9e3c aef3 7f3f 3a74 133c 59fd 7f3f
000003b0: bae2 883b 6eff 7f3f b625 fe3a e1ff 7f3f
000003c0: f844 0bbf 64cd 56bf d15b 7fbf 7ee0 90bd
000003d0: 619f 553f 8212 0dbf a46a 573f 4151 0a3f
000003e0: 1e35 e53e 30ea 643f 53e9 5a3e eb14 7a3f
000003f0: 7675 cc3d 98b8 7e3f 210d 3e3d 6ab9 7f3f
0.0 1.0 0.0 1.0 0.0 1.0 0.0 1.0
0.0 1.0 0.0 1.0 0.0 1.0 0.0 1.0
0.0 1.0 0.0 1.0 0.0 1.0 0.0 1.0
0.84147096 0.54030234 0.44767085 0.8941984 0.21378067 0.9768817 0.099833414 0.9950042
0.04639923 0.99892294 0.021542681 0.9997679 0.009999833 0.99995 0.0046415734 0.9999892
0.0021544332 0.9999977 0.0009999998 0.9999995 0.00046415895 0.9999999 0.00021544348 1.0
0.9092974 -0.41614684 0.8006131 0.59918165 0.41767687 0.9085956 0.19866931 0.9800666
0.09269851 0.9956942 0.043075364 0.99907184 0.019998666 0.9998 0.009283047 0.9999569
0.004308856 0.9999907 0.0019999985 0.99999803 0.00092831784 0.9999996 0.00043088695 0.99999994
0.14112 -0.9899925 0.98414314 0.17737612 0.60226107 0.7982992 0.2955202 0.9553365
0.1387981 0.9903207 0.06458805 0.997912 0.0299955 0.99955004 0.01392432 0.9999031
0.006463259 0.99997914 0.0029999954 0.9999955 0.0013924765 0.99999905 0.00064633036 0.9999998
-0.7568025 -0.6536436 0.9594254 -0.28196275 0.75899875 0.6510921 0.38941833 0.921061
0.18459873 0.98281395 0.08607077 0.996289 0.039989334 0.9992001 0.018565293 0.9998276
0.008617632 0.99996287 0.003999989 0.999992 0.0018566349 0.9999983 0.0008617738 0.99999964
-0.9589243 0.2836622 0.73169005 -0.68163747 0.88064283 0.47378072 0.47942552 0.87758255
0.23000173 0.97319025 0.10751353 0.9942036 0.049979165 0.99875027 0.023205869 0.9997307
0.010771966 0.999942 0.004999979 0.9999875 0.0023207928 0.9999973 0.0010772172 0.9999994
-0.2794155 0.96017027 0.349127 -0.93707544 0.961569 0.27456328 0.5646424 0.8253356
0.2749093 0.9614702 0.12890638 0.9916568 0.059964005 0.99820054 0.02784594 0.9996122
0.012926248 0.99991643 0.0059999637 0.999982 0.0027849504 0.9999961 0.0012926605 0.99999917
0.6569866 0.75390226 -0.10731243 -0.9942253 0.9980355 0.06265094 0.6442176 0.7648422
0.31922466 0.94767904 0.15023942 0.98864967 0.06994285 0.997551 0.032485418 0.9994722
0.0150804715 0.9998863 0.006999942 0.9999755 0.003249107 0.99999475 0.0015081038 0.99999887
0.98935825 -0.14550003 -0.5410444 -0.840994 0.9883562 -0.15215816 0.717356 0.6967067
0.36285242 0.9318466 0.17150272 0.98518366 0.07991469 0.9968017 0.03712419 0.9993107
0.017234625 0.99985147 0.007999914 0.999968 0.0037132632 0.9999931 0.001723547 0.9999985
0.4121185 -0.91113025 -0.86028963 -0.5098056 0.9329786 -0.35993198 0.78332686 0.62161
0.4056986 0.91400695 0.19268642 0.98126036 0.089878544 0.9959527 0.041762162 0.99912757
0.019388698 0.999812 0.008999879 0.9999595 0.0041774185 0.9999913 0.0019389901 0.99999815
-0.5440211 -0.8390715 -0.99749476 -0.070740685 0.8344632 -0.55106366 0.84147096 0.54030234
0.44767088 0.8941984 0.21378069 0.9768817 0.099833414 0.9950042 0.04639924 0.99892294

encoder.layers.0.self_attn.in_proj_weight f4 [72, 24]
00000000: d4a3 1880 e775 0680 fc6d 1300 0d7e 1580
00000010: 9edd 1c00 e482 0500 4dc1 0180 f3db 1c00
00000020: 19dd 1c00 4a71 1780 5443 1080 0572 1480
00000030: 02e6 1c00 1adc 1c80 de02 0700 297e 0f80
00000040: 4478 0c80 5fe8 1500 2dca 0d00 87e8 1c00
00000050: 900a 0f00 e1c4 1480 c7f6 0c80 964c 0780
00000060: 1d17 1600 9862 1000 a799 0280 4e9b 0a00
00000070: 02e5 1c80 f257 1880 5e95 0d00 579d 0e80
00000080: 15b7 0080 c5e1 1c00 8c51 1900 0f6d 1400
00000090: aee9 0e80 54da 1c00 61a6 0180 8a5b 0900
000000a0: 71db 1c00 5d98 1100 c2b9 1480 9912 0f00
000000b0: 28ac 1980 8fea 1c00 19ed 1780 687b 0a00
000000c0: f732 1a80 14ce 0780 45b2 1c00 8b7c 1580
000000d0: 0fc0 1a00 9964 1300 9f6c 1880 979e 1880
000000e0: 354b 0380 56e8 1c80 1095 1080 072f 1580
000000f0: b3dd 0200 cd45 1980 cb18 0c00 6ca7 1880
00000100: 2922 1580 c754 1c80 0f4d 0180 87a6 1580
00000110: 6b27 1a00 b472 0b80 3cc5 1a80 be43 0d80
00000120: 18e8 1880 0325 0a80 deba 0900 6167 0680
00000130: eae3 1c00 7a09 0e00 78d5 0c80 06da 1c80
00000140: fa35 0480 7dea 1c80 a00a 1c00 9373 0780
00000150: bde3 1c00 7d7d 0f80 87de 1c00 2aa3 0a00
00000160: e36b 1880 fff5 0580 a1ea 1c00 2dc0 0c80
00000170: 7f9f 0880 10b3 0300 0be6 1c80 7e0e 0d80
00000180: 2d89 0280 1f58 0c00 2892 0e00 4281 0c00
00000190: f3ea 1c80 7a8f 1180 8740 1500 6fe5 1c00
000001a0: 87fa 1600 86de 1c00 f685 1300 1dcb 1600
000001b0: f7b7 0c80 5ac4 0400 de9b 0e80 7af1 0f00
000001c0: 172f 1900 214f 0b00 a1e3 1c00 e2d9 1c80
000001d0: 4773 0180 2c42 1a00 a898 1200 8d4e 0d00
000001e0: 5f01 1200 32d9 1280 978f 1600 b1ca 0280
000001f0: 4aea 1c00 d373 0c00 7fbf 1000 28bd 1980
00000200: da39 0580 9c88 1a00 c8f9 1180 55ba 0780
00000210: a2de 1c00 6940 0a00 8ca7 0800 55dd 1c80
00000220: f1c0 1280 3c58 0d80 4b19 0100 9197 0100
00000230: b5de 1c00 997e 0480 62e7 1c80 81c1 0c80
00000240: 0a77 1580 1758 0d80 7819 1900 5373 0d80
00000250: 0cde 1c00 2785 1100 e569 1b80 0cdb 1c80
00000260: 9c90 0180 397f 0400 66ea 1c80 516d 1580
00000270: 33db 1c00 acde 1c80 206c 0000 06ad 0f00
00000280: c7da 1c00 f811 0b00 c5da 1c80 db62 1b80
00000290: a3e8 1c00 417d 0700 a3de 1c80 2d6a 1380
000002a0: b103 1600 a8c9 1180 dae7 1680 dc02 0e00
000002b0: 90a9 1680 51a4 1280 6f8d 1900 fd24 0800
000002c0: 7f04 0080 c289 1600 59e4 1a00 eaa9 1880
000002d0: 3ba1 0c80 415c 1700 4344 0880 0e89 0f00
000002e0: b7df 1c00 8d0d 1500 0821 0280 f6eb 1080
000002f0: 50e5 1c80 97a6 1700 267e 0d00 29ff 1500
00000300: c4b6 0d00 1956 0600 f979 0380 f0d0 1080
00000310: 72e5 1480 d71a 0e80 6aa8 0c00 a2e1 1c80
00000320: 40c8 0300 5439 0000 1544 0780 0da9 0700
00000330: 87e0 1c80 8481 0400 4fe9 1c00 fa25 0280
00000340: 1dd5 0700 ff45 1000 e266 0a00 fe9a 0080
00000350: 494d 0700 8edd 1c00 7833 1500 1b90 1180
00000360: b0c2 1980 8f94 0280 6785 0e00 a7db 0d80
00000370: 77d9 1c00 e4eb 1600 0cc7 0700 daed 1a80
00000380: 7ed9 0300 df00 0a80 6f3d 1100 72c3 1280
00000390: 1fdf 1c00 d68b 0c80 a773 0600 32e7 1c80
000003a0: 77c6 0e80 d2b2 1980 68fc 0700 47ba 0d80
000003b0: cac0 1c00 a2e3 1c80 2ae9 1c80 975d 0580
000003c0: 1256 0800 90a5 0d00 7848 0500 79a6 0b00
000003d0: 92e4 1c00 6bee 0580 3867 0500 61e8 1c00
000003e0: f4db 0500 fae7 1c00 a312 0c00 f110 0f00
000003f0: 9c46 0100 43df 0980 999d 0680 ed50 0680
-2.262822e-39 -5.93308e-40 1.78433e-39 -1.973764e-39 2.650895e-39 5.06132e-40 -1.61179e-40 2.650297e-39
2.650709e-39 -2.152857e-39 -1.493521e-39 -1.877612e-39 2.653905e-39 -2.650351e-39 6.43877e-40 -1.42279e-39
-1.145169e-39 2.011904e-39 1.266388e-39 2.654809e-39 1.381322e-39 -1.907337e-39 -1.190553e-39 -6.70322e-40
2.028672e-39 1.504737e-39 -2.38791e-40 9.74068e-40 -2.653546e-39 -2.235601e-39 1.247444e-39 -1.34214e-39
-6.5677e-41 2.652385e-39 2.325141e-39 1.875833e-39 -1.369525e-39 2.649715e-39 -1.51521e-40 8.59357e-40
2.650115e-39 1.615861e-39 -1.903347e-39 1.384204e-39 -2.357645e-39 2.655538e-39 -2.197271e-39 9.62625e-40
-2.406006e-39 -7.16775e-40 2.635345e-39 -1.973223e-39 2.45662e-39 1.780962e-39 -2.243018e-39 -2.260943e-39
-3.02486e-40 -2.65474e-39 -1.522841e-39 -1.945416e-39 2.63202e-40 -2.320927e-39 1.11092e-39 -2.264112e-39
-1.9408e-39 -2.601806e-39 -1.19479e-40 -1.988284e-39 2.401863e-39 -1.051338e-39 -2.458477e-39 -1.218163e-39
-2.287311e-39 -9.31632e-40 8.93555e-40 -5.88098e-40 2.653154e-39 1.289096e-39 -1.178604e-39 -2.649606e-39
-3.86705e-40 -2.655512e-39 2.575205e-39 -6.84309e-40 2.653091e-39 -1.422549e-39 2.651222e-39 9.76887e-40
-2.242754e-39 -5.47424e-40 2.655563e-39 -1.170966e-39 -7.919e-40 3.39742e-40 -2.653918e-39 -1.19906e-39
-2.3288e-40 1.133638e-39 1.338128e-39 1.148395e-39 -2.655678e-39 -1.612673e-39 1.951693e-39 2.653699e-39
2.110253e-39 2.65122e-39 1.79293e-39 2.093244e-39 -1.16802e-39 4.3778e-40 -1.341612e-39 1.464158e-39
2.31278e-39 1.038577e-39 2.653052e-39 -2.649556e-39 -1.33189e-40 2.411461e-39 1.707802e-39 1.22204e-39
1.653531e-39 -1.730954e-39 2.071891e-39 -2.56383e-40 2.655441e-39 1.143576e-39 1.538064e-39 -2.363744e-39
-4.79931e-40 2.436729e-39 -1.650808e-39 -7.09692e-40 2.65126e-39 9.41461e-40 7.94788e-40 -2.650793e-39
-1.722253e-39 -1.225514e-39 1.00909e-40 1.46207e-40 2.651286e-39 -4.12757e-40 -2.654398e-39 -1.171442e-39
-1.971249e-39 -1.225462e-39 2.305024e-39 -1.235232e-39 2.65105e-39 1.60897e-39 -2.517546e-39 -2.649973e-39
-1.43712e-40 4.12981e-40 -2.65548e-39 -1.967761e-39 2.650028e-39 -2.651274e-39 3.8788e-41 1.439602e-39
2.649876e-39 1.016636e-39 -2.649874e-39 -2.515021e-39 2.654848e-39 6.87781e-40 -2.651261e-39 -1.782963e-39
2.021705e-39 -1.633544e-39 -2.103554e-39 1.286723e-39 -2.081208e-39 -1.711985e-39 2.346624e-39 7.47953e-40
-1.613e-42 2.069799e-39 2.469639e-39 -2.265006e-39 -1.159865e-39 2.145311e-39 -7.59172e-40 1.426698e-39
2.651648e-39 1.933407e-39 -1.9552e-40 -1.554015e-39 -2.653656e-39 2.171978e-39 1.239115e-39 2.02008e-39
1.259425e-39 5.81899e-40 -3.19262e-40 -1.54432e-39 -1.91902e-39 -1.295325e-39 1.162442e-39 -2.652336e-39
3.47343e-40 2.0565e-41 -6.67272e-40 7.03492e-40 -2.651939e-39 4.13803e-40 2.655089e-39 -1.97294e-40
7.19299e-40 1.494478e-39 9.55262e-40 -5.5601e-41 6.70573e-40 2.650873e-39 1.947009e-39 -1.612899e-39
-2.365728e-39 -2.36964e-40 1.333553e-39 -1.272658e-39 2.649406e-39 2.105003e-39 7.14253e-40 -2.473048e-39
3.53528e-40 -9.18667e-40 1.583242e-39 -1.723151e-39 2.651435e-39 -1.15219e-39 5.92501e-40 -2.654331e-39
-1.356893e-39 -2.360036e-39 7.33395e-40 -1.260685e-39 2.640554e-39 -2.653053e-39 -2.655037e-39 -4.92751e-40
7.6556e-40 1.253254e-39 4.85174e-40 1.06991e-39 2.65339e-39 -5.44706e-40 4.96205e-40 2.654756e-39
5.38082e-40 2.654611e-39 1.108712e-39 1.38361e-39 1.17165e-40 -9.0661e-40 -6.07548e-40 -5.80044e-40

encoder.layers.0.self_attn.in_proj_bias f4 [72]
00000000: 4c97 0d00 52f5 1200 7dd0 1080 a149 0980
00000010: bbcc 0c00 7fce 0c80 e5a1 0e80 1986 1300
00000020: c0a3 0600 ab79 1480 d8b6 1900 c719 1380
00000030: 8cb5 8381 a456 8381 c564 8381 71d7 8301
00000040: 5723 8401 4074 8381 61b1 8301 0b29 8301
00000050: 0d09 8481 b0ac 8201 efa6 8381 2b6e 8301
00000060: 1cae 0100 8c56 0c80 361e 0280 6c99 0180
00000070: 1051 0680 a20c 0380 c5dd 0300 41d9 0500
00000080: 7871 0180 53b6 0300 8cb7 0900 eaf4 0480
00000090: 118a 4e80 1b48 4e80 8dcd 4d80 fbed 4d00
000000a0: 806b 4e00 3607 4c80 5d0a 4f00 fe97 4f00
000000b0: 773f 4c80 a141 5100 d5f8 4d80 aee4 5000
000000c0: 09f9 813c 7090 38bd f47f f2bc 66b0 b93c
000000d0: 7276 34bc 7610 013c 75f7 0abd 0e0e 473d
000000e0: 2e5a 51bc 58f1 4f3b e49e 3f3c 2612 ee3c
000000f0: a78b 803c ac3f c9bb 02be aebc e46b 0d3d
00000100: 88f0 883c d48a fa3c 3512 0cbd b69d 0dbb
00000110: c251 c43c e663 c43b 32a8 6cbb 2e6d e83c
1.248137e-39 1.741043e-39 -1.54416e-39 -8.52933e-40 1.17547e-39 -1.176103e-39 -1.343774e-39 1.79298e-39
6.09755e-40 -1.880356e-39 2.36148e-39 -1.754122e-39 -4.8382307e-38 -4.8246123e-38 -4.8266397e-38 4.8430943e-38
4.853985e-38 -4.828861e-38 4.8376326e-38 4.8180694e-38 -4.850213e-38 4.800225e-38 -4.836134e-38 4.8279883e-38
1.54294e-40 -1.133073e-39 -1.94509e-40 -1.46873e-40 -5.80093e-40 -2.80038e-40 3.55062e-40 5.37113e-40
-1.3254e-40 3.40912e-40 8.92364e-40 -4.552e-40 -7.212698e-39 -7.189035e-39 -7.145071e-39 7.156705e-39
7.201732e-39 -6.982085e-39 7.258722e-39 7.309529e-39 -7.002265e-39 7.462218e-39 -7.160597e-39 7.428875e-39
0.01586582 -0.04505962 -0.029602028 0.022667121 -0.011014568 0.00787746 -0.0339274 0.048597388
-0.012777848 0.0031729545 0.011695597 0.029061388 0.015691591 -0.0061416235 -0.021330837 0.03452672
0.016716257 0.030583777 -0.03419705 -0.0021608896 0.023964766 0.005993354 -0.0036110994 0.028372373

encoder.layers.0.self_attn.out_proj.weight f4 [24, 24]
00000000: e4eb 9ebb b043 88bc dff9 e5bb a997 253b
00000010: 6786 6bbc 0ceb 29bc a6f5 553c f99a 5b3b
00000020: 916e 11bc 66df 5abc 101e 8f3c 9a34 7fbc
00000030: 6cf1 0ebc 5407 f8bb 8a8a 7b3c 626e 6c3c
00000040: 5eec 393b 9cea 44bc 78f1 93bb ed9a 473c
00000050: f439 e6bc c37b b13c 16ec 86bc 7f7d ec3b
00000060: 3969 3dbd 6085 ddbc 7b64 f03a e285 25bb
00000070: df21 bfba f744 f73c 1dbc d6bc e49d f33c
00000080: da97 d1bc be91 4cbd 9bb3 95bc f573 b73b
00000090: 1ba6 193c f3bb 01bd 056c 413c 14af 2c3d
000000a0: 2a78 873c 0c93 8ebb 48aa 1abd d57f c93c
000000b0: c8d0 413d 8739 23bc 0a49 aabc e051 423d
000000c0: 606e ba3b cb20 9a3d 48f4 f63c cabd db3a
000000d0: 09bc 3aba 7255 3dbd 2150 6f3d fcdb 2abd
000000e0: 778b b63c e019 903d 4408 833c 94a1 bbbc
000000f0: 00d2 603b fd1d 253d 596c 253b b237 3cbb
00000100: 992c 163c 6e4a c9bc 94f3 d23c de87 be3c
00000110: 6c1a 1fbd d789 f43c 8c5e 80bc 4bb7 cd3c
00000120: bd5e 803c 498a a8bc 266c 0bbb e512 e1ba
00000130: 333b 023d 708d d6bc 650f 6e3d 9628 443b
00000140: e81d 593b b9c4 cbbb 8a61 673b c98e 8dbc
00000150: a423 3abc 5433 ffbc 02f0 9eba 92f8 f3bc
00000160: 6f81 d53c 1f98 b2bc 647e 9c3b 56b7 c73b
00000170: d6dd 59bd 718a b9bc b645 ce3c b308 e13c
00000180: 461b ecbc b103 723b af49 cd3b b15b 95bb
00000190: a48c fcba d3fd b93c 875a 8dbc 2d35 7b3c
000001a0: 4493 03bc eebb 91bc 1c86 49bc 5714 bd3b
000001b0: 560e f43b c4c6 10bc 14e7 133c 8e4f f03c
000001c0: 9fb0 393b c58b fc3b 46a6 63bc 6c9d 7e3c
000001d0: f077 aebb 9325 1b3b 1a31 9ebc f0bc 9c3c
000001e0: 679e 52bc a90e fb3c aeed 2a3c 8cce edbb
000001f0: 000b 24bd 1001 c83c 3554 d5bd 33a5 f5bc
00000200: 6ce1 c8bd b8f1 6fbd 1066 9739 72d3 2cbd
00000210: b269 b8bc f616 363d 3971 ff3c 1c7a a73d
00000220: 47ad 1c3d 2c10 a13d af59 efbb 77bb 1d3d
00000230: 8578 a83d 545b ef3b ecc2 96bd a0a6 8c3d
00000240: d48d 283b df7a bdbd b93c b7bd 892b a23c
00000250: 49fb d83c 4d21 7c3d 3512 623b e080 65bd
00000260: fbd2 f1bd f8da a33c 770b ba3d 3891 a53d
00000270: 8950 b1bd 7970 f5bc dd77 8dbd 5ab0 78bd
00000280: cea3 eb3c 49b7 b73d 1087 3b3d e263 efbd
00000290: da2a b03d 5ed7 92bd 4b7a 073d 382f cf3d
000002a0: 2e5e f93b 9d9d 243e 5b6e 29bd 9746 14bd
000002b0: af9f 1b3d 8657 a7bd 62a8 e1bb c73d afbd
000002c0: 8efd 1c3d 5561 803d 74de 793d 85b0 61bc
000002d0: 5239 76bd 7ffc 363c fc04 6d3c 619c 69bd
000002e0: eddc 37bc 8abb b83d aee2 153d 5a43 17ba
000002f0: e10b 25bd 74bc 97bd 1b5b 35bc b33d 273c
00000300: a5c0 9abd 90bb 073d cd58 c4bc 8df4 88bc
00000310: 5569 243d 5fbc c43d 6fdd ac3d f144 283c
00000320: 35c6 babd def2 ae3c e17d e3bd 52be 85bd
00000330: 9609 8b3b d11a 75bd ef51 36bd 4095 0e3e
00000340: 1bab be3d b865 473d 7378 b9bd dc91 9dbd
00000350: 9d0c 41bd 4518 873c dcac 80bd 95ab 873c
00000360: e7e3 e33b 0d23 693d 19cf 26be c287 153d
00000370: 6e13 e0bc c0f0 0e3d 02a8 c9bc 951e a73d
00000380: 6c20 b7bd 3db3 be3d 8d06 09bd 2f85 d13d
00000390: 1826 bc3d 24d9 86bd a588 0dbe 38e6 db3d
000003a0: e9d2 a83d 0abe 9dbd 88cd 28bd dc00 ffbd
000003b0: ee26 e8bd 0d90 83bd 7b1e 663c 8d6b 143d
000003c0: 2c9c b7bc ec9c 3b3e 9b49 4f3d 8895 46bd
000003d0: cd24 a93c 3ac6 953c 0f46 a13d 32eb 0bbe
000003e0: 815e ab3d b671 9abd 6b8e e5bd 72d1 b6bd
000003f0: f866 173e 3c72 0c3e c214 e23d b62c 9e3c
-0.0048498977 -0.016633838 -0.0070183123 0.0025267398 -0.014375306 -0.010370981 0.013059055 0.003350912
-0.008876459 -0.013358926 0.01747039 -0.015576506 -0.008724552 -0.007569233 0.0153528545 0.014430614
0.0028369646 -0.012018826 -0.0045148693 0.012182933 -0.028103806 0.02166546 -0.016469996 0.0072171087
-0.046242926 -0.027041137 0.0018340492 -0.0025256802 -0.0014582238 0.030184252 -0.026212746 0.029738374
-0.025585104 -0.049943678 -0.01827412 0.00559854 0.009377982 -0.031673383 0.011805539 0.042159155
0.01653679 -0.0043510254 -0.03776005 0.024597088 0.04731825 -0.009962446 -0.02078678 0.047441363
0.0056894273 0.07525786 0.03014578 0.0016764936 -0.00071233563 -0.046224065 0.058426026 -0.0417137
0.022283299 0.07036185 0.015995152 -0.022904195 0.0034304857 0.040311802 0.0025241582 -0.002871972
0.009165906 -0.024571624 0.025750913 0.023258146 -0.038843557 0.029850883 -0.015670083 0.025111815
0.015670175 -0.020573752 -0.0021274178 -0.0017171769 0.031794738 -0.02619049 0.05812015 0.0029931418
0.0033129398 -0.0062185195 0.003530594 -0.01728 -0.011361036 -0.031152405 -0.0012125971 -0.029781613
0.026062695 -0.021801053 0.004775809 0.0060948534 -0.053190075 -0.022649022 0.025179725 0.027469968
-0.028821599 0.003692847 0.0062648873 -0.0045580496 -0.0019267988 0.02270404 -0.01725508 0.015332502
-0.008030716 -0.017789807 -0.012300041 0.005770247 0.007447998 -0.008836452 0.009027261 0.02933481
0.0028334034 0.0077070915 -0.013894623 0.015540462 -0.0053243563 0.002367352 -0.019310523 0.019133061
-0.012855149 0.030646639 0.010432644 -0.0072572883 -0.040049553 0.02441457 -0.10416452 -0.029986
-0.09808621 -0.05858013 0.00028877007 -0.042193837 -0.022511337 0.04445549 0.031181918 0.081775874
0.038251188 0.07864413 -0.0073043923 0.03850886 0.08226112 0.0073045883 -0.07361397 0.06867719
0.0025719302 -0.092519514 -0.08947129 0.01979615 0.02648701 0.061555196 0.0034495716 -0.056031108
-0.118078195 0.020001873 0.09084218 0.08084339 -0.08657939 -0.029960858 -0.06907628 -0.060715057
0.028764632 0.08970506 0.045783103 -0.11688973 0.08601923 -0.07169984 0.033075612 0.10116428
0.007610104 0.1607575 -0.04136501 -0.036200132 0.037994083 -0.08170991 -0.006886528 -0.08556705
0.038327746 0.062685646 0.061003163 -0.013774996 -0.06011326 0.011168598 0.01446652 -0.0570339
-0.011222106 0.09020145 0.03659313 -0.0005770229 -0.04029453 -0.074089915 -0.0110690845 0.010207581
-0.07556275 0.033137858 -0.023968125 -0.016718173 0.040139515 0.096062414 0.084406726 0.010270343
-0.09119836 0.021356042 -0.11107994 -0.06530441 0.004243086 -0.059840027 -0.04451173 0.13924122
0.093099795 0.04868099 -0.09056177 -0.07693836 -0.04713117 0.016491065 -0.0628297 0.016561309
0.0069546583 0.056918193 -0.16289939 0.036506422 -0.027353015 0.034897566 -0.024616245 0.0816013
-0.08941731 0.09311531 -0.033453513 0.10230481 0.09186953 -0.06584385 -0.13821657 0.1073727
0.08243353 -0.07702263 -0.041211635 -0.12451336 -0.1133555 -0.0642396 0.014045353 0.03623538
-0.022413336 0.1832158 0.050607305 -0.048482448 0.02064743 0.018282998 0.07874691 -0.13663939
0.083676346 -0.0754122 -0.11208805 -0.08926667 0.14785373 0.13715452 0.110391155 0.01930843

encoder.layers.0.self_attn.out_proj.bias f4 [24]
00000000: b066 b83d 0ca8 883d f3c2 0a3c 30cd 893d
00000010: 4cef a23c 3e8d 853a da7e 3c3c d4f8 10ba
00000020: 15b4 223c 767f aa3b 667f 63bc 22d1 59bb
00000030: 8ee8 603b 89b1 c73d aec4 23bd e08d 253c
00000040: b5b4 e83c e878 38bb c1fd f43c 3114 c23c
00000050: b9b6 40b8 c9a9 fc3c 1f22 2cbc 034d 5cbc
0.09003961 0.066726774 0.008469331 0.067285895 0.019889496 0.0010189188 0.011504853 -0.00055302423
0.00993063 0.005203183 -0.013885355 -0.0033236225 0.00343183 0.09750659 -0.03998249 0.010104626
0.02840648 -0.0028148238 0.029906156 0.023691269 -4.594654e-05 0.030842679 -0.010506182 -0.013446095

encoder.layers.0.linear1.weight f4 [128, 24]
00000000: 30f1 dd3b 9e3e 14bc 310f 94bc 0185 b73b
00000010: 7592 76bc b9b5 203d 9682 0a3c 82fe f2bb
00000020: 66d0 f73c 32fa a6bc eac2 8fbc 4070 53bd
00000030: 99ca d5ba 6472 243c bdb4 a63c f20c ad3b
00000040: 27d6 15bc c462 2a3d e9bb 8b3c 4cf3 833c
00000050: 23c9 53bd e8e6 3a3c e968 e6bb 8ce8 063e
00000060: 6335 afbb e11e 06bc 2eea f03a af55 1f3d
00000070: 21bc 13bc 1373 0e3e 3042 5f3e 79d9 d03c
00000080: 767d 7ebd b312 14be 4902 c9bc 1719 02bc
00000090: cd69 9e3c c1a4 c0bc 7610 0f3e 38e8 d9bc
000000a0: c44e 47bd 8bf3 e3bc e0c3 83bd 0b77 57bc
000000b0: 06f2 9f3d 01ee bbbc 87fe 7cbb c025 50bc
000000c0: 67e5 013d 5871 e63a baa4 b33c 335d 4c3d
000000d0: 13bb 1f3c 6413 943c 91c2 1a3d db73 583d
000000e0: d98f bfbd 8f0b dfbd b946 563c 5685 df3c
000000f0: c9ee 9abc 2ca9 133b c040 c23c 79ef b2bb
00000100: 7355 2fbd b71f ac3b 545c f3bc 5007 32bd
00000110: b1d3 8a3d 1af7 9dbc 9b16 323c 7080 943c
00000120: e5ed 143d f8e1 133d eea0 683d 3618 6e3c
00000130: d609 75bc 6ad6 8abd 2456 dfbc e199 c4bb
00000140: b6fa 50bd 5ea0 713e 4814 b3bc 0ffb 5c3c
00000150: 20d2 163d 017e 95bd edb4 ad3d 1d7a 24bd
00000160: cb6f cc3c cd02 683c 65f0 1ebe 35d1 01bc
00000170: 2d93 ce3d 827a 0fbd e1c1 4f3c 14de 8a3d
00000180: ef82 dcbb fce8 f1bc 78ef 143c 2be2 8e3c
00000190: 1dd8 c0bb e5f6 e73c d336 8cbc 6359 183c
000001a0: 1e31 ae3d ddbf c53b a426 24bd b227 453d
000001b0: 7a3f e13b ec9e 253c bbc4 29bc 7e7a 3abc
000001c0: 8b16 c1bc cf71 8fbd 4628 173b 8448 f4bc
000001d0: 27fe 91bd 46ef dabc 9602 8cbc e334 41bd
000001e0: e8e1 b23b 9f27 b5bc 2673 adbd 928f ff3d
000001f0: 853e 2fbd 60be ceb8 3fb7 94bc 410b 123d
00000200: eca2 c1bd 41be a7bd f1bf 02bd 0fcf ab3c
00000210: 7f64 44bc a76c 51bd 7b6f 1dbc d031 47bd
00000220: 3351 d63d cdcf fbbc bd5a 86bd d7e5 823d
00000230: b03a bf3c 4239 3b3d a0e9 723c e872 4ebc
00000240: ddbc abbb d676 29bc 90f7 883c 0809 f53c
00000250: 4672 18bc 1a26 98bc 8839 d63c 123a 98bc
00000260: 931b e7bb ff6a 873c fb34 043d 7879 18bc
00000270: a5ef 10bc 7a19 343c a5de ac3c c898 233d
00000280: 5d78 acbd da32 923a 6161 c03c 8f26 1fbd
00000290: a604 36bd c89c 963c db55 d8bb da03 f9bc
000002a0: 95b0 5b3d 6180 e63c 5b46 8abb 7ef5 45bd
000002b0: 4bcd 6c3c 49f4 9f3d b5f1 7fba 34e1 163c
000002c0: 945e 26bc f7cf 6c3b 9628 f0bb 163a 02bc
000002d0: 5013 70bc 52b8 77bb 2bc0 44bd aad6 dcbd
000002e0: 0f6e 8e3e a94e 19bd 27f5 05be ab4a d23d
000002f0: 3850 163c df65 f6bb 851d 683d a1cf b5bc
00000300: 6d02 d43c 887a 673c bdac b33c aeed 763c
00000310: abec 043d 11c8 86bd 83c3 0cbd 761d 233d
00000320: 977e 003c 6e4c 8abc 2087 3fbd 7627 753d
00000330: c26d 1cbc dff4 ac3c a21a 743d 84aa 61ba
00000340: d2c8 d8bb afe2 d13b 8f48 343d d8a0 c8bd
00000350: ca81 993d 302c b6bc 4364 443d 34e6 bc3c
00000360: 7e0c 38bb 81d0 2a3d e478 0bbc 84f5 de3c
00000370: 9192 72bb 4807 91bc 5c7f 81bc a526 433c
00000380: 4d0c d7bb 01f5 98bb 8593 a43c e8f6 c5bc
00000390: 0c49 09bd c6f5 923c bbb0 7bbb b469 1fbd
000003a0: 2807 9c3c f717 aa3b 4525 98bc f092 6dba
000003b0: d183 703c 5e3e f3bc 0e7e 213c cc0e c1bc
000003c0: 9fd6 b03a c862 5b3d 0415 bbbd d76a a63b
000003d0: d236 86bc 37f5 793b 5723 bbbc 9ba5 f4bc
000003e0: a7c0 053c 8109 19bc e092 81bc ad92 243c
000003f0: 7114 723d 8e25 95ba 66c0 703d 7cb0 ac3d
0.0067731366 -0.009048132 -0.01807365 0.005600572 -0.0150495665 0.039235804 0.008453986 -0.0074155936
0.03025074 -0.020382974 -0.017548997 -0.05162072 -0.0016310989 0.0100370385 0.020349855 0.005281084
-0.009145296 0.041598096 0.017057376 0.016107224 -0.05170549 0.011407591 -0.0070315492 0.13174647
-0.0053469404 -0.008186073 0.0018380338 0.038900074 -0.009017021 0.13911085 0.21802592 0.025494324
-0.062131368 -0.14460258 -0.024537222 -0.007940552 0.01933756 -0.02351606 0.13971123 -0.026599988
-0.0486591 -0.027826091 -0.064338446 -0.013150941 0.07809834 -0.022940638 -0.0038603859 -0.012704313
0.031712916 0.0017581386 0.021929134 0.04989357 0.009749192 0.018075652 0.03778321 0.052844863
-0.09353609 -0.108908765 0.013078385 0.02728526 -0.01891269 0.0022531254 0.023712516 -0.0054606763
-0.0428061 0.005252804 -0.029707111 -0.043464005 0.06778658 -0.019282866 0.010869647 0.01812765
0.036359686 0.036104172 0.0567941 0.0145321395 -0.014955958 -0.067791775 -0.027262755 -0.005999789
-0.051020347 0.23596331 -0.021860257 0.013487591 0.036821485 -0.07299424 0.084817745 -0.04015552
0.02495565 0.014160824 -0.1552139 -0.007923414 0.10086665 -0.035028942 0.012680502 0.06780639
-0.0067294757 -0.02953004 0.009090297 0.01744183 -0.0058851377 0.02831597 -0.017115986 0.009298655
0.08505462 0.006034835 -0.040075913 0.04813356 0.006874022 0.010108691 -0.010361846 -0.0113817435
-0.02357032 -0.07004129 0.0023064776 -0.029819734 -0.07128554 -0.026725423 -0.017091077 -0.047169577
0.005459059 -0.02211362 -0.084692284 0.12478556 -0.042784233 -9.8583056e-05 -0.018153785 0.035655264
-0.09454903 -0.08190585 -0.03192133 0.020972757 -0.011986851 -0.05112901 -0.009609099 -0.04863149
0.10464706 -0.030738736 -0.06560276 0.06391495 0.023343414 0.045708902 0.014826208 -0.012600638
-0.00524102 -0.010343274 0.01671961 0.029911533 -0.009304589 -0.018572856 0.02615048 -0.018582378
-0.0070528476 0.016530512 0.03227709 -0.009306304 -0.008846198 0.010992402 0.021102259 0.039940625
-0.08421395 0.0011154071 0.023483934 -0.03885513 -0.044438027 0.018385306 -0.0066020316 -0.030397344
0.0536352 0.028137388 -0.004219813 -0.048329823 0.0144532425 0.078102656 -0.0009763495 0.009208966
-0.010154385 0.00361347 -0.007329057 -0.007948419 -0.014653042 -0.0037799072 -0.04803483 -0.107831314
0.27818343 -0.03742853 -0.130818 0.10268148 0.009174399 -0.007519468 0.056668777 -0.022193732
0.025880063 0.014128335 0.021932954 0.015071316 0.032452267 -0.065811284 -0.034366142 0.039823018
0.007842681 -0.016882148 -0.046759725 0.059852086 -0.009547653 0.021112857 0.05959571 -0.00086084777
-0.0066157365 0.0064051966 0.04401451 -0.097963035 0.074954584 -0.022237867 0.04794718 0.023058988
-0.0028083618 0.04170275 -0.008512709 0.02721668 -0.003701363 -0.017703667 -0.0158078 0.011911069
-0.0065627457 -0.0046678786 0.020089874 -0.024165586 -0.03351693 0.01793946 -0.00384049 -0.038919166
0.019046381 0.005190845 -0.018572459 -0.0009062728 0.014679865 -0.029692825 0.009856714 -0.023566626
0.0013491696 0.053561002 -0.09134868 0.0050786543 -0.016383562 0.0038140544 -0.022844 -0.029864123
0.008163608 -0.009340645 -0.015817106 0.010044736 0.059101526 -0.001137899 0.058777235 0.08432099

encoder.layers.0.linear1.bias f4 [128]
00000000: 64c8 b4bd 2436 b93d a638 4c3d 6f5d 84bd
00000010: 3884 dfbc 1585 b1ba 7d62 163c 9f4d 32bc
00000020: b4ed f33c d37c 86bc 98a6 863c 1141 f03d
00000030: 2925 463c c15c eabc 0af8 d3bc e3a2 043d
00000040: 6c4c fd3c c0e1 a3bb b432 a1bd e92c 293d
00000050: 8a9b 76bd 0788 df3c 70c6 96bc cbf0 dcbb
00000060: a108 363c 83c4 c6bc fb52 d5bb 4342 3dbd
00000070: 758c 03ba 56b9 163d 3cab 133d f10f a43d
00000080: 1c87 b1bc 3935 5b3d c2bd c9bd b12f 673d
00000090: 89e9 233b fb30 143d 94f8 a43d 41f6 793d
000000a0: fc15 f73c 735c d93d 2396 c3bc 9286 55bc
000000b0: cb2c dfbd 9f2a daba 4e5b 203d e025 c7bd
000000c0: 6a32 5f3d d87b 593d acf8 f13d e289 e6bb
000000d0: 2a73 323c 2ddc a7bb 8485 54bd 2954 2ebd
000000e0: a1bc 84bd 705c b23b b097 b0bb bf51 6abc
000000f0: 6272 4f3d a109 22bd eca1 23bd cddd 193c
00000100: 235c 923b 33d1 6bbd f524 35bb 4c0d 12bc
00000110: 760d 43bd 5d60 c93d 4445 11bd 9d08 e33c
00000120: 7852 633d 0cd0 d1bb b925 30bd dd54 40bd
00000130: fca5 a73c f9b5 90bd de99 d8bc d345 143c
00000140: 2ce4 dfbb fcfa 373d 2522 283d 15de 8ebc
00000150: 6f95 88bd a0b1 643d ca66 453c bd9c e03b
00000160: 6d0e 11bd 0e3d 043c 30f5 07be 5368 adbc
00000170: 9754 6cbd 5b58 eebd 01f9 68bb 8b52 68bb
00000180: bc5b f3bb 12fa 25bd 44dc a53c eae2 da3c
00000190: 8505 9ebd c187 4e3b 3e97 3d3d eed3 c63d
000001a0: 7b41 333c 6a73 c63d a894 2cbd 1afb a1ba
000001b0: 32da 67bd 737e f9bb 5a08 603d 10f2 6cbd
000001c0: 88fd 903d deb9 aabc 909d 08bd 29c4 643d
000001d0: 9086 a5bc 57c4 ae3c fe80 db38 e92b b73d
000001e0: a690 00bc 4c73 3f3d 858d 91bc 9a84 eebd
000001f0: 969d ea3c 9c80 1ebb eeac bc3c 296e 333b
-0.08827284 0.0904353 0.04985871 -0.064631335 -0.027284727 -0.001354369 0.009178755 -0.010882764
0.029776432 -0.016416943 0.01643686 0.117311604 0.012093821 -0.028608682 -0.02587511 0.032381903
0.03092023 -0.0050012767 -0.07870999 0.041302595 -0.060206927 0.027286543 -0.01840517 -0.006742572
0.011110456 -0.024263626 -0.006510136 -0.04620577 -0.0005018183 0.036797844 0.036051974 0.08010853
-0.02167087 0.053517554 -0.098506466 0.056441966 0.0025011024 0.036179524 0.08055225 0.06102586
0.03016185 0.106133364 -0.023875302 -0.013032572 -0.108972155 -0.0016644782 0.039149575 -0.09724021
0.054491438 0.053096622 0.118150085 -0.00703548 0.010891715 -0.0051226825 -0.051885143 -0.04256073
-0.064812906 0.0054431483 -0.0053891763 -0.014301716 0.050646193 -0.039559964 -0.039949343 0.00939126
0.00446655 -0.057572555 -0.0027640436 -0.008914303 -0.04762026 0.09832833 -0.035466447 0.027714068
0.05549857 -0.006402975 -0.043004725 -0.046955932 0.02046489 -0.070659585 -0.026440557 0.0090498505
-0.00683262 0.04491709 0.041048188 -0.017439881 -0.06669127 0.05583346 0.012048433 0.006854622
-0.035414148 0.008071197 -0.13277125 -0.02116791 -0.05769786 -0.11637946 -0.0035548809 -0.003544959
-0.007426707 -0.04052169 0.020246632 0.02671953 -0.077158965 0.003151402 0.046286814 0.09708391
0.010940905 0.09689982 -0.042133957 -0.0012358159 -0.05660457 -0.007613951 0.054695465 -0.057848036
0.07079607 -0.020840582 -0.03335339 0.055851135 -0.020205766 0.021333857 0.000104667604 0.08943922
-0.007846987 0.046740815 -0.017767677 -0.116463855 0.028639596 -0.0024185544 0.023031678 0.0027378893

encoder.layers.0.linear2.weight f4 [24, 128]
00000000: e452 183c 6a54 8c3c 71b3 8bba 0965 263b
00000010: a2c1 0b3c b114 0bbc faff 0a3c 978a 34bb
00000020: e440 33bb b803 233a e10b 4d3c 3ffc f33b
00000030: d019 253c f2ed e73b 45e7 f83b 53ad b53b
00000040: 2b1f b13b afd2 003a ed50 ed3a b854 0a3c
00000050: 7a1f 3ebb 8ca2 a5ba 792c 4a3c 3ba2 5d3c
00000060: f148 573c ad5f 31bb 19a2 d8bb ea15 f038
00000070: a21c 9c39 e989 8a3b 84cb 293c f98b f43b
00000080: 647f b4bb 8f26 643c 508f e23b 2d5a 4d3c
00000090: b291 bc3a d4e1 0a3a d876 6f3c dbf4 553a
000000a0: e101 2f3c a9e4 9b3c 7d34 1b3c 849b 133c
000000b0: bf61 afbb 823d a03b 18df 043c d435 443b
000000c0: 8939 813c e084 6b3c 6e1e 1b3c 1595 b63b
000000d0: 7374 97b9 5c79 923c 1f67 123c abe5 6a3c
000000e0: 4af6 96bb 2b1d 243c 2dd5 f83b 7f6f 16bb
000000f0: 7d57 373c 4f82 ee3b eb27 003c dff7 193c
00000100: 3b44 57bb adb1 5eba bf4d 413c 69e5 303c
00000110: 86da ea3b e3f2 893c 1383 423c 4ccc ff3b
00000120: 4646 233c f3f4 aa3b c437 90bb 2a3a fa3a
00000130: 017d e53b f80c da3b 9448 1f3c aedc 15ba
00000140: ef9b 943a ef9d b73b f771 9c3a e519 943b
00000150: bd5f 8c3b 0872 943c 94ba 07bb bf2f 983b
00000160: 61b7 70ba 822a 6bba 766f 9c38 743e 1f3c
00000170: 1f3f ca3b 7a05 82b8 955f a83b c7a6 44b9
00000180: 766e 503b 84ee 0c3a cfe7 e83b dcbf 5f3c
00000190: a3cd 493a 32a3 1dbb 206f 2a3c 2ab4 8d3c
000001a0: e57c 163c dfc9 7ebb 1d3a 7a3b a6e6 8f39
000001b0: 7097 1bb9 b11e 3d3c 45a9 313b 9846 213c
000001c0: 72d2 24bb eb5f a73b d979 f13a 3765 843c
000001d0: 3b0f 953b d8ae 2e3c 7ff4 093c 32ef 693c
000001e0: 49ca 36bb 9280 233c 04ca 1a3b 2a2b 5a3c
000001f0: bfdc e03b e882 ad3a 6b63 4c3c ecc7 773b
00000200: 84ca ff3b 98ad 2b3d 9b4a 00bb ec3c 113c
00000210: 9b8d 15ba ef4e 04bd 47bb 4d3b 8ef7 3ebd
00000220: 2e3c 9b3b 628c e83a c2e2 e2b9 05fb 173d
00000230: e235 bf3b 121e 103d 97f0 d7bc be90 cabb
00000240: e5a1 753a 9b2d 0dba 8476 343a b090 bb38
00000250: cd4b 5fbc bf91 633c aa3c 27bc 5bdb b6bb
00000260: 9767 913b c5ba 22bb 0ada d23a 7e6a efbb
00000270: 8a8f ceba 305c ecbc 5adc 87bb 7d9d a3ba
00000280: f917 533c f10a 1d3c 0711 863c 984f fabb
00000290: fc9d 003c cc83 b23b c4f8 493d 91f2 093c
000002a0: c575 173b 9ba7 9639 be1d 40bb fb68 b33b
000002b0: 93fd 233d 74dc fe3c 6608 123d 82a9 b43b
000002c0: 6a45 443d 09da 7fbb 139c acbb a076 0ab9
000002d0: 66cd 2f3c 5c2a 6bbc 9f75 d5ba c3fd a43b
000002e0: 4c08 da3c fe7d c2bb 6a98 f1ba 73bb 093c
000002f0: ef7c 693b aa67 833c 22d9 423d 00ae 2bbb
00000300: 568b 333c d532 65bc 4382 683b 825e 0a3b
00000310: e254 363c 08e0 e03b 2c19 573d e561 793b
00000320: fd50 4b39 2774 c73a b3af 64bc f128 4bb7
00000330: 7837 54ba aa4d 2abc afdd f03b b9a6 8abb
00000340: 9e96 8a3b 36d7 583b 27b3 61bd 7745 fc3b
00000350: d0ca 9f3c 7b67 423d 82e8 7a3c 70cc 553c
00000360: d97a ffbc e1c9 ab3c 2b76 f53c 8ff2 1dba
00000370: e83d 95bb 907e c23c 4046 10bc 69ca 793c
00000380: 6dcd 71ba 93da 13bd faf5 87b8 414a c8bb
00000390: 54c3 7b3a d9d1 0c3c 4237 503a 4ac1 46bc
000003a0: e472 0cbc 0dbc 423c 72cc 2bbb b78f a3bb
000003b0: f10f 0b3d 6a61 9abb 0374 8a3c da5a 2f3c
000003c0: 7908 8cbc c32a 8439 7d95 673c 83c5 37bb
000003d0: 779f 1bbb acbc e53b 1ac6 8fbb 3636 a23c
000003e0: dee9 c23b 233f 09bb 4ad6 0ebc 189c 27bc
000003f0: 9efa 05bc f5e0 0a3c 3cf0 443b 0f84 6bbb
0.009297106 0.017130096 -0.0010658336 0.0025389811 0.008530052 -0.00848882 0.008483881 -0.0027548426
-0.002735191 0.00062185107 0.012515039 0.0074458416 0.010076955 0.007077926 0.007595929 0.0055443435
0.005405327 0.0004914207 0.0018105783 0.00844305 -0.002901046 -0.0012636944 0.012339705 0.013527448
0.013139949 -0.0027065084 -0.0066111204 0.000114481736 0.00029775972 0.004227866 0.010363463 0.007462975
-0.00550835 0.013925209 0.006914057 0.012533707 0.0014386682 0.0005297933 0.014615737 0.00081617915
0.0106816 0.019029932 0.009472963 0.009009246 -0.0053522284 0.004890145 0.00810983 0.002993931
0.015774505 0.014374942 0.009467704 0.005571971 -0.00028887726 0.017880134 0.008935719 0.014336984
-0.0046069967 0.01001672 0.007593772 -0.002295464 0.011190292 0.0072787176 0.007822017 0.009397476
-0.0032847065 -0.00084951037 0.011798321 0.010796883 0.0071671633 0.01683945 0.011872071 0.0078063365
0.009965485 0.0052171885 -0.004401179 0.001909082 0.007003427 0.006654378 0.009721894 -0.0005716783
0.0011337976 0.005603544 0.001193582 0.0045196884 0.004283874 0.01812078 -0.0020710574 0.0046443637
-0.0009182599 -0.0008970873 7.459421e-05 0.00971948 0.0061720754 -6.199903e-05 0.0051383474 -0.00018754146
0.003180412 0.0005376118 0.007107712 0.013656583 0.0007698184 -0.002405357 0.010402471 0.017297823
0.009185051 -0.0038877649 0.003818161 0.00027446932 -0.00014838367 0.011542962 0.002710895 0.009843491
-0.002514985 0.00510787 0.0018423154 0.016161544 0.0045489348 0.010661803 0.008420109 0.01427822
-0.0027891567 0.009979384 0.0023618946 0.013315955 0.0068622525 0.0013237866 0.012474875 0.0037808372
0.007806124 0.0419136 -0.0019575718 0.008864623 -0.0005705 -0.03230184 0.0031392144 -0.046622805
0.0047373986 0.0017742033 -0.00043275027 0.037104625 0.0058352808 0.035184927 -0.02635984 -0.0061818054
0.00093701325 -0.0005385519 0.0006884115 8.943805e-05 -0.013628912 0.013889729 -0.0102073345 -0.0055803484
0.0044373977 -0.0024830562 0.0016086709 -0.007306396 -0.0015759331 -0.028852552 -0.004146141 -0.0012482848
0.0128841335 0.009585128 0.016365541 -0.007638883 0.007850166 0.0054478403 0.049309507 0.008419649
0.0023110968 0.00028735105 -0.0029314603 0.005475161 0.04003675 0.03111098 0.03565254 0.005513371
0.04791776 -0.0039039871 -0.005267629 -0.00013204897 0.010730123 -0.014353361 -0.0016285664 0.0050351336
0.026615284 -0.0059354296 -0.0018432264 0.008406508 0.0035627445 0.016040642 0.047570355 -0.0026196241
0.010958513 -0.01398917 0.0035478033 0.002111346 0.011128636 0.006862644 0.05251424 0.0038052734
0.00019389759 0.0015217111 -0.013957906 -1.2109275e-05 -0.00080954237 -0.010394493 0.0073506455 -0.0042313007
0.0042293807 0.003308726 -0.055102494 0.0076987105 0.019505888 0.047461968 0.015314223 0.01304923
-0.031186508 0.020970287 0.029963573 -0.0006025219 -0.004554499 0.02374199 -0.008805811 0.015246012
-0.0009224031 -0.03609712 -6.483118e-05 -0.0061123674 0.00096039963 0.008594953 0.00079428044 -0.012131045
-0.008572314 0.011885655 -0.0026214388 -0.0049914974 0.03395075 -0.0047113197 0.016901022 0.010702813
-0.017093884 0.00025208862 0.014134762 -0.002804131 -0.0023746172 0.007011017 -0.004387629 0.01980124
0.0059482893 -0.0020942173 -0.008718083 -0.010230087 -0.008177428 0.0084764855 0.0030050417 -0.0035936867

encoder.layers.0.linear2.bias f4 [24]
00000000: 765a 033d d6aa 743c 6303 a2bc 369e 723c
00000010: bdc3 36ba a849 c1bc 16fe c2bc 0c91 15bb
00000020: 74f2 453c fa6b b4bc 5b7e 36bc 2c1c bd3c
00000030: b940 b2bc edcb d0bc 5907 e7bb 40a6 1b3d
00000040: 2d74 b5bc f6b6 15bd 8884 e8bc 7a41 89bc
00000050: c028 8e3c 86bc 783c 3f47 9ebc f873 54bd
0.032068692 0.014933309 -0.019777006 0.014808228 -0.00069719163 -0.023594692 -0.023802798 -0.002282205
0.012081731 -0.022024143 -0.011138524 0.023084722 -0.021759378 -0.025487864 -0.0070504365 0.038000345
-0.022150123 -0.03655144 -0.028383508 -0.016754854 0.017353415 0.015181666 -0.019321082 -0.05186841

encoder.layers.0.norm1.weight f4 [24]
00000000: 9a35 653e 1ba1 c33e 70f7 0d3f 43f4 893e
00000010: 5dec 533e e935 d43e d0c6 5c3f 20a9 503f
00000020: b784 2c3f b154 8d3f 7261 6a3f 98c2 643f
00000030: 4673 563f 7c1e bc3e decb 403f 3451 563f
00000040: 8b04 483f 6179 463f ce97 143f d63b c33e
00000050: e7b2 6b3f 01d5 e03e fb9a 613f a823 443f
0.22383729 0.3820885 0.55455685 0.2694417 0.20695634 0.4144738 0.86240864 0.81508064
0.67390007 1.1041471 0.9155494 0.89359426 0.83769643 0.36742008 0.75311077 0.83717656
0.7813193 0.7752896 0.58044136 0.3813159 0.9206986 0.4391251 0.88127106 0.7661691

encoder.layers.0.norm1.bias f4 [24]
00000000: 7fc9 3c3d 9466 d93d 692d 11bc e2a2 c53d
00000010: ea4f 0e3c ee8e 6ebd 29ff 8ebc 0513 30bd
00000020: 6cb9 603d 5d87 21bd f250 873c a019 35bd
00000030: cbf2 9f3c 76ac e13d 05ee 40bc def4 4b3c
00000040: 39bd 0dbc 039b 14bc 7cab 923d 9762 00bd
00000050: f530 543b 80e3 573d 7c7e a9bc 8f6e 26bd
0.0460906 0.10615268 -0.008860924 0.09650208 0.008686045 -0.058241777 -0.017455654 -0.04298689
0.054864332 -0.039435733 0.01651809 -0.04421389 0.019524952 0.110192224 -0.011775498 0.012448518
-0.008651071 -0.009070161 0.07161614 -0.031344023 0.0032377813 0.052707195 -0.020690195 -0.04063278

encoder.layers.0.norm2.weight f4 [24]
00000000: 19a5 533e 0d1a 273f f92a 253f 69a5 b23e
00000010: 38a3 fc3d 4f4d 233f 9ee7 cf3e 2dd5 613f
00000020: 1f96 4c3f 8efb 663f 43f3 4a3f 1be0 673f
00000030: 0bc6 5d3f 8f86 093f 800b 4a3f db61 cc3e
00000040: 30de 3a3f 58cf 133f 444a 3f3f 58bd 9b3e
00000050: 6378 643f 20b4 0d3f 0391 593f 0a5e 4b3f
0.20668449 0.65274125 0.64518696 0.34891823 0.12335819 0.6378984 0.40606397 0.88215905
0.79916567 0.9022759 0.7927744 0.9057633 0.86630315 0.53720945 0.789238 0.39918408
0.7299528 0.57738256 0.74722695 0.30417895 0.89246196 0.55352974 0.84986895 0.7944037

encoder.layers.0.norm2.bias f4 [24]
00000000: bc96 303c 584b cc3d e8dc febc c921 80bc
00000010: fe42 cdbb 814f a3bb a03a 0a3d 04f0 eabc
00000020: 6baf 5d3b 5d23 a93b 3265 e43c 00ca 4fbc
00000030: 49a6 393c 12c1 2e3d 6ba2 71bd f1a2 c3bb
00000040: e31f 8a3b aa0a 743c e1bd 393c eb8f b5bc
00000050: 1af8 ccbc 5774 5b3c e82a 3bbd d2f7 a53c
0.010778125 0.09975308 -0.031111196 -0.01564111 -0.0062640896 -0.004983843 0.033747315 -0.028678901
0.003382648 0.0051616863 0.027880285 -0.012682438 0.011331149 0.042664595 -0.058992784 -0.005970352
0.004215227 0.014895121 0.011336775 -0.022163352 -0.025020648 0.013394437 -0.045695215 0.020259771
