checkpoints/mlp_normal/2023_07.pt (torch, 18270 bytes, 19 tensors)

_network.0.weight f4 [32, 5]
00000000: 8630 743d 1d5b e43d 8aa4 903e 397c 413d
00000010: 06a8 b0be 084f 79bd 66ee d5be c9d2 91be
00000020: d9e9 8dbd 9812 b63e fe61 b83e 8ef5 543e
00000030: b83e 823d 93d7 e13e 0f70 333e 4b0c 51be
00000040: 237a 04bf d621 75be 0aca 96be 85b8 51bb
00000050: 7c9b 5fbe ad30 89be 198c 523d c7a5 aebe
00000060: c9a3 8dbe ee72 89be 0a5a 33be fa8f 9a3e
00000070: ca00 49be 927f bc3c 7472 ab3e 5b54 e9bd
00000080: 7038 38bc ffc7 aa3e 739c c3bd 23e8 a4be
00000090: 33b5 d33e 1d98 50be f70a d4be 96d7 8ebe
000000a0: 3e5f 9bbd 7b93 0b3f e1e3 7bbe 29c1 61bd
000000b0: 759b d4bc 3d91 673e 86de 1bbf 1f6f 843d
000000c0: c63d 3cbe 05b9 5abe 3e3c 9bbe f86c 34be
000000d0: 6903 eebe 9324 373e 2292 3ebe 1023 8a3d
000000e0: c53c dabe fb48 66bd 85b9 a13c e0fb 28be
000000f0: 9913 48be e34a 1a3d 8b9c 1bbf 97cc a03e
00000100: da7e a3be b4c4 f5bb bba0 02bf cabc 3cbe
00000110: 6cba 5a3e 85ba 913e 3a9a 3abe 51ad d6be
00000120: 8551 343e 5858 af3e 56b1 b83e d61a a13e
00000130: 9f6e 563d 95a4 cc3c 0a71 9dbe c0df a8be
00000140: f968 d7bc 2f0f 6abe 2951 f4be 2953 8e3e
00000150: 4d16 ad3e 4916 57be 44d4 c83d ed11 073f
00000160: b8d6 3bbe f6cc a93e 647e df3d 2064 f13e
00000170: 2e80 a5be 843d ec3d 2138 353e d93a dabe
00000180: 2ec0 4abe c282 b23e 9d79 633d 0311 d93e
00000190: 0fe2 44be 803f b23e 4d19 3e3e b46b ccbe
000001a0: 2032 dc3d c932 0dbe 98e3 0b3f ff38 35be
000001b0: eadf 973e 3cdf 96bd c48a a03e 708c 123f
000001c0: 9839 883e 66f3 993e 756d 6b3e f512 363d
000001d0: a408 26be 05c8 b3be 2f3f 9b3e 3616 bb3d
000001e0: 36e7 8ebd 97c7 be3e e849 85b6 a208 02be
000001f0: 2c4d 78bd d92f 86be c50f ff3e d5d8 9f3e
00000200: 8071 2b3d 74b0 833e b7e0 bf3d 4ce6 0ebf
00000210: 0b85 203e 61cb 863d 5acf 833d 4d5b 8a3d
00000220: 8659 873e db53 91be ecd0 7c3d 346b 6ebe
00000230: 05ab e0bb 9662 01bd 2e24 c9be f66c c7be
00000240: 313e 2dbe a977 7c3e e8cd ab3e ce6d dcbe
00000250: 4bbe 9f3e d046 74be 9041 ac3e cd6f 30be
00000260: 6104 59be 93a1 24be 5dc2 12be 0564 4cbe
00000270: b487 7a3e df76 8abe 0fae 953e 49b7 cb3e
0.059616588 0.11150191 0.28250533 0.04723761 -0.34503192 -0.060866386 -0.41783446 -0.2848113
-0.069293685 0.3556106 0.36012262 0.20796797 0.06359619 0.44109783 0.17523216 -0.20414846
-0.51748866 -0.23938689 -0.2945102 -0.0032000851 -0.21836656 -0.2679495 0.05140314 -0.34110853
-0.2766402 -0.26845497 -0.17514816 0.3018797 -0.19629207 0.023010049 0.33485758 -0.11393043
-0.0112439245 0.3335571 -0.09551325 -0.32208356 0.41349182 -0.20370527 -0.41414616 -0.27898854
-0.075865254 0.5452191 -0.24598648 -0.055115853 -0.025953034 0.22613998 -0.6088642 0.06466507
-0.1838294 -0.21359642 -0.303194 -0.17619693 -0.46486977 0.17885046 -0.18610433 0.06744969
-0.42624488 -0.056221943 0.019741783 -0.16502333 -0.19538726 0.037669074 -0.6078574 0.3140609
-0.31932718 -0.0075002555 -0.51026505 -0.18431392 0.21360177 0.28462616 -0.18222895 -0.41929105
0.17609222 0.34247088 0.36072797 0.31465787 0.05235159 0.024980823 -0.30750304 -0.32983208
-0.026295172 -0.22857355 -0.4771817 0.2779782 0.33806077 -0.21004595 0.098061115 0.5276173
-0.18343627 0.33164185 0.10912779 0.47146702 -0.32324356 0.11535171 0.17697193 -0.42623022
-0.19799873 0.34865385 0.0555359 0.4239579 -0.1922686 0.34814072 0.18564339 -0.3992592
0.10751748 -0.13788904 0.54644156 -0.17697524 0.2966302 -0.07366797 0.3135587 0.5724554
0.2660644 0.3006851 0.22990973 0.044451673 -0.16214234 -0.3511354 0.30321643 0.09135096
-0.06977694 0.3726165 -3.9723127e-06 -0.12698606 -0.06062047 -0.2620838 0.4981672 0.31220117
0.04185629 0.2572056 0.09369033 -0.55820155 0.15675752 0.0658176 0.064360335 0.067556955
0.26435488 -0.2838429 0.06172268 -0.23283082 -0.0068563246 -0.03158816 -0.39285415 -0.38950318
-0.16918255 0.24655022 0.33555532 -0.43052524 0.3119987 -0.23855138 0.3364377 -0.17230149
-0.21193077 -0.1607726 -0.14331956 -0.1996003 0.24465829 -0.27043816 0.2923436 0.39788273

_network.0.bias f4 [32]
00000000: 5c93 69be fdf7 96be 5879 643e abbe 1a3e
00000010: 88ff cc3d cd5f dcbe d661 6c3e 9d58 be3c
00000020: 3cdd 623e cc78 75be 5c11 79be 14fe d83e
00000030: 6289 29bd 4ffd 8e3e f4d3 41be 856b e3be
00000040: 0356 683d 8909 dbbc afd7 ed3e 6f99 8dbe
00000050: de7e cfbe e0c6 8b3e 8f85 a03d 99a5 85be
00000060: 2b3d cf3d 136a 923d d720 cabd 88f9 683e
00000070: 98b8 32be b275 4d3e a87c 1d3e e13e 83be
-0.2281012 -0.29486075 0.22311914 0.15111797 0.10009676 -0.4304184 0.23084196 0.023235613
0.22154707 -0.23971862 -0.24323028 0.42381346 -0.041390784 0.27927634 -0.1892851 -0.44417968
0.056722652 -0.026737945 0.46453616 -0.27656123 -0.4052648 0.27300167 0.07837974 -0.26102903
0.10119089 0.07149138 -0.09869545 0.22751439 -0.1745323 0.20064428 0.15379584 -0.2563391

_network.1.weight f4 [32]
00000000: 1674 7b3f cfb4 813f d8e4 6f3f 60b4 863f
00000010: a491 813f dbfd 673f 4cdf 713f a1b2 823f
00000020: 3e6b a03f 1e65 853f 8d63 753f 2fb6 843f
00000030: 0d33 813f 80f1 7b3f 7629 593f 0fc6 783f
00000040: 5db0 6b3f c10e 813f 66f0 6d3f 2757 6a3f
00000050: 6615 763f e677 833f 3ec6 823f 0b72 803f
00000060: 7b72 763f c862 843f 660b 983f 0041 743f
00000070: 067a 783f 847b 6e3f 5491 6e3f 1cc0 773f
0.9822401 1.0133303 0.9370856 1.0523796 1.0122571 0.9062173 0.9448135 1.0210763
1.2532728 1.0421484 0.9585503 1.0368098 1.0093704 0.98415375 0.8482889 0.97177213
0.92065984 1.0082628 0.92944944 0.91539234 0.961264 1.0270965 1.0216749 1.0034803
0.96268433 1.0342646 1.1878479 0.9541168 0.97061193 0.9315722 0.93190503 0.9677751

_network.1.bias f4 [32]
00000000: 9930 25bd edbc ffbc 8f81 83bc aca9 5d3c
00000010: 2f73 a6bb 92e6 76bd 99de 9abc 7d27 efbc
00000020: 5ffd edbd 7c6d b13d 8967 27bd a2b4 a53d
00000030: 0afc 98bd e772 443c 09ae 973d e763 0cbe
00000040: e122 0bbd 294f 0cbc f942 95bd 3cd2 503c
00000050: ecb7 90bd d734 d6bc 9f58 493d 1256 d53c
00000060: d2e0 01bd a250 09bd 364a 893e 26a5 9abd
00000070: 0e9f 753d 8ac2 3b3c bfae 11bc 4a77 483c
-0.04032955 -0.031218017 -0.01605299 0.013529222 -0.005079649 -0.060278483 -0.018904971 -0.029193634
-0.11620592 0.086634606 -0.040870223 0.080910936 -0.07469948 0.0119902855 0.074062414 -0.13709985
-0.03396881 -0.008563795 -0.07288165 0.012745436 -0.0706633 -0.026148243 0.04915678 0.026042018
-0.031708546 -0.033524163 0.2681443 -0.07551031 0.05996614 0.011459956 -0.00889176 0.012235472

_network.1.running_mean f4 [32]
00000000: f06d 85be a526 ccbe 9086 563f 0541 bcbe
00000010: ec70 e7be 755f 32bf 047c fc3e 4708 bcbe
00000020: 7b76 ad3e 3e23 1ebf d9a2 ebbe 0191 4e3e
00000030: f0bc edbd 9776 a53e 3ca7 87bc f1ad 27bf
00000040: b87a 7b3e 2a8c c93c f047 543f ea06 81be
00000050: 1a31 08bf ebbf 153f 1abd 473f 8b12 d4bd
00000060: 9e74 e73d f483 b63e 785b 4dbe 880d 863e
00000070: 228e 12bf 76ff f73e 8568 a13c 4c30 f43d
-0.26060438 -0.39873233 0.83799076 -0.36768356 -0.4520334 -0.69676906 0.49313366 -0.36725065
0.33879456 -0.61772525 -0.4602268 0.20172502 -0.116083026 0.3231704 -0.016559236 -0.6549979
0.24558532 0.024602968 0.8292227 -0.25200588 -0.53199923 0.5849597 0.7802292 -0.10355099
0.1130154 0.35647547 -0.20054424 0.261822 -0.5724813 0.4843709 0.01970316 0.119232744

_network.1.running_var f4 [32]
00000000: 2015 3f3c b806 843c a05f b93c 7878 8d3c
00000010: a47f 0f3c aa67 623c c6e5 d53c 00ab 963c
00000020: b017 b43b 7494 f63b 1e05 4f3c e416 9f3b
00000030: 2068 013d 5cec c13b f4d2 4c3c b026 1b3c
00000040: f81a c23b 5621 133d e5b0 a53b 83f1 1c3d
00000050: 1dfd ce3c 008c 3f3c c784 903c f161 df3b
00000060: f4c7 293b b4a1 843c 9497 a53b 73fe 493c
00000070: 45b1 373c c061 243d b34d 013c c1b5 023c
0.011662751 0.016116485 0.022628605 0.017269358 0.008758459 0.013818661 0.026110541 0.018392086
0.005495988 0.007525021 0.012635497 0.0048550237 0.031593442 0.005918069 0.012501467 0.009469673
0.005923625 0.035920464 0.005056488 0.03831626 0.025267178 0.011691093 0.017641438 0.0068170954
0.0025906535 0.016190387 0.00505347 0.012328732 0.011211698 0.040132284 0.00789206 0.007977904

_network.3.weight f4 [32, 32]
00000000: 866e 013e 45ba fb3d 0165 51bc 6ae7 9dbd
00000010: 740d e9bd 7c95 0e3e b860 dc3d 6d82 903c
00000020: 4a5a 1c3d fb5d 213e 8282 84bd 9825 f3bd
00000030: c6b7 20bd 6fce 34be c0fa 5bbd c834 893e
00000040: 18a9 d43d e2b1 83bd 25de b73d 6d8c 78bd
00000050: e1e2 343d f537 54bc e96c af3d f8fb fcbc
00000060: 99fd 0cbe 0fcc 083c c9f2 ccbd 5e58 7a3e
00000070: dcdc ae3d 703b 8b3d f53e 4b3e e16c a93d
00000080: df48 6dbd a02f 5cbe 1b9d bb3d bcbd 873d
00000090: 814c 913d 24ce 583d c106 b23d 1395 f23c
000000a0: 9c32 dbbc 23d1 2f3e 816a 8fbd f875 87bb
000000b0: 5407 02be 868e cebd f043 0c3d b67b 403e
000000c0: 4fe4 44bd 1993 083d 4f4a 083e 0ff1 70bc
000000d0: b4a6 1a3e 4383 f33d ec95 043d 150e 8ebd
000000e0: adb5 153b bf52 e7bd 63e3 4d3d be30 933d
000000f0: 3f7d 3f3d f1b1 003e ce7d 4cbd 4aa6 3bbe
00000100: 75dd b63d 30f4 4fbd 0d34 10be 8923 64bd
00000110: c34d 5f3d 5278 053e 3bf0 d03c b433 7fbc
00000120: aac2 b13c 582f 083e 6eb8 b4bd a5a6 283e
00000130: 34f2 e43d 444a e0bc 04ba 4cbe fc4d 953b
00000140: 3000 ce3c 2378 0cbe de46 ebbd 88ff f03c
00000150: 0078 853d 94a0 963d 2669 72bd b267 e1ba
00000160: f83c ff3d b42e 1ebe ba6a 583d 6128 1dbe
00000170: 3a46 04bd 2fb1 e23c 1c39 423e e400 113e
00000180: 5928 46bd b562 893d bd0a d3bd 2116 183c
00000190: 78bd c1bd 3eb9 d83d 617c 9f3d 9557 df3c
000001a0: dc24 f43d b5c6 403e 7f7c 3cbe d742 c23d
000001b0: c6b3 aa3d 4116 94bd 6c1e 2b3e 34d7 053e
000001c0: 435a 0fbe eec5 3d3e eea8 9d3a 918f 04bd
000001d0: cb1f 7e3c 3012 1d3c 7a3b e43c 7a28 61bd
000001e0: d77a 1ebd 2748 fb3d cebd 8c3e e91e e9bd
000001f0: e9dd 8ebd 9cd3 f3bd c292 8c3e 769c d7bd
00000200: 568d e0bb af9e 33bd cebc 46be 187f e93d
00000210: e2c8 8d3d da5b 53bd dd1f b6bd 12bd c6bd
00000220: 3291 46be 0c93 64bd 1e58 943d 4ef7 adbd
00000230: 3e2c a63d 25bb cdbc 5833 4a38 8674 14be
00000240: 6f58 643d ff6b d43d 44e9 45bd 4e7c 1ebc
00000250: 41b2 28bd a745 1a3d 4892 4bbd 28f5 13be
00000260: 9ba2 22be 4168 e8bd dc33 153e 81ee 65bc
00000270: 7d34 e93d ec6d c23c 3a93 35be 2358 51be
00000280: a674 66bd 7908 40be 610d 353d d475 a03d
00000290: 9b1c 8dbd 717c 29be 6c85 f4bd 461b 673d
000002a0: fdb3 93bd 1a34 103e b670 34be 8e7c 873d
000002b0: 3d7a fdbc 5b51 b93c 8e55 e4bd d397 713e
000002c0: 4524 b4bd 9c7c b93c f1c5 a13d 82e9 11be
000002d0: c8b7 6a3d 0e04 bebd 1c8c 64ba b2fb 87bd
000002e0: f744 d6bc 366c f7bc 35da cc3d d6ed b23d
000002f0: f7ca febd 8448 b43d 8519 2d3e aca2 483e
00000300: 32b2 26be c6a2 a33d 50c7 d2bc 0dc1 6fbd
00000310: 234d ec3d ffa3 abbc d9da a9bc 91e7 ae3d
00000320: a5ae a13d b6b1 40be 39aa 703d eecf 3f3b
00000330: 1ad9 7b3c 6bde 26bd 2f61 11bd 9591 873d
00000340: c2a7 3fbd 86ce 77bd c588 94be fc63 bd3b
00000350: 09c5 803d 01c7 eebd 743f b3bc 5866 343d
00000360: ae36 c5bd 8715 22be 64c8 18be b9ec dabd
00000370: 5570 e23b 6155 babb 5750 1d3d d629 0dbd
00000380: df96 183e a3c4 babc ee17 8abd 2b6a 043e
00000390: 5869 ff3d 072b 5ebc 5ce3 19be fe19 3b3e
000003a0: 1096 0a3e b070 24bd b642 f2bd d2e5 0dbd
000003b0: 121b 9d3d 9b22 1dbd 3785 d13d 4fba debd
000003c0: 3afa 1f3e 6557 783c f77b 3abd fbfa 6e3d
000003d0: 80a6 abbd 3d39 293e 14c9 6ebd a64e 82bd
000003e0: 6bf4 9abc bd5e 4ebc 575f aabc 39dc d73d
000003f0: 9fd9 d83d dc02 1cbe d14d a7bd f452 873c
0.12639818 0.122913875 -0.012780429 -0.07710154 -0.11379519 0.13924211 0.10760635 0.017640317
0.038172044 0.15758507 -0.06470205 -0.11872405 -0.03923776 -0.17656873 -0.05370593 0.2679808
0.103838146 -0.06430413 0.089779176 -0.060680795 0.04416168 -0.012952794 0.08565695 -0.030881867
-0.13768615 0.008349433 -0.10007245 0.24447772 0.08538219 0.06798446 0.19848235 0.0827272
-0.057930823 -0.21502542 0.09160825 0.06627986 0.0709467 0.052930966 0.086926945 0.0296121
-0.02675753 0.17169623 -0.07002736 -0.004133936 -0.12698108 -0.10085778 0.034244478 0.18797192
-0.048069295 0.03334341 0.13309596 -0.01470591 0.15102655 0.118902706 0.03236954 -0.0693628
0.0022843883 -0.112950794 0.05026568 0.07187031 0.046750303 0.1256788 -0.049924664 -0.18325153
0.08928958 -0.050769985 -0.14082356 -0.05569795 0.05451752 0.1303418 0.025505176 -0.015576292
0.021699268 0.1329931 -0.0882424 0.1646982 0.11179009 -0.027379163 -0.19992834 0.0045564156
0.025146574 -0.13717704 -0.11488126 0.029418722 0.06517029 0.073548466 -0.05918231 -0.0017197041
0.12462801 -0.15447503 0.052836157 -0.15347435 -0.032293536 0.027672378 0.18967098 0.14160496
-0.048378322 0.0670828 -0.103047825 0.00928262 -0.094599664 0.10582207 0.07787395 0.027263442
0.11921093 0.188258 -0.18406866 0.09485405 0.0833507 -0.07230807 0.16710824 0.13070375
-0.13999276 0.18532535 0.0012028494 -0.032363478 0.01551051 0.009586856 0.027860392 -0.054970242
-0.038691368 0.12269621 0.2748856 -0.11382849 -0.0697592 -0.11905596 0.27455717 -0.105278894
-0.006852786 -0.043852504 -0.19407961 0.11401194 0.06923081 -0.05160127 -0.08892796 -0.09704031
-0.19391325 -0.055804297 0.072433695 -0.08494435 0.08113907 -0.025113652 4.820837e-05 -0.14497575
0.0557484 0.10372161 -0.048318163 -0.009673191 -0.04118562 0.037664082 -0.04970005 -0.14448988
-0.15882342 -0.1134801 0.14570564 -0.014033915 0.113869645 0.023734055 -0.17731944 -0.20443778
-0.05626359 -0.18753232 0.044202212 0.07834974 -0.06890222 -0.16551377 -0.11939511 0.056422494
-0.072120644 0.14082375 -0.17621121 0.06615554 -0.030942077 0.022621801 -0.11149131 0.23593073
-0.0879598 0.022642426 0.078990825 -0.14249232 0.057304174 -0.09278117 -0.00087183877 -0.06639804
-0.026155932 -0.030202966 0.10002557 0.0873677 -0.12441056 0.08802894 0.16904266 0.19593304
-0.16278914 0.07990031 -0.025729805 -0.058533717 0.1153815 -0.020952223 -0.020734238 0.085402615
0.07894639 -0.18817791 0.058756087 0.0029268223 0.015371585 -0.040739458 -0.035493072 0.066195644
-0.046790846 -0.06049969 -0.29010597 0.0057797413 0.062875815 -0.11659051 -0.021880843 0.044042915
-0.0962957 -0.15828525 -0.14920193 -0.106896825 0.0069103637 -0.0056864475 0.038406696 -0.034463726
0.14901303 -0.022798842 -0.067428455 0.12931125 0.124712646 -0.013560063 -0.15028137 0.18271634
0.13533807 -0.04014653 -0.1182913 -0.034643 0.07671179 -0.03836308 0.10230487 -0.10875379
0.15622798 0.015157555 -0.04552838 0.058344822 -0.08381367 0.16525741 -0.05829723 -0.06362657
-0.018915376 -0.01259583 -0.020797415 0.10540051 0.10588383 -0.15235466 -0.08169139 0.016519047

_network.3.bias f4 [32]
00000000: 04f1 ebbc c129 1cbe 626e 163e 42ae fdbd
00000010: 574c 033e fe3f 1d3e 0556 8c3c 0da0 1cbd
00000020: 4594 423c b16b 73bd 4109 95bd 8ac4 863c
00000030: 413c b83d f5c7 813d 612e 623c 0663 19bd
00000040: 985d 503d 9ce8 3abd 105d cc3d bc94 20bd
00000050: 32e9 5dbd 4dd4 2f3d 3555 953d bc0f f93d
00000060: dc0d b43d 1af9 213e 3ea5 f4bd 7e59 223d
00000070: 2f6b 8ebd f387 29be df50 113d be90 19be
-0.028801449 -0.15250303 0.14690545 -0.12386753 0.1282209 0.15356442 0.017130861 -0.038238574
0.0118761705 -0.059428874 -0.07277156 0.016451139 0.089958675 0.06336967 0.013805003 -0.03744795
0.050870508 -0.04563199 0.09978688 -0.039204344 -0.05417747 0.042927075 0.072916426 0.12161204
0.08791706 0.15817681 -0.1194558 0.039636128 -0.069540374 -0.16555767 0.035477515 -0.14996621

_network.4.weight f4 [32]
00000000: 6f2c 963f aa7e 893f 9467 853f 79ee 753f
00000010: 14ec 763f acdd 893f c3c3 6c3f d9d5 7c3f
00000020: 9de1 813f 4b69 793f 9ff8 8b3f 560c 7b3f
00000030: e8aa 813f ec01 853f be65 8d3f e60d 7d3f
00000040: 6b45 703f d2dd 773f e094 693f e3a0 803f
00000050: 549a 783f 5224 6e3f 9071 903f 165e 833f
00000060: 08ee 843f a9d5 793f abd6 7d3f 57dc 723f
00000070: 7f4e 6f3f 4cfa 6e3f 8707 6d3f 3524 753f
1.173231 1.074178 1.0422235 0.96067005 0.96453977 1.0770774 0.9248621 0.98763806
1.0146977 0.9742629 1.0935248 0.980657 1.0130281 1.0391212 1.1046674 0.9884933
0.93855923 0.96822846 0.9124279 1.0049099 0.97110486 0.9302417 1.1284657 1.0263088
1.0385141 0.97591645 0.9915568 0.9486746 0.9347915 0.9335067 0.9258961 0.9575837

_network.4.bias f4 [32]
00000000: 4a4c bcbd 0a58 da3d 14d8 4b3c 3311 953c
00000010: fb35 253d 5bb1 f03d 6236 3fbd e0e6 6abc
00000020: 7263 ce3b e375 8abc 6dbf f93d 874a 1c3d
00000030: 66f3 523c 113c 80bc 4bf2 d63e 7d0e 1dbd
00000040: bb0c f03d 3df6 73bd 2352 3fbc 977e bb3c
00000050: ca7e a0bc 4dce 3dbd 705c 993d 2bce cb3d
00000060: d299 c6bc cca9 44bd 4f60 263d 2ef3 0b3c
00000070: 5fe1 9abd 15a5 cfbd 25be cabd f6fc b8bc
-0.091942385 0.10661323 0.012441654 0.018196678 0.040334683 0.11752578 -0.046682723 -0.014337271
0.006298476 -0.016901916 0.12194715 0.038157012 0.0128754135 -0.015653642 0.4198173 -0.038343895
0.11721178 -0.059561003 -0.011677298 0.022887511 -0.019591708 -0.046339322 0.07488334 0.09951433
-0.02424327 -0.048013493 0.04061919 0.008541865 -0.075625174 -0.10138909 -0.098995484 -0.022581559

_network.4.running_mean f4 [32]
00000000: e2e1 883e 126c d83c 896d 853e c92b 7b3e
00000010: 52ee 83be 4a2b fc3d 8241 c2be 0438 f63d
00000020: a841 a43e c14c 4c3d ad67 433e 9674 c03d
00000030: 823f 093f 8c20 56bd 581c d5bd 0af6 72be
00000040: 42d8 813d ad76 c13d c455 c53e 0c9c af3d
00000050: c81f 6abe 3ee2 9d3d b6a3 4c3d 20ef e53c
00000060: 0684 853e abbd 77bc 16f5 63be da2e e3bd
00000070: 831a c2be 220d 46be 7972 4abd 49f9 b4be
0.26734835 0.02641872 0.2606013 0.24528421 -0.2576776 0.12312944 -0.37940603 0.12022403
0.32081342 0.049877886 0.19082518 0.09397237 0.5361253 -0.052277133 -0.10405797 -0.23726669
0.06340076 0.09446464 0.38541996 0.085746855 -0.22863686 0.07709168 0.049960814 0.028068125
0.26077288 -0.015120904 -0.22261462 -0.110929206 -0.37910852 -0.19340947 -0.049425576 -0.3534644

_network.4.running_var f4 [32]
00000000: f8eb b03e c2a9 1c3e ad35 f03d 914e a73e
00000010: c22b 463e 6d84 573e a0cb 033e b859 3a3e
00000020: 0068 043e b27d 833e c24a 753e f8d5 083e
00000030: 8f46 6d3e c4d7 fe3d 56bd dd3e 9b54 a53d
00000040: f2c9 603e 7306 c63e 0682 6a3e f232 2a3e
00000050: 1c6d 2a3e 4ede 4f3e b075 5b3e 9106 413e
00000060: 5128 413e 5be8 a13e 7437 5c3e b604 823e
00000070: ed79 9e3e d03c e03d 6ab0 133e 040e a03e
0.3455503 0.15299132 0.11728988 0.3267713 0.1935263 0.2104661 0.12870646 0.18198287
0.12930298 0.25681835 0.23954299 0.13362873 0.23171447 0.12443498 0.43308514 0.08072778
0.21952036 0.38676795 0.22901163 0.16620997 0.16643184 0.20299646 0.21431613 0.18850161
0.18863036 0.31622586 0.21505529 0.2539422 0.30952397 0.10949099 0.14422765 0.31260693

_network.6.weight f4 [32, 32]
00000000: 01fe 9bbe b13b dcbd a67b 1dbe 27a3 23be
00000010: 4cdb 0e3e 5ca1 70be 2817 c23d 8241 7abd
00000020: 7ff8 fdbd 903e 323d f51d 09be 50f9 ae3c
00000030: 3597 2ebe 73a5 9ebc a0fc b6bd 6b64 54bd
00000040: cdfb e3bc f5f9 f53d 0fa8 3a3e 0c09 e23c
00000050: f68f 20be 7e35 c43d 0476 1a3e 2329 b83d
00000060: 2824 b83d 4752 8dbc 6706 c43c 76e8 1fbd
00000070: 5e1c 6dbc f022 ae3c 5340 c1bc cf65 50bd
00000080: a11a 3dbd fd8c 67bd 74b9 9fbc a937 8f3d
00000090: 7b80 f0bc edf6 2dbe 44ad a23d 328c 81bd
000000a0: 2fc7 1abe 5a77 80be e695 02be 44ab 0bbe
000000b0: 9501 d43d 0839 8fbd 3f22 513d e612 b9be
000000c0: 5423 fd3d c150 c63c b8c3 cbbd 0f48 f33d
000000d0: 6be4 833d 14bf 8dbd 9a16 3fbc d647 0fbd
000000e0: 89e9 b3bd ef41 d83c e782 64be a161 533d
000000f0: 3a7d 903d 78d6 95bc 7426 3ebe 3aee 44be
00000100: 7b7e a8bc b420 34be e006 65be e5d3 1dbe
00000110: 2d65 253e 8568 2abe 1fc5 1ebe 5381 1e3e
00000120: f9b4 ef3d 5226 eebc 935d cc3d e516 e3bd
00000130: a600 21bd 5e2a 1c3e 0e38 5a3d 4ca3 74bc
00000140: c4d9 f7bb 1186 4fbe db7a 5dbc 278c 3e3e
00000150: d86b f1bd e1a3 c3bd cf21 11bd 5cb5 8d3e
00000160: 99a2 873d 7aa5 113e c537 f23c 8050 2abd
00000170: fb3b 05be dea8 4ebd 7bb3 6abb 7661 f5bc
00000180: 7b93 f13a 02e0 c1bb 64ba 79bd 84e8 0c3e
00000190: 8cb9 0d3e 2717 fc3d a3f3 00be 186b afbd
000001a0: a965 59be b5b7 edbc b86d c6bd 1c78 13bb
000001b0: 907f f53d 3555 c8bd 1a27 b93d b62f 13bd
000001c0: 674e 1b3e e574 efbc 7a57 043e c02a fabd
000001d0: d9ba ba3d 90b9 cc3d 3976 02bd baf8 463e
000001e0: b01f b3bd 5a88 94be 5a9e 43be 3b59 bb3d
000001f0: 18ca 05bd 125d 6b3c c2a5 723d d0f7 9b3c
00000200: 10e1 003d 5e2c febd 815d 84bd 39f3 043a
00000210: b6ac 9cbd b0fd ec3b 78fe e8bd 8fac 9dbe
00000220: bc34 84be 48b5 05be 6fad afbc 562f 28be
00000230: 24a1 9c3c 9e7e d33d 4479 b4bd 49b9 0d3d
00000240: 0c47 10bd b4de 493d 0cfb 5abd 40d6 843b
00000250: c294 703d 39bb 823d a063 adbd 36a0 c93d
00000260: fc54 7dbe 3d9f debe facd 813d 0999 c5bd
00000270: 7ded 88bc fbf8 193e 5fdc d1bb 96d7 eb3c
00000280: 5f04 c33d fa4b ebbc f9a1 54be a920 ed3c
00000290: b199 fabc abec e4bd f63a 133e 9ff8 ab3c
000002a0: b18f 2a3e 34cd 6c3d 2e72 a83d a7dd 4dbe
000002b0: b509 ad3d 12d4 50bc c391 c53d 8761 e03d
000002c0: 4cb8 0dbc f38f 62be 56b8 bdbd be02 e6bd
000002d0: e040 8e3d e12a f63d d824 70be ba91 79be
000002e0: c42b bcbd 6aab cfbd 7d9f 473d e094 90bd
000002f0: 0f63 1cbe e59a 1ebd 3ec2 a03c 49d4 30be
00000300: 4c87 44bd 82ac cf3d 18d8 a03d f87a 36be
00000310: 1c73 263e befb fcbd 510b a03d e5b0 183e
00000320: 4df8 e93d 03f7 453e a9b3 5dbe 3e62 b03d
00000330: c0c7 963d 2adb 3fbd c625 ff3c f4d6 0cbe
00000340: 4b50 d83d 488e 623d be25 0dbe 4400 073e
00000350: bc2c 8c3e 7db6 a83d 0de1 aebb fef7 403e
00000360: 4f65 de3d 453c 74bd d0a9 bcbd c42c 0ebd
00000370: d82b d5bd 968a 433d 9b61 95bd 3e01 19be
00000380: ec09 40be 9b49 fcbd 4cfe 35be 804e 003d
00000390: cabb 603d e7d3 4bbc f6f1 c6bd a3b8 00bd
000003a0: 2b3c c0bc 088f 233e 5ec6 f23c 68ae a0bd
000003b0: 3aab f9bd d4f6 1d3e 0762 c4bd 47f5 1dbc
000003c0: 3f00 863d a6a3 9e3d 201a bbbd 3e34 f9bd
000003d0: 23f1 c83d 178f 153e d308 6dbe e142 063e
000003e0: 82ab 043e 7cad 2b3e de0c ba3d c986 bebd
000003f0: 0ff9 e9bd 78cd e1bb c4e6 3e3b 411d 3cbe
-0.30467227 -0.10753573 -0.153792 -0.15980206 0.13950843 -0.23499054 0.09477073 -0.06109763
-0.124009125 0.043516695 -0.13390334 0.021359116 -0.17049868 -0.019366002 -0.08934903 -0.05185358
-0.027830029 0.12010566 0.18228172 0.027592205 -0.15679917 0.09580515 0.15084082 0.08992221
0.08991271 -0.017251147 0.023928834 -0.03904005 -0.014472095 0.021256894 -0.023590242 -0.050878342
-0.046167973 -0.05653094 -0.01949761 0.06993038 -0.02935814 -0.16988726 0.07943204 -0.06325568
-0.15115045 -0.25091058 -0.12752494 -0.13639551 0.10351864 -0.069933 0.05105805 -0.3614723
0.12360254 0.024208428 -0.0994944 0.118789785 0.06440052 -0.06921211 -0.0116631035 -0.034980617
-0.08784778 0.026398627 -0.2231556 0.051606778 0.07055135 -0.018290743 -0.18569356 -0.19231501
-0.020568123 -0.175906 -0.22365904 -0.15412863 0.16151877 -0.16641434 -0.15504883 0.15479021
0.1170444 -0.029071007 0.09978785 -0.11088351 -0.03930726 0.15250537 0.053276114 -0.014931511
-0.0075638015 -0.20265986 -0.013518061 0.18608151 -0.11788148 -0.09552742 -0.035432633 0.2767743
0.0662281 0.1422328 0.029567609 -0.041580677 -0.13011162 -0.050454013 -0.0035812545 -0.0299537
0.0018430793 -0.0059165964 -0.06096877 0.13760573 0.13840312 0.123091035 -0.1259294 -0.085653484
-0.21230187 -0.029018262 -0.09688896 -0.002250201 0.11987221 -0.09781877 0.09040661 -0.035934173
0.15166627 -0.029230544 0.12923995 -0.12215185 0.091176696 0.09996331 -0.031851027 0.19430819
-0.08746278 -0.29010278 -0.19103375 0.09147879 -0.032663435 0.014365451 0.05924011 0.019039065
0.031464636 -0.12410806 -0.06463147 0.00050716434 -0.076501295 0.0072323903 -0.11376661 -0.30795714
-0.25821483 -0.13057435 -0.021445004 -0.16424307 0.019119807 0.10326885 -0.08812192 0.03460053
-0.035224006 0.049284652 -0.053462073 0.004053861 0.058735617 0.06383366 -0.084662676 0.09845011
-0.2473945 -0.43480864 0.06338115 -0.0964833 -0.016714806 0.15036385 -0.006404444 0.028789323
0.09522318 -0.028722752 -0.20764913 0.028946238 -0.030590864 -0.11177953 0.1437796 0.020992575
0.16656376 0.057812884 0.08224903 -0.20104085 0.08449117 -0.012745874 0.096469425 0.10956102
-0.008649897 -0.22125225 -0.09263675 -0.11230992 0.06945968 0.12019897 -0.23451555 -0.24371997
-0.09188035 -0.101401165 0.048736084 -0.07059646 -0.15272163 -0.038721938 0.019623872 -0.1726848
-0.04798059 0.10140325 0.078537166 -0.17820346 0.16254848 -0.123527035 0.078146584 0.1491123
0.11424313 0.19332509 -0.21650566 0.08612488 0.07362318 -0.04683987 0.031145941 -0.13753873
0.1056219 0.05531147 -0.13783929 0.13183695 0.2737788 0.08237932 -0.0053368867 0.18844602
0.10859167 -0.05962779 -0.09212077 -0.03471066 -0.10408753 0.047739588 -0.072940074 -0.1494188
-0.18753785 -0.12318727 -0.17772788 0.031324863 0.05486659 -0.012440658 -0.09714119 -0.031426083
-0.02346619 0.15972531 0.029635604 -0.07845765 -0.12190862 0.15426189 -0.0958901 -0.009640998
0.06543016 0.07746057 -0.09135842 -0.121681675 0.09811618 0.14605366 -0.23147897 0.1311145
0.1295605 0.16765398 0.090844855 -0.09303052 -0.11424457 -0.006890949 0.0029129246 -0.18370534

_network.6.bias f4 [32]
00000000: 2e1c 1f3e 0818 f5bd 67a8 143d 5d57 e0bc
00000010: 2225 e9bb 72fb f5bd 0f07 e6bd 4922 c13d
00000020: 9752 2fbd 16a6 2ebe 1b7e f0bc e7f1 28be
00000030: 583c 293e b0f3 0e3e 7e30 2bbe 6e8e 843b
00000040: a71a ce3c 2d78 f33d f0ca ac3b 349e da3c
00000050: e474 a23d 74a1 1cbe 1cbd 023e a923 e6bd
00000060: dde6 88bd 2019 ecbd 58ad d8bd 613b 0f3e
00000070: bd21 0a3e bc03 cdbd 427f dd3c 18a9 b6bd
0.15538093 -0.11967474 0.036293413 -0.027385408 -0.0071150223 -0.1201085 -0.11231815 0.094303675
-0.042803373 -0.17055544 -0.029357007 -0.16498528 0.16526926 0.13960147 -0.16717717 0.0040452993
0.025159193 0.11888156 0.0052732155 0.026686765 0.07932451 -0.15295964 0.12767452 -0.112372704
-0.06684659 -0.1152823 -0.10579938 0.13987495 0.13489433 -0.10010478 0.02703822 -0.08918971

_network.7.weight f4 [32]
00000000: dc99 593f 8eab 433f 1590 333f 5df4 463f
00000010: 6cce 493f 833d 013f 551e 443f fc9a 543f
00000020: b520 4c3f e9da 393f 2f0c 5d3f d9f8 483f
00000030: 230b 503f 01aa 443f 8501 553f c5d5 413f
00000040: c920 3a3f b57a 513f ff5a 5c3f 6932 543f
00000050: 98d6 543f 7b8f 5f3f b842 1c3f 0b4a 443f
00000060: e11b 5e3f 0a39 4c3f 3c98 493f 17c4 4a3f
00000070: a08f 513f 6d59 503f 5f3a 1e3f 28c5 483f
0.85000396 0.76433647 0.70141727 0.7771662 0.788306 0.50484484 0.76608783 0.8304899
0.79737407 0.72599655 0.86346716 0.7850471 0.81266993 0.76821905 0.83205444 0.7571681
0.72706276 0.8182786 0.8607635 0.8288942 0.83139944 0.8732831 0.61039305 0.7667548
0.8676129 0.79774535 0.78747916 0.7920546 0.8185978 0.8138645 0.6180782 0.78425837

_network.7.bias f4 [32]
00000000: c926 05be 7655 7fbe 81fa 4dbe c942 fdbd
00000010: 54a7 69be fc0e c5be c8c2 a7bd cc76 ffbd
00000020: b40b 08be 1d1d 53be 8e2c 2dbd c1ca 02be
00000030: 7654 fabc a19e 6bbe 72fa 11be edef 3cbe
00000040: 4023 40be 2d6f 01be a6e1 f8bd 00a7 8bbd
00000050: eb83 24be 0c5e 37be b0b7 bdbe 946d d4be
00000060: f7a8 a8bd 1033 04be 625f 90be 521f 23be
00000070: f197 283d cb01 9cbe 1fa7 35be 6688 29bd
-0.13003077 -0.24934945 -0.20115091 -0.12366254 -0.22817737 -0.38487995 -0.081914485 -0.124738306
-0.13285714 -0.20616575 -0.04227882 -0.12772657 -0.030557852 -0.23009731 -0.14255694 -0.184509
-0.18763447 -0.12640066 -0.12152414 -0.06818962 -0.16065948 -0.1790697 -0.37054205 -0.4148985
-0.082353525 -0.12910104 -0.2819777 -0.15929917 0.041160528 -0.30470118 -0.17739533 -0.041389845

_network.7.running_mean f4 [32]
00000000: 32ba 60be 3d7f 3ebf 88c3 95bd 19ff 17bd
00000010: ea37 2ebf 7a87 03bf 70f7 263e 6068 1bbe
00000020: 00ab afbe 5ada 90be 6ce0 e53c 239e 2bbf
00000030: 8c7e 993e f3f0 68be 3c3d 00bf 35d3 99be
00000040: 95ff 163e c205 913e f8c9 97be 856d 4bbe
00000050: 8e88 0dbe 5d42 d7be 6bb0 593f 4b0b 75be
00000060: c214 26bf e81e fbbe 52a9 3cbf 6470 a53c
00000070: 045d 083f d025 2ebe bc6a 80be e336 cf3e
-0.21946028 -0.744129 -0.07312685 -0.037108514 -0.6805407 -0.51378596 0.16305327 -0.15176535
-0.3431015 -0.2829159 0.028061114 -0.6703817 0.2997936 -0.22748165 -0.50093436 -0.3004395
0.14745934 0.28324705 -0.29646277 -0.19865997 -0.13821623 -0.4204282 0.8503482 -0.23930089
-0.64875424 -0.49047017 -0.7369586 0.020195194 0.5326693 -0.17006612 -0.25081432 0.40471563

_network.7.running_var f4 [32]
00000000: 2803 023f e9e9 6c3e 8537 fc3e a231 073f
00000010: d594 2d3f 2a91 ce3e 6c86 493e 5e26 4e3f
00000020: 5adc a53e 2466 0f3f d839 483f 5b8e 373f
00000030: 8cb3 413f b781 bb3e 4d3e 443f 6a0b b03e
00000040: ab7a d13e 4001 7f3e 20ce ab3e d149 e23e
00000050: 3be1 853e d691 863e aa24 9e3e 88d7 483e
00000060: 6e98 263f 2768 df3e 8f94 993e c550 403f
00000070: f097 043f 16de 933e 18c3 c73e 8161 063f
0.50786066 0.23136105 0.49261108 0.5281011 0.67805225 0.40345126 0.19680184 0.80527294
0.32394677 0.5601523 0.7821326 0.7170159 0.7566459 0.36622402 0.76657563 0.34383708
0.409139 0.2490282 0.33555698 0.44196942 0.261484 0.2628314 0.30887347 0.19613469
0.6507634 0.4363415 0.29996154 0.75123245 0.5179434 0.28880376 0.39016032 0.5249253

_network.9.weight f4 [1, 32]
00000000: 99dd a3bc 0b96 0dbc f231 063c 6777 0b3d
00000010: 2551 9bbc 91e0 99bb 9a7a b03c a480 0abd
00000020: 65bf 17bd e807 9c3c 3ca2 803d b3e9 50bc
00000030: 1ac8 803d 87b4 dabb 3d3e f13c 4832 4e3c
00000040: ac87 0dbc 6c16 e8bb a703 2fbc c88d 65bd
00000050: 53e6 11bd 431f 99bb d877 d33c ebd0 a1bb
00000060: 1beb 2bbd 53a6 e6bc a923 56bb 6cb2 6f3c
00000070: 373f 573d 6a91 d3ba 665b 693b db40 c83c
-0.020003127 -0.00864173 0.008190619 0.034049418 -0.018959591 -0.00469596 0.021542836 -0.033814088
-0.037047762 0.019046739 0.06280944 -0.012751031 0.06288166 -0.0066743526 0.029448623 0.01258523
-0.008638304 -0.007082751 -0.010682023 -0.056043416 -0.035620045 -0.004672916 0.025813982 -0.004938235
-0.04197226 -0.028155481 -0.0032675064 0.014629941 0.05255052 -0.0016141359 0.0035607456 0.024444988
