transformers/results/pimentel_mlp/month_10_October/pimentel_mlp_model_20251203_081226.pt (torch, 432266 bytes, 43 tensors)

_network.0.weight f4 [128, 5]
000000 80 6c b6 3e 9b b9 a4 3e c6 f0 2d be 36 27 f7 3e
       0.35629654 0.32172856 -0.16986379 0.48272103
000010 b6 ba 7a bd 5d 3d 29 3e 08 e3 60 be 2e 82 83 3e
       -0.061213218 0.16527314 -0.21961606 0.25685257
000020 74 f3 c5 3e bb df a0 be e9 2e d5 3e d3 7a e2 3d
       0.38662302 -0.31420693 0.41637352 0.11058583
000030 7c 0c 95 3e 26 6c 92 3d 50 50 64 3e fc 39 80 bd
       0.29111087 0.07149534 0.22296262 -0.0626106
000040 c9 3c ba 3e 4a a5 44 3d 04 8e 59 be e7 a2 d4 3d
       0.363745 0.048009194 -0.21245581 0.10382634
000050 43 38 72 be 16 8c 5f bd 0f a4 21 be 2a b2 90 3e
       -0.23654275 -0.054576956 -0.1578524 0.28260928
000060 85 5c b2 be a4 79 69 be c4 33 20 be 5b ef 8b be
       -0.34836212 -0.22800308 -0.15644747 -0.2733105
000070 6e 24 19 3d 78 23 d2 be 07 ed d8 3e 6c c1 b1 be
       0.037388258 -0.41042686 0.42368338 -0.34717882
000080 c5 1e aa 3e bb d6 11 3d aa 10 42 be 9b 37 b8 3e
       0.332266 0.035605174 -0.1895167 0.35979924
000090 ba 80 67 3d 4e a1 aa 3e 98 b2 61 3d b4 9d e9 bd
       0.056519248 0.3332619 0.05510196 -0.114070326
0000a0 fb 6f 53 3e 9f 0a 6f bd 98 bd 3c 3e 45 6e d1 3e
       0.20648186 -0.05835974 0.184317 0.4090444
0000b0 7b 2a 73 3e f6 85 12 be 4e d3 85 3e 9b 3c 0f 3d
       0.23746674 -0.14308915 0.26137775 0.034969907
0000c0 a6 8e 81 3e ab ba ab be 9c 5f fd be 43 e0 51 be
       0.25304145 -0.33540854 -0.49487007 -0.20495705
0000d0 23 5c 9d be de 1e 91 3e 97 52 20 3e 71 ae 53 3e
       -0.30734357 0.28343862 0.15656506 0.20672013
0000e0 45 45 a1 3d ed ad f3 bc 11 3f d2 3e 82 4e 8f be
       0.0787454 -0.02974602 0.4106374 -0.27989584
0000f0 08 7d 8e 3d 40 20 a7 be 1f 81 fd 3d f9 aa 2c be
       0.069574416 -0.32641792 0.123781435 -0.16862096
000100 b2 7c 04 3e 73 56 b0 3b a4 e8 9d 3e a3 58 87 be
       0.12938192 0.0053813993 0.30841553 -0.26434812
000110 7f b8 a1 be 25 df 8e be d2 45 03 3f 2e 23 f7 3d
       -0.31586072 -0.2790462 0.5127841 0.12067257
000120 a8 91 ce 3e c3 3e c6 be 30 e8 cc be f6 4e d7 be
       0.40345502 -0.38719758 -0.40020895 -0.4205243
000130 d3 24 8d be 3f fe 31 3e 01 c3 17 3e 15 d8 a9 3e
       -0.27567157 0.17382143 0.14820482 0.3317267
000140 9d 49 4b be 24 da c0 be 8c 55 68 3e 05 2d 24 be
       -0.198523 -0.37666428 0.22688884 -0.16032799
000150 d4 2b 8c 3e ac 79 87 bd 7f 23 80 3e 89 5e 02 bf
       0.27377188 -0.06615004 0.2502708 -0.509255
000160 01 46 55 be b4 0a 0b 3e 0a 31 16 3e d1 9e f2 bd
       -0.20827486 0.13578302 0.14667144 -0.11846698
000170 49 53 85 3e 1b c4 a2 3e b1 86 9a be 0e 91 8b be
       0.26040104 0.31790242 -0.30180886 -0.27259105
000180 44 61 d2 3e d2 f8 31 be 68 9a c9 bd 51 fe d3 be
       0.41089833 -0.17380074 -0.09843904 -0.41404966
000190 01 cc 91 be 5b f9 b9 3d 50 16 c4 bd 84 ae a0 be
       -0.28475955 0.09080764 -0.09574568 -0.31383145
0001a0 4b f9 11 3d d9 2e d7 be d7 47 a2 be 1e a7 1e be
       0.035638135 -0.4202793 -0.31695434 -0.15493438
0001b0 0e e1 b5 be e6 b5 9b be bf b9 0f 3f aa a0 91 3d
       -0.35523266 -0.30412215 0.561428 0.07110722
0001c0 c3 49 a8 3d 20 fa b6 be 00 48 99 be ec dd f5 bd
       0.08217194 -0.35737705 -0.29937744 -0.12005219
0001d0 db e1 9c 3d 3a 95 d2 be e2 6b 18 be 60 d0 a3 be
       0.07660266 -0.41129476 -0.14884904 -0.31994915
0001e0 25 cf 8c 3d 4e 58 04 be 9a 8d 01 bd 16 20 94 be
       0.06875447 -0.1292431 -0.031629182 -0.2893073
0001f0 5b 90 aa be bf ad 84 be d5 1d 18 be cc 47 e2 be
       -0.3331326 -0.25913808 -0.1485513 -0.44195402
000200 3c 38 ac 3e 4f d5 a6 bd e1 3d d5 3e 89 a6 c1 3d
       0.33636653 -0.08146154 0.41648772 0.09455592
000210 fe c3 d2 be a6 ee 99 3e 31 a7 96 bd 6f 70 01 be
       -0.41165155 0.30064887 -0.07356108 -0.12640546
000220 9a 07 a7 be a4 b0 0e bf cf e4 1b 3e 21 5c ec bd
       -0.32622987 -0.5573828 0.15224002 -0.1154101
000230 ae 7a 68 3e 15 df c4 be 7d 7e 96 3e 80 d9 a3 be
       0.22703049 -0.38451448 0.29393378 -0.32001877
000240 87 72 6f bd ac 56 1f 3e 06 09 f9 3d 50 7f bb 3e
       -0.05845883 0.15560406 0.12159924 0.3662057
000250 a8 76 ee 3e 37 07 6b be ff 25 2e 3e 8a d3 36 be
       0.46574903 -0.22951971 0.17006682 -0.17854133
000260 ea 53 ad bd dd c0 9b be 17 96 c4 3e 09 a8 bd be
       -0.08463271 -0.3042058 0.3839576 -0.37042263
000270 ad fa 63 3e 33 30 06 3e ea 08 d2 3d 0c 94 5a be
       0.22263594 0.13104324 0.102556065 -0.21345538
000280 25 ab ef 3e 24 d1 e5 3d d5 5b 81 3d c9 72 a4 be
       0.4681026 0.11221531 0.06316344 -0.32118824
000290 f2 2e 2f 3e 9b 69 42 bd 4e 9e 3d be 1c ef c0 3e
       0.17107752 -0.047463994 -0.1851742 0.37682426
0002a0 7c 2b 07 3e 46 2d 8a be f1 ba 50 be 71 90 69 bc
       0.13200182 -0.26987666 -0.20383812 -0.014255629
0002b0 06 be 78 3e 8a c6 11 be 7d 11 88 be 05 24 08 be
       0.24291238 -0.14235893 -0.26575842 -0.1329499
0002c0 18 da 99 be b6 58 f7 3d 3c 24 c6 3e b5 4d f0 be
       -0.30049205 0.12077467 0.3869952 -0.46934286
0002d0 62 eb 39 3e 70 58 51 3e 5c 7f d4 3d 62 21 29 be
       0.18156198 0.20443892 0.103758544 -0.16516641
0002e0 32 36 60 3e e0 55 a6 3e a5 84 25 3e 79 0c 8c bd
       0.21895674 0.32487392 0.16163881 -0.068383165
0002f0 f0 20 d6 bd af 72 eb 3c 7a 00 9c bd 62 b4 ea bd
       -0.10455501 0.028741209 -0.076172784 -0.114601865
000300 7a 34 88 3e 44 f7 d8 3e 9a 86 48 bd 97 27 23 be
       0.26602536 0.4237615 -0.04895649 -0.15933071
000310 8e 3a 45 3b 5d 63 9e b9 2a ba 87 3d 13 c3 e8 3d
       0.0030094716 -0.0003021014 0.06627305 0.113653325
000320 03 7f dc be d6 bf 41 be 8b d0 b3 3e 58 8c 29 3e
       -0.43065652 -0.18920836 0.35120043 0.16557443
000330 83 c4 98 3b 43 0c 32 be 22 5b a9 be 6d 79 f3 be
       0.004662098 -0.1738749 -0.3307734 -0.47553578
000340 18 21 e3 bd 60 03 1a 3e 30 84 9e 3e 9e 25 56 3e
       -0.110902965 0.1504035 0.30960226 0.20912787
000350 34 65 f2 be 62 12 62 be d3 07 3e bd c4 a1 f5 3e
       -0.47342837 -0.22077325 -0.04639418 0.4797498
000360 1e 41 4f bb 3f e0 67 bc 0b db 3f 3e 01 17 03 be
       -0.0031624506 -0.0141525855 0.18735902 -0.12801744
000370 9d af b0 be 4e e0 96 3e ab 93 3b be e2 66 15 be
       -0.34508982 0.29468006 -0.1831805 -0.14590028
000380 29 e7 c8 be 6f 84 ac 3e e6 da 8f 3e 04 62 ce 3d
       -0.3923886 0.3369479 0.28096694 0.10077289
000390 47 98 bd be 19 0b d1 be 81 45 ba be df d2 b3 3e
       -0.3703024 -0.4082878 -0.36381152 0.3512182
0003a0 32 44 6d 3e 1b 05 c3 3e ae 32 57 3e 83 0c 25 3e
       0.23170546 0.38089833 0.21015427 0.16118054
0003b0 1a a6 7c bc 1b 47 ca be 1a 65 b5 be 5a 01 d8 be
       -0.015420461 -0.39507374 -0.35428697 -0.4218853
0003c0 22 ed 87 3e db 36 63 be ad ca a4 bd 0f d9 45 be
       0.26548105 -0.22188894 -0.0804647 -0.19321083
0003d0 0d 2e 8e bd f7 7e 86 be ef 97 aa be b1 3b 20 3e
       -0.06942377 -0.2626874 -0.3331904 0.1564777
0003e0 3d 6e 3b be c0 21 92 3e 29 5d 40 be f8 c9 a7 be
       -0.18303771 0.28541374 -0.18785538 -0.32771277
0003f0 30 71 06 bd 96 e0 41 be e2 c3 19 be a7 51 f5 be
       -0.032822788 -0.18933329 -0.1501613 -0.47913858

_network.0.bias f4 [128]
000000 62 bb ba 3d ef 9f d6 be 14 4c c7 3e 5b a5 8f 3e
       0.09117772 -0.41918895 0.3892523 0.28055844
000010 d2 ac df be d7 ea 59 be 9e cc 15 3e c3 25 bd bd
       -0.4368654 -0.2128099 0.14628837 -0.09235718
000020 35 12 47 bd 48 f7 4e be c7 10 b6 3e 82 e1 7f be
       -0.048601348 -0.20211518 0.35559675 -0.24988368
000030 d2 cd bd 3e 0e 39 eb 3c 32 51 b8 3d 13 9b b2 3e
       0.3707109 0.02871373 0.08999862 0.34883937
000040 47 0c 97 bd 2a 08 82 be e6 94 93 bd 17 be b9 3e
       -0.073753886 -0.25396854 -0.072061345 0.3627784
000050 eb ac a8 be dc ee d3 3d 7f 35 e1 be 83 41 70 3e
       -0.32944426 0.10348293 -0.43986127 0.2346249
000060 49 a2 28 3e 70 41 9e 3c 9c 0b 45 3e a4 1d 81 3a
       0.16468157 0.019318312 0.1924271 0.0009850753
000070 6e 08 7d 3e 21 42 b5 be 49 5f 86 bd ca 13 4b 3e
       0.24710247 -0.35402015 -0.06561143 0.19831768
000080 ba 3f e3 3e 17 19 69 3e 05 2d a4 be f3 be af 3e
       0.44384557 0.22763477 -0.32065597 0.3432537
000090 a5 1d cd bd 6c 24 bc bd c1 05 d0 be 11 cc 9a bd
       -0.1001542 -0.091866344 -0.4062939 -0.07558454
0000a0 ae a7 a1 3e 0e 13 80 3d 22 aa 85 be e1 7b 0f 3e
       0.31573242 0.062536344 -0.26106364 0.140121
0000b0 93 7d 12 be b1 26 d1 3e e0 10 c8 be 40 8b 10 be
       -0.14305715 0.40849832 -0.39075375 -0.1411562
0000c0 e5 20 df be 7b 90 34 be 96 92 10 3e a5 b7 de 3e
       -0.43579784 -0.1763324 0.14118418 0.43499485
0000d0 3c 3e 99 3d 79 8e e0 3e 60 9d b2 3d c6 37 84 3e
       0.074825734 0.43858698 0.08721423 0.25823802
0000e0 72 98 b7 3e de a8 be 3e 12 12 80 be ae 55 d3 3e
       0.35858494 0.3723821 -0.25013787 0.41276306
0000f0 26 3b 8b 3e 16 2d 58 be 5e a0 57 be f7 23 c0 be
       0.27193564 -0.21110949 -0.21057269 -0.3752744
000100 d8 be e5 3d e0 03 b9 be f1 18 43 3e 63 b0 11 3e
       0.11218041 -0.3613577 0.19052483 0.14227442
000110 07 bc c6 be 43 69 fd 3d bb 6d 15 bd 2c ed 4f 3e
       -0.38815328 0.12373593 -0.0364816 0.20305318
000120 7c 62 83 3e 6e 93 e3 be 54 3f d2 3e 2f eb bf 3e
       0.25661075 -0.44448417 0.4106394 0.37484118
000130 36 82 35 3e 87 79 d1 be 69 17 24 be 65 a7 10 be
       0.17725453 -0.4091303 -0.16024555 -0.14126356
000140 db cb e9 bd 90 fe 80 3e a5 08 26 3e 6f c6 b5 3e
       -0.114158355 0.25194216 0.16214235 0.35502955
000150 fb f3 2b be 8d 3d 1a 3e 20 c6 22 3e ac ce bf be
       -0.1679229 0.15062542 0.15895891 -0.37462366
000160 f9 0f de be 93 f3 6c be a6 8c 9c 3e 46 b2 d7 be
       -0.4337156 -0.23139791 0.30576056 -0.421282
000170 a9 aa c7 be 9f 5f 80 3e d7 63 77 3e ec df bb 3e
       -0.3899739 0.25072953 0.2415918 0.36694276
000180 65 6c af be 07 cc a7 be 0f ce 6b 3e 70 a7 c6 3e
       -0.34262386 -0.32772848 0.23027824 0.3879962
000190 b7 e9 88 3e c1 d3 8e 3d 0f ed 16 3e 94 2c d9 3e
       0.2674081 0.069739826 0.14738868 0.42416823
0001a0 b1 d1 93 be 40 0d 4d be 38 ba 9f 3e da a4 9c be
       -0.2887092 -0.20024586 0.3119676 -0.30594522
0001b0 cd 5a 7c be b0 eb a6 3e 87 46 10 3e 5f 86 0d 3e
       -0.24644013 0.3260169 0.14089404 0.1382079
0001c0 89 84 41 be 11 79 04 bb e7 a3 d1 3e 6a 27 87 be
       -0.18898214 -0.0020213763 0.4094536 -0.26397258
0001d0 94 0b 7c 3b d6 82 59 3e c7 1f 9e be 3d db de 3e
       0.003845905 0.21241316 -0.3088362 0.4352664
0001e0 91 f6 63 be 3f 74 db bd 7a 82 f6 bd a9 2c 95 be
       -0.22262026 -0.107155316 -0.12036605 -0.29135635
0001f0 42 4d e1 be 30 fd 80 3e 8c e8 ef 3d ba 5a d6 be
       -0.44004256 0.25193167 0.11714277 -0.41866094

_network.1.weight f4 [128]
000000 87 f7 79 3f 33 26 7b 3f 01 11 84 3f 55 af 71 3f
       0.9764332 0.9810516 1.0317689 0.9440816
000010 23 54 7c 3f 40 e7 76 3f 2d 6d 88 3f bf 20 7c 3f
       0.9856588 0.9644661 1.0658318 0.98487467
000020 8a a9 81 3f 46 73 75 3f dd 28 7f 3f 56 4e 70 3f
       1.0129864 0.9587902 0.9967173 0.9386953
000030 57 ba 6d 3f 46 e7 69 3f 79 f1 7e 3f ae 58 78 3f
       0.9286246 0.9136852 0.9958721 0.97010314
000040 9d 70 59 3f 50 3d 79 3f 09 35 73 3f 68 e6 73 3f
       0.8493746 0.9735918 0.950028 0.9527345
000050 8d 35 88 3f 82 1c 80 3f 9b a8 84 3f 14 95 71 3f
       1.0641342 1.00087 1.0363954 0.943681
000060 5f 09 7b 3f f3 70 7a 3f b1 ba 85 3f 3d 1b 80 3f
       0.98061174 0.97828597 1.0447599 1.0008312
000070 8d 12 75 3f 9a 03 6f 3f 25 82 72 3f dc 11 7e 3f
       0.9573143 0.9336487 0.94729835 0.99246
000080 ed 50 84 3f 03 39 62 3f e6 0d 72 3f 0a 1b 74 3f
       1.0337197 0.8836824 0.9455246 0.9535376
000090 b0 78 7a 3f fe 8a 87 3f 16 aa 6f 3f eb 46 84 3f
       0.97840405 1.0589292 0.93618906 1.0334142
0000a0 23 25 7f 3f 80 41 6b 3f 02 3f 81 3f 45 6c 85 3f
       0.9966604 0.9189682 1.0097353 1.0423666
0000b0 70 b5 7e 3f ba b3 7b 3f 1a 27 81 3f 7b c8 76 3f
       0.994956 0.98321116 1.0090058 0.9639966
0000c0 b9 96 82 3f 8f a7 6a 3f f2 58 68 3f 11 86 80 3f
       1.0202247 0.91661924 0.9076072 1.0040914
0000d0 54 05 7e 3f 2c d4 89 3f 7f 23 79 3f 85 bc 66 3f
       0.9922688 1.0767875 0.9731979 0.9013141
0000e0 27 38 75 3f ff 1b 67 3f 07 76 76 3f 45 8c 77 3f
       0.95788807 0.90277094 0.96273845 0.9669841
0000f0 19 6d 75 3f a1 bc 88 3f d7 9f 88 3f 41 23 7b 3f
       0.95869595 1.0682565 1.0673779 0.9810067
000100 90 b1 7f 3f 2c 95 75 3f 81 27 88 3f 24 71 85 3f
       0.99880314 0.95930743 1.0637056 1.0425153
000110 b9 24 77 3f 77 e1 80 3f 30 ca 6c 3f be ee 74 3f
       0.9654041 1.0068806 0.92496014 0.9567679
000120 7a 97 6d 3f 0a 5f 82 3f f4 8b 81 3f ea 3b 76 3f
       0.9280926 1.0185254 1.0120835 0.9618517
000130 fc ca 84 3f 55 87 8d 3f 26 38 77 3f 9d 69 81 3f
       1.0374446 1.1056925 0.9657005 1.0110356
000140 92 b4 7a 3f f2 b8 76 3f ec a0 73 3f 59 a3 65 3f
       0.9793178 0.96375954 0.9516742 0.89702374
000150 96 1b 79 3f 58 b8 80 3f d7 9a 7b 3f 84 0d 82 3f
       0.9730772 1.0056257 0.9828314 1.0160375
000160 6a 75 7a 3f 52 03 60 3f 78 2a 7a 3f 10 1a 6a 3f
       0.9783541 0.87505066 0.9772105 0.9144602
000170 56 f2 78 3f 39 ab 61 3f 6c 2c 6b 3f 90 a4 84 3f
       0.97244775 0.8815189 0.9186466 1.036272
000180 9a 05 88 3f 8e 5c 78 3f e0 c8 7a 3f 9a 05 76 3f
       1.062671 0.9701623 0.9796276 0.961023
000190 ce c9 76 3f d6 81 84 3f 41 04 6e 3f 0b 4b 79 3f
       0.9640168 1.0352123 0.9297524 0.9738013
0001a0 75 cf 78 3f d0 b4 86 3f 61 64 74 3f 98 c7 79 3f
       0.97191554 1.052393 0.95465666 0.9757018
0001b0 3e 16 6e 3f 1b 33 71 3f 92 ec 61 3f 73 2b 85 3f
       0.9300269 0.94218606 0.882516 1.0403885
0001c0 52 33 7b 3f 50 c5 82 3f 32 17 6c 3f ab a7 74 3f
       0.98125184 1.0216465 0.92222893 0.9556834
0001d0 b1 13 82 3f 43 48 77 3f e1 a0 7d 3f c5 3f 78 3f
       1.0162259 0.9659464 0.99073607 0.96972305
0001e0 2e d5 7e 3f f9 44 72 3f ee c4 85 3f b3 6e 6d 3f
       0.99544036 0.94636494 1.0450723 0.9274704
0001f0 8f b6 81 3f 46 8c 7c 3f 60 28 80 3f d4 74 6e 3f
       1.0133837 0.9865154 1.0012321 0.93147016

_network.1.bias f4 [128]
000000 73 5c 7b bc 94 b8 7c bd f9 5f 0a 3d af 84 4b bd
       -0.015341866 -0.061699465 0.033782933 -0.049687084
000010 f8 88 1c 3b 87 49 d3 bc a6 62 f1 3c 9e 8e 48 3c
       0.002388535 -0.025791897 0.029465985 0.012241034
000020 c7 72 96 b8 f8 a6 35 bd f0 f7 53 bd 5f 4d 36 bd
       -7.173936e-05 -0.044348687 -0.051750124 -0.04450738
000030 e8 db 8d bd 4b d4 66 bd 83 1e 2e bc 43 9a 87 bb
       -0.069267094 -0.056354802 -0.010627392 -0.0041382625
000040 57 5e ab bd 27 51 32 bd b2 e3 40 bd 3f ce 59 bd
       -0.08367603 -0.043534424 -0.047092147 -0.053175207
000050 ea ce ee bd 0c 9a ac 3c 7d a4 89 3d 8c 26 59 bd
       -0.116605595 0.021069549 0.06720827 -0.053015277
000060 29 d9 11 bd 91 45 25 bd d6 56 5e 3d 69 f4 08 3c
       -0.03560749 -0.040349547 0.054282032 0.008359053
000070 ac 4e 46 bd a8 fd 22 bd 1f e8 87 bd bd 95 21 3d
       -0.04841487 -0.039792687 -0.066360705 0.039449442
000080 70 13 31 3d 9f dd 2e bd 70 8d 33 bc 8f c4 8c bd
       0.043231428 -0.042691823 -0.010959014 -0.06873428
000090 5f 8c a0 bd 7b e2 96 3d 40 02 2b bd 4c 5f fc bc
       -0.07839274 0.073674165 -0.041750193 -0.03080716
0000a0 f6 bd 12 3a b8 d0 86 bd 1e 00 60 3d 57 a0 8c 3d
       0.00055977644 -0.06582779 0.05468761 0.0686652
0000b0 3c 94 33 bd 5a 17 42 3c 14 77 9a bd 9e 64 b0 bc
       -0.04384254 0.011846388 -0.075422436 -0.021532353
0000c0 95 38 bf 3c 48 9f 58 bd 44 d3 21 bd 9b 6f d9 bc
       0.02334241 -0.052886277 -0.03950812 -0.026542475
0000d0 97 22 88 3b 22 eb 08 3e 2f 42 69 bd b1 68 e5 bd
       0.004154514 0.13370946 -0.056947883 -0.11201609
0000e0 8c b8 5f 3d 94 be 0b bd 34 19 4d bd 11 19 17 bd
       0.054619357 -0.034117296 -0.050072864 -0.03688914
0000f0 12 db 48 bd 8e 24 5c 3d 5f 61 7b 3d 89 45 31 bc
       -0.049037047 0.0537458 0.061372157 -0.010819801
000100 f3 fe 48 3d ad 2c 61 bd ef bd 0f 3d 9c 1c f6 bc
       0.049071264 -0.054974247 0.035093244 -0.030042939
000110 c1 a2 6b bb 64 3d fd bc 3a 62 11 bd c6 30 7d bd
       -0.0035955163 -0.030913062 -0.035494067 -0.061814092
000120 a0 0a d5 bc 59 55 ee bc b3 b6 14 3d be 8d b5 bc
       -0.026006043 -0.029093431 0.036307048 -0.022162315
000130 e9 aa 84 3d 21 37 e0 3d 50 71 2e bd 7d 3a 05 bd
       0.06477911 0.10948015 -0.042588532 -0.032526482
000140 e4 de ac bc 02 32 f2 bb 1b 06 1d bd 88 56 0c bb
       -0.021102376 -0.0073912153 -0.0383359 -0.0021413881
000150 b4 96 33 3d 00 5c a0 bd 15 35 7b bc 5d 40 2e 3d
       0.043844894 -0.078300476 -0.01533248 0.04254185
000160 86 02 d4 bc 26 92 ab bd 36 78 73 bd ab 9d 91 bd
       -0.02588011 -0.08377485 -0.059440814 -0.07110151
000170 eb ab f1 bc 83 da 88 bd 93 2e fc bc 18 02 db 3b
       -0.029500922 -0.06682303 -0.030783927 0.006683599
000180 ab b5 bc 3d 41 f9 91 bd fb 3e f5 3c ae 92 6d bc
       0.09214338 -0.071276195 0.029937258 -0.014500303
000190 fc da 2c bd 59 f1 81 3c aa 9b d5 bc 88 27 20 3b
       -0.042201027 0.015862154 -0.026075203 0.0024437625
0001a0 e9 56 f4 bb ee a3 3d bd 95 15 39 bd 78 db d4 bc
       -0.0074566496 -0.046298914 -0.045186598 -0.025983557
0001b0 c4 39 bc bd 01 f0 44 bc 65 96 3c bd 4f 8d 2f bd
       -0.091907054 -0.012020112 -0.046041865 -0.04285937
0001c0 5f ef 99 bc b4 1f 96 3c e5 b8 56 bd 68 54 29 bd
       -0.018790899 0.018325664 -0.052422423 -0.04134026
0001d0 38 85 14 bc bd 77 db bc 76 24 28 3a c7 92 08 bc
       -0.009064965 -0.026790494 0.00064141245 -0.008335776
0001e0 fb 90 4e bd a8 27 f8 bc 38 e7 92 3d 55 7f 2d bd
       -0.050431233 -0.030292347 0.07173008 -0.04235776
0001f0 0e e7 df bb 17 7f 9a bb bd 24 c4 bc 5c 64 45 bd
       -0.006832964 -0.0047148573 -0.0239433 -0.048191413

_network.1.running_mean f4 [128]
000000 a4 68 20 3f fc 23 b3 be ed d7 3e 3f 4e d7 ba 3e
       0.6265967 -0.3498839 0.74548227 0.3649239
000010 84 55 07 bf c5 5b 0b bf 20 53 97 3d fc 3a 8a 3d
       -0.5286486 -0.54436904 0.07388902 0.067495316
000020 52 70 b8 3e 47 64 c5 bd ff 8f 9d 3e ec e5 3d bc
       0.36023194 -0.09638267 0.30773923 -0.011590462
000030 2f 21 40 3e 08 64 1b be d8 34 74 bd d9 50 a6 3e
       0.18762659 -0.15174878 -0.05962071 0.32483557
000040 c2 ea 94 be 8d 04 88 be 61 db cd 3b e5 ef 6d 3e
       -0.29085356 -0.26565972 0.0062822555 0.23236044
000050 6f c6 0f bf c8 db 0e bf 60 8d 11 bf cd 5d 07 bd
       -0.5616216 -0.5580411 -0.56856346 -0.03304844
000060 e9 71 52 be c6 1b e7 bb dc 34 fa 3e da be 5b be
       -0.20551266 -0.0070528714 0.48868454 -0.21459523
000070 0f f7 97 bd 13 90 87 bc 95 13 0b be 23 71 38 3e
       -0.074201696 -0.016548192 -0.13581689 0.18011908
000080 75 83 07 3f e0 b8 f4 3d 59 57 12 bf cc 10 4a 3e
       0.5293496 0.119493246 -0.5716453 0.1973297
000090 13 55 81 3d dc 78 0e 3d b0 e9 62 be b4 ac 0d bd
       0.06315055 0.03478323 -0.22159457 -0.03458853
0000a0 f2 b0 61 3e 6c 48 59 be 68 0f 84 be 0c 4f b3 3e
       0.22040156 -0.21219033 -0.25793004 0.35021245
0000b0 8e 21 c1 be 15 40 87 3e 3a cc c0 3c d2 65 09 bf
       -0.37720913 0.26416078 0.023534883 -0.5367099
0000c0 ce 8f 1f bf d9 66 d0 be 01 2a 8b be 16 17 0f 3f
       -0.62328804 -0.40703467 -0.27180484 0.558946
0000d0 b2 bd 3a bd fa bb b5 3e 2a b1 bc 3e 4c 72 f7 bb
       -0.045591064 0.35494977 0.36853915 -0.007551467
0000e0 fa c5 e5 bc f5 cb b5 3e 91 5b 1c bf fc 28 25 3d
       -0.028048504 0.3550717 -0.6107722 0.04032229
0000f0 0a b6 8a bd ac 5c 29 be 7d fa 9a 3e d3 22 f0 bd
       -0.067730024 -0.16539258 0.30269232 -0.11725392
000100 d1 35 e3 bc ee e2 6c bf 4a 03 98 3e 8d 21 13 be
       -0.027735623 -0.9253377 0.2969001 -0.14368267
000110 b4 c7 65 bf 6b 1c 95 3d 0a b8 bd 3d 4d 0d cf 3e
       -0.8975785 0.07280811 0.09263618 0.40439835
000120 f1 66 d3 3d 7b 0f 18 bf 2d ae fb 3e 32 22 d4 3e
       0.10322369 -0.5939862 0.49156323 0.4143234
000130 58 ec c9 3e 52 bc a0 be 9a 47 2c bc 91 dc d6 be
       0.39438128 -0.31393677 -0.010515118 -0.41965154
000140 1b 24 87 bd ba 53 2f be ef 1b 8d 3e 2a 9e f7 bd
       -0.065986834 -0.17121783 0.27560374 -0.12090714
000150 ba 72 6b 3c 16 e8 0b 3e da f7 30 3e 8b bd 91 be
       0.014370615 0.13662753 0.17282048 -0.28464922
000160 da e2 0e 3e de b9 a3 be 19 ab 75 3e 19 ec f4 be
       0.13953725 -0.31977743 0.2399105 -0.47836378
000170 b3 57 e6 be 34 ba c3 3e fa 5a da 3e c0 6e 9f 3e
       -0.44988784 0.38228 0.42647535 0.31139183
000180 00 53 e5 be f5 50 e0 3d 24 e1 b1 3e fe ae b1 3e
       -0.44789886 0.10952941 0.3474208 0.3470382
000190 65 ea fd 3e de 97 1a bd dc 40 aa be 4e 9e 2c 3f
       0.4959289 -0.037742488 -0.3325261 0.67429054
0001a0 8b d8 43 3e 46 6d 24 be d4 ab 26 3f b1 8a 09 bf
       0.19125573 -0.1605731 0.6510594 -0.5372725
0001b0 4f 53 33 be e1 4b 2a 3f 9c 27 99 3e af 1f d0 3e
       -0.17512248 0.6652203 0.29913032 0.40649173
0001c0 cc 24 8a be 2d d4 3e bf 1a 5e c3 3e c0 b2 17 bf
       -0.269812 -0.74542505 0.3815773 -0.59257126
0001d0 09 81 31 3e 82 a1 35 3e f4 c9 30 be 84 da e9 3e
       0.1733438 0.17737392 -0.17264539 0.45674527
0001e0 95 3d bb be 0b ca 63 bd 86 3d 4c 3e 80 40 6c be
       -0.3657042 -0.055612605 0.19945344 -0.2307148
0001f0 9e 16 25 bf 35 9e 12 bd 43 33 9f 3d ae f6 7b bf
       -0.64487636 -0.03579541 0.07773449 -0.9842328

_network.1.running_var f4 [128]
000000 dc e0 0c 3d af c6 56 3c 35 8e 89 3b c1 d9 57 3b
       0.03439413 0.013108893 0.0041978606 0.0032936188
000010 d8 ab 9c 3c 08 dc 39 3c 33 94 ad 3b b1 16 d4 3b
       0.01912491 0.011343963 0.0052972077 0.0064724316
000020 02 fd a2 3b 4b 2c 2b 3d b8 24 20 3c 30 ca ee 3c
       0.0049740085 0.041790288 0.009774379 0.029149145
000030 ff 53 b6 3c cf 67 97 3c bb fc a2 3c 12 9d de 3c
       0.02225685 0.018482117 0.019895902 0.027174506
000040 ba a6 32 3d 18 22 c2 3b 49 da 6b 3c 38 13 47 3d
       0.043616034 0.0059244744 0.014395305 0.048602313
000050 67 49 54 3b e6 68 01 3c 3e ad 1e 3c 7b f3 59 3c
       0.0032392384 0.007898545 0.009684859 0.013302679
000060 c1 56 7e 3b 2d a9 ef 3b 76 aa 66 3c 5d 51 0a 3c
       0.0038809034 0.0073138685 0.014078727 0.00844225
000070 0a 76 a2 3c 44 cc 04 3d 00 8f 2d 3d 65 2c 9a 3c
       0.019831676 0.032421365 0.042372704 0.018819997
000080 f3 6c f1 3b 28 89 d0 3b 9f 7f b2 3b 6d e3 9a 3c
       0.007367724 0.0063640065 0.0054473425 0.018907273
000090 d8 e8 49 3b 51 d5 e0 3a 83 55 bb 3b a2 0d 8a 3a
       0.0030808952 0.0017153417 0.005716981 0.0010532627
0000a0 98 bb a7 3b e5 71 d8 3c 9f fe ee 3b 18 68 d9 3b
       0.0051187985 0.026421497 0.007293537 0.0066347234
0000b0 17 78 03 3d 9a cc dd 3c aa b5 3b 3c 69 0f 51 3c
       0.03209695 0.0270751 0.011456886 0.012760022
0000c0 d6 70 a9 3b fb 60 2a 3d d8 b3 db 3b 51 0f c5 3b
       0.005170922 0.041596394 0.0067047887 0.0060137887
0000d0 0a d5 e6 3c d8 1d de 3b 50 6d 20 3d 4d 64 35 3c
       0.028177757 0.00677846 0.03916675 0.011071277
0000e0 67 38 ad 3b db 0f 04 3c 0b 01 0e 3d 3e 1e 7c 3b
       0.0052862647 0.008060421 0.034668963 0.0038470174
0000f0 fa 75 d8 3b 0f 66 90 3b df 63 16 3c 82 7f e5 3b
       0.006605861 0.0044066976 0.009179085 0.0070037255
000100 31 a0 2a 3c 60 f3 86 3c 25 cc d8 3b 07 20 87 3b
       0.010414169 0.016473472 0.006616133 0.004123691
000110 5f 21 b9 3b 57 c3 8b 3b 56 68 53 3d 82 7e 24 3c
       0.00564973 0.0042652297 0.051613174 0.010039927
000120 9b 1a 88 3c bf bf 9f 3b d2 09 8c 3c 38 28 17 3d
       0.016614249 0.004875153 0.017094526 0.03690359
000130 9a 81 83 3b 5a 4f de 3b 48 77 e0 3b 24 43 3e 3b
       0.0040132524 0.006784362 0.006850157 0.0029031718
000140 6c c7 37 3c a2 a0 dc 3c 0b eb 96 3c f3 3c 83 3b
       0.0112169795 0.026932064 0.018422624 0.0040050684
000150 c0 c7 6b 3c 68 23 c4 3b ea e9 91 3c 19 d3 12 3b
       0.014390886 0.005985666 0.017811734 0.0022403656
000160 0e 0b c8 3b 21 5a 3b 3c 1a 66 74 3c dd b8 ef 3b
       0.0061048334 0.011435063 0.014916921 0.0073157386
000170 62 42 d8 3b ca c3 0f 3d 90 2a d6 3c 38 a4 ec 3b
       0.0065997103 0.03509883 0.026143342 0.007221725
000180 ea 3e 59 3b 4c e8 eb 3b 66 ec 3b 3b b1 61 34 3c
       0.0033149072 0.007199323 0.002867484 0.01100962
000190 da 08 85 3c f1 8d 3e 3b 08 47 d5 3b 99 d8 f6 3c
       0.016239572 0.0029076303 0.0065087117 0.030132579
0001a0 12 ab 9f 3b c3 0d 75 3b 98 93 0c 3c cd 34 8c 3d
       0.004872688 0.0037392236 0.008580111 0.068460084
0001b0 59 92 a3 3c 6d 9a 12 3d 81 93 97 3c 09 67 e6 3b
       0.019967245 0.035791803 0.018502953 0.0070313257
0001c0 56 26 c2 3c 19 5c 0d 3c 90 50 2e 3d b6 61 40 3b
       0.02369992 0.008627915 0.0425573 0.0029355115
0001d0 aa 7f 0c 3c 88 d5 10 3c 18 ba ae 3c 3e 19 c2 3b
       0.008575359 0.008839972 0.02132897 0.0059234193
0001e0 3d 9e e1 3b 4c 88 35 3d 01 ab d6 3b 15 e4 9b 3c
       0.0068853186 0.044319436 0.006551147 0.019029656
0001f0 ff 23 bc 3b 9a b5 2b 3c 5e 36 98 3b 4e a1 bb 3c
       0.0057415958 0.010480309 0.004645153 0.022904065

_network.3.weight f4 [128, 128]
000000 2a 93 52 bd 67 8d a8 3d 08 72 45 3d 4e 7a 9f 3d
       -0.051409878 0.08230095 0.04820445 0.07787
000010 d7 6b 80 bd 0d c4 4c bd b1 de 66 bc 82 d6 c7 3a
       -0.06270569 -0.049991656 -0.01409118 0.0015246423
000020 9f 0f af bd 3b f6 68 3c 3f b6 3b 3c d0 b7 7c bc
       -0.08547901 0.014218862 0.011457025 -0.015424684
000030 35 5d 01 3c 43 d7 d5 bc 38 aa 3b 3d d4 7f 40 3d
       0.007895757 -0.026103621 0.04581663 0.046996906
000040 9e b5 17 bd f0 6e ef bd 09 d4 4c 3d f2 95 01 3d
       -0.037038438 -0.116910815 0.0500069 0.03163714
000050 70 41 fd bb eb 12 01 3e 3d 07 27 3c 11 4c 58 3d
       -0.007728748 0.12604873 0.010194597 0.052806918
000060 54 31 8b 3d 63 fe e9 bd 49 a5 95 3d 7a 1f f3 bd
       0.06796518 -0.114254735 0.07306916 -0.11871238
000070 7c b5 82 bd b4 8a 99 bb 16 ef 92 bd 9e ce e6 3d
       -0.06382272 -0.004685724 -0.07174508 0.11269878
000080 cc 60 11 bd 23 2e 0d 3d 5d 28 86 bc c1 8f 28 3d
       -0.035492703 0.034467828 -0.016376669 0.04115272
000090 c9 ea 8d bd 71 78 a4 3c 20 4a 02 3d 03 24 76 3d
       -0.06929547 0.020076962 0.031808972 0.060092937
0000a0 d3 6b e4 3d 91 71 40 bd 39 17 88 bc 55 27 5f 3d
       0.11153378 -0.046983305 -0.016612636 0.05448087
0000b0 7c 70 15 3d 6f 4d 56 3d 66 40 be 3d 7c 16 9f bc
       0.036484227 0.05231994 0.09289627 -0.019419901
0000c0 8f 7e 8a bc 56 45 aa 3d f8 fa 96 ba 37 df 89 3d
       -0.016906051 0.08314006 -0.0011518886 0.06732028
0000d0 27 67 32 3c 62 2f 08 3e 77 09 93 bd be f9 7f bd
       0.010888851 0.13299325 -0.0717954 -0.062494032
0000e0 e3 dc 18 bc 9d 05 ba 3b 4e 02 48 3d 71 e4 6d bb
       -0.009330007 0.0056769387 0.048830323 -0.0036299492
0000f0 57 3d 53 3d 76 3b 42 3d 23 c6 b2 bd 6d bb 70 3c
       0.05157217 0.047419988 -0.08729198 0.014693123
000100 00 56 42 bd 82 e2 a3 bc 41 52 2e be 16 20 b2 3d
       -0.047445297 -0.020005468 -0.17023565 0.08697526
000110 5e 1b 6e bd f7 72 15 3d db de fd 3c 6b 3e 68 bd
       -0.058131568 0.036486592 0.030990055 -0.05670015
000120 ae d6 a4 3c 00 e8 17 be 17 4a 4d bd eb 7f 8d bd
       0.020121899 -0.14834595 -0.050119486 -0.06909164
000130 1b 5e d5 bb d8 97 30 3d ee e3 85 3c b0 ad 44 3c
       -0.0065114624 0.04311356 0.016344037 0.012004301
000140 52 e6 57 3d 50 d0 cb 3d b8 cf 06 3d 0d 11 26 bc
       0.052709885 0.09951842 0.03291294 -0.010135901
000150 6a d9 e0 bd 58 52 3c bd 23 98 64 bd a1 09 b4 3d
       -0.109789684 -0.045976967 -0.05580915 0.08790899
000160 53 87 3f 3d 13 fe 39 3d 45 9e 65 3d 44 b6 a1 3d
       0.046759915 0.04540832 0.05605914 0.078960925
000170 0f b0 a9 3c bb 8c 8f bd 57 a1 c3 3d f5 6c 02 be
       0.020713834 -0.07009264 0.095522575 -0.12736876
000180 09 52 fc bb f2 03 88 3d a6 05 b4 3d d4 32 66 3d
       -0.007700209 0.066413775 0.0879014 0.056200817
000190 1d 05 29 bb eb ce f9 bd 59 59 ff bc f9 74 a6 3d
       -0.0025790401 -0.121976696 -0.031170534 0.081277795
0001a0 31 2e e5 3b 79 b3 78 3d aa 3f 14 bd a1 f5 18 bd
       0.006994032 0.060718033 -0.036193527 -0.037343625
0001b0 ca 5b 7f 3d ef a9 8b 3c 59 7b 6e 3d 32 30 7d 3b
       0.062343396 0.017048804 0.058223102 0.0038633463
0001c0 30 3f 5e 3d f5 4b 9f 3d 78 1d 95 3c cd dc 9a 3d
       0.05425948 0.077781595 0.018202528 0.07561646
0001d0 41 a4 2f 3d 39 9e 51 3d e5 39 93 3d 7e 59 43 bd
       0.042881254 0.051176284 0.07188777 -0.04769277
0001e0 1d ec ab bd 61 fb a3 3c 36 6f 46 bd 47 d2 3f bd
       -0.083946444 0.020017328 -0.048445903 -0.046831395
0001f0 dd 9a 41 bd b4 1c c0 3c 19 ed 8b 3d a0 02 26 3d
       -0.04726683 0.023451187 0.06832332 0.040529847
000200 fc 91 30 ba 18 6e ae bc a9 bf 22 bd 89 61 5a bd
       -0.00067356206 -0.021292731 -0.039733563 -0.053315673
000210 00 f5 a8 3d 2f 26 ee 3c 98 83 61 3d c2 bd b8 bc
       0.08249855 0.029070942 0.05505714 -0.022551421
000220 b2 c5 39 3d 3e d2 09 3d 56 bc 99 bd 89 ad fe 3c
       0.045354553 0.03364777 -0.07506625 0.031088607
000230 7c ee 8f bc 2b f0 a8 bd d5 94 b2 bd ab a5 86 3d
       -0.017569773 -0.082489334 -0.08719794 0.065745674
000240 fe fd 82 3d 62 00 39 3d ef a8 c7 3d 65 58 67 bd
       0.063961014 0.04516638 0.097490184 -0.056480784
000250 13 51 1f bd 8c e2 05 bd cd b0 67 bd f5 18 92 bd
       -0.038895678 -0.032686755 -0.056565095 -0.071336664
000260 97 61 9a bd 18 d1 15 3d 6e 0e 2d bd a9 2f e1 3a
       -0.07538145 0.03657636 -0.04225009 0.0017180342
000270 0c 99 76 3d 3e 13 28 bc f4 4e de bc 5b fe dc 3c
       0.06020455 -0.010258494 -0.027137257 0.026976755
000280 45 15 c5 bc 43 84 4e bc e2 e2 30 3d ed ff af bc
       -0.024057994 -0.012604776 0.043185122 -0.02148434
000290 e3 9a 33 bd a6 cd b1 bd 74 c5 06 bc 69 95 0f bd
       -0.043848883 -0.086818025 -0.008225787 -0.035054598
0002a0 2d e8 98 bd eb 32 9b 3c d4 c8 8b bc 89 09 f3 bc
       -0.07466159 0.018945178 -0.017063536 -0.029667633
0002b0 31 36 c8 bd c1 ae 4a bd d2 25 db bd 5f a8 97 bd
       -0.09775961 -0.049483065 -0.10700573 -0.07405161
0002c0 e6 be 01 be 34 e7 37 3c 20 7b e8 bd ef 50 1d be
       -0.12670478 0.011224557 -0.11351609 -0.15362905
0002d0 31 db b2 bd f3 57 5b bd 6c 8c 67 bd 86 a0 af bc
       -0.08733214 -0.05355067 -0.0565304 -0.021438848
0002e0 05 4d c8 3c 18 23 79 3d 22 8d 11 3d 4b 73 13 be
       0.024450788 0.060824484 0.035534985 -0.1439945
0002f0 9a d8 ce bd 96 09 a7 bd ec ae cb 3d 38 36 d8 ba
       -0.10099907 -0.08156125 0.09945473 -0.0016495651
000300 01 2d b7 bd 53 ef 32 bd b5 ea 82 bd e3 e8 62 bd
       -0.08944131 -0.04368527 -0.06392423 -0.05539788
000310 76 bc 3f bd 67 19 88 3d 34 c4 18 3d 0d bf b0 bb
       -0.04681059 0.0664547 0.03729649 -0.005393869
000320 92 0b b5 3b dc db c0 bc 91 94 58 bb 91 e7 19 3d
       0.005525061 -0.023542337 -0.0033047537 0.037574355
000330 30 f1 12 3d 34 3e 2d bd 43 26 90 3d cb e8 c9 3b
       0.035874546 -0.04229565 0.07038548 0.0061617843
000340 59 a4 34 bd 97 20 0b 3d 62 d1 73 3d f0 c4 c2 3d
       -0.044102047 0.033966627 0.059525855 0.09510219
000350 fd 89 0a 3d ed b9 3f bd a8 a3 61 3d 87 0c 02 3d
       0.033823002 -0.046808172 0.055087715 0.03175023
000360 15 65 b7 bc f6 c2 01 bb a1 ae 92 bd 8d ef 49 38
       -0.022387067 -0.0019800044 -0.07162214 4.8145233e-05
000370 98 65 dc 3c 7e 21 c8 bb e5 b9 c4 bb 4b d6 d6 3b
       0.026903912 -0.006107508 -0.0060036057 0.0065563074
000380 ed cf 06 bc 02 91 13 bd 1b 39 88 3d 72 50 95 bd
       -0.008228284 -0.036026962 0.06651517 -0.07290734
000390 87 ba 2c b8 91 dd 46 bd 0a 80 df bc 3b 4e d9 bd
       -4.1181713e-05 -0.048551146 -0.027282733 -0.106106244
0003a0 2a 46 cd 3d 2b 45 1d be 54 2c b2 bc 64 48 89 3c
       0.10023148 -0.15358417 -0.021749653 0.016758151
0003b0 2b 2e 31 bd 79 82 0a bd 4c a2 f5 bc 65 cd 01 bd
       -0.04325692 -0.033815835 -0.029984616 -0.03169002
0003c0 c6 f4 82 bd ff c2 7a bd f1 fa ef 3c 8d 28 99 bd
       -0.06394343 -0.06122112 0.029294463 -0.074784376
0003d0 73 a0 47 bd 33 51 e9 b8 a0 39 25 bc 52 5a 42 3d
       -0.048737 -0.0001112543 -0.01008454 0.047449417
0003e0 41 42 05 be 59 bd 04 3d dc 2d 95 3d 9a 75 4b 3d
       -0.13013555 0.03240714 0.072841376 0.0496727
0003f0 fb 9b f6 bd fc 7f 51 bd 2a 7f 53 bd cb 02 a3 bd
       -0.1204147 -0.051147446 -0.051634945 -0.07959517

_network.3.bias f4 [128]
000000 41 41 b5 bb f6 6c 6c bd 12 f2 3a bd 4c 7e 50 3d
       -0.0055314605 -0.0577211 -0.045641012 0.050901696
000010 cf de 5d bd 21 09 32 bd 04 01 39 3d 18 a9 37 bd
       -0.054167565 -0.043465737 0.045166984 -0.044838995
000020 f5 47 8c bd 43 12 a0 3c e7 59 1c 3d 01 17 a4 bd
       -0.06849662 0.019539958 0.038171675 -0.080122
000030 30 2a 3a 3c d3 a0 8b bd a8 56 18 3d bb c9 46 3d
       0.011362597 -0.06817784 0.037192017 0.04853223
000040 a8 13 f5 3c a7 cc b0 3d 2e 39 8c bc ee 81 0f bd
       0.0299166 0.08632784 -0.01711711 -0.03503602
000050 b4 1a c4 3c 58 20 d9 3c 9b 85 21 bd dc 4f 6e bd
       0.023938514 0.02650468 -0.039434057 -0.05818163
000060 a9 89 dc bc d4 72 16 3d 4b fe 18 3d 55 e3 1f bd
       -0.02692111 0.036730602 0.037351888 -0.03903516
000070 c5 19 99 3d 24 70 86 bd 9d 0f 29 bc c0 c4 af 3c
       0.07475618 -0.06564358 -0.010318664 0.021456122
000080 b1 72 82 bd 03 c9 a4 3d 29 04 32 bd e1 25 56 3d
       -0.06369532 0.080461524 -0.043461 0.052282218
000090 06 61 6c 3b 4d 61 4b bd 26 32 a9 3d ec c8 21 bc
       0.0036068573 -0.04965334 0.08261518 -0.009874564
0000a0 ed 1e 80 3c 23 51 aa 3d f1 d5 aa bd ea b7 91 3d
       0.015639747 0.08316257 -0.08341587 0.07115157
0000b0 12 c1 32 bd 91 e2 92 bd 87 0e 4a 3d fd 5b dc bc
       -0.043641157 -0.0717212 0.04933026 -0.026899332
0000c0 70 46 90 bd 2e 9c 31 bd f9 54 69 3d a6 70 1e 3d
       -0.07044685 -0.043361835 0.056965802 0.03868165
0000d0 bf 0f 8f bb 43 e6 39 3d 39 21 90 3c 02 89 87 bd
       -0.0043658908 0.04538561 0.017593967 -0.06617929
0000e0 3c e9 8a 3c 5d dc 80 3d f7 8f 03 bc 27 c4 25 bc
       0.016956918 0.06292031 -0.008029929 -0.010117567
0000f0 b9 99 b1 3d 10 75 cf bc 60 ba a8 3d b7 67 9e 3d
       0.086718984 -0.025324374 0.08238673 0.07734626
000100 7a 48 92 3d 35 d4 bf 3c d7 bd c6 3c 37 1a ba 3c
       0.0714273 0.023416618 0.024260445 0.022717578
000110 ad dd a4 bd 2e 40 0f bd 31 47 4a bd 81 69 55 bc
       -0.08050094 -0.034973316 -0.0493843 -0.013025642
000120 60 61 35 bd cd b1 e9 bc 92 83 77 bd f8 75 83 bd
       -0.044282317 -0.028527165 -0.06042821 -0.06418985
000130 24 81 e8 3c 2c b7 b0 3d 0f 8e 12 bd 33 89 6f bd
       0.028381892 0.08628687 -0.03578001 -0.058480453
000140 9e 2b f3 bc cf 0b 09 bd 4f 68 b0 bd a3 03 9f 3d
       -0.029683884 -0.033458527 -0.08613645 0.077643655
000150 f1 46 75 3d f5 21 86 3d 8c 28 3b bd d1 2c 6f bd
       0.059882108 0.065494455 -0.045692965 -0.05839235
000160 ca 73 ad 3d 01 44 5b bd 6a 4d 98 bd 40 fc 96 bd
       0.08469351 -0.05353165 -0.074366406 -0.073723316
000170 54 3e dc 3c 6c 48 40 bc 32 cc 5c bd 3b f4 99 3d
       0.02688519 -0.011736017 -0.053905673 0.075172864
000180 c7 19 48 bd 84 6f ba 3b 78 90 34 3d ca c5 2c 3d
       -0.04885271 0.005689563 0.04408309 0.042180814
000190 34 97 97 3d 77 a3 32 bc 36 91 3a 3d bd 7f ee bb
       0.074018866 -0.010903231 0.04554864 -0.007278411
0001a0 44 34 3e 3c e0 f9 54 bd f8 67 5f 3d 1f 79 a5 3c
       0.011609141 -0.051996112 0.05454251 0.020199357
0001b0 d8 67 92 3c 4f e7 df bb 23 cf 11 3d 2b c9 ae bd
       0.017871782 -0.006832994 0.03559793 -0.085344635
0001c0 9a f4 93 3d ac fe 8d 3d 8e f3 41 3d 17 46 52 bb
       0.072243884 0.069333404 0.047351412 -0.0032085234
0001d0 51 f7 a8 bd a3 d6 c3 bc 86 51 91 bd bb 69 2d bd
       -0.08250297 -0.023906058 -0.070956275 -0.04233716
0001e0 db 41 8e 3d 98 60 25 bc 8a 87 b4 3d 44 30 36 bd
       0.06946155 -0.0100938305 0.088149145 -0.044479623
0001f0 1e 32 29 bd 42 18 91 bd a0 bf 09 3d f7 18 05 3d
       -0.04130756 -0.07084705 0.033630013 0.03249451

_network.4.weight f4 [128]
000000 af e3 80 3f fe 3b 88 3f 85 f9 7e 3f 51 f5 80 3f
       1.0069484 1.0643308 0.99599487 1.0074865
000010 ac 1c 7d 3f 42 4d 67 3f ed 47 7a 3f 36 a8 76 3f
       0.98871875 0.9035226 0.97766 0.9635042
000020 03 57 7c 3f 72 3a 77 3f ef 0c 7f 3f 55 b4 7e 3f
       0.9857027 0.96573555 0.9962911 0.99493915
000030 de 4d 68 3f 2a 4e 80 3f 1c e0 78 3f e6 d6 72 3f
       0.90743816 1.0023854 0.97216964 0.9485916
000040 42 11 79 3f af d0 81 3f 82 0a 7a 3f bb 0c 7f 3f
       0.9729196 1.014181 0.97672284 0.996288
000050 75 f5 84 3f 71 55 7d 3f ba 1c 76 3f 7d 80 73 3f
       1.0387408 0.989585 0.96137583 0.9511793
000060 77 68 82 3f 3f f6 76 3f 36 d6 6b 3f 2c 92 82 3f
       1.018813 0.9646949 0.92123735 1.0200858
000070 35 fe 7a 3f ff cd 7f 3f 94 d3 73 3f 8b 57 74 3f
       0.9804414 0.999237 0.9524472 0.9544608
000080 d7 76 73 3f c8 36 7b 3f 04 8b 84 3f d5 27 82 3f
       0.9510321 0.98130465 1.0354924 1.0168406
000090 55 71 80 3f 54 6e 87 3f cf 51 71 3f 1c 46 79 3f
       1.0034586 1.0580544 0.94265455 0.97372603
0000a0 26 f2 78 3f 1a c2 78 3f ac 00 83 3f ee c8 6e 3f
       0.9724449 0.97171175 1.023458 0.93275344
0000b0 c5 aa 71 3f 87 7f 6d 3f 5a 3d 85 3f 51 bd 6d 3f
       0.944012 0.92772716 1.0409348 0.92867
0000c0 ba 2c 76 3f 7c 40 74 3f ec fb 7c 3f 45 6e 7b 3f
       0.96162 0.95410895 0.988219 0.9821513
0000d0 6d 62 6e 3f 8f d8 72 3f e8 fa 74 3f 00 f0 84 3f
       0.93118936 0.9486169 0.9569535 1.0385742
0000e0 a7 b4 78 3f 13 73 7c 3f 02 56 7e 3f 4b fe 7d 3f
       0.97150654 0.9861309 0.9934999 0.99216145
0000f0 68 a6 77 3f 92 71 6d 3f d9 27 85 3f aa b6 80 3f
       0.9673829 0.9275142 1.0402786 1.0055745
000100 a8 cf 6f 3f 01 5e 83 3f 67 5a 7a 3f de 89 7c 3f
       0.93676233 1.0263063 0.97794193 0.9864787
000110 1b 3e 84 3f 8a e9 7a 3f d8 3a 83 3f 64 dc 7e 3f
       1.0331453 0.980126 1.0252333 0.9955504
000120 b5 e7 7f 3f e1 ab 73 3f e7 06 89 3f 72 d8 64 3f
       0.9996293 0.9518414 1.0705231 0.8939277
000130 3e b7 7f 3f 5f 4e 76 3f 09 37 79 3f 08 84 81 3f
       0.9988898 0.96213335 0.973496 1.0118418
000140 6e 2c 6f 3f 06 39 75 3f 89 1b 68 3f 35 a4 7f 3f
       0.9342717 0.95790136 0.90667015 0.99859935
000150 78 18 7b 3f 54 29 80 3f 13 1c 85 3f b8 ab 82 3f
       0.9808421 1.0012612 1.0399193 1.0208654
000160 27 24 80 3f 2f 96 7d 3f ad 7f 72 3f 68 5f 83 3f
       1.0011033 0.99057287 0.9472607 1.0263491
000170 d3 d9 74 3f e8 cd 78 3f c2 9a 82 3f 50 cc 73 3f
       0.95644873 0.9718919 1.0203478 0.9523363
000180 50 c4 84 3f 16 04 87 3f 30 82 80 3f 27 83 7b 3f
       1.037241 1.0548122 1.003973 0.98247
000190 4c 19 79 3f e5 2a 82 3f 0c 51 83 3f e1 3d 76 3f
       0.97304225 1.016934 1.0259109 0.9618817
0001a0 06 c5 80 3f 4e 33 80 3f da 74 74 3f 95 7c 7c 3f
       1.0060127 1.0015657 0.954908 0.986276
0001b0 07 b3 6f 3f ac 9f 79 3f 51 de 83 3f 3b 0a 69 3f
       0.9363255 0.97509265 1.030222 0.91031235
0001c0 e4 9c 82 3f 5d ab 7c 3f 7d 00 7e 3f e0 77 6b 3f
       1.0204129 0.9869898 0.99219495 0.9197979
0001d0 00 a3 7f 3f 95 90 82 3f cc c0 81 3f 1c aa 78 3f
       0.99858093 1.0200373 1.0136962 0.97134566
0001e0 7e 17 77 3f b2 0f 77 3f 81 11 76 3f 78 76 80 3f
       0.9652022 0.96508324 0.9612046 1.0036154
0001f0 28 8c 85 3f 0f 52 72 3f 1e 0e 85 3f 67 94 81 3f
       1.0433397 0.9465646 1.0394933 1.0123414

_network.4.bias f4 [128]
000000 6b ab 8e bd c5 1d a2 3d ff 50 06 3b 9d 3e 91 bd
       -0.06966289 0.07915834 0.0020495055 -0.07092021
000010 1e 82 f8 3b d8 7b 3e bd 6a 83 ac bc b3 1c 5a bb
       0.0075838706 -0.046504825 -0.021058757 -0.0033281266
000020 6d 09 46 bb 2f 6b 01 bd 4b 4b ae ba e4 9f 88 bc
       -0.003021802 -0.03159636 -0.0013297586 -0.016677804
000030 10 a9 d7 bd 66 d7 ca bc fc fd 4d bd 36 73 40 bc
       -0.10530293 -0.024760913 -0.050291047 -0.011746218
000040 aa e0 4a bd 71 ef 0e 3d d9 2f b2 bb 34 1a cb 3c
       -0.049530663 0.034896318 -0.005437833 0.024792768
000050 df 10 77 3d 4e 1f 26 3c b2 25 5d bc b3 14 da bd
       0.060318824 0.0101393 -0.013497757 -0.10648479
000060 3d 78 17 3d 2e 70 1a bd d6 00 59 bd 28 26 22 3c
       0.036979903 -0.03770464 -0.052979313 0.0098967925
000070 a4 3a a5 bc 97 d8 bb 3c ff a7 35 3b 85 3a 09 bc
       -0.020169564 0.022930427 0.0027718542 -0.008375769
000080 d2 c5 15 bd ed df 94 3c a4 3b a4 bd f7 8e be 3c
       -0.03656561 0.018173182 -0.08019188 0.02326153
000090 2f b8 e4 3c 3a 55 f3 bd 35 76 97 bd b2 07 e0 bc
       0.027919857 -0.1188149 -0.07395593 -0.02734742
0000a0 74 b1 57 bd 8c 01 b4 bc 1d bf 2b 3d 90 e8 b5 bd
       -0.052659467 -0.021973394 0.041930307 -0.088822484
0000b0 b5 58 a0 bd c7 10 7e bd a1 25 12 be c2 6c 3d bd
       -0.078294195 -0.06202772 -0.14272167 -0.046246298
0000c0 5e 58 0a bc c1 9b 28 bc a9 36 c0 bb 8b c6 39 ba
       -0.00844392 -0.010291041 -0.005865891 -0.0007086775
0000d0 8e 6e c3 bc cf f9 34 bc b3 93 a8 ba d6 fc 73 3d
       -0.023856428 -0.011045887 -0.0012861401 0.059567295
0000e0 bd 86 84 bd f6 fb e4 bc 9d 23 aa bd 4b 3b 6a bd
       -0.06471012 -0.027952176 -0.08307574 -0.057185452
0000f0 3b 1d 25 bc 97 ac 8d bd ad f4 81 3d 1f d6 e5 bc
       -0.01007777 -0.069176845 0.06345496 -0.028056202
000100 06 ae 10 bd b7 4a ce bd 5d d3 18 bd fe 44 ce 3b
       -0.03532221 -0.100728445 -0.037310947 0.0062948456
000110 14 02 9c bd 69 5b 8c bc 6c e1 26 3d fe 6b 19 b9
       -0.07617584 -0.017133432 0.040742323 -0.00014631447
000120 c4 b1 91 bc 5f f7 c0 bc dc 6a c1 3d d4 58 8b bd
       -0.01778496 -0.023555456 0.0944421 -0.06804052
000130 a1 95 ba 3c 83 3c b1 bc 6a 25 f6 bc b8 30 8d 3d
       0.022776427 -0.0216353 -0.030047137 0.06894058
000140 e9 8a 3f bd c0 ea 55 bc 9c 6f 5b bd 79 ac 4f bd
       -0.046763334 -0.013056457 -0.053573236 -0.050701592
000150 a6 cc bb bd 43 fc 52 bc 9f 6f 85 3d fb eb 8c 3c
       -0.09169893 -0.012877527 0.06515431 0.017202368
000160 da c9 14 bc 95 79 e8 bc 68 bd de bd 5a c1 13 3d
       -0.009081328 -0.028378287 -0.1087597 0.036073066
000170 70 80 09 bd 80 6d 90 bc 12 cd 42 bc 2a db 87 39
       -0.033569753 -0.017630339 -0.011889713 0.00025912496
000180 dd ce bb bd 21 14 91 3d 0f c8 50 3d 85 0a 44 39
       -0.091703154 0.070839174 0.05097204 0.00018695935
000190 ad b1 b3 bc 96 27 bc 3c c5 ce 65 bd 9e a1 ca bc
       -0.021935308 0.022968095 -0.056105394 -0.024735268
0001a0 c6 82 4d bc 10 3f 4b 3d 13 2b a8 bd bf 11 a5 bc
       -0.012543386 0.049620688 -0.08211341 -0.020150064
0001b0 e6 64 22 bd 3d 5e 9c bc cb 57 dc bd 24 48 e4 bd
       -0.039647005 -0.019087905 -0.10758933 -0.11146572
0001c0 0d 90 2f 3c 79 a3 79 bc 80 3e 0d 3b e4 32 87 bd
       0.010715497 -0.015236729 0.0021552145 -0.066015035
0001d0 51 4c 48 bd 9d 86 14 ba ab 6f 2f bb 11 b5 e5 bb
       -0.048900906 -0.0005665811 -0.002676944 -0.00701011
0001e0 07 0e 17 bc 8a 20 3b bd 3a d6 8a bd 6d bc 80 bd
       -0.009219653 -0.04568533 -0.06779142 -0.06285939
0001f0 30 8d 3e 3d 07 3c 18 bd a7 be 55 3d 6e fe bc bd
       0.046521366 -0.03716662 0.052183773 -0.09228216

_network.4.running_mean f4 [128]
000000 06 61 cc 3e 6f 93 7c bf 3e 97 89 be 07 af 05 3f
       0.39917773 -0.98662466 -0.268732 0.52220196
000010 a1 da a8 be e3 93 41 be 31 81 01 bf 54 b3 e0 be
       -0.329793 -0.1890407 -0.50587755 -0.43886817
000020 ea c3 65 be 24 ad 89 bf 93 33 51 3f 7c d7 34 bf
       -0.22438017 -1.0755963 0.8171932 -0.70641303
000030 ed 60 5a bf 0e ab 7e 3d d5 38 ca bd 49 30 c0 3d
       -0.85304147 0.06217485 -0.09874121 0.0938421
000040 43 b9 d0 3e 21 35 8e 3e 4d 3e 99 bf 2d b4 1d bf
       0.40766343 0.2777491 -1.1972138 -0.6160305
000050 68 89 29 bf fe fc e2 be 8e ed 4e be 73 34 99 3e
       -0.6622529 -0.44333643 -0.20207807 0.29922828
000060 76 67 d3 be 25 62 4a 3f a6 aa a6 3d e1 e0 1b 3e
       -0.41289872 0.79056007 0.08138017 0.15222503
000070 6d 0d ae bf 93 52 da be d7 4e a0 be 6e 3d be be
       -1.3597847 -0.42641124 -0.3131015 -0.37156242
000080 bf 4e 81 be 53 dc e7 3e 28 82 33 3f 4e 3e a4 be
       -0.2525539 0.45285282 0.7012048 -0.32078785
000090 3b 65 8c be 1c 62 84 3f e7 44 d3 bd dc 7e 0e 3c
       -0.27420983 1.0342441 -0.103158765 0.008697238
0000a0 eb 83 c8 be 28 5c 75 3d d0 47 87 bf ca 95 a1 3d
       -0.39163145 0.05990234 -1.056879 0.07889898
0000b0 7d 14 c0 3e 9e a8 85 be 09 bd 88 3f 7c 81 82 bf
       0.3751563 -0.26105207 1.0682689 -1.0195765
0000c0 e3 83 03 bf f8 d2 0b be a8 3f 06 bf d2 f7 15 bf
       -0.5137312 -0.13654697 -0.5244088 -0.5858127
0000d0 13 0c c7 3e 69 8e d2 be 71 7c a4 bf dd b6 4d bf
       0.388764 -0.41124275 -1.2850477 -0.8035715
0000e0 72 db c9 be e8 5d ba be 4e 09 6a 3f 72 79 4c 3f
       -0.39425236 -0.3639977 0.9142045 0.7987281
0000f0 92 a3 2f bf 75 6c ba 3e 41 1c 74 be 30 a3 4b 3d
       -0.68608963 0.3641087 -0.23838903 0.049716175
000100 a4 4c 00 3f f5 0b a9 3f 7f d6 88 3e d5 c2 4c bf
       0.50116944 1.3206774 0.26726148 -0.7998479
000110 4c 06 66 3f 51 8d ad 3d ea 65 8d be cf b4 3e bf
       0.8985336 0.084742196 -0.27616817 -0.7449464
000120 a8 03 1c bf 81 97 64 be 6a d0 6a bf ad 51 48 bf
       -0.6094308 -0.22323419 -0.91724265 -0.7824963
000130 aa 95 c0 be e8 5d b6 be b0 d9 e0 ba d8 95 62 be
       -0.37614185 -0.3561852 -0.001715472 -0.22127473
000140 f9 0e 14 bf 30 f4 37 be f1 73 4c bf 9d a1 8c bc
       -0.57835346 -0.17964244 -0.7986441 -0.017166907
000150 ef ba 70 3f 86 34 dd 3c 84 2f d8 be d0 e7 ae bd
       0.9403524 0.027002584 -0.42223752 -0.085403085
000160 96 e3 c4 3e 3f 9e cb be 99 ae 17 3e 03 6d 36 be
       0.38454884 -0.3976917 0.14812697 -0.17815022
000170 a8 81 80 be c6 58 38 bd ae 90 26 3c 93 d7 2d 3e
       -0.2509892 -0.045006536 0.01016633 0.16976766
000180 19 54 20 3f 58 7a 7a bf 05 9f 2d bf 05 91 94 3e
       0.6262832 -0.9784293 -0.6782077 0.2901689
000190 2a 5f c7 bd cc 02 86 3d 94 4a 12 3f e2 b9 cf 3e
       -0.09734948 0.06543502 0.5714505 0.40571505
0001a0 f8 34 64 3e e6 33 98 be 4f 1b 29 3f a5 ad 64 bf
       0.22285831 -0.29727095 0.66057295 -0.8932746
0001b0 1e 59 fe bd fd 07 d7 be 9e ff 7b 3f 45 c8 0e bf
       -0.124193415 -0.41998282 0.98436916 -0.5577434
0001c0 6c f9 68 bf fc 5c db 3e 68 fd 7e bf 9c 26 79 3e
       -0.9100559 0.4284438 -0.9960542 0.24331135
0001d0 9b 05 2b bf fe b6 51 be 93 82 45 3b b2 41 a7 3e
       -0.6680543 -0.20479962 0.0030137643 0.3266731
0001e0 fe 03 01 be 28 f7 8c be bb 52 09 bd dc ab 44 3e
       -0.12599179 -0.27532315 -0.033526164 0.19206184
0001f0 57 01 dc be 28 02 2c bf 2e 83 34 bf f9 b3 a5 3f
       -0.42969772 -0.6719079 -0.70512664 1.2945548

_network.4.running_var f4 [128]
000000 8a 5c 36 3f 27 37 e2 3e a7 e8 65 3f 4a 34 5f 3f
       0.71234953 0.44182703 0.89808124 0.8718916
000010 6c 68 f7 3e 51 36 04 3f bc 52 88 3f e7 f9 49 3f
       0.48321855 0.5164538 1.0650249 0.78896946
000020 95 3b c5 3e 0c 05 1f 3f b3 59 50 3f 1c 30 28 3f
       0.3852202 0.62117076 0.8138687 0.6569841
000030 0b 12 79 3e 6b 7e 48 3f 97 31 0d 3f 70 ce 5d 3e
       0.24323289 0.783179 0.55153793 0.21660781
000040 8a 5a 19 3f 77 4f 6f 3e 2b c4 21 3f 3e f0 0a 3e
       0.59903777 0.23370157 0.63189954 0.13568208
000050 16 bb 82 3e cd 6d f1 3e bc e4 85 3e 7b 35 14 3e
       0.2553336 0.47154084 0.26151073 0.14473526
000060 83 d8 ef 3e 40 40 50 3e 27 62 ca 3e 03 bb 5a 3e
       0.46844873 0.2033701 0.3952801 0.21360402
000070 a5 46 2c 3f 9e 5a 55 3e 99 b5 34 3f cd d7 ab 3d
       0.67295295 0.20835349 0.70589596 0.0839077
000080 47 1d 71 3f 18 b5 57 3f a1 60 24 3f 19 7a 11 3f
       0.941853 0.842607 0.64209944 0.5682693
000090 36 ab 8c 3e 01 14 1f 3e a6 d7 49 3f ad fd 33 3f
       0.27474374 0.15534975 0.7884468 0.70308954
0000a0 a6 f9 80 3e df 08 dd 3e 7f 0a a8 3e 6a de 34 3e
       0.25190467 0.4317083 0.32820508 0.17662969
0000b0 c0 77 1f 3f d6 df 3b 3e 29 af 64 3e 28 54 6e 3f
       0.622921 0.18347105 0.22332443 0.9309716
0000c0 28 27 48 3f 53 8c 31 3e 2f dd 82 3e ed ab b1 3e
       0.7818475 0.17338686 0.25559375 0.3470148
0000d0 91 8d ab 3f 21 ea d5 3e b7 0c 90 3e b8 9e 20 3f
       1.3402578 0.4178019 0.281347 0.62742186
0000e0 da f2 bd 3e bf f9 9e 3e 37 56 8f 3e 8e b4 a2 3e
       0.37099344 0.31049916 0.27995464 0.31778377
0000f0 90 b0 b7 3f db 41 d1 3e fc 92 d0 3e ee 8a bb 3e
       1.4350758 0.40870556 0.4073714 0.36629432
000100 69 07 b2 3e 47 42 b8 3e e6 46 da 3e b7 a5 18 3e
       0.34771279 0.35988066 0.42632216 0.14906965
000110 30 32 33 3e 37 54 6b 3f d4 ed 59 3f da 41 93 3e
       0.17499614 0.91925377 0.8512852 0.28761178
000120 b4 e8 d7 3e 49 f8 be 3e 56 40 1a 3f fc 28 ba 3e
       0.42169726 0.37298802 0.6025442 0.36359394
000130 9e 7f 09 3e 78 0c ae 3e 97 43 d6 3e 9c b1 07 3e
       0.13427588 0.33993888 0.41848442 0.13251346
000140 16 48 72 3f 3d d8 9c 3e b4 c9 83 3f 22 67 6d 3e
       0.94641244 0.30633727 1.029593 0.23183873
000150 63 b3 7e 3e 67 89 d2 3e 99 b9 c4 3e 46 33 5a 3e
       0.24873118 0.41120455 0.3842285 0.21308622
000160 7d 90 37 3e 34 58 93 3e ac 17 15 3f d5 a7 05 3f
       0.17926212 0.2877823 0.58239245 0.52209216
000170 9c 98 42 3e 06 7f 3e 3e 66 c8 b4 3e f2 f6 a5 3e
       0.19003528 0.18603143 0.35309142 0.32414967
000180 63 3d 37 3f 9d cf 24 3e fd 67 f0 3e 66 89 b6 3e
       0.71578044 0.16094823 0.46954337 0.35651702
000190 b4 1c 79 3f fc 41 ea 3d 2f 41 61 3f 8a 5d 23 3f
       0.9730942 0.11438367 0.8799009 0.63814604
0001a0 63 2c bc 3e 32 e2 6f 3f 1c 84 87 3e 5e 1e 85 3e
       0.36752614 0.9370452 0.2646798 0.2599973
0001b0 d2 25 e2 3e c1 f0 8d 3e 58 55 08 3f 9d 96 5f 3f
       0.4416948 0.27722743 0.53255224 0.8733919
0001c0 4c f5 d4 3e 2f 50 60 3f dd b6 ef 3e 5d 3b 86 3f
       0.41593397 0.8762235 0.468192 1.0486866
0001d0 c5 37 fc 3d 6c 25 1d 3e c5 6a 84 3f f6 44 5a 3e
       0.12315325 0.15346307 1.0345083 0.21315369
0001e0 54 a0 87 3f 7b 3c e9 3d fb 04 af 3e 5a 6c d6 3e
       1.0595803 0.11388489 0.34183487 0.4187954
0001f0 d0 fb 03 3e 9c 27 41 3f e2 81 0b 3f 38 65 37 3e
       0.12889028 0.75451064 0.5449506 0.17909706
