transformers/results/pimentel_mlp/pimentel_mlp/configs/hyperopt/trial_13/pimentel_mlp_model_20251209_021117.pt (torch, 432266 bytes, 43 tensors)

_network.0.weight f4 [128, 5]
0	0x3ea90a61	0.3301573
1	0x3ebffe3e	0.3749866
2	0xbdd39051	-0.103302605
3	0x3ed56aad	0.4168295
4	0xbdc61be7	-0.09673291
5	0x3dbe9860	0.09306407
6	0xbe615bc2	-0.22007659
7	0x3e859df3	0.26097068
8	0x3ec7e2b4	0.39040148
9	0xbea98ba7	-0.3311436
10	0x3ec48dd3	0.38389453
11	0x3d816373	0.063177966
12	0x3ea7239b	0.32644352
13	0x3d822434	0.063545614
14	0x3e6e4d79	0.23271741
15	0xbd94ea6d	-0.07271276
16	0x3eac9fb1	0.33715585
17	0x3d8670cb	0.06564482
18	0xbe5b6bce	-0.21427843
19	0x3de7215d	0.112856604
20	0xbe6d99c0	-0.23203182
21	0xbd3ff2dd	-0.04686247
22	0xbe25dc05	-0.16197212
23	0x3e95a162	0.29224688
24	0xbeb07746	-0.34465998
25	0xbe60c1f3	-0.21948986
26	0xbdcd0b5e	-0.10011934
27	0xbe94056a	-0.2891038
28	0x3cfad5db	0.030619552
29	0xbed9cb63	-0.42537984
30	0x3ec2c7ef	0.38043162
31	0xbecee009	-0.404053
32	0x3ead38eb	0.33832487
33	0x3db810f6	0.0898761
34	0xbe25a961	-0.16177894
35	0x3e8c0ad4	0.2735201
36	0x3da6946b	0.08133777
37	0x3ebc91b3	0.3682991
38	0x3d494637	0.049139228
39	0xbe046b67	-0.12931596
40	0x3dfa0486	0.12207894
41	0xbdd3ac74	-0.10335627
42	0x3e4a1e0d	0.19738026
43	0x3ecf6ed7	0.40514252
44	0x3e826517	0.2546775
45	0xbe406ba4	-0.18791062
46	0x3e839655	0.25700632
47	0x3d918b57	0.07106655
48	0x3e72a0c4	0.2369414
49	0xbe8c6274	-0.27418864
50	0xbeed70a1	-0.46374992
51	0xbe2c85e8	-0.16847956
52	0xbea5cb0e	-0.3238148
53	0x3eb79220	0.35853672
54	0x3e01d741	0.12679769
55	0x3e4f8df9	0.20269002
56	0x3e1cf3a7	0.15327321
57	0xbbdaaf9a	-0.0066737654
58	0x3eb127f7	0.34600803
59	0xbe99c6a8	-0.30034375
60	0x3d06f253	0.032945942
61	0xbe9a98b2	-0.30194622
62	0x3e113828	0.14181578
63	0xbe1b4845	-0.15164287
64	0x3e100919	0.1406597
65	0xbd78baae	-0.060724907
66	0x3ec31728	0.38103604
67	0xbe87600e	-0.2644047
68	0xbe8ffcfc	-0.281227
69	0xbe81f99e	-0.25385755
70	0x3edf694e	0.4363503
71	0x3e0b50d4	0.13605052
72	0x3ed67562	0.4188643
73	0xbec0bbeb	-0.3764337
74	0xbee07095	-0.43835893
75	0xbeb215c1	-0.34782222
76	0xbe9b57cd	-0.30340424
77	0x3e3e53f9	0.1858672
78	0x3e27740c	0.16352862
79	0x3ebc7b72	0.3681293
80	0xbe70cabd	-0.23514839
81	0xbe9091b0	-0.2823615
82	0x3e70b428	0.23506224
83	0xbe435534	-0.19075471
84	0x3e914c14	0.28378356
85	0xbdcc38b4	-0.09971753
86	0x3e799b46	0.24375638
87	0xbeb8f9ee	-0.3612818
88	0xbe73a387	-0.2379285
89	0x3e0613e2	0.13093522
90	0x3dca2e16	0.098720714
91	0xbdd7f137	-0.10544055
92	0x3e878f5c	0.26476562
93	0x3e9cf60b	0.30656466
94	0xbea6ca8c	-0.32576406
95	0xbe6c90a8	-0.23102057
96	0x3ed03756	0.40667218
97	0xbe3e7667	-0.18599854
98	0xbe2725cc	-0.16323012
99	0xbedca336	-0.4309327
100	0xbe85e115	-0.26148286
101	0x3dd47588	0.1037398
102	0xbd4cf189	-0.050035033
103	0xbea43d05	-0.32077804
104	0x3b187331	0.0023262019
105	0xbea5caee	-0.32381386
106	0xbebc3baf	-0.36764285
107	0xbe62cd41	-0.2214861
108	0xbec8f3e5	-0.39248577
109	0xbe8efcf3	-0.2792736
110	0x3ee4bcf6	0.44675416
111	0x3d9468a0	0.07246518
112	0x3e11451e	0.14186522
113	0xbedaca85	-0.42732635
114	0xbe8e2cf1	-0.27768663
115	0xbe135296	-0.14386973
116	0x3d9dd5d2	0.077067986
117	0xbed535d4	-0.4164263
118	0xbe4f3d86	-0.20238313
119	0xbe812a46	-0.25227565
120	0x3c3df835	0.011594822
121	0xbe3035d5	-0.17208035
122	0xbd1f0b0a	-0.038828887
123	0xbe9a4ff1	-0.30139115
124	0xbe9ca209	-0.30592373
125	0xbe825c7f	-0.25461194
126	0xbe22c17a	-0.15894118
127	0xbeb455ac	-0.35221612
128	0x3ec4693b	0.38361534
129	0xbdb00398	-0.085944355
130	0x3ecbbde7	0.39793321
131	0x3e11d92f	0.14243005
132	0xbec6f529	-0.38858917
133	0x3e98b0b8	0.29822326
134	0xbdccbacd	-0.09996567
135	0xbe2178f9	-0.15768804
136	0xbebece3e	-0.37266725
137	0xbee888ef	-0.45416972
138	0x3e04d3a6	0.12971362
139	0xbdbbcceb	-0.091699444
140	0x3e3aea1d	0.1825337
141	0xbebaf162	-0.36512285
142	0x3ea95522	0.33072764
143	0xbea7189e	-0.3263597
144	0xbd9e919b	-0.07742616
145	0x3ddb0b30	0.10695493
146	0x3e6a526e	0.22883007
147	0x3eb4ce8f	0.35313842
148	0x3ed21f01	0.4103928
149	0xbeb739c0	-0.35786247
150	0x3dde4229	0.10852463
151	0xbe3e1e8e	-0.18566343
152	0xbcd0a280	-0.025468111
153	0xbea72822	-0.32647806
154	0x3edd7da7	0.43259928
155	0xbea982e7	-0.33107683
156	0x3e611210	0.21979547
157	0x3e13b06b	0.14422767
158	0x3e19f4b4	0.15034753
159	0xbe7d6ce5	-0.24748571
160	0x3edef0af	0.43543002
161	0x3d9c9f11	0.07647527
162	0x3d138c5d	0.036022533
163	0xbec46003	-0.383545
164	0x3e3a70a3	0.1820703
165	0xbd8db509	-0.06919295
166	0xbe4f6b40	-0.20255756
167	0x3ec55a34	0.38545382
168	0x3dcf6be7	0.101280026
169	0xbe7de534	-0.24794465
170	0xbe5d924f	-0.21637844
171	0xbcb8afa5	-0.022544691
172	0x3e786f7c	0.24261278
173	0xbdef067a	-0.11671157
174	0xbe87c35c	-0.26516235
175	0xbe09df82	-0.13464168
176	0xbeab5e03	-0.33470163
177	0x3e1cdf7d	0.15319629
178	0x3eb2c609	0.34916714
179	0xbedb89ad	-0.42878476
180	0x3dd91862	0.10600354
181	0x3e68b06e	0.22723553
182	0x3d8ded23	0.06929996
183	0xbe23d45b	-0.15998976
184	0x3e779532	0.24178007
185	0x3e784f32	0.2424896
186	0x3e2b0cd2	0.1670411
187	0xbd986149	-0.07440431
188	0xbdd3d049	-0.103424616
189	0x3d54e261	0.051973704
190	0xbd8561ea	-0.06512816
191	0xbe0bf561	-0.13667823
192	0x3e8e8f65	0.27843776
193	0x3ec91f80	0.39281845
194	0xbd50c7cf	-0.050971802
195	0xbdd1b9e1	-0.10240532
196	0xba1b75aa	-0.0005930314
197	0xbd15ef47	-0.036605146
198	0x3df45bc4	0.119315654
199	0x3de94561	0.11390186
200	0xbed2ad56	-0.4114787
201	0xbe1edab7	-0.1551312
202	0x3ebe0bf2	0.3711849
203	0x3e2f226a	0.17102972
204	0xbd12ad64	-0.03580989
205	0xbe8ce616	-0.27519292
206	0xbe8d4db4	-0.27598345
207	0xbec840e7	-0.39112017
208	0xbe140b40	-0.14457417
209	0x3e1d6c25	0.15373285
210	0x3e951b1e	0.2912225
211	0x3e50c5a3	0.20387892
212	0xbecf3063	-0.40466604
213	0xbe7cebbc	-0.246993
214	0xbdc9354f	-0.09824621
215	0x3ee23455	0.4418055
216	0x3d97c5af	0.07410752
217	0xbde4bb4f	-0.11168539
218	0x3e362c24	0.17790276
219	0xbe25aa1d	-0.16178174
220	0xbe9beb78	-0.30453086
221	0x3ea43a15	0.32075563
222	0xbe3a528d	-0.18195553
223	0xbdc29e17	-0.095028095
224	0xbee2a46c	-0.4426607
225	0x3e9b9a55	0.30391183
226	0x3eac4b23	0.33651075
227	0x3e26bc9e	0.16282889
228	0xbe9afd5f	-0.30271432
229	0xbee46704	-0.44609845
230	0xbebcd7e0	-0.3688345
231	0x3ea8b2ff	0.32949063
232	0x3e5791d3	0.21051721
233	0x3ec16356	0.377711
234	0x3e71ece7	0.23625527
235	0x3df9985c	0.12187263
236	0xbc6ef9f2	-0.014585959
237	0xbec369d1	-0.3816667
238	0xbec2f2cd	-0.38075867
239	0xbed1e0cf	-0.40991828
240	0x3e573c2e	0.2101905
241	0xbe549414	-0.20759612
242	0xbdb60a93	-0.088887356
243	0xbe80367a	-0.25041562
244	0xbdace8f4	-0.0844287
245	0xbea09db3	-0.31370315
246	0xbe9305b7	-0.28715298
247	0x3e1f898f	0.15579818
248	0xbe04f66a	-0.12984625
249	0x3e909bd3	0.28243884
250	0xbe027235	-0.12738879
251	0xbea6d68c	-0.3258556
252	0xbda8e6ae	-0.08247124
253	0xbe604e3c	-0.21904844
254	0xbe1a0ba1	-0.15043499
255	0xbed95a65	-0.42451778

_network.0.bias f4 [128]
0	0x3dbaac11	0.0911485
1	0xbed692a9	-0.41908768
2	0x3ec80c91	0.39072087
3	0x3e8fa71d	0.28057185
4	0xbee05780	-0.43816757
5	0xbe5ac398	-0.21363676
6	0x3e152aa9	0.14567055
7	0xbdbc5926	-0.09196691
8	0xbd466d59	-0.048444126
9	0xbe4ed8fe	-0.20199963
10	0x3eb7e48a	0.3591655
11	0xbe7ffa72	-0.24997881
12	0x3ebe1b77	0.3713033
13	0x3ced7c61	0.028989973
14	0x3db7bf65	0.089720525
15	0x3eb28b9d	0.3487214
16	0xbd972cd1	-0.07381595
17	0xbe825849	-0.2545798
18	0xbd94043a	-0.07227369
19	0x3eb9c7a4	0.36285126
20	0xbea9f5ac	-0.33195245
21	0x3dd0903b	0.1018376
22	0xbee13568	-0.43986058
23	0x3e703cbb	0.23460667
24	0x3e28dc47	0.16490279
25	0x3c9b59a9	0.018963652
26	0x3e443517	0.19160877
27	0x39fd8ca2	0.000483607
28	0x3e7d8a6a	0.24759832
29	0xbeb53cde	-0.35398
30	0xbd864cee	-0.06557642
31	0x3e4ab311	0.19794871
32	0x3ee40f64	0.44542992
33	0x3e69508c	0.22784632
34	0xbea67832	-0.32513577
35	0x3eb01fe4	0.3439933
36	0xbdcc40fd	-0.09973333
37	0xbdc397ec	-0.09550461
38	0xbed02433	-0.40652618
39	0xbd8e13df	-0.06937384
40	0x3ea1dba6	0.3161289
41	0x3d80778b	0.06272801
42	0xbe8551d7	-0.26039
43	0x3e0c973a	0.13729563
44	0xbe127541	-0.14302541
45	0x3ed1236f	0.40847346
46	0xbec6aa84	-0.38801968
47	0xbe10cae0	-0.1413989
48	0xbedd6173	-0.4323841
49	0xbe340e66	-0.17583618
50	0x3e103d82	0.14085963
51	0x3edc205d	0.4299344
52	0x3d99e2f4	0.07513991
53	0x3ee05c1d	0.43820277
54	0x3db303b4	0.08740941
55	0x3e844145	0.25831047
56	0x3eb762b4	0.35817492
57	0x3ebf7035	0.37390295
58	0xbe8034a2	-0.25040156
59	0x3ed29173	0.41126594
60	0x3e8ac393	0.27102336
61	0xbe56661a	-0.20937386
62	0xbe5a4775	-0.21316321
63	0xbebffe02	-0.3749848
64	0x3de6425e	0.11243127
65	0xbeb9a803	-0.36260995
66	0x3e417e5d	0.1889586
67	0x3e122617	0.14272343
68	0xbec6e20e	-0.3884434
69	0x3df96c5e	0.121788725
70	0xbd14a641	-0.036291365
71	0x3e512079	0.20422544
72	0x3e838c57	0.25693008
73	0xbee3b504	-0.4447404
74	0x3ed2211c	0.41040885
75	0x3ec003c2	0.37502867
76	0x3e363bcf	0.17796253
77	0xbed13cf3	-0.40866813
78	0xbe239b56	-0.15977225
79	0xbe04a930	-0.12955165
80	0xbdec5e0c	-0.115413755
81	0x3e814d15	0.2525412
82	0x3e267dcd	0.16258927
83	0x3eb57880	0.35443497
84	0xbe2b59eb	-0.1673352
85	0x3e1a1e1b	0.15050547
86	0x3e22e4aa	0.15907541
87	0xbebf281b	-0.37335286
88	0xbede3673	-0.43400916
89	0xbe6da745	-0.2320834
90	0x3e9caeeb	0.30602202
91	0xbed777d6	-0.42083615
92	0xbec74b6d	-0.38924733
93	0x3e802fb3	0.25036392
94	0x3e764e7d	0.24053378
95	0x3ebc6b53	0.36800632
96	0xbeacb0bc	-0.33728588
97	0xbea78ea3	-0.3272601
98	0x3e6b9a82	0.23008159
99	0x3ec76fa5	0.38952366
100	0x3e8923b0	0.2678504
101	0x3d8f6786	0.070021674
102	0x3e17579d	0.14779516
103	0x3ed8a977	0.4231679
104	0xbe93997e	-0.28828043
105	0xbe4fa930	-0.20279384
106	0x3ea05c03	0.313202
107	0xbe9cb8ce	-0.30609745
108	0xbe7c7185	-0.2465268
109	0x3ea74e1c	0.3267678
110	0x3e109a4f	0.14121364
111	0x3e145061	0.14483787
112	0xbe41f479	-0.18940915
113	0xbbd03feb	-0.006355276
114	0x3ed170b4	0.40906298
115	0xbe882b67	-0.26595613
116	0x3b609612	0.0034269136
117	0x3e5a0978	0.21292675
118	0xbe9dfbbb	-0.30856118
119	0x3ede58bc	0.43427074
120	0xbe64bbb7	-0.22337233
121	0xbddc0223	-0.10742595
122	0xbdf7accf	-0.120935075
123	0xbe952df8	-0.29136634
124	0xbee09751	-0.43865445
125	0x3e811298	0.25209498
126	0x3df32ddc	0.11873981
127	0xbed668da	-0.4187687

_network.1.weight f4 [128]
0	0x3f807faa	1.003896
1	0x3f7da990	0.99086857
2	0x3f818d75	1.0121294
3	0x3f7f7455	0.99786884
4	0x3f80aa1f	1.0051917
5	0x3f80318b	1.0015119
6	0x3f7e68cc	0.9937866
7	0x3f809d4c	1.0048003
8	0x3f8102ef	1.007902
9	0x3f7fbaf8	0.99894667
10	0x3f809549	1.0045558
11	0x3f7f24c0	0.9966545
12	0x3f7d844f	0.9903001
13	0x3f7ed18c	0.99538493
14	0x3f815150	1.010294
15	0x3f7c32b6	0.9851488
16	0x3f80c260	1.0059319
17	0x3f7dd1f3	0.9914848
18	0x3f7c64c9	0.98591286
19	0x3f7ff3f5	0.99981624
20	0x3f818789	1.0119487
21	0x3f800efc	1.0004573
22	0x3f8149a3	1.0100597
23	0x3f7dc366	0.9912628
24	0x3f804d63	1.0023617
25	0x3f7f1738	0.99644804
26	0x3f818a1b	1.0120271
27	0x3f7e0243	0.992222
28	0x3f814427	1.0098923
29	0x3f7e33fd	0.9929808
30	0x3f7ecdc0	0.995327
31	0x3f80cf04	1.0063176
32	0x3f80b883	1.0056309
33	0x3f7e1cbf	0.99262613
34	0x3f7d6842	0.9898721
35	0x3f7fc864	0.99915147
36	0x3f7f8ca5	0.9982398
37	0x3f815523	1.0104107
38	0x3f7c6370	0.9858923
39	0x3f7fafd9	0.998777
40	0x3f8037e4	1.0017056
41	0x3f7b9041	0.9826699
42	0x3f807e01	1.0038453
43	0x3f80df0d	1.006807
44	0x3f7f9546	0.9983715
45	0x3f800b2c	1.0003409
46	0x3f7e0ffd	0.99243146
47	0x3f800255	1.0000712
48	0x3f80caaa	1.0061848
49	0x3f7b524d	0.98172456
50	0x3f7dd77b	0.9915692
51	0x3f80f496	1.0074642
52	0x3f809ddb	1.0048174
53	0x3f7e9370	0.9944372
54	0x3f7fb587	0.99886364
55	0x3f805c5d	1.0028187
56	0x3f7ed1fb	0.99539155
57	0x3f7d4ce1	0.9894543
58	0x3f809946	1.0046775
59	0x3f7e63f7	0.99371284
60	0x3f7eeaa5	0.9957679
61	0x3f825dfa	1.0184929
62	0x3f834ed0	1.0258427
63	0x3f8021f3	1.001036
64	0x3f80ca6a	1.0061772
65	0x3f7eaf01	0.99485785
66	0x3f800a05	1.0003058
67	0x3f823146	1.0171287
68	0x3f7f9e51	0.99850947
69	0x3f802058	1.000987
70	0x3f801ffc	1.0009761
71	0x3f7e64cf	0.9937257
72	0x3f805bad	1.0027977
73	0x3f7fe77b	0.99962586
74	0x3f81d0f5	1.0141894
75	0x3f7f0ef5	0.996322
76	0x3f8004e9	1.0001498
77	0x3f7ed165	0.9953826
78	0x3f805224	1.0025067
79	0x3f804c11	1.0023214
80	0x3f7c1913	0.9847576
81	0x3f81754e	1.0113924
82	0x3f7c62b0	0.98588085
83	0x3f7f49d1	0.9972201
84	0x3f7d9ace	0.9906434
85	0x3f819a0b	1.0125135
86	0x3f7fc633	0.99911803
87	0x3f81dd05	1.0145575
88	0x3f7ea1be	0.9946555
89	0x3f7d0607	0.9883732
90	0x3f7de5df	0.9917888
91	0x3f7e9ce4	0.99458146
92	0x3f7e7012	0.99389756
93	0x3f7de015	0.9917005
94	0x3f7e29bc	0.9928243
95	0x3f819515	1.0123621
96	0x3f7ef423	0.99591273
97	0x3f7e06dd	0.9922922
98	0x3f813acc	1.0096068
99	0x3f7f9fe1	0.9985333
100	0x3f7e9fdd	0.9946268
101	0x3f810cca	1.0082028
102	0x3f7bfe53	0.9843494
103	0x3f7f7c69	0.9979921
104	0x3f7f539f	0.9973697
105	0x3f7fc70c	0.99913096
106	0x3f81e4f6	1.0147998
107	0x3f7e31d7	0.992948
108	0x3f7e1fdd	0.9926737
109	0x3f7f3d21	0.9970265
110	0x3f7c8729	0.9864374
111	0x3f7fdfaa	0.9995066
112	0x3f7ee9eb	0.9957568
113	0x3f7cffdd	0.98827916
114	0x3f7df002	0.9919435
115	0x3f801674	1.0006852
116	0x3f7e7e0b	0.99411076
117	0x3f7feff3	0.9997551
118	0x3f81dd28	1.0145617
119	0x3f800e16	1.0004299
120	0x3f7f3ac8	0.9969907
121	0x3f7f1780	0.99645233
122	0x3f825fa4	1.0185437
123	0x3f7fcc4d	0.99921113
124	0x3f7f720d	0.997834
125	0x3f813cd7	1.0096692
126	0x3f7dc922	0.9913503
127	0x3f7e7d56	0.9941

_network.1.bias f4 [128]
0	0xbc075723	-0.008260521
1	0xbc335969	-0.01094661
2	0x3cf5e62e	0.030016985
3	0x3bfdae09	0.007741694
4	0xbb394a79	-0.002827315
5	0x3b8442b6	0.004036273
6	0xba0b1083	-0.00053048896
7	0x3ce7f086	0.028312933
8	0x3c121e3d	0.008918342
9	0xbbb88142	-0.005630643
10	0x3bc11f53	0.0058936267
11	0x3c12d603	0.008962157
12	0x3befeda2	0.007322029
13	0xbb5108e1	-0.0031896161
14	0x3c9daffd	0.019248957
15	0xbbf6f5ce	-0.0075366264
16	0xbb196f19	-0.0023412167
17	0xbbb6041b	-0.0055546886
18	0xbc7d5143	-0.015461269
19	0xbb4a6213	-0.003088121
20	0x3a8f869c	0.0010950151
21	0xbbe73ca7	-0.007056791
22	0x3cad10d7	0.021126194
23	0xbc83b6d2	-0.016078386
24	0xbb0521de	-0.0020314376
25	0x39c1a5a0	0.0003693523
26	0x3c615188	0.013752349
27	0xbcc6b484	-0.024255998
28	0x3c610474	0.013733972
29	0xbc3ef77d	-0.0116556855
30	0x3c77a074	0.015113939
31	0xbc07ae70	-0.008281335
32	0x3bf929d8	0.007603865
33	0xbc2a67cd	-0.010400725
34	0xbc3cb697	-0.011518142
35	0xbbc5fd08	-0.0060421266
36	0x3c08e1f1	0.00835465
37	0x3ca9c40f	0.02072337
38	0xbcc2660c	-0.0237303
39	0xbc96c30f	-0.018403558
40	0xbc8c53fc	-0.01712989
41	0x3c1a1b42	0.009405913
42	0x3c39f870	0.011350736
43	0x3c9569d9	0.018238949
44	0x3c3085b4	0.010774065
45	0xbb4e074b	-0.0031437452
46	0x3b8e789f	0.0043478752
47	0x3c5f991b	0.013647343
48	0x3b8e81e0	0.0043489784
49	0x3bf23726	0.007391828
50	0xbc9d229a	-0.019181538
51	0xbc929a21	-0.01789576
52	0xbbd05db9	-0.006358829
53	0xbb16eb56	-0.0023028455
54	0xbb5a5fac	-0.0033321185
55	0x3c615ce1	0.013755054
56	0xbc6165f2	-0.013757216
57	0x3b75988a	0.0037474954
58	0x3b059031	0.0020380134
59	0xbb0cc3fe	-0.0021479125
60	0x3c28253c	0.010262784
61	0x3cc56360	0.024095237
62	0x3d1639c9	0.036676202
63	0xbab53e19	-0.0013827711
64	0xbc021a01	-0.00794077
65	0xbbbf856f	-0.005844764
66	0x3c3847e7	0.011247612
67	0xbd025114	-0.031815603
68	0x3c8f431b	0.017488053
69	0xbc656b4e	-0.014002634
70	0x3b742059	0.0037250726
71	0x3c4ed56c	0.012624126
72	0x3b8495bb	0.0040461696
73	0xbc45aef0	-0.012065634
74	0x3ca1d082	0.019752745
75	0xbba7ec84	-0.0051246304
76	0xbc7b120c	-0.015324127
77	0x3ca482ff	0.020081995
78	0xbc8ac783	-0.016940838
79	0xbc06ab38	-0.008219533
80	0x3b5bdb64	0.0033547515
81	0x3c817737	0.015803916
82	0xbcb4c032	-0.022064302
83	0xbc379f3f	-0.011207401
84	0xbc0d9651	-0.008641795
85	0xbba10c64	-0.004914807
86	0xbbe4985c	-0.0069761705
87	0x3c94f616	0.01818375
88	0x3a84618a	0.001009987
89	0xbbaa0c3d	-0.005189447
90	0xba80a7e1	-0.0009815657
91	0x3b33ebf4	0.0027453871
92	0xbbc9f88d	-0.0061636628
93	0xbb4aff6e	-0.0030975002
94	0x3c1352e9	0.008991935
95	0x3cc24522	0.023714606
96	0xbc309835	-0.0107784765
97	0x3b04e1cd	0.002027619
98	0x3b820401	0.0039677625
99	0xbb524f0a	-0.0032090568
100	0xbb4de47b	-0.0031416703
101	0x3ca74624	0.020419188
102	0xbc1bf7d6	-0.009519538
103	0xbcc0f749	-0.023555415
104	0x3bb762ab	0.005596479
105	0xbd32b61c	-0.043630704
106	0x3b74d6cc	0.0037359474
107	0x3c016307	0.007897145
108	0xbc89f4e0	-0.016840398
109	0x3b8228fd	0.0039721713
110	0xbb670ce0	-0.0035255477
111	0x3a635392	0.0008671816
112	0x3bb5386f	0.005530409
113	0xbc4bc7b5	-0.012437751
114	0x3a6cbca7	0.0009030797
115	0xbbdced3c	-0.0067421477
116	0xbbc408aa	-0.005982478
117	0x3bab5b9b	0.005229426
118	0x3c279403	0.01022816
119	0xba819fe4	-0.000988957
120	0xbcddc596	-0.027071755
121	0xbc89482d	-0.016758049
122	0x3c6b6465	0.014367198
123	0x3b8e385d	0.004340215
124	0xbaac75a1	-0.0013157615
125	0xbc6b79f2	-0.014372336
126	0xbb2a1134	-0.0025950195
127	0xbb9082d1	-0.004410126

_network.1.running_mean f4 [128]
0	0x3f00a104	0.5024569
1	0xbef4cd00	-0.47812653
2	0x3f4bb1e3	0.7956831
3	0x3ebccec5	0.36876503
4	0xbf2979eb	-0.6620166
5	0xbf2557a8	-0.6458688
6	0x3ddee9d3	0.10884442
7	0x3cf9c788	0.030490652
8	0x3eb00b64	0.3438369
9	0xbe739c45	-0.23790081
10	0x3ea38e2a	0.319444
11	0xbe1087b2	-0.14114264
12	0x3e993910	0.29926348
13	0xbe3090df	-0.17242764
14	0xbdd01b13	-0.10161414
15	0x3ed9b764	0.42522728
16	0xbe2580c1	-0.16162397
17	0xbe8572ed	-0.26064244
18	0xbdf2435c	-0.11829254
19	0x3d432e8c	0.047651812
20	0xbf0dcb86	-0.5538868
21	0xbf141fb8	-0.578609
22	0xbf197450	-0.59943104
23	0xbdd2b36a	-0.10288127
24	0xbe8139e7	-0.25239488
25	0xbd82dae3	-0.063894056
26	0x3ee4d3ae	0.4469275
27	0xbe87b6f6	-0.26506776
28	0x3b3c4531	0.0028727765
29	0xbe64362f	-0.22286294
30	0x3d0e8280	0.034792423
31	0x3d946f24	0.07247761
32	0x3f198005	0.5996097
33	0x3d25cdcf	0.040479477
34	0xbf2155fb	-0.6302182
35	0x3d434849	0.04767636
36	0x3e04bcca	0.12962642
37	0x3d4ddd9e	0.05026018
38	0xbe9d1002	-0.30676275
39	0x3c8ac9a4	0.016941853
40	0x3e38b19e	0.18036506
41	0xbe2f8553	-0.17140703
42	0xbe913f0d	-0.28368416
43	0x3ea0e0dd	0.31421557
44	0xbeff34d0	-0.4984498
45	0x3e7c7b94	0.24656516
46	0xbd3baf0d	-0.04582124
47	0xbf17d4b7	-0.5930895
48	0xbf1d7cfa	-0.61518824
49	0xbe8e9588	-0.27848458
50	0xbe8420cb	-0.2580627
51	0x3f13507b	0.5754468
52	0x3de71cf0	0.11284816
53	0x3e992bf9	0.2991636
54	0x3eea917b	0.45814118
55	0xbdcae64a	-0.099072054
56	0xbcab99ba	-0.020947326
57	0x3e9f0dfa	0.3106535
58	0xbef0fbdb	-0.4706715
59	0x3cca4586	0.024691354
60	0xbe005ae8	-0.12534678
61	0xbe27e879	-0.16397275
62	0x3ebb057d	0.36527625
63	0xbe0da64a	-0.13832965
64	0xbde299dd	-0.11064503
65	0xbf6c1029	-0.9221216
66	0x3e90c871	0.28277925
67	0xbdf2b994	-0.118518025
68	0xbf674e95	-0.9035428
69	0x3dcdab47	0.10042434
70	0xbc774dce	-0.015094234
71	0x3efca93b	0.49347863
72	0x3e3a406a	0.18188635
73	0xbf1cb996	-0.6122068
74	0x3ed2222a	0.4104169
75	0x3e86e156	0.26343793
76	0x3ec4e5bd	0.38456526
77	0xbeba808f	-0.36426207
78	0xbd13b605	-0.03606226
79	0xbee6b9a0	-0.45063496
80	0xbdd9e2c4	-0.10638955
81	0xbdff70e5	-0.12472705
82	0x3ec123a9	0.3772252
83	0xbdfeb7c1	-0.12437392
84	0x3dc90a77	0.09816449
85	0x3def76af	0.11692559
86	0x3dade99e	0.084918246
87	0xbea324ae	-0.31863922
88	0x3dd2cd2c	0.1029304
89	0xbef5e0e6	-0.48023146
90	0x3e3ef9fb	0.18650047
91	0xbf09a90d	-0.53773576
92	0xbec0c168	-0.37647557
93	0x3edfa861	0.4368315
94	0x3eb975af	0.36222598
95	0x3eaccb29	0.3374875
96	0xbee928f7	-0.45539066
97	0x3df1e4d7	0.11811226
98	0x3eb1ea59	0.34749106
99	0x3eaa399e	0.33247083
100	0x3f09aa31	0.53775316
101	0xbdaa724a	-0.0832258
102	0xbeaa3d03	-0.33249673
103	0x3f036832	0.51330864
104	0x3e1f6e4e	0.15569422
105	0xbe327e00	-0.17430878
106	0x3f2e5854	0.6810353
107	0xbec73ce5	-0.38913646
108	0xbd81dedc	-0.06341335
109	0x3f105654	0.56381726
110	0x3e5479fb	0.20749657
111	0x3f005182	0.5012437
112	0xbe9f7529	-0.31144074
113	0xbf4726e2	-0.77793705
114	0x3ed51b36	0.41622323
115	0xbf191bc8	-0.59808016
116	0x3e4f8d3a	0.20268717
117	0x3e750cbb	0.23930638
118	0xbe717dd6	-0.23583159
119	0x3ed4382a	0.414491
120	0xbedc8b97	-0.4307525
121	0x3d55c13f	0.052186247
122	0x3e355b6c	0.17710656
123	0xbda2cf6b	-0.07949718
124	0xbf29119b	-0.6604249
125	0x3cbf32ce	0.023339655
126	0x3bbcac81	0.0057578688
127	0xbf70cbaa	-0.94060767

_network.1.running_var f4 [128]
0	0x3c497ef7	0.012298337
1	0x3d3be0eb	0.045868795
2	0x3c0b0b6b	0.008486609
3	0x3c992d68	0.01869841
4	0x3cda92e4	0.026681371
5	0x3ca3800f	0.019958524
6	0x3cb05f2a	0.021529753
7	0x3ba899b2	0.005145275
8	0x3c2a779d	0.010404495
9	0x3c3c853f	0.011506378
10	0x3c502046	0.012703007
11	0x3c9f17ed	0.019420588
12	0x3b84dfac	0.004054984
13	0x3c64d15f	0.013965934
14	0x3c1da9d1	0.009623007
15	0x3c1289e6	0.00894401
16	0x3c18dd91	0.009330169
17	0x3caabb2c	0.020841204
18	0x3cfbe786	0.030750047
19	0x3c323316	0.010876438
20	0x3c2d99aa	0.010595718
21	0x3c7c2f76	0.015392175
22	0x3c1f310e	0.009716285
23	0x3c07643d	0.008263645
24	0x3bc7a687	0.0060928497
25	0x3cadd8e7	0.021221591
26	0x3c118d16	0.008883735
27	0x3c9ca07f	0.0191195
28	0x3bdcee5a	0.006742281
29	0x3d01ca7a	0.031687237
30	0x3cde3dfd	0.027129168
31	0x3c0d1a44	0.008612219
32	0x3cd2a736	0.025714498
33	0x3c8ec040	0.017425656
34	0x3b815de8	0.003947962
35	0x3d74182f	0.059593376
36	0x3c94eba0	0.018178761
37	0x3bbdecee	0.0057960665
38	0x3cb3c2f8	0.021943554
39	0x3a2a10f7	0.00064875133
40	0x3c4e813a	0.012604052
41	0x3c169c8b	0.009192596
42	0x3c5e77a9	0.013578334
43	0x3be1ec84	0.00689465
44	0x3c25a996	0.010111233
45	0x3c26acdc	0.010173049
46	0x3c50f3c7	0.012753434
47	0x3c62229f	0.0138022
48	0x3b8e49bd	0.0043422864
49	0x3bfe56dc	0.0077618193
50	0x3be577a2	0.0070027867
51	0x3bfb7a63	0.0076745017
52	0x3c0257f8	0.007955544
53	0x3c0e3e6f	0.0086818775
54	0x3c94c3c1	0.018159749
55	0x3d571c3b	0.052517157
56	0x3bb29e0f	0.005450971
57	0x3d25240c	0.04031758
58	0x3cd12c03	0.025533682
59	0x3bd2cf13	0.0064333766
60	0x3c00aa57	0.007853112
61	0x3b647560	0.003486
62	0x3c6beb75	0.014399399
63	0x3c463d6f	0.012099608
64	0x3cb6e5c7	0.022326363
65	0x3c7a4ad5	0.01527663
66	0x3cf420c7	0.029800786
67	0x3b4e4920	0.0031476691
68	0x3c242f51	0.010021047
69	0x3d079f3c	0.033110842
70	0x3cca4818	0.02469258
71	0x3d35bf41	0.044371847
72	0x3bcc27cf	0.0062303315
73	0x3caf9ebb	0.021437993
74	0x3c09cbd5	0.008410414
75	0x3d165478	0.03670165
76	0x3cbae93f	0.022816299
77	0x3cb86f99	0.022514151
78	0x3c0854c3	0.00832099
79	0x3cac1e57	0.02101056
80	0x3b615ff8	0.0034389477
81	0x3c32395d	0.010877934
82	0x3c188493	0.009308952
83	0x3baa40c0	0.005195707
84	0x3b9a9c4d	0.0047183395
85	0x3c067554	0.008206684
86	0x3cb706b8	0.022342071
87	0x3b086b13	0.0020815774
88	0x3c6a7236	0.014309457
89	0x3d5e9252	0.05433876
90	0x3c3b6674	0.011438001
91	0x3c55696f	0.013025626
92	0x3c9183c1	0.01776302
93	0x3c75fc66	0.01501379
94	0x3bead554	0.007166544
95	0x3bbecb32	0.0058225626
96	0x3c2475a6	0.010037815
97	0x3c3767d0	0.011194184
98	0x3ab26684	0.0013610874
99	0x3b885f54	0.0041617546
100	0x3c06d37b	0.008229132
101	0x3be2b426	0.006918448
102	0x3c2ee8a7	0.010675586
103	0x3c23356d	0.009961468
104	0x3c16c2f5	0.009201755
105	0x3b7c89e7	0.0038534345
106	0x3c1f4315	0.009720583
107	0x3c90addf	0.017661033
108	0x3c159b68	0.00913129
109	0x3c9111de	0.017708715
110	0x3b749e18	0.0037325677
111	0x3c6ac79b	0.014329816
112	0x3c85fb98	0.01635532
113	0x3caee923	0.021351403
114	0x3c34127d	0.010990736
115	0x3b457a92	0.0030132872
116	0x3cc5dc56	0.024152916
117	0x3b325586	0.002721162
118	0x3c0355fa	0.008016104
119	0x3c114bc7	0.008868164
120	0x3c328614	0.0108962245
121	0x3c2b58f8	0.0104582235
122	0x3c2c0fcf	0.010501816
123	0x3ccfacb0	0.025350899
124	0x3c0b994b	0.008520435
125	0x3c93474a	0.01797833
126	0x3cd85c7d	0.02641129
127	0x3c593e48	0.013259478

_network.3.weight f4 [128, 128]
0	0xbd64314f	-0.055711087
1	0x3da718fe	0.08159064
2	0x3d4ba957	0.049722042
3	0x3cfd9e9a	0.030959416
4	0xbd58b39c	-0.052905664
5	0xbd12f118	-0.035874456
6	0xbc3e3288	-0.011608727
7	0xbc059d7f	-0.008155226
8	0xbd81f6a3	-0.0634587
9	0x3bcecf00	0.0063112974
10	0x3c664af9	0.014055961
11	0xbcb4caea	-0.022069413
12	0x3b6ebe86	0.0036429479
13	0xbd2038e0	-0.03911674
14	0x3d0fe8ef	0.035134252
15	0x3cfbfa2f	0.030758945
16	0xbd5721c3	-0.052522432
17	0xbdafe6d1	-0.085889466
18	0x3d23fe9d	0.04003774
19	0x3cc938cb	0.024563214
20	0xbd3933ae	-0.0452153
21	0x3db76e83	0.08956625
22	0xbcc2bad7	-0.023770733
23	0x3d59853c	0.053105578
24	0x3d3758c2	0.04476238
25	0xbd9683fb	-0.07349392
26	0x3d86abfc	0.06575772
27	0xbdaa91d7	-0.08328598
28	0xbd539da7	-0.05166402
29	0xbcb489a8	-0.022038296
30	0xbd780301	-0.06054974
31	0x3db1695c	0.08662674
32	0xba99c661	-0.0011732095
33	0x3d060181	0.032716278
34	0xbd93ab77	-0.07210439
35	0x3d4751e7	0.048662093
36	0xbcdfa92c	-0.027302347
37	0xbd4ea941	-0.05045438
38	0x3ba60531	0.005066537
39	0x3d42a772	0.04752297
40	0x3d99b6af	0.07505547
41	0xbd4d7cb5	-0.050167758
42	0xbd3cee90	-0.04612595
43	0x3d14450c	0.03619866
44	0x3d00c855	0.03144105
45	0x3d07c476	0.033146344
46	0x3d67f10c	0.056626365
47	0xbcd4823b	-0.025941005
48	0x3d53907e	0.05165147
49	0x3d87aff9	0.06625361
50	0xbca9182f	-0.020641414
51	0x3d8a84b8	0.06763595
52	0x3d6ad7fc	0.057334885
53	0x3da70ce6	0.08156757
54	0xbd42fea5	-0.04760613
55	0xbd3a204d	-0.04544096
56	0xbcd46e87	-0.02593161
57	0x3a04f003	0.0005071165
58	0x3d452620	0.048132062
59	0xbd217bcd	-0.039424706
60	0x3d25958f	0.040425833
61	0xbb48b17d	-0.003062337
62	0x3dbb5749	0.09147508
63	0xbc009c8b	-0.007849823
64	0xbda36aaa	-0.07979329
65	0xbd40b3ea	-0.04704658
66	0xbd846197	-0.06463926
67	0x3d360744	0.044440523
68	0xbd764f04	-0.06013395
69	0xbbd78015	-0.006576548
70	0x3c686012	0.014183061
71	0xbd404da6	-0.04694905
72	0x3cd36623	0.025805539
73	0xbdb9336d	-0.09043012
74	0xbd3a2379	-0.045443986
75	0xbdab4ab3	-0.08363857
76	0xbd0b309b	-0.0339819
77	0xbd0a2fc6	-0.033736967
78	0x3be5badd	0.007010801
79	0xbc5aaa8d	-0.013346327
80	0x3d10c678	0.035345525
81	0x3dbe6abb	0.09297701
82	0x3ced124b	0.028939387
83	0xbcc88eee	-0.024482217
84	0xbda9a143	-0.08282711
85	0x3cc6826d	0.024232114
86	0xbd642908	-0.055703193
87	0x3da0b723	0.078474306
88	0x3d8305cc	0.0639759
89	0x3d022c6f	0.031780656
90	0x3d86e4c6	0.06586604
91	0x3da1435d	0.07874177
92	0x3c2ca308	0.010536917
93	0xbd80b248	-0.062840044
94	0x3db625af	0.08893906
95	0xbd0c5c9e	-0.034268014
96	0xbd4efde9	-0.050535116
97	0x3da286c1	0.079358585
98	0x3da243d9	0.07923097
99	0x3cd70707	0.026248468
100	0x3a3ae427	0.0007129334
101	0xbd8e5647	-0.0695005
102	0xbc4404b3	-0.011964011
103	0x3db8e4ef	0.090280406
104	0x3cd3732f	0.02581176
105	0x3bac6c7b	0.0052619553
106	0xbcba5593	-0.022745883
107	0xbd0fd446	-0.03511455
108	0x3d40dc64	0.04708518
109	0xbb6d7afa	-0.003623663
110	0x3d651627	0.05592933
111	0xbca03f7f	-0.019561527
112	0x3d1ba640	0.038000345
113	0x3d168513	0.036748003
114	0x3c8c0176	0.01709054
115	0x3d7b88a2	0.0614096
116	0x3d41f5be	0.0473535
117	0x3daff12f	0.08590924
118	0x3d941dda	0.07232256
119	0xbc7542b1	-0.014969514
120	0xbd97d4b5	-0.074136175
121	0x3ca27ac8	0.019833937
122	0x3bd4d50a	0.006495123
123	0xbca0ab29	-0.019612866
124	0xbc56d3a1	-0.01311198
125	0xbbc1d01b	-0.0059147007
126	0x3d833523	0.064066194
127	0x3ceefa1e	0.029172
128	0xbd06027d	-0.032717217
129	0xbd0d12f3	-0.0344419
130	0xbcedf021	-0.029045166
131	0xbd05e456	-0.03268846
132	0x3da92900	0.08259773
133	0x3d43ff04	0.047850624
134	0x3da8dc0e	0.08245097
135	0x3b5a514c	0.0033312617
136	0x3c87b85b	0.0165674
137	0x3cefd318	0.029275462
138	0xbdcead29	-0.100916214
139	0x3c234299	0.009964609
140	0xbc2a8fc7	-0.010410256
141	0xbd716f49	-0.05894402
142	0xbd8f1145	-0.06985716
143	0x3d7b7ba8	0.061397225
144	0x3d8444fd	0.06458471
145	0x3d2e02c4	0.042483106
146	0x3db0c51a	0.08631344
147	0xbd28c925	-0.04120745
148	0xbca4cb24	-0.020116396
149	0x3cd24284	0.025666483
150	0xbcef0c20	-0.029180586
151	0xbc9dba50	-0.01925388
152	0xbd8d40cc	-0.06897125
153	0x3cc6c638	0.02426444
154	0xbd66c11d	-0.05633651
155	0x3bb60f70	0.0055560395
156	0x3dae8fa4	0.08523491
157	0xbccbd0ec	-0.024879895
158	0xbce7c6f3	-0.028293109
159	0x3d4491de	0.047990672
160	0xbd095213	-0.033525538
161	0xbbfd044c	-0.0077214595
162	0x3da1907d	0.07888887
163	0xbd0d3990	-0.034478724
164	0xbd7232b5	-0.05913039
165	0xbd5f4ead	-0.05451839
166	0xbcc05535	-0.02347813
167	0xbd6bc81f	-0.057563897
168	0xbd66b829	-0.056327973
169	0x3d007f76	0.031371556
170	0x3c4cfd5a	0.012511576
171	0xbd071b59	-0.032985065
172	0xbd91d076	-0.07119839
173	0xbd252957	-0.040322628
174	0xbd42b668	-0.047537237
175	0xbd01a480	-0.03165102
176	0xbda22117	-0.07916468
177	0x3c078dc2	0.008273544
178	0xbd912f44	-0.07089093
179	0xbdade0dc	-0.08490154
180	0xbd9945ee	-0.07484041
181	0x3d1a4550	0.037663758
182	0xbd6effc5	-0.05834939
183	0xbd0cd847	-0.034385946
184	0x3d86a8d0	0.06575167
185	0x3d3c0377	0.04590174
186	0x3d57cc79	0.052685235
187	0xbdbe7e53	-0.09301438
188	0xbd7987a2	-0.060920365
189	0xbd3e1830	-0.046409786
190	0x3d9359b3	0.07194843
191	0x3beec024	0.0072860885
192	0xbd8b9b08	-0.06816679
193	0xbb7835aa	-0.0037873783
194	0xbd860f80	-0.06545925
195	0xbd192231	-0.037386123
196	0xbcb6b763	-0.022304242
197	0x3d9cd3a2	0.07657553
198	0x3cf264d7	0.0295891
199	0xbc5142c2	-0.012772264
200	0x3c41ae92	0.011821406
201	0xbca84de7	-0.02054496
202	0x3cd4781c	0.025936179
203	0x3d108617	0.035284128
204	0x3cdf40e3	0.02725262
205	0xbcf85ef4	-0.030318715
206	0x3d8934d8	0.06699532
207	0xbc660c8e	-0.014041079
208	0xbd2471c6	-0.040147565
209	0x3d34bfc4	0.044128194
210	0x3d6796c1	0.056540255
211	0x3da57763	0.08079412
212	0x3d0caa68	0.0343422
213	0xbcc6d72b	-0.024272522
214	0x3d49628e	0.049166255
215	0x3d8630c7	0.06552272
216	0xbdb4bf3f	-0.0882554
217	0xbc2d0bb2	-0.01056187
218	0xbd5c803e	-0.05383324
219	0x3c95b23c	0.018273465
220	0x3d22c215	0.039735872
221	0xbcf9defb	-0.030501833
222	0xbc09e885	-0.008417253
223	0x3d2fd431	0.04292697
224	0xbc540060	-0.0129395425
225	0xbda51ccd	-0.08062134
226	0x3d8b6097	0.068055324
227	0xbd2dc4bc	-0.04242395
228	0xbcca5a4c	-0.02470126
229	0x3c47658f	0.01217021
230	0xbb9fd1f4	-0.0048773233
231	0xbdbedba9	-0.093192406
232	0x3d25010a	0.040284194
233	0xbd74ea3f	-0.059793707
234	0xbd2e8b61	-0.04261339
235	0x3c9d91e8	0.019234613
236	0xbd4732c0	-0.048632383
237	0xbd1be58e	-0.038060717
238	0xbcfec38b	-0.031099102
239	0xbd215d8c	-0.039395854
240	0xbd48a299	-0.04898319
241	0xbce348f7	-0.027744753
242	0x3c20a3ff	0.009804725
243	0xbda16a68	-0.078816235
244	0xbd44cc27	-0.048046257
245	0x3c0d0a7c	0.008608457
246	0xba71a8ef	-0.00092185935
247	0x3d1a4410	0.037662566
248	0xbd848283	-0.06470206
249	0x3c2a36fd	0.010389087
250	0x3d61c554	0.055119827
251	0x3d521828	0.05129257
252	0xbda343e9	-0.07971937
253	0xbd176b01	-0.03696728
254	0xbd9fb0cd	-0.07797394
255	0xbd745d68	-0.05965939

_network.3.bias f4 [128]
0	0xbbb7dcce	-0.0056110388
1	0xbd6cbc4a	-0.057796754
2	0xbd3a900d	-0.045547534
3	0x3d5068ea	0.050881304
4	0xbd5e06b3	-0.054205608
5	0xbd31da06	-0.043420814
6	0x3d38ff6a	0.045165457
7	0xbd37f6f8	-0.044913262
8	0xbd8c0c72	-0.06838311
9	0x3ca091b3	0.019600725
10	0x3d1c67fb	0.0381851
11	0xbda41ab2	-0.08012904
12	0x3c39c44a	0.011338303
13	0xbd8b9534	-0.068155676
14	0x3d18bed3	0.03729136
15	0x3d460a6f	0.048349794
16	0x3cf2ba6d	0.02962991
17	0x3db0c3d1	0.08631099
18	0xbc8c68d1	-0.017139824
19	0xbd0ff270	-0.035143316
20	0x3cc3eb7f	0.023916004
21	0x3cd97246	0.026543748
22	0xbd21a530	-0.039464176
23	0xbd6e453f	-0.058171507
24	0xbcdc6f27	-0.02690847
25	0x3d163a32	0.036676593
26	0x3d19396c	0.037408277
27	0xbd203540	-0.039113283
28	0x3d991a2f	0.07475697
29	0xbd869819	-0.06571979
30	0xbc2890e5	-0.010288452
31	0x3cb03220	0.021508276
32	0xbd8256fb	-0.063642465
33	0x3da4c639	0.080456205
34	0xbd320ebf	-0.043471094
35	0x3d5656d7	0.05232891
36	0x3b68d67d	0.0035528236
37	0xbd4b4a4a	-0.049631394
38	0x3da93b73	0.08263292
39	0xbc2118a5	-0.009832536
40	0x3c80caac	0.015721641
41	0x3daa4eeb	0.08315834
42	0xbdaa764b	-0.08323344
43	0x3d91a245	0.071110286
44	0xbd32a31c	-0.043612584
45	0xbd92eef0	-0.0717448
46	0x3d493b77	0.049128976
47	0xbcdd8829	-0.027042465
48	0xbd9084d8	-0.07056588
49	0xbd3172ca	-0.043322362
50	0x3d6a39d1	0.057184044
51	0x3d1edb0a	0.03878311
52	0xbb8e416f	-0.0043412964
53	0x3d39e2dc	0.045382366
54	0x3c8ffc95	0.017576495
55	0xbd8777d8	-0.06614655
56	0x3c8b4b7c	0.017003767
57	0x3d80d7c0	0.06291151
58	0xbc0741eb	-0.008255462
59	0xbc25a851	-0.010110931
60	0x3db1ccfd	0.086816765
61	0xbcceeb87	-0.025258793
62	0x3da8b032	0.082367316
63	0x3d9e83c6	0.077399775
64	0x3d924596	0.07142179
65	0x3cc10e30	0.023566335
66	0x3cc6c5ce	0.024264243
67	0x3cba17bf	0.022716401
68	0xbda601ae	-0.08105789
69	0xbd0f5eac	-0.035002396
70	0xbd4aeb68	-0.049540907
71	0xbc552696	-0.013009688
72	0xbd34ebf0	-0.04417032
73	0xbce9c243	-0.028535014
74	0xbd766fdf	-0.060165282
75	0xbd83a63e	-0.064281926
76	0x3cea3612	0.028590236
77	0x3db0aec8	0.08627087
78	0xbd12df0d	-0.03585725
79	0xbd6f2b8d	-0.058391143
80	0xbcf34db5	-0.02970014
81	0xbd08a214	-0.033357695
82	0xbdb05c89	-0.086114
83	0x3d9ebe7c	0.07751176
84	0x3d75f357	0.06004652
85	0x3d86414b	0.065554224
86	0xbd3b2ab7	-0.045695033
87	0xbd6f6180	-0.058442593
88	0x3dad8b08	0.08473784
89	0xbd5b52fc	-0.053545937
90	0xbd98217a	-0.0742826
91	0xbd96aa3f	-0.073566906
92	0x3cdc32ee	0.026879754
93	0xbc41bc40	-0.011824667
94	0xbd5ca65d	-0.053869594
95	0x3d9a0688	0.07520777
96	0xbd48abd0	-0.04899198
97	0x3bbb5ffb	0.005718229
98	0x3d3462e2	0.044039614
99	0x3d2d5955	0.04232152
100	0x3d978363	0.07398107
101	0xbc334978	-0.010942809
102	0x3d3aac2f	0.045574363
103	0xbbe69fee	-0.007038108
104	0x3c3ec317	0.011643193
105	0xbd5499aa	-0.051904358
106	0x3d602206	0.054719947
107	0x3ca4af58	0.020103142
108	0x3c9112eb	0.017709216
109	0xbbdc617b	-0.0067254878
110	0x3d12b335	0.035815436
111	0xbdaee118	-0.08539027
112	0x3d93f704	0.07224849
113	0x3d8e2c9f	0.069421045
114	0x3d4234ec	0.04741375
115	0xbb55cc5d	-0.003262303
116	0xbda8e0d3	-0.08246007
117	0xbcc44abe	-0.023961421
118	0xbd915c52	-0.07097687
119	0xbd2d7d08	-0.042355567
120	0x3d8e717c	0.06955239
121	0xbc269d4b	-0.0101693375
122	0x3db44f13	0.08804145
123	0xbd36933e	-0.044574015
124	0xbd289408	-0.0411568
125	0xbd9111c4	-0.07083467
126	0x3d0a13aa	0.03371016
127	0x3d05eccb	0.032696526

_network.4.weight f4 [128]
0	0x3f8072f6	1.0035083
1	0x3f805a5a	1.0027573
2	0x3f7e2cd0	0.9928713
3	0x3f7d38c0	0.9891472
4	0x3f7f9fb0	0.9985304
5	0x3f7db0aa	0.9909769
6	0x3f7f02b5	0.99613506
7	0x3f7d828e	0.99027336
8	0x3f7b5d75	0.9818948
9	0x3f809890	1.0046558
10	0x3f7d920b	0.9905097
11	0x3f806aef	1.0032634
12	0x3f7eee4b	0.99582356
13	0x3f8090a5	1.0044142
14	0x3f7e30dd	0.9929331
15	0x3f7ac445	0.97955734
16	0x3f7d7b8e	0.99016654
17	0x3f7e5e8c	0.9936302
18	0x3f7d2646	0.98886526
19	0x3f7e3d18	0.9931197
20	0x3f81db0f	1.0144976
21	0x3f826fb5	1.019034
22	0x3f81e487	1.0147866
23	0x3f7ddc24	0.9916403
24	0x3f8100cf	1.0078372
25	0x3f7cd405	0.98761016
26	0x3f7f2e91	0.9968043
27	0x3f7df93b	0.9920842
28	0x3f80afe8	1.0053682
29	0x3f7f8993	0.99819297
30	0x3f815cf9	1.0106498
31	0x3f7f7c30	0.9979887
32	0x3f7d5422	0.989565
33	0x3f7f0020	0.99609566
34	0x3f7c3c0f	0.9852914
35	0x3f7e1309	0.99247795
36	0x3f806e0f	1.0033587
37	0x3f8151c3	1.0103077
38	0x3f7ff66f	0.999854
39	0x3f805a53	1.0027565
40	0x3f81fdbd	1.015556
41	0x3f7fe57d	0.99959546
42	0x3f802cbd	1.0013653
43	0x3f7ffe75	0.99997646
44	0x3f7e873a	0.9942509
45	0x3f805e05	1.0028692
46	0x3f809199	1.0044433
47	0x3f8024f3	1.0011276
48	0x3f7d8526	0.99031293
49	0x3f7b9011	0.982667
50	0x3f80804d	1.0039154
51	0x3f7e6c64	0.9938414
52	0x3f7e1697	0.9925322
53	0x3f7dd5a7	0.9915413
54	0x3f7f434a	0.9971205
55	0x3f80cda9	1.0062762
56	0x3f7d393c	0.9891546
57	0x3f801a16	1.0007961
58	0x3f7f04e9	0.9961687
59	0x3f7e3ca5	0.99311286
60	0x3f7e7b02	0.99406445
61	0x3f7e65a2	0.9937383
62	0x3f802ca4	1.0013623
63	0x3f834000	1.0253906
64	0x3f7cdcef	0.9877462
65	0x3f80bfcd	1.0058533
66	0x3f7e9313	0.9944317
67	0x3f7eadb8	0.99483824
68	0x3f8202b2	1.0157073
69	0x3f7fab1f	0.99870485
70	0x3f8178e1	1.0115014
71	0x3f7e817c	0.9941633
72	0x3f80439e	1.0020635
73	0x3f7a4b0e	0.97770774
74	0x3f824d1b	1.0179781
75	0x3f7d11d9	0.9885536
76	0x3f81264c	1.0089812
77	0x3f7fbf07	0.9990086
78	0x3f7f77ce	0.9979218
79	0x3f80a05e	1.004894
80	0x3f8017f0	1.0007305
81	0x3f7f3c41	0.99701315
82	0x3f806ac8	1.0032587
83	0x3f7e98ec	0.9945209
84	0x3f7e900e	0.9943856
85	0x3f7f9bf1	0.9984732
86	0x3f80766b	1.0036138
87	0x3f80ec17	1.0072049
88	0x3f80a713	1.0050987
89	0x3f7f48ed	0.9972065
90	0x3f7b3a40	0.9813576
91	0x3f7cbd99	0.98726803
92	0x3f8059c9	1.00274
93	0x3f7f6d74	0.9977639
94	0x3f7ed358	0.99541235
95	0x3f7e0811	0.9923106
96	0x3f816bfb	1.0111078
97	0x3f809a46	1.004708
98	0x3f7f5158	0.99733496
99	0x3f7f9b6d	0.99846536
100	0x3f7e0b6b	0.9923617
101	0x3f80d2c0	1.0064316
102	0x3f806d1d	1.0033299
103	0x3f7d8fa7	0.9904732
104	0x3f7f9b60	0.9984646
105	0x3f7fe6a1	0.99961287
106	0x3f7cebad	0.9879711
107	0x3f81fdbd	1.015556
108	0x3f7ee365	0.99565727
109	0x3f816e36	1.0111759
110	0x3f816825	1.0109907
111	0x3f7c79c3	0.98623294
112	0x3f805201	1.0025026
113	0x3f82d2c9	1.0220577
114	0x3f7ed8ce	0.9954957
115	0x3f805cc6	1.0028312
116	0x3f81063a	1.0080025
117	0x3f8097ad	1.0046288
118	0x3f7f5541	0.9973946
119	0x3f7d422c	0.98929095
120	0x3f802fce	1.0014589
121	0x3f7d0a39	0.98843724
122	0x3f7b6005	0.9819339
123	0x3f7c2cc2	0.98505795
124	0x3f811e2a	1.008733
125	0x3f7d7fdf	0.9902324
126	0x3f822680	1.0167999
127	0x3f8025d1	1.0011541

_network.4.bias f4 [128]
0	0xbcef7055	-0.029228369
1	0x3c175ac5	0.00923795
2	0xbb7b202f	-0.0038318743
3	0xbc162fbd	-0.009166655
4	0x3be0e01d	0.006862654
5	0xbc32a2fa	-0.010903114
6	0x3b86d4d9	0.004114729
7	0xbb8e43c7	-0.004341576
8	0x3bcf79aa	0.006331642
9	0x3a9ecb60	0.0012115054
10	0x3a68fcba	0.0008887757
11	0xba55c094	-0.00081540016
12	0xbb18f0e9	-0.0023336953
13	0xbd18034b	-0.037112515
14	0xbc75ffe7	-0.015014625
15	0xbcc03d69	-0.023466783
16	0xbb620a31	-0.0034490938
17	0x3a032b71	0.00050037267
18	0x3b936f53	0.004499355
19	0xbc437438	-0.011929564
20	0x3cf5e042	0.030014161
21	0x3c9ad249	0.0188991
22	0x3cbe4990	0.023228437
23	0x3bed832a	0.007248302
24	0x3c20d8c0	0.009817302
25	0xbb6bf213	-0.0036002442
26	0x3b4ecf73	0.0031556755
27	0xbc89d2c6	-0.016824137
28	0x3c8ab801	0.016933443
29	0xbc27e285	-0.010246878
30	0xbcade94c	-0.021229409
31	0x398e6c80	0.0002716519
32	0xbc8e8bd3	-0.017400658
33	0x3bbfa464	0.0058484543
34	0x3b876d7a	0.0041329237
35	0xbb8739f9	-0.004126784
36	0x3cadaf48	0.021201745
37	0xbca38700	-0.019961834
38	0x3bb35828	0.0054731555
39	0xbb1ed32c	-0.0024234755
40	0x3ba79983	0.0051147356
41	0xbb6837e8	-0.0035433713
42	0x3b9f4018	0.0048599355
43	0xbc30f655	-0.010800918
44	0xbc3fe98d	-0.011713398
45	0x3c81e7f3	0.015857672
46	0xbcf18fd7	-0.029487533
47	0xbc0a2aa3	-0.008433017
48	0x3ba89716	0.005144964
49	0xbc3a995c	-0.011389103
50	0x3b365639	0.0027822389
51	0xbc1926ed	-0.00934766
52	0xbbc1e521	-0.005917207
53	0x3b5983f2	0.0033190218
54	0xbb81e751	-0.0039643426
55	0x3c3c255e	0.011483518
56	0xbaf4c25c	-0.0018673646
57	0xba3cc7fc	-0.0007201431
58	0xbc65fbb9	-0.014037066
59	0xbb654eb0	-0.0034989528
60	0x3ba52f44	0.005041035
61	0xbc018d15	-0.007907172
62	0x3c645871	0.013937102
63	0xbd1650d2	-0.03669817
64	0x3b7601d4	0.003753771
65	0xbc706806	-0.014673239
66	0xbb78648e	-0.0037901732
67	0x3c64043d	0.013917026
68	0xbd1eba95	-0.038752157
69	0x3c18a398	0.009316348
70	0x3c9a7e60	0.018859088
71	0x3c443c7e	0.011977313
72	0x3c093c97	0.008376262
73	0xbc13f1a6	-0.009029781
74	0x3cac4301	0.021028044
75	0xb8b37ca3	-8.5586005e-05
76	0x3c0b4643	0.008500638
77	0xbaff6ef2	-0.001948802
78	0xba218d2d	-0.00061626994
79	0x3c925f91	0.017867835
80	0xbbe5984e	-0.0070066815
81	0x3c4f5eb1	0.0126568535
82	0x3c0bd94d	0.008535695
83	0xbc310631	-0.010804699
84	0xbcdf9d91	-0.027296813
85	0x39d3c4fd	0.00040391824
86	0x3ca4a3ed	0.020097697
87	0x3be5c980	0.007012546
88	0x3c941a41	0.018078925
89	0x3b00e189	0.001966568
90	0x3c097b0a	0.008391151
91	0x3c680d7c	0.014163371
92	0x3c9c1bb3	0.019056177
93	0xbb993282	-0.0046752105
94	0xbbd4ac2e	-0.006490252
95	0x3b25af64	0.0025281543
96	0xbceb088b	-0.028690597
97	0xbba74db4	-0.0051056985
98	0x3c038906	0.008028274
99	0x3b62080c	0.003448966
100	0x3c1879dd	0.009306398
101	0x3c6afda9	0.014342704
102	0xbcd1deb3	-0.025618887
103	0xbc9a6268	-0.018845752
104	0xbbb32d9d	-0.005468084
105	0x3bb2ccdf	0.0054565514
106	0xbc96912e	-0.018379774
107	0x3c9f5a61	0.019452276
108	0x3a2efba2	0.00066750695
109	0xbb9f814a	-0.0048677074
110	0xbd04d5dd	-0.03243052
111	0x3c2f1603	0.0106864
112	0x3b25cb97	0.002529835
113	0xbd0394b0	-0.03212422
114	0x3c755001	0.014972688
115	0xbcfcad88	-0.030844465
116	0x3c1f0085	0.009704714
117	0x3bb1b7cc	0.0054235216
118	0xbad1e9dc	-0.001601513
119	0xbba36048	-0.004985843
120	0x3c2dd4f2	0.010609852
121	0x3c31cf49	0.010852643
122	0xbc89dc2b	-0.016828617
123	0xbc3ed33f	-0.011647045
124	0x3bd6ef63	0.006559299
125	0xbc565655	-0.013082107
126	0x3caaa980	0.020832777
127	0xbcb8ccbd	-0.022558564

_network.4.running_mean f4 [128]
0	0x3e776952	0.2416127
1	0xbf0bd1b3	-0.5461685
2	0x3d8df492	0.06931414
3	0x3f145cdf	0.5795421
4	0xbe436750	-0.1908238
5	0x3e51220b	0.20423143
6	0xbe18d362	-0.14924386
7	0x3e94c87d	0.2905921
8	0xbc9811ea	-0.01856323
9	0xbed5d194	-0.41761458
10	0x3f0320a3	0.51221675
11	0xbf0c2ba2	-0.5475408
12	0xbef7887b	-0.48346314
13	0x3eb1ca7f	0.34724805
14	0xbdf6a49f	-0.12043118
15	0x3eb88e90	0.36046267
16	0x3e09408f	0.13403533
17	0x3e863c74	0.26217997
18	0xbe9deeb6	-0.30846184
19	0xbd1a107c	-0.037613377
20	0xbe6b4b54	-0.22977954
21	0xbe27f7e0	-0.1640315
22	0xbe5b923c	-0.21442503
23	0xbcddfe8e	-0.02709892
24	0xbd30f338	-0.0432007
25	0x3ed7a176	0.42115372
26	0xbdcb4c27	-0.09926634
27	0x3e878b03	0.26473245
28	0xbf496612	-0.7867137
29	0xbece0cd8	-0.40244174
30	0x3f01c002	0.50683606
31	0x3da78683	0.08179953
32	0xbcb943c1	-0.022615315
33	0x3f0bd9d1	0.54629236
34	0x3e8c5881	0.27411273
35	0x3e0bcee1	0.13653137
36	0xbe548338	-0.20753181
37	0x3f1c0f9c	0.6096132
38	0x3d4ba6de	0.049719684
39	0x3e2520bc	0.16125768
40	0xbe3b7bc9	-0.18308939
41	0xbe9b110c	-0.30286443
42	0xbeb8a84d	-0.36065903
43	0x3de52160	0.111880064
44	0x3ecb916e	0.39759392
45	0xbd20f992	-0.03930051
46	0x3f34919d	0.7053469
47	0xbde62082	-0.11236669
48	0xbe3caa83	-0.1842442
49	0xbdbf62f4	-0.09345046
50	0xbe2104b6	-0.15724453
51	0x3daa8214	0.08325592
52	0x3e63cae0	0.2224536
53	0xbeb771f3	-0.35829124
54	0xbee537dd	-0.44769183
55	0xbe92012a	-0.28516513
56	0xbe8e35b7	-0.27775356
57	0x3d859308	0.065221846
58	0x3e734df7	0.2376021
59	0x3e406be1	0.18791153
60	0xbe47d14e	-0.19513437
61	0x3dc793c4	0.09744981
62	0x3c68a360	0.014199108
63	0x3e450bb5	0.19242747
64	0x3ea83552	0.3285318
65	0x3ea89a90	0.32930422
66	0x3df1954a	0.11796053
67	0xbea5b483	-0.32364282
68	0x3efd5b63	0.49483785
69	0xbd548452	-0.051884003
70	0xbe2209c7	-0.15824042
71	0xbebb2636	-0.3655259
72	0xbe4d2739	-0.20034494
73	0xbe441e29	-0.1915213
74	0xbed762ba	-0.4206751
75	0xbf25b00d	-0.6472176
76	0xbe2a7e9b	-0.16649859
77	0x3de6055d	0.11231492
78	0xbe8b1901	-0.27167514
79	0x3d4e60b8	0.050385207
80	0xbdd81ae8	-0.10552007
81	0xbe31a151	-0.17346694
82	0xbecef478	-0.4042089
83	0x3c65a770	0.014016971
84	0x3f188997	0.59584945
85	0x3cd05e08	0.025435463
86	0xbe8eea15	-0.27912965
87	0xbeac36a9	-0.33635452
88	0xbd8e336b	-0.06943401
89	0xbed53e46	-0.41649073
90	0xbe5b946e	-0.2144334
91	0xbe79983f	-0.24374484
92	0xbdf77efd	-0.12084768
93	0x3d9f83c5	0.07788805
94	0xbe324034	-0.17407304
95	0x3e69cac2	0.22831252
96	0x3d799cc3	0.060940515
97	0xbe8f9da5	-0.2804996
98	0xbdcfab43	-0.101400875
99	0xbdbd13ff	-0.092323296
100	0xbeca21fc	-0.39479053
101	0xbd56998f	-0.05239254
102	0x3edcc4d1	0.4311891
103	0x3e48994c	0.19589728
104	0x3d363a06	0.04448893
105	0xbda3eb36	-0.08003847
106	0x3eba6b2d	0.36409894
107	0xbf1ed166	-0.62038267
108	0xbe4b9a0c	-0.19882983
109	0xbea00e7d	-0.31261054
110	0x3ed150fe	0.40882105
111	0xbdd63bca	-0.104606226
112	0xbe3a8447	-0.18214522
113	0x3f2168dc	0.6305063
114	0xbee35715	-0.44402376
115	0x3eed444f	0.46341178
116	0xbf102aa2	-0.5631505
117	0xbe8ccc79	-0.2749975
118	0x3ebcc9ae	0.3687262
119	0x3ecae1b8	0.39625335
120	0x3e0ac66c	0.13552254
121	0xbdbecf73	-0.093169115
122	0xbdc3a084	-0.095521
123	0xbd922fcc	-0.07138023
124	0xbe98b1ff	-0.298233
125	0x3e42ef43	0.19036584
126	0xbe813330	-0.25234365
127	0x3f2f6351	0.6851092

_network.4.running_var f4 [128]
0	0x3e0a8846	0.13528547
1	0x3dfdaf6c	0.12386975
2	0x3e0fa8a9	0.14029182
3	0x3e2d9c1b	0.16954081
4	0x3d86f60c	0.065898985
5	0x3db97dea	0.09057219
6	0x3d537414	0.051624373
7	0x3e5111a9	0.20416893
8	0x3e0c0e97	0.1367744
9	0x3d66e6c2	0.05637241
10	0x3df3b9b8	0.119006574
11	0x3e1b90e1	0.15191986
12	0x3e90ac6a	0.28256541
13	0x3e680e77	0.22661768
14	0x3ea67fa5	0.3251926
15	0x3e053b4a	0.13010898
16	0x3d7c5da5	0.061612744
17	0x3e2bc117	0.16772877
18	0x3e9f853b	0.31156334
19	0x3dfad42d	0.122475006
20	0x3df19ac9	0.11797101
21	0x3ddbf8c2	0.10740806
22	0x3d62be98	0.055357546
23	0x3dcf926c	0.1013535
24	0x3db43bad	0.08800445
25	0x3e02dfe0	0.12780714
26	0x3e411a3f	0.18857668
27	0x3e148f2b	0.14507739
28	0x3e41ffaf	0.18945192
29	0x3dd2c90c	0.10292253
30	0x3e810bc1	0.2520428
31	0x3d99030e	0.07471286
32	0x3e132d33	0.14372711
33	0x3e322b49	0.17399324
34	0x3e150c97	0.14555584
35	0x3e9f0974	0.310619
36	0x3e63b6d7	0.22237717
37	0x3e14f7de	0.14547679
38	0x3e51154b	0.20418279
39	0x3e670571	0.2256067
40	0x3e9a72b9	0.3016565
41	0x3d97822b	0.073978744
42	0x3dcfd7e4	0.101486
43	0x3e589202	0.21149448
44	0x3e0976b6	0.13424191
45	0x3da31a6f	0.07964026
46	0x3db45f18	0.088072
47	0x3d9aaacf	0.075521104
48	0x3e8572a8	0.26064038
49	0x3e5904fa	0.21193305
50	0x3d7e31ec	0.062059328
51	0x3e1115cf	0.14168476
52	0x3e9cfb8b	0.30660662
53	0x3f21545d	0.63019353
54	0x3e69741b	0.22798197
55	0x3dcb14bc	0.09916064
56	0x3eae456c	0.3403734
57	0x3e388897	0.18020855
58	0x3dc83852	0.09776367
59	0x3e7fc71e	0.24978301
60	0x3ece03ac	0.40237176
61	0x3e78e639	0.24306573
62	0x3dbcf21b	0.092258655
63	0x3dc93b5d	0.09825776
64	0x3e1e3eca	0.1545364
65	0x3e7d1293	0.24714117
66	0x3e443d3c	0.19163984
67	0x3e872653	0.26396427
68	0x3dece992	0.115679875
69	0x3e8c872f	0.27446887
70	0x3e6c31e4	0.23065907
71	0x3e2c6dfd	0.16838832
72	0x3e69ace2	0.22819856
73	0x3dd6d3ed	0.104896404
74	0x3e04a698	0.12954175
75	0x3e3f8e9f	0.1870675
76	0x3d2e2d6a	0.04252378
77	0x3e12da8d	0.14341183
78	0x3e406861	0.18789817
79	0x3d96b07b	0.0735788
80	0x3e08b998	0.13352048
81	0x3e0fc850	0.14041257
82	0x3e6378ae	0.22214004
83	0x3d795df1	0.060880605
84	0x3e962e23	0.29332075
85	0x3ed145b3	0.4087349
86	0x3dbb3cfa	0.0914249
87	0x3e12ffd4	0.14355403
88	0x3e2dc2f1	0.16968895
89	0x3dec8c53	0.11550202
90	0x3e5df8e9	0.21676983
91	0x3daa5e73	0.08318796
92	0x3e3dd599	0.18538512
93	0x3dc394fc	0.09549901
94	0x3d6d09b6	0.05787059
95	0x3d89f35d	0.06735871
96	0x3e10c0ba	0.1413602
97	0x3da829af	0.082110755
98	0x3e25f3eb	0.16206329
99	0x3e2ee723	0.17080359
100	0x3e92304b	0.2855247
101	0x3d965dcf	0.07342111
102	0x3e81d390	0.25356722
103	0x3dde6c5d	0.108605124
104	0x3e73c7ef	0.23806737
105	0x3e2958e3	0.16537814
106	0x3dd09b8c	0.10185918
107	0x3e269aee	0.16270038
108	0x3e82e7cc	0.25567472
109	0x3dc813f8	0.09769434
110	0x3debdfc8	0.11517292
111	0x3e14e8c7	0.14541923
112	0x3e01e28c	0.12684077
113	0x3e137e61	0.14403678
114	0x3dc56990	0.09639275
115	0x3e03fcc9	0.12889399
116	0x3e08e8db	0.13370077
117	0x3e670de0	0.22563887
118	0x3e68aa26	0.22721156
119	0x3e0dd8e6	0.13852271
120	0x3e13798b	0.14401834
121	0x3d5206a1	0.051275853
122	0x3de11530	0.10990369
123	0x3e5e24cc	0.21693724
124	0x3d87990b	0.066209875
125	0x3dcc6a35	0.09981195
126	0x3d8191a3	0.06326606
127	0x3ebcb481	0.36856464
