transformers/results/pimentel_mlp_gg/configs/hyperopt/trial_20/pimentel_mlp_gg_model_20251208_213001.pt (torch, 33717 bytes, 31 tensors)

_network.0.weight f4 [32, 5]
0.27816898 0.39421514 -0.082837835 0.41052237 -0.109566145 0.025276745 -0.20370597 0.26961604
0.43374467 -0.3032828 0.30523315 0.053350303 0.39342377 0.026768565 0.25631005 -0.09927921
0.3350964 0.06752942 -0.2520709 0.08842655 -0.14763838 -0.08115819 -0.20333335 0.3652999
-0.28189632 -0.15731862 -0.116988726 -0.25759456 0.08289596 -0.4525359 0.3997232 -0.4024556
0.35947624 0.031032745 -0.11562363 0.29296055 0.08787422 0.34807578 0.0044353143 -0.1506908
0.22313522 -0.108253814 0.14315015 0.3954979 0.2471752 -0.2823635 0.29809272 0.038784828
0.17985009 -0.2566949 -0.5172849 -0.07889338 -0.28000292 0.3156698 0.12744254 0.15037487
0.14791901 -0.016278889 0.36933115 -0.29878834 0.04234572 -0.3157572 0.08742955 -0.15738645
0.14854327 -0.045224786 0.28672475 -0.29542047 -0.27332982 -0.29564112 0.39544198 0.14502645
0.44462308 -0.3997301 -0.4019285 -0.45703873 -0.25624916 0.1804184 0.11890107 0.3309556
-0.2504466 -0.31661302 0.23753951 -0.17816311 0.21939884 -0.04766031 0.24044858 -0.3558656
-0.3095907 0.12003681 0.052844595 -0.09794134 0.2697049 0.3304291 -0.32213113 -0.33491737
0.4028071 -0.12575158 -0.13420525 -0.40998286 -0.3364236 0.086803816 -0.07210645 -0.25093174
-0.003452118 -0.3451934 -0.34524077 -0.2429313 -0.39980695 -0.27464455 0.4305229 0.10545312
0.16090508 -0.44787636 -0.2560628 -0.16778046 0.08505702 -0.39746177 -0.19998081 -0.24031682
-0.04187046 -0.11053391 -0.09615625 -0.29970446 -0.31966382 -0.23149219 -0.12697344 -0.34980786
0.40775603 -0.0974694 0.35183924 0.092210256 -0.37659553 0.33836028 -0.15199296 -0.13926369
-0.32646576 -0.48237294 0.16007067 -0.086823516 0.24795355 -0.38184127 0.26977634 -0.33196267
-0.0371198 0.100462966 0.2545606 0.37446693 0.37541237 -0.38235858 0.22798502 -0.19749258
-0.10330596 -0.2984095 0.34650612 -0.4181781 0.19484454 0.144432 0.11737678 -0.14829215
00000000: 2a6c 8e3e 91d6 c93e e2a6 a9bd fd2f d23e
00000010: 3764 e0bd 2d11 cf3c 4c98 50be 1d0b 8a3e
00000020: c813 de3e e247 9bbe 8547 9c3e d985 5a3d
00000030: d76e c93e c049 db3c 123b 833e e652 cbbd
00000040: c191 ab3e dd4c 8a3d 700f 81be fb18 b53d
00000050: 842e 17be 4436 a6bd 9e36 50be 9708 bb3e
00000060: b754 90be 2218 21be c997 efbd 6fe3 83be
00000070: 5bc5 a93d c9b2 e7be 85a8 cc3e a90e cebe
00000080: 450d b83e 6238 fe3c 15cc ecbd edfe 953e
00000090: 66f7 b33d fd36 b23e 1d56 913b b04e 1abe
000000a0: 8f7d 643e 2db4 ddbd f495 123e b37e ca3e
000000b0: 7f1b 7d3e f391 90be 9c9f 983e d7dc 1e3d
000000c0: 9f2a 383e 846d 83be c96c 04bf da92 a1bd
000000d0: 8b5c 8fbe 799f a13e 4c80 023e dffb 193e
000000e0: 1578 173e 4e5b 85bc f918 bd3e c9fa 98be
000000f0: b572 2d3d edaa a1be 440e b33d ea29 21be
00000100: ba1b 183e a03d 39bd 96cd 923e 5a41 97be
00000110: e3f1 8bbe 465e 97be 5f77 ca3e d081 143e
00000120: a3a5 e33e 6ca9 ccbe 93c9 cdbe fb00 eabe
00000130: 1733 83be 9abf 383e 6782 f33d 0373 a93e
00000140: 893a 80be 1a1b a2be 8f3d 733e 6470 36be
00000150: 17aa 603e 7537 43bd 2738 763e 0434 b6be
00000160: ac82 9ebe dcd5 f53d 9373 583d 7895 c8bd
00000170: c316 8a3e 012e a93e 5fee a4be 4a7a abbe
00000180: bb3c ce3e 06c5 00be 1a6d 09be 46e9 d1be
00000190: b73f acbe 33c6 b13d 8cac 93bd 207a 80be
000001a0: ee3c 62bb 30bd b0be 66c3 b0be fcc2 78be
000001b0: 7fb3 ccbe 369e 8cbe 7f6d dc3e cef7 d73d
000001c0: 4dc4 243e 0d50 e5be aa1a 83be a4ce 2bbe
000001d0: 6032 ae3d 1c80 cbbe c5c7 4cbe 9d15 76be
000001e0: 5c80 2bbd 9a5f e2bd 91ed c4bd dd72 99be
000001f0: faaa a3be 4a0c 6dbe 5305 02be 041a b3be
00000200: 66c5 d03e 099e c7bd 4624 b43e bbd8 bc3d
00000210: 21d1 c0be 8f3d ad3e 0ba4 1bbe 249b 0ebe
00000220: 8526 a7be 96f9 f6be 91e9 233e 87d0 b1bd
00000230: 89e7 7d3e b380 c3be 2020 8a3e 03f7 a9be
00000240: ee0a 18bd 87bf cd3d c455 823e 21ba bf3e
00000250: 0d36 c03e 81c4 c3be e874 693e 7f3b 4abe
00000260: 1392 d3bd 21c9 98be 4069 b13e 711b d6be
00000270: 5485 473e fbe5 133e 3d63 f03d e6d9 17be

_network.0.bias f4 [32]
0.40750366 0.09838349 0.05719819 -0.39314222 0.18717025 -0.068291225 -0.2046325 0.38065347
0.10070166 -0.24892563 -0.22690433 -0.021150954 0.24949646 -0.11433806 -0.25606766 -0.15416075
-0.33399227 0.1587712 0.3464663 -0.4203195 0.103270374 0.23280682 0.08134261 -0.15760091
0.23219699 0.23586282 0.16536981 -0.07831808 -0.11878571 0.048698597 -0.079205625 -0.13301188
00000000: 52a4 d03e 497d c93d a648 6a3d f049 c9be
00000010: 8fa9 3f3e 45dc 8bbd 2f8b 51be 03e5 c23e
00000020: ac3c ce3d 5ce6 7ebe 9c59 68be c444 adbc
00000030: 007c 7f3e 132a eabd 4d1b 83be 51dc 1dbe
00000040: 0901 abbe eb94 223e 0864 b13e 1e34 d7be
00000050: 6b7f d33d e964 6e3e f496 a63d 2262 21be
00000060: 0cc5 6d3e 0686 713e b456 293e 3b65 a0bd
00000070: ec45 f3bd 2e78 473d 8f36 a2bd 4434 08be

_network.1.weight f4 [32]
1.008663 0.9927728 0.98662364 0.9665861 1.0147209 0.98401994 0.9830268 0.9936683
1.0268005 0.997545 1.0475264 0.988358 0.9778437 0.9945216 1.0092747 1.0241295
1.0167087 0.9857033 0.9937629 0.99124736 1.0349883 0.9190908 1.008296 1.0019194
0.979631 1.0211929 0.99446666 0.9721803 0.98278147 1.0027696 1.030657 1.0281754
00000000: df1b 813f 5c26 7e3f 5e93 7c3f 3072 773f
00000010: 60e2 813f bbe8 7b3f a5a7 7b3f 0c61 7e3f
00000020: 336e 833f 1c5f 7f3f 5815 863f 0805 7d3f
00000030: f753 7a3f f898 7e3f ea2f 813f ad16 833f
00000040: 8323 823f 0d57 7c3f 3f67 7e3f 63c2 7d3f
00000050: 7f7a 843f 8949 6b3f d80f 813f e53e 803f
00000060: 19c9 7a3f 73b6 823f 5e95 7e3f cfe0 783f
00000070: 9197 7b3f c15a 803f 92ec 833f 409b 833f

_network.1.bias f4 [32]
0.046109647 -0.006023693 0.07391602 0.0060575097 -0.03773365 0.020965563 0.0065879934 -0.00023275932
0.069126785 0.006458474 -0.04948554 -0.020267516 0.009007167 -0.06005158 -0.06541629 -0.022327885
0.0627728 -0.0027418465 0.016872086 -0.011174686 -0.014920075 0.029796362 0.0046058074 -0.009724323
-0.054011285 0.061125875 -0.0055677877 -0.053285707 0.02293453 0.03993379 -0.014045117 -0.010800822
00000000: 78dd 3c3d 6662 c5bb 4861 973d 137e c63b
00000010: 9a8e 1abd f9bf ab3c 18e0 d73b db10 74b9
00000020: 5892 8d3d 9ba1 d33b 59b1 4abd 1008 a6bc
00000030: cc92 133c a5f8 75bd faf8 85bd f8e8 b6bc
00000040: 078f 803d 8db0 33bb 5437 8a3c 0816 37bc
00000050: 5573 74bc 8017 f43c 50ec 963b c452 1fbc
00000060: f03a 5dbd 205f 7a3d fd71 b6bb 1d42 5abd
00000070: 32e1 bb3c 9d91 233d 7e1d 66bc eef5 30bc

_network.1.running_mean f4 [32]
0.82020366 0.12660716 0.3749233 -0.3709617 0.11942214 -0.37159455 -0.2015362 0.5096615
0.46330607 -0.26830077 -0.29496422 0.14184026 0.1389462 -0.31117252 -0.35604447 -0.22192137
-0.5267988 0.1039623 0.3715639 -0.6551843 -0.12898374 -0.38984 -0.0092499945 -0.4384816
-0.12642768 0.20154625 0.39981386 -0.2839641 -0.3176303 0.2428377 -0.06465698 -0.21993257
00000000: def8 513f 4fa5 013e f2f5 bf3e b1ee bdbe
00000010: 9893 f43d a441 bebe 815f 4ebe 2d79 023f
00000020: 7436 ed3e b85e 89be 8d05 97be 933e 113e
00000030: ea47 0e3e 0152 9fbe 764b b6be 5b3f 63be
00000040: 49dc 06bf 30ea d43d a03d be3e 29ba 27bf
00000050: 5014 04be 1c99 c7be 4a8d 17bc a980 e0be
00000060: 4276 01be 2462 4e3e 67b4 cc3e be63 91be
00000070: 70a0 a2be 72aa 783e e16a 84bd 0136 61be

_network.1.running_var f4 [32]
0.01513366 0.03535974 0.007682238 0.015415073 0.021072933 0.015140175 0.011724245 0.005933692
0.015253748 0.014162431 0.012088023 0.020612616 0.0081011625 0.021865452 0.021797678 0.018395074
0.012657279 0.02108563 0.024459314 0.02722512 0.0073435344 0.008386592 0.018875511 0.010967513
0.005065634 0.018884508 0.01217782 0.014339013 0.006359288 0.03438585 0.022193212 0.0077880747
00000000: 2cf3 773c 60d5 103d 48bb fb3b 818f 7c3c
00000010: 25a1 ac3c 7f0e 783c 0c17 403c 6b6f c23b
00000020: dbea 793c 8a09 683c d80c 463c cadb a83c
00000030: bdba 043c 2d1f b33c 0b91 b23c 44b1 963c
00000040: 7a60 4f3c c5bb ac3c e65e c83c 3707 df3c
00000050: 08a2 f03b eb67 093c d1a0 9a3c 15b1 333c
00000060: 9efd a53b afb3 9a3c 7b85 473c 2eee 6a3c
00000070: 9361 d03b 2dd8 0c3d 8ace b53c 1b33 ff3b

_network.3.weight f4 [32, 32]
0.12295336 0.15064612 -0.010004509 -0.031595368 -0.0075470954 -0.024525583 0.019002452 0.0399105
-0.1459158 -0.05124437 0.15857252 0.07485673 -0.00837025 -0.09841016 -0.111234345 -0.12171871
-0.05073724 0.060774285 0.11182082 0.084495865 -0.16968498 -0.1288865 -0.01880439 0.15574734
0.014049661 -0.0542365 0.03543033 -0.1323854 -0.08598875 0.1423085 -0.085304074 -0.015310805
-0.2168559 0.11268472 0.16467784 0.09481016 -0.13303527 -0.17983021 -0.093768865 0.14027622
0.07621728 0.10208538 0.08365053 0.0161044 -0.025721628 -0.13174126 -0.10977643 -0.15132359
0.08067646 -0.09659767 -0.035512906 -0.09906749 -0.022268862 -0.10784115 -0.10466403 0.00892036
-0.06982231 0.10520883 -0.11046599 -0.13081321 0.00041294176 -0.088783614 -0.060516536 -0.19696145
0.09670781 -0.12822461 0.1096803 0.054128885 0.10590892 -0.1351085 0.14743514 -0.059252273
0.077279836 0.14242046 -0.026332367 -0.0023379652 -0.04854678 -0.14291976 0.1119046 -0.16132663
0.09151146 0.09332333 0.17500494 -0.04404436 -0.22604804 0.037331637 0.12150112 -0.16669379
-0.018853026 -0.113413416 -0.014602325 -0.06631089 -0.05664626 -0.05090028 -0.19384626 0.14203416
0.12019865 -0.046158608 -0.005628103 -0.08763765 -0.17268524 -0.17718048 0.03552844 -0.085376956
-0.13788302 -0.030844832 -0.08549791 -0.07944536 0.025598535 -0.039714284 -0.029963525 -0.11616928
-0.16509637 0.1279556 -0.08832719 0.029735249 -0.119810045 0.03279835 0.20158501 0.07466527
-0.115229614 0.044889055 0.143359 0.029019602 0.13535434 0.16087815 -0.0061347694 0.0057489313
-0.1044755 -0.061760157 0.09122461 0.12887985 -0.12843396 -0.16077606 -0.10416023 -0.14781953
-0.1986394 -0.039207857 0.07080426 0.025462847 -0.112022676 -0.11897978 0.043433 -0.15909953
0.0018369615 0.120552115 -0.09977904 0.011813114 0.07854828 0.045752704 -0.116929635 -0.12585372
-0.13455984 -0.11523823 0.15099066 -0.0938405 -0.15156503 0.028560117 0.06663551 0.07554134
0.18693398 0.08527001 -0.17537077 -0.0031614685 0.14278558 0.0069501526 -0.13490997 0.15191144
-0.07819647 -0.119792596 -0.09720121 0.03530712 0.06816686 -0.0035338914 0.041478533 -0.14480144
-0.17010745 -0.010279814 0.13963814 0.08777706 -0.15037195 -0.040350717 -0.10107558 -0.1256309
0.020307334 0.13501616 0.17307238 -0.11262926 0.10850512 -0.13330013 0.09970178 0.109613426
0.036784574 0.15197945 -0.110378034 -0.041926995 0.12107638 -0.02661683 -0.07943133 -0.056461383
0.10714449 0.11782787 0.047189493 -0.076971546 -0.15869749 0.0042523807 0.045630924 -0.1147725
-0.0630736 0.10167529 0.016203277 0.021899952 -0.026117997 -0.16103917 -0.17043105 -0.07468892
-0.10444518 0.08514043 -0.011873204 -0.085556954 0.14551012 0.08216277 0.113186486 -0.041647244
-0.07913832 0.09216335 -0.1179517 -0.12482072 0.0056165345 -0.06392478 -0.11252356 0.09335685
0.15768296 0.026369866 -0.0027758505 -0.15937512 -0.07514411 0.04784152 0.08911665 0.018294837
-0.05847736 0.081672125 -0.11147102 0.10745242 -0.086853616 0.0018852343 -0.041205708 0.018347353
-0.04518388 0.14086302 -0.039466172 0.14817205 0.12466339 -0.08521596 -0.17023219 0.14370339
00000000: f9ce fb3d fa42 1a3e f4e9 23bc 256a 01bd
00000010: a04d f7bb e0e9 c8bc 08ab 9b3c 3179 233d
00000020: f46a 15be 9ee5 51bd d660 223e 7c4e 993d
00000030: 6023 09bc 448b c9bd d5ce e3bd a947 f9bd
00000040: dad1 4fbd 75ee 783d 5002 e53d 2b0c ad3d
00000050: e6c1 2dbe d3fa 03be aa0b 9abc 3b7c 1f3e
00000060: 8d30 663c 1827 5ebd 651f 113d 0a90 07be
00000070: df1a b0bd 52b9 113e e7b3 aebd 2cda 7abc
00000080: 790f 5ebe 3fc7 e63d 4fa1 283e d42b c23d
00000090: 663a 08be 6925 38be e409 c0bd 92a4 0f3e
000000a0: ce17 9c3d 2412 d13d f850 ab3d 60ed 833c
000000b0: 2ab6 d2bc 2ee7 06be 77d2 e0bd 92f4 1abe
000000c0: b339 a53d 00d5 c5bd fb75 11bd e5e3 cabd
000000d0: 306d b6bc d2db dcbd 185a d6bd b426 123c
000000e0: 00ff 8ebd ba77 d73d fe3b e2bd e6f3 05be
000000f0: 1b80 d839 2fd4 b5bd 30e0 77bd 43b0 49be
00000100: bf0e c63d 504d 03be 11a0 e03d 40b6 5d3d
00000110: c7e6 d83d e259 0abe 3df9 163e 83b2 72bd
00000120: e444 9e3d abd6 113e fab6 d7bc 8c38 19bb
00000130: fdd8 46bd 8f59 12be 3d2e e53d cf32 25be
00000140: 5c6a bb3d 4d20 bf3d 7f34 333e dc67 34bd
00000150: 2379 67be 0fe9 183d 94d5 f83d c7b1 2abe
00000160: a971 9abc 4b45 e8bd 973e 6fbc 01ce 87bd
00000170: e905 68bd d07c 50bd a27f 46be 6771 113e
00000180: b62a f63d cf10 3dbd f36b b8bb 5e7b b3bd
00000190: 66d4 30be cd6e 35be 4586 113d 1dda aebd
000001a0: 3531 0dbe 4dae fcbc 8719 afbd 40b4 a2bd
000001b0: 05b4 d13c 72ab 22bd 1176 f5bc 29ea edbd
000001c0: 060f 29be cb06 033e e3e4 b4bd 5697 f33c
000001d0: f85e f5bd 9057 063d 4d6c 4e3e 1bea 983d
000001e0: 81fd ebbd 96dd 373d b4cc 123e 84ba ed3c
000001f0: 549a 0a3e 3ebd 243e 2d06 c9bb 8861 bc3b
00000200: 40f7 d5bd 38f8 7cbd f8d3 ba3d 14f9 033e
00000210: 3184 03be 7ba2 24be f551 d5bd 015e 17be
00000220: 2068 4bbe 6b98 20bd d301 913d 7697 d03c
00000230: 256c e5bd acab f3bd cde6 313d fdea 22be
00000240: 33c6 f03a 07e4 f63d f458 ccbd cb8b 413c
00000250: ecdd a03d 3067 3b3d ce78 efbd ccdf 00be
00000260: 0eca 09be 0502 ecbd 4c9d 1a3e 732f c0bd
00000270: dd33 1bbe e8f6 e93c 3378 883d 6bb5 9a3d
00000280: 9f6b 3f3e 0ba2 ae3d 6594 33be a430 4fbb
00000290: 6236 123e 1bbe e33b d725 0abe ac8e 1b3e
000002a0: 7925 a0bd d255 f5bd 6e11 c7bd 339e 103d
000002b0: 119b 8b3d dc98 67bb 65e5 293d d446 14be
000002c0: a630 2ebe aa6c 28bc 4dfd 0e3e 76c4 b33d
000002d0: 1bfb 19be cb46 25bd b700 cfbd 63a5 00be
000002e0: 915b a63c ad41 0a3e e339 313e 2baa e6bd
000002f0: ef37 de3d d47f 08be 7230 cc3d 017d e03d
00000300: 6cab 163d 80a0 1b3e e10d e2bd a4bb 2bbd
00000310: e5f6 f73d 8a0b dabc e5ac a2bd 0d44 67bd
00000320: 926e db3d bd4f f13d c549 413d 42a3 9dbd
00000330: 9881 22be 8e57 8b3b 7ee7 3a3d d80d ebbd
00000340: bb2c 81bd 223b d03d bcbc 843c 8767 b33c
00000350: 69f5 d5bc 74e7 24be 7a85 2ebe 81f6 98bd
00000360: 5be7 d5bd 1b5e ae3d d487 42bc 7c38 afbd
00000370: 9b00 153e f444 a83d 51ce e73d 4d96 2abd
00000380: 4613 a2bd 23c0 bc3d a990 f1bd 01a2 ffbd
00000390: e80a b83b ffea 82bd c172 e6bd e031 bf3d
000003a0: a477 213e 9e05 d83c 0beb 35bb 3b33 23be
000003b0: 28e5 99bd 78f5 433d ca82 b63d 0edf 953c
000003c0: f585 6fbd b743 a73d eb4a e4bd 0410 dc3d
000003d0: 4fe0 b1bd f719 f73a 51c7 28bd 304d 963c
000003e0: bb12 39bd 653e 103e 48a7 21bd 6aba 173e
000003f0: 854f ff3d b585 aebd 5951 2ebe fb26 133e

_network.3.bias f4 [32]
0.13239908 0.0018883673 0.08523381 -0.061847527 -0.15420106 0.044772483 0.05257746 -0.11556088
0.08575617 -0.1511043 0.1519689 0.17134719 0.04855719 -0.11103114 0.08573579 0.030083902
0.047927853 0.058165483 0.13475622 -0.07591195 -0.03970286 0.048194475 0.019345602 0.14293326
-0.09289112 -0.006584768 0.032960255 -0.047005385 0.119498804 0.019226925 -0.1633752 -0.019170074
00000000: a093 073e 1883 f73a 108f ae3d d553 7dbd
00000010: e2e6 1dbe 5a63 373d 765b 573d 2fab ecbd
00000020: eea0 af3d 16bb 1abe bc9d 1b3e a375 2f3e
00000030: e7e3 463d 4b64 e3bd 3f96 af3d 8472 f63c
00000040: ff4f 443d ee3e 6e3d 89fd 093e b977 9bbd
00000050: 779f 22bd 9267 453d ab7a 9e3c 195d 123e
00000060: b33d bebd 0ac5 d7bb 5501 073d b888 40bd
00000070: cabb f43d c981 9d3c d44b 27be 8f0a 9dbc

_network.4.weight f4 [32]
1.0259835 0.9855017 1.0002891 1.0081153 1.0174727 0.9840044 1.0147731 0.9846139
1.0168027 1.029122 1.0199497 1.0068758 0.98479134 1.0302771 0.9792219 1.0380241
0.98117447 0.98269606 0.97759384 1.0069883 1.0207235 1.0279968 0.98432755 0.9782831
0.9853411 0.9974997 0.97079253 0.97873443 0.9584524 1.0146906 1.0253333 1.03025
00000000: 6d53 833f d749 7c3f 7909 803f ec09 813f
00000010: 8c3c 823f b6e7 7b3f 16e4 813f a80f 7c3f
00000020: 9726 823f 45ba 833f b68d 823f 4ee1 803f
00000030: 491b 7c3f 1fe0 833f 49ae 7a3f f9dd 843f
00000040: 402e 7b3f f891 7b3f 9743 7a3f fee4 803f
00000050: 11a7 823f 6695 833f e4fc 7b3f c370 7a3f
00000060: 503f 7c3f 245c 7f3f dc85 783f 578e 7a3f
00000070: 235d 753f 62e1 813f 1f3e 833f 3bdf 833f

_network.4.bias f4 [32]
0.041690428 -0.008024667 0.025907619 0.07031174 0.026727555 -0.014421784 -0.012116569 0.014640339
0.019249244 0.01639287 0.030413581 0.012104602 0.024223344 0.018272232 -0.08690893 0.029748593
-0.045205284 0.053145662 0.09927504 0.04270062 0.038765702 -0.01546361 -0.013049043 0.002612636
-0.023078712 0.019560937 -0.002419382 0.06531804 0.043995842 0.002156033 0.015752144 0.05060742
00000000: 95c3 2a3d e579 03bc 373c d43c 9aff 8f3d
00000010: bff3 da3c 5949 6cbc 9384 46bc 08de 6f3c
00000020: 97b0 9d3c 574a 863c e725 f93c 6152 463c
00000030: 0970 c63c a6af 953c 4ffd b1bd 52b3 f33c
00000040: 2d29 39bd 44af 593d b650 cb3d d8e6 2e3d
00000050: c9c8 1e3d 155b 7dbc a7cb 55bc c238 2b3b
00000060: 910f bdbc 423e a03c 7f8e 1ebb 77c5 853d
00000070: fc34 343d 3b4c 0d3b a40a 813c ba49 4f3d

_network.4.running_mean f4 [32]
0.05873696 -0.4623725 0.039292943 -0.2403431 -0.6640317 0.058663726 0.0015014323 -0.15167186
0.027788907 -0.06438332 0.1653992 0.035373688 -0.30509856 -0.35041073 0.14565341 0.1898214
0.24115531 -0.12517253 0.036994327 -0.15733899 -0.15274253 0.4277418 0.22124647 -0.40197122
0.11501736 -0.30305442 -0.027373496 -0.08560239 0.21050762 -0.11320298 0.1164044 -0.008079133
00000000: 2b96 703d 17bc ecbe a3f1 203d 801c 76be
00000010: fbfd 29bf 6049 703d b5cb c43a de4f 1bbe
00000020: 90a5 e33c 67db 83bd 685e 293e 00e4 103d
00000030: e135 9cbe 0969 b3be 2b26 153e 8b60 423e
00000040: 6bf1 763e 3a2d 00be 5d87 173d 791d 21be
00000050: 8a68 1cbe f900 db3e 6f8e 623e 2ccf cdbe
00000060: 398e eb3d f329 9bbe 623e e0bc 4e50 afbd
00000070: 4f8f 573e f7d6 e7bd 6e65 ee3d 575e 04bc

_network.4.running_var f4 [32]
0.18957068 0.17916521 0.11022878 0.07468311 0.17347607 0.20031025 0.1007975 0.060756538
0.15689684 0.09586811 0.05611522 0.2816508 0.057886105 0.2673858 0.103340305 0.211307
0.106663324 0.07793052 0.07648519 0.18434918 0.16419336 0.12328842 0.21733668 0.12040806
0.07549144 0.21336828 0.038299605 0.15419497 0.046511285 0.092334054 0.30690455 0.18290356
00000000: d11e 423e 1677 373e a0bf e13d 75f3 983d
00000010: b6a3 313e 211e 4d3e eb6e ce3d d9db 783d
00000020: 91a9 203e 8056 c43d 13d9 653d 8934 903e
00000030: fb19 6d3d cbe6 883e 15a4 d33d dd60 583e
00000040: 4d72 da3d 099a 9f3d 44a4 9c3d 08c6 3c3e
00000050: 4e22 283e a47e fc3d 828d 5e3e 8098 f63d
00000060: 429b 9a3d 377d 5a3e 0ce0 1c3d 49e5 1d3e
00000070: 9e82 3e3d a319 bd3d 9822 9d3e 124b 3b3e

_network.6.weight f4 [32, 32]
-0.10744353 0.029847946 -0.049135886 -0.18157463 -0.050823867 -0.04393508 -0.036565494 0.15326737
-0.12723108 0.10514773 0.0035692942 -0.18178675 0.06778969 0.16232432 -0.12644948 -0.11208622
0.14001894 0.102997266 -0.12141821 0.11523308 -0.035472777 -0.20742843 0.044847813 -0.004351474
-0.07655345 0.07772051 -0.12742051 0.09165134 0.13653424 0.077946365 0.004200719 0.021210518
-0.11118053 -0.059863668 -0.036521107 -0.08729417 -0.114458434 0.13458358 0.15263145 -0.14975166
0.073643364 0.05419073 0.1977873 0.08932851 0.1418699 -0.04455605 0.13705356 0.14122356
-0.13990206 -0.08220938 0.022951925 0.0782748 -0.06760706 0.0031801679 -0.033307035 -0.014409477
-0.08501223 0.12370542 0.14359693 -0.14561032 0.036947478 -0.023005899 0.07969014 0.16437745
0.005380859 -0.08226527 0.123518944 -0.09752652 -0.021870382 -0.011749187 -0.18183045 -0.004345793
-0.08289999 0.026234036 -0.015190487 0.01536811 -0.14956407 -0.1996843 0.058869462 0.16723286
-0.1977098 0.07241184 -0.06487622 0.006053116 0.14961724 0.11765375 -0.1389707 0.13508873
0.07521475 -0.026321331 0.1508122 -0.07022086 -0.06727044 -0.09696394 0.006884694 0.049284067
0.033334266 -0.11443568 -0.07381611 0.035817306 -0.16313985 -0.020375203 0.017166391 -0.06635263
0.08521777 0.02464065 0.15409347 -0.04884688 -0.14203277 0.08209725 0.012052561 -0.04198514
-0.09582852 0.055470183 -0.17264667 0.02589678 0.07104303 -0.21230504 -0.1262928 -0.09837842
0.12675443 0.10460846 -0.00792239 0.16581945 -0.03157284 -0.22909138 0.05895682 0.0619245
0.19087729 -0.024020499 0.1652148 0.12296942 0.099071436 -0.1560555 0.16274825 -0.15585858
0.12981012 -0.029842425 -0.16411416 0.021344932 -0.043223213 -0.14613701 -0.04867642 0.01818811
0.1668529 -0.06530831 0.13092466 0.01324118 -0.008897038 0.049076904 -0.08869471 -0.13066632
-0.058997888 -0.16362175 -0.08776704 0.036463905 -0.102036975 -0.03776688 -0.017348232 -0.0002174502
-0.109373674 0.0035568592 -0.012309065 -0.028850073 -0.015054417 -0.096542284 -0.06831991 0.017100245
-0.14819066 -0.01298752 0.020768233 0.056226954 0.058750134 0.15882033 0.018307274 -0.19148308
0.06435908 -0.09352578 -0.092563905 -0.034795374 -0.06915112 -0.019879695 0.14384572 0.081267506
-0.0014688316 0.2036088 -0.11018133 0.029349102 0.08219646 0.14098708 -0.13177907 0.07652483
-0.084580004 -0.026483415 -0.058382962 -0.13416824 -0.16236617 -0.097688034 0.10768681 0.11100802
-0.18913263 -0.089307554 0.013143025 -0.14376572 0.08194838 0.17393042 0.018617665 -0.10351683
0.04442549 0.063283086 0.17003436 -0.15557894 -0.19410123 0.047571704 0.0048091277 -0.014445097
-0.06703763 -0.062181357 0.13301347 -0.04763207 0.15964366 0.11876395 0.03938471 0.008272715
0.015734544 0.08368134 -0.13536562 0.098485276 -0.043349393 0.105508946 -0.02099632 -0.052729856
0.023737948 0.060986415 -0.17910361 -0.14068095 -0.058629103 -0.06321574 0.06464855 0.11748366
-0.03615178 0.15277557 -0.051375315 -0.1241092 -0.10861981 -0.11990666 -0.15972485 -0.17504238
-0.12633304 0.031789944 0.114719115 0.17049906 0.121549666 0.024767227 0.04030316 -0.06214794
00000000: 5a0b dcbd ae83 f43c b642 49bd b3ee 39be
00000010: b02c 50bd 45f5 33bd b3c5 15bd 1ff2 1c3e
00000020: dd48 02be b157 d73d d2ea 693b 4e26 3abe
00000030: 52d5 8a3d 5938 263e f97b 01be 768d e5bd
00000040: 2061 0f3e 3bf0 d23d 1caa f8bd 52ff eb3d
00000050: e74b 11bd 1e68 54be 57b2 373d cf96 8ebb
00000060: 0ec8 9cbd ee2b 9f3d 867a 02be b3b3 bb3d
00000070: a2cf 0b3e 58a2 9f3d 2fa6 893b aec1 ad3c
00000080: 9eb2 e3bd 9b33 75bd 2897 15bd 49c7 b2bd
00000090: 2f69 eabd 47d0 093e 6b4b 1c3e 8058 19be
000000a0: 55d2 963d 19f7 5d3d c188 4a3e def1 b63d
000000b0: 5846 113e 6880 36bd c557 0c3e e99c 103e
000000c0: 7c42 0fbe 645d a8bd ad05 bc3c 8a4e a03d
000000d0: 9275 8abd 5d6a 503b f56c 08bd ba15 6cbc
000000e0: e41a aebd 4459 fd3d 130b 133e df1a 15be
000000f0: 3d56 173d de76 bcbc 9634 a33d 9052 283e
00000100: eb51 b03b b27a a8bd 80f7 fc3d fcbb c7bd
00000110: 8429 b3bc a97f 40bc c331 3abe 2767 8ebb
00000120: 78c7 a9bd c3e8 d63c 85e1 78bc 86ca 7b3c
00000130: 5327 19be 0b7a 4cbe 1b21 713d 173f 2b3e
00000140: 7074 4abe a94c 943d d3dd 84bd 3859 c63b
00000150: 4335 193e 73f4 f03d 564e 0ebe b354 0a3e
00000160: 310a 9a3d d59f d7bc 836e 1a3e f4cf 8fbd
00000170: 16c5 89bd 0895 c6bd 0099 e13b 17de 493d
00000180: 8389 083d 415d eabd e72c 97bd 2bb5 123d
00000190: 220e 27be e6e9 a6bc 88a0 8c3c e3e3 87bd
000001a0: a786 ae3d 30db c93c aeca 1d3e ab13 48bd
000001b0: 0a71 11be 9a22 a83d 1b78 453c 9cf8 2bbd
000001c0: be41 c4bd b434 633d 4aca 30be 7c25 d43c
000001d0: 027f 913d 7e66 59be e652 01be a07a c9bd
000001e0: eacb 013e f63c d63d e9cc 01bc 93cc 293e
000001f0: 8652 01bd ee96 6abe b57c 713d 8ba4 7d3d
00000200: 5675 433e a3c6 c4bc 122e 293e 64d7 fb3d
00000210: f7e5 ca3d 03cd 1fbe 7aa7 263e 6499 1fbe
00000220: f2ec 043e 1a78 f4bc 8b0d 28be 91db ae3c
00000230: d30a 31bd f1a4 15be ed60 47bd 3bff 943c
00000240: 7ddb 2a3e 5dc0 85bd 1d11 063e 89f1 583c
00000250: e2c4 11bc dd04 493d 92a5 b5bd 64cd 05be
00000260: c5a7 71bd 768c 27be 35bf b3bd 2d5b 153d
00000270: c3f8 d0bd 72b1 1abd e11d 8ebc 5803 64b9
00000280: 4eff dfbd 321a 693b f6ab 49bc fd56 ecbc
00000290: cda6 76bc f6b7 c5bd 4feb 8bbd d015 8c3c
000002a0: 4bbf 17be 9bc9 54bc 2422 aa3c 3c4e 663d
000002b0: fba3 703d cca1 223e 23f9 953c 2414 44be
000002c0: b1ce 833d 728a bfbd 2592 bdbd 9885 0ebd
000002d0: 1a9f 8dbd beda a2bc 4b4c 133e 946f a63d
000002e0: cf85 c0ba d37e 503e c0a6 e1bd 876d f03c
000002f0: 9e56 a83d eb5e 103e 18f1 06be 0db9 9c3d
00000300: 4838 adbd bff3 d8bc f922 6fbd 6663 09be
00000310: 5143 26be aa10 c8bd e78a dc3d 2c58 e33d
00000320: fcab 41be e1e6 b6bd d855 573c 5237 13be
00000330: 8dd4 a73d d11a 323e 1384 983c a200 d4bd
00000340: 81f7 353d 909a 813d 7d1d 2e3e 1650 1fbe
00000350: 79c2 46be 8cda 423d e395 9d3b 21ab 6cbc
00000360: 064b 89bd e1b1 7ebd af34 083e d819 43bd
00000370: a179 233e 843a f33d dd51 213d 488a 073c
00000380: bbe5 803c 1f61 ab3d 499d 0abe a6b2 c93d
00000390: 228f 31bd 1315 d83d 7900 acbc 43fb 57bd
000003a0: 1676 c23c e4cc 793d f066 37be ab0e 10be
000003b0: 1225 70bd 4177 81bd 7566 843d 469b f03d
000003c0: e413 14bd 3371 1c3e ec6e 52bd f72c febd
000003d0: 1074 debd 9f91 f5bd e98e 23be 4f3e 33be
000003e0: 735d 01be 2c36 023d dbf1 ea3d 4e97 2e3e
000003f0: 08ef f83d a4e4 ca3c ed14 253d d78e 7ebd

_network.6.bias f4 [32]
0.14464143 0.0878422 0.09109631 -0.16829954 -0.16574141 -0.13598035 0.055283975 -0.1529176
-0.13480185 -0.08568394 -0.1629077 0.00025587826 0.025604684 -0.103346005 0.11583993 -0.06803599
-0.04975888 0.13464247 0.1519673 -0.020194383 -0.12690042 -0.08873263 0.022353707 0.10357784
0.08820916 -0.07811036 -0.16717608 -0.15434735 -0.056400564 0.0022163156 -0.07923274 -0.14011753
00000000: e21c 143e 9de6 b33d b490 ba3d b756 2cbe
00000010: 1eb8 29be 6f3e 0bbe 7371 623d 6e96 1cbe
00000020: 7f09 0abe 107b afbd 47d1 26be 6627 8639
00000030: eac0 d13c 12a7 d3bd 7c3d ed3d 7456 8bbd
00000040: f8cf 4bbd b7df 093e 519d 1b3e b16e a5bc
00000050: 2ff2 01be 74b9 b5bd 1f1f b73c 9e20 d43d
00000060: 01a7 b43d 53f8 9fbd 3530 2bbe 3b0d 1ebe
00000070: 4704 67bd 9b3f 113b c644 a2bd f87a 0fbe

_network.7.weight f4 [32]
0.99355537 1.0099598 0.98684555 1.0037874 0.992073 0.9865697 0.9979743 0.9783651
1.0490417 1.0077744 1.0091258 1.0125659 0.99724925 0.96131384 0.9980386 0.9839437
0.99619186 1.0240337 1.0266558 1.0313185 0.98481005 0.95010066 1.0055214 0.9807722
1.0191455 0.9398772 0.97422844 1.0199809 0.9757777 1.0218002 0.9530515 1.016819
00000000: a559 7e3f 5d46 813f e9a1 7c3f 1b7c 803f
00000010: 7ff8 7d3f d58f 7c3f 3e7b 7f3f 2376 7a3f
00000020: 0047 863f c0fe 803f 092b 813f c29b 813f
00000030: ba4b 7f3f aa18 763f 757f 7f3f bce3 7b3f
00000040: 6e06 7f3f 8913 833f 7569 833f 3f02 843f
00000050: 831c 7c3f cc39 733f edb4 803f e313 7b3f
00000060: 5c73 823f cb9b 703f 0967 793f bc8e 823f
00000070: 91cc 793f 59ca 823f 2ffb 733f 2027 823f

_network.7.bias f4 [32]
-0.007597967 -0.045788586 0.03636514 0.051607784 0.030028641 -0.0014168312 0.03691452 0.07484757
-0.03813821 -0.015788581 -0.009883881 0.008337769 0.017113358 0.0075059934 0.019715585 -0.039180778
0.027203767 0.0007728792 0.060513094 0.070228495 0.032099638 -0.0465688 -0.013746942 -0.008627328
0.045981072 -0.08475404 0.04247192 -0.041169446 -0.022317175 0.0669087 -0.047489487 0.07311372
00000000: 5ef8 f8bb d08c 3bbd 9df3 143d af62 533d
00000010: a0fe f53c f7b4 b9ba ae33 173d af49 993d
00000020: d036 1cbd 0e57 81bc 00f0 21bc 239b 083c
00000030: 5031 8c3c d6f4 f53b 9482 a13c 067c 20bd
00000040: 6fda de3c 0c9b 4a3a 94dc 773d f5d3 8f3d
00000050: e97a 033d edbe 3ebd db3a 61bc a359 0dbc
00000060: a656 3c3d 8793 adbd 09f7 2d3d 4ba1 28bd
00000070: 82d2 b6bc 6e07 893d 5684 42bd a5bc 953d

_network.7.running_mean f4 [32]
0.030560656 0.32213753 -0.046817917 -0.34426957 -0.24574308 -0.18337739 -0.11483851 -0.3510057
0.38980898 0.08934307 -0.16051756 -0.041910253 -0.07427268 -0.11881937 0.41833356 0.6192829
-0.39433235 0.031935107 0.42453015 0.009942542 -0.28300187 -0.207255 -0.039226577 -0.3849318
0.13129364 0.07059828 -0.22018373 0.43776774 0.14737618 -0.18564576 -0.2209028 -0.5012382
00000000: 575a fa3c 36ef a43e 25c4 3fbd 1a44 b0be
00000010: 13a4 7bbe 48c7 3bbe 7430 ebbd 05b7 b3be
00000020: 0b95 c73e 80f9 b63d b75e 24be 16aa 2bbd
00000030: 461c 98bd 9257 f3bd d12f d63e 5389 1e3f
00000040: eee5 c9be 63ce 023d 045c d93e 0be6 223c
00000050: 9fe5 90be a83a 54be 0cac 20bd c815 c5be
00000060: d771 063e d595 903d d877 61be 1823 e03e
00000070: c8e9 163e ec19 3ebe 5834 62be 2651 00bf

_network.7.running_var f4 [32]
0.13086171 0.114959724 0.1738806 0.30203202 0.18851213 0.27777952 0.2849202 0.12143604
0.07978219 0.19683802 0.09871697 0.18747516 0.12786482 0.34873658 0.13900328 0.06508897
0.1755441 0.15845011 0.23698817 0.15462844 0.37229982 0.26417145 0.19868636 0.21609199
0.13880597 0.05565984 0.11982903 0.20623656 0.11887757 0.14312957 0.12903148 0.17120673
00000000: 9d00 063e 0170 eb3d c20d 323e f1a3 9a3e
00000010: 5309 413e 1e39 8e3e 0fe1 913e 75b3 f83d
00000020: d864 a33d e88f 493e 1f2c ca3d 7df9 3f3e
00000030: ffee 023e 9a8d b23e e056 0e3e 5e4d 853d
00000040: d5c1 333e bf40 223e 07ad 723e eb56 1e3e
00000050: 159e be3e 7b41 873e 7074 4b3e 3847 5d3e
00000060: 2723 0e3e 93fb 633d ec68 f53d ad2f 533e
00000070: 1576 f33d 8f90 123e d420 043e d150 2f3e

_network.9.weight f4 [32, 32]
0.027820429 -0.14966796 -0.11868198 -0.16152842 -0.06113483 0.1737798 0.06458516 -0.0388615
0.0633453 0.07643782 -0.018492071 -0.12436812 -0.12510255 -0.07614506 -0.0019380613 -0.14200531
-0.022927424 -0.061654154 0.14722387 0.17848311 0.09249275 -0.0361166 -0.0923237 0.052176293
-0.14798914 -0.002799368 0.032276537 -0.0551961 -0.14818323 0.032161895 0.16938315 -0.13097504
0.07054721 -0.04742766 0.013587175 -0.004631991 0.1674147 0.044553068 -0.110926844 -0.027098974
0.10173237 0.016016502 0.028298635 -0.04525875 -0.11421232 -0.0384936 -0.0943861 0.0703115
0.014798198 0.1391208 -0.016788755 0.020339616 0.13748091 0.07243167 0.013364343 0.0090247
-0.023055889 -0.17149341 0.021064634 -0.009508979 0.056857713 0.11813759 0.07701273 0.15058152
-0.11205993 0.18327822 0.09531819 0.037943736 -0.16447651 -0.08005195 -0.055092577 0.026818043
-0.17844965 0.076851 -0.11562618 -0.05646688 -0.045899943 -0.04424907 -0.16953324 -0.062101204
-0.01720452 0.080262125 0.16915011 -0.1923142 0.12157341 -0.09514949 -0.12079706 -0.036614824
-0.07789547 -0.13816337 -0.19885893 -0.0773326 0.120410755 0.114204794 -0.04814937 -0.07148374
-0.10096134 -0.13100316 -0.0320077 0.11328341 0.035138458 -0.08227739 0.18561733 -0.11225161
-0.15582052 0.041248694 -0.10723407 0.035754554 0.08687654 -0.11743642 -0.19100854 0.10339702
-0.17768086 0.120271124 -0.08202297 0.074620456 -0.103936665 -0.11821085 -0.016438728 0.045218986
0.094997965 0.14224906 -0.024223266 -0.027455082 0.011100048 -0.0450973 -0.010915271 -0.19356543
-0.123880744 0.16264208 -0.115947485 0.11979006 0.039564434 0.02755977 0.15025192 -0.16913982
0.022838917 0.068761244 0.04684134 -0.18054935 0.07708906 -0.08995067 0.037100077 0.12712742
-0.029962728 0.028609263 0.021368146 0.14300504 0.11256974 0.01806468 -0.12877382 -0.07055649
0.12575394 0.1006996 0.112376995 -0.108777806 0.18753223 -0.03218656 0.10088161 0.11367986
0.06311798 -0.07396903 0.10104791 -0.04928907 0.093871996 -0.15662082 -0.016099164 -0.12794189
-0.09521734 0.091882765 -0.12374267 -0.17510648 0.15522747 0.07762391 0.017376887 -0.095990404
-0.035719056 -0.05237482 0.12093999 -0.055109505 -0.016291805 -0.12537721 -0.062255036 0.08534383
0.12988184 0.039482348 -0.11380546 0.19248034 0.013509574 -0.04812917 -0.052764915 -0.036452327
0.05636592 0.05651491 0.1530103 -0.023926312 0.18240789 -0.10629006 -0.07941108 -0.06874749
-0.12607108 -0.1055075 -0.16254921 -0.042824734 -0.019873265 -0.05871806 -0.10546403 0.1262891
-0.054877203 0.09815807 0.1504715 -0.120456845 0.0012948947 0.08107837 0.1773097 -0.0024149138
0.14299071 -0.10690143 -0.09009634 0.13505217 0.026256494 0.20202762 -0.014005491 -0.10560493
0.13686627 0.16871965 0.0084349215 -0.06491596 0.015457424 -0.09340405 0.10243439 0.018856578
0.10720725 0.14008677 0.096861064 -0.07542448 0.12697029 0.09223779 -0.09622225 0.18768966
0.12985133 -0.020371258 -0.09794151 -0.040924158 -0.14025359 0.11936626 0.13825403 -0.058594327
0.16123274 -0.05914561 0.045824356 -0.06546789 -0.0019583113 0.120276906 0.04185535 0.013019077
00000000: abe7 e33c 8f42 19be 8a0f f3bd b567 25be
00000010: 8468 7abd 55f3 313e 3945 843d 3c2d 1fbd
00000020: 2ebb 813d 6f8b 9c3d af7c 97bc b7b4 febd
00000030: e21a 00be f1f1 9bbd 8c06 feba d769 11be
00000040: 4bd2 bbbc 1189 7cbd dbc1 163e 47c4 363e
00000050: d76c bd3d 00ef 13bd 3514 bdbd cfb6 553d
00000060: 778a 17be 9a75 37bb 6734 043d 4e15 62bd
00000070: 58bd 17be 31bc 033d c772 2d3e 521e 06be
00000080: 0e7b 903d 8243 42bd be9c 5e3c f5c7 97bb
00000090: c26e 2b3e 477d 363d 9d2d e3bd abfe ddbc
000000a0: 1059 d03d 0a35 833c 8ad2 e73c 3d61 39bd
000000b0: 26e8 e9bd 77ab 1dbd 804d c1bd 7aff 8f3d
000000c0: 2474 723c af75 0e3e 9288 89bc 449f a63c
000000d0: ccc7 0c3e 0e57 943d 1ef6 5a3c 56dc 133c
000000e0: b4df bcbc f89b 2fbe bd8f ac3c 8ccb 1bbc
000000f0: a2e3 683d 1ff2 f13d dab8 9d3d 0b32 1a3e
00000100: ad7f e5bd 49ad 3b3e 2f36 c33d e46a 1b3d
00000110: 886c 28be 47f2 a3bd c1a8 61bd 83b1 db3c
00000120: 81bb 36be 0f64 9d3d 6bcd ecbd d149 67bd
00000130: 9401 3cbd 833e 35bd 1f9a 2dbe d55d 7ebd
00000140: 7ef0 8cbc 7860 a43d b035 2d3e 03ee 44be
00000150: 7bfb f83d bcdd c2bd 7364 f7bd 6df9 15bd
00000160: a987 9fbd b37a 0dbe ada1 4bbe 8e60 9ebd
00000170: ea99 f63d 34e4 e93d 4638 45bd 1166 92bd
00000180: d2c4 cebd b125 06be 821a 03bd 2201 e83d
00000190: 58ed 0f3d 0c81 a8bd 7812 3e3e 2ce4 e5bd
000001a0: 6a8f 1fbe 64f4 283d 899d dbbd 5e73 123d
000001b0: 54ec b13d 8182 f0bd be97 43be d1c1 d33d
000001c0: f9f1 35be b550 f63d a9fb a7bd 9cd2 983d
000001d0: bfdc d4bd 8818 f2bd 83aa 86bc 8b37 393d
000001e0: 4b8e c23d bda9 113e df6f c6bc 7be9 e0bc
000001f0: fadc 353c f2b7 38bd f7d5 32bc 0436 46be
00000200: 30b5 fdbd a58b 263e e075 edbd 7e54 f53d
00000210: 510e 223d 07c5 e13c a4db 193e fd32 2dbe
00000220: ae18 bb3c b2d2 8c3d b4dc 3f3d eee1 38be
00000230: dee0 9d3d 0f38 b8bd 40f6 173d b12d 023e
00000240: 6574 f5bc f95d ea3c 400c af3c ea6f 123e
00000250: f78a e63d 61fc 933c 49dd 03be ec7f 90bd
00000260: a4c5 003e 983b ce3d e925 e63d e6c6 debd
00000270: 7308 403e 0ed6 03bd 049b ce3d fdd0 e83d
00000280: 0044 813d 137d 97bd 35f2 ce3d 56e3 49bd
00000290: f63f c03d 3561 20be 65e2 83bc 3303 03be
000002a0: 4f01 c3bd 082d bc3d cc6c fdbd 1d4f 33be
000002b0: f3f3 1e3e 49f9 9e3d f959 8e3c 9e96 c4bd
000002c0: 254e 12bd fb86 56bd 63af f73d 81ba 61bd
000002d0: 6476 85bc e262 00be 23ff 7ebd bfc8 ae3d
000002e0: bfff 043e 3eb8 213d d612 e9bd 9119 453e
000002f0: 4357 5d3c 1823 45bd 0620 58bd 094f 15bd
00000300: f3df 663d 2e7c 673d bbae 1c3e 1d01 c4bc
00000310: 22c9 3a3e 9aae d9bd 47a2 a2bd 7ccb 8cbd
00000320: c718 01be 5114 d8bd 4d73 26be fd68 2fbd
00000330: 42cd a2bc 5982 70bd 86fd d7bd ee51 013e
00000340: ebc6 60bd 1907 c93d 3315 1a3e 14b2 f6bd
00000350: 75b9 a93a 6b0c a63d ad90 353e 8843 1ebb
00000360: 286c 123e 23ef dabd 6e84 b8bd 1e4b 0a3e
00000370: dc17 d73c 54e0 4e3e 4977 65bc 6647 d8bd
00000380: ac26 0c3e d8c4 2c3e a032 0a3c a9f2 84bd
00000390: 2341 7d3c 9f4a bfbd 1fc9 d13d 1c79 9a3c
000003a0: 7a8f db3d e872 0f3e 185f c63d 2678 9abd
000003b0: 8004 023e 2be7 bc3d 2c10 c5bd b831 403e
000003c0: bff7 043e a0e1 a6bc 8f95 c8bd 17a0 27bd
000003d0: a39e 0fbe 4c76 f43d 7792 0d3e 9b00 70bd
000003e0: 321a 253e ab42 72bd 52b2 3b3d 0714 86bd
000003f0: 0357 00bb bd53 f63d 8470 2b3d f74d 553c

_network.9.bias f4 [32]
0.17404689 -0.16163568 0.16442013 -0.13873915 -0.042966787 -0.072236754 -0.094709896 0.0629095
0.10230402 -0.11599255 -0.08241268 0.09031981 -0.021440307 0.043330934 0.09239337 -0.065255076
-0.09811864 0.065089144 -0.06468475 -0.117681116 -0.08920584 -0.08195631 0.17590268 0.03398277
0.0761688 0.023771314 -0.119196616 0.12759629 -0.027154578 -0.045748204 0.14390396 -0.08981759
00000000: 5939 323e d383 25be c05d 283e a311 0ebe
00000010: f1fd 2fbd ddf0 93bd 43f7 c1bd b2d6 803d
00000020: c584 d13d 818d edbd fbc7 a8bd 98f9 b83d
00000030: 95a3 afbc c77b 313d bc38 bd3d 74a4 85bd
00000040: 6df2 c8bd 754d 853d 7079 84bd cc02 f1bd
00000050: 8db1 b6bd b6d8 a7bd d51f 343e 8431 0b3d
00000060: 63fe 9b3d 0fbc c23c 5b1d f4bd 9aa8 023e
00000070: 4773 debc 7862 3bbd 8f5b 133e 49f2 b7bd

_network.10.weight f4 [32]
0.9780811 1.0151018 0.9411816 0.96677405 1.0038111 0.9822344 0.9730105 1.0187697
0.9628834 0.99337596 1.0522506 0.9852552 0.9826356 1.0183585 0.99134696 0.9013301
0.96466357 1.023827 1.0373305 1.032995 1.0497007 0.97282374 1.0112314 0.953963
1.0202514 1.0058267 0.97972316 0.93170786 1.09259 0.9813072 0.99977267 0.97635466
00000000: 8663 7a3f dbee 813f 47f1 703f 817e 773f
00000010: e27c 803f b773 7b3f 3717 793f 0c67 823f
00000020: 877f 763f e34d 7e3f 26b0 863f af39 7c3f
00000030: 028e 7b3f 9259 823f eac8 7d3f 92bd 663f
00000040: 31f4 763f c30c 833f 3fc7 843f 2e39 843f
00000050: 985c 863f fa0a 793f 0870 813f eb36 743f
00000060: 9997 823f eebe 803f 23cf 7a3f 6884 6e3f
00000070: fdd9 8b3f f336 7b3f 1af1 7f3f 61f2 793f

_network.10.bias f4 [32]
0.04295151 0.11120022 -0.0085958 -0.021473754 -0.015355657 -0.065162614 -0.01564375 -0.0047949515
-0.03226849 0.007285113 -0.023291234 -0.030790137 -0.011060132 -0.0391511 0.021180725 -0.018593393
0.030629907 0.0010975461 0.05489058 0.028579738 0.038803767 0.017313672 0.045523714 0.020868177
0.052876208 0.029426657 0.0017198261 0.012225863 -0.12938051 0.021722892 0.076317586 -0.0152827855
00000000: eced 2f3d f1bc e33d 66d5 0cbc bae9 afbc
00000010: 4b96 7bbc fa73 85bd 5227 80bc f81e 9dbb
00000020: f72b 04bd f5b7 ee3b 42cd bebc 993b fcbc
00000030: 8e35 35bc e75c 20bd 3383 ad3c 2c51 98bc
00000040: 92eb fa3c 89db 8f3a f2d4 603d 0e20 ea3c
00000050: b3f0 1e3d 67d5 8d3c 1377 3a3d bdf3 aa3c
00000060: b994 583d 2c10 f13c ca6b e13a fc4e 483c
00000070: 537c 04be 35f4 b13c 654c 9c3d a664 7abc

_network.10.running_mean f4 [32]
-0.04448267 0.08881531 -0.27554932 -0.42638114 0.3093884 -0.18172343 -0.0068276497 0.52845585
0.18995054 0.070154704 -0.0926499 -0.2352189 0.3054948 0.42353484 -0.20653173 -0.121326566
0.031116443 0.30288404 -0.28150654 0.09375828 -0.15303586 -0.04559556 0.34063894 0.17477968
-0.05464662 0.04840533 -0.24061285 0.19824632 0.52761596 -0.25654328 0.020292569 -0.42076355
00000000: 7633 36bd cde4 b53d cd14 8dbe a14e dabe
00000010: 2868 9e3e b515 3abe 7aba dfbb e248 073f
00000020: 6582 423e 45ad 8f3d 3bbf bdbd 39dd 70be
00000030: d069 9c3e 8fd9 d83e 0e7d 53be 107a f8bd
00000040: e9e7 fe3c 9e13 9b3e a021 90be 5704 c03d
00000050: 6fb5 1cbe 69c2 3abd 3a68 ae3e 72f9 323e
00000060: 22d5 5fbd ab44 463d 3763 76be 1501 4b3e
00000070: d711 073f a459 83be 9a3c a63c 526e d7be

_network.10.running_var f4 [32]
0.19303481 0.09780452 0.2397817 0.13941859 0.22636229 0.16978325 0.18798167 0.17074089
0.1660904 0.11251503 0.20562795 0.17645296 0.22650185 0.22816014 0.20226973 0.13785279
0.2850807 0.23266028 0.2507684 0.17853709 0.18224418 0.11544157 0.12874854 0.17027119
0.14418423 0.2115987 0.32753372 0.10267969 0.2561307 0.27112576 0.18798734 0.049172685
00000000: ebaa 453e bc4d c83d 5589 753e bfc3 0e3e
00000010: 84cb 673e a9db 2d3e 447e 403e b3d6 2e3e
00000020: 9a13 2a3e 486e e63d 2290 523e 16b0 343e
00000030: 1af0 673e d0a2 693e cc1f 4f3e 4829 0d3e
00000040: 19f6 913e 7f3e 6e3e b764 803e 6dd2 363e
00000050: 389e 3a3e a16c ec3d a8d6 033e 925b 2e3e
00000060: 08a5 133e 54ad 583e 80b2 a73e bb49 d23d
00000070: 9023 833e ffd0 8a3e c17f 403e 4c69 493d

_network.12.weight f4 [32, 32]
0.05189419 -0.08966064 0.06402224 0.028618785 -0.1328267 0.12804368 0.055291425 -0.1714189
0.12774521 0.07460834 0.05210232 -0.044757634 -0.10436549 -0.05089889 0.09221752 0.07779247
-0.06485605 0.17118795 0.109924644 -0.07546245 0.08155943 -0.09868344 -0.011366288 0.13457851
-0.15067065 -0.11977405 0.0049125236 0.01267472 -0.16255951 -0.10460633 -0.023083456 -0.018079009
0.03056305 0.020637168 0.068284586 0.013902638 0.048486684 -0.027484333 0.017975563 0.119413614
-0.07149949 -0.064506434 0.09104447 -0.15243177 0.091390036 0.08083554 0.016660217 -0.06762228
0.024097357 -0.12147985 -0.17086114 0.1652055 -0.11344886 -0.12947683 -0.060732678 -0.011487291
0.007546697 -0.06928112 -0.0064320103 -0.021243345 0.19992891 0.17313075 0.099940896 0.029939916
0.12001615 -0.13039894 0.10003719 -0.07446551 0.1262286 -0.15257867 0.046189256 -0.08715201
0.11291286 -0.0053921547 0.14458641 -0.12113582 0.08661494 -0.15354936 -0.08234276 0.039738476
-0.006015693 -0.17945889 -0.17910096 -0.036367018 0.035260823 0.15227073 0.16586982 -0.04296607
-0.122644685 -0.19145939 0.16402982 -0.1017414 -0.015013146 -0.090665676 -0.09334817 0.043529924
-0.064761944 0.04546748 0.0217506 0.011063312 -0.024765484 -0.012872718 0.09336746 0.12558068
0.16787058 -0.19465369 -0.13869867 0.009685124 0.008496526 0.051404648 0.17630774 0.07375112
-0.14533444 -0.046039574 0.07813747 0.035545025 -0.1242188 -0.071743734 -0.17450038 -0.09720591
0.09837579 -0.07587727 0.09605701 -0.1349647 0.11262791 0.09579991 0.14991638 0.052766453
0.07017374 -0.10090696 -0.065458 -0.075228736 0.16721973 -0.00908935 -0.0019216039 -0.19426668
0.01821342 -0.0064177224 -0.10979412 -0.010165236 -0.17720094 -0.0018252117 -0.11737032 0.1111438
-0.09876291 0.028191205 0.12663254 -0.17887801 0.1605333 0.10580421 -0.125794 0.02017526
0.063617356 0.16630106 0.09024517 -0.11252251 -0.19861366 -0.11186148 -0.121523395 0.011641985
-0.04654314 0.12813705 -0.11386448 -0.1356182 -0.1647936 -0.074485436 0.16034704 0.03712069
-0.040527627 -0.05443148 -0.17413117 -0.057922862 0.07546548 0.09464849 0.1368282 -0.0013905267
-0.059982687 -0.118313916 0.16786833 -0.17872556 0.076955274 0.039305948 0.17405577 0.07890471
-0.049769428 -0.1659349 0.036157433 -0.08304125 -0.01595941 0.07179308 0.060356572 -0.032991406
-0.11794906 -0.15169589 -0.13281573 0.037539404 -0.07877903 0.0060277414 -0.11042217 -0.078658976
0.12814818 0.118118994 0.16453809 0.17522588 -0.12734745 -0.110466875 -0.12024408 0.07546278
0.116451 0.119263306 -0.13728984 -0.09229748 0.2054558 -0.12892294 -0.094956845 0.117278405
-0.19285357 -0.03513492 0.060854785 0.17242828 -0.014733401 -0.09436419 0.09213942 0.19738065
-0.101589575 -0.03555269 -0.12515244 -0.10362482 0.022253811 0.045843907 0.072840996 -0.25286222
-0.07548836 0.04811055 -0.08119398 -0.025245018 -0.107101195 0.13726161 -0.13321692 -0.10428918
0.11238836 -0.12241879 0.14219382 -0.12108511 -0.04586021 -0.09205954 0.10234648 0.11360019
-0.00019074682 -0.047955092 -0.05831643 -0.11419474 -0.10826796 0.083506264 -0.015087076 0.12368867
00000000: 018f 543d ff9f b7bd 181e 833d f171 ea3c
00000010: b903 08be e21d 033e 4379 623d 7088 2fbe
00000020: a4cf 023e 42cc 983d 3e69 553d c853 37bd
00000030: 93bd d5bd 5b7b 50bd 8adc bc3d a951 9f3d
00000040: 40d3 84bd e54b 2f3e 2c20 e13d 0f8c 9abd
00000050: a108 a73d 8b1a cabd ab39 3abc f3ce 093e
00000060: 6849 1abe 194c f5bd 3cf9 a03b a1a9 4f3c
00000070: 0076 26be d83b d6bd 8419 bdbc 6e1a 94bc
00000080: 5d5f fa3c 470f a93c cad8 8b3d e4c7 633c
00000090: f999 463d d326 e1bc 7d41 933c 208f f43d
000000a0: 536e 92bd f31b 84bd 8675 ba3d 1317 1cbe
000000b0: b32a bb3d 1b8d a53d 027b 883c 8d7d 8abd
000000c0: d267 c53c 6dca f8bd 39f6 2ebe a12b 293e
000000d0: e057 e8bd 9395 04be d4c2 78bd 3135 3cbc
000000e0: 484a f73b 43e3 8dbd 9dc3 d2bb 8606 aebc
000000f0: 2aba 4c3e 3049 313e d0ad cc3d 8e44 f53c
00000100: 07cb f53d 4d87 05be 4ce0 cc3d 6081 98bd
00000110: 1242 013e 953d 1cbe f230 3d3d c17c b2bd
00000120: dc3e e73d acb0 b0bb 760e 143e 0f16 f8bd
00000130: 2c63 b13d 0b3c 1dbe 52a3 a8bd d0c4 223d
00000140: 4a1f c5bb 12c4 37be 3e66 37be 95f5 14bd
00000150: a76d 103d dcec 1b3e c7d9 293e 31fd 2fbd
00000160: 232d fbbd ee0d 44be 6ff7 273e cc5d d0bd
00000170: b3f9 75bc edae b9bd 532d bfbd 6f4c 323d
00000180: e9a1 84bd 1c3c 3a3d 502e b23c e542 353c
00000190: fce0 cabc 18e8 52bc 7037 bf3d 3998 003e
000001a0: 44e6 2b3e 4c53 47be 0607 0ebe 5bae 1e3c
000001b0: 0335 0b3c ae8d 523d 048a 343e d40a 973d
000001c0: 8dd2 14be fe93 3cbd 8a06 a03d a997 113d
000001d0: 6d66 febd 61ee 92bd 3ab0 32be e413 c7bd
000001e0: 3f79 c93d 8b65 9bbd 8ab9 c43d 3034 0abe
000001f0: 76a9 e63d be32 c43d ae83 193e a321 583d
00000200: 40b7 8f3d 4fa8 cebd d80e 86bd 8611 9abd
00000210: a63b 2b3e 7feb 14bc 54de fbba d8ed 46be
00000220: 4f34 953c c24b d2bb bddb e0bd 178c 26bc
00000230: 2a74 35be f13b efba da5f f0bd 5c9f e33d
00000240: 3544 cabd 3ef1 e63c f6ab 013e cc2b 37be
00000250: d762 243e e1af d83d 24d0 00be 9646 a53c
00000260: d149 823d d34a 2a3e 76d2 b83d 3472 e6bd
00000270: 6161 4bbe a217 e5bd 42e1 f8bd 06be 3e3c
00000280: 05a4 3ebd 5c36 033e c831 e9bd 7fdf 0abe
00000290: a7bf 28be d28b 98bd 0432 243e dd0b 183d
000002a0: 4c00 26bd 8bf3 5ebd 714f 32be 8640 6dbd
000002b0: a58d 9a3d 11d7 c13d b11c 0c3e 5542 b6ba
000002c0: 68b0 75bd 914e f2bd ade5 2b3e d503 37be
000002d0: ba9a 9d3d 46ff 203d ad3b 323e cb98 a13d
000002e0: 07db 4bbd d7ea 29be d119 143d 8811 aabd
000002f0: 4fbd 82bc 4008 933d 7438 773d ff21 07bd
00000300: 478f f1bd 2b56 1bbe d900 08be ebc2 193d
00000310: e656 a1bd 5c84 c53b 0525 e2bd f517 a1bd
00000320: 4739 033e 5fe8 f13d ac7c 283e 6a6e 333e
00000330: 5f67 02be 753c e2bd 8742 f6bd 3b8c 9a3d
00000340: dd7d ee3d 5240 f43d b595 0cbe 7606 bdbd
00000350: 0163 523e 6004 04be bc78 c2bd a92f f03d
00000360: 687b 45be a2e9 0fbd de42 793d 0a91 303e
00000370: 5d64 71bc 0342 c1bd 98b3 bc3d 271e 4a3e
00000380: 320e d0bd b39f 11bd f627 00be 4039 d4bd
00000390: a04d b63c d2c6 3b3d a92d 953d 2877 81be
000003a0: a499 9abd 910f 453d 0849 a6bd a4ce cebc
000003b0: df57 dbbd 4f8e 0c3e 046a 08be 9195 d5bd
000003c0: de2b e63d b4b6 fabd 429b 113e 78fb f7bd
000003d0: ead7 3bbd b689 bcbd 089b d13d 37a7 e83d
000003e0: 3603 48b9 8f6c 44bd 35dd 6ebd efde e9bd
000003f0: 98bb ddbd 5505 ab3d c92f 77bc 7c50 fd3d

_network.12.bias f4 [32]
0.07399222 -0.15834571 -0.008604042 -0.07611089 -0.028650483 0.098822646 -0.018478554 -0.12602854
0.1251656 -0.16103366 -0.06070819 0.06712532 0.15595815 0.17127386 -0.043441113 0.060419388
-0.15512559 -0.034558393 -0.056671277 0.05062806 -0.11564268 0.036903188 0.09095819 0.13944392
-0.027672479 0.16257454 -0.1666955 -0.050099753 0.067546226 0.045289118 0.08467464 -0.11956757
00000000: 3c89 973d 6125 22be f8f7 0cbc 07e0 9bbd
00000010: 6bb4 eabc 8763 ca3d 5660 97bc a00d 01be
00000020: 692b 003e 02e6 24be 27a9 78bd 0079 893d
00000030: 7eb3 1f3e 6a62 2f3e 4fef 31bd 527a 773d
00000040: 3ed9 1ebe 1a8d 0dbd 2420 68bd 5e5f 4f3d
00000050: 12d6 ecbd cc27 173d 4a48 ba3d 63ca 0e3e
00000060: 65b1 e2bc f179 263e 3ab2 2abe 6635 4dbd
00000070: ad55 8a3d 1581 393d e669 ad3d d8df f4bd

_network.13.weight f4 [32]
1.0269092 0.97459084 0.9681056 1.006319 0.96976894 0.96959805 0.96658856 1.026917
1.0280253 0.97139794 1.0290964 0.9705248 0.9710453 0.9649781 0.96653223 1.0219038
0.9725852 0.9741328 0.96676886 1.0292914 0.97915965 0.9693345 1.0288562 1.0233394
0.96612597 1.0263793 0.978704 1.0369371 1.0310564 0.9764554 1.0250239 1.0256525
00000000: c371 833f c97e 793f c5d5 773f 10cf 803f
00000010: c742 783f 9437 783f 5972 773f 0472 833f
00000020: 5596 833f 89ad 783f 6eb9 833f 5074 783f
00000030: 6d96 783f ce08 773f a86e 773f becd 823f
00000040: 58fb 783f c460 793f 2a7e 773f d2bf 833f
00000050: 35aa 7a3f 4e26 783f 8fb1 833f c9fc 823f
00000060: 0854 773f 6660 833f 588c 7a3f 5bba 843f
00000070: a8f9 833f fbf8 793f fc33 833f 9548 833f

_network.13.bias f4 [32]
0.03435039 -0.029075246 -0.03265889 0.008729795 -0.03126312 -0.03077809 -0.030919297 0.029582953
0.04391647 -0.029119153 0.022981662 -0.02784685 -0.026865387 -0.02842438 -0.031862028 0.037176337
-0.03126228 -0.02717403 -0.030212855 0.039647818 -0.021365391 -0.030518062 0.031447027 0.037879847
-0.02784962 0.03475385 -0.022551272 0.035553392 0.03315609 -0.02384394 0.031831652 0.031802535
00000000: ffb2 0c3d 362f eebc 54c5 05bd 6a07 0f3c
00000010: c20d 00bd 5522 fcbc 774a fdbc f357 f23c
00000020: c2e1 333d 4a8b eebc 0a44 bc3c 141f e4bc
00000030: cd14 dcbc 3fda e8bc c281 02bd 3746 183d
00000040: e00c 00bd 129c debc f380 f7bc c065 223d
00000050: 7906 afbc 0401 fabc 99ce 003d e627 1b3d
00000060: e324 e4bc 0e5a 0e3d 72bd b8bc 6fa0 113d
00000070: aece 073d 5e54 c3bc e861 023d 6043 023d

_network.13.running_mean f4 [32]
0.012676585 -0.09847392 -0.21571672 -0.023049036 -0.26959592 0.039810482 -0.005764039 -0.4528842
0.197639 -0.21968013 -0.3825301 0.23635675 0.00753515 0.14383942 0.19519562 -0.020016938
-0.3319299 0.044718504 0.051017493 0.10060181 0.00095247244 0.4238889 -0.09649262 0.07877219
-0.1981994 0.33559194 -0.23949532 -0.029800091 0.04247901 -0.09695021 0.2231067 -0.4748946
00000000: 73b1 4f3c b2ac c9bd d8e4 5cbe 55d1 bcbc
00000010: 7a08 8abe 5110 233d 43e0 bcbb 70e0 e7be
00000020: e161 4a3e d4f3 60be fcda c3be 8107 723e
00000030: 6be9 f63b a44a 133e 5ce1 473e 90fa a3bc
00000040: b7f2 a9be c02a 373d b8f7 503d 5208 ce3d
00000050: 58af 793a f707 d93e ec9d c5bd 5053 a13d
00000060: c9f4 4abe b5d2 ab3e 433e 75be 521f f4bc
00000070: 78fe 2d3d d58d c6bd 1576 643e 6325 f3be

_network.13.running_var f4 [32]
0.16425116 0.115436345 0.343948 0.30000845 0.32742587 0.3550087 0.3997241 0.19640617
0.16533203 0.123554185 0.3329862 0.347455 0.2896737 0.17403261 0.13396849 0.14914857
0.08022393 0.1250906 0.12667459 0.09645546 0.13870029 0.14057828 0.40415004 0.26838312
0.1519339 0.29501638 0.13838795 0.05147771 0.37165114 0.19798087 0.28527528 0.1770148
00000000: 7531 283e e469 ec3d f419 b03e b59a 993e
00000010: 5da4 a73e b3c3 b53e a3a8 cc3e b31e 493e
00000020: cd4c 293e fa09 fd3d 2b7d aa3e 9fe5 b13e
00000030: 1c50 943e 9b35 323e 092f 093e 67ba 183e
00000040: 724c a43d c017 003e fcb6 013e 718a c53d
00000050: 7307 0e3e c1f3 0f3e c1ec ce3e 8369 893e
00000060: 8f94 1b3e 630c 973e 92b5 0d3e 4bda 523d
00000070: 0f49 be3e 7fbb 4a3e 9a0f 923e 5e43 353e

_network.15.weight f4 [1, 32]
0.13557445 -0.14019585 -0.08742312 0.018825967 -0.14081617 -0.13677354 -0.12206139 0.1688408
0.06581826 -0.022411041 0.024550552 -0.12361862 -0.13718109 -0.085378215 -0.1363423 0.13860576
-0.031048285 -0.018070946 -0.11744018 0.056387108 -0.00048382368 -0.08789564 0.14168094 0.17267916
-0.0897237 0.12627289 0.002136399 0.02830162 0.10504421 -0.0031256473 0.17530872 0.1342428
00000000: 07d4 0a3e 808f 0fbe e50a b3bd ea38 9a3c
00000010: 1d32 10be 5d0e 0cbe 52fb f9bd 9ae4 2c3e
00000020: b9cb 863d 5c97 b7bc 3d1e c93c c22b fdbd
00000030: 3379 0cbe c6da aebd 519d 0bbe abee 0d3e
00000040: f958 febc 8509 94bc 7a84 f0bd 2bf6 663d
00000050: b7a9 fdb9 a102 b4bd cf14 113e ced2 303e
00000060: 0fc1 b7bd ae4d 013e d402 0c3b cdd8 e73c
00000070: 6b21 d73d a9d7 4cbb 2184 333e f276 093e
