transformers/results/informer/month_10_October/informer_model_20251121_014725.pt (torch, 859750 bytes, 56 tensors)

input_embedding.weight f4 [36, 8]
00000000: ddfa bdbd a55b 573c 007f d63c 2230 8a3a
00000010: f683 ef3b 007f d63c 9a51 583a 8f22 c9bd
00000020: ccb1 aa38 6b82 86ba 5269 ca3b 59ed a13b
00000030: 0a8d b13b 5269 ca3b b909 373c f381 6b38
00000040: 2c1f 5d3a 83ab 48bc 0b51 303b f532 18bc
00000050: caa5 aeb8 0b51 303b 9c4d 70ba f9ea 743a
00000060: 47a9 1e3b 8c32 07bc 0f33 57bb 9e83 9abb
00000070: 6118 913a 0f33 57bb 5796 0dba 7216 243b
00000080: 8e86 9b3a 5b43 1fbc ea59 bf3a 0ce6 efbb
00000090: 1c3a 343a ea59 bf3a 13c5 b7ba 6ecb a13a
000000a0: 4c92 b1b8 68b8 23bc 9c9a 9db9 39da e5bb
000000b0: 477d 8c39 9c9a 9db9 61a2 92ba 6fe9 b4b8
000000c0: 371a 913a c227 4bbc 8420 543a 3a5f 2bbc
000000d0: 21ef f8ba 8420 543a cf98 53bb b1be 973a
000000e0: 8d40 803a 553b 1cbc 6a21 8f3a 8f84 e4bb
000000f0: bab0 923a 6a21 8f3a 2965 9eba a0f7 853a
00000100: 1baa 193a c358 62bc 8e06 c0b9 223b 42bc
00000110: 244b 4dbb 8e06 c0b9 ce57 8cbb bb1d 223a
00000120: b445 d73a 9c15 3cbc 7052 113b 0d14 1cbc
00000130: 6712 d5b9 7052 113b 2260 0ebb 635b e13a
00000140: f0f1 1bbe 65a4 e53b ff9f b43c 0ef0 0ab9
00000150: 538b 5bbb 9878 b43c 725b 553a 388d 25be
00000160: 5e62 153b b2c0 4dbc c783 223b a15b 2fbc
00000170: 8869 9aba c783 223b 7cde 32bb 9a3f 1c3b
00000180: 513d 9c39 0370 97bc ff1c 7cbb 9f18 84bc
00000190: f914 8dbb ff1c 7cbb 7575 0fbc 0d17 bd39
000001a0: b017 303b 922b 4ebc b206 4f3b b415 30bc
000001b0: ccaf 8fba b206 4f3b 7e62 1ebb ae57 383b
000001c0: 783e fa3a 232a a7bc cd07 b2bb 200d 8fbc
000001d0: 7910 74bb cd07 b2bb 2b48 29bc 0c60 083b
000001e0: 5a7b 393b 9ee5 50bc a098 4c3b 9ba0 32bc
000001f0: fde9 a2ba a098 4c3b 192b 24bb 9e0e 423b
00000200: 7909 503b 6160 98bc eb73 babb 54cc 78bc
00000210: 3a07 0fbb eb73 babb 45fc 0ebc cfb0 5e3b
00000220: f39d 303b 2cbd 56bc f86e 4c3b dea4 38bc
00000230: 162b b7ba f86e 4c3b 1d0e 31bb 7689 393b
00000240: 9feb 843b 9b52 8abc 2c84 b7bb a71d 58bc
00000250: fbea 69ba 2c84 b7bb 81eb efbb a802 8d3b
00000260: e20d 343b 1493 55bc 3e92 543b f84e 37bc
00000270: edf1 a0ba 3e92 543b bd44 28bb 2730 3d3b
00000280: b242 133e eb99 71bc 5863 b63c 275b 86bc
00000290: 16f1 073c a28c b53c 3eb4 0d39 2322 163e
000002a0: 86d3 323b 8fee 54bc 60f8 4d3b 3d37 36bc
000002b0: 9927 a7ba 60f8 4d3b e2ec 28bb cca4 3b3b
000002c0: e95b b7be 299c f43c f99d d33c e55f 2cbb
000002d0: 9efa 7b3a 249b b83c 39e6 d1ba c8f6 a1be
000002e0: 475d 383b 850c 55bc c981 573b 6083 36bc
000002f0: 7e7e 99ba c981 573b e246 25bb 7455 413b
00000300: 1bd3 aa3d 6fac 713c 3b67 843c da1f b73b
00000310: 4447 523c 4667 843c a6b3 973a 12d1 b03d
00000320: 83e4 333b 7d72 55bc e973 463b 41cf 36bc
00000330: 788c acba e973 463b 7ea3 32bb 387b 3c3b
00000340: b6ed 943b d043 74bc b877 adbb 1d93 31bc
00000350: 2060 233a b877 adbb 88d9 b4bb 31b1 9d3b
00000360: 1aa5 333b 39bf 54bc 5f0a 533b 8186 36bc
00000370: 946d 9eba 5f0a 533b c962 29bb a7c2 3c3b
00000380: 8de2 0bbc 4d73 ea39 a4d1 a7bb 4c31 0cbb
00000390: c8cc efba 6a3a a8bb c699 7738 6474 8a3b
000003a0: 0b22 373b a951 53bc 1183 493b 4925 35bc
000003b0: a36a a5ba 1183 493b d5e5 27bb d7d2 3f3b
000003c0: 96c8 913b 41d8 75bc 008c aebb c480 34bc
000003d0: e0d6 fe39 008c aebb d0b0 b2bb 5177 9a3b
000003e0: c016 3b3b 0ae5 54bc eecc 5b3b 1935 35bc
000003f0: 0bb6 89ba eecc 5b3b ccee 1fbb 2b5e 443b
-0.09276364 0.013144408 0.026183605 0.0010542909 0.007309432 0.026183605 0.00082519057 -0.09821045
8.139349e-05 -0.0010262256 0.006177106 0.004941624 0.0054184245 0.006177106 0.011171752 5.614939e-05
0.0008435126 -0.012247923 0.0026903774 -0.009289493 -8.327847e-05 0.0026903774 -0.0009166838 0.0009342875
0.0024209784 -0.008251797 -0.003283683 -0.004715397 0.0011069888 -0.003283683 -0.00054011255 0.0025037793
0.0011865662 -0.009720649 0.001459894 -0.007321125 0.0006875114 0.001459894 -0.0014020525 0.0012343952
-8.4672676e-05 -0.009992696 -0.00030060566 -0.0070145396 0.0002679622 -0.00030060566 -0.0011187309 -8.626549e-05
0.0011070435 -0.012399616 0.00080920034 -0.0104597155 -0.0018992164 0.00080920034 -0.0032287126 0.0011577216
0.0009784863 -0.00953563 0.0010919992 -0.00697381 0.0011191585 0.0010919992 -0.0012084591 0.0010220893
0.00058618345 -0.013815108 -0.00036625977 -0.011854919 -0.0031325305 -0.00036625977 -0.004282928 0.000618424
0.0016423971 -0.011479761 0.002217438 -0.009526265 -0.00040640237 0.002217438 -0.002172478 0.0017193373
-0.1522901 0.0070081227 0.022048948 -0.00013250133 -0.0033499792 0.02203016 0.00081389316 -0.16167152
0.0022794227 -0.012558149 0.0024797784 -0.010702998 -0.0011780718 0.0024797784 -0.0027293256 0.002384162
0.00029800323 -0.018486029 -0.0038469431 -0.016125022 -0.0043054787 -0.0038469431 -0.008756031 0.00036066063
0.0026869588 -0.01258363 0.0031589684 -0.010747362 -0.0010962426 0.0031589684 -0.0024167593 0.0028128433
0.0019092103 -0.020405835 -0.005433059 -0.017462313 -0.0037241264 -0.005433059 -0.010332148 0.0020809202
0.0028302283 -0.0127500575 0.0031218901 -0.010902549 -0.0012429353 0.0031218901 -0.0025050102 0.0029610763
0.0031743927 -0.018600645 -0.005690088 -0.015185434 -0.0021824376 -0.005690088 -0.008727138 0.0033979898
0.0026949614 -0.0131066255 0.0031194072 -0.011269776 -0.0013974633 0.0031194072 -0.0027016469 0.0028310693
0.0040564085 -0.016885092 -0.005600473 -0.013190663 -0.00089232594 -0.005600473 -0.0073217754 0.004303295
0.0027474095 -0.013035554 0.00324358 -0.011188261 -0.0012279131 0.00324358 -0.0025675737 0.0028867812
0.14380911 -0.01474617 0.022264168 -0.016400887 0.008297225 0.022161786 0.00013513953 0.1466146
0.0027286722 -0.01299633 0.003142856 -0.011121568 -0.001275289 0.003142856 -0.0025775959 0.0028632162
-0.3581231 0.02985962 0.025832163 -0.0026302275 0.0009612235 0.022534914 -0.0016014046 -0.31633592
0.002813177 -0.013003473 0.0032883754 -0.011139721 -0.0011710671 0.0032883754 -0.0025219251 0.0029500397
0.083410464 0.014750584 0.016162505 0.005588514 0.012834374 0.016162526 0.0011573925 0.08633627
0.0027449436 -0.013027784 0.003028149 -0.011157812 -0.0013164422 0.003028149 -0.0027258093 0.0028759968
0.004544939 -0.014908746 -0.0052938126 -0.010838297 0.000623228 -0.0052938126 -0.005519096 0.0048123826
0.002741164 -0.012985044 0.0032202227 -0.011140467 -0.00120871 0.0032202227 -0.0025846234 0.0028802545
-0.008537901 0.00044717864 -0.0051214267 -0.0021391688 -0.0018295282 -0.0051339166 5.90326e-05 0.0042253006
0.0027943875 -0.012897887 0.0030748288 -0.011056253 -0.0012620281 0.0030748288 -0.0025619168 0.0029269957
0.0044489605 -0.015005172 -0.005326748 -0.011017028 0.0004860675 -0.005326748 -0.0054532066 0.0047139307
0.0028547496 -0.01299406 0.0033538896 -0.011060023 -0.0010506524 0.0033538896 -0.0024403809 0.0029963355

input_embedding.bias f4 [36]
00000000: a119 b9bd c8ce b93b 7b44 2dbc b3a9 b7bb
00000010: 9775 fcbb eb29 0abc e3d9 59bc 1232 ecbb
00000020: ba9c 82bc dbbb 38bc 6390 03be c266 55bc
00000030: ab3a afbc 5134 58bc 8e2d b4bc a103 5ebc
00000040: ea51 94bc f8e4 64bc df6f 76bc a081 62bc
00000050: 1be2 b5bd cd0d 62bc 2538 4f3e 0a7e 60bc
00000060: b9a1 b9bd ec29 62bc 625e 3bbc e17a 61bc
00000070: 2440 d53a 44e5 60bc 56cf 3dbc 5917 60bc
00000080: 9f18 b5ba c936 63bc d223 3ebc c792 60bc
-0.090380915 0.005670402 -0.010575409 -0.0056049465 -0.0077044475 -0.008432846 -0.013296577 -0.0072081173
-0.015943874 -0.011275257 -0.12848048 -0.013024988 -0.02139028 -0.013196067 -0.021994378 -0.01355067
-0.018105466 -0.013970606 -0.015041321 -0.01382485 -0.08881017 -0.013797236 0.20236261 -0.013701925
-0.09064049 -0.01380394 -0.011436077 -0.013762207 0.0016269726 -0.013726536 -0.011585077 -0.0136774415
-0.0013816542 -0.013868042 -0.01160522 -0.013706869

pos_encoder.pe f4 [1, 5000, 36]
00000000: 0000 0000 0000 803f 0000 0000 0000 803f
00000010: 0000 0000 0000 803f 0000 0000 0000 803f
00000020: 0000 0000 0000 803f 0000 0000 0000 803f
00000030: 0000 0000 0000 803f 0000 0000 0000 803f
00000040: 0000 0000 0000 803f 0000 0000 0000 803f
00000050: 0000 0000 0000 803f 0000 0000 0000 803f
00000060: 0000 0000 0000 803f 0000 0000 0000 803f
00000070: 0000 0000 0000 803f 0000 0000 0000 803f
00000080: 0000 0000 0000 803f 0000 0000 0000 803f
00000090: a46a 573f 4151 0a3f 8270 103f 465c 533f
000000a0: 6511 b43e 34a5 6f3f 53e9 5a3e eb14 7a3f
000000b0: 27e3 033e 28de 7d3f 2c69 9e3d a93b 7f3f
000000c0: 210d 3e3d 6ab9 7f3f fcea e33c a1e6 7f3f
000000d0: fda4 883c e2f6 7f3f 5cd6 233c b9fc 7f3f
000000e0: 1770 c43b d3fe 7f3f 1586 6b3b 94ff 7f3f
000000f0: 6931 0d3b d9ff 7f3f 3749 a93a f2ff 7f3f
00000100: faf7 4a3a fbff 7f3f 5c5a f339 feff 7f3f
00000110: e5e2 9139 ffff 7f3f c3e9 2e39 0000 803f
00000120: b7c7 683f 3311 d5be 9681 6e3f f004 ba3e
00000130: 7190 283f c5ab 403f bed9 d53e b999 683f
00000140: f1c9 823e b881 773f aeef 1d3e d0ef 7c3f
00000150: bad8 bd3d d1e5 7e3f 66d4 633d 8b9a 7f3f
00000160: 1fa0 083d 88db 7f3f 43d4 a33c e5f2 7f3f
00000170: 306f 443c 4afb 7f3f b185 eb3b 4ffe 7f3f
00000180: 5331 8d3b 64ff 7f3f 2e49 293b c8ff 7f3f
00000190: f6f7 ca3a ecff 7f3f 5b5a 733a f9ff 7f3f
000001a0: e5e2 113a fdff 7f3f c3e9 ae39 ffff 7f3f
000001b0: c381 103e 2670 7dbf 0a65 793f a01c 67be
000001c0: 8f8e 613f 6428 f23e c82d 1a3f 565d 4c3f
000001d0: 9274 c13e cf05 6d3f 82b8 6b3e fc1f 793f
000001e0: 1a21 0e3e a885 7d3f 13c3 aa3d cb1b 7f3f
000001f0: 04e4 4c3d f5ad 7f3f 26b9 f53c 83e2 7f3f
00000200: 4352 933c 67f5 7f3f c8a3 303c 31fc 7f3f
00000210: c7c9 d33b a2fe 7f3f aded 7d3b 82ff 7f3f
00000220: f339 183b d3ff 7f3f c283 b63a f0ff 7f3f
00000230: 56d4 5a3a faff 7f3f 522f 033a feff 7f3f
00000240: cfbd 41bf 3055 27bf c14e 2d3f 696a 3cbf
00000250: ddba 7d3f d210 083e be4d 423f f8ad 263f
00000260: 3be6 fc3e 2497 5e3f e20b 9c3e 05d2 733f
00000270: 7607 3d3e b299 7b3f 1b7a e33d 7b6a 7e3f
00000280: a88c 883d 2b6e 7f3f e0cb 233d 94cb 7f3f
00000290: 926b c43c 29ed 7f3f 2284 6b3c 3bf9 7f3f
000002a0: fd30 0d3c 91fd 7f3f 0949 a93b 20ff 7f3f
000002b0: e6f7 4a3b b0ff 7f3f 545a f33a e3ff 7f3f
000002c0: e3e2 913a f6ff 7f3f c2e9 2e3a fcff 7f3f
000002d0: 107c 75bf 2c3c 913e e01e 133e 1558 7dbf
000002e0: d47b 793f c391 65be d071 613f 6093 f23e
000002f0: b610 1a3f 4173 4c3f 264c c13e 0e0e 6d3f
00000300: 9685 6b3e fe22 793f 0602 0e3e bf86 7d3f
00000310: 959d aa3d 2f1c 7f3f fbb6 4c3d 19ae 7f3f
00000320: 1383 f53c 90e2 7f3f db31 933c 6bf5 7f3f
00000330: ec7c 303c 33fc 7f3f 289b d33b a2fe 7f3f
00000340: d0b5 7d3b 82ff 7f3f 7118 183b d3ff 7f3f
00000350: 9a5b b63a f0ff 7f3f 32a4 5a3a faff 7f3f
00000360: 8c0f 8fbe b8cd 753f 0f26 e1be 6aeb 65bf
00000370: 5a5c 553f ce77 0dbf 6429 763f 8b93 8c3e
00000380: 4f1d 333f 83e7 363f ea63 e53e 77de 643f
00000390: ecc0 8c3e e822 763f da2a 2a3e c370 7c3f
000003a0: 5aa2 cc3d 08b8 7e3f d89c 753d 128a 7f3f
000003b0: 294c 133d 9cd5 7f3f 27a1 b03c c4f0 7f3f
000003c0: a5c8 533c 86fa 7f3f 30ed fd3b 08fe 7f3f
000003d0: d839 983b 4bff 7f3f b783 363b bfff 7f3f
000003e0: 51d4 da3a e9ff 7f3f 512f 833a f8ff 7f3f
000003f0: 4630 283f bdff 403f 38ab 5ebf 7d9f fcbe
0.0 1.0 0.0 1.0 0.0 1.0 0.0 1.0
0.0 1.0 0.0 1.0 0.0 1.0 0.0 1.0
0.0 1.0 0.0 1.0 0.0 1.0 0.0 1.0
0.0 1.0 0.0 1.0 0.0 1.0 0.0 1.0
0.0 1.0 0.0 1.0 0.84147096 0.54030234 0.56421673 0.82562673
0.3516952 0.93611455 0.21378069 0.9768817 0.1287962 0.9916711 0.07734904 0.9970041
0.04639924 0.99892294 0.02782201 0.99961287 0.016680235 0.9998609 0.009999838 0.99995
0.0059948075 0.99998206 0.0035938073 0.99999356 0.0021544343 0.9999977 0.0012915496 0.99999917
0.000774264 0.9999997 0.00046415895 0.9999999 0.00027825605 0.99999994 0.00016681016 1.0
0.9092974 -0.41614684 0.9316648 0.36331892 0.658454 0.752621 0.41767687 0.9085956
0.25544694 0.9668231 0.15423462 0.98803425 0.09269853 0.9956942 0.05562248 0.9984519
0.03335583 0.99944353 0.019998675 0.9998 0.0119894 0.9999281 0.007187568 0.9999742
0.0043088584 0.9999907 0.0025830972 0.99999666 0.0015485275 0.9999988 0.00092831784 0.9999996
0.0005565121 0.9999998 0.00033362032 0.99999994 0.14112 -0.9899925 0.974198 -0.22569513
0.8810815 0.4729644 0.60226107 0.7982992 0.3778425 0.9258699 0.23019603 0.9731443
0.13879815 0.9903207 0.08337989 0.99651784 0.05002214 0.9987481 0.029995512 0.99955004
0.017983561 0.9998383 0.010781236 0.9999419 0.0064632627 0.99997914 0.0038746402 0.9999925
0.00232279 0.9999973 0.0013924765 0.99999905 0.00083476806 0.99999964 0.00050043047 0.9999999
-0.7568025 -0.6536436 0.67698294 -0.7359987 0.99113256 0.13287666 0.75899875 0.65109205
0.49394402 0.8694937 0.30477816 0.9524234 0.18459877 0.98281395 0.11107274 0.99381226
0.06667453 0.9977748 0.039989352 0.9992001 0.023977075 0.9997125 0.014374765 0.9998967
0.008617637 0.99996287 0.005166177 0.99998665 0.0030970513 0.99999523 0.0018566349 0.9999983
0.001113024 0.9999994 0.0006672406 0.99999976 -0.9589243 0.2836622 0.14367247 -0.9896253
0.9745457 -0.22418885 0.8806429 0.47378063 0.6018175 0.79863364 0.3775341 0.9259957
0.23000178 0.9731902 0.1386796 0.9903373 0.08330838 0.9965238 0.04997919 0.99875027
0.029969728 0.9995508 0.017968109 0.99983853 0.010771971 0.999942 0.006457705 0.99997914
0.0038713105 0.9999925 0.0023207928 0.9999973 0.0013912797 0.99999905 0.0008340507 0.99999964
-0.2794155 0.96017027 -0.4397435 -0.8981234 0.8334404 -0.5526093 0.9615691 0.27456316
0.69966596 0.7144701 0.4480279 0.89401954 0.27490938 0.9614701 0.16617909 0.9860956
0.099919036 0.9949956 0.05996403 0.99820054 0.035961304 0.9993532 0.021561218 0.99976754
0.012926255 0.99991643 0.007749222 0.99996996 0.0046455674 0.9999892 0.0027849504 0.9999961
0.0016695355 0.9999986 0.0010008608 0.9999995 0.6569866 0.75390226 -0.8698001 -0.4934043

encoder_layers.0.attention.query_projection.weight f4 [36, 36]
00000000: 538a 0000 968a 0000 1c63 0000 248a 0000
00000010: 5b89 0000 2faf 0080 f488 0080 b08c 0000
00000020: c165 0000 a48b 0000 188f 0000 4a89 0000
00000030: ef8d 0000 a98c 0080 876f 0080 628c 0080
00000040: 0e8d 0080 718b 0080 f38b 0080 aa8a 0080
00000050: 9e8a 0000 848b 0080 2789 0080 9b89 0000
00000060: 238d 0000 1b8c 0000 258f 0080 be88 0080
00000070: 2a8b 0080 c688 0000 f588 0000 ad8a 0080
00000080: 2f8f 0000 e38b 0080 5d8b 0080 ca88 0080
00000090: bf88 0000 308a 0000 f543 0000 0a8e 0000
000000a0: d48d 0080 7b8d 0080 6a8b 0000 488b 0000
000000b0: bd8a 0000 928c 0080 0d8b 0000 708b 0000
000000c0: 7a8b 0000 9710 0000 bd6b 0080 2a8d 0000
000000d0: 2c8e 0080 e289 0000 3b8a 0000 1a8a 0080
000000e0: a289 0080 5489 0080 898d 0000 8389 0080
000000f0: e694 0080 1d89 0080 5a41 0080 b389 0000
00000100: 3091 0000 d588 0000 358e 0080 e888 0000
00000110: 9f67 0000 1c89 0080 6c6f 0000 8b89 0000
00000120: 838a 0080 2626 0080 718c 0000 478c 0000
00000130: 0489 0000 4289 0080 458b 0000 098d 0000
00000140: 2f7b 0080 4a8a 0000 2c68 0080 4c9e 0080
00000150: 1a8b 0080 2074 0000 ec88 0000 4f66 0080
00000160: 2d8b 0000 6a89 0000 a28a 0080 6089 0000
00000170: 4e8f 0080 7f89 0000 0689 0080 4e89 0080
00000180: a396 0080 4689 0000 7583 0080 6089 0080
00000190: 668a 0000 e588 0080 f181 0000 208a 0080
000001a0: 878c 0080 ac89 0080 f78a 0000 e288 0000
000001b0: 318c 0080 068f 0000 6789 0080 2489 0000
000001c0: 9b94 0000 a389 0080 278a 0080 bd89 0000
000001d0: b789 0080 f38a 0000 878a 0080 f76b 0000
000001e0: f28b 0000 c48a 0080 9d8a 0080 158b 0080
000001f0: e18a 0080 798a 0000 308b 0000 ef9a 0000
00000200: 1b8d 0000 118c 0080 098c 0080 2b8a 0080
00000210: 3f93 0000 558a 0080 df8c 0080 2189 0000
00000220: 4b8c 0000 4789 0000 c089 0000 c68b 0080
00000230: f192 0080 128b 0080 168a 0080 e489 0000
00000240: e28b 0080 6976 0080 8290 0000 df8a 0000
00000250: d965 0000 7d94 0080 4862 0000 c48c 0000
00000260: 938c 0000 e68d 0000 738e 0000 ef41 0000
00000270: e88a 0080 d288 0000 e28c 0080 0e8b 0000
00000280: eb91 0080 5a8c 0080 a38b 0080 e88d 0000
00000290: 8d8f 0080 e388 0080 918e 0080 df8b 0080
000002a0: 7e9c 0080 7a8a 0000 1f8e 0080 818a 0000
000002b0: fc98 0000 38ad 0000 7e17 0080 f789 0000
000002c0: bb9d 0000 3b8c 0080 888f 0080 2e8b 0080
000002d0: 4b89 0000 3e89 0000 7f8a 0080 a089 0000
000002e0: ef89 0000 1088 0000 fd88 0080 2a8a 0000
000002f0: c08b 0000 7d8a 0000 4c89 0080 838b 0000
00000300: 6c8e 0000 bd53 0080 648c 0080 f47e 0000
00000310: 6b91 0080 ef89 0000 0e90 0080 d189 0080
00000320: 9e91 0000 c063 0000 308e 0000 9289 0000
00000330: 6c96 0080 4b89 0000 1389 0000 b15c 0080
00000340: 9c8a 0000 3389 0000 188a 0080 763b 0080
00000350: 158c 0080 0a89 0080 918d 0000 ad89 0080
00000360: d889 0000 2789 0000 f190 0080 e43b 0080
00000370: 6385 0080 4b95 0080 808a 0080 fb8a 0000
00000380: 5a89 0080 3f64 0000 a794 0000 4f89 0080
00000390: b89b 0080 0489 0080 c58d 0080 c577 0000
000003a0: b48a 0000 aa9e 0080 cd8b 0080 8f8a 0080
000003b0: c28c 0080 3489 0080 5189 0080 048a 0000
000003c0: 2889 0000 3d89 0000 308c 0000 7c89 0000
000003d0: 6c89 0000 3989 0080 cb8b 0080 3089 0080
000003e0: d58a 0000 69a7 0080 f741 0080 8989 0080
000003f0: 608b 0080 c089 0000 9776 0080 f28c 0000
4.9621e-41 4.9715e-41 3.5554e-41 4.9556e-41 4.9274e-41 -6.2844e-41 -4.913e-41 5.0469e-41
3.6502e-41 5.0094e-41 5.1332e-41 4.925e-41 5.0916e-41 -5.046e-41 -4.0008e-41 -5.036e-41
-5.0601e-41 -5.0022e-41 -5.0204e-41 -4.9743e-41 4.9726e-41 -5.0049e-41 -4.9201e-41 4.9364e-41
5.063e-41 5.026e-41 -5.135e-41 -4.9054e-41 -4.9923e-41 4.9065e-41 4.9131e-41 -4.9747e-41
5.1365e-41 -5.0182e-41 -4.9994e-41 -4.907e-41 4.9055e-41 4.9572e-41 2.4378e-41 5.0954e-41
-5.0878e-41 -5.0754e-41 5.0012e-41 4.9965e-41 4.977e-41 -5.0427e-41 4.9882e-41 5.0021e-41
5.0035e-41 5.951e-42 -3.8649e-41 5.064e-41 -5.1002e-41 4.9463e-41 4.9588e-41 -4.9542e-41
-4.9373e-41 -4.9264e-41 5.0773e-41 -4.933e-41 -5.3415e-41 -4.9187e-41 -2.3444e-41 4.9397e-41
5.2083e-41 4.9086e-41 -5.1014e-41 4.9113e-41 3.7172e-41 -4.9186e-41 3.997e-41 4.9341e-41
-4.9689e-41 -1.3685e-41 5.0381e-41 5.0322e-41 4.9152e-41 -4.9239e-41 4.996e-41 5.0594e-41
-4.419e-41 4.9609e-41 -3.737e-41 -5.6786e-41 -4.99e-41 4.1658e-41 4.9118e-41 -3.6701e-41
4.9927e-41 4.9295e-41 -4.9732e-41 4.9281e-41 -5.1408e-41 4.9324e-41 -4.9155e-41 -4.9256e-41
-5.4038e-41 4.9244e-41 -4.7158e-41 -4.9281e-41 4.9648e-41 -4.9109e-41 4.6614e-41 -4.955e-41
-5.0412e-41 -4.9387e-41 4.9851e-41 4.9104e-41 -5.0291e-41 5.1307e-41 -4.929e-41 4.9197e-41
5.331e-41 -4.9375e-41 -4.956e-41 4.9411e-41 -4.9403e-41 4.9846e-41 -4.9694e-41 3.873e-41
5.0203e-41 -4.978e-41 -4.9725e-41 -4.9893e-41 -4.982e-41 4.9675e-41 4.9931e-41 5.558e-41
5.0619e-41 -5.0246e-41 -5.0235e-41 -4.9565e-41 5.2822e-41 -4.9624e-41 -5.0535e-41 4.9193e-41
5.0328e-41 4.9246e-41 4.9415e-41 -5.0141e-41 -5.2713e-41 -4.9889e-41 -4.9536e-41 4.9466e-41
-5.018e-41 -4.2478e-41 5.184e-41 4.9818e-41 3.6536e-41 -5.3268e-41 3.5257e-41 5.0497e-41
5.0429e-41 5.0904e-41 5.1101e-41 2.3653e-41 -4.983e-41 4.9082e-41 -5.0539e-41 4.9883e-41
-5.2346e-41 -5.0349e-41 -5.0092e-41 5.0906e-41 -5.1496e-41 -4.9106e-41 -5.1143e-41 -5.0176e-41
-5.6139e-41 4.9676e-41 -5.0983e-41 4.9686e-41 5.488e-41 6.2139e-41 -8.427e-42 4.9492e-41
5.6583e-41 -5.0305e-41 -5.149e-41 -4.9928e-41 4.9251e-41 4.9233e-41 -4.9683e-41 4.937e-41
4.9481e-41 4.881e-41 -4.9142e-41 4.9564e-41 5.0133e-41 4.968e-41 -4.9253e-41 5.0047e-41
5.1091e-41 -3.004e-41 -5.0363e-41 4.5542e-41 -5.2166e-41 4.9481e-41 -5.1677e-41 -4.9439e-41
5.2238e-41 3.5784e-41 5.1007e-41 4.9351e-41 -5.3961e-41 4.9251e-41 4.9173e-41 -3.3251e-41
4.9724e-41 4.9218e-41 -4.9539e-41 -2.133e-41 -5.0252e-41 -4.916e-41 5.0784e-41 -4.9389e-41
4.9449e-41 4.9201e-41 -5.1995e-41 -2.1485e-41 -4.785e-41 -5.3556e-41 -4.9684e-41 4.9857e-41
-4.9272e-41 3.5962e-41 5.3326e-41 -4.9257e-41 -5.5861e-41 -4.9152e-41 -5.0857e-41 4.2965e-41
4.9757e-41 -5.6918e-41 -5.0151e-41 -4.9705e-41 -5.0494e-41 -4.9219e-41 -4.926e-41 4.951e-41
4.9202e-41 4.9232e-41 5.029e-41 4.932e-41 4.9298e-41 -4.9226e-41 -5.0148e-41 -4.9214e-41
4.9804e-41 -6.0055e-41 -2.3664e-41 -4.9338e-41 -4.9998e-41 4.9415e-41 -4.2542e-41 5.0562e-41

encoder_layers.0.attention.query_projection.bias f4 [36]
00000000: 2896 0080 e289 0080 f989 0080 d28a 0000
00000010: bc8b 0080 0f8a 0080 c99f 0080 4489 0080
00000020: d388 0080 828b 0000 6f8a 0000 8589 0000
00000030: 2d8c 0000 a28a 0000 7989 0000 d1ac 0080
00000040: ca88 0080 cb88 0080 038a 0000 f088 0000
00000050: 0a8b 0080 148a 0080 5289 0080 c788 0080
00000060: 018a 0000 c78b 0080 358a 0000 8a8c 0080
00000070: 7c89 0080 5789 0080 f18b 0000 068a 0080
00000080: d188 0000 2b8a 0000 d689 0080 288a 0000
-5.3866e-41 -4.9463e-41 -4.9495e-41 4.98e-41 -5.0127e-41 -4.9526e-41 -5.732e-41 -4.9242e-41
-4.9083e-41 5.0046e-41 4.966e-41 4.9333e-41 5.0286e-41 4.9732e-41 4.9316e-41 -6.1995e-41
-4.907e-41 -4.9072e-41 4.9509e-41 4.9124e-41 -4.9878e-41 -4.9533e-41 -4.9261e-41 -4.9066e-41
4.9506e-41 -5.0143e-41 4.958e-41 -5.0416e-41 -4.932e-41 -4.9268e-41 5.0202e-41 -4.9513e-41
4.908e-41 4.9565e-41 -4.9446e-41 4.9561e-41

encoder_layers.0.attention.key_projection.weight f4 [36, 36]
00000000: b28a 0000 068a 0000 1189 0080 f289 0000
00000010: f48b 0000 4389 0080 9e89 0000 c788 0000
00000020: 6089 0080 0489 0080 f98a 0000 978b 0080
00000030: e28c 0000 8391 0080 ce8c 0000 468e 0000
00000040: 928b 0080 d388 0080 d48c 0000 1a8c 0080
00000050: c808 0000 118b 0080 fb8a 0000 cf89 0000
00000060: e888 0000 9a8c 0080 ac8b 0080 6f89 0000
00000070: 1c98 0000 0989 0080 468b 0000 fc8e 0000
00000080: 5f8b 0080 e18c 0080 a88f 0000 0e8c 0080
00000090: e18a 0000 1c89 0080 b589 0080 8e8f 0080
000000a0: 398d 0000 c588 0080 a58e 0080 4089 0080
000000b0: 738b 0000 c98b 0080 c723 0000 638e 0080
000000c0: 358b 0080 2a8b 0080 5e8a 0080 c2a7 0000
000000d0: 518f 0000 ee88 0080 fb89 0080 8a8b 0000
000000e0: 5e8d 0080 838c 0000 428e 0000 628b 0080
000000f0: 4194 0000 258f 0000 c170 0000 878f 0000
00000100: db94 0000 088b 0080 5389 0000 d38a 0080
00000110: f38a 0000 128c 0000 1f5d 0000 008d 0080
00000120: a08a 0080 6c8d 0000 e288 0000 578b 0080
00000130: 2189 0000 418a 0080 2c89 0080 c588 0080
00000140: cc30 0080 328a 0000 1b8b 0080 8989 0000
00000150: b089 0000 bf89 0080 b48d 0000 0263 0000
00000160: c189 0000 5d8c 0000 f188 0000 0f8b 0000
00000170: c5ab 0080 a189 0000 558a 0080 7889 0080
00000180: 9593 0080 7d8b 0080 208a 0080 2393 0080
00000190: 2689 0080 038a 0080 8e8e 0000 e589 0000
000001a0: 2f92 0000 788b 0080 b26f 0000 ec8b 0080
000001b0: 6689 0080 1b8b 0000 6589 0080 ea88 0000
000001c0: 4189 0080 18a1 0080 648b 0000 4e8a 0000
000001d0: 8c74 0000 ea89 0000 228b 0080 cb8c 0000
000001e0: bc77 0080 9593 0080 188c 0000 6181 0000
000001f0: c88d 0080 6889 0000 cc8a 0000 0b75 0000
00000200: f78a 0000 4092 0080 9982 0000 078f 0000
00000210: 1d89 0080 c889 0000 5199 0000 5d8b 0080
00000220: ec8c 0080 f37d 0000 8d9c 0000 e698 0000
00000230: c696 0080 e689 0080 e28a 0080 966d 0000
00000240: 9a89 0000 418a 0080 6c89 0080 e48a 0000
00000250: 0d8a 0080 c688 0000 b68b 0000 9589 0000
00000260: f088 0000 4489 0080 de8c 0080 fa8d 0080
00000270: 6c6a 0080 538e 0080 448a 0000 898c 0000
00000280: bf57 0000 9a8a 0000 c692 0080 8d30 0000
00000290: 218b 0080 bb59 0080 fd88 0080 d88c 0080
000002a0: 6679 0080 ac8e 0080 c08b 0000 058e 0080
000002b0: 0d98 0080 0c8a 0080 484b 0080 6b89 0000
000002c0: 559b 0000 858e 0080 ba70 0000 9e19 0000
000002d0: 318a 0080 168b 0000 cf88 0080 e58d 0080
000002e0: c389 0080 8e89 0080 8589 0080 b089 0080
000002f0: 278b 0000 7e8a 0080 0289 0080 358e 0080
00000300: e28b 0000 f48d 0080 028a 0000 438e 0080
00000310: 7f8d 0000 7f89 0080 b994 0000 608b 0080
00000320: 8f8c 0000 168a 0000 3189 0000 4a8d 0080
00000330: cc98 0080 268d 0000 05a3 0000 c88c 0080
00000340: 6789 0080 dc89 0080 b393 0080 248e 0000
00000350: 208d 0080 d715 0000 bf8b 0000 378f 0080
00000360: 008a 0080 a28b 0000 6689 0000 3a8a 0000
00000370: 9a89 0080 2b89 0080 c36d 0000 108a 0080
00000380: 0d8b 0080 2e89 0000 048a 0000 6c89 0000
00000390: e18a 0000 008b 0080 838d 0080 7d9e 0080
000003a0: a243 0000 4289 0080 f289 0080 7d89 0080
000003b0: c588 0080 8091 0000 ba99 0000 b18b 0000
000003c0: b789 0000 aa94 0080 3689 0000 a38d 0000
000003d0: f985 0000 b089 0000 a990 0000 7c8c 0000
000003e0: 448e 0000 4c8a 0080 e48a 0080 0990 0000
000003f0: e489 0080 cf8b 0080 c089 0080 3e8b 0000
4.9755e-41 4.9513e-41 -4.917e-41 4.9485e-41 5.0206e-41 -4.924e-41 4.9368e-41 4.9066e-41
-4.9281e-41 -4.9152e-41 4.9854e-41 -5.0075e-41 5.0539e-41 -5.22e-41 5.0511e-41 5.1038e-41
-5.0068e-41 -4.9083e-41 5.052e-41 -5.0259e-41 3.15e-42 -4.9888e-41 4.9857e-41 4.9436e-41
4.9113e-41 -5.0438e-41 -5.0105e-41 4.9302e-41 5.4567e-41 -4.9159e-41 4.9962e-41 5.1293e-41
-4.9997e-41 -5.0538e-41 5.1534e-41 -5.0242e-41 4.982e-41 -4.9186e-41 -4.94e-41 -5.1498e-41
5.0661e-41 -4.9064e-41 -5.1171e-41 -4.9236e-41 5.0025e-41 -5.0145e-41 1.2834e-41 -5.1079e-41
-4.9938e-41 -4.9923e-41 -4.9637e-41 6.018e-41 5.1412e-41 -4.9121e-41 -4.9498e-41 5.0057e-41
-5.0713e-41 5.0406e-41 5.1032e-41 -5.0001e-41 5.3183e-41 5.135e-41 4.0448e-41 5.1488e-41
5.3399e-41 -4.9875e-41 4.9263e-41 -4.9801e-41 4.9846e-41 5.0248e-41 3.3406e-41 -5.0581e-41
-4.9729e-41 5.0733e-41 4.9104e-41 -4.9986e-41 4.9193e-41 -4.9596e-41 -4.9208e-41 -4.9064e-41
-1.7505e-41 4.9575e-41 -4.9902e-41 4.9338e-41 4.9393e-41 -4.9414e-41 5.0834e-41 3.5517e-41
4.9417e-41 5.0353e-41 4.9125e-41 4.9885e-41 -6.1619e-41 4.9372e-41 -4.9624e-41 -4.9314e-41
-5.2942e-41 -5.0039e-41 -4.955e-41 -5.2783e-41 -4.92e-41 -4.9509e-41 5.1139e-41 4.9467e-41
5.2441e-41 -5.0032e-41 4.0069e-41 -5.0195e-41 -4.9289e-41 4.9902e-41 -4.9288e-41 4.9116e-41
-4.9237e-41 -5.779e-41 5.0004e-41 4.9614e-41 4.1809e-41 4.9474e-41 -4.9911e-41 5.0507e-41
-4.2953e-41 -5.2942e-41 5.0256e-41 4.6412e-41 -5.0862e-41 4.9292e-41 4.9791e-41 4.1987e-41
4.9851e-41 -5.2465e-41 4.685e-41 5.1309e-41 -4.9187e-41 4.9427e-41 5.5e-41 -4.9994e-41
-5.0553e-41 4.5182e-41 5.616e-41 5.485e-41 -5.4087e-41 -4.9469e-41 -4.9822e-41 3.9312e-41
4.9362e-41 -4.9596e-41 -4.9298e-41 4.9825e-41 -4.9523e-41 4.9065e-41 5.0119e-41 4.9355e-41
4.9124e-41 -4.9242e-41 -5.0534e-41 -5.0932e-41 -3.8177e-41 -5.1056e-41 4.96e-41 5.0415e-41
3.1477e-41 4.9721e-41 -5.2652e-41 1.7417e-41 -4.991e-41 -3.2189e-41 -4.9142e-41 -5.0525e-41
-4.355e-41 -5.1181e-41 5.0133e-41 -5.0947e-41 -5.4546e-41 -4.9522e-41 -2.7006e-41 4.9296e-41
5.5723e-41 -5.1126e-41 4.0439e-41 9.19e-42 -4.9574e-41 4.9895e-41 -4.9078e-41 -5.0902e-41
-4.942e-41 -4.9345e-41 -4.9333e-41 -4.9393e-41 4.9918e-41 -4.9682e-41 -4.9149e-41 -5.1014e-41
5.018e-41 -5.0923e-41 4.9508e-41 -5.1034e-41 5.0759e-41 -4.9324e-41 5.3352e-41 -4.9998e-41
5.0423e-41 4.9536e-41 4.9215e-41 -5.0685e-41 -5.4813e-41 5.0635e-41 5.848e-41 -5.0503e-41
-4.929e-41 -4.9455e-41 -5.2984e-41 5.099e-41 -5.0626e-41 7.835e-42 5.0131e-41 -5.1376e-41
-4.9505e-41 5.0091e-41 4.9289e-41 4.9586e-41 -4.9362e-41 -4.9207e-41 3.9375e-41 -4.9527e-41
-4.9882e-41 4.9211e-41 4.951e-41 4.9298e-41 4.982e-41 -4.9864e-41 -5.0765e-41 -5.6855e-41
2.4262e-41 -4.9239e-41 -4.9485e-41 -4.9322e-41 -4.9064e-41 5.2196e-41 5.5147e-41 5.0112e-41
4.9403e-41 -5.333e-41 4.9222e-41 5.081e-41 4.806e-41 4.9393e-41 5.1894e-41 5.0396e-41
5.1035e-41 -4.9612e-41 -4.9825e-41 5.167e-41 -4.9466e-41 -5.0154e-41 -4.9415e-41 4.995e-41

encoder_layers.0.attention.key_projection.bias f4 [36]
00000000: 928a 0000 258b 0000 9289 0080 bf88 0080
00000010: 408b 0000 663a 0000 3985 0080 eca5 0080
00000020: 9e93 0000 957d 0080 4789 0080 1d8b 0080
00000030: 3694 0000 a289 0000 031c 0080 ce8a 0000
00000040: 3c0a 0000 258e 0080 c48a 0080 7189 0000
00000050: 168a 0080 f78a 0000 548a 0000 3796 0080
00000060: 1f92 0080 c299 0080 4290 0000 7295 0000
00000070: f389 0000 798b 0000 8a4f 0000 e88a 0000
00000080: f497 0080 f695 0000 e58c 0000 7d95 0080
4.971e-41 4.9916e-41 -4.9351e-41 -4.9055e-41 4.9953e-41 2.095e-41 -4.7791e-41 -5.9522e-41
5.2955e-41 -4.505e-41 -4.9246e-41 -4.9904e-41 5.3168e-41 4.9373e-41 -1.0049e-41 4.9794e-41
3.671e-42 -5.0992e-41 -4.978e-41 4.9305e-41 -4.9536e-41 4.9851e-41 4.9623e-41 -5.3887e-41
-5.2418e-41 -5.5158e-41 5.175e-41 5.3611e-41 4.9487e-41 5.0033e-41 2.8533e-41 4.983e-41
-5.451e-41 5.3796e-41 5.0543e-41 -5.3626e-41

encoder_layers.0.attention.value_projection.weight f4 [36, 36]
00000000: 7b31 44b4 b48d 8f35 f21e 7d35 c301 9935
00000010: 978b 6a35 baf7 08b5 deb6 0036 5240 e833
00000020: 8be9 f935 944f f735 3532 b535 1af1 0c36
00000030: a8c1 c035 f575 0b36 ea26 7d35 3891 f735
00000040: 9172 2335 d6e5 0236 101e b534 410a 0936
00000050: b83c 0db4 0cd5 2436 1689 9735 838b 0436
00000060: d2ae 98b4 fc0f 0036 e916 6ab4 946f 0736
00000070: c06d a932 384e 2236 bcf1 8fb4 d64c 0336
00000080: 473f a9b1 76f6 0836 a337 94b4 a20e 0336
00000090: e5b6 d82f 39ea a62f 37f6 77af 8500 612f
000000a0: 014a c530 1a3d c530 ed98 9e30 8934 fd30
000000b0: 1dcf 9730 02d9 7130 262e 0730 95ec a630
000000c0: 5f12 472f 3721 0631 4f8a a7af dcdf ab30
000000d0: 866a 11af 5e9d c230 1b2a 9caf 6af7 c330
000000e0: 3ed1 cbaf 8c7a 0d31 d087 db30 9b83 c030
000000f0: bc95 3bae c634 db30 4c7a 9d2e 2f1c ea30
00000100: fdda 1dae 8d01 0931 6085 692e 4ccd c230
00000110: 5478 30ad ff4e dd30 db76 a82e 41b1 fa30
00000120: ea0e 6cac fee9 78ac 6fe5 462a 14dc 28ac
00000130: 2840 62ad 7115 59ad e808 48ad 888a 86ad
00000140: 1978 5cad 2324 21ad 1c5f ceac 3bac 6aad
00000150: 7d5a 9fac aea1 acad eaf1 b62b af82 5ead
00000160: e7bb 602a 3e13 7fad 694d 162c 7fc4 71ad
00000170: d172 832c 8a86 b7ad f13a 83ad 16d7 5bad
00000180: 638b 162b 8d1d 87ad 17ae 28ab 658d 8ead
00000190: 2528 c32a cf76 9cad e859 d0aa 5f67 61ad
000001a0: 66a3 0c2a fa17 84ad f7c9 1aab 4590 a7ad
000001b0: fe01 a7b6 af77 4838 8bcd 0d38 6495 5d38
000001c0: a4be 5438 afee 3fb6 a059 a838 86a4 d337
000001d0: 06f6 a238 0955 a238 230e 6938 651a bb38
000001e0: 59b8 7238 17cc ba38 78ec 1538 58c3 9738
000001f0: fb28 cc37 248a a838 9de0 4937 3414 ba38
00000200: 34cd efb6 726e e838 68a4 8438 a585 ab38
00000210: 4e5c 54b7 06d1 a738 94cd 16b7 9421 bb38
00000220: 2a7d 2735 9cb3 e238 680b 3eb7 6e33 b138
00000230: 4442 81b4 1b4a bb38 9b10 3fb7 fd12 ab38
00000240: 3a32 d52e fcb4 e52e 4a8e 072e f026 aaad
00000250: 2e43 c12f 1234 872f 5b0d b12f 80c5 b72f
00000260: d0e6 d32f a2d3 812f 0b14 562f 6dea f22f
00000270: 4ecf 122f f07f 1b30 cb97 58ad 3330 df2f
00000280: 3f14 eead a054 1c30 b291 d6ae 8cd0 d32f
00000290: 95de 26af 3072 2830 5c54 de2f f8ee f22f
000002a0: 01ed 8bad c716 f72f f5c9 672e d4b2 1330
000002b0: 8a21 9dad 555b 0f30 11a8 642e 446c f42f
000002c0: 5871 1fad d99d f92f 7595 762e c353 1b30
000002d0: 5513 872d 120c d0ad c682 2dae dcc6 07ae
000002e0: b48a 1aac cb97 6e2e 0ed1 85ae cf4d 1b2e
000002f0: 5bb3 8bae 5ac0 8aae fd8f 4eae 6dfb 95ae
00000300: 9c63 60ae 0a28 87ae 77ef 25ae 38a3 a0ae
00000310: f7ef bcad 33d2 92ae 83e2 70ad e41a 81ae
00000320: cfbb a2ab aa45 8fae c3cf efac 1093 9aae
00000330: d86c fe2c 9041 8cae 73e9 ea2c 63e4 83ae
00000340: 6f0c 93ab b05c 8cae aa7c 062d 1de4 8fae
00000350: 8908 eda9 fdfc 86ae dac9 102d a98a 83ae
00000360: c50d a734 7021 c1b5 54fb c4b5 8c18 cab5
00000370: e011 6db5 096a 9d35 d716 32b6 e5a5 b434
00000380: 50a8 2db6 a047 2eb6 fdb7 02b6 8ad7 42b6
00000390: 0cfc 0cb6 d179 3cb6 e104 c2b5 8139 2fb6
000003a0: 5ba7 70b5 e143 35b6 a5ce 0cb5 3d64 38b6
000003b0: e570 0934 31cd 56b6 86a4 b5b5 3d4f 34b6
000003c0: d585 ce34 4a63 2eb6 4450 a734 f13d 32b6
000003d0: 8567 10b3 d2d6 52b6 b7a2 ca34 d875 32b6
000003e0: 3ce2 a031 8afc 36b6 ef62 d434 6893 30b6
000003f0: fa88 2134 bcb0 0334 5e57 aab3 2db7 c933
-1.8271923e-07 1.0695571e-06 9.4294876e-07 1.1399901e-06 8.7374923e-07 -5.102444e-07 1.917993e-06 1.0815042e-07
1.8619916e-06 1.8426094e-06 1.3500163e-06 2.1001965e-06 1.4361476e-06 2.0781274e-06 9.430647e-07 1.8445198e-06
6.088895e-07 1.9505292e-06 3.373575e-07 2.042056e-06 -1.3153738e-07 2.4561914e-06 1.1290274e-06 1.975074e-06
-2.8439405e-07 1.908279e-06 -2.1801283e-07 2.0181515e-06 1.9724098e-08 2.418541e-06 -2.681171e-07 1.9565246e-06
-4.925741e-09 2.0409038e-06 -2.760763e-07 1.9529039e-06 3.9420125e-10 3.036165e-10 -2.2551992e-10 2.0463815e-10
1.435467e-09 1.4351003e-09 1.1539477e-09 1.8423104e-09 1.1045561e-09 8.7983676e-10 4.9178295e-10 1.214533e-09
1.8105471e-10 1.9518447e-09 -3.0475397e-10 1.2505512e-09 -1.3225518e-10 1.4160084e-09 -2.8406152e-10 1.4258437e-09
-3.707416e-10 2.058786e-09 1.5972947e-09 1.4007243e-09 -4.2651868e-11 1.5949346e-09 7.161258e-11 1.7033751e-09
-3.5892168e-11 1.9937005e-09 5.3096527e-11 1.4173707e-09 -1.003116e-11 1.6102318e-09 7.6608685e-11 1.8240273e-09
-3.3545896e-12 -3.5372811e-12 1.7665533e-13 -2.3996404e-12 -1.2860858e-11 -1.2339783e-11 -1.1370661e-11 -1.5295556e-11
-1.2532219e-11 -9.159814e-12 -5.8654314e-12 -1.3339603e-11 -4.529098e-12 -1.9625936e-11 1.2999022e-12 -1.2648257e-11
1.9960388e-13 -1.4499344e-11 2.1359253e-12 -1.3742895e-11 3.735991e-12 -2.0864439e-11 -1.4919151e-11 -1.2496467e-11
5.3484143e-13 -1.5360846e-11 -5.992719e-13 -1.6206323e-11 3.4666814e-13 -1.7787908e-11 -3.7010607e-13 -1.2812722e-11
1.2491188e-13 -1.501731e-11 -5.4992073e-13 -1.904977e-11 -4.9772198e-06 4.779518e-05 3.3808446e-05 5.2829637e-05
5.0722287e-05 -2.860015e-06 8.027558e-05 2.5229772e-05 7.7705874e-05 7.740601e-05 5.5564695e-05 8.921771e-05
5.7868983e-05 8.907186e-05 3.5744597e-05 7.236627e-05 2.4337778e-05 8.036595e-05 1.203283e-05 8.872934e-05
-7.146644e-06 0.00011083194 6.3248735e-05 8.178809e-05 -1.2657676e-05 8.002114e-05 -8.988562e-06 8.923109e-05
6.2394486e-07 0.000108099746 -1.1327538e-05 8.449597e-05 -2.4076337e-07 8.930658e-05 -1.1388353e-05 8.157452e-05
9.6950406e-11 1.04458636e-10 3.0821824e-11 -1.9344054e-11 3.515423e-10 2.4593355e-10 3.2205602e-10 3.3427838e-10
3.8544679e-10 2.3615337e-10 1.9470307e-10 4.4186113e-10 1.3352272e-10 5.657048e-10 -1.2311883e-11 4.059771e-10
-2.7066458e-11 5.687273e-10 -9.757474e-11 3.8528858e-10 -1.5176689e-10 6.1280314e-10 4.0441506e-10 4.418934e-10
-1.5907721e-11 4.4945223e-10 5.2702693e-11 5.373242e-10 -1.7863728e-11 5.215289e-10 5.199047e-11 4.446027e-10
-9.063271e-12 4.5404994e-10 5.606667e-11 5.6507704e-10 1.5356308e-11 -2.3652223e-11 -3.9451796e-11 -3.087207e-11
-2.1961712e-12 5.4249754e-11 -6.085275e-11 3.5312028e-11 -6.352848e-11 -6.309682e-11 -4.6966864e-11 -6.820398e-11
-5.1020174e-11 -6.1462016e-11 -3.7729344e-11 -7.304951e-11 -2.1479691e-11 -6.67665e-11 -1.3692716e-11 -5.8710176e-11
-1.156292e-12 -6.515262e-11 -6.8158547e-12 -7.029233e-11 7.2311983e-12 -6.378109e-11 6.676598e-12 -5.99776e-11
-1.0448429e-12 -6.3829275e-11 7.644699e-12 -6.543408e-11 -1.0526395e-13 -6.138554e-11 8.230272e-12 -5.981821e-11
3.1116193e-07 -1.4389352e-06 -1.4676284e-06 -1.5057317e-06 -8.831539e-07 1.1728272e-06 -2.6537361e-06 3.3648317e-07
-2.587698e-06 -2.5969712e-06 -1.9478605e-06 -2.9033713e-06 -2.1008336e-06 -2.808509e-06 -1.4455546e-06 -2.6110504e-06
-8.96505e-07 -2.7010612e-06 -5.245477e-07 -2.7476483e-06 1.280019e-07 -3.2007922e-06 -1.3533434e-06 -2.6868213e-06
3.8467866e-07 -2.5985814e-06 3.1164575e-07 -2.6560122e-06 -3.3621763e-08 -3.141748e-06 3.7743823e-07 -2.659266e-06
4.6823327e-09 -2.726711e-06 3.956006e-07 -2.6311845e-06 1.5044125e-07 1.2264621e-07 -7.932134e-08 9.3931114e-08

encoder_layers.0.attention.value_projection.bias f4 [36]
00000000: a553 1536 1576 c130 2fc9 6aad 08cc c338
00000010: 7cdd db2f 4d48 a0ae 583e 4cb6 53e4 1035
00000020: c49f c7b5 7881 8c2c 4b92 4db6 ed32 842e
00000030: 9fb0 c0b4 b326 2732 857f 062e 03b8 0c39
00000040: 42e6 8eaf ef4c 0f36 74e2 7b35 1242 8135
00000050: 0b68 82b5 252a 75b5 7090 5231 6f26 d935
00000060: d76d 4b34 c51d 8435 a7d0 2c33 e508 9934
00000070: 40ce 25b4 0e3b 952e 9a77 df35 4545 3435
00000080: b799 5e30 6a94 48ae 1d22 bcb6 3d50 1631
2.2251418e-06 1.4076159e-09 -1.3346032e-11 9.3363284e-05 3.9993242e-10 -7.288801e-11 -3.0434658e-06 5.3976436e-07
-1.4873153e-06 3.9934132e-12 -3.0632534e-06 6.011711e-11 -3.5891296e-07 9.729479e-09 3.0581333e-11 0.0001341999
-2.5993258e-10 2.1353442e-06 9.383432e-07 9.630478e-07 -9.716035e-07 -9.133094e-07 3.0641125e-09 1.6178946e-06
1.8945808e-07 9.84343e-07 4.023664e-08 2.8504942e-07 -1.5441856e-07 6.786226e-11 1.6649603e-06 6.7156026e-07
8.098157e-10 -4.5606553e-11 -5.606808e-06 2.1873483e-09

encoder_layers.0.attention.out_projection.weight f4 [36, 36]
00000000: f948 cb34 ca1c 53af 0eec 0a2b 67d2 4b37
00000010: 3160 f9ae 1b64 84ad 5fc6 28b5 3e81 64b3
00000020: 6fdf 92b4 a5c2 7d2e f75c c2b4 bbba 41ac
00000030: e227 3eb3 b985 be30 0429 ea2c d6aa 9237
00000040: f2ea 732e 9d60 3435 100a 7fb4 7575 6134
00000050: 6bfe 15b4 5432 1fb5 712d 9b30 4345 9634
00000060: ea61 cf32 e697 dd33 0272 ec31 4de5 1a33
00000070: 6982 b1b2 b4c4 d2ad ecc0 3734 252e 06b5
00000080: 27d0 c72f d275 57ae 349e 53b5 7827 c92f
00000090: bff5 0935 36b2 822f f2e5 56ac 708c 9f37
000000a0: 481a 3a2e 879c afad a00d 48b5 6576 d533
000000b0: 9313 adb3 f64b d02d 75f1 31b5 148f 702d
000000c0: ce81 a9b3 1115 1a31 905a 192d c993 eb37
000000d0: 078a 1eae f320 0935 34ae d433 6a09 9c34
000000e0: eda0 72b4 3104 c3b4 fa73 8930 5039 ff33
000000f0: cd78 3633 2a17 6334 4fb1 3232 e73c 8933
00000100: 67b3 16b3 0dd1 3f2d 212d b934 d5c2 2ab3
00000110: e9af 862f 217d dfad f55d abb5 44bb 1b30
00000120: cf57 d834 1343 b12e 9f77 f9ab 3592 7837
00000130: 1bd7 c3ad 2ed3 83ad 14b5 25b5 c267 4633
00000140: c485 67b4 a614 1e2e 4878 ffb4 5cf7 0a2d
00000150: c655 6ab3 c18d db30 5e14 f22c c382 b037
00000160: 7af3 0a2d 5a73 2635 dce0 4eb3 8d7e 7034
00000170: b707 30b4 8e6c 02b5 c91d 7930 7a37 8734
00000180: f24a ff32 c26b 1534 e6c4 f631 e0c7 3d33
00000190: 6ccc dbb2 478b d1ab 4085 8534 27b5 88b4
000001a0: a863 6e2f a627 aaad 51da 7db5 fafb e22f
000001b0: 3b78 c734 c8f0 6caf 39dd 8a2b 1d3e 3f37
000001c0: 3f74 f5ae 2fdd 85ad 7c04 29b5 848a 87b3
000001d0: 32eb 4cb4 c4b0 532e 32e4 aab4 e207 94ac
000001e0: c071 2bb3 9ee2 b430 e7be f52c 4c0e 8b37
000001f0: 7e2a 922e 3007 0c35 1da9 90b4 b143 6434
00000200: 0373 06b4 2087 01b5 7854 9e30 bb3b 5b34
00000210: 5469 c132 951c c933 d3cb d931 bcc6 0f33
00000220: 431c a7b2 6997 03ae ec1e 2734 7704 f3b4
00000230: 9a9c ed2f 8677 7aae 27ce 4fb5 2a81 c92f
00000240: 93a4 0835 51a9 852f a796 55ac a05f a337
00000250: 770d 1e2e 31fd adad 7859 43b5 4839 e133
00000260: 90a1 20b4 333c 092e a90f 34b5 af46 752d
00000270: ebc4 aeb3 efa9 1c31 0d0d 182d 0ec3 f237
00000280: a8ba 43ae e1ec 1f35 c3ce ef33 6147 9a34
00000290: e07c 7db4 b3b7 e1b4 76fa 6d30 37b0 3934
000002a0: de18 3533 b8d3 6034 5f10 3232 8614 8833
000002b0: 23d1 17b3 49e0 702d 4d0f b934 8553 d0b3
000002c0: dcff 782f 31b1 b6ad a1ed a7b5 336c 1b30
000002d0: 0cfe d634 78ab b42f 8c09 86ac a3bb 8837
000002e0: a2af 842e 07c3 56ad 4dd4 0fb5 fda6 1234
000002f0: aa48 43b4 6b64 ed2d 4d39 1db5 ddd3 9a2d
00000300: a383 94b3 85cf 0331 2341 d12c e2da c837
00000310: ec27 85ae fda1 1a35 d057 2434 5c22 6134
00000320: f150 5eb4 dd45 ccb4 a4ee bc2f 436c 5934
00000330: 8dcd 1d33 f582 4234 bf2d 2932 9a27 6f33
00000340: 15b0 01b3 2451 e62d 97e5 9834 b3db c3b2
00000350: 2c43 74ae cd54 ee2d e2dc 8cb5 ce57 f52f
00000360: bb6a 2435 322d 6d2f 2ae3 5bac 0034 ba37
00000370: 0166 da2e bc8c f0ad 9ea3 70b5 eb72 b233
00000380: 18ca 21b2 923e 342d 2b26 50b5 a7b3 4c2d
00000390: eb69 ccb3 abd0 3731 fcb3 442d bf22 0838
000003a0: 5f0c 8dae caae f734 0754 5b34 8bd3 c734
000003b0: 68c7 81b4 8755 99b4 5ac1 ec30 7837 9633
000003c0: 4435 4e33 1a6b 8334 c101 2f32 a3a1 9933
000003d0: 51c0 29b3 0a45 132c adfd e234 b6a6 b833
000003e0: 7f67 1230 74ed bfae bedd c8b5 9822 3730
000003f0: 7ae7 ee34 544e 552e 7512 b8ab edca 8837
3.786479e-07 -1.9200566e-10 4.935504e-13 1.2148731e-05 -1.1340296e-10 -1.5051118e-11 -6.2873545e-07 -5.3202932e-08
-2.7357189e-07 5.769842e-11 -3.6202957e-07 -2.7530606e-12 -4.4274096e-08 1.3862326e-09 6.6552337e-12 1.7484108e-05
5.5460476e-11 6.7195816e-07 -2.3752386e-07 2.0997489e-07 -1.3969263e-07 -5.930535e-07 1.129065e-09 2.7990072e-07
2.4142498e-08 1.03187446e-07 6.881465e-09 3.6064467e-08 -2.0664816e-08 -2.396159e-11 1.7113388e-07 -4.998604e-07
3.634579e-10 -4.8989986e-11 -7.883384e-07 3.658973e-10 5.1394085e-07 2.377349e-10 -3.0538874e-12 1.9019673e-05
4.2314846e-11 -1.9964709e-11 -7.4525633e-07 9.940121e-08 -8.059501e-08 2.3680596e-11 -6.6289005e-07 1.367419e-11
-7.893287e-08 2.2421924e-09 8.717152e-12 2.8083e-05 -3.6047634e-11 5.1084425e-07 9.903707e-08 2.9064114e-07
-2.2596551e-07 -3.632463e-07 1.0001024e-09 1.1884788e-07 4.2485045e-08 2.114945e-07 1.0401279e-08 6.390638e-08
-3.5087762e-08 1.0903512e-11 3.449177e-07 -3.9758408e-08 2.449945e-10 -2.5407733e-11 -1.2767838e-06 5.665479e-10
4.0297024e-07 8.060943e-11 -1.7725716e-12 1.4815993e-05 -2.226446e-11 -1.4986758e-11 -6.1730793e-07 4.6194835e-08
-2.1562215e-07 3.594338e-11 -4.7584967e-07 7.899317e-12 -5.456038e-08 1.5974636e-09 6.880315e-12 2.1041726e-05
7.8984545e-12 6.200768e-07 -4.816762e-08 2.239778e-07 -1.6394084e-07 -4.858674e-07 9.0628e-10 2.5186074e-07
2.9719988e-08 1.3915908e-07 7.181927e-09 4.4186777e-08 -2.5587916e-08 -1.4889e-12 2.4870133e-07 -2.546378e-07
2.1681379e-10 -1.934437e-11 -9.4567537e-07 4.12882e-10 3.7154118e-07 -2.1549618e-10 9.866891e-13 1.1398949e-05
-1.11619596e-10 -1.5218575e-11 -6.296393e-07 -6.311623e-08 -1.9084544e-07 4.8132845e-11 -3.1831001e-07 -4.207288e-12
-3.9917495e-08 1.3161132e-09 6.9845132e-12 1.6576749e-05 6.6468595e-11 5.2164523e-07 -2.6945136e-07 2.125878e-07
-1.2521564e-07 -4.825288e-07 1.152002e-09 2.0417694e-07 2.2516055e-08 9.364991e-08 6.3387033e-09 3.347553e-08
-1.945421e-08 -2.992043e-11 1.5564336e-07 -4.5265526e-07 4.322132e-10 -5.6949577e-11 -7.74135e-07 3.6653464e-10
5.0903435e-07 2.4312866e-10 -3.035275e-12 1.9475643e-05 3.5937e-11 -1.9780262e-11 -7.2773355e-07 1.04877984e-07
-1.4959937e-07 3.120366e-11 -6.7078014e-07 1.39423325e-11 -8.1383256e-08 2.2797584e-09 8.6430975e-12 2.8939477e-05
-4.450365e-11 5.957682e-07 1.11669145e-07 2.873667e-07 -2.360789e-07 -4.2043175e-07 8.6576024e-10 1.7293574e-07
4.2164963e-08 2.0938649e-07 1.0364686e-08 6.336727e-08 -3.5347636e-08 1.3692222e-11 3.4470068e-07 -9.700947e-08
2.2646368e-10 -2.0769693e-11 -1.2511629e-06 5.654243e-10 4.004545e-07 3.2863645e-10 -3.809569e-12 1.6299839e-05
6.033864e-11 -1.2207796e-11 -5.358059e-07 1.365806e-07 -1.8187225e-07 2.6988375e-11 -5.857044e-07 1.760186e-11
-6.9157316e-08 1.918097e-09 5.947369e-12 2.3943783e-05 -6.055231e-11 5.7605195e-07 1.5305636e-07 2.0967258e-07
-2.0704807e-07 -3.8048793e-07 3.4366565e-10 2.0249085e-07 3.674136e-08 1.81153e-07 9.847496e-09 5.568254e-08
-3.01953e-08 2.6184006e-11 2.8479255e-07 -2.2800895e-08 -5.5538837e-11 2.7095126e-11 -1.0495098e-06 4.462763e-10
6.1250074e-07 2.1571081e-10 -3.1247873e-12 2.2197142e-05 9.931612e-11 -2.734734e-11 -8.964506e-07 8.3096744e-08
-9.417384e-09 1.0245709e-11 -7.754158e-07 1.1635948e-11 -9.5187566e-08 2.6748619e-09 1.1181275e-11 3.2457287e-05
-6.414135e-11 4.613451e-07 2.0426533e-07 3.7220556e-07 -2.417321e-07 -2.85607e-07 1.7226214e-09 6.995009e-08
4.8011557e-08 2.4478578e-07 1.01867395e-08 7.154019e-08 -3.952329e-08 2.092828e-12 4.2280354e-07 8.598492e-08
5.326157e-10 -8.7278546e-11 -1.4965697e-06 6.6624173e-10 4.4499376e-07 4.8500162e-11 -1.3079109e-12 1.6306958e-05

encoder_layers.0.attention.out_projection.bias f4 [36]
00000000: 0fc3 a1bb 5671 89bb 2b8d b5bb 4bc6 12bc
00000010: 2020 9cbb e0c0 b4bb d784 cdbb ff3f b2bb
00000020: 9b3a cabb 1d43 c1bb 25c8 0cbc 3ce9 9dbb
00000030: eb07 00bc 692f 8fbb 8449 0cbc 34a2 8abb
00000040: 70c7 0dbc 2524 8abb 20d4 10bc c5bf 86bb
00000050: 83a1 7e3b 977c 8abb 64d9 983a eab3 87bb
00000060: 5e65 0b3b 6247 8cbb d810 12bc d88a 88bb
00000070: 7a11 13bc 8d2b 89bb 6418 13bc 2771 85bb
00000080: 7361 12bc 38fa 89bb abbe 13bc b916 89bb
-0.004936583 -0.004194419 -0.00554051 -0.00895841 -0.004764572 -0.0055161566 -0.0062719393 -0.005439758
-0.006171537 -0.005897893 -0.00859264 -0.0048190635 -0.007814388 -0.0043696654 -0.008562449 -0.004230762
-0.008653507 -0.0042157345 -0.008839637 -0.004112216 0.0038853593 -0.004226278 0.0011661467 -0.0041413205
0.0021270136 -0.0042809704 -0.008915149 -0.004166942 -0.008976335 -0.0041861 -0.008977983 -0.0040723267
-0.0089343665 -0.0042107366 -0.009017627 -0.004183617

encoder_layers.0.feed_forward.0.weight f4 [8, 36]
00000000: a289 0080 589a 0000 1c99 0000 ad92 0000
00000010: 3d8f 0000 4a22 0000 628a 0080 a392 0000
00000020: da8c 0000 f6a5 0000 0aa5 0080 4393 0000
00000030: 2c89 0000 ceac 0000 cca5 0000 218a 0080
00000040: 8790 0080 d78b 0080 d5ab 0080 028d 0080
00000050: 5889 0000 fd91 0080 268d 0000 a49a 0080
00000060: c38b 0000 728e 0080 e98f 0000 8e9f 0080
00000070: a2a0 0000 8399 0080 71ab 0000 b99a 0080
00000080: 8e9b 0000 8d9b 0080 9a53 0080 5e9e 0080
00000090: 178b 0000 21a2 0000 2b9f 0000 b493 0000
000000a0: ddaa 0000 0e8f 0000 e29d 0000 5b89 0000
000000b0: e39e 0000 2896 0000 dca2 0000 f88a 0000
000000c0: 5c8d 0080 968e 0000 5899 0000 709a 0000
000000d0: 4e91 0000 578a 0080 8c92 0000 3895 0000
000000e0: 8c8a 0000 c499 0000 b475 0000 8790 0080
000000f0: f088 0000 338e 0000 ee9a 0000 2d97 0000
00000100: 9e9f 0000 309b 0000 ac98 0000 3b8f 0000
00000110: 6989 0000 c69f 0000 6089 0080 6490 0000
00000120: 5d57 0080 e07b 0080 f893 0000 298a 0000
00000130: 58ac 0000 4497 0080 2c8a 0080 7899 0000
00000140: 4889 0080 038a 0000 db8b 0000 5f74 0080
00000150: e4a8 0000 613c 0080 7e6f 0080 968b 0080
00000160: 6a8b 0000 a48a 0000 9189 0000 e589 0080
00000170: dbac 0000 4c8c 0000 a48c 0000 3c8a 0080
00000180: 8191 0080 5089 0000 8c99 0000 e78b 0080
00000190: a38a 0000 968a 0080 3189 0000 c789 0080
000001a0: 163d 0080 e24c 0000 898b 0000 fe81 0080
000001b0: 58a0 0000 023e 0000 f99c 0080 388f 0000
000001c0: d59d 0080 d47b 0000 1d99 0000 2092 0000
000001d0: 989e 0000 41ae 0000 b398 0080 6272 0000
000001e0: 2aa0 0000 9893 0080 e99e 0000 cb91 0000
000001f0: f191 0080 a68a 0080 f39c 0080 fa9b 0000
00000200: c48b 0000 df89 0080 a58c 0080 8395 0080
00000210: b989 0000 3d90 0000 da8f 0080 e089 0080
00000220: 01a0 0080 e69a 0000 5d92 0080 468b 0080
00000230: ad6f 0000 e696 0000 a374 0000 0991 0000
00000240: ac94 0080 c59c 0080 e597 0000 089b 0000
00000250: 7e98 0080 9693 0000 c39e 0080 f289 0080
00000260: 278a 0000 e98c 0000 75a7 0000 0b98 0000
00000270: 509e 0080 b6a0 0000 de9c 0000 d292 0000
00000280: 6a9e 0000 018c 0000 6c95 0080 b852 0080
00000290: 868e 0000 206b 0000 d688 0000 f79b 0080
000002a0: fb8d 0080 d631 0080 a18f 0080 7294 0080
000002b0: caa3 0080 063a 0080 2794 0080 9995 0080
000002c0: c2a3 0080 179b 0000 f19d 0000 2381 0080
000002d0: cc8f 0000 788d 0000 0c8e 0080 1589 0080
000002e0: d28c 0080 b18a 0000 3b8b 0000 038b 0080
000002f0: 958d 0080 d38e 0080 136c 0000 609c 0080
00000300: df99 0080 2989 0080 f689 0000 1e8d 0080
00000310: d18b 0000 de89 0080 1f8b 0000 608a 0000
00000320: 928b 0000 a68d 0000 2857 0000 8e46 0000
00000330: dd88 0000 508a 0080 fca9 0000 e189 0000
00000340: 338b 0080 3189 0080 938d 0000 118f 0000
00000350: b38b 0000 ff89 0080 a03e 0000 4e8c 0000
00000360: 938b 0080 4299 0080 fc9c 0080 0b8b 0000
00000370: 1396 0000 628b 0000 9c90 0080 8089 0000
00000380: 108c 0080 abaa 0080 7395 0080 c0ac 0080
00000390: 3c93 0080 3d90 0000 568a 0000 428c 0080
000003a0: da88 0000 9dab 0000 c48a 0000 bb8a 0080
000003b0: a789 0000 da8d 0080 6c8a 0000 c38a 0080
000003c0: 928a 0000 8089 0080 ce90 0080 848e 0080
000003d0: 3e8a 0000 4d8e 0080 f691 0080 4092 0080
000003e0: b68b 0080 308f 0080 7b69 0000 cd8d 0080
000003f0: 9495 0000 618e 0080 5f9c 0080 9089 0000
-4.9373e-41 5.5368e-41 5.4925e-41 5.2617e-41 5.1384e-41 1.23e-41 -4.9642e-41 5.2603e-41
5.0528e-41 5.9536e-41 -5.9205e-41 5.2828e-41 4.9208e-41 6.199e-41 5.9477e-41 -4.9551e-41
-5.1847e-41 -5.0165e-41 -6.1642e-41 -5.0584e-41 4.927e-41 -5.2371e-41 5.0635e-41 -5.5475e-41
5.0137e-41 -5.11e-41 5.1625e-41 -5.7237e-41 5.7624e-41 -5.507e-41 6.1502e-41 -5.5504e-41
5.5803e-41 -5.5801e-41 -2.999e-41 -5.6811e-41 4.9896e-41 5.8161e-41 5.7099e-41 5.2986e-41
6.1294e-41 5.1318e-41 5.6638e-41 4.9274e-41 5.6998e-41 5.3866e-41 5.8423e-41 4.9853e-41
-5.071e-41 5.115e-41 5.501e-41 5.5402e-41 5.2126e-41 -4.9627e-41 5.2571e-41 5.353e-41
4.9701e-41 5.5161e-41 4.2224e-41 -5.1847e-41 4.9124e-41 5.1011e-41 5.5578e-41 5.4232e-41
5.726e-41 5.5671e-41 5.4768e-41 5.1381e-41 4.9293e-41 5.7316e-41 -4.9281e-41 5.1798e-41
-3.134e-41 -4.4438e-41 5.3081e-41 4.9563e-41 6.1825e-41 -5.4264e-41 -4.9567e-41 5.5054e-41
-4.9247e-41 4.9509e-41 5.017e-41 -4.1746e-41 6.0587e-41 -2.166e-41 -3.9996e-41 -5.0074e-41
5.0012e-41 4.9735e-41 4.935e-41 -4.9467e-41 6.2009e-41 5.0329e-41 5.0452e-41 -4.9589e-41
-5.2197e-41 4.9258e-41 5.5082e-41 -5.0188e-41 4.9733e-41 -4.9715e-41 4.9215e-41 -4.9425e-41
-2.1914e-41 2.758e-41 5.0056e-41 -4.6632e-41 5.752e-41 2.2244e-41 -5.6311e-41 5.1377e-41
-5.662e-41 4.4421e-41 5.4927e-41 5.242e-41 5.6893e-41 6.251e-41 -5.4778e-41 4.1033e-41
5.7456e-41 -5.2947e-41 5.7006e-41 5.23e-41 -5.2354e-41 -4.9738e-41 -5.6303e-41 5.5954e-41
5.0138e-41 -4.9459e-41 -5.0454e-41 -5.3635e-41 4.9406e-41 5.1743e-41 -5.1604e-41 -4.946e-41
-5.7399e-41 5.5567e-41 -5.2505e-41 -4.9962e-41 4.0062e-41 5.4132e-41 4.1841e-41 5.2029e-41
-5.3333e-41 -5.6238e-41 5.449e-41 5.5615e-41 -5.4704e-41 5.2944e-41 -5.6953e-41 -4.9485e-41
4.956e-41 5.0549e-41 6.0072e-41 5.4543e-41 -5.6792e-41 5.7652e-41 5.6273e-41 5.2669e-41
5.6828e-41 5.0224e-41 -5.3602e-41 -2.9674e-41 5.1128e-41 3.8429e-41 4.9087e-41 -5.595e-41
-5.0933e-41 -1.7878e-41 -5.1524e-41 -5.3252e-41 -5.8756e-41 -2.0815e-41 -5.3147e-41 -5.3666e-41
-5.8745e-41 5.5636e-41 5.6659e-41 -4.6326e-41 5.1585e-41 5.075e-41 -5.0957e-41 -4.9176e-41
-5.0517e-41 4.9753e-41 4.9946e-41 -4.9868e-41 -5.079e-41 -5.1236e-41 3.877e-41 -5.6097e-41
-5.5199e-41 -4.9204e-41 4.9491e-41 -5.0623e-41 5.0157e-41 -4.9457e-41 4.9907e-41 4.964e-41
5.0068e-41 5.0814e-41 3.1266e-41 2.531e-41 4.9097e-41 -4.9617e-41 6.0979e-41 4.9462e-41
-4.9935e-41 -4.9215e-41 5.0787e-41 5.1323e-41 5.0115e-41 -4.9504e-41 2.2466e-41 5.0332e-41
-5.007e-41 -5.4979e-41 -5.6315e-41 4.9879e-41 5.3836e-41 5.0001e-41 -5.1876e-41 4.9326e-41
-5.0245e-41 -6.1224e-41 -5.3612e-41 -6.1971e-41 -5.2818e-41 5.1743e-41 4.9626e-41 -5.0315e-41
4.9093e-41 6.1563e-41 4.978e-41 -4.9767e-41 4.938e-41 -5.0887e-41 4.9656e-41 -4.9778e-41
4.971e-41 -4.9326e-41 -5.1946e-41 -5.1125e-41 4.9592e-41 -5.1048e-41 -5.2361e-41 -5.2465e-41
-5.0119e-41 -5.1366e-41 3.7839e-41 -5.0869e-41 5.3659e-41 -5.1076e-41 -5.6095e-41 4.9348e-41

encoder_layers.0.feed_forward.0.bias f4 [8]
00000000: 4a20 0080 c488 0080 198a 0080 8789 0080
00000010: d189 0080 cd88 0080 f78c 0080 d388 0080
-1.1583e-41 -4.9062e-41 -4.954e-41 -4.9336e-41 -4.9439e-41 -4.9075e-41 -5.0569e-41 -4.9083e-41
