transformers/results/encoder_only/month_08_August/encoder_only_transformer_model_20251127_040625.pt (torch, 577870 bytes, 30 tensors)

input_embedding.weight f4 [24, 8]
0.049897447 0.13829717 -0.05997716 0.07271287 -0.046402488 -0.05642661 -0.07449832 0.046227615
0.15770623 -0.11949104 0.11589911 -0.021180747 0.028558014 0.07762638 0.0045756088 0.10479503
0.32108188 0.009008933 -0.4337365 0.086264715 0.011152112 -0.41459125 -0.05155482 0.31426644
-0.2844988 -0.054066055 -0.26253352 -0.1533962 -0.11736494 -0.3096075 0.17128636 -0.31717122
0.09617073 -0.14184017 -0.07058024 0.009275716 -0.0006325764 -0.011237098 -0.06707068 0.039882015
0.35101423 -0.1035181 0.07115056 0.24906705 0.233954 -0.07564794 0.12837595 0.34583077
0.43047738 -0.33859497 -0.21905355 -0.18183497 -0.18377656 0.22320418 0.0034414637 0.4119136
-0.43483952 -0.0033807007 0.11714998 -0.21369703 -0.13710906 -0.2842925 0.060285117 -0.59890854
0.37451562 -0.1660689 0.09260635 -0.22402926 -0.21881714 -0.279744 0.22614717 0.3826681
0.6095049 -0.37089166 -0.40050814 -0.27056506 -0.24529839 0.028185168 0.0045256573 0.5672809
-0.4669749 -0.15512219 0.063194394 -0.120105594 0.015486048 -0.16298851 0.0777388 -0.56066036
-0.5025517 0.05700768 0.1341824 -0.17060694 0.043792658 0.25356227 -0.2775675 -0.5159392
0.59754926 -0.13274096 -0.067284405 -0.22532955 -0.16976698 0.12244923 -0.019227674 0.04636054
0.15054423 -0.25231507 -0.3488689 -0.26768866 -0.26628995 -0.32442322 0.22399238 0.17013848
-0.018439235 -0.02603826 -0.2518454 -0.035639808 0.00878033 -0.2846059 0.0920953 -0.1772765
-0.28032482 -0.18251039 0.0333098 -0.25854483 -0.300021 -0.13156025 -0.06362426 -0.5457674
0.07591827 -0.011739173 0.5645334 0.036586974 -0.03217379 0.5360974 -0.010153895 -0.28109002
-0.57055724 -0.26443344 -0.06860984 -0.19171308 -0.09470412 -0.30419353 0.118670925 -0.55967563
0.23258342 -0.032114558 0.020466138 0.10408954 0.20147404 -0.1406594 -0.14899965 0.18887462
-0.32217047 -0.44120657 0.21677361 -0.35649416 -0.03833169 0.2013797 -0.079287134 -0.3962159
0.52384925 0.123507485 0.1351235 -0.1529365 0.063946925 0.044232555 -0.044665553 0.50058943
0.07308863 -0.13999519 -0.18666673 -0.1556978 -0.026570702 -0.1754057 -0.30033234 0.037862763
-0.40202534 0.26710108 0.11893457 -0.17418793 0.08480533 0.04102411 0.046522725 -0.27382308
-0.16250427 0.038449205 0.04977733 -0.2732763 -0.14214015 0.003580183 -0.09281977 -0.39435285
00000000: 4461 4c3d c69d 0d3e 9caa 75bd 7cea 943d
00000010: 8910 3ebd 971f 67bd 9392 98bd 2b59 3d3d
00000020: be7d 213e b8b7 f4bd 835c ed3d 3f83 adbc
00000030: 7ff2 e93c 94fa 9e3d fdee 953b c79e d63d
00000040: d864 a43e 349a 133c b612 debe 8eab b03d
00000050: 59b7 363c 4e45 d4be 262b 53bd 88e7 a03e
00000060: d4a9 91be 5e74 5dbd cb6a 86be e513 1dbe
00000070: 085d f0bd e084 9ebe b165 2f3e 4464 a2be
00000080: 29f5 c43d 8d3e 11be 5f8c 90bd 2cf9 173c
00000090: 7cd3 25ba ce1b 38bc 5a5c 89bd 535b 233d
000000a0: 23b8 b33e 4c01 d4bd 63b7 913d 6f0b 7f3e
000000b0: a391 6f3e 4fed 9abd fc74 033e bb10 b13e
000000c0: 8867 dc3e 525c adbe 934f 60be f232 3abe
000000d0: ec2f 3cbe a38f 643e 2e8a 613b 57e6 d23e
000000e0: 49a3 debe bf8e 5dbb 54ec ef3d 65d3 5abe
000000f0: 5166 0cbe c98e 91be 87ed 763d 1252 19bf
00000100: 83c0 bf3e f70d 2abe 66a8 bd3d ed67 65be
00000110: 9a11 60be 9b3a 8fbe 2093 673e 13ed c33e
00000120: 8308 1c3f 83e5 bdbe 670f cdbe 8187 8abe
00000130: 802f 7bbe 95e4 e63c f74b 943b 5239 113f
00000140: 5617 efbe 5ad8 1ebe 106c 813d ecf9 f5bd
00000150: 31b9 7d3c 76e6 26be 8535 9f3d 7087 0fbf
00000160: 3aa7 00bf e380 693d 1c67 093e 96b3 2ebe
00000170: ee5f 333d ead2 813e 541d 8ebe 9714 04bf
00000180: fdf8 183f 3fed 07be 68cc 89bd cabc 66be
00000190: 65d7 2dbe a9c6 fa3d 5b83 9dbc 8de4 3d3d
000001a0: 4428 1a3e 712f 81be f29e b2be 7d0e 89be
000001b0: 2857 88be cd1a a6be 425e 653e c838 2e3e
000001c0: e10d 97bc 304e d5bc e1f1 80be 0cfb 11bd
000001d0: 60db 0f3c ddb7 91be 769c bc3d f987 35be
000001e0: bc86 8fbe 01e4 3abe db6f 083d fd5f 84be
000001f0: 5a9c 99be bbb7 06be 704d 82bd 6ab7 0bbf
00000200: 0a7b 9b3d a955 40bc 4385 103f 39dc 153d
00000210: aac8 03bd ae3d 093f 865c 26bc 08eb 8fbe
00000220: 0a10 12bf d263 87be 5183 8cbd 6f50 44be
00000230: 3cf4 c1bd 41bf 9bbe be09 f33d e746 0fbf
00000240: 592a 6e3e 8e8a 03bd 9aa8 a73c e62c d53d
00000250: 364f 4e3e 0509 10be 5d93 18be 5968 413e
00000260: 87f3 a4be d4e5 e1be e7f9 5d3e 6786 b6be
00000270: b101 1dbd 7b36 4e3e 4b61 a2bd cfdc cabe
00000280: fc1a 063f 7ef1 fc3d d15d 0a3e 639b 1cbe
00000290: 9bf6 823d 322d 353d 3af3 36bd a126 003f
000002a0: 7eaf 953d e65a 0fbe 9025 3fbe 3e6f 1fbe
000002b0: cdaa d9bc 8d9d 33be 29c5 99be fc15 1b3d
000002c0: 44d6 cdbe 79c1 883e f893 f33d 525e 32be
000002d0: 6bae ad3d e608 283d 9d8e 3e3d 8a32 8cbe
000002e0: 8567 26be ea7c 1d3d 50e3 4b3d dfea 8bbe
000002f0: 308d 11be 81a1 6a3b 4b18 bebd 9ee8 c9be

input_embedding.bias f4 [24]
0.07585689 0.16077144 0.035360355 -0.09925106 -0.12211317 0.031681735 0.0062171603 0.010461603
-0.39460737 -0.20270424 0.26285917 0.037970435 -0.01618395 -0.31031385 -0.021771872 -0.36233562
-0.004165485 0.008000175 0.074168816 -0.096265405 -0.3091992 -0.3272925 0.060372632 0.19095413
00000000: db5a 9b3d 45a1 243e 05d6 103d 2444 cbbd
00000010: 7816 fabd b5c4 013d 52b9 cb3b 2567 2b3c
00000020: fa09 cabe b391 4fbe 7a95 863e e386 1b3d
00000030: 3494 84bc 75e1 9ebe ed5a b2bc 0e84 b9be
00000040: 9f7e 88bb 2a13 033c d2e5 973d cc26 c5bd
00000050: 5c4f 9ebe e292 a7be 4b49 773d 7b89 433e

pos_encoder.pe f4 [1, 5000, 24]
0.0 1.0 0.0 1.0 0.0 1.0 0.0 1.0
0.0 1.0 0.0 1.0 0.0 1.0 0.0 1.0
0.0 1.0 0.0 1.0 0.0 1.0 0.0 1.0
0.84147096 0.54030234 0.44767085 0.8941984 0.21378067 0.9768817 0.099833414 0.9950042
0.04639923 0.99892294 0.021542681 0.9997679 0.009999833 0.99995 0.0046415734 0.9999892
0.0021544332 0.9999977 0.0009999998 0.9999995 0.00046415895 0.9999999 0.00021544348 1.0
0.9092974 -0.41614684 0.8006131 0.59918165 0.41767687 0.9085956 0.19866931 0.9800666
0.09269851 0.9956942 0.043075364 0.99907184 0.019998666 0.9998 0.009283047 0.9999569
0.004308856 0.9999907 0.0019999985 0.99999803 0.00092831784 0.9999996 0.00043088695 0.99999994
0.14112 -0.9899925 0.98414314 0.17737612 0.60226107 0.7982992 0.2955202 0.9553365
0.1387981 0.9903207 0.06458805 0.997912 0.0299955 0.99955004 0.01392432 0.9999031
0.006463259 0.99997914 0.0029999954 0.9999955 0.0013924765 0.99999905 0.00064633036 0.9999998
-0.7568025 -0.6536436 0.9594254 -0.28196275 0.75899875 0.6510921 0.38941833 0.921061
0.18459873 0.98281395 0.08607077 0.996289 0.039989334 0.9992001 0.018565293 0.9998276
0.008617632 0.99996287 0.003999989 0.999992 0.0018566349 0.9999983 0.0008617738 0.99999964
-0.9589243 0.2836622 0.73169005 -0.68163747 0.88064283 0.47378072 0.47942552 0.87758255
0.23000173 0.97319025 0.10751353 0.9942036 0.049979165 0.99875027 0.023205869 0.9997307
0.010771966 0.999942 0.004999979 0.9999875 0.0023207928 0.9999973 0.0010772172 0.9999994
-0.2794155 0.96017027 0.349127 -0.93707544 0.961569 0.27456328 0.5646424 0.8253356
0.2749093 0.9614702 0.12890638 0.9916568 0.059964005 0.99820054 0.02784594 0.9996122
0.012926248 0.99991643 0.0059999637 0.999982 0.0027849504 0.9999961 0.0012926605 0.99999917
0.6569866 0.75390226 -0.10731243 -0.9942253 0.9980355 0.06265094 0.6442176 0.7648422
0.31922466 0.94767904 0.15023942 0.98864967 0.06994285 0.997551 0.032485418 0.9994722
0.0150804715 0.9998863 0.006999942 0.9999755 0.003249107 0.99999475 0.0015081038 0.99999887
0.98935825 -0.14550003 -0.5410444 -0.840994 0.9883562 -0.15215816 0.717356 0.6967067
0.36285242 0.9318466 0.17150272 0.98518366 0.07991469 0.9968017 0.03712419 0.9993107
0.017234625 0.99985147 0.007999914 0.999968 0.0037132632 0.9999931 0.001723547 0.9999985
0.4121185 -0.91113025 -0.86028963 -0.5098056 0.9329786 -0.35993198 0.78332686 0.62161
0.4056986 0.91400695 0.19268642 0.98126036 0.089878544 0.9959527 0.041762162 0.99912757
0.019388698 0.999812 0.008999879 0.9999595 0.0041774185 0.9999913 0.0019389901 0.99999815
-0.5440211 -0.8390715 -0.99749476 -0.070740685 0.8344632 -0.55106366 0.84147096 0.54030234
0.44767088 0.8941984 0.21378069 0.9768817 0.099833414 0.9950042 0.04639924 0.99892294
00000000: 0000 0000 0000 803f 0000 0000 0000 803f
00000010: 0000 0000 0000 803f 0000 0000 0000 803f
00000020: 0000 0000 0000 803f 0000 0000 0000 803f
00000030: 0000 0000 0000 803f 0000 0000 0000 803f
00000040: 0000 0000 0000 803f 0000 0000 0000 803f
00000050: 0000 0000 0000 803f 0000 0000 0000 803f
00000060: a46a 573f 4151 0a3f 1d35 e53e 30ea 643f
00000070: 52e9 5a3e eb14 7a3f 7675 cc3d 98b8 7e3f
00000080: 1e0d 3e3d 6ab9 7f3f 477a b03c caf0 7f3f
00000090: 57d6 233c b9fc 7f3f 5718 983b 4bff 7f3f
000000a0: 6431 0d3b d9ff 7f3f 6d12 833a f8ff 7f3f
000000b0: 5c5a f339 feff 7f3f abe8 6139 0000 803f
000000c0: b7c7 683f 3311 d5be fbf4 4c3f f863 193f
000000d0: bed9 d53e b999 683f f86f 4b3e a5e5 7a3f
000000e0: b7d8 bd3d d1e5 7e3f cb6f 303d 2cc3 7f3f
000000f0: 3ed4 a33c e5f2 7f3f ec17 183c 2dfd 7f3f
00000100: 4e31 8d3b 64ff 7f3f 6812 033b dfff 7f3f
00000110: 5b5a 733a f9ff 7f3f abe8 e139 ffff 7f3f
00000120: c381 103e 2670 7dbf cef0 7b3f 16a2 353e
00000130: c82d 1a3f 565d 4c3f 6c4e 973e ef90 743f
00000140: 1721 0e3e a885 7d3f bd46 843d 2977 7f3f
00000150: 1fb9 f53c 83e2 7f3f d522 643c a6f9 7f3f
00000160: bfc9 d33b a2fe 7f3f 929b 443b b5ff 7f3f
00000170: c283 b63a f0ff 7f3f 7f6e 293a fdff 7f3f
00000180: cfbd 41bf 3055 27bf e79c 753f 6c5d 90be
00000190: be4d 423f f9ad 263f d761 c73e a7ca 6b3f
000001a0: 7307 3d3e b299 7b3f df45 b03d cc0c 7f3f
000001b0: dbcb 233d 94cb 7f3f 3e16 983c b4f4 7f3f
000001c0: f830 0d3c 91fd 7f3f 5712 833b 7aff 7f3f
000001d0: 545a f33a e3ff 7f3f a9e8 613a faff 7f3f
000001e0: 107c 75bf 2c3c 913e 0a50 3b3f cb7f 2ebf
000001f0: cf71 613f 6393 f23e 4377 f53e 40a9 603f
00000200: 9385 6b3e ff22 793f 0e30 dc3d 2184 7e3f
00000210: f4b6 4c3d 19ae 7f3f 3c1a be3c 5aee 7f3f
00000220: e67c 303c 33fc 7f3f ddd6 a33b 2eff 7f3f
00000230: 7118 183b d3ff 7f3f 6931 8d3a f6ff 7f3f
00000240: 8c0f 8fbe b8cd 753f c6c0 b23e 2de4 6fbf
00000250: 6329 763f 8f93 8c3e 688c 103f 3249 533f
00000260: e9c0 8c3e e922 763f 0900 043e 38dd 7d3f
00000270: d19c 753d 128a 7f3f 2b1d e43c 96e6 7f3f
00000280: 9dc8 533c 86fa 7f3f 589b c43b d2fe 7f3f
00000290: b783 363b bfff 7f3f 7d6e a93a f2ff 7f3f
000002a0: 4630 283f bdff 403f 9fc6 dbbd 8d85 7ebf
000002b0: 417f 7f3f 234f 803d 72eb 243f b3cc 433f
000002c0: 6a71 a33e 189b 723f 5dd8 193e 2518 7d3f
000002d0: 323e 8f3d 815f 7f3f 6e0f 053d 69dd 7f3f
000002e0: 1514 773c 8cf8 7f3f c55f e53b 65fe 7f3f
000002f0: f8ee 543b a8ff 7f3f 91ab c53a edff 7f3f
00000300: 9546 7d3f f6fd 14be e381 0abf 624b 57bf
00000310: e904 7d3f 59cf 1bbe a5a4 373f 5f5b 323f
00000320: cbc7 b93e 808d 6e3f 699e 2f3e ff34 7c3f
00000330: 50aa a33d 652e 7f3f 890f 183d d3d2 7f3f
00000340: a12f 8d3c 44f6 7f3f 1212 033c e7fd 7f3f
00000350: 385a 733b 8cff 7f3f a4e8 e13a e7ff 7f3f
00000360: 3201 d33e d53f 69bf f13b 5cbf 9f82 02bf
00000370: afd7 6e3f 0149 b8be 1c88 483f d521 1f3f
00000380: bab7 cf3e 5cfc 693f 974f 453e e133 7b3f
00000390: 3e12 b83d c2f6 7e3f cd0e 2b3d d3c6 7f3f
000003a0: 0cd5 9e3c aef3 7f3f 3a74 133c 59fd 7f3f
000003b0: bae2 883b 6eff 7f3f b625 fe3a e1ff 7f3f
000003c0: f844 0bbf 64cd 56bf d15b 7fbf 7ee0 90bd
000003d0: 619f 553f 8212 0dbf a46a 573f 4151 0a3f
000003e0: 1e35 e53e 30ea 643f 53e9 5a3e eb14 7a3f
000003f0: 7675 cc3d 98b8 7e3f 210d 3e3d 6ab9 7f3f

encoder.layers.0.self_attn.in_proj_weight f4 [72, 24]
4.300825e-39 9.51765e-39 7.879755e-39 -1.5369101e-38 1.4683157e-38 2.2209949e-38 1.5430502e-38 1.0154305e-38
-2.79084e-39 2.0304208e-38 -4.24955e-40 1.7373021e-38 -3.68945e-40 1.540276e-38 -3.386559e-39 -3.38737e-40
4.18225e-40 1.5448661e-38 1.0917955e-38 1.0985104e-38 1.006544e-39 1.4403231e-38 -1.164792e-39 2.3236278e-38
4.295374e-39 9.598064e-39 7.830054e-39 -1.532364e-38 1.468848e-38 2.2311292e-38 1.5409837e-38 1.0168203e-38
-2.751284e-39 2.0277317e-38 -4.30504e-40 1.7339739e-38 -3.70628e-40 1.541357e-38 -3.379552e-39 -3.47984e-40
4.59337e-40 1.5564302e-38 1.0927589e-38 1.0994642e-38 9.91343e-40 1.4513982e-38 -1.149013e-39 2.3022985e-38
-4.335842e-39 -9.48585e-39 -7.840876e-39 1.5349099e-38 -1.4655784e-38 -2.2225838e-38 -1.5459213e-38 -1.0157734e-38
2.720383e-39 -2.0172912e-38 4.07278e-40 -1.7391811e-38 3.72594e-40 -1.5452693e-38 3.397522e-39 3.45591e-40
-4.77623e-40 -1.5452005e-38 -1.0888037e-38 -1.10292e-38 -1.023615e-39 -1.4465533e-38 1.159242e-39 -2.3053868e-38
-4.280364e-39 -9.557722e-39 -7.863994e-39 1.5360201e-38 -1.4653883e-38 -2.222227e-38 -1.5411304e-38 -1.0135908e-38
2.80624e-39 -2.0276682e-38 4.03469e-40 -1.7314584e-38 3.69209e-40 -1.5387553e-38 3.392424e-39 3.40594e-40
-4.18016e-40 -1.5471298e-38 -1.0881087e-38 -1.100393e-38 -1.027222e-39 -1.4513248e-38 1.157268e-39 -2.3173119e-38
-4.224713e-39 -9.571678e-39 -7.867855e-39 1.5362598e-38 -1.4650447e-38 -2.2270429e-38 -1.540863e-38 -1.0152868e-38
2.819312e-39 -2.0222682e-38 4.0883e-40 -1.7402773e-38 3.69259e-40 -1.5392946e-38 3.379527e-39 3.4725e-40
-4.0922e-40 -1.5451731e-38 -1.0921835e-38 -1.0966022e-38 -1.033481e-39 -1.4369532e-38 1.145196e-39 -2.3078056e-38
4.36158e-39 9.564001e-39 7.859718e-39 -1.537332e-38 1.4667514e-38 2.22322e-38 1.5443541e-38 1.0180128e-38
-2.848921e-39 2.0328244e-38 -3.9647e-40 1.7356386e-38 -3.66951e-40 1.5403249e-38 -3.385805e-39 -3.45608e-40
4.42112e-40 1.5446605e-38 1.0913112e-38 1.1004879e-38 9.33462e-40 1.4478279e-38 -1.13724e-39 2.3141769e-38
4.287704e-39 9.537579e-39 7.854638e-39 -1.5367795e-38 1.4676708e-38 2.2233838e-38 1.54598e-38 1.0156383e-38
-2.791326e-39 2.0154608e-38 -3.94152e-40 1.7425924e-38 -3.66704e-40 1.5410075e-38 -3.379256e-39 -3.46429e-40
4.17005e-40 1.5450116e-38 1.0909176e-38 1.0989015e-38 1.024104e-39 1.4491238e-38 -1.145308e-39 2.3012079e-38
-4.241715e-39 -9.583646e-39 -7.861733e-39 1.5340803e-38 -1.4674641e-38 -2.2233195e-38 -1.5415584e-38 -1.0161313e-38
2.742162e-39 -2.0257472e-38 4.33517e-40 -1.7389307e-38 3.66487e-40 -1.5400545e-38 3.393623e-39 3.48758e-40
-4.33967e-40 -1.5446279e-38 -1.0910895e-38 -1.1009063e-38 -1.010677e-39 -1.4469652e-38 1.154587e-39 -2.3105863e-38
4.303505e-39 9.589472e-39 7.860397e-39 -1.5316079e-38 1.466846e-38 2.2229746e-38 1.5446782e-38 1.0181133e-38
-2.813052e-39 2.0237457e-38 -3.92302e-40 1.727779e-38 -3.69339e-40 1.5395612e-38 -3.38302e-39 -3.45648e-40
4.18704e-40 1.5455464e-38 1.0927543e-38 1.1002418e-38 1.012814e-39 1.4501061e-38 -1.146463e-39 2.305441e-38
-4.267311e-39 -9.536703e-39 -7.871259e-39 1.533956e-38 -1.4659369e-38 -2.2220318e-38 -1.5428564e-38 -1.0169477e-38
2.699527e-39 -2.0223147e-38 4.00251e-40 -1.733159e-38 3.7118e-40 -1.541016e-38 3.383438e-39 3.45407e-40
-4.30838e-40 -1.5458093e-38 -1.0904575e-38 -1.0998056e-38 -1.019681e-39 -1.4462706e-38 1.140685e-39 -2.3066058e-38
-4.299164e-39 -9.521401e-39 -7.84805e-39 1.5360619e-38 -1.4680667e-38 -2.2210391e-38 -1.5455924e-38 -1.0161481e-38
2.85355e-39 -2.0236846e-38 3.99041e-40 -1.7429007e-38 3.70205e-40 -1.5445536e-38 3.386525e-39 3.43314e-40
00000000: f3d4 2e00 56a3 6700 8dcd 5500 cd5a a780
00000010: abe2 9f00 4dd8 f100 f605 a800 1292 6e00
00000020: ba63 1e80 df17 dd00 9aa0 0480 ea2c bd00
00000030: 7804 0480 a1b8 a700 59e0 2480 43b0 0380
00000040: d78d 0400 9538 a800 d1e2 7600 009e 7700
00000050: d6f5 0a00 59d6 9c00 f7ae 0c80 4a05 fd00
00000060: c1c5 2e00 7f83 6800 0143 5500 13dc a680
00000070: 82f1 9f00 cef2 f200 5bcc a700 d0b8 6e00
00000080: 76f5 1d80 e9cc dc00 12b0 0480 23d0 bc00
00000090: 2909 0480 c3d6 a700 d1cc 2480 0aca 0380
000000a0: 7200 0500 f17a a900 acfd 7600 97b8 7700
000000b0: 76cb 0a00 140b 9e00 fb82 0c80 b7b2 fa00
000000c0: 9036 2f80 b14a 6780 2c61 5580 0b23 a700
000000d0: 5d96 9f80 9804 f280 ff55 a880 a19b 6e80
000000e0: 529f 1d00 dfa9 db80 536f 0400 4b61 bd80
000000f0: a40e 0400 d243 a880 e9fe 2400 5ec3 0300
00000100: 6b33 0580 e741 a880 6b8f 7680 ec18 7880
00000110: 6c25 0b80 0584 9d80 7f9f 0c00 ce08 fb80
00000120: ea9b 2e80 0a13 6880 9ea1 5580 fe41 a700
00000130: 1091 9f80 a6fa f180 72d0 a780 ca5e 6e80
00000140: a88e 1e00 24cb dc80 b564 0400 048a bc80
00000150: 3405 0400 3d8e a780 b3f0 2400 70b5 0300
00000160: 428d 0480 af77 a880 0b7c 7680 7bd2 7780
00000170: 7a2f 0b80 0809 9e80 fe99 0c00 3a55 fc80
00000180: c800 2e80 f239 6880 61ac 5580 ac48 a700
00000190: 7c87 9f80 e580 f280 fec8 a780 118e 6e80
000001a0: 18b3 1e00 9c34 dc80 a773 0400 da7f bd80
000001b0: 5805 0400 459d a780 bfcc 2400 fec7 0300
000001c0: bd74 0480 2441 a880 a2ed 7680 cf68 7780
000001d0: ed40 0b80 6978 9c80 5778 0c00 3b4c fb80
000001e0: 4f7e 2f00 8b24 6800 b295 5500 9066 a780
000001f0: 10b7 9f00 5416 f200 4f2a a800 0eda 6e00
00000200: a205 1f80 e05a dd00 3251 0480 8bfe bc00
00000210: e9fe 0380 feb9 a700 3fde 2480 6ac3 0380
00000220: 6ed0 0400 da32 a800 51d5 7600 20d5 7700
00000230: 1d2a 0a00 8da7 9d00 2a62 0c80 d6fd fb00
00000240: 60b0 2e00 e4da 6700 8987 5500 2957 a780
00000250: b1d0 9f00 e51a f200 a257 a800 dd97 6e00
00000260: 1565 1e80 d976 db00 bc4a 0480 63c0 bd00
00000270: 39fe 0380 05cd a700 fecb 2480 b4c5 0380
00000280: 718a 0400 a33c a800 58ca 7600 e7a8 7700
00000290: c926 0b00 adcb 9d00 a778 0c80 5094 fa00
000002a0: 2d30 2e80 4e5b 6880 509b 5580 eb0b a700
000002b0: eeca 9f80 1a19 f280 60dc a780 9ba5 6e80
000002c0: 08dc 1d00 9795 dc80 78b8 0400 505a bd80
000002d0: 9efd 0300 74b2 a780 0af4 2400 32cc 0300
000002e0: b9b9 0480 f131 a880 23cf 7680 cae0 7780
000002f0: 5b01 0b80 818f 9d80 8592 0c00 bf99 fb80
00000300: 6cdc 2e00 8c6b 6800 9797 5500 ffc6 a680
00000310: b3b9 9f00 7d0f f200 5833 a800 dbdc 6e00
00000320: a5a1 1e80 cc5d dc00 9445 0480 7323 bc00
00000330: 9105 0480 b4a4 a700 7cd6 2480 87c3 0380
00000340: 2d8f 0400 8c4b a800 8bfd 7600 44ce 7700
00000350: 5007 0b00 0fe7 9d00 df7b 0c80 510a fb00
00000360: 8777 2e80 73d8 6780 deb5 5580 7408 a700
00000370: 5ba0 9f80 35f5 f180 8f00 a880 5dbc 6e80
00000380: 2f65 1d00 e835 dc80 bd5b 0400 6cb9 bc80
00000390: b30a 0400 42cd a780 a6d7 2400 dbc2 0300
000003a0: 00b1 0480 e052 a880 85bd 7680 1bc2 7780
000003b0: 751a 0b80 247c 9d80 c46b 0c00 c92a fb80
000003c0: 52d0 2e80 cbad 6780 2c75 5580 2843 a700
000003d0: badb 9f80 89d9 f180 d44c a880 13a6 6e80
000003e0: 8912 1f00 185c dc80 5d58 0400 fbc8 bd80
000003f0: fb07 0400 df2f a880 41e0 2400 05bd 0300

encoder.layers.0.self_attn.in_proj_bias f4 [72]
3.176425e-38 3.1809032e-38 -3.1918925e-38 -3.188141e-38 -3.18395e-38 3.1780118e-38 3.186346e-38 -3.184779e-38
3.182979e-38 -3.1831893e-38 -3.1720476e-38 3.1819063e-38 -7.3789406e-38 -7.367883e-38 -7.3843564e-38 -7.375957e-38
-7.382673e-38 -7.368863e-38 7.374694e-38 7.3754996e-38 -7.3740215e-38 7.370226e-38 -7.3725244e-38 7.3786374e-38
-1.964189e-39 -1.972782e-39 1.991497e-39 1.9521e-39 1.938287e-39 -1.972857e-39 -1.967263e-39 1.95799e-39
-1.933517e-39 1.977922e-39 1.951653e-39 -1.98105e-39 -1.4078174e-38 -1.4093149e-38 -1.4116168e-38 -1.4118308e-38
-1.4198475e-38 -1.4097714e-38 1.415472e-38 1.4075476e-38 -1.4129755e-38 1.4211528e-38 -1.4199147e-38 1.4125998e-38
0.01716004 -0.034219723 -0.027097369 0.011634224 -0.008738413 -0.003947502 -0.024907524 0.046695676
-0.0057460167 0.0056698537 0.010395457 0.018753257 0.015326113 -0.005756423 0.012129499 0.015040249
0.015318314 0.026435023 -0.02541032 0.0021760594 0.016752945 0.00081794726 -0.0019511967 0.021024613
00000000: e7f0 2c01 522f 2d01 7dc8 2d81 3394 2d81
00000010: c959 2d81 0507 2d01 2e7b 2d01 5765 2d81
00000020: 414c 2d01 2f4f 2d81 e4b3 2c81 4d3d 2d01
00000030: b6df c881 a792 c881 7405 c981 ebca c881
00000040: b9f9 c881 7b99 c881 1ec2 c801 bbc7 c801
00000050: 6ebd c881 fba2 c801 ffb2 c881 99dd c801
00000060: 5c63 1580 507b 1580 7caf 1500 a941 1500
00000070: 281b 1500 867b 1580 ee6b 1580 1452 1500
00000080: dc0d 1580 a489 1500 6a40 1500 5d92 1580
00000090: 394c 9980 f775 9980 22b6 9980 19bc 9980
000000a0: 929b 9a80 b182 9980 9a21 9a00 b344 9900
000000b0: 02dc 9980 f5bf 9a00 729d 9a80 89d1 9900
000000c0: 3693 8c3c fb29 0cbd 4dfb ddbc 799d 3e3c
000000d0: 902b 0fbc 0c5a 81bb dd0a ccbc f743 3f3d
000000e0: 1549 bcbb 2eca b93b b551 2a3c 6ea0 993c
000000f0: 611a 7b3c 60a0 bcbb ceba 463c 606b 763c
00000100: aaf9 7a3c 438e d83c 4e29 d0bc 389c 0e3b
00000110: 793d 893c 836b 563a 4cbf ffba cf3b ac3c

encoder.layers.0.self_attn.out_proj.weight f4 [24, 24]
-0.009141953 -0.030778619 -0.0059240498 0.001822177 -0.012967252 -0.013201288 0.0033882272 -0.0007406972
-0.015971808 -0.013110397 0.023519723 -0.0037646745 -0.008794767 -0.046069972 0.030767033 0.017011242
0.01881786 -0.009233691 -0.014695312 0.027610255 -0.040292338 0.031620014 -0.0045560664 0.0008325117
-0.042972993 -0.054025028 0.012853033 -0.0026133973 0.027041173 0.012421983 -0.070456095 0.054466758
-0.030261608 -0.023794401 -0.030255912 -0.025720704 -0.017193897 -0.077307105 0.024238382 0.032434817
0.039669495 -0.064239375 -0.03580161 0.03494487 0.07534848 -0.05796201 -0.022900373 0.062242515
0.00028225812 0.11676711 0.033675753 -0.03229554 0.0037726949 -0.07014411 0.07760089 -0.08820222
0.026345482 0.089006454 0.03433446 -0.057822373 -0.010760274 0.044495564 0.017102549 -0.02762677
0.029060822 -0.06289159 0.036518987 -0.0053540417 -0.03820483 -0.017193459 -0.014562393 0.04833696
0.0458966 -0.013434657 -0.0140341185 -0.0032834061 -0.011910504 -0.11044615 0.08196345 -0.041589607
0.018355846 0.041990932 0.027176749 -0.06398261 0.0031082223 -0.020654103 -0.027021142 -0.07090627
-0.0011944721 0.0040258314 0.02107549 -0.009317152 -0.101309724 0.021903059 0.048206016 -0.012345107
-0.025469396 0.023346659 -0.0005256151 -0.009579761 -0.0036404543 0.030417357 -0.02262494 0.012330898
-0.019220807 -0.022870012 0.017557174 0.015585365 -0.021537334 -0.068562165 0.008785267 0.029241776
-0.012052278 -0.018889956 -0.00899103 0.01818294 -0.05376808 0.024591392 -0.025933407 5.890041e-05
0.009939853 0.052258484 -0.041620538 -0.007629379 -0.048515107 0.01767373 -0.114297934 -0.07851877
-0.14543182 -0.08133462 0.048148826 -0.047203083 -0.09364547 0.040286183 0.0634545 0.11656873
0.08525822 0.12216852 -0.014277572 0.057139613 0.09886384 0.03623493 -0.10351534 0.103766896
0.007913342 -0.113161184 -0.15783751 0.004455422 0.054893762 0.06289554 0.019479534 -0.08717927
-0.15009037 0.011438128 0.12627748 0.09502032 -0.1302532 -0.029356824 -0.09883835 -0.10384586
0.023766285 0.116009235 0.051919688 -0.14145555 0.11432703 -0.106973566 0.0086746095 0.1305449
0.030943276 0.17030579 -0.0852034 -0.046545755 0.05093438 -0.10335055 -0.018007945 -0.14168929
0.052185386 0.09155281 0.085198976 -0.05676395 -0.08117141 0.019838965 0.0053014974 -0.07124541
-0.020532506 0.09846987 0.08267265 0.008922285 -0.05905923 -0.10281642 -0.0015357352 0.010076372
-0.07735965 0.04737177 -0.048007652 -0.05726417 0.12542321 0.100299716 0.11213035 -0.033250526
-0.08334201 0.044884015 -0.12628964 -0.089557625 -0.006852356 -0.06488474 -0.09775752 0.1463671
0.1260364 0.05726199 -0.07709924 -0.122334965 -0.0484481 0.02604313 -0.07011219 0.0004751874
-0.0045716185 0.059646893 -0.1760237 0.046900846 -0.023394825 0.035897933 -0.029509084 0.09839482
-0.101406835 0.100738406 -0.042976044 0.10762536 0.10583725 -0.08587442 -0.13737306 0.12515536
0.11003101 -0.08905502 -0.03968882 -0.11608239 -0.11687864 -0.069633655 -0.013922237 0.063768536
-0.050535724 0.1977415 0.05646211 -0.07699765 -0.0022828837 0.027062971 0.077275895 -0.17540991
0.08160703 -0.08814941 -0.14242634 -0.102140136 0.19064984 0.15854232 0.14189428 0.07809623
00000000: 21c8 15bc 7123 fcbc 881e c2bb 1dd6 ee3a
00000010: 9974 54bc 374a 58bc 050d 5e3b 592b 42ba
00000020: 4fd7 82bc fecc 56bc 6fac c03c c2b8 76bb
00000030: ed17 10bc deb3 3cbd 250b fc3c 295b 8b3c
00000040: ea27 9a3c e848 17bc 9bc4 70bc e72e e23c
00000050: 9409 25bd fd83 013d 0e4b 95bb ea3c 5a3a
00000060: 7304 30bd 5949 5dbd 8795 523c 8845 2bbb
00000070: 7385 dd3c 9385 4b3c 494b 90bd 8918 5f3d
00000080: 31e7 f7bc 7aec c2bc 3fdb f7bc 3ab4 d2bc
00000090: 37da 8cbc 3053 9ebd 928f c63c 5fda 043d
000000a0: 7b7c 223d ef8f 83bd b6a4 12bd 5a22 0f3d
000000b0: 4e50 9a3d 9369 6dbd 9099 bbbc 02f2 7e3d
000000c0: 0bfc 9339 9823 ef3d 96ef 093d 5448 04bd
000000d0: 513f 773b b7a7 8fbd 37ed 9e3d 5ea3 b4bd
000000e0: 7bd2 d73c 0449 b63d 4aa2 0c3d 27d7 6cbd
000000f0: dc4b 30bc fb40 363d a51a 8c3c 8951 e2bc
00000100: f610 ee3c 4ecd 80bd ef94 153d f570 afbb
00000110: ab7c 1cbd 4cd9 8cbc 1a97 6ebc fafc 453d
00000120: 13fe 3b3d 091d 5cbc 5cef 65bc 6a2e 57bb
00000130: 4624 43bc 9731 e2bd 74dc a73d dd59 2abd
00000140: 005f 963c affe 2b3d c6a1 de3c 5109 83bd
00000150: 51b3 4b3b cb32 a9bc 715b ddbc 4e37 91bd
00000160: d58f 9cba 1feb 833b 82a6 ac3c f8a6 18bc
00000170: 797b cfbd 0b6e b33c ac73 453d 2243 4abc
00000180: 32a5 d0bc 7e41 bf3c 6fc9 09ba 6ef4 1cbc
00000190: b094 6ebb d22d f93c f057 b9bc 8907 4a3c
000001a0: f474 9dbc e459 bbbc 10d4 8f3c c259 7f3c
000001b0: 106f b0bc 526a 8cbd 15f0 0f3c 738c ef3c
000001c0: eb76 45bc 1cbf 9abc 1d4f 13bc 64f4 943c
000001d0: eb3b 5cbd e373 c93c 4c72 d4bc d50b 7738
000001e0: c4da 223c fe0c 563d 4c7a 2abd dfff f9bb
000001f0: c7b7 46bd 80c8 903c 0915 eabd 73ce a0bd
00000200: 14ec 14be c492 a6bd b437 453d 0558 41bd
00000210: 32c9 bfbd 2003 253d 6ff4 813d 96bb ee3d
00000220: dd9b ae3d 7d33 fa3d 7aec 69bc 3a0b 6a3d
00000230: 2079 ca3d 146b 143d daff d3bd bd83 d43d
00000240: f6a6 013c 0dc1 e7bd 28a0 21be cafe 913b
00000250: 48d8 603d 60cf 803d 8b93 9f3c 0c8b b2bd
00000260: 4ab1 19be fc66 3b3c e24e 013e 039a c23d
00000270: 1861 05be b97d f0bc c36b cabd 23ad d4bd
00000280: 83b1 c23c 4096 ed3d bda9 543d b9d9 10be
00000290: 4a24 ea3d f514 dbbd f31f 0e3c 90ad 053e
000002a0: c17c fd3c a464 2e3e 1f7f aebd c3a6 3ebd
000002b0: 92a0 503d 74a9 d3bd 6685 93bc ff16 11be
000002c0: 58c0 553d 0a80 bb3d cd7c ae3d 5181 68bd
000002d0: 323d a6bd 5385 a23c 2fb8 ad3b 1de9 91bd
000002e0: c933 a8bc 92aa c93d 4750 a93d c72e 123c
000002f0: 17e8 71bd 6a91 d2bd b94a c9ba 5e17 253c
00000300: bc6e 9ebd e708 423d aca3 44bd d68d 6abd
00000310: f16e 003e f069 cd3d 99a4 e53d b431 08bd
00000320: 37af aabd 4dd8 373d 1252 01be fd69 b7bd
00000330: ba89 e0bb 4ae2 84bd 1835 c8bd 42e1 153e
00000340: b00f 013e 8c8b 6a3d 35e6 9dbd c18a fabd
00000350: 8471 46bd 6758 d53c fb96 8fbd 9322 f939
00000360: 84cd 95bb 4d50 743d 8f3f 34be 1a1b 403d
00000370: 81a6 bfbc b609 133d 09bd f1bc 3983 c93d
00000380: 63ae cfbd f04f ce3d a607 30bd af6a dc3d
00000390: 33c1 d83d eede afbd 86ab 0cbe ba28 003e
000003a0: f057 e13d 7a62 b6bd be90 22bd 9bbc edbd
000003b0: 125e efbd 179c 8ebd 181a 64bc 1499 823d
000003c0: 8cfe 4ebd bf7c 4a3e d044 673d f2b0 9dbd
000003d0: 6f9c 15bb 2ab3 dd3c d342 9e3d a89e 33be
000003e0: 9621 a73d ae87 b4bd 36d8 11be d92e d1bd
000003f0: b639 433e eb58 223e bc4c 113e ebf0 9f3d

encoder.layers.0.self_attn.out_proj.bias f4 [24]
0.068123095 0.047200426 -0.0064749853 0.015143189 0.021146864 0.0022794304 0.013042403 -0.0019626056
0.0043912507 0.009152855 -0.010999994 0.0035103508 0.0052497396 0.05271353 -0.03660495 0.006633391
0.019365108 -0.007269949 0.014501686 0.04328971 0.0010464888 0.019579127 -0.016449723 -0.019605258
00000000: 1f84 8b3d 3c55 413d 1d2c d4bb 231b 783c
00000010: 303c ad3c 7f62 153b ceaf 553c 0f9f 00bb
00000020: 7be4 8f3b dbf5 153c 5239 34bc ea0d 663b
00000030: 0206 ac3b 24ea 573d 12ef 15bd eb5c d93b
00000040: 93a3 9e3c c138 eebb 7b98 6d3c 8d50 313d
00000050: 562a 893a 6864 a03c 92c1 86bc 359b a0bc

encoder.layers.0.linear1.weight f4 [128, 24]
-0.0028852583 -0.011212639 -0.030144706 0.0050965 -0.06722638 0.031989813 0.036621016 0.0027311845
0.059564326 -0.033906557 -0.00977562 -0.08450031 -0.02092124 0.04304634 0.03936486 0.011884847
-0.051360644 0.118274465 0.028399227 0.0016047981 -0.07147107 0.01245776 -0.0031555821 0.15212008
-0.01993614 -0.0012961535 -0.02477295 0.051255558 0.014025295 0.18122439 0.22674397 -0.01714617
-0.022478586 -0.20156671 -0.06602587 0.001429776 0.03169767 -0.005102119 0.15172634 -0.096775055
-0.008099302 -0.015497579 -0.08031493 0.014675388 0.11389146 -0.057923164 -0.044991095 -0.009312014
-0.007341684 -0.00086054666 -0.021940643 0.035663262 -0.0044506113 0.07067165 0.05841996 0.02131293
-0.05411689 -0.12678747 -0.0010592263 0.0101446025 0.008899673 0.028744597 0.032772865 -0.0039293193
-0.016673448 -0.0024044008 0.027351772 0.0064918622 0.07433526 -0.004389104 -0.022717046 -0.0062218145
0.05508581 0.043780003 0.03205304 -0.030432606 -0.05369043 -0.08874595 -0.07825451 -0.0026345947
-0.061256252 0.27308378 -0.03797149 0.034429163 0.08825722 -0.10963137 0.0930226 -0.046039313
0.058611736 0.03845994 -0.14266488 0.024387738 0.14982925 -0.021559276 -0.008450842 0.09232532
-0.016656118 -0.065124676 0.0055643027 0.0041001774 0.032528266 0.037748195 -0.03369476 -0.04094105
0.08249321 -0.0011736667 -0.035607297 0.07631182 0.011033269 -0.0055016847 -0.031152492 -0.023073964
0.002655877 -0.10722855 0.011204126 -0.023039028 -0.081440374 -0.019905707 -0.044209108 -0.062475905
-0.0060634348 -0.019089965 -0.07652807 0.089042336 -0.024767403 9.74327e-05 -0.050980825 0.012260063
-0.062167283 -0.045955453 0.0025496387 0.017780086 -0.006017846 -0.031080926 -0.012572134 -0.04640544
0.11329805 -0.03008359 -0.036020763 0.030597353 0.015626911 0.012124018 -0.00023714048 -0.012889598
0.004776623 0.038550317 0.072744176 -0.0076797456 0.0052342038 -0.051868238 0.09977309 0.0010857413
-0.02377874 -0.030307679 -0.02387832 -0.03219197 0.036906313 -0.005341869 -0.020750644 0.0032744019
0.00711644 -0.003829818 0.037692245 -0.017015882 -0.014336369 -0.04035921 0.01819972 -0.078656346
-0.004327468 0.10035161 0.013076177 -0.005657936 0.015049307 0.0846892 0.043129936 -0.0019616242
0.0050642407 -0.013300567 0.026623502 -0.034198605 -0.014641651 0.0014619358 -0.021983655 -0.048179317
0.10667636 -0.014845966 -0.0072899866 -0.022116654 -0.011821497 -0.03583331 0.06056225 -0.08003306
0.01874675 0.07848592 0.04043385 0.0011335261 0.009040481 -0.06903354 -0.045009494 0.019045837
-0.0001432609 0.036175508 -0.027704189 0.06726245 -0.023589434 0.0076356186 0.07601909 0.005433504
0.0033711307 0.0123556685 0.016910799 0.012748446 0.079364896 0.015321892 0.021337792 -0.024131006
-0.0017369433 0.048238862 -0.02909051 0.0255674 0.0062783733 -0.062948234 -0.045342963 0.009548328
-0.008598135 0.0011064832 0.03018049 0.023250105 -0.0018891781 -0.0011435105 -0.0015982668 0.0135687655
-0.022165356 0.034810014 -0.0044124005 0.0019073059 -0.0123227965 0.019335594 -0.011813038 -0.075843744
-0.003894976 0.073657826 -0.10426902 -0.0020160086 -0.0022141663 -0.003188919 -0.041398104 -0.039739173
-0.028356127 -0.035058945 -0.07517321 0.013465899 0.072123125 0.04114315 0.08585956 0.08385984
00000000: 9a16 3dbb 37b5 37bc 08f2 f6bc 8a00 a73b
00000010: fcad 89bd c007 033d ebff 153d acfd 323b
00000020: b9f9 733d 9ae1 0abd ec29 20bc 800e adbd
00000030: 0563 abbc 5c51 303d 0c3d 213d a9b8 423c
00000040: 8a5f 52bd e239 f23d 7fa5 e83c 1758 d23a
00000050: 6d5f 92bd a21b 4c3c e2cd 4ebb 5ec5 1b3e
00000060: 1e51 a3bc b2e3 a9ba a4f0 cabc 59f1 513d
00000070: 5aca 653c e392 393e 922f 683e 2076 8cbc
00000080: 0325 b8bc 8167 4ebe 9238 87bd 5267 bb3a
00000090: 6bd5 013d ad2f a7bb 265e 1b3e 0032 c6bd
000000a0: efb2 04bc 8fe9 7dbc 277c a4bd 0a71 703c
000000b0: ed3f e93d d740 6dbd 9548 38bd 6b91 18bc
000000c0: 8292 f0bb 4f96 61ba ddbc b3bc a413 123d
000000d0: 6fd6 91bb 4cbc 903d c549 6f3d 7498 ae3c
000000e0: aca9 5dbd 93d4 01be bdd5 8aba 8c35 263c
000000f0: efcf 113c ca79 eb3c d73c 063d 85c1 80bb
00000100: c196 88bc 2793 1dbb d310 e03c b0b9 d43b
00000110: 163d 983d 79d2 8fbb 1919 babc 5de0 cbbb
00000120: a9a1 613d a952 333d 0c4a 033d cd4d f9bc
00000130: 7fea 5bbd 70c0 b5bd e743 a0bd 2aa9 2cbb
00000140: d6e7 7abd a3d1 8b3e fe87 1bbd 9805 0d3d
00000150: 34c0 b43d 6986 e0bd a282 be3d b893 3cbd
00000160: dc12 703d 2c88 1d3d be16 12be cbc8 c73c
00000170: d76c 193e 149d b0bc 6775 0abc 0f15 bd3d
00000180: 6972 88bc 1660 85bd c154 b63b c85a 863b
00000190: 5c3c 053d da9d 1a3d 8403 0abd cdb1 27bd
000001a0: 33f2 a83d b8d5 99ba f5d8 11bd 5f49 9c3d
000001b0: e2c4 343c 7a47 b4bb 8333 ffbc 9c05 bdbc
000001c0: 390e 2e3b a49a dbbd 8391 373c 58bc bcbc
000001d0: 36ca a6bd 4b11 a3bc 9c14 35bd bce6 7fbd
000001e0: c7af c6bb 8f62 9cbc c0ba 9cbd d45b b63d
000001f0: 02e5 cabc c854 cc38 45d1 50bd 6ede 483c
00000200: 1fa3 7ebd c93b 3cbd d717 273b 8ba7 913c
00000210: 5a31 c5bb 6d9d febc 5afb 4dbc a113 3ebd
00000220: cf08 e83d dc71 f6bc 828a 13bd 4da7 fa3c
00000230: 0204 803c d1a3 463c eaa8 78b9 e42e 53bc
00000240: 3885 9c3b f0e6 1d3d e6fa 943d 60a6 fbbb
00000250: af83 ab3b ca73 54bd d555 cc3d 6f4f 8e3a
00000260: a2cb c2bc cf47 f8bc 779c c3bc badb 03bd
00000270: 132b 173d d80a afbb 41fd a9bc 5997 563b
00000280: 0731 e93b affd 7abb 2f63 1a3d e464 8bbc
00000290: 17e3 6abc b34f 25bd 9417 953c 9416 a1bd
000002a0: 6fcd 8dbb 2585 cd3d 763d 563c 3566 b9bb
000002b0: 5e91 763c 8871 ad3d 04a9 303d 988e 00bb
000002c0: eef1 a53b 9fea 59bc 8819 da3c d613 0cbd
000002d0: 89e3 6fbc 6d9e bf3a 1117 b4bc ad57 45bd
000002e0: 2379 da3d 7f3c 73bc d7e0 eebb fc2d b5bc
000002f0: f4ae 41bc f3c5 12bd 1f10 783d 5fe8 a3bd
00000300: c992 993c 3abd a03d f79d 253d d392 943a
00000310: 871e 143c 7561 8dbd e05b 38bd 0406 9c3c
00000320: 4e38 16b9 c52c 143d e5f3 e2bc e5c0 893d
00000330: a13e c1bc 3634 fa3b e6af 9b3d 890b b23b
00000340: 30ee 5c3b 6e6f 4a3c 8488 8a3c dcde 503c
00000350: 108a a23d ac08 7b3c 98cc ae3c 63ae c5bc
00000360: 25aa e3ba 1d96 453d 394f eebc b972 d13c
00000370: d0ba cd3b 01eb 80bd 8bb9 39bd 9770 1c3c
00000380: 31df 0cbc 6a07 913a 133d f73c 0177 be3c
00000390: 4c9e f7ba d8e1 95ba ef7c d1ba 874f 5e3c
000003a0: 1f94 b5bc f294 0e3d e695 90bb 91fe f93a
000003b0: 8ee5 49bc ae65 9e3c 798b 41bc f753 9bbd
000003c0: db42 7fbb ead9 963d ff8a d5bd 031f 04bb
000003d0: 8c1b 11bb 2ffd 50bb 0f91 29bd 8bc5 22bd
000003e0: 1c4b e8bc f899 0fbd 69f4 99bd 13a0 5c3c
000003f0: 4ab5 933d b885 283d 23d7 af3d b5be ab3d

encoder.layers.0.linear1.bias f4 [128]
-0.11155669 0.13624638 0.053020876 -0.064275965 -0.042328015 0.004880306 0.07117889 0.0023120611
0.024964644 -0.011873189 0.028708227 0.1443834 0.023305802 -0.02140029 -0.00047662065 0.074740745
0.03245127 -0.010087233 -0.08414866 0.051238675 -0.06860789 0.054113425 -0.020824676 -0.011608805
-0.010562774 -0.03519908 0.0013332597 -0.10417023 -0.012444036 0.06715329 0.05295057 0.10520512
-0.027805002 0.07070462 -0.12100769 0.06753953 0.014896332 0.07097732 0.013024381 0.10983379
0.044392135 0.13532954 -0.020210871 -0.04612764 -0.043017615 -0.06854489 0.021431802 -0.12419358
0.023274899 0.05672566 0.12516385 -0.013919097 0.015464708 -0.0005347412 -0.022229962 -0.03382985
-0.058181766 0.015132251 0.0039198757 -0.011279066 0.07422317 -0.05225303 -0.061676264 0.030999357
-0.010602387 -0.06140807 -0.021058831 -0.02211233 -0.018159745 0.099932864 -0.035313554 0.04296795
0.050708722 0.0043917354 -0.04182167 -0.04757441 0.026693553 -0.08875528 -0.042272005 0.019181907
-0.008421752 0.06382514 0.060953315 -0.02589362 -0.058789503 0.090239786 -2.6347432e-05 0.013245519
-0.053324517 0.015469557 -0.12464698 -0.02180303 -0.09321107 -0.12312121 -0.0006718419 0.008306219
0.0017099759 -0.030185357 0.098807186 -0.00017506753 -0.07616233 0.017522605 0.0683732 0.111995704
0.023998884 0.10640115 -0.057508174 0.017882738 -0.06432151 -0.008418311 0.028476749 -0.067927286
0.06409806 -0.069758914 -0.027586797 0.03575612 -0.03152416 0.017855251 -0.017346034 0.07420623
-0.048879255 0.047870036 -0.03583463 -0.13282338 0.037404288 -0.029310787 0.011345687 0.005236912
00000000: d577 e4bd 2c84 0b3e 6b2c 593d 1ea3 83bd
00000010: 2460 2dbd f9ea 9f3b 3dc6 913d f385 173b
00000020: a782 cc3c c487 42bc 842d eb3c 3ed9 133e
00000030: cfeb be3c a94f afbc f1e2 f9b9 ad11 993d
00000040: 9feb 043d ec44 25bc 2256 acbd a5df 513d
00000050: 4b82 8cbd 0aa6 5d3d 8398 aabc db32 3ebc
00000060: 7c0f 2dbc e92c 10bd c6c0 ae3a 3457 d5bd
00000070: 12e2 4bbc aa87 893d b2e2 583d c875 d73d
00000080: 51c7 e3bc 95cd 903d e1d2 f7bd 2a52 8a3d
00000090: bf0f 743c 8f5c 913d 3764 553c 8af0 e03d
000000a0: 87d4 353d d493 0a3e 4591 a5bc 56f0 3cbd
000000b0: 3d33 30bd 4361 8cbd bf91 af3c 3459 febd
000000c0: 00ab be3c 2a59 683d f42a 003e ed0c 64bc
000000d0: b05f 7d3c e02d 0cba 9c1b b6bc 2b91 0abd
000000e0: 0150 6ebd 43ed 773c 4d72 803b d5cb 38bc
000000f0: 5102 983d 4607 56bd 40a0 7cbd 5df2 fd3c
00000100: a2b5 2dbc 0787 7bbd 9283 acbc eb24 b5bc
00000110: bfc3 94bc 9aa9 cc3d f2a4 10bd 29ff 2f3d
00000120: f3b3 4f3d 8ce8 8f3b 334d 2bbd 62dd 42bd
00000130: 70ac da3c 54c5 b5bd 6925 2dbd 6023 9d3c
00000140: 63fb 09bc c1b6 823d 2faa 793d db1e d4bc
00000150: 43cd 70bd a3cf b83d ae04 ddb7 bc03 593c
00000160: cf6a 5abd 0674 7d3c ea46 ffbd 459c b2bc
00000170: 72e5 bebd f926 fcbd 8c1e 30ba cf16 083c
00000180: 4521 e03a 4847 f7bc 6c5b ca3d 5592 37b9
00000190: fffa 9bbd 918b 8f3c 4007 8c3d 015e e53d
000001a0: 4f99 c43c d9e8 d93d b18d 6bbd d27e 923c
000001b0: ffba 83bd f5ec 09bc 1248 e93c 761d 8bbd
000001c0: d845 833d c3dd 8ebd b5fd e1bc 0275 123d
000001d0: 7a1f 01bd 2d45 923c 4519 8ebc 70f9 973d
000001e0: 9d35 48bd 5f13 443d 55c7 12bd da02 08be
000001f0: 3d35 193d 2d1d f0bc 43e3 393c 679a ab3b

encoder.layers.0.linear2.weight f4 [24, 128]
0.0069893743 0.029565237 0.007010423 0.003456807 0.016400488 -0.00137176 0.01560834 0.014974839
0.004413994 0.0100441575 0.021745155 0.026494008 0.02072796 0.007365342 0.0065896716 0.00758806
0.017256273 -0.0006971431 0.01528311 0.012231716 0.003938859 6.5373635e-05 0.015826978 0.016688392
0.019390058 -0.005557195 -0.003044791 0.014154475 -0.010212738 0.021480456 0.008967066 0.01713496
-0.0018145597 0.025200693 -0.0027508587 0.022973826 0.01410035 0.0072494433 0.036691047 0.0027161443
0.010303916 0.026828201 -0.0032698442 0.0107205305 0.008110332 0.01088185 0.014638927 0.012465384
0.040812284 0.02778728 0.013382453 0.0026571788 -0.003673013 0.017061846 0.0029884835 0.012581672
-0.00774626 0.013096667 0.019188743 -0.0050388 0.012516055 0.0134232 0.008014932 0.017752063
-0.011630572 0.0007931559 0.014011331 0.0125221135 0.0054764207 0.01674038 0.011782085 0.016769912
0.010900825 0.0069505996 0.0002528014 0.015071982 0.012906127 0.005393197 0.0139603885 0.00471637
-0.0017076464 0.011270347 0.0061409767 0.001211302 0.004166369 0.028179774 0.0004059347 0.0018738792
0.0054731234 0.0047103497 0.0034713384 0.019076472 0.007744422 0.009648289 0.01966348 -0.0035252909
0.021754177 0.020104721 0.0195255 0.010395015 -0.004014177 -0.008167291 0.02230355 0.032598317
0.0230734 -0.001974946 -0.001945925 -0.0005512007 -0.0027022865 0.015469478 -0.0018470127 0.012462753
0.001561113 0.017363051 0.009876282 0.024135778 -0.010702516 0.006322622 0.01581652 0.010606794
0.0009784152 0.0139738405 0.002574037 0.017999802 0.019204076 0.0062283645 0.024533495 -0.019102693
0.026065592 0.005439032 0.0026469913 -0.0015794489 0.0046906695 -0.03233526 0.020003082 -0.033412505
0.010629032 0.0051938314 0.0020418826 0.02279269 6.9251e-05 0.06532182 -0.011911512 -0.019216515
-0.06854184 0.015126415 -0.014003624 -0.0048440965 0.0073930304 0.043633614 -0.055718143 -0.017768072
0.021983901 0.0052978653 0.028143449 0.0022762627 -0.009461141 -0.03824369 0.00055287837 -0.035499588
0.030456154 0.016876444 0.048972547 0.006557303 0.002174142 0.0149336625 0.003935882 -0.00068656856
-0.016636046 -0.0011545953 0.03461544 0.025051909 -0.03400205 0.02763883 0.030251874 0.030676762
0.019820135 0.0047684987 -0.0008354874 0.0038264887 0.028360404 -0.033326387 -0.02888685 -0.005022092
0.018029258 -0.0040322714 -0.0321673 0.032419458 -0.022130668 0.053041715 0.08113256 0.006768856
0.048339237 -0.0060343854 0.0018834439 0.001458876 -0.048609447 0.021923564 0.08283 0.029098507
-0.006510786 -0.03556812 -0.003293889 -0.028716067 -0.009321649 -0.009680193 0.031067757 -0.013133294
0.034031656 0.0037096834 -0.04389527 0.01173663 -0.01305613 0.050926022 -0.0008131406 0.02317245
-0.058575902 0.030525353 0.04513018 0.0015614263 -0.0042811674 0.00840137 -0.018654216 0.01763887
0.023181014 -0.073679104 0.0018786945 -0.0011514397 0.028685482 0.03718602 -0.007309173 -0.012762257
-0.034765277 0.011016008 -0.0024886895 0.009396508 0.035352785 0.005096165 0.03639348 0.012925236
-0.04008045 -0.0065039685 0.00013067688 0.0075186905 0.010752984 0.008527577 -0.0034851122 0.032542538
0.0036412429 -0.0008615327 -0.030851297 -0.058071755 -0.041484874 0.0028146696 0.003880732 -0.0077478373
00000000: 1f07 e53b cc32 f23c b1b7 e53b 998b 623b
00000010: 515a 863c a1cc b3ba 1fba 7f3c 0759 753c
00000020: 44a3 903b 4090 243c e522 b23c f609 d93c
00000030: afcd a93c f858 f13b 2cee d73b 43a5 f83b
00000040: 075d 8d3c 7bc0 36ba 0266 7a3c 8967 483c
00000050: 8b11 813b 3419 8938 94a7 813c 18b6 883c
00000060: e6d7 9e3c 2119 b6bb 1e8b 47bb 2ce8 673c
00000070: 5453 27bc c8f7 af3c 9aea 123c 9e5e 8c3c
00000080: 85d6 edba af71 ce3c c047 34bb 9b33 bc3c
00000090: 2805 673c bd8c ed3b 5a49 163d 5701 323b
000000a0: c2d1 283c d1c6 db3c e24a 56bb 2aa5 2f3c
000000b0: 33e1 043c c949 323c 1cd8 6f3c 9c3b 4c3c
000000c0: c82a 273d 26a2 e33c 1342 5b3c 1024 2e3b
000000d0: efb6 70bb 49c5 8b3c 6fda 433b 5b23 4e3c
000000e0: 57d4 fdbb 6793 563c b631 9d3c 851c a5bb
000000f0: 2410 4d3c fbec 5b3c 1051 033c c66c 913c
00000100: 288e 3ebc cbeb 4f3a c88f 653c 8d29 4d3c
00000110: 8c73 b33b 1f23 893c a509 413c 0e61 893c
00000120: 6099 323c dbc1 e33b 6e8a 8439 79f0 763c
00000130: 3874 533c 6ab9 b03b 1dba 643c c78b 9a3b
00000140: 1bd3 dfba 43a7 383c 3f3a c93b 8dc4 9e3a
00000150: 0986 883b 45d9 e63c a2d3 d439 f49c f53a
00000160: e357 b33b 4759 9a3b 657f 633b 4346 9c3c
00000170: ecc4 fd3b db13 1e3c 4e15 a13c 9108 67bb
00000180: d135 b23c a8b2 a43c f1f3 9f3c da4f 2a3c
00000190: 5b89 83bb 1ad0 05bc efb5 b63c d085 053d
000001a0: 6d04 bd3c 186e 01bb 680e ffba 747e 10ba
000001b0: d818 31bb b273 7d3c 7617 f2ba 9330 4c3c
000001c0: 439e cc3a f53c 8e3c 21d0 213c 65b8 c53c
000001d0: 9b59 2fbc ff2d cf3b a691 813c 1ec8 2d3c
000001e0: 2b3e 803a 89f2 643c 2db1 283b 5274 933c
000001f0: de51 9d3c 4f17 cc3b 78fa c83c 407d 9cbc
00000200: 8287 d53c e839 b23b 2579 2d3b 8305 cfba
00000210: 30b4 993b fa71 04bd 81dd a33c 8ddb 08bd
00000220: 6425 2e3c 0431 aa3b 1bd1 053b bcb7 ba3c
00000230: d93a 9138 72c7 853d 8128 43bc f46b 9dbc
00000240: aa5f 8cbd c8d4 773c 756f 65bc 3abb 9ebb
00000250: 3c41 f23b 29b9 323d b538 64bd 598e 91bc
00000260: 9517 b43c b799 ad3b 178d e63c 5a2d 153b
00000270: e702 1bbc 6aa5 1cbd 0aef 103a 0468 11bd
00000280: 2f7f f93c 7840 8a3c 7097 483d a5de d63b
00000290: 0d7c 0e3b 52ac 743c 92f8 803b d6fa 33ba
000002a0: 5148 88bc ca55 97ba ebc8 0d3d a939 cd3c
000002b0: bc45 0bbd d46a e23c c7d2 f73c d54d fb3c
000002c0: d65d a23c 1141 9c3b 9c04 5bba d4c5 7a3b
000002d0: 1454 e83c 4081 08bd 1ea4 ecbc 5c90 a4bb
000002e0: 18b2 933c 2521 84bb dcc1 03bd 44ca 043d
000002f0: 604b b5bc 4542 593d d428 a63d 48cd dd3b
00000300: 5dff 453d 18bc c5bb e4dd f63a c137 bf3a
00000310: b31a 47bd 0c99 b33c c6a2 a93d fe5f ee3c
00000320: 6e58 d5bb e1af 11bd 4ade 57bb f53d ebbc
00000330: d4b9 18bc ac99 1ebc cf81 fe3c 072d 57bc
00000340: c764 0b3d 291e 733b 87cb 33bd ff4a 403c
00000350: 61e9 55bc ce97 503d f128 55ba 26d4 bd3c
00000360: 49ed 6fbd 4e10 fa3c 6cda 383d c6a8 cc3a
00000370: 0949 8cbb e6a5 093c bad0 98bc 647f 903c
00000380: 1ce6 bd3c 12e5 96bd 873e f63a e8eb 96ba
00000390: d1fd ea3c 5e50 183d c981 efbb c918 51bc
000003a0: 0966 0ebd 7d7c 343c 4819 23bb d0f3 193c
000003b0: 15ce 103d bbfd a63b 5411 153d 5ec4 533c
000003c0: 662b 24bd 3e1f d5bb 4f06 0939 595f f63b
000003d0: 492d 303c 40b7 0b3c 7b66 64bb 534b 053d
000003e0: eba1 6e3b 7bd8 61ba dcbb fcbc a6dc 6dbd
000003f0: 0bec 29bd 5276 383b e153 7e3b 92e1 fdbb

encoder.layers.0.linear2.bias f4 [24]
0.012271469 -0.005906854 -0.0522602 -0.008144243 0.0067959577 -0.0388207 -0.054495096 -0.0065452894
0.015568194 -0.02923552 -0.011293942 0.032247964 -0.0385532 -0.03934232 -0.01741871 0.065518096
-0.024672747 -0.04962495 -0.03965014 -0.01905854 0.029150102 0.025298582 -0.024773728 -0.0695813
00000000: 460e 493c 488e c1bb cb0e 56bd 6e6f 05bc
00000010: a0b0 de3b 7402 1fbd 4036 5fbd de79 d6bb
00000020: bd11 7f3c 547f efbc 3a0a 39bc 7116 043d
00000030: f6e9 1dbd 6a25 21bd afb1 8ebc 5a2e 863d
00000040: 801e cabc 8843 4bbd 2f68 22bd a820 9cbc
00000050: 32cc ee3c f93e cf3c 46f2 cabc a480 8ebd

encoder.layers.0.norm1.weight f4 [24]
0.2603712 0.47615212 0.6526616 0.4068281 0.24192539 0.5779001 0.92276746 0.9049305
0.79045844 1.1700207 1.0229822 0.9324717 0.9142054 0.5301746 0.831189 0.9265796
0.85867995 0.8265175 0.6456177 0.3588122 0.9796054 0.5218419 0.94762206 0.8394999
00000000: 604f 853e 36ca f33e d514 273f c64b d03e
00000010: 4abb 773e 43f1 133f 7d3a 6c3f 86a9 673f
00000020: 7c5b 4a3f 3dc3 953f 15f1 823f 77b6 6e3f
00000030: 5d09 6a3f 86b9 073f cdc8 543f 5234 6d3f
00000040: 73d2 5b3f a796 533f 3447 253f 3cb6 b73e
00000050: 6bc7 7a3f 6e97 053f 5c97 723f 77e9 563f

encoder.layers.0.norm1.bias f4 [24]
0.035155673 0.08536754 -0.029712541 0.05615838 -0.0043709707 -0.041954856 -0.0050844243 -0.0446708
0.042579472 -0.03235221 0.013051911 -0.03781734 0.018287923 0.07112448 -0.008817231 0.0083721895
-0.023114808 -0.013661771 0.042438887 -0.064066574 0.004214627 0.051415224 -0.017211325 -0.035599753
00000000: 65ff 0f3d 2dd5 ae3d b767 f3bc 5406 663d
00000010: 5c3a 8fbb dbd8 2bbd 3e9b a6bb bbf8 36bd
00000020: d067 2e3d c083 04bd afd7 553c 5be6 1abd
00000030: 8ed0 953c b6a9 913d 2676 10bc 822b 093c
00000040: 445b bdbc 9fd5 5fbc 66d4 2d3d 5635 83bd
00000050: db1a 8a3b c598 523d c4fe 8cbc 0cd1 11bd

encoder.layers.0.norm2.weight f4 [24]
0.34136793 0.7945801 0.7758729 0.48419467 0.11572931 0.78306717 0.6973019 0.96541077
0.86505157 0.98433733 0.92507243 0.9429727 0.9174391 0.6497847 0.85371596 0.5991677
0.83662856 0.7321433 0.8336005 0.391221 0.9455677 0.6820085 0.9167053 0.865154
00000000: c7c7 ae3e 9a69 4b3f 9b9f 463f 5de8 f73e
00000010: 7d03 ed3d 1777 483f 6182 323f 2925 773f
00000020: 0574 5d3f 88fd 7b3f 8cd1 6c3f a966 713f
00000030: 4add 6a3f 4a58 263f 218d 5a3f 0e63 193f
00000040: 4a2d 563f be6d 3b3f d866 553f 1e4e c83e
00000050: ba10 723f 1c98 2e3f 33ad 6a3f bc7a 5d3f

encoder.layers.0.norm2.bias f4 [24]
0.015547193 0.110357895 -0.04619253 -0.03412567 -0.004471265 -0.0049533797 0.02778539 -0.043550756
0.0072417934 0.010947183 0.03075631 -0.015511976 0.012977068 0.05077979 -0.0716938 0.00066038856
0.0007515298 0.011325635 0.009930713 -0.021886542 -0.022935672 0.022285309 -0.045957625 0.019560928
00000000: a7b9 7e3c 5203 e23d 6134 3dbd 5cc7 0bbd
00000010: b083 92bb f64f a2bb 309e e33c 4762 32bd
00000020: 914c ed3b d05b 333c a8f4 fb3c f125 7ebc
00000030: c59d 543c 78fe 4f3d 33d4 92bd ed1d 2d3a
00000040: 5002 453a 288f 393c 6eb4 223c 684b b3bc
00000050: 97e3 bbbc ae8f b63c 103e 3cbd 3d3e a03c
