transformers/results/informer/configs/hyperopt/trial_13/informer_model_20251128_180846.pt (torch, 574566 bytes, 72 tensors)

input_embedding.weight f4 [24, 8]
-0.121460564 0.10004406 0.16471906 0.0063686 -0.10550908 0.17900719 -0.1457115 -0.14587444
0.25516513 0.087445 0.31256318 0.1882586 0.20298037 0.27752325 0.2638232 0.0671823
0.0643294 -0.02769223 -0.032978192 -0.029392384 -0.026828302 -0.023470396 -0.12821381 0.04663937
-0.40364423 0.034295496 -0.05957659 -0.08878569 -0.040519148 -0.20334119 0.1537509 -0.39743316
0.14685595 -0.121128835 0.09471075 0.07095161 0.016051667 0.18920195 0.018751318 0.05100294
0.10360591 -0.18412681 0.11219488 0.09184514 0.077589944 0.039108522 0.09434971 0.083926596
0.18244466 -0.33738154 -0.3468048 -0.20444362 -0.24549824 -0.01719299 -0.013871633 0.15696342
-0.02055051 -0.02013745 0.009622188 -0.17864738 -0.05604498 -0.008895736 -0.07894831 -0.066695616
0.3692193 -0.19165137 0.11793511 -0.12824883 -0.13560061 -0.27429646 0.22651571 0.38213295
0.3801664 -0.4049728 -0.2466739 -0.3247314 -0.22429012 0.03289656 -0.006611768 0.33026585
-0.42256716 -0.112705916 0.22481887 -0.14032735 0.047217704 0.008784545 0.12046789 -0.5103759
-0.05434565 0.0014151855 0.041074816 -0.1161214 0.0579517 0.0614045 -0.1643611 -0.051559873
0.46559975 -0.18411888 -0.24125949 -0.15971991 -0.11972928 -0.1041694 -0.008379367 -0.016461346
-0.018886352 -0.04623184 -0.0065795276 -0.09019628 -0.04830872 -0.0062408005 -0.026862102 -0.018384889
0.25742418 -0.15546946 -0.0043231566 -0.007949959 0.07122289 -0.028354188 0.021075785 0.05674988
-0.2904385 -0.122107156 0.038500458 -0.26523277 -0.2585876 -0.109858416 -0.12684743 -0.53809273
-0.0123006655 0.114111 0.24226816 0.105810456 -0.14659026 0.22161953 0.03819328 -0.22162771
-0.07742956 -0.067990184 -0.00019936547 -0.104139596 -0.0100273695 -0.0014714043 -0.031879213 -0.06258608
-0.33655187 0.06415116 0.01577997 0.13463548 0.17075361 -0.26615936 -0.019401215 -0.4030745
-0.19258113 -0.1255087 0.032180883 -0.23817064 -0.0717649 0.029129555 -0.08296912 -0.2105892
0.5135763 -0.021635266 0.121671595 -0.104567096 0.08178077 0.035872515 -0.08162281 0.5016282
-0.26983735 -0.23293318 -0.117154695 -0.16731302 -0.07049807 -0.090333894 -0.2528313 -0.34810832
-0.3707269 0.21257102 0.20860513 -0.18891004 0.11046172 0.13973778 0.09323648 -0.24174029
0.07514488 -0.111205675 0.18075937 -0.09704472 -0.07616477 0.16707878 -0.03569105 0.02055969
00000000: 51c0 f8bd e6e3 cc3d 1dac 283e b0af d03b
00000010: 2515 d8bd a94d 373e 6535 15be 1c60 15be
00000020: 01a5 823e 5d16 b33d 4808 a03e ddc6 403e
00000030: 16da 4f3e 8717 8e3e d613 873e e096 893d
00000040: 22bf 833d d1da e2bc 2414 07bd 4cc8 f0bc
00000050: 07c7 dbbc fd44 c0bc 7b4a 03be ed08 3f3d
00000060: 75aa cebe 6f79 0c3d 9506 74bd 46d5 b5bd
00000070: 68f7 25bd ac38 50be e070 1d3e 5c7c cbbe
00000080: 6861 163e 6512 f8bd b6f7 c13d 144f 913d
00000090: c97e 833c 28be 413e 5d9c 993c 75e8 503d
000000a0: 562f d43d bd8b 3cbe 6ec6 e53d 4e19 bc3d
000000b0: 7ae7 9e3d 4230 203d 6c3a c13d b5e1 ab3d
000000c0: c6d2 3a3e 46bd acbe 6690 b1be ab59 51be
000000d0: e463 7bbe 50d8 8cbc d945 63bc 05bb 203e
000000e0: 8b59 a8bc 4bf7 a4bc 62a6 1d3c 57ef 36be
000000f0: 6c8f 65bd 6cbf 11bc a7af a1bd b697 88bd
00000100: 500a bd3e 4240 44be f787 f13d a953 03be
00000110: e3da 0abe 9670 8cbe bcf3 673e eea6 c33e
00000120: 2ca5 c23e 9858 cfbe 1598 7cbe 3243 a6be
00000130: 4fac 65be 8bbe 063d 88a7 d8bb 9b18 a93e
00000140: b95a d8be 5cd2 e6bd eb36 663e f9b1 0fbe
00000150: 5a67 413d 0ded 0f3c deb7 f63d ffa7 02bf
00000160: 8b99 5ebd bf7d b93a 113e 283d 0ed1 edbd
00000170: c35e 6d3d 4983 7b3d 474e 28be 7230 53bd
00000180: 1763 ee3e a989 3cbe ba0c 77be 9e8d 23be
00000190: a034 f5bd c456 d5bd 9d49 09bc f2d9 86bc
000001a0: 8db7 9abc 995d 3dbd 1499 d7bb d4b8 b8bd
000001b0: 5ddf 45bd a17f ccbb e90d dcbc e89b 96bc
000001c0: 1acd 833e 6333 1fbe 44a9 8dbb 8b40 02bc
000001d0: 4edd 913d 0b47 e8bc 20a7 ac3c 9072 683d
000001e0: 5bb4 94be 5113 fabd a8b2 1d3d 97cc 87be
000001f0: 9865 84be 73fd e0bd 4be4 01be 72c0 09bf
00000200: bb88 49bc 07b3 e93d 2515 783e 27b3 d83d
00000210: c21b 16be 3bf0 623e 8f70 1c3d 60f2 62be
00000220: 6493 9ebd 703e 8bbd c30c 51b9 2447 d5bd
00000230: d649 24bc 23dc c0ba c793 02bd 212d 80bd
00000240: 8750 acbe af61 833d ff44 813c e2dd 093e
00000250: 09da 2e3e 0a46 88be 4cef 9ebc c85f cebe
00000260: fd33 45be 5a85 00be 1ad0 033d 01e3 73be
00000270: 7af9 92bd 1ba1 ee3c b7eb a9bd b2a4 57be
00000280: bd79 033f 713c b1bc f52e f93d 4627 d6bd
00000290: ad7c a73d 0fef 123d dc29 a7bd b56a 003f
000002a0: 1f28 8abe 0986 6ebe cdee efbd 1b54 2bbe
000002b0: 4b61 90bd fa00 b9bd 1b73 81be 413b b2be
000002c0: ebcf bdbe 38ac 593e 959c 553e a271 41be
000002d0: c139 e23d 6c17 0f3e c5f2 be3d c48a 77be
000002e0: 8fe5 993d cdbf e3bd fc18 393e 62bf c6bd
000002f0: 46fc 9bbd b316 2b3e c730 12bd cc6c a83c

input_embedding.bias f4 [24]
0.00983656 0.39848483 -0.04730713 -0.021220833 -0.07915237 -0.1172784 -0.018672734 -0.008199312
-0.2939711 -0.2194282 0.26467246 0.0336542 0.040843967 -0.116837256 -0.1108684 -0.35642442
-0.02719017 -0.010758496 0.1288783 -0.08963951 -0.28369763 -0.37281585 0.037981525 0.0942819
00000000: 8629 213c 3406 cc3e 1fc5 41bd 50d7 adbc
00000010: a31a a2bd a82f f0bd 90f7 98bc 6856 06bc
00000020: 6183 96be c9b1 60be 2683 873e fdd8 093d
00000030: 014c 273d 5f48 efbd f90e e3bd 437d b6be
00000040: ebbd debc 6744 30bc acf8 033e eb94 b7bd
00000050: d140 91be b8e1 bebe 8492 1b3d de16 c13d

pos_encoder.pe f4 [1, 5000, 24]
0.0 1.0 0.0 1.0 0.0 1.0 0.0 1.0
0.0 1.0 0.0 1.0 0.0 1.0 0.0 1.0
0.0 1.0 0.0 1.0 0.0 1.0 0.0 1.0
0.84147096 0.54030234 0.44767085 0.8941984 0.21378067 0.9768817 0.099833414 0.9950042
0.04639923 0.99892294 0.021542681 0.9997679 0.009999833 0.99995 0.0046415734 0.9999892
0.0021544332 0.9999977 0.0009999998 0.9999995 0.00046415895 0.9999999 0.00021544348 1.0
0.9092974 -0.41614684 0.8006131 0.59918165 0.41767687 0.9085956 0.19866931 0.9800666
0.09269851 0.9956942 0.043075364 0.99907184 0.019998666 0.9998 0.009283047 0.9999569
0.004308856 0.9999907 0.0019999985 0.99999803 0.00092831784 0.9999996 0.00043088695 0.99999994
0.14112 -0.9899925 0.98414314 0.17737612 0.60226107 0.7982992 0.2955202 0.9553365
0.1387981 0.9903207 0.06458805 0.997912 0.0299955 0.99955004 0.01392432 0.9999031
0.006463259 0.99997914 0.0029999954 0.9999955 0.0013924765 0.99999905 0.00064633036 0.9999998
-0.7568025 -0.6536436 0.9594254 -0.28196275 0.75899875 0.6510921 0.38941833 0.921061
0.18459873 0.98281395 0.08607077 0.996289 0.039989334 0.9992001 0.018565293 0.9998276
0.008617632 0.99996287 0.003999989 0.999992 0.0018566349 0.9999983 0.0008617738 0.99999964
-0.9589243 0.2836622 0.73169005 -0.68163747 0.88064283 0.47378072 0.47942552 0.87758255
0.23000173 0.97319025 0.10751353 0.9942036 0.049979165 0.99875027 0.023205869 0.9997307
0.010771966 0.999942 0.004999979 0.9999875 0.0023207928 0.9999973 0.0010772172 0.9999994
-0.2794155 0.96017027 0.349127 -0.93707544 0.961569 0.27456328 0.5646424 0.8253356
0.2749093 0.9614702 0.12890638 0.9916568 0.059964005 0.99820054 0.02784594 0.9996122
0.012926248 0.99991643 0.0059999637 0.999982 0.0027849504 0.9999961 0.0012926605 0.99999917
0.6569866 0.75390226 -0.10731243 -0.9942253 0.9980355 0.06265094 0.6442176 0.7648422
0.31922466 0.94767904 0.15023942 0.98864967 0.06994285 0.997551 0.032485418 0.9994722
0.0150804715 0.9998863 0.006999942 0.9999755 0.003249107 0.99999475 0.0015081038 0.99999887
0.98935825 -0.14550003 -0.5410444 -0.840994 0.9883562 -0.15215816 0.717356 0.6967067
0.36285242 0.9318466 0.17150272 0.98518366 0.07991469 0.9968017 0.03712419 0.9993107
0.017234625 0.99985147 0.007999914 0.999968 0.0037132632 0.9999931 0.001723547 0.9999985
0.4121185 -0.91113025 -0.86028963 -0.5098056 0.9329786 -0.35993198 0.78332686 0.62161
0.4056986 0.91400695 0.19268642 0.98126036 0.089878544 0.9959527 0.041762162 0.99912757
0.019388698 0.999812 0.008999879 0.9999595 0.0041774185 0.9999913 0.0019389901 0.99999815
-0.5440211 -0.8390715 -0.99749476 -0.070740685 0.8344632 -0.55106366 0.84147096 0.54030234
0.44767088 0.8941984 0.21378069 0.9768817 0.099833414 0.9950042 0.04639924 0.99892294
00000000: 0000 0000 0000 803f 0000 0000 0000 803f
00000010: 0000 0000 0000 803f 0000 0000 0000 803f
00000020: 0000 0000 0000 803f 0000 0000 0000 803f
00000030: 0000 0000 0000 803f 0000 0000 0000 803f
00000040: 0000 0000 0000 803f 0000 0000 0000 803f
00000050: 0000 0000 0000 803f 0000 0000 0000 803f
00000060: a46a 573f 4151 0a3f 1d35 e53e 30ea 643f
00000070: 52e9 5a3e eb14 7a3f 7675 cc3d 98b8 7e3f
00000080: 1e0d 3e3d 6ab9 7f3f 477a b03c caf0 7f3f
00000090: 57d6 233c b9fc 7f3f 5718 983b 4bff 7f3f
000000a0: 6431 0d3b d9ff 7f3f 6d12 833a f8ff 7f3f
000000b0: 5c5a f339 feff 7f3f abe8 6139 0000 803f
000000c0: b7c7 683f 3311 d5be fbf4 4c3f f863 193f
000000d0: bed9 d53e b999 683f f86f 4b3e a5e5 7a3f
000000e0: b7d8 bd3d d1e5 7e3f cb6f 303d 2cc3 7f3f
000000f0: 3ed4 a33c e5f2 7f3f ec17 183c 2dfd 7f3f
00000100: 4e31 8d3b 64ff 7f3f 6812 033b dfff 7f3f
00000110: 5b5a 733a f9ff 7f3f abe8 e139 ffff 7f3f
00000120: c381 103e 2670 7dbf cef0 7b3f 16a2 353e
00000130: c82d 1a3f 565d 4c3f 6c4e 973e ef90 743f
00000140: 1721 0e3e a885 7d3f bd46 843d 2977 7f3f
00000150: 1fb9 f53c 83e2 7f3f d522 643c a6f9 7f3f
00000160: bfc9 d33b a2fe 7f3f 929b 443b b5ff 7f3f
00000170: c283 b63a f0ff 7f3f 7f6e 293a fdff 7f3f
00000180: cfbd 41bf 3055 27bf e79c 753f 6c5d 90be
00000190: be4d 423f f9ad 263f d761 c73e a7ca 6b3f
000001a0: 7307 3d3e b299 7b3f df45 b03d cc0c 7f3f
000001b0: dbcb 233d 94cb 7f3f 3e16 983c b4f4 7f3f
000001c0: f830 0d3c 91fd 7f3f 5712 833b 7aff 7f3f
000001d0: 545a f33a e3ff 7f3f a9e8 613a faff 7f3f
000001e0: 107c 75bf 2c3c 913e 0a50 3b3f cb7f 2ebf
000001f0: cf71 613f 6393 f23e 4377 f53e 40a9 603f
00000200: 9385 6b3e ff22 793f 0e30 dc3d 2184 7e3f
00000210: f4b6 4c3d 19ae 7f3f 3c1a be3c 5aee 7f3f
00000220: e67c 303c 33fc 7f3f ddd6 a33b 2eff 7f3f
00000230: 7118 183b d3ff 7f3f 6931 8d3a f6ff 7f3f
00000240: 8c0f 8fbe b8cd 753f c6c0 b23e 2de4 6fbf
00000250: 6329 763f 8f93 8c3e 688c 103f 3249 533f
00000260: e9c0 8c3e e922 763f 0900 043e 38dd 7d3f
00000270: d19c 753d 128a 7f3f 2b1d e43c 96e6 7f3f
00000280: 9dc8 533c 86fa 7f3f 589b c43b d2fe 7f3f
00000290: b783 363b bfff 7f3f 7d6e a93a f2ff 7f3f
000002a0: 4630 283f bdff 403f 9fc6 dbbd 8d85 7ebf
000002b0: 417f 7f3f 234f 803d 72eb 243f b3cc 433f
000002c0: 6a71 a33e 189b 723f 5dd8 193e 2518 7d3f
000002d0: 323e 8f3d 815f 7f3f 6e0f 053d 69dd 7f3f
000002e0: 1514 773c 8cf8 7f3f c55f e53b 65fe 7f3f
000002f0: f8ee 543b a8ff 7f3f 91ab c53a edff 7f3f
00000300: 9546 7d3f f6fd 14be e381 0abf 624b 57bf
00000310: e904 7d3f 59cf 1bbe a5a4 373f 5f5b 323f
00000320: cbc7 b93e 808d 6e3f 699e 2f3e ff34 7c3f
00000330: 50aa a33d 652e 7f3f 890f 183d d3d2 7f3f
00000340: a12f 8d3c 44f6 7f3f 1212 033c e7fd 7f3f
00000350: 385a 733b 8cff 7f3f a4e8 e13a e7ff 7f3f
00000360: 3201 d33e d53f 69bf f13b 5cbf 9f82 02bf
00000370: afd7 6e3f 0149 b8be 1c88 483f d521 1f3f
00000380: bab7 cf3e 5cfc 693f 974f 453e e133 7b3f
00000390: 3e12 b83d c2f6 7e3f cd0e 2b3d d3c6 7f3f
000003a0: 0cd5 9e3c aef3 7f3f 3a74 133c 59fd 7f3f
000003b0: bae2 883b 6eff 7f3f b625 fe3a e1ff 7f3f
000003c0: f844 0bbf 64cd 56bf d15b 7fbf 7ee0 90bd
000003d0: 619f 553f 8212 0dbf a46a 573f 4151 0a3f
000003e0: 1e35 e53e 30ea 643f 53e9 5a3e eb14 7a3f
000003f0: 7675 cc3d 98b8 7e3f 210d 3e3d 6ab9 7f3f

encoder_layers.0.attention.query_projection.weight f4 [24, 24]
-2.8971e-40 -1.4283e-40 -1.486e-41 1.67804e-40 -1.57939e-40 -2.63602e-40 2.89424e-40 -2.60311e-40
2.89136e-40 -2.45603e-40 2.90648e-40 -1.10327e-40 2.90974e-40 -1.07484e-40 2.90299e-40 2.89833e-40
-2.89269e-40 -2.2695e-41 -2.88504e-40 -4.3792e-41 2.88578e-40 -2.8951e-40 -2.90349e-40 -1.42925e-40
2.9077e-40 -2.8893e-40 2.89686e-40 -1.72875e-40 -2.8999e-40 1.35409e-40 -2.89033e-40 -1.81524e-40
-7.2492e-41 1.95202e-40 2.35073e-40 -1.7656e-40 -1.7436e-41 -1.75769e-40 -9.774e-42 -2.88946e-40
-2.88157e-40 -1.5175e-40 4.3352e-41 -2.14071e-40 -4.0349e-41 -2.89298e-40 -6.3295e-41 -1.9352e-40
7.0229e-41 -1.54907e-40 2.8995e-40 -2.13114e-40 -1.66155e-40 -2.89493e-40 1.4743e-41 2.07267e-40
-4.8502e-41 1.12133e-40 2.88749e-40 2.0127e-40 -2.90139e-40 2.01954e-40 -2.90848e-40 -2.1311e-41
-3.3096e-41 -2.90901e-40 2.90208e-40 2.79773e-40 -2.88508e-40 2.90582e-40 5.2158e-41 2.50289e-40
2.8602e-41 5.7627e-41 -2.36721e-40 2.88781e-40 -2.85841e-40 -2.90611e-40 4.0143e-41 -1.26e-42
-1.26697e-40 -2.90436e-40 -2.90866e-40 -1.07317e-40 -7.6236e-41 -1.98017e-40 -2.1022e-40 -2.90712e-40
4.7697e-41 -1.22339e-40 -9.506e-42 -3.032e-41 2.90762e-40 4.1442e-41 -2.90747e-40 -2.76604e-40
1.28307e-40 1.75726e-40 2.85768e-40 -2.8231e-40 1.36341e-40 8.1466e-41 2.90918e-40 2.20713e-40
9.3639e-41 -4.044e-41 2.88404e-40 -2.90425e-40 -2.89445e-40 2.88892e-40 -2.90852e-40 -2.7101e-41
2.8842e-40 2.2296e-40 2.88468e-40 4.1228e-41 -2.88921e-40 2.89196e-40 2.89514e-40 2.2296e-40
2.90275e-40 4.1123e-41 2.90177e-40 -2.90512e-40 2.89762e-40 2.89511e-40 1.35765e-40 2.0627e-40
3.3158e-41 2.88875e-40 2.90118e-40 -1.66436e-40 -2.89164e-40 2.12256e-40 -1.31035e-40 7.781e-41
-2.89954e-40 -2.8816e-40 2.90628e-40 2.1412e-40 -2.9024e-40 5.4347e-41 2.88935e-40 2.0663e-40
-1.16137e-40 2.32906e-40 -2.89867e-40 -2.78969e-40 -2.90727e-40 -2.88658e-40 -3.6076e-41 -9.7542e-41
-3.7193e-41 2.35867e-40 9.4579e-41 -1.47813e-40 2.89626e-40 7.2493e-41 2.88539e-40 6.236e-41
-2.90158e-40 7.2751e-41 -2.89131e-40 -1.31802e-40 -2.89162e-40 -6.3671e-41 2.47164e-40 7.2086e-41
2.89538e-40 -2.90688e-40 2.52346e-40 -2.89349e-40 -1.83794e-40 8.015e-41 -2.89451e-40 -2.89794e-40
-3.6835e-41 2.5212e-41 2.1593e-41 -2.90921e-40 3.9521e-41 -2.0555e-40 3.0918e-41 2.88845e-40
-2.90222e-40 -2.91009e-40 2.89486e-40 2.15434e-40 1.16912e-40 2.88861e-40 -8.157e-42 -2.05444e-40
-2.66751e-40 1.68004e-40 2.88296e-40 -2.49112e-40 2.89122e-40 2.88384e-40 -2.88837e-40 2.00313e-40
-2.88582e-40 2.9576e-41 2.2471e-41 2.40983e-40 -2.90802e-40 1.79052e-40 2.90719e-40 2.89019e-40
-2.90984e-40 1.52976e-40 2.90052e-40 7.3914e-41 2.2461e-41 -2.991e-41 2.89647e-40 1.541e-40
-2.88251e-40 -1.99521e-40 2.04206e-40 1.71181e-40 -1.75406e-40 -2.88115e-40 -2.88251e-40 -2.42369e-40
2.4384e-41 -1.51794e-40 -2.39996e-40 -2.0278e-41 1.47655e-40 -5.8238e-41 2.90618e-40 -2.88474e-40
2.88785e-40 2.5743e-40 -1.07628e-40 -1.22047e-40 2.8834e-40 -2.90318e-40 -2.9079e-40 -2.30236e-40
9.8974e-41 1.51919e-40 9.9261e-41 -5.7093e-41 2.8802e-41 -2.89978e-40 -2.88694e-40 1.99148e-40
-2.90828e-40 1.79808e-40 -2.90566e-40 8.974e-41 -2.89752e-40 8.8562e-41 -8.035e-41 2.89168e-40
00000000: 9827 0380 278e 0180 6c29 0080 c5d3 0100
00000010: 45b8 0180 d1de 0280 cc26 0300 a4d5 0280
00000020: fe25 0300 a4ac 0280 352a 0300 8c33 0180
00000030: 1e2b 0300 9f2b 0180 3c29 0300 f027 0300
00000040: 5d26 0380 443f 0080 3b24 0380 137a 0080
00000050: 7024 0300 0927 0380 6029 0380 6b8e 0180
00000060: 8c2a 0300 6b25 0380 8727 0300 e8e1 0180
00000070: 6028 0380 7779 0100 b525 0380 04fa 0180
00000080: 14ca 0080 2520 0200 4a8f 0200 2dec 0180
00000090: 9b30 0080 f9e9 0180 3f1b 0080 7725 0380
000000a0: 4423 0380 04a7 0180 d978 0000 be54 0280
000000b0: 7a70 0080 7226 0380 71b0 0080 741b 0280
000000c0: c5c3 0000 d1af 0180 4328 0300 1352 0280
000000d0: 2ccf 0180 fd26 0380 1929 0000 c741 0200
000000e0: 3487 0080 9538 0100 ea24 0300 0f31 0200
000000f0: ca28 0380 f732 0200 c42a 0380 683b 0080
00000100: 425c 0080 ea2a 0380 fb28 0300 e50b 0300
00000110: 3e24 0380 062a 0300 6591 0000 b4b9 0200
00000120: bb4f 0000 a4a0 0000 e293 0280 0125 0300
00000130: cf1c 0380 1b2a 0380 e76f 0000 8303 0080
00000140: 2e61 0180 9e29 0380 d12a 0380 282b 0180
00000150: 84d4 0080 fe27 0280 024a 0280 632a 0380
00000160: f684 0000 0855 0180 801a 0080 8554 0080
00000170: 872a 0300 8673 0000 7c2a 0380 0f03 0380
00000180: ab65 0100 dae9 0100 9b1c 0300 f712 0380
00000190: 107c 0100 18e3 0000 f62a 0300 4267 0200
000001a0: 0705 0100 bb70 0080 f423 0300 9629 0380
000001b0: db26 0380 5025 0300 c72a 0380 8c4b 0080
000001c0: ff23 0300 866d 0200 2224 0300 ed72 0000
000001d0: 6525 0380 2926 0300 0c27 0300 866d 0200
000001e0: 2b29 0300 a272 0000 e528 0300 d429 0380
000001f0: bd27 0300 0a27 0300 757a 0100 ff3e 0200
00000200: 6e5c 0000 4425 0300 bb28 0300 f5cf 0180
00000210: 1226 0380 af4f 0200 466d 0180 e7d8 0000
00000220: 4628 0380 4623 0380 272a 0300 e154 0200
00000230: 1229 0380 7f97 0000 6f25 0300 0040 0200
00000240: be43 0180 3f89 0200 0828 0380 a709 0380
00000250: 6e2a 0380 a924 0380 9164 0080 e80f 0180
00000260: ae67 0080 8091 0200 a607 0100 0b9c 0180
00000270: 5c27 0300 15ca 0000 5424 0300 d6ad 0000
00000280: d828 0380 cdca 0000 fb25 0380 696f 0180
00000290: 1126 0380 7db1 0080 feb0 0200 f2c8 0000
000002a0: 1d27 0300 522a 0380 70bf 0200 9626 0380
000002b0: 5800 0280 6ddf 0000 df26 0380 d427 0380
000002c0: ae66 0080 4846 0000 313c 0000 f82a 0380
000002d0: 2b6e 0000 fd3c 0280 3056 0000 2f25 0300
000002e0: 0529 0380 372b 0380 f826 0300 8b58 0200
000002f0: e745 0100 3a25 0300 bd16 0080 b23c 0280
00000300: 98e7 0280 54d4 0100 a723 0300 6cb6 0280
00000310: f425 0300 e623 0300 2925 0380 642e 0200
00000320: 7324 0380 7252 0000 a43e 0000 c39f 0200
00000330: a32a 0380 20f3 0100 682a 0300 ab25 0300
00000340: 252b 0380 6faa 0100 8c28 0300 0bce 0000
00000350: 9d3e 0000 6053 0080 6b27 0300 91ad 0100
00000360: 8723 0380 2f2c 0280 3e39 0200 2fdd 0100
00000370: f6e8 0180 2623 0380 8723 0380 a0a3 0280
00000380: f943 0000 24a7 0180 039d 0280 8738 0080
00000390: 9a9b 0100 58a2 0080 202a 0300 2624 0380
000003a0: 0425 0300 9ccd 0200 062c 0180 3854 0180
000003b0: c623 0300 4a29 0380 9b2a 0380 ce81 0280
000003c0: e613 0100 7da7 0100 b314 0100 279f 0080
000003d0: 4a50 0000 5728 0380 c324 0380 252b 0200
000003e0: b62a 0380 3bf5 0100 fb29 0380 29fa 0000
000003f0: b627 0380 e0f6 0000 fcdf 0080 1526 0300

encoder_layers.0.attention.query_projection.bias f4 [24]
-1.6503e-40 -1.97457e-40 2.01627e-40 -1.65079e-40 -2.88526e-40 2.31709e-40 1.54953e-40 -2.05729e-40
1.54685e-40 4.2894e-41 1.52048e-40 2.72037e-40 -2.9083e-40 2.06654e-40 -2.55413e-40 1.88424e-40
-1.49299e-40 -2.88114e-40 2.89811e-40 -2.88124e-40 2.7146e-40 2.49522e-40 -2.15094e-40 -1.85784e-40
00000000: 09cc 0180 6e26 0280 0e32 0200 2ccc 0180
00000010: 4b24 0380 e985 0200 f2af 0100 7d3d 0280
00000020: 33af 0100 9277 0000 d9a7 0100 54f6 0200
00000030: b72a 0380 1140 0200 fdc7 0280 400d 0200
00000040: 2fa0 0180 2523 0380 e027 0300 2c23 0380
00000050: b8f4 0200 91b7 0200 9857 0280 e405 0280

encoder_layers.0.attention.key_projection.weight f4 [24, 24]
-2.18405e-40 7.9655e-41 1.65814e-40 3.6602e-41 -2.01295e-40 -2.3722e-40 -7.3635e-41 -1.79787e-40
-4.7313e-41 -8.897e-41 -4.3245e-41 -2.88213e-40 -1.94883e-40 -1.81321e-40 -2.8871e-40 2.83858e-40
2.45344e-40 1.7226e-41 -2.33793e-40 8.5212e-41 -2.8983e-41 -2.85749e-40 2.59776e-40 -6.0186e-41
-1.2e-43 1.80753e-40 2.21883e-40 -1.30186e-40 -1.88731e-40 -1.65964e-40 2.65039e-40 -2.25885e-40
-1.09066e-40 2.60301e-40 2.39373e-40 2.25706e-40 2.3171e-40 -2.1768e-41 2.32519e-40 -2.71132e-40
2.90687e-40 -2.15007e-40 1.42099e-40 6.1681e-41 -2.90355e-40 2.19533e-40 5.5625e-41 1.4507e-40
-7.1856e-41 2.2084e-41 1.9997e-40 2.88687e-40 -1.19337e-40 1.53734e-40 -2.90862e-40 -2.47653e-40
-2.88691e-40 -2.30641e-40 -2.04957e-40 -1.3403e-40 2.24896e-40 -4.033e-41 2.66642e-40 2.88673e-40
-2.85866e-40 2.9055e-40 -2.62116e-40 -2.44974e-40 2.36838e-40 2.84559e-40 -2.30797e-40 1.76267e-40
-1.0228e-40 1.00814e-40 2.086e-41 2.011e-41 -2.88941e-40 -8.9641e-41 2.59541e-40 1.06195e-40
2.30759e-40 -5.9865e-41 4.957e-41 1.22635e-40 2.60291e-40 -1.42476e-40 3.7035e-41 -2.63182e-40
-2.27197e-40 6.4292e-41 2.90353e-40 -2.1762e-40 2.88476e-40 -2.8506e-40 -2.30055e-40 2.01348e-40
1.45951e-40 -2.5013e-41 1.19274e-40 2.48928e-40 -2.89147e-40 -1.62949e-40 8.959e-42 9.0905e-41
-1.9348e-41 -1.35494e-40 -2.6056e-40 2.56708e-40 2.6775e-40 -2.459e-41 1.86336e-40 -1.88578e-40
-2.51037e-40 2.8994e-40 -2.3397e-40 -3.0841e-41 -2.57333e-40 2.50028e-40 1.69001e-40 8.971e-42
1.69221e-40 4.8132e-41 3.31e-41 2.0341e-41 1.42078e-40 2.61416e-40 -5.0734e-41 -1.8539e-40
-1.90254e-40 -1.1935e-41 -1.5823e-40 -4.1305e-41 2.9029e-40 -2.51885e-40 -1.38046e-40 2.90454e-40
-2.13038e-40 -1.93393e-40 -2.89852e-40 1.88804e-40 -1.81112e-40 2.65957e-40 -2.87657e-40 -2.36854e-40
-2.89903e-40 -2.5195e-40 -2.88729e-40 2.35229e-40 -2.00009e-40 -1.78475e-40 2.6846e-40 -2.88894e-40
-1.02749e-40 -8.2775e-41 3.2767e-41 1.98162e-40 -2.45091e-40 -2.67392e-40 2.1333e-41 2.21561e-40
-2.90139e-40 -1.51253e-40 -2.49571e-40 1.77954e-40 -4.7887e-41 8.345e-41 -2.35246e-40 -2.66367e-40
-1.5198e-40 8.8126e-41 5.6206e-41 -2.4716e-41 2.238e-41 2.36166e-40 -1.92051e-40 2.81072e-40
-2.2957e-40 -2.1259e-40 2.90184e-40 -2.4374e-40 2.43812e-40 2.66234e-40 2.90066e-40 2.90789e-40
-2.54393e-40 7.1339e-41 -2.89385e-40 2.1207e-41 2.90287e-40 2.89718e-40 2.9085e-40 2.30549e-40
-2.07137e-40 -1.6571e-40 1.5805e-40 -5.3045e-41 1.93787e-40 -1.25565e-40 2.89277e-40 -2.07225e-40
-2.8908e-40 -1.43047e-40 4.8736e-41 2.45303e-40 -1.77962e-40 -8.8286e-41 -2.89278e-40 -2.56764e-40
-2.7248e-40 -2.59683e-40 -2.51232e-40 2.83554e-40 -2.11948e-40 2.90322e-40 2.77865e-40 2.23963e-40
1.47599e-40 1.34295e-40 -2.25177e-40 -1.64428e-40 -2.55289e-40 -2.4384e-40 1.87457e-40 -9.1962e-41
2.89804e-40 4.8345e-41 2.88254e-40 2.51689e-40 -2.25234e-40 -2.16663e-40 4.8301e-41 -2.64077e-40
2.51257e-40 2.9069e-40 -1.24336e-40 2.941e-42 -2.89318e-40 -1.70584e-40 2.23806e-40 1.42801e-40
-2.89538e-40 -2.88714e-40 1.54789e-40 -2.90761e-40 -5.6188e-41 1.5177e-40 -5.7868e-41 -2.06173e-40
-2.90481e-40 8.4095e-41 -2.5044e-40 -2.88282e-40 1.80508e-40 -1.17841e-40 2.24456e-40 2.11733e-40
00000000: d360 0280 0cde 0000 39ce 0100 0866 0000
00000010: 2131 0280 4695 0280 44cd 0080 2cf5 0180
00000020: e483 0080 03f8 0080 8d78 0080 6c23 0380
00000030: 411f 0280 73f9 0180 ce24 0380 4817 0300
00000040: ebab 0200 0530 0000 b88b 0280 89ed 0000
00000050: cb50 0080 8d1c 0380 26d4 0200 c6a7 0080
00000060: 5600 0080 def7 0100 856a 0200 e86a 0180
00000070: 1b0e 0280 a4ce 0180 d2e2 0200 ad75 0280
00000080: 0830 0180 9dd5 0200 469b 0200 2d75 0200
00000090: ea85 0200 ae3c 0080 2b88 0200 cef3 0280
000000a0: 512a 0300 5a57 0280 1d8c 0100 f1ab 0000
000000b0: 6429 0380 f863 0200 0f9b 0000 6594 0100
000000c0: 4ec8 0080 903d 0000 6f2d 0200 be24 0300
000000d0: aa4c 0180 8cac 0100 ce2a 0380 5bb2 0280
000000e0: c124 0380 ef82 0280 563b 0280 9f75 0180
000000f0: eb72 0200 6c70 0080 4ae7 0200 b424 0300
00000100: e11c 0380 ef29 0300 acda 0280 e3aa 0280
00000110: 3594 0200 3c19 0300 5e83 0280 5ceb 0100
00000120: 1d1d 0180 0719 0100 263a 0000 0f38 0000
00000130: 7325 0380 e2f9 0080 7fd3 0200 0728 0100
00000140: 4383 0200 e1a6 0080 2e8a 0000 db55 0100
00000150: 96d5 0200 2a8d 0180 3d67 0000 a5dd 0280
00000160: 5579 0280 38b3 0000 6329 0300 a35e 0280
00000170: 2724 0300 a21a 0380 4d81 0280 4731 0200
00000180: da96 0100 ba45 0080 7d4c 0100 e9b5 0200
00000190: 0626 0380 3cc6 0180 f918 0000 68fd 0000
000001a0: ef35 0080 b479 0180 56d6 0280 99cb 0200
000001b0: 61ea 0200 8c44 0080 6e07 0200 ae0d 0280
000001c0: cabb 0280 3c28 0300 378c 0280 f955 0080
000001d0: 57cd 0280 fab8 0200 1bd7 0100 0219 0000
000001e0: b8d7 0100 2c86 0000 455c 0000 b438 0000
000001f0: 0e8c 0100 b9d8 0200 6d8d 0080 cb04 0280
00000200: 5a12 0280 4521 0080 15b9 0180 2473 0080
00000210: 3629 0300 27be 0280 d180 0180 ab29 0300
00000220: dd51 0280 1a1b 0280 fd27 0380 4f0e 0200
00000230: def8 0180 61e5 0200 df21 0380 4194 0280
00000240: 2228 0380 56be 0280 dc24 0380 b98f 0200
00000250: 8b2d 0280 84f1 0180 5bec 0200 5225 0380
00000260: 6c1e 0180 bee6 0080 575b 0000 6528 0200
00000270: 37ab 0280 61e9 0280 783b 0000 9f69 0200
00000280: ca28 0380 a2a5 0180 b4b7 0280 10f0 0100
00000290: 7d85 0080 a0e8 0000 c58f 0280 86e6 0280
000002a0: a9a7 0180 a9f5 0000 ae9c 0000 e644 0080
000002b0: 633e 0000 5692 0200 5c17 0280 840f 0300
000002c0: f37f 0280 9d50 0280 ea28 0300 73a7 0280
000002d0: a6a7 0200 27e6 0200 9628 0300 9a2a 0300
000002e0: 25c5 0280 ddc6 0000 b026 0380 1e3b 0000
000002f0: 3429 0300 9e27 0300 c52a 0300 ad82 0200
00000300: 6a41 0280 efcd 0180 94b8 0100 de93 0080
00000310: 331c 0200 065e 0180 6326 0300 a941 0280
00000320: d625 0380 c28e 0180 db87 0000 ceab 0200
00000330: 16f0 0180 1bf6 0080 6426 0380 c1cb 0280
00000340: 90f7 0280 e4d3 0280 55bc 0280 6f16 0300
00000350: d34e 0280 4d29 0300 9306 0300 5170 0200
00000360: 729b 0100 5c76 0100 b473 0280 5cca 0180
00000370: a4c7 0280 baa7 0280 8e0a 0200 5a00 0180
00000380: db27 0300 c486 0000 8923 0300 9bbd 0200
00000390: dc73 0280 f85b 0280 a586 0000 24e0 0280
000003a0: 67bc 0200 532a 0300 995a 0180 3308 0000
000003b0: 8026 0380 85db 0180 e16f 0200 128e 0100
000003c0: 1d27 0380 d124 0380 7daf 0100 862a 0380
000003d0: a19c 0080 13a7 0100 50a1 0080 ba3e 0280
000003e0: be29 0380 6cea 0000 20ba 0280 9d23 0380
000003f0: 2ff7 0100 7e48 0180 b171 0200 3a4e 0200

encoder_layers.0.attention.key_projection.bias f4 [24]
1.19386e-40 -2.1232e-41 -5.3472e-41 1.13437e-40 2.40644e-40 -1.6617e-41 -1.97827e-40 8.448e-42
-1.2278e-40 9.8518e-41 -1.21114e-40 -6.3357e-41 1.87267e-40 2.9914e-41 -4.9749e-41 2.10556e-40
1.45361e-40 -1.5165e-41 -6.3532e-41 -1.74882e-40 2.18923e-40 2.90621e-40 9.3228e-41 -4.6082e-41
00000000: cd4c 0100 303b 0080 0f95 0080 373c 0100
00000010: d19e 0200 522e 0080 7627 0280 8d17 0000
00000020: 4356 0180 a112 0100 9e51 0180 9db0 0080
00000030: 060a 0200 6353 0000 ae8a 0080 f24a 0200
00000040: 3595 0100 462a 0080 1ab1 0080 80e7 0180
00000050: 4562 0200 222a 0300 e203 0100 7580 0080

encoder_layers.0.attention.value_projection.weight f4 [24, 24]
-0.054518074 0.017291058 -0.0056515695 0.05082472 0.022151235 0.09089599 0.05885702 -0.12579145
0.08481233 -0.17361864 -0.10154023 -0.064311184 0.07030201 -0.08291731 0.13201061 -0.03386424
-0.004109249 0.15979779 -0.19772328 0.031191124 0.13800626 0.042048004 -0.1223882 0.0401646
-0.018617608 -0.018433124 -0.01621704 -0.0980124 -0.17485897 -0.13154495 0.045129273 0.06834313
-0.018945739 -0.104873516 -0.03901886 -0.14543818 0.05497042 0.118588656 0.029345524 -0.016430477
-0.004554921 0.041373227 -0.044876385 -0.083917804 -0.02308323 -0.008844479 -0.0020965002 -0.086011924
-0.014610518 -0.083694674 0.0855193 -0.03979969 0.10165733 0.104636155 0.050429102 0.040035468
0.014873944 0.064245865 -0.12163643 0.06170402 0.061616916 0.057808634 0.033772368 -0.043529764
-0.023879254 0.07625035 -0.11856017 -0.09948606 0.025162805 -0.03896815 -0.002033073 0.09305307
-0.009324452 0.095452346 -0.005603148 -0.02075152 -0.011092605 -0.008250155 -0.017323501 -0.0627475
-0.004382175 0.03771155 0.0099297 0.117812954 -0.021504989 0.013379157 -0.012287676 -0.009381018
0.007974228 -0.075276 0.03715739 0.0096542025 -0.0059363893 -0.0026305814 -0.001247204 0.12384693
0.074875295 0.12576641 0.024602078 0.09178971 0.10044861 0.03924646 0.12805551 -0.023660388
0.06578041 -0.008021256 -0.014419807 0.16995381 0.098245084 -0.07966919 0.030455079 -0.03701695
-0.011671208 -0.06662963 -0.030927135 0.09960918 -0.0014123891 -0.030111779 -0.037209705 -0.14349307
-0.0038467443 -0.046329204 -0.02344855 -0.046161857 -0.025088174 0.16757143 0.011033875 0.14318961
0.017510662 0.08065945 0.033849277 0.034660406 -0.042345863 -0.052078325 -0.022893678 0.004663167
0.008610775 0.07049833 0.061431766 0.03036487 0.011220662 0.0048472607 -0.017253403 -0.062731005
0.0028056982 0.08471945 0.07785728 -0.028436681 -0.00729032 -0.02248718 -0.04595113 0.034653768
-0.020759469 0.048481293 0.06809046 0.058290884 -0.082124524 -0.09811447 -0.019058859 0.03620563
0.0049258205 0.074767776 0.07325188 -0.030313322 -0.07050503 0.0077875433 -0.02250692 0.052560434
-0.0073040263 0.030526882 0.0109165935 -0.03851836 0.027579129 0.03286181 0.02594808 0.0051070484
0.025285449 0.027840964 -0.023495967 -0.024858182 0.013969941 0.003791992 0.004126258 -0.008242327
-0.010166377 0.018815465 -0.0056673577 -0.00967639 0.027096987 0.004571676 -0.030379627 0.031271074
-0.009668788 0.10258535 -0.005220156 0.0824596 -0.09608955 -0.08991556 0.04841945 -0.14183626
-0.04938575 0.024293538 0.19848523 -0.036907073 -0.16841586 -0.03463814 0.0014026196 0.09843729
0.10488367 -0.023070179 0.15093032 -0.16459827 -0.031130878 0.069372535 0.109109394 -0.08528925
-0.045102328 0.04032514 -0.07824192 -0.10304329 -0.14297682 0.044508066 0.0013559578 0.033174735
-0.014099005 0.09902599 0.024226805 0.025528079 -0.08399125 -0.06867255 0.01305535 0.0051924093
0.027095878 -0.13165015 0.08213906 -0.065357916 -0.020348322 -0.014926949 0.05382973 -0.11888269
0.04506471 -0.13215107 0.072731845 -0.07238346 0.031292297 0.017134547 0.035459723 0.05702853
-0.052931536 0.07905983 0.014549033 0.1463663 -0.07396055 -0.017744906 -0.07805809 0.056211267
00000000: 584e 5fbd faa5 8d3c cd30 b9bb 952d 503d
00000010: 8276 b53c ad27 ba3d 0f14 713d 79cf 00be
00000020: 16b2 ad3d 16c9 31be 53f4 cfbd 95b5 83bd
00000030: 80fa 8f3d 8dd0 a9bd ca2d 073e 3bb5 0abd
00000040: e1a6 86bb 08a2 233e f977 4abe 8784 ff3c
00000050: 8351 0d3e 873a 2c3d aaa6 fabd a383 243d
00000060: f483 98bc 1001 97bc 99d9 84bc baba c8bd
00000070: 3b0e 33be b8b3 06be 79d9 383d 7cf7 8b3d
00000080: 1834 9bbc edc7 d6bd 3dd2 1fbd bfed 14be
00000090: aa28 613d 9cde f23d 0666 f03c 3599 86bc
000000a0: 7241 95bb f976 293d 4dd0 37bd 19dd abbd
000000b0: 0b19 bdbc 6fe8 10bc 7065 09bb 0527 b0bd
000000c0: f460 6fbc 1d68 abbd be24 af3d 0005 23bd
000000d0: b831 d03d 7b4b d63d bf8e 4e3d 3bfc 233d
000000e0: d8b1 733c 5693 833d 851c f9bd 5bbd 7c3d
000000f0: 0562 7c3d bfc8 6c3d e554 0a3d 444c 32bd
00000100: 6d9e c3bc 2529 9c3d adcf f2bd 59bf cbbd
00000110: 3a22 ce3c 119d 1fbd 4e3d 05bb 9c92 be3d
00000120: 96c5 18bc 857c c33d 9d9a b7bb 17ff a9bc
00000130: c2bd 35bc a82b 07bc 04ea 8dbc c381 80bd
00000140: 5998 8fbb 6d77 1a3d 2eb0 223c eb47 f13d
00000150: 3b2b b0bc 4034 5b3c 4052 49bc d7b2 19bc
00000160: 56a6 023c 4e2a 9abd 5932 183d a92c 1e3c
00000170: 0b86 c2bb d565 2cbb 3979 a3ba 76a3 fd3d
00000180: 3858 993d e9c8 003e 4c8a c93c 3efc bb3d
00000190: 00b8 cd3d e5c0 203d fc20 033e 6ed3 c1bc
000001a0: e1b7 863d 966b 03bc 0e41 6cbc 5f08 2e3e
000001b0: b834 c93d 9a29 a3bd ee7c f93c 169f 17bd
000001c0: 9838 3fbc 1e75 88bd e75a fdbc e6ff cb3d
000001d0: ea1f b9ba faac f6bc 3469 18bd d9ef 12be
000001e0: a919 7cbb b1c3 3dbd 2c17 c0bc 3714 3dbd
000001f0: b785 cdbc d897 2b3e 6dc7 343c 4ca0 123e
00000200: 8572 8f3c c830 a53d 8aa5 0a3d 12f8 0d3d
00000210: db72 2dbd 1550 55bd 868b bbbc 7bcd 983b
00000220: 3514 0d3c 6e61 903d e09f 7b3d bfbf f83c
00000230: ded6 373c c5d5 9e3b 0257 8dbc 1d79 80bd
00000240: cedf 373b 6481 ad3d a373 9f3d 0bf4 e8bc
00000250: a3e3 eebb 0937 b8bc 4137 3cbd 1cf1 0d3d
00000260: c30f aabc 5294 463d 0373 8b3d 6cc2 6e3d
00000270: e730 a8bd 3df0 c8bd 5321 9cbc 5b4c 143d
00000280: c768 a13b d91f 993d 1505 963d a553 f8bc
00000290: f164 90bd a62e ff3b 6f60 b8bc 9c49 573d
000002a0: 9d56 efbb 8313 fa3c 83db 323c 6ec5 1dbd
000002b0: a0ed e13c 1b9a 063d 1191 d43c 0759 a73b
000002c0: 6e23 cf3c bc12 e43c 9d7a c0bc 63a3 cbbc
000002d0: 2ee2 643c 1283 783b 9035 873b d30a 07bc
000002e0: e090 26bc e422 9a3c 3eb5 b9bb b989 1ebc
000002f0: 80fa dd3c ffcd 953b b2de f8bc 1916 003d
00000300: d669 1ebc 4518 d23d d80d abbb 94e0 a83d
00000310: 99ca c4bd a625 b8bd 7953 463d 863d 11be
00000320: b648 4abd 3e03 c73c b63f 4b3e df2b 17bd
00000330: 3575 2cbe b9e0 0dbd 1bd8 b73a 7d99 c93d
00000340: 40cd d63d acfd bcbc 7a8d 1a3e 738c 28be
00000350: 2f06 ffbc 3013 8e3d bf74 df3d 21ac aebd
00000360: 38bd 38bd f92b 253d 4d3d a0bd 5c08 d3bd
00000370: 8468 12be 174e 363d 65ba b13a 3be2 073d
00000380: 83ff 66bc 23ce ca3d 4b77 c63c 4320 d13c
00000390: 9b03 acbd 32a4 8cbd 1be6 553c 1625 aa3b
000003a0: 2df8 dd3c 4ccf 06be 8638 a83d 5fda 85bd
000003b0: 86b1 a6bc 2990 74bc 907c 5c3d c578 f3bd
000003c0: c695 383d 9c52 07be 6ff4 943d c83d 94bd
000003d0: 5a2c 003d c05d 8c3c 373e 113d bf96 693d
000003e0: bdce 58bd 1fea a13d 115f 6e3c 0ce1 153e
000003f0: a178 97bd c45d 91bc ebdc 9fbd c93d 663d

encoder_layers.0.attention.value_projection.bias f4 [24]
0.11581442 -0.08369937 -0.1788453 -0.044412494 -0.1002096 0.10960844 -0.11712237 0.016480941
-0.031688727 -0.09708346 0.10655044 -0.06328782 -0.015643978 -0.12442264 -0.013068845 0.005053623
-0.009601399 -0.08780583 0.0013056634 -0.04135127 -0.02585912 -0.12815186 -0.043307096 -0.11789906
00000000: 1c30 ed3d 936a abbd 3923 37be e0e9 35bd
00000010: b13a cdbd 647a e03d dadd efbd 0a03 873c
00000020: 0acc 01bd b1d3 c6bd 1e37 da3d 0b9d 81bd
00000030: cd27 80bc 4cd1 febd b51e 56bc dd98 a53b
00000040: 304f 1dbc 8bd3 b3bd cb22 ab3a f35f 29bd
00000050: 81d6 d3bc 3e3a 03be c862 31bd 1075 f1bd

encoder_layers.0.attention.out_projection.weight f4 [24, 24]
-0.0024729213 -0.00422835 -0.0030818896 -0.001182776 -0.004486186 -0.0010523737 -0.0005519331 -0.0015566008
0.0059598945 0.0024034432 -0.009870304 -0.0007315273 -0.0005645478 -0.00063297094 -0.00076686137 0.0040780585
0.0034803336 0.0005164897 -0.00027657684 0.0025367837 0.00012294255 0.00020341281 -0.0016697121 -0.0011947114
-0.0015674706 0.014908243 -0.0052409414 -0.0085883625 -0.004088399 -0.010327181 -0.005696408 -0.005377305
0.013736995 0.013159536 -0.014657092 0.004167809 0.0032530653 -0.011469767 -0.015342362 0.0024813076
0.0064855297 0.010327099 -0.0006822365 0.004884383 0.000997825 0.013129299 -0.014348058 -0.0062488737
-0.002306728 0.0053547863 -0.0020588874 -0.0035644746 -0.004556238 -0.0018610863 -0.0013189602 -0.0014218686
-0.0066486043 0.009232815 -0.003382118 -2.4812241e-05 -0.0002278939 -0.0040085427 -0.005333935 0.004038774
0.002423796 0.0029446224 -0.0002680289 0.0016600959 0.00021560969 0.008317019 -0.007667491 -0.0017786149
-0.014556555 -0.03717027 -0.008659132 -0.0045695244 -0.0021388344 0.036763724 -0.002789894 -0.017140314
0.05594941 0.016716585 -0.007842241 -0.010252223 0.004933996 0.010082613 0.0068606767 0.015779065
0.012315481 0.042402275 0.00042928357 0.025669292 0.0021366242 0.0010783545 0.018070592 0.0035039843
0.00024710572 0.042082865 0.011596809 0.0040075025 -0.018286457 0.036062267 -0.0048612775 0.0021139376
0.058442336 0.028073972 0.050879743 0.0062298593 0.0016300794 -0.018277738 0.021039538 0.004376846
0.03978621 0.032996558 -0.002447724 0.008619075 -0.0006013437 0.06745544 -0.053185713 -0.0062771686
-0.0015015348 -0.05627837 -0.008529811 -0.013280943 -0.0076580215 -0.026209664 -0.0020006837 0.004427291
0.051290218 0.05563138 -0.002750635 -0.0008404822 0.0006584341 -0.0037572864 -0.014465465 0.0047203754
0.0035893475 -0.018419035 -0.00060618366 0.018622426 0.00028254936 0.03967008 -0.039794166 -0.0050658314
-0.0058063064 -0.01820741 -0.006270027 0.00333066 -0.006009529 0.0015575282 0.00049226376 -0.0038684842
0.027700799 0.01017019 0.012461914 -0.0023916287 -0.0010259779 0.0026367884 0.010194053 0.008004384
0.009597761 0.008437842 0.00080420164 0.009901829 0.0003818166 0.0009425894 -0.009886035 -0.0008883042
0.028173048 0.033369917 0.0042746924 0.036821857 -0.0021480753 -0.07307043 -0.032121476 0.00061433547
-0.040864915 -0.032102067 0.05195157 -0.0180936 0.008501327 -0.014532039 0.012054451 -0.02896096
-0.0007134813 -0.052129123 -0.0046951906 -0.03485215 -0.0031347964 0.017804112 0.01788232 -0.000708813
0.08695197 -0.016675912 0.03316414 0.022112645 0.017571034 0.10264541 -0.093728244 0.06888759
-0.13113464 -0.13212512 -0.038447894 0.040465858 0.064704135 0.005226953 -0.052065212 -0.09109708
-0.10805223 -0.048879493 -0.011188491 -0.00050775177 0.0049247425 -0.111997046 0.014348204 -0.061166797
0.094618246 -0.12372469 0.042061202 -0.110266075 0.0205033 0.1100896 -0.104700945 -0.08440934
-0.038572703 -0.061114527 0.04577731 -0.08618155 0.04287868 -0.14978845 -0.11819824 -0.12453344
-0.012413287 -0.05268863 -0.04942343 -0.1385859 -0.025450043 -0.14598967 0.036157295 0.002086208
-0.08255846 -0.06555716 -0.03417927 -0.11954194 -0.06982949 -0.0053330315 0.10567267 -0.06393131
0.12475177 -0.046903037 -0.0500206 -0.08481249 0.058568124 0.15377875 0.020617548 0.12440711
00000000: bc10 22bb f88d 8abb 87f9 49bb 6007 9bba
00000010: db00 93bb cdef 89ba 9aaf 10ba db06 ccba
00000020: 384b c33b 1683 1d3b 0eb7 21bc f7c3 3fba
00000030: 29fe 13ba f6ed 25ba 3207 49ba 3ca1 853b
00000040: 4f16 643b 0965 073a 8401 91b9 2b40 263b
00000050: 24ea 0039 364b 5539 3eda daba dd97 9cba
00000060: 9673 cdba b441 743c 34bc abbb 34b6 0cbc
00000070: faf7 85bb 5633 29bc efa8 babb 1b34 b0bb
00000080: 2211 613c 189b 573c 4d24 70bc 1e92 883b
00000090: 6131 553b b1eb 3bbc 885e 7bbc 6f9d 223b
000000a0: 9184 d43b fe32 293c 1ed8 32ba 2d0d a03b
000000b0: 73c9 823a 451c 573c 1e14 6bbc 5ac3 ccbb
000000c0: 792c 17bb 3477 af3b 66ee 06bb f699 69bb
000000d0: 7f4c 95bb b2ef f3ba f6e0 acba fe5d baba
000000e0: 89dc d9bb 3c45 173c 86a6 5dbb e223 d0b7
000000f0: cef6 6eb9 185a 83bb 4ac8 aebb b157 843b
00000100: 8dd8 1e3b 91fa 403b 3b86 8cb9 9397 d93a
00000110: 4915 6239 1b44 083c 943f fbbb 6a20 e9ba
00000120: 9e7e 6ebc da3f 18bd 08df 0dbc f3bb 95bb
00000130: b02b 0cbb 8f95 163d a7d6 36bb d869 8cbc
00000140: 352b 653d 38f1 883c be7c 00bc f1f8 27bc
00000150: 5cad a13b 8b31 253c 87cf e03b 1943 813c
00000160: dfc6 493c 02ae 2d3d 7711 e139 6848 d23c
00000170: 9b06 0c3b 9357 8d3a c708 943c 1aa3 653b
00000180: f88d 8139 155f 2c3d 8b00 3e3c 5e51 833b
00000190: 7bcd 95bc 07b6 133d 5a4b 9fbb fd89 0a3b
000001a0: 3b61 6f3d 63fb e53c 4767 503d d923 cc3b
000001b0: 63a8 d53a 32bb 95bc 1c5b ac3c a56b 8f3b
000001c0: ddf6 223d 6627 073d ff69 20bb 0537 0d3c
000001d0: 7ea3 1dba 1426 8a3d 43d9 59bd b5b0 cdbb
000001e0: 26cf c4ba 2684 66bd 9fc0 0bbc 5098 59bc
000001f0: 24f0 fabb a6b5 d6bc e71d 03bb cf12 913b
00000200: b115 523d bbdd 633d ff43 34bb ce53 5cba
00000210: c49a 2c3a ce3c 76bb 8f00 6dbc 61ad 9a3b
00000220: 423b 6b3b 84e3 96bc 4ce8 1eba 0f8e 983c
00000230: 2223 9439 187d 223d 35ff 22bd 46ff a5bb
00000240: d442 bebb b527 95bc cc74 cdbb 3447 5a3b
00000250: 95eb c4bb f925 cc3a 430b 013a 6586 7dbb
00000260: c9ec e23c dea0 263c 0e2d 4c3c dfbc 1cbb
00000270: 1b7a 86ba f8cd 2c3b f504 273c d224 033c
00000280: ed3f 1d3c e03e 0a3c 0fd1 523a 483b 223c
00000290: 8e2e c839 1b18 773a 09f9 21bc 16dd 68ba
000002a0: 2acb e63c e5ae 083d b812 8c3b 84d2 163d
000002b0: b9c6 0cbb f3a5 95bd cf91 03bd 5b0b 213a
000002c0: f861 27bd 757d 03bd 2bcb 543d 0839 94bc
000002d0: 2649 0b3c ca17 6ebc 0880 453c 893f edbc
000002e0: eb08 3bba 5985 55bd 1dda 99bb 21c1 0ebd
000002f0: 2871 4dbb eed9 913c f17d 923c a3cf 39ba
00000300: e013 b23d ec9b 88bc 1fd7 073d 9425 b53c
00000310: 21f1 8f3c c237 d23d 98f4 bfbd f014 8d3d
00000320: 2948 06be cf4b 07be 8a7b 1dbd 87bf 253d
00000330: 9a83 843d dc46 ab3b 5542 55bd 1b91 babd
00000340: 7d4a ddbd dd35 48bd ef4f 37bc a51a 05ba
00000350: bc5f a13b b55e e5bd bb14 6b3c 098a 7abd
00000360: 36c7 c13d 5f63 fdbd 5e48 2c3d 2ed3 e1bd
00000370: 89f6 a73c a876 e13d 736d d6bd cede acbd
00000380: 69fe 1dbd 3a53 7abd fd80 3b3d f47f b0bd
00000390: 8ea1 2f3d 2562 19be eb11 f2bd 630b ffbd
000003a0: 1961 4bbc 08d0 57bd 3970 4abd 76e9 0dbe
000003b0: 9c7c d0bc 517e 15be ac19 143d c3b8 083b
000003c0: 6914 a9bd d542 86bd 90ff 0bbd 68d2 f4bd
000003d0: c302 8fbd b6c0 aebb ea6a d83d 6bee 82bd
000003e0: db7d ff3d 661d 40bd 67e2 4cbd 2cb2 adbd
000003f0: 21e5 6f3d 2d78 1d3e 22e6 a83c 28c9 fe3d

encoder_layers.0.attention.out_projection.bias f4 [24]
0.040198945 -0.029912822 0.028550217 0.006098984 0.095087074 0.056311943 0.066914946 0.0021878218
-0.13893728 -0.06569491 0.043826483 0.081378035 -0.037510674 0.053538598 0.0074926093 0.01835417
-0.020025387 -0.025856776 0.08865244 -0.001954558 0.099085644 -0.12399633 -0.087376624 -0.011720899
00000000: a6a7 243d bc0b f5bc 25e2 e93c fcd9 c73b
00000010: 03bd c23d 5aa7 663d b40a 893d 8f61 0f3b
00000020: 9345 0ebe 0e8b 86bd 6683 333d 87a9 a63d
00000030: cba4 19bd 4a4b 5b3d 9084 f53b 7c5b 963c
00000040: 480c a4bc 97d1 d3bc 698f b53d 0b18 00bb
00000050: 6aed ca3d caf1 fdbd 84f2 b2bd 0309 40bc

encoder_layers.0.feed_forward.0.weight f4 [8, 24]
-0.003691945 0.054446653 -0.01745771 -0.11495012 0.047528606 0.01813631 -0.0011225389 0.040433794
-0.061650764 0.0681252 -0.04361788 0.087237805 -0.026726263 0.012472599 -0.019124174 -0.061624363
-0.022541791 0.007896341 -0.006155151 0.0003704695 0.012296705 -0.04477359 -0.040882904 0.088248014
-0.0020751045 0.0032307012 0.032078214 -0.0013933773 -0.061134048 0.002992244 -0.0034083142 -0.045614857
0.13327184 0.07623157 -0.1692166 -0.015247719 0.074085146 -0.057925586 -0.00740387 -0.1126656
0.012658516 -0.012413843 -0.044714697 -0.0017148757 0.14104755 -0.034524925 -0.13498548 -0.049627576
0.007772558 -0.0062402445 -0.056029327 0.011548136 0.04426491 -0.05164075 0.003088549 0.035225775
-0.13872726 -0.12586567 0.16096452 0.017784292 -0.044359606 -0.0064484584 -0.0052819625 0.04144182
0.091658786 0.0007604045 0.012363595 0.0025345357 -0.221757 0.043461684 0.1237857 0.0125821605
0.0013958679 0.042461924 0.01938788 0.028651249 0.03721184 -0.016900185 0.002119297 0.042791035
0.0033692876 -0.040086094 -0.09251588 0.0068991175 0.03743853 0.020733492 -0.035829715 -0.03956349
-0.055616237 0.0081022205 -0.027264271 0.0008258084 -0.026562264 -0.049823374 -0.051011942 -0.0145048285
0.009245209 0.07972397 0.0096338065 0.008883709 0.0782428 0.030541783 -0.00013045181 0.03462711
0.06550306 0.17002682 -0.033272967 -0.0013308135 0.027272975 -0.027229328 0.028090816 -0.12766258
0.012384535 0.0009817522 -0.028265204 -0.0002847775 0.02101144 0.013918445 0.007118188 -0.07379836
0.0152101 0.061811607 0.03731568 0.030537575 0.035690375 0.008756761 -0.0002127905 0.05525528
0.08754871 0.06943314 -0.19922781 0.090279125 -0.0040803077 0.051638585 0.079858266 -0.012409479
0.07756469 0.009705347 -0.027176883 -0.00066284445 0.18862087 0.0045512845 0.011270634 -0.02092075
-0.00030751288 0.093587786 0.0017511958 0.0062732087 -0.0037243145 -0.021392612 0.0026169405 0.031863764
-0.03077443 -0.034474887 -0.067190126 0.021813622 -0.037273157 0.0016990175 -0.001231096 -0.017753484
-0.0372148 0.004226341 -0.023048976 0.00053158816 -0.008459795 -0.041971564 0.007181804 -0.014633695
-0.0028791307 0.009710839 -0.0324117 0.047206312 -0.00458708 -0.021019345 -0.0064900913 -0.033064328
-0.1260664 -0.14500682 0.17767607 0.017099364 0.046850212 0.010919969 0.036401354 0.10843389
0.09933167 0.008111693 0.042243116 -0.00014756473 -0.16902825 0.030417528 0.19702871 -0.025415344
00000000: 8ff4 71bb 7403 5f3d 7903 8fbc f86a ebbd
00000010: 5bad 423d 9992 943c 2822 93ba e89d 253d
00000020: 8385 7cbd 3a85 8b3d aaa8 32bd bca9 b23d
00000030: 09f1 dabc df59 4c3c 4daa 9cbc d469 7cbd
00000040: 90a9 b8bc a85f 013c 26b1 c9bb 933b c239
00000050: 1e78 493c 8364 37bd d574 27bd 60bb b43d
00000060: 7afe 07bb 2cba 533b 7264 033d fca1 b6ba
00000070: b267 7abd 8619 443b 065e 5fbb a5d6 3abd
00000080: 6a78 083e 4c1f 9c3d 1e47 2dbe 92d1 79bc
00000090: f4b9 973d 6143 6dbd 2a9c f2bb 39bd e6bd
000000a0: aa65 4f3c 6e63 4bbc c226 37bd aec5 e0ba
000000b0: c56e 103e 026a 0dbd a239 0abe 4946 4bbd
000000c0: f1b0 fe3b f77a ccbb 027f 65bd 6534 3d3c
000000d0: 1f4f 353d 4085 53bd 4169 4a3b e748 103d
000000e0: 850e 0ebe eee2 00be e2d3 243e 5db0 913c
000000f0: 6bb2 35bd 974d d3bb 5014 adbb e6be 293d
00000100: 9ab7 bb3d e255 473a ad90 4a3c 741a 263b
00000110: 4414 63be e104 323d 5b83 fd3d 6825 4e3c
00000120: 8ef5 b63a 8eec 2d3d 55d3 9e3c 06b6 ea3c
00000130: 716b 183d 4272 8abc e7e3 0a3b a745 2f3d
00000140: 44cf 5c3b 5131 24bd f778 bdbd fe11 e23b
00000150: 2559 193d 49d9 a93c 2ec2 12bd 530d 22bd
00000160: dacd 63bd 2dbf 043c 5259 dfbc 107b 583a
00000170: 1b99 d9bc 9813 4cbd e6f1 50bd a9a5 6dbc
00000180: 3879 173c 5246 a33d 1dd7 1d3c fa8c 113c
00000190: c33d a03d c332 fa3c e4c9 08b9 28d5 0d3d
000001a0: 7826 863d 831b 2e3e 3c49 08bd b16e aeba
000001b0: 936b df3c 0a10 dfbc b61e e63c fbb9 02be
000001c0: 81e8 4a3c 23ae 803a 6e8c e7bc 304e 95b9
000001d0: 2f20 ac3c 310a 643c b03f e93b 9823 97bd
000001e0: c933 793c 2b2e 7d3d 54d8 183d f029 fa3c
000001f0: 1230 123d 8578 0f3c 8420 5fb9 5c53 623d
00000200: bd4c b33d f632 8e3d 6002 4cbe 43e4 b83d
00000210: 1ab4 85bb fb82 533d bb8c a33d 2151 4bbc
00000220: 3cda 9e3d 2d03 1f3c 0ea2 debc bdc2 2dba
00000230: d425 413e f122 953b 77a8 383c fe61 abbc
00000240: ae39 a1b9 f4aa bf3d 6188 e53a 7d8f cd3b
00000250: a113 74bb 8f3f afbc fa80 2b3b 9483 023d
00000260: a81a fcbc 8a35 0dbd fa9a 89bd 7bb2 b23c
00000270: bdab 18bd 91b1 de3a ba5c a1ba c16f 91bc
00000280: 8c6e 18bd 1e7d 8a3b 35d1 bcbc 475a 0b3a
00000290: f49a 0abc 60ea 2bbd 5755 eb3b 2ac2 6fbc
000002a0: ccaf 3cbb 361a 1f3c 21c2 04bd 685b 413d
000002b0: 374f 96bb c330 acbc d5aa d4bb 766e 07bd
000002c0: 8d17 01be ab7c 14be b7f0 353e f713 8c3c
000002d0: 02e6 3f3d abe9 323c 9619 153d 9612 de3d
000002e0: 676e cb3d e8e6 043c 1e07 2d3d 9bbb 1ab9
000002f0: be15 2dbe 2e2e f93c e5c1 493e d733 d0bc

encoder_layers.0.feed_forward.0.bias f4 [8]
0.117891796 -0.0016041176 0.035043065 0.00085420057 -0.0948497 0.021910805 -0.029578382 -0.05307062
00000000: 4171 f13d 4141 d2ba 5189 0f3d 6eec 5f3a
00000010: 8f40 c2bd 4a7e b33c 5d4e f2bc 9460 59bd

encoder_layers.0.feed_forward.3.weight f4 [24, 8]
0.005122397 -0.006760463 -0.00742709 -0.0013310501 -0.0035070186 -0.0048653944 -0.0016460425 0.00021455753
-0.0034918485 -0.006179228 -0.0071158414 -0.0016050916 -0.003211288 -0.0045106555 -0.0017591403 -2.9148649e-05
-0.0031995368 -0.0076221474 -0.008886032 -0.001732993 -0.0039199586 -0.005501346 -0.001972711 -0.0006614474
0.031419758 -0.012214089 0.022168096 -0.0036351602 -0.0030727272 -0.007012786 -0.0025002463 0.017777018
0.022551322 -0.0042587416 -0.033330675 0.00064520474 -0.0073668663 -0.0055259117 -0.005841196 -0.023554437
0.0072371233 -0.008247822 -0.01260874 -0.002988562 -0.0045803823 -0.007561879 -0.0035064255 -0.009028057
-0.033735022 -0.014234435 -0.004561084 -0.0042020692 -0.0051706643 -0.011797229 -0.0035680989 0.015536808
0.10453987 0.016654782 -0.012838925 0.0152462 0.003820689 0.009306192 0.0021347017 -0.06343075
-0.06120849 0.036918085 -0.064326175 -0.020701097 -0.0074769873 0.064600796 0.006792028 -0.09460595
-0.103718296 -0.012546767 -0.13840193 -0.025919728 -0.025986712 -0.02496171 -0.010667887 -0.18465106
0.04640843 -0.030839577 0.03438351 -0.047422484 -0.030659417 -0.037428368 -0.026842847 0.043950114
-0.004767189 -0.028523136 -0.14830755 0.007859502 -0.018717064 -0.026998457 -0.005485626 -0.13892458
-0.007445372 -0.010109238 -0.011246063 -0.0028103725 -0.0044519627 -0.007254043 -0.002279486 -0.004072923
0.00022453933 -0.0068805465 -0.007340637 -0.0014726936 -0.0034997778 -0.004964095 -0.0017559094 -0.00018964948
0.00036119504 -0.007908242 -0.009563427 -0.0018558422 -0.003927914 -0.005656468 -0.0020680514 -0.00050096767
0.18882094 -0.03711806 -0.023886953 -0.016378962 -0.015123153 0.07930812 -0.020247499 0.26122695
0.0018311733 -0.028954623 0.0010319466 -0.010341979 -0.009359774 -0.019137803 -0.0040437 0.035219632
-0.0016210345 -0.0067101843 -0.0072540524 -0.0014651256 -0.0035283328 -0.004894083 -0.001712177 -2.3445189e-06
-0.018964345 -0.007793394 -0.008904517 -0.0016124783 -0.0038790489 -0.0056168223 -0.0019845145 -0.00023532537
-0.0059286687 -0.006808625 -0.0072733597 -0.0015125003 -0.003554249 -0.004936194 -0.0017111818 0.0001190613
0.10345589 0.19148417 0.2981738 0.11619237 0.16124474 0.21065517 0.07152542 0.052353013
-0.07176461 -0.018465012 0.09765753 0.0006851175 0.006837213 -0.017780824 0.0028403413 0.14391637
-0.053738177 -0.088506 -0.027789531 -0.07393727 -0.034755122 -0.016548553 -0.033124533 0.040730514
0.007935556 -0.007879038 -0.023300018 -0.00074040843 -0.0051556723 -0.007039001 -0.0030089389 -0.021239486
00000000: c8d9 a73b e086 ddbb f25e f3bb a176 aeba
00000010: 02d6 65bb e36d 9fbb 05c0 d7ba d9fa 6039
00000020: 7fd7 64bb 1f7b cabb 012c e9bb f061 d2ba
00000030: 7974 52bb 1fce 93bb f492 e6ba 3f84 f4b7
00000040: 52af 51bb 35c3 f9bb b896 11bc 9925 e3ba
00000050: ff72 80bb a344 b4bb 9948 01bb fc64 2dba
00000060: 01b2 003d 9a1d 48bc de99 b53c de3b 6ebb
00000070: cf5f 49bb 83cb e5bb 2cdb 23bb 1ca1 913c
00000080: 8dbd b83c ea8c 8bbb bf85 08bd f522 293a
00000090: c165 f1bb b512 b5bb 8167 bfbb 3cf5 c0bc
000000a0: 6425 ed3b df21 07bc e394 4ebc c0db 43bb
000000b0: 0817 96bb a4c9 f7bb 0fcc 65bb 6aea 13bc
000000c0: bc2d 0abd 8c37 69bc 2575 95bb 83b1 89bb
000000d0: ad6e a9bb 2a49 41bc c4d6 69bb 198e 7e3c
000000e0: 0019 d63d 9c6f 883c 5b5a 52bc 33cb 793c
000000f0: 8664 7a3b 0079 183c 5ae6 0b3b fbe7 81bd
00000100: c1b5 7abd 6b37 173d 71bd 83bd 5995 a9bc
00000110: 8401 f5bb 6c4d 843d a98f de3b c4c0 c1bd
00000120: 426a d4bd f490 4dbc 3cb9 0dbe 9c55 d4bc
00000130: 16e2 d4bc 807c ccbc 5cc8 2ebc 2b15 3dbe
00000140: c416 3e3d 48a3 fcbc b9d5 0c3d 143e 42bd
00000150: 7529 fbbc 7d4e 19bd 88e5 dbbc 0905 343d
00000160: 1436 9cbb 5aa9 e9bc efdd 17be 24c5 003c
00000170: 8754 99bc de2b ddbc c4c0 b3bb 3f42 0ebe
00000180: 4ff8 f3bb 38a1 25bc 6841 38bc 3a2e 38bb
00000190: c5e1 91bb 53b3 edbb 6e63 15bb 2876 85bb
000001a0: 5172 6b39 3576 e1bb ba89 f0bb 6607 c1ba
000001b0: 875c 65bb d9a9 a2bb 8b26 e6ba a5dc 46b9
000001c0: c75e bd39 9291 01bc ecaf 1cbc bb3f f3ba
000001d0: bbb5 80bb e559 b9bb 2588 07bb 5f53 03ba
000001e0: 475a 413e 1b09 18bd 92ae c3bc 2c2d 86bc
000001f0: 1ac7 77bc 4c6c a23d 15de a5bc 8abf 853e
00000200: fb03 f03a 3f32 edbc 6242 873a 6771 29bc
00000210: bd59 19bc e2c6 9cbc 0481 84bb 7642 103d
00000220: e478 d4ba 1be1 dbbb 67b3 edbb 7509 c0ba
00000230: 9a3b 67bb 8b5e a0bb 206b e0ba 8756 1db6
00000240: 1d5b 9bbc ba5f ffbb 40e4 11bc cb59 d3ba
00000250: a437 7ebb 520d b8bb a10e 02bb acc1 76b9
00000260: 4745 c2bb e31a dfbb 5d55 eebb 173f c6ba
00000270: 67ee 68bb ccbf a1bb bc49 e0ba 8cb0 f938
00000280: afe0 d33d 6d14 443e 3caa 983e 44f6 ed3d
00000290: 571d 253e fdb5 573e eb7b 923d 1d70 563d
000002a0: 53f9 92bd f043 97bc ac00 c83d 7599 333a
000002b0: b30a e03b 17a9 91bc 0525 3a3b d05e 133e
000002c0: 901c 5cbd a242 b5bd dfa6 e3bc 6c6c 97bd
000002d0: 635b 0ebd d590 87bc 97ad 07bd 0ad5 263d
000002e0: 2204 023c 1517 01bc aedf bebc f817 42ba
000002f0: eaf0 a8bb 6ca7 e6bb 9e31 45bb 6efe adbc

encoder_layers.0.feed_forward.3.bias f4 [24]
-0.0198536 -0.024691116 -0.035756323 0.089751676 0.0032231614 0.12384958 0.04904711 -0.17233063
0.07871499 0.20913774 0.10805707 0.04558882 -0.042877134 -0.023206826 0.020730874 -0.16203682
0.01032536 -0.007342279 0.029835422 -0.0056372485 -0.14967144 -0.08369199 0.1669861 -0.0037796993
00000000: 04a4 a2bc 0645 cabc 3975 12bd bacf b73d
00000010: ad3b 533b d9a4 fd3d 9fe5 483d 7177 30be
00000020: 5335 a13d 3428 563e 064d dd3d 58bb 3a3d
00000030: ef9f 2fbd 3e1c bebc cbd3 a93c fbec 25be
00000040: b32b 293c 8097 f0bb 6a69 f43c abb8 b8bb
00000050: 7843 19be b566 abbd 67fe 2a3e d5b4 77bb

encoder_layers.0.norm1.weight f4 [24]
0.037348993 0.2832216 0.14777155 0.5753357 0.5262326 0.26884228 0.061668135 0.59426874
0.7671556 0.7870301 0.85091865 0.58077186 0.30593908 0.14305499 0.20237793 0.83725405
0.5095204 0.05730397 0.22039604 0.025513198 1.0012758 0.60575354 0.8102235 0.41230792
00000000: 42fb 183d 6c02 913e 6d51 173e 3349 133f
00000010: 2eb7 063f b2a5 893e ba97 7c3d ff21 183f
00000020: 4f64 443f ce7a 493f ced5 593f 77ad 143f
00000030: 0ca4 9c3e 027d 123e 293c 4f3e 4856 563f
00000040: ee6f 023f 91b7 6a3d 80af 613e 0e01 d13c
00000050: ce29 803f aa12 1b3f cf6a 4f3f 061a d33e
