checkpoints/mlp_random/2023_03.pt (torch, 18270 bytes, 19 tensors)

_network.0.weight f4 [32, 5]
000000 26 87 ad 3d 18 6b 9e be c2 3b b8 3e 92 00 7e 3d
       0.08473043 -0.3094108 0.35983092 0.062012263
000010 31 fb ed bd c5 57 15 be e7 0e 3e 3f 64 90 94 be
       -0.116201766 -0.14584263 0.7424149 -0.2901641
000020 26 94 13 be 1f 34 93 3d 78 e7 27 bd e2 44 2e be
       -0.14411983 0.07187676 -0.04099223 -0.17018464
000030 a4 58 66 be 45 78 c9 bd d5 e2 87 3d 1f 96 c3 3d
       -0.22494751 -0.09837393 0.06635062 0.09550118
000040 95 0b 10 bf df a0 8f 3d 16 b9 a9 3e 43 0e b3 3c
       -0.5626767 0.070131056 0.33149022 0.021857386
000050 26 c4 15 be 56 30 d8 be 37 e6 ff bd 77 69 c9 3e
       -0.14625606 -0.42224377 -0.12495082 0.39338276
000060 58 11 12 3e 7b 21 3e 3e ea 44 2b 3d 55 a3 98 3d
       0.14264429 0.1856746 0.04181377 0.07453028
000070 1f e2 fd 3c 8e 5e cf be 3a ba 2c 3e b2 6c 17 3e
       0.030991612 -0.40501827 0.16867915 0.14787558
000080 38 10 e1 be 35 6d bd 3e 69 af 99 be 43 2e 68 3c
       -0.43957686 0.3699738 -0.3001664 0.014171186
000090 bf d3 0d bf 13 44 43 bd e2 4d 1a 3d 09 22 3c 3e
       -0.55401224 -0.047672343 0.03767193 0.18372358
0000a0 ec 22 79 3d a3 db 00 bf 64 4a 5a bd ff 91 20 bb
       0.06082432 -0.5033514 -0.0532936 -0.0024501083
0000b0 d0 e7 c5 bb f4 e0 8d 3e 18 8a 92 3e e0 04 a5 be
       -0.006039597 0.27710688 0.28620982 -0.32230282
0000c0 8d b5 c8 3e b0 53 84 be 2e 6d 80 be 0f 4f 8d bd
       0.39201012 -0.25845098 -0.25083297 -0.06899845
0000d0 3a cb a1 be 95 29 80 3e f9 2e 71 3d 01 d3 37 3d
       -0.31600362 0.25031725 0.058882687 0.044878963
0000e0 f9 73 24 bf 6f d3 a5 3d 8d 65 97 bd 38 63 7b 3d
       -0.6423946 0.080969684 -0.07392416 0.06137392
0000f0 ff 9d 2a bd b1 7d 54 3f 7f a5 01 3d ad 32 92 be
       -0.041654583 0.8300429 0.03165197 -0.28554288
000100 8e 19 c4 be 48 28 cf 3c e8 de 32 3f 9f db 31 3e
       -0.38300747 0.025287762 0.6987138 0.17368935
000110 62 26 00 3e d2 4c 0d be 4f 3e d8 3d 84 38 04 3e
       0.12514642 -0.13798836 0.105587594 0.12912184
000120 88 5a 2f 3e 2f f4 f0 3d 61 8f 74 bd ad 69 8d be
       0.17124379 0.11765324 -0.05970705 -0.27619687
000130 45 f6 10 be ea 65 cf be 97 e8 01 bd 9b 00 da be
       -0.14156444 -0.40507442 -0.031715956 -0.42578587
000140 21 16 0d 3e d6 43 89 be a1 66 92 bd e6 15 9c be
       0.13777973 -0.26809567 -0.07148481 -0.30485457
000150 ba 5e 0e 3e b9 2e 35 3d cf 74 c5 3e 6c c8 1d be
       0.13903323 0.04423401 0.3856568 -0.15408486
000160 10 81 8b bd 61 51 8b 3e fb 05 3f bd 48 5d 10 bf
       -0.06811726 0.27210525 -0.046636563 -0.56392336
000170 dc b0 0c bc 60 e4 0f 3e aa 40 8d bd cc 74 4a 3c
       -0.008587088 0.14051962 -0.06897099 0.012356948
000180 66 5d a8 be a4 c5 c6 be 41 fe bf 3e 27 cc 9b 3d
       -0.32883757 -0.38822663 0.37498668 0.07607298
000190 28 59 8d 3e 1b df 39 be 4d 12 c1 3e 4c a8 00 3f
       0.27607083 -0.18151514 0.37709275 0.502568
0001a0 74 05 ad 3d 28 68 85 be ce 12 f4 be a6 21 c9 3d
       0.08448306 -0.26056027 -0.47670597 0.09820871
0001b0 5f 4c 8f 3e ce 8d c6 bd 81 98 a3 bd 9a 58 06 3f
       0.27987954 -0.09695016 -0.07988072 0.52478945
0001c0 ab 58 95 bd 93 8c a8 3e 13 02 00 3e 53 49 98 bd
       -0.07292303 0.3291975 0.12500791 -0.074358605
0001d0 b4 0c 19 3f c2 e3 82 be 98 aa 2a 3b 74 a7 eb bc
       0.5978501 -0.2556439 0.0026041623 -0.028766371
0001e0 63 be fc 3d e8 4c 37 3f a2 fa 75 bd 55 0e 6f be
       0.12341001 0.71601725 -0.060053475 -0.23345311
0001f0 ec 10 11 3e 2e 75 10 be 79 f1 af bc 90 ba 9a 3e
       0.14166611 -0.141072 -0.021477448 0.3022046
000200 60 da 14 3e be 55 c3 3e 00 7d 5a be 95 f5 98 3e
       0.14536428 0.38151354 -0.21336746 0.29874864
000210 93 d6 39 3e 12 c7 bc 3e b9 32 aa be 1e 21 67 be
       0.1814826 0.3687063 -0.33241823 -0.22571227
000220 de 8b cd 3e e9 2a 1f bd 0b ca c0 bd eb d4 b6 3e
       0.40145773 -0.03885928 -0.09413537 0.3570932
000230 d8 7b 84 3e 53 3f 26 bf c0 cc 2f 3e f8 b4 0d 3e
       0.25875735 -0.64940375 0.1716795 0.13838565
000240 93 65 a3 bc be 36 b1 be b8 1e e5 be f0 db a4 3e
       -0.019945895 -0.34612077 -0.4475 0.3219905
000250 72 b0 b0 be 73 54 6e 3d 14 5c d6 3c 14 b7 2a be
       -0.34509617 0.058186006 0.026166953 -0.16671401
000260 88 70 20 3d 59 db 01 be 17 69 d7 be 26 b3 20 3d
       0.03916982 -0.1268133 -0.42072365 0.03923335
000270 e5 29 ee be c5 ee b6 bc 36 28 04 3e 81 c8 84 be
       -0.46516338 -0.022330651 0.12905964 -0.25934222

_network.0.bias f4 [32]
000000 f8 5f f2 bd 8c 52 9f bd 1c 32 33 be b1 b2 4d 3d
       -0.11834711 -0.077794164 -0.17499584 0.05021924
000010 6a 18 88 3e 46 a3 7e bd 4c fd be be 9f 86 95 be
       0.26581126 -0.06216743 -0.37302625 -0.2920427
000020 98 83 97 be b3 54 29 bc ea d9 99 3e dd c1 a3 be
       -0.29592586 -0.010335135 0.30049068 -0.31983843
000030 3f b1 cf be 06 0c 31 be 08 ba b2 3e 19 7d b7 3e
       -0.40564916 -0.17289743 0.34907556 0.3583763
000040 bd c0 cf 3d 50 30 d3 3e 40 d8 75 3c f2 9c 59 3c
       0.10144184 0.41247797 0.015005171 0.013282048
000050 14 56 a2 be 0b fc ed 3c 42 4e d2 3e c6 da 3b be
       -0.31706297 0.029050848 0.4107533 -0.18345174
000060 0c 04 bc be 9d 43 d7 be 91 86 30 bd 4e 1d a1 3d
       -0.36721838 -0.42043772 -0.043097083 0.078669176
000070 57 00 87 3e 16 3e 2b be d0 fd 4e 3e aa db 99 be
       0.26367447 -0.16722903 0.2021401 -0.30050403

_network.1.weight f4 [32]
000000 49 5e 83 3f 8c 1a 9a 3f f6 fc 75 3f 18 5e 7d 3f
       1.0263149 1.2039351 0.9608911 0.989717
000010 d5 31 6f 3f 90 a6 82 3f 8e 49 79 3f 8a 52 7b 3f
       0.9343541 1.0207081 0.9737786 0.9817282
000020 a4 97 93 3f 2a 58 82 3f 41 a7 74 3f 75 8c 8d 3f
       1.1530652 1.0183156 0.9556771 1.1058489
000030 f0 32 66 3f cb d4 88 3f 06 3c 66 3f db d6 77 3f
       0.89921474 1.0689939 0.8993534 0.9681222
000040 a0 9d 70 3f 73 c6 86 3f a5 20 87 3f 67 c8 73 3f
       0.93990517 1.0529312 1.0556837 0.95227665
000050 c8 0c 63 3f 5c a2 40 3f c3 61 6f 3f ce 88 8d 3f
       0.8869138 0.7524774 0.9350855 1.1057374
000060 6f ea 72 3f 05 53 84 3f 6c d5 77 3f fe de 85 3f
       0.9488897 1.0337836 0.9681003 1.0458677
000070 b4 9b 80 3f 68 a8 6c 3f 05 35 6b 3f c4 0c 6c 3f
       1.0047517 0.9244447 0.91877776 0.9220698

_network.1.bias f4 [32]
000000 c7 63 b3 3e 24 f2 20 3d f8 52 43 bd 8e e5 04 3d
       0.35037062 0.039293423 -0.047686547 0.032445483
000010 10 7d 0a bb 20 8f c1 3d 66 73 af bd 3a cd a8 bc
       -0.0021131672 0.09451127 -0.085669324 -0.020605672
000020 be a1 42 bd 6c c7 e7 bc 5a 47 62 bd 4a 12 bc 3e
       -0.04751753 -0.028293334 -0.055243827 0.36732703
000030 47 10 b3 bd 97 c0 bc 3b 62 e3 c5 bc c1 09 5a bc
       -0.08743339 0.005760263 -0.024156276 -0.01330799
000040 3b 81 b6 3c d1 a6 53 3d ad d0 90 3d ba 6d b6 bd
       0.022278419 0.05167276 0.07071052 -0.089076474
000050 0e 66 e0 bc bc 66 4f 3d e6 5e 04 3d 35 99 b2 bd
       -0.027392413 0.050635085 0.032317065 -0.08720628
000060 d7 65 39 bd 52 99 3b 3d f5 48 8d 3d f8 80 16 be
       -0.045263138 0.045800515 0.06898681 -0.14697635
000070 bc f3 71 3e 49 7a 89 3d bf 21 97 bd a5 0d 89 3b
       0.23628134 0.06712777 -0.073794834 0.0041825348

_network.1.running_mean f4 [32]
000000 89 56 49 be a8 62 c9 3d 6e 5e 9b be a8 eb 2e 3d
       -0.19661917 0.0983327 -0.30345482 0.042705208
000010 70 a2 92 3e 10 a9 12 be 12 03 82 be 89 47 d2 be
       0.28639555 -0.14322305 -0.25392967 -0.41070202
000020 c0 d7 f9 be c3 f5 81 3e e1 55 94 3e d2 42 10 bf
       -0.48797417 0.25382814 0.2897177 -0.5635196
000030 7f e1 d0 be 88 a6 0e 3e 7a cb fc 3e d1 87 a2 bd
       -0.4079704 0.13930714 0.4937399 -0.07936061
000040 44 b8 3c bd 00 7f 2b 3f 2e 74 4c be c8 5c 85 3d
       -0.046074167 0.6699066 -0.19966194 0.06511837
000050 e7 4e 61 3d e5 ea 2b be 2c c7 4f 3f 7a 5f 17 bc
       0.055006888 -0.16788824 0.8116329 -0.009239072
000060 fa 4d a0 bd a9 d5 46 be 0a 37 16 3d 36 c0 8c 3e
       -0.07827373 -0.19417442 0.036673583 0.27490395
000070 78 d0 38 3e d5 7a 19 bf 33 d1 f4 bd 9e 38 0a bf
       0.18048275 -0.5995305 -0.11953964 -0.5399264

_network.1.running_var f4 [32]
000000 fe e5 9d 3b a5 e0 33 3c fb bf 26 3b 68 b2 5f 3c
       0.004818677 0.010978852 0.002544402 0.013653375
000010 f0 1d a4 3c 7a 6c 8f 3c b4 6f f8 3c 7d e4 d8 3b
       0.020033807 0.01750778 0.030326702 0.006619035
000020 2b c6 4e 3b b4 08 02 3d 56 6c 3e 3c 5e a8 c4 3b
       0.0031551223 0.03174658 0.011622509 0.0060015162
000030 4a 20 dc 3c da f5 1c 3c ae e9 46 3b 8d bc 8e 3c
       0.026870865 0.0095801 0.0030351686 0.017423892
000040 4a ec 21 3c ba 46 bc 3b 4e d1 bb 3b 48 f6 86 3c
       0.009882996 0.005745736 0.005731738 0.016474858
000050 a6 6f e8 3c 94 da 4c 3c 82 5b 60 3c aa 6e c5 3b
       0.02837355 0.012503285 0.013693692 0.006025155
000060 88 a0 41 3c 2e 2f ad 3c a6 03 95 3c e8 fc 8d 3c
       0.011818059 0.021140661 0.018190216 0.01733251
000070 70 d3 24 3c 32 80 be 3c 9a c6 66 3c b4 82 0f 3c
       0.010060176 0.023254488 0.014085436 0.008759189

_network.3.weight f4 [32, 32]
000000 bc e9 24 bd 05 c7 c4 3d c0 92 d7 bd 53 a5 02 be
       -0.04026197 0.096082725 -0.10526037 -0.12758379
000010 75 78 57 3d d9 0d 9d 3d 2e ad 95 3e 28 d8 51 bd
       0.05260511 0.07668657 0.29233688 -0.051231533
000020 b9 07 58 be b5 88 8c 3e 7c d3 ab 3d 87 b1 c3 3d
       -0.21096696 0.2744805 0.08389947 0.09555345
000030 9f 3c a1 bd 94 29 51 3e f5 35 2e 3e ad 53 2b bd
       -0.07872891 0.20426017 0.1701277 -0.041827846
000040 31 c0 18 bd a0 b8 ee 3c 93 97 0f bd c2 1b 73 3d
       -0.037292663 0.02914077 -0.03505666 0.059352644
000050 0d dd c8 ba 4c 5a 44 3d 04 b0 17 bd 95 d3 0d bc
       -0.0015324667 0.047937676 -0.037033096 -0.008656402
000060 b0 98 08 3c d6 c9 4f bc 01 50 63 bc 5b 56 df bc
       0.008337185 -0.012682399 -0.013874055 -0.027262857
000070 6d ff 46 be ef ba 1d 3e e2 c2 fa 3d 32 64 78 bd
       -0.19433375 0.15403341 0.12244202 -0.06064243
000080 0a 74 24 be d8 c3 78 bd 2e f5 2d bd 4f 84 12 3d
       -0.1605989 -0.060733646 -0.04247015 0.03577071
000090 53 86 0e 3e a4 2b 22 be 8f 1c 06 3d df b5 1d be
       0.13918428 -0.1583696 0.03274208 -0.1540141
0000a0 4f 76 a9 bd 54 90 be 3d 0f e2 0c 3e b1 ec 0a bc
       -0.08274519 0.09304872 0.1375811 -0.008479283
0000b0 dd 9f d4 bd d3 b7 b0 bd d6 d9 be 3c 32 d9 c8 bc
       -0.10382054 -0.08628812 0.023297232 -0.02451763
0000c0 52 d7 30 3e 86 e3 54 be 41 75 49 3e 16 7f 34 3e
       0.17269638 -0.20789918 0.19673635 0.17626604
0000d0 7d 90 22 3e fb 07 12 be 95 94 85 bd c5 09 0a 3e
       0.1587543 -0.14260857 -0.065224804 0.1348029
0000e0 2a ff 1f be d2 ab 20 3d 79 87 cc bd 1a 3c 83 be
       -0.15624681 0.03922636 -0.09986777 -0.2563179
0000f0 f2 7e 3a 3e 32 11 5e 3d 22 c3 3a be 63 59 97 3d
       0.18212488 0.054215617 -0.182385 0.07390096
000100 94 59 3d 3e 36 47 c8 bc 54 7f 96 bc 5b 2c 80 bd
       0.18491203 -0.024448019 -0.018371262 -0.0625846
000110 dd 1b 21 bd 6d c0 01 bd 66 0c de bd 59 bb 87 3d
       -0.039333213 -0.031677652 -0.108422086 0.066275306
000120 ef 5e 1a 3e cf 33 d3 bd c0 9e b9 bc 2a bb 6e 3c
       0.15075277 -0.10312616 -0.022658706 0.014570991
000130 a4 fa 01 be 94 3f db 3a c6 f9 00 be 9d 24 8b 3c
       -0.12693268 0.0016727322 -0.12595281 0.016985232
000140 ec 76 a1 3d 91 45 70 be 6c 5d 3b 3e 85 e9 d4 3d
       0.07884011 -0.23464037 0.18297356 0.10396103
000150 27 9b 02 bd 80 dc 72 3d 1a 11 d1 bd 98 e4 cd bc
       -0.031886246 0.059292316 -0.1020834 -0.025133416
000160 8b dc cc bd 51 f4 36 bd fb 54 d7 bd a5 96 60 be
       -0.10003003 -0.044666592 -0.105142556 -0.21932466
000170 64 da 8b 3e 53 aa 14 3d 9c 1a ba 3d 41 ec 19 3e
       0.27315056 0.036295246 0.090871066 0.1503153
000180 61 99 14 3e 79 d5 e5 bd 07 f6 82 bd fc a8 1d be
       0.14511634 -0.11222357 -0.06394582 -0.15396494
000190 58 c7 48 3c 35 4f 91 3d 1e 2f 96 3d 6e 9c 63 3d
       0.0122545585 0.07095186 0.07333206 0.055569105
0001a0 32 a2 29 bd 2e 83 86 bd 41 11 f4 3d 62 a3 16 3c
       -0.041414447 -0.06567989 0.119173534 0.009194227
0001b0 bf f7 fa bd 8b e1 eb 3d 3c e8 cd 3d 6a 46 68 bb
       -0.12254285 0.11517628 0.10054061 -0.003544236
0001c0 e1 66 85 bd 32 7b 67 3e 0e 3f 08 3d 90 e6 e5 3d
       -0.06513763 0.22605589 0.03326326 0.11225617
0001d0 4a 4b 69 3c 88 5a 21 be f7 88 a4 bd 73 67 dc 3c
       0.014239142 -0.15757191 -0.080339365 0.026904797
0001e0 88 13 aa 3c ac d4 86 3e 6a b9 44 bd 59 ec 2e 3d
       0.020761266 0.2633413 -0.048028387 0.042705867
0001f0 64 8a 81 bd af e8 6e 3d c7 0d 12 3d d1 6d d3 bd
       -0.06325224 0.058327373 0.03565767 -0.1032368
000200 1a 28 22 be 50 15 30 be 4a 4c 9b 3d 22 ab c8 bd
       -0.1583561 -0.1719563 0.0758291 -0.09798266
000210 d6 82 06 3e d7 eb 0c be 9e fd 57 3e 74 f7 cc bd
       0.13135847 -0.13761841 0.21092841 -0.100081354
000220 cb 21 62 be 74 2a 08 3e 20 f7 c6 bd 91 2a b0 bc
       -0.22083203 0.13297445 -0.09715104 -0.021504672
000230 bb 91 e9 3d 59 6f 2d 3e 78 35 c6 3d bc 35 2f 3e
       0.11404749 0.16937007 0.09678167 0.17110342
000240 a1 68 a0 3d 67 f5 e5 bd a6 87 9b bb 80 13 b0 3d
       0.078324564 -0.112284474 -0.004746395 0.08597469
000250 15 d4 d7 3c 1c f1 75 3c 8e 38 b6 3b c5 ce 8b 3e
       0.026346246 0.015011098 0.005560941 0.2730619
000260 c6 b3 ac 3c 5f dc fd 3d 2b 7a 39 3e 72 0c 84 3d
       0.021081816 0.12395548 0.1811301 0.06447686
000270 79 d9 34 be cd 40 61 be 22 b3 37 bc 07 0d 02 be
       -0.17661084 -0.21997376 -0.011212142 -0.12700282
000280 3e 21 23 be a1 2d 11 be bd e0 ec bb c9 f3 d3 bc
       -0.1593065 -0.14177562 -0.0072289393 -0.025873082
000290 19 50 e2 3d 34 ae f8 3c 95 89 1e be 80 8e 05 be
       0.11050434 0.030356504 -0.15482171 -0.1304264
0002a0 e9 f1 3e 3e 64 5a 08 bc 06 b8 59 bc bd aa 93 3d
       0.18646969 -0.008322332 -0.0132885035 0.072103
0002b0 1c 10 93 bd 7c 18 44 be 48 af 8c 3d e9 55 2a 3d
       -0.07180807 -0.19149965 0.0686937 0.041585837
0002c0 95 20 54 bd da ee be 3d 84 b0 06 be a5 42 b0 3d
       -0.051788885 0.09322901 -0.13153273 0.086064614
0002d0 97 e7 e6 bd 50 6a cd bd eb f4 09 3e d0 58 66 be
       -0.11274641 -0.10030043 0.13472335 -0.22494817
0002e0 a3 00 b0 3d 77 73 29 3d 40 e2 5f be 3f 44 49 3e
       0.085938714 0.04136988 -0.21863651 0.1965494
0002f0 c1 76 c4 bc f9 42 8c bd ff 5b 93 be 12 f0 a7 bd
       -0.023982408 -0.068487115 -0.28781125 -0.08200087
000300 3b c1 54 be 51 f6 79 be fb 1c 90 bd a3 9b a0 3d
       -0.20776837 -0.24410369 -0.070367776 0.07842185
000310 d5 80 29 3d e6 4f 4e 3d 6f dc e7 3d 90 ed dc bc
       0.04138263 0.050369166 0.11321341 -0.026968747
000320 1a f9 1e 3e af eb a5 bd eb c4 ce 3d 5e 13 7a be
       0.15524712 -0.08101594 0.10096153 -0.2442145
000330 86 66 ac bd f1 5b 3c be 7d 0f 0b 3d 20 8e 0b be
       -0.08417992 -0.18394448 0.033950318 -0.13628435
000340 3f 4e 85 bb 05 d6 fa bd b5 85 02 bd 17 91 c6 3d
       -0.0040681656 -0.12247852 -0.031865794 0.096956424
000350 9b 65 da bd 98 d0 b7 bc 65 ae 39 3d f4 36 53 be
       -0.10663911 -0.022438332 0.04533233 -0.20626432
000360 3b f7 1c bd 46 dd 27 3e 4c b5 5f 3d 30 6f e3 bc
       -0.038321715 0.16393003 0.054616258 -0.02776298
000370 4f a3 1a 3e e3 eb e6 3d e3 c8 9d 3d ff ce 73 bd
       0.1510136 0.112754606 0.07704332 -0.05952358
000380 48 9b be 3d 9b 7f 9a 3c c6 50 78 bc 40 ea a9 bd
       0.09306961 0.018859675 -0.015155977 -0.08296633
000390 ec f9 04 be 38 9a 06 3e 30 90 d7 bc 71 e1 f7 3d
       -0.12985963 0.13144767 -0.026313871 0.121035464
0003a0 2c e3 72 3d 9b 52 a0 3d 97 bd 80 bc 98 46 c4 bd
       0.05929868 0.07828256 -0.015715403 -0.09583777
0003b0 7f 02 ef bc ee 76 6f 3d cf d7 dc bd 0d fb bb 3d
       -0.029175995 0.05846303 -0.1078335 0.091787435
0003c0 f0 2a d5 3d 47 fb 20 be cb b7 14 3e fb 86 08 be
       0.1040858 -0.15720855 0.14523236 -0.13332741
0003d0 20 13 9f bd 60 aa 71 bd 87 64 ea 3d ec c9 11 3e
       -0.0776732 -0.059000373 0.11444955 0.14237183
0003e0 04 56 c9 bd 01 23 50 be fb c1 68 3e d4 0c bf bd
       -0.09830859 -0.20325853 0.22730248 -0.09328619
0003f0 40 53 31 be a1 1c ab 3a 9e ef e0 3c 95 f2 c2 3d
       -0.17316914 0.0013054797 0.027458008 0.09518925

_network.3.bias f4 [32]
000000 9c 0f fb 3d 6b 97 99 bc 4d a2 79 3d 1c 8a a8 3d
       0.122588366 -0.01874896 0.060945798 0.08229467
000010 b2 3b 63 bd 17 c9 dd bd c7 69 e0 bc c3 73 3f bd
       -0.05547685 -0.108293705 -0.027394189 -0.04674126
000020 35 af 55 bd cd 46 57 3b 12 dd 82 3d 38 29 b0 3d
       -0.052169044 0.0032848597 0.06389822 0.08601612
000030 82 41 33 be 47 cf bd 3d 17 66 b8 bb d7 e4 10 bd
       -0.17505458 0.09268051 -0.0056274044 -0.03537449
000040 e3 53 d0 bc 2d e7 5f 3b aa 32 fe bd 71 a4 14 be
       -0.025430625 0.003416489 -0.12412007 -0.14515854
000050 5c b4 07 be 77 fd cd 3d b8 ba 9f 3d dd 9c 28 3e
       -0.13252395 0.1005811 0.07799286 0.16466089
000060 58 1a 11 3e a1 39 92 3d fb 13 19 3c 8d 1c 2a bd
       0.14170206 0.07139898 0.009343143 -0.041531134
000070 fe 0b 94 3b 62 00 20 be 44 e3 ab bc 3e a6 3c bd
       0.004518031 -0.15625146 -0.020982392 -0.04605698

_network.4.weight f4 [32]
000000 a2 3a 85 3f 04 57 82 3f 4b 68 80 3f d5 7f 81 3f
       1.0408518 1.0182805 1.0031828 1.0117136
000010 a2 ff 88 3f 7d 50 5d 3f c1 e2 78 3f 09 75 77 3f
       1.0703013 0.8645094 0.97221 0.96662956
000020 78 68 91 3f 37 4c 7b 3f 29 23 82 3f ac 28 4e 3f
       1.1360006 0.9816317 1.016698 0.8053081
000030 27 5f 78 3f 80 03 99 3f 2f 39 74 3f ad d0 81 3f
       0.9702019 1.1954193 0.95399755 1.0141808
000040 12 21 70 3f 50 be 44 3f 2c 67 7d 3f 23 90 7f 3f
       0.9380046 0.76852894 0.9898555 0.9982931
000050 ac 17 60 3f 93 f3 82 3f 6c e0 88 3f a0 ec 76 3f
       0.8753612 1.0230583 1.0693488 0.9645481
000060 71 f8 79 3f d2 b8 6e 3f d3 7a 81 3f 3f 3a 91 3f
       0.97644717 0.93250763 1.0115608 1.13459
000070 1a 4a 84 3f 2d e5 7a 3f ee 50 7b 3f d1 e3 7f 3f
       1.0335114 0.98005944 0.98170364 0.99956995

_network.4.bias f4 [32]
000000 26 b9 b5 3a 8d f7 2b bc 07 08 42 3e 54 bc 58 3d
       0.0013864383 -0.010496032 0.18948375 0.05291398
000010 a2 60 1b 3c ff 24 bb bc 44 30 dc bc 49 3a 4c 3c
       0.009483488 -0.02284479 -0.026878484 0.012465068
000020 12 da d0 3d 91 f2 1b bd 1b c3 65 3d 99 84 78 bd
       0.101978436 -0.038073126 0.05609427 -0.06067333
000030 ef 5d 0a 3e 29 b8 17 3e fa 7f 44 3c e2 f8 7d bc
       0.13512395 0.14816345 0.011993403 -0.015501233
000040 45 82 1d bd 61 5d 31 be 81 35 79 bc 6d d0 68 3d
       -0.038454313 -0.17320777 -0.01521051 0.056839395
000050 92 b8 39 3e 9e 6a 6f 3c 00 31 38 3e 30 cb 65 bc
       0.18136814 0.014612822 0.17987442 -0.014025494
000060 f6 36 06 be 33 39 2d bd de 04 ff 3d b8 03 32 bc
       -0.13106903 -0.042290878 0.124521 -0.010865144
000070 18 c3 52 3c 29 a3 b3 3d 0b e0 d5 bd d4 2e 00 bd
       0.012863897 0.08771355 -0.104431234 -0.03129466

_network.4.running_mean f4 [32]
000000 fe 25 c5 3e ae 8d 2b be 84 9f 9b 3d c1 76 9c 3e
       0.38505548 -0.16753265 0.075987846 0.30559352
000010 24 5f 0d bd 8a 4a 08 bf 9e 6f b0 be 43 6c 2d bd
       -0.03451456 -0.5323874 -0.34460157 -0.042339575
000020 4f 11 70 be 7e f4 76 3d c1 f5 91 3d c7 f2 b1 be
       -0.23444103 0.06029176 0.07126952 -0.34755537
000030 d2 ad 17 3e d0 29 14 3e 86 22 4d 3e 02 b1 61 be
       0.14812401 0.14469075 0.20032701 -0.2204018
000040 a2 1f 0a 3e 4a c0 e1 bd 94 68 90 3b 72 e2 1c be
       0.1348863 -0.11023004 0.004406998 -0.15320757
000050 3f 1d e4 3d 2d 70 95 be 38 a2 a5 3e 55 b4 b5 3d
       0.11138391 -0.29187146 0.32350326 0.08872286
000060 63 b2 80 3d 68 9c 3f be d3 fa d8 bb 9e d1 e4 3c
       0.062840246 -0.18712008 -0.0066216975 0.027931985
000070 fc 82 e7 3d 36 ab 7f 3e 0a fd f2 bd 8b 07 5b 3e
       0.1130428 0.24967656 -0.118646696 0.21389596

_network.4.running_var f4 [32]
000000 f0 ff 83 3e fc f4 75 3e 19 d4 15 3f f9 a6 c2 3d
       0.25781202 0.24019235 0.5852676 0.09504504
000010 99 be dc 3e 4f bd 83 3e 12 31 2e 3e 46 98 4f 3e
       0.43114164 0.25730368 0.17010906 0.20272931
000020 4f 02 b2 3e 4c 0c 43 3e 81 3d c1 3e c2 f0 ec 3d
       0.34767386 0.1904766 0.37742236 0.115693584
000030 06 57 45 3e e4 98 ec 3e 20 25 fc 3d ea 6d 48 3e
       0.19271478 0.46210396 0.123117685 0.19573179
000040 e8 63 ee 3e b9 d2 95 3e d7 99 5a 3e b2 01 c2 3e
       0.46560597 0.2926233 0.21347748 0.37891918
000050 2a c8 d2 3e 3c b3 24 3f 0b d0 32 3f 50 53 a7 3e
       0.41168338 0.6433599 0.698487 0.3268075
000060 1f dd 3b 3e 6f 41 42 3e df ed c1 3e a9 45 8e 3e
       0.1834607 0.18970273 0.37876794 0.2778752
000070 0a cb eb 3e 98 1f 9f 3e fe c0 ef 3d 72 f7 5d 3e
       0.46053344 0.31078792 0.11706732 0.21676424

_network.6.weight f4 [32, 32]
000000 04 fa a6 be ea 94 11 be b9 80 02 3e 01 03 cf 3d
       -0.32612622 -0.14216962 0.12744416 0.10107995
000010 d5 35 11 be 41 aa d1 bd 95 81 f4 bd 55 a5 67 bd
       -0.14180692 -0.102375515 -0.11938778 -0.056554157
000020 bf ac 8d 3e fe 0d 00 3e 0b c3 e7 bc cd 00 15 3e
       0.27670857 0.12505338 -0.028291246 0.14551087
000030 9d 55 62 3c 7c 6a 01 be d3 35 85 bd e6 ff b7 3c
       0.013814357 -0.12638277 -0.06504407 0.02246089
000040 da 93 9b be c6 dd a3 3c fe 81 a5 3d 01 cc 1a be
       -0.3038624 0.02000321 0.08081435 -0.15116884
000050 da 28 e4 3d d1 18 8e 3d 7d 05 32 be 42 30 1c be
       0.11140604 0.06938327 -0.17384906 -0.15252784
000060 33 df 18 be ba 0a a1 bd 76 45 43 3e 0d ff e0 3c
       -0.14928894 -0.07863374 0.19069466 0.027465368
000070 4f 2c df 3d 63 b8 fc 3d a8 8f ee ba 21 e0 b1 3d
       0.10897123 0.123398565 -0.0018200772 0.08685327
000080 42 78 81 3d 14 7c c2 3d 61 eb 1c be 74 03 fa bc
       0.063217655 0.09496322 -0.15324165 -0.030519225
000090 18 19 f0 3d aa bf 9c 3c 5f 19 c5 bd 26 4d 8e 3d
       0.11723536 0.019134361 -0.0962398 0.06948309
0000a0 37 0d a9 bd 7e 38 77 3c 46 2a 0e be 52 e7 20 3d
       -0.08254474 0.015089152 -0.13883314 0.039283104
0000b0 43 64 91 3d 82 75 62 be 09 de 9c bd c8 91 31 3e
       0.070992015 -0.22115138 -0.07659537 0.17340767
0000c0 7c 4a 02 3e 4e da 0f 3e 63 6c 0a bd 94 73 f7 3d
       0.12723726 0.1404812 -0.033794772 0.12082592
0000d0 b0 21 fe bc 15 92 33 be d4 0d 35 be ae 5c ce bd
       -0.031021923 -0.17536195 -0.17681056 -0.10076271
0000e0 a3 ec 78 bd 50 22 51 bc e7 8f ad 3d bd 07 3e be
       -0.06077255 -0.012764528 0.08474713 -0.1855764
0000f0 c6 7f 89 bd cc 7e 73 3d 4b c1 0c be 6e 60 e2 3c
       -0.06713824 0.059447095 -0.1374561 0.027633872
000100 9e ac 40 be 01 b5 4f bd 65 cf 6f bd 2b 62 1c be
       -0.18815848 -0.05070973 -0.058547396 -0.15271823
000110 a5 e6 a4 bc a5 b3 2a 3e 5d 1f 01 3e 17 7f 64 3d
       -0.020129511 0.16670091 0.1260962 0.055785265
000120 54 50 d2 3c 32 b3 11 be 0c 67 2f bd 2a f9 b6 bd
       0.025673069 -0.14228514 -0.042822883 -0.08934243
000130 f8 3d 80 bc ad 6e 48 3e ab b6 0b 3e b8 e1 26 bd
       -0.015654549 0.1957347 0.13643901 -0.040742606
000140 7b cf 5f be 62 21 56 3d 6c 99 51 3e f4 d5 82 be
       -0.21856491 0.05227793 0.20468682 -0.25553858
000150 30 c0 ac 3c 84 01 01 3e 25 33 12 be 8a 70 7b bd
       0.021087736 0.12598234 -0.14277323 -0.061386622
000160 e4 0a 0a 3e cc 7d 32 bd 41 ec ca bc 57 42 fb 3d
       0.13480717 -0.043577 -0.024770858 0.12268513
000170 6a 6d 92 bd e8 33 f0 bc a0 9a 98 3b a3 0e 09 be
       -0.07149775 -0.029321626 0.0046571046 -0.1338449
000180 82 da ee bd 9e 28 61 3d 4b 0f 14 bd 50 c7 d1 3d
       -0.11662771 0.054970376 -0.036147397 0.10243094
000190 56 04 62 bd bc 3b 18 be ae 47 2c 3e fe fd 19 bd
       -0.055179916 -0.14866537 0.16824219 -0.03759574
0001a0 66 5c e2 bd 37 31 c8 3d 78 49 03 3e dd 2e 53 bd
       -0.1105278 0.09775012 0.12820995 -0.051558364
0001b0 87 b5 43 be 88 e4 66 bd 9f 94 75 bd e0 a3 c4 bd
       -0.19112216 -0.056370288 -0.05995619 -0.09601569
0001c0 5b 50 e3 bd ba 22 1f 3e a7 38 9b 3d 55 c6 7e be
       -0.11099311 0.15540591 0.07579165 -0.24880345
0001d0 7d bf d7 3d 0b 21 1d 3d 61 5b ac 3d 5b b7 30 3e
       0.1053457 0.03836159 0.08415867 0.17257445
0001e0 3a d0 68 be 41 e3 7c 3d 87 d7 3d be 96 08 25 be
       -0.22735682 0.061740164 -0.18539248 -0.16116557
0001f0 e5 75 31 be e0 83 80 bd f5 24 d8 bd 61 24 f5 3c
       -0.1733013 -0.06275153 -0.10553924 0.029924573
000200 5c 54 c5 3d 53 a0 1c bc 45 00 46 3e dc 46 75 be
       0.09635231 -0.009559709 0.1933604 -0.23952812
000210 be ea 27 3e c9 24 b5 bd 61 92 7d bd 98 ca 24 3e
       0.16398141 -0.08844907 -0.061907176 0.16092908
000220 17 d1 e2 bd b2 1b 71 bb 11 7c 01 3c 53 f4 63 3d
       -0.11075037 -0.003679019 0.007903115 0.055652928
000230 0f 41 8b 3d dc 21 5e be 5e 93 05 3d cd cd 71 bd
       0.06799518 -0.21692604 0.032611243 -0.059034158
000240 aa b8 dd 3d b4 40 ae bd e9 2d 25 be 6c 7c 9a 3d
       0.108262375 -0.08508435 -0.16130795 0.07543263
000250 0e 8b ac 3c 45 5b 1c bd 19 88 84 3e 19 c4 c3 3d
       0.0210624 -0.03817298 0.25885084 0.09558887
000260 4f 07 83 3d a6 8e 66 bd 30 04 4b 3d 47 e2 1b be
       0.063978784 -0.056288384 0.04956454 -0.15223037
000270 7f 9d 4b be 53 85 26 3e d4 97 4a be 91 a5 29 3e
       -0.19884299 0.16261797 -0.1978448 0.16567065
000280 92 da 92 3d 6a 20 bf bb 35 e7 ff bd 0e 12 ab 3c
       0.07170595 -0.0058327215 -0.12495271 0.020882633
000290 8d 98 72 3d 69 a9 ea 3b 4a 6a 22 be 17 84 13 3d
       0.059227515 0.0071613085 -0.15860859 0.036014643
0002a0 c1 af 71 3e f1 5d 13 be 94 1c 89 be 5f 3a 18 3e
       0.23602201 -0.14391305 -0.26779616 0.14866017
0002b0 5e ab 5e bd a7 4b d0 bc b2 65 e9 bd ed 10 47 3d
       -0.054362647 -0.025426699 -0.1139635 0.048600126
0002c0 64 1e 04 be d0 cd 80 bc e5 74 1f bc a8 f3 31 3e
       -0.12902218 -0.015723139 -0.00973246 0.17378104
0002d0 bf 87 95 3d 7d 93 5c 3d 9c e9 fd 3d 9f 37 fd bd
       0.07301282 0.053851593 0.12398073 -0.123641245
0002e0 9b bb 1c be d9 35 29 3e 55 ef 5f be 96 54 23 3d
       -0.15305941 0.16524448 -0.21868642 0.03987559
0002f0 c4 3a 30 be b7 20 83 3d 56 74 75 3d ad bb dc bd
       -0.17209917 0.06402724 0.0599254 -0.10777984
000300 3e 7f f1 bc 26 d9 39 be f5 f2 03 3e b0 a9 3e be
       -0.02947962 -0.18149242 0.1288565 -0.18619418
000310 fa a9 4b bd ff 2b 43 3d 9d aa 28 bd a8 cc 8b bd
       -0.04972265 0.04764938 -0.041178335 -0.068261445
000320 d3 ce 54 3b d5 ea 1d 3d 56 33 52 be 4e 7b 15 3e
       0.003247191 0.03855403 -0.20527396 0.14597818
000330 49 bb 87 3b 0e 55 b8 bd 91 16 13 3e 8d 68 25 be
       0.004142199 -0.09000598 0.14364077 -0.16153164
000340 bd 85 1f 3e 69 b1 13 bc d2 35 08 3e d4 7b 44 3d
       0.15578361 -0.009014466 0.13301781 0.047969654
000350 5c 4e 04 3e b5 ea de 3d e2 4b c8 3d 3f e2 03 be
       0.12920517 0.108846106 0.097800985 -0.12879275
000360 c8 b0 26 be 7d 60 a0 bc 4d 7c 21 3d 46 23 07 be
       -0.16278374 -0.01957726 0.039425183 -0.1319705
000370 b0 f0 c4 bd 35 17 c3 3c e4 63 b5 3d 33 4a 08 3c
       -0.0961622 0.023814777 0.08856943 0.008318472
000380 84 9f 1a be 0d 98 84 3d 98 5c 54 be d6 b9 5f 3d
       -0.15099913 0.06474314 -0.20738447 0.054620586
000390 a2 35 a9 bd ff 50 62 3e 69 04 c8 3c d2 42 18 be
       -0.08262183 0.2210121 0.024416165 -0.1486924
0003a0 c5 66 94 3d 6e f4 80 bd 04 d1 0c be ce 32 81 bd
       0.07246164 -0.06296621 -0.13751608 -0.06308518
0003b0 21 e6 5a 3e f9 82 89 3c 06 cd 7c 3d a2 cc 9a bc
       0.2137685 0.016786085 0.061718963 -0.018896405
0003c0 b9 b2 5f be 70 ec 24 be f2 30 15 be 7f 5a 57 3e
       -0.21845521 -0.16105819 -0.14569452 0.21030615
0003d0 cd b6 1f 3d 15 c5 17 bd a1 78 ab bd 5d da 5d bd
       0.03899269 -0.037053186 -0.083726175 -0.054163326
0003e0 53 41 9e 3d db 67 06 be 82 f9 98 3d 16 bb 4a be
       0.07727303 -0.13125555 0.07469465 -0.1979793
0003f0 a9 c1 77 bb b2 88 32 3e 09 9a 47 be e3 46 91 bd
       -0.003780464 0.17434958 -0.19492353 -0.07093599

_network.6.bias f4 [32]
000000 5b b1 a8 3d da 1e 92 bd 72 3f 3d bc a8 ee 86 bd
       0.08236953 -0.07134791 -0.011550771 -0.06588489
000010 15 5c df bd df 05 ad 3d 98 ee 7a 3d 8d be 91 3c
       -0.10906235 0.084483854 0.061262697 0.017791057
000020 f0 9c 3f bc 1d 19 1a be 88 14 94 3d 06 e0 2d 3e
       -0.011695132 -0.15048642 0.072304785 0.1697999
000030 04 b4 20 bd b1 60 c6 3c ff 2e f4 bd cd cb 2f be
       -0.039234176 0.024216028 -0.11923026 -0.17167588
000040 42 71 22 3e 91 47 42 bd 23 5b 8a bd d1 5e 31 3e
       0.15863517 -0.047431532 -0.06755664 0.17321326
000050 b4 50 37 be d4 27 2f bd ef b2 d9 39 2b 52 1f be
       -0.1790188 -0.042762592 0.0004152278 -0.15558688
000060 31 80 b8 bd d4 5f 09 bc aa d9 79 bd f0 68 03 be
       -0.090088256 -0.008384664 -0.060998596 -0.12832999
000070 1c ec e5 3d aa c7 d4 bd 9a 16 54 bd 2b c0 c2 bd
       0.11226675 -0.103896454 -0.051779367 -0.095093094

_network.7.weight f4 [32]
000000 d8 c4 5c 3f 58 0a 50 3f 6d 46 56 3f a4 03 31 3f
       0.8623786 0.81265783 0.8370121 0.6914618
000010 4b 97 5f 3f b9 f4 57 3f 1c 54 4e 3f 1e c2 44 3f
       0.8734023 0.8435779 0.8059709 0.768587
000020 18 81 34 3f 3b 5a 55 3f f8 6b 54 3f 46 45 48 3f
       0.7050948 0.83340806 0.8297725 0.782307
000030 00 d8 4a 3f c9 43 56 3f a7 44 42 3f fc 27 33 3f
       0.7923584 0.8369718 0.75886005 0.69982886
000040 67 e8 53 3f cb fc 58 3f 6d 58 52 3f 34 fa 58 3f
       0.8277649 0.8476073 0.8216618 0.8475678
000050 64 b8 5c 3f 25 27 41 3f d7 48 30 3f 91 75 43 3f
       0.8621886 0.75450355 0.68861145 0.7635127
000060 ce d1 54 3f 5f 00 5c 3f 77 a0 51 3f db 44 5c 3f
       0.83132637 0.85938066 0.81885475 0.86042565
000070 93 e6 50 3f ba c3 52 3f 41 83 59 3f 7c 3a 52 3f
       0.8160183 0.82329905 0.849659 0.8212049

_network.7.bias f4 [32]
000000 02 7e c8 3c ac 57 21 be 8f b0 b6 bd d0 6b 9d be
       0.024474148 -0.157561 -0.08920395 -0.30746317
000010 3f 49 25 3d 75 b3 4e bd 98 f6 bf bd 28 67 f5 bb
       0.040353056 -0.050464112 -0.09373206 -0.007489104
000020 4e bb 96 be 90 21 1a be 9f 90 c8 bc 4b 80 a5 bd
       -0.29439777 -0.15051866 -0.024483023 -0.080811106
000030 fc 70 cb bc 58 55 bb bd c4 c4 03 be 68 58 92 be
       -0.024834149 -0.091471374 -0.12868029 -0.28583074
000040 e3 e3 14 be 4c d6 d2 bc 84 e0 d3 bd 19 1a 15 be
       -0.14540057 -0.02573695 -0.10345557 -0.14560737
000050 24 78 0f be 99 96 11 be c2 f4 95 be 69 d6 55 be
       -0.14010674 -0.14217605 -0.29288298 -0.20882572
000060 e5 1f 3d bd 25 5d a2 bd 72 31 17 be 3c 65 ae 3c
       -0.046172995 -0.07927922 -0.14764956 0.021288507
000070 d7 c9 30 be ec da 98 bd 95 dc 1a be fe 88 bb 3c
       -0.17264496 -0.07463631 -0.15123208 0.022892471

_network.7.running_mean f4 [32]
000000 f1 1c a1 bd 26 52 be be a1 bf 36 be 38 a4 f5 be
       -0.07866848 -0.3717205 -0.17846538 -0.4797685
000010 ae 6b 61 bd c5 fa 5a bd 8e 4d ea bc c7 dc 84 be
       -0.055034332 -0.05346181 -0.028601434 -0.2594969
000020 9b 2f df be ed 06 ba be 24 19 30 3a 82 68 2d be
       -0.43591008 -0.3633341 0.00067176134 -0.16934398
000030 d4 d8 a0 3e 5e 5e cb bd da 40 1d be a4 a0 e9 be
       0.31415427 -0.099301085 -0.1535677 -0.45630372
000040 66 dc 76 be 84 45 a0 be 8a 29 3a be 34 97 1c 3e
       -0.24107513 -0.31303036 -0.18179908 0.15292054
000050 52 52 ab be d1 fb 0c bf 75 75 07 bf 44 49 81 be
       -0.33461243 -0.5507174 -0.529136 -0.2525121
000060 69 07 c5 be 16 5c 83 3d c7 42 ab be fc 37 18 bf
       -0.38482216 0.064140484 -0.33449385 -0.59460425
000070 ab 51 94 be ee 79 b7 be 20 ae 98 be 96 6f 6d bd
       -0.28968558 -0.35835212 -0.29820347 -0.057967745

_network.7.running_var f4 [32]
000000 94 f0 78 3f 0b 3a 90 3e c4 7f 44 3f 81 55 3a 3e
       0.97242093 0.28169283 0.76757455 0.1819668
000010 66 63 84 3f 8c c4 63 3e 55 02 28 3e c0 e3 c6 3e
       1.0342834 0.22242945 0.1640714 0.38845634
000020 fc 06 b0 3e 4d 5f 0c 3f 61 8a 22 3f ea c1 50 3e
       0.3438033 0.5483292 0.634924 0.20386472
000030 0d d0 83 3e bd a7 ef 3e 52 11 5c 3e 91 90 a5 3e
       0.25744668 0.46807662 0.21490982 0.32336858
000040 de db f9 3e 4a a9 8f 3f 36 ca 02 3e d0 44 02 3f
       0.48800558 1.1223538 0.1277245 0.5088625
000050 0f 48 f7 3e 3e f8 c5 3e 0e 17 d3 3e ac 74 2e 3f
       0.48297164 0.38665956 0.41228527 0.6814678
000060 dc 65 73 3f 37 15 88 3f 4b da 0d 3e de 74 d8 3f
       0.950773 1.0631474 0.13852803 1.6910665
000070 93 03 ad 3e 47 0e 21 3f 89 19 84 3f ee 10 42 3f
       0.3379179 0.6291241 1.0320293 0.7580708

_network.9.weight f4 [1, 32]
000000 fc 87 85 3d 8d e7 4b bc 39 45 2c 3d 2b d3 06 bb
       0.065200776 -0.012445343 0.042058203 -0.0020572643
000010 25 6f 99 3d cd 4e 1c 3c f4 3d 13 3c 02 04 06 3d
       0.07491902 0.009540272 0.008986939 0.032718666
000020 ba af 87 3b ef 02 e5 bc 8b 96 3f 3d 9c 9b 9d 3c
       0.0041408213 -0.0279555 0.04677443 0.01923924
000030 cd fd 1d 3c b1 b1 7a bc f4 33 a7 bb 4d 8e 7b bb
       0.00964303 -0.015301154 -0.005102629 -0.0038384378
000040 a7 04 c7 bc fc 1c 43 3d 10 05 dd bb 51 39 f4 bc
       -0.02429421 0.047635064 -0.0067449883 -0.029812487
000050 ad 40 74 bc 0c b4 0b 3c b6 a7 41 b9 5c 91 c8 3c
       -0.014907998 0.008526813 -0.00018468391 0.024483375
000060 09 33 20 3d 7c 8b 19 bd 16 7c 8e bb 1c ef 72 3d
       0.03911117 -0.03748654 -0.0043482883 0.059310064
000070 05 51 0e bc 5a 44 a7 3c e1 d3 2a bd 06 00 64 3d
       -0.008686309 0.020418335 -0.04170597 0.055664085
