checkpoints/mlp_random/2023_05.pt (torch, 18270 bytes, 19 tensors)

_network.0.weight f4 [32, 5]
-0.13127556 -0.39916605 -0.09016289 -0.33719158 0.1057371 0.030892795 0.13780051 -0.28710678
0.45800394 0.18222344 -0.3010623 -0.04401034 0.46950346 0.39718187 -0.23726335 0.07688545
0.095417894 -0.17421278 0.4650411 -0.24634458 -0.27022883 -0.23991795 0.28179032 -0.31597716
-0.04920394 0.14827673 -0.4974812 0.34042946 0.46476716 -0.3338898 0.3145674 0.01396987
-0.11856279 0.33782822 0.4136356 0.05583426 -0.04800435 0.043286603 0.38088244 0.1167555
0.17251386 -0.5168884 -0.09469987 -0.31711584 0.06395245 -0.034245636 -0.10489916 -0.21755254
-0.2841904 0.31085694 0.19622102 0.56471443 -0.48141766 -0.11278191 -0.2853954 -0.007787954
0.308826 -0.20352824 -0.023499409 0.0468576 -0.004281445 0.4626225 -0.09329735 -0.020380342
-0.2933623 0.022303037 0.24608868 0.24930765 -0.3376298 -0.45784843 0.09134957 0.09043032
-0.11661141 0.13285805 0.17145202 -0.07663843 0.68131 0.085423544 0.028856983 -0.21480046
-0.12498057 0.35913354 0.050188072 -0.11285567 -0.09001528 0.075955026 -0.53553057 -0.33446884
0.18459406 0.23304264 -0.123554185 0.41838285 0.37371823 0.4368614 -0.22190255 -0.023837185
0.4763588 -0.09722198 0.19112734 0.05457968 0.116220675 -0.069946125 -0.085224904 -0.26856786
-0.2686736 0.119467646 -0.434494 -0.16473585 0.34761426 0.37195042 -0.072888084 -0.045343705
0.1246718 -0.10422506 -0.25772175 -0.2784997 0.0871482 -0.3085593 -0.29085213 -0.45465967
-0.23717152 0.30463332 0.32103342 -0.50203735 -0.12678243 0.16686144 -0.5205903 -0.5538975
-0.11898339 0.26649323 0.13632989 0.10047014 -0.42015693 -0.39762533 -0.23663105 0.06608747
-0.63051635 0.099465296 0.0044877483 -0.0044318475 -0.16132824 0.2751415 0.13098472 0.1531512
0.49165815 0.1937132 -0.2672507 0.2637615 0.3094441 0.2590912 -0.16143467 0.12492755
0.364291 -0.11589163 -0.3461136 0.19125272 -0.29656225 -0.28489712 0.072124496 0.42233515
00000000: 1a6d 06be 7e5f ccbe 52a7 b8bd 60a4 acbe
00000010: b18c d83d e312 fd3c 941b 0d3e a9ff 92be
00000020: 7e7f ea3e c898 3a3e d624 9abe 3044 34bd
00000030: c262 f03e 6c5b cb3e 2af5 72be 1e76 9d3d
00000040: 756a c33d d664 32be de19 ee3e c141 7cbe
00000050: 6f5b 8abe 0dad 75be d246 903e c2c7 a1be
00000060: 128a 49bd dbd5 173e dbb5 febe c54c ae3e
00000070: f6f5 ed3e 9bf3 aabe fa0e a13e e2e1 643c
00000080: 0cd1 f2bd d2f7 ac3e 0cc8 d33e 77b2 643d
00000090: 36a0 44bd 4b4d 313d 0603 c33e 821d ef3d
000000a0: 79a7 303e cc52 04bf 01f2 c1bd 025d a2be
000000b0: 81f9 823d 2745 0cbd 5fd5 d6bd 18c6 5ebe
000000c0: 6781 91be a428 9f3e 2aee 483e 2091 103f
000000d0: 607c f6be 34fa e6bd 591f 92be 1832 ffbb
000000e0: 711e 9e3e b569 50be d581 c0bc c1ed 3f3d
000000f0: 5d4b 8cbb dbdc ec3e ae12 bfbd adf4 a6bc
00000100: 9533 96be dcb4 b63c acfe 7b3e 814a 7f3e
00000110: d0dd acbe 1c6b eabe 7c15 bb3d 8833 b93d
00000120: f7d1 eebd f10b 083e 1e91 2f3e 9cf4 9cbd
00000130: 556a 2e3f 8af2 ae3d 7b65 ec3c a7f4 5bbe
00000140: d0f5 ffbd 5ae0 b73e 0292 4d3d e020 e7bd
00000150: ee59 b8bd 4f8e 9b3d 8818 09bf 803f abbe
00000160: 3a06 3d3e bba2 6e3e fa09 fdbd 4736 d63e
00000170: ff57 bf3e 4cac df3e 6c3a 63be 3346 c3bc
00000180: 4de5 f33e 511c c7bd e3b6 433e f18e 5f3d
00000190: 1b05 ee3d ea3f 8fbd 658a aebd ba81 89be
000001a0: 968f 89be 74ab f43d ff75 debe 84b0 28be
000001b0: 7ffa b13e 4970 be3e 5946 95bd 52ba 39bd
000001c0: ee53 ff3d f373 d5bd 1bf4 83be 8397 8ebe
000001d0: c17a b23d 7cfb 9dbe 92ea 94be 27c9 e8be
000001e0: 17dd 72be e6f8 9b3e 7e5e a43e 8585 00bf
000001f0: 41d3 01be badd 2a3e 6845 05bf 3acc 0dbf
00000200: 90ad f3bd cd71 883e 109a 0b3e 4ac3 cd3d
00000210: cf1e d7be 8c95 cbbe 694f 72be de58 873d
00000220: 8569 21bf 76b4 cb3d f60d 933b 0839 91bb
00000230: 3b33 25be 59df 8c3e dc20 063e abd3 1c3e
00000240: 9eba fb3e c15c 463e 15d5 88be bf0b 873e
00000250: 756f 9e3e 9aa7 843e 214f 25be 04da ff3d
00000260: 5a84 ba3e 9758 edbd cd35 b1be c1d7 433e
00000270: 02d7 97be 09de 91be 02b6 933d 503c d83e

_network.0.bias f4 [32]
-0.3858795 0.25901106 0.13192761 -0.33783463 0.41641462 -0.33513016 0.2752013 0.22152525
-0.20852488 0.24689984 0.34948537 -0.41052756 0.3807625 0.28620404 -0.21703917 0.31204724
0.20221266 0.19153449 0.25266403 0.33158657 -0.08734298 -0.018931082 0.072786614 0.3966191
-0.16104731 -0.014623027 0.13564593 0.19747107 -0.053072464 0.21103296 -0.07304727 0.06930994
00000000: ff91 c5be 199d 843e 0818 073e a9f8 acbe
00000010: 4c34 d53e 2e96 abbe 2fe7 8c3e 84d7 623e
00000020: 8c87 55be 50d3 7c3e bfef b23e ab30 d2be
00000030: 4df3 c23e 5689 923e 843f 5ebe a8c4 9f3e
00000040: d610 4f3e 9e21 443e 2e5d 813e b7c5 a93e
00000050: e0e0 b2bd 5b15 9bbc 2611 953d a911 cb3e
00000060: 96e9 24be 6c95 6fbc c4e6 0a3e db35 4a3e
00000070: 8362 59bd 0619 583e cf99 95bd 5ff2 8d3d

_network.1.weight f4 [32]
0.98432106 1.0046794 0.9017912 0.8247676 0.9967665 1.0261654 0.8972561 0.9870762
0.8916292 0.92985696 0.948988 1.074199 0.9685969 1.0205293 0.9132647 0.95184124
0.94406664 1.0459403 0.93329376 0.9975825 1.0038706 0.96978986 0.999012 0.96416837
0.989882 0.9296466 0.9504338 1.2184521 0.93345493 0.9818213 0.94460934 0.98424083
00000000: 77fc 7b3f 5699 803f cadb 663f f823 533f
00000010: 172c 7f3f 6359 833f 93b2 653f 07b1 7c3f
00000020: d041 643f 1b0b 6e3f e1f0 723f 5a7f 893f
00000030: f7f5 773f b4a0 823f b7cb 693f deab 733f
00000040: 5aae 713f 5fe1 853f 57ec 6e3f 9161 7f3f
00000050: d57e 803f 2644 783f 40bf 7f3f bdd3 763f
00000060: e868 7d3f 52fd 6d3f a14f 733f 3df6 9b3f
00000070: e7f6 6e3f a458 7b3f ebd1 713f 35f7 7b3f

_network.1.bias f4 [32]
0.0043861936 -0.041941345 -0.03515476 -0.028627658 -0.037646536 0.060177594 -0.094851986 -0.117305785
0.034388512 0.099028125 -0.10437119 -0.094017215 -0.16186507 -0.0029140045 0.038137738 -0.07660496
-0.07199899 -0.03330895 -0.10998496 -0.10767025 -0.06231722 0.05453608 0.006290963 -0.09140699
-0.008558318 -0.020843057 0.012936809 0.4470706 -0.057311013 -0.0026230952 0.11073352 0.0050554
00000000: 0fba 8f3b b0ca 2bbd 70fe 0fbd 8d84 eabc
00000010: 4133 1abd c87c 763d c241 c2bd 043e f0bd
00000020: f8da 0c3d 42cf ca3d 90c0 d5bd 198c c0bd
00000030: f5bf 25be e2f8 3ebb 5136 1c3d 10e3 9cbd
00000040: 3574 93bd f76e 08bd cb3f e1bd 3882 dcbd
00000050: 5740 7fbd 3a61 5f3d 6c24 ce3b 9733 bbbd
00000060: 3038 0cbc 0fbf aabc e9f4 533c 70e6 e43e
00000070: f4be 6abd 3ce8 2bbb 41c8 e23d c5a7 a53b

_network.1.running_mean f4 [32]
-0.73022366 0.6117947 0.12552579 -0.1734916 0.0577693 -0.37212133 0.7617147 0.47365755
-0.48932523 0.17367548 0.41730797 -0.29707795 0.40954208 0.037776507 -0.0074594505 0.4834847
0.20577264 0.16722657 0.5262896 0.6287854 -0.34018502 0.18297687 -0.13715553 -0.076743655
-0.40607378 -0.15288621 -0.12393466 -0.02655859 0.32056725 0.48591363 -0.2710767 0.23260513
00000000: f0ef 3abf 949e 1c3f d589 003e c8a7 31be
00000010: 809f 6c3d b086 bebe bcff 423f 3e83 f23e
00000020: d688 fabe fcd7 313e 64a9 d53e 9a1a 98be
00000030: 80af d13e 8abb 1a3d 686e f4bb 4e8b f73e
00000040: 10b6 523e 713d 2b3e eaba 063f 14f8 203f
00000050: bb2c aebe 4a5e 3b3e 8072 0cbe c72b 9dbd
00000060: e7e8 cfbe 348e 1cbe 74d1 fdbd 6691 d9bc
00000070: 6421 a43e acc9 f83e 91ca 8abe 0a30 6e3e

_network.1.running_var f4 [32]
0.014573324 0.020194115 0.019754672 0.025941305 0.013301116 0.032153927 0.018279687 0.013318395
0.012748439 0.014406078 0.02664348 0.0019770775 0.011140632 0.026246361 0.002896895 0.009536473
0.0035010292 0.011203475 0.022330089 0.005991189 0.014504034 0.021415297 0.0044033676 0.024282346
0.025607996 0.011777433 0.026913319 0.005430998 0.02688928 0.016405566 0.007891114 0.011186007
00000000: f3c4 6e3c 216e a53c 8dd4 a13c dc82 d43c
00000010: edec 593c d6b3 033d 48bf 953c 6635 5a3c
00000020: d4de 503c 7807 6c3c 6d43 da3c db91 013b
00000030: 3387 363c 9c02 d73c d5d9 3d3b de3e 1c3c
00000040: 8671 653b c88e 373c 97ed b63c bc51 c43b
00000050: 54a2 6d3c 226f af3c 204a 903b c5eb c63c
00000060: dcc7 d13c 22f6 403c 5279 dc3c 83f6 b13b
00000070: e846 dc3c f764 863c bb49 013c 8445 373c

_network.3.weight f4 [32, 32]
0.05626726 -0.100024916 -0.07243266 -0.07761127 0.01755579 -0.13113959 -0.0651183 -0.065841585
0.08362861 0.12235986 0.059794568 0.0763965 0.07545942 0.015699958 -0.1346549 -0.04796078
-0.049342126 0.15462337 -0.16349706 -0.22935013 0.031435926 -0.07009479 0.20504114 0.20740686
-0.06896704 0.026309557 -0.022830797 0.052622553 0.094291195 0.104316354 0.114912 0.11770286
-0.075887345 -0.1308366 0.027131176 0.11475671 -0.06701635 0.22042012 -0.07393377 0.0091539575
0.08425429 0.0474374 -0.10832623 -0.07437494 -0.07710918 0.040725287 -0.103978574 -0.05009054
-0.11970057 0.091742285 -0.112573795 0.06920062 0.03962288 0.08557641 0.07868467 0.058754884
0.0005517215 -0.15161715 -0.0019919728 0.16492306 -0.042730536 0.045091175 0.086500876 -0.003070964
0.010182932 0.018057486 0.07755327 -0.018121377 0.048344627 -0.17465949 0.0017862578 -0.07199994
-0.15507795 -0.16213132 -0.0001340473 -0.11097206 0.08201321 0.19453733 0.08780154 0.01985261
-0.06610427 -0.0058003035 -0.106658496 -0.0915814 0.19949108 -0.12997462 0.08678329 0.10198247
-0.054234605 -0.16230476 0.040182617 -0.10492777 -0.089598246 -0.16703162 0.016999997 -0.022178896
0.06271853 -0.02487054 -0.038010884 -0.07060494 -0.05968112 0.063616864 -0.045298994 0.025937073
-0.091657534 0.1773099 0.13247782 0.12324944 0.07284025 -0.1593759 0.07672114 -0.017696433
0.15671855 -0.15025903 -0.0021878527 -0.13667421 -0.09679486 -0.03380736 -0.07268566 0.16246319
0.06413721 -0.02489807 0.1096115 -0.23691529 0.020681866 -0.08129407 0.0047991816 -0.051986665
-0.14150621 0.124813624 0.026701793 -0.05996101 -0.040888414 0.05204381 -0.0066268533 0.023128081
-0.15725437 -0.075702764 0.14605327 -0.011879028 0.18012033 0.13848463 -0.10155571 0.013713899
-0.027278064 0.065309614 -0.18876572 -0.18452756 0.11109159 0.1587626 0.20327817 -0.04089909
-0.12186699 -0.12705125 0.14373809 0.08073573 0.12101123 0.13502419 0.03904348 0.2097503
0.09276207 0.13075638 0.07750444 -0.1760413 0.037657727 -0.17456982 -0.0069924314 -0.09738546
-0.00040529418 -0.13941883 0.1475756 0.08905093 -0.080555394 0.20086497 0.17279762 0.0132980365
0.09865101 0.113410145 0.011171006 0.010270113 0.16155082 -0.028245486 0.0144725125 -0.05843603
0.1399889 -0.07966684 -0.03240078 -0.09780893 0.0054191174 -0.031185526 0.07579512 0.07224721
-0.13985553 0.17564079 -0.0054954034 -0.046238467 0.08321764 0.0861257 0.13571386 0.11994658
-0.07438085 0.10159271 -0.12962224 -0.20289755 -0.06297638 -0.0071635726 0.12072068 -0.029099146
-0.116179675 0.001158365 0.18749899 0.093736544 -0.10141122 -0.06440404 -0.0005597549 0.057967644
0.056059916 0.04252123 0.11005466 -0.16378576 0.12334629 -0.03193049 -0.097228974 -0.0646377
-0.20932542 -0.052063175 -0.038645126 -0.018418027 -0.039346885 0.048658397 0.10808491 0.07712172
0.05405049 -0.16010897 0.041347425 -0.0375499 -0.15924358 -0.019028356 -0.04997609 0.048315812
-0.13909122 0.20744517 0.08258112 0.103164084 0.13611118 0.02451147 -0.09326542 0.06743027
0.018285252 -0.012076753 0.0039965003 -0.10730318 -0.023603685 0.0963608 -0.107111394 -0.017762959
00000000: 8078 663d ddd9 ccbd 9357 94bd a8f2 9ebd
00000010: 29d1 8f3c 7549 06be be5c 85bd f4d7 86bd
00000020: 7a45 ab3d ce97 fa3d 26eb 743d c575 9c3d
00000030: 788a 9a3d 339d 803c f9e2 09be 8672 44bd
00000040: f81a 4abd 9755 1e3e c66b 27be c3da 6abe
00000050: f5c2 003d db8d 8fbd 4ef6 513e 7762 543e
00000060: 973e 8dbd 2487 d73c a707 bbbc bf8a 573d
00000070: be1b c13d d0a3 d53d fc56 eb3d 320e f13d
00000080: d36a 9bbd 08fa 05be 3342 de3c 9105 eb3d
00000090: de3f 89bd d0b5 613e 976a 97bd 7bfa 153c
000000a0: 838d ac3d b84d 423d 24da ddbd e351 98bd
000000b0: 6beb 9dbd 8fcf 263d b8f2 d4bd bd2b 4dbd
000000c0: 9325 f5bd 61e3 bb3d 178d e6bd 0eb9 8d3d
000000d0: 9a4b 223d af42 af3d 6e25 a13d f6a8 703d
000000e0: 67a1 103a 8741 1bbe c28b 02bb 97e1 283e
000000f0: 3706 2fbd 86b1 383d 5f27 b13d 3a42 49bb
00000100: 50d6 263c 4bed 933c 40d4 9e3d 4873 94bc
00000110: 0405 463d f0d9 32be de20 ea3a b474 93bd
00000120: c1cc 1ebe c105 26be 0c8f 0cb9 5245 e3bd
00000130: 8bf6 a73d cb34 473e 4bd1 b33d f1a1 a23c
00000140: ad61 87bd 7910 bebb c56f dabd 078f bbbd
00000150: 6447 4c3e 1118 05be 70bb b13d 2fdc d03d
00000160: 1b25 5ebd 3833 26be 8796 243d 5fe4 d6bd
00000170: 497f b7bd 560a 2bbe 9443 8b3c 84b0 b5bc
00000180: 9372 803d 4dbd cbbc 4db1 1bbd 5399 90bd
00000190: 3174 74bd 8f49 823d 708b 39bd fc79 d43c
000001a0: f2b6 bbbd ba90 353e 44a8 073e 346a fc3d
000001b0: 452d 953d 7033 23be f91f 9d3d 1cf8 90bc
000001c0: d47a 203e 81dd 19be 1462 0fbb 53f4 0bbe
000001d0: 623c c6bd 9679 0abd 38dc 94bd c05c 263e
000001e0: 5f5a 833d 0af7 cbbc fe7b e03d ec99 72be
000001f0: 046d a93c 817d a6bd 7442 9d3b f8ef 54bd
00000200: 01e7 10be 499e ff3d b8bd da3c ad99 75bd
00000210: 9c7a 27bd e42b 553d 1326 d9bb 1a77 bd3c
00000220: 4a07 21be 0d0a 9bbd fd8e 153e 41a0 42bc
00000230: 7771 383e eace 0d3e 71fc cfbd 43b0 603c
00000240: 3f76 dfbc 0cc1 853d cd4b 41be cbf4 3cbe
00000250: fd83 e33d aa92 223e 2728 503e ce85 27bd
00000260: 6795 f9bd b919 02be 1430 133e c658 a53d
00000270: bcd4 f73d c843 0a3e 0eec 1f3d c8c8 563e
00000280: 0afa bd3d 00e5 053e a6ba 9e3d 2c44 34be
00000290: fd3e 1a3d 6ec2 32be c420 e5bb 0772 c7bd
000002a0: aa7d d4b9 cfc3 0ebe 0f1e 173e 5660 b63d
000002b0: 3afa a4bd 8caf 4d3e dcf1 303e 02e0 593c
000002c0: 8a09 ca3d 9443 e83d 9806 373c fa43 283c
000002d0: 946d 253e 1463 e7bc 1e1e 6d3c 9e5a 6fbd
000002e0: 4059 0f3e 5e28 a3bd aeb6 04bd 0c50 c8bd
000002f0: da92 b13b ca78 ffbc 793a 9b3d 58f6 933d
00000300: 4a36 0fbe 2edb 333e c912 b4bb 8c64 3dbd
00000310: 036e aa3d ac62 b03d 93f8 0a3e 8da6 f53d
00000320: fd54 98bd d70f d03d b1bb 04be 60c4 4fbe
00000330: c3f9 80bd 67bc eabb 673c f73d 5561 eebc
00000340: 9cef edbd 48d4 973a bcff 3f3e f2f8 bf3d
00000350: b0b0 cfbd 44e6 83bd 84bc 12ba 7b6f 6d3d
00000360: 159f 653d be2a 2e3d 5664 e13d 74b7 27be
00000370: fb9c fc3d 8cc9 02bd fc1f c7bd c560 84bd
00000380: 6759 56be 3240 55bd 5a4a 1ebd 67e1 96bc
00000390: 332a 21bd 074e 473d 9f5b dd3d fef1 9d3d
000003a0: 0c64 5d3d 9bf3 23be eb5b 293d edcd 19bd
000003b0: c010 23be 5be1 9bbc bbb3 4cbd cde6 453d
000003c0: ee6d 0ebe 826c 543e 4a20 a93d b147 d33d
000003d0: bb60 0b3e 47cc c83c f101 bfbd e218 8a3d
000003e0: f4ca 953c 93dd 45bc 13f5 823b c5c1 dbbd
000003f0: 845c c1bc d058 c53d 385d dbbd a083 91bc

_network.3.bias f4 [32]
0.06355709 -0.12642531 -0.042224698 0.0998003 -0.0036780783 0.12913296 0.16668864 0.17571124
-0.087711215 0.058630537 0.093195505 0.02626746 0.033248156 -0.06879369 -0.078607515 -0.042435136
0.010390616 -0.1422872 0.1513034 -0.17543373 -0.100309916 0.13064085 -0.03349281 -0.1677172
-0.13211927 -0.115059055 0.17791249 0.14020517 0.12336774 -0.13041061 0.038334172 0.071497746
00000000: 382a 823d a375 01be cef3 2cbd 1a64 cc3d
00000010: ea0b 71bb 6e3b 043e 6db0 2a3e a6ed 333e
00000020: f0a1 b3bd 9326 703d 49dd be3d db2e d73c
00000030: 382f 083d b5e3 8cbd fafc a0bd 77d0 2dbd
00000040: 673d 2a3c bcb3 11be 47ef 1a3e e6a4 33be
00000050: 496f cdbd b7c6 053e c22f 09bd 0fbe 2bbe
00000060: 464a 07be 15a4 ebbd b12e 363e f291 0f3e
00000070: 3aa8 fc3d 5c8a 05be 4b04 1d3d 696d 923d

_network.4.weight f4 [32]
1.1171329 0.9481058 0.96767443 0.9825941 0.98379236 0.9700984 1.0057964 0.98781794
1.0773234 0.99584717 1.0212435 0.9244347 1.0200788 0.9690332 1.0282321 1.0005989
1.1019288 0.91479 0.9505431 0.99626845 0.975595 0.9504647 0.86500263 1.041086
1.0454938 1.0603505 0.9659788 0.9870384 0.9909135 1.0129226 1.085111 0.9746335
00000000: 36fe 8e3f 10b7 723f 83b9 773f 498b 7b3f
00000010: d1d9 7b3f 5e58 783f f0bd 803f a3e1 7c3f
00000020: bce5 893f d7ef 7e3f 1bb8 823f c1a7 6c3f
00000030: f191 823f 8f12 783f 1c9d 833f a013 803f
00000040: 010c 8d3f ad2f 6a3f cb56 733f 730b 7f3f
00000050: 98c0 793f a851 733f d070 5d3f 4e42 853f
00000060: bed2 853f 91b9 873f 634a 773f 8cae 7c3f
00000070: 82ac 7d3f 73a7 813f ebe4 8a3f 9581 793f

_network.4.bias f4 [32]
0.13508295 0.09998829 -0.04501355 -0.09455165 0.1335592 0.01217202 0.0015425005 0.014353749
0.097810626 -0.03254429 0.09552286 -0.091657065 -0.012246187 -0.048568614 0.26001126 -0.030672837
0.102625854 -0.05059834 0.15535612 0.022128262 -0.044563726 -0.030492742 -0.055407804 0.07097846
0.011127002 0.122697234 -0.013777204 0.011266739 0.08738095 -0.017505946 0.02524563 0.09955934
00000000: 2f53 0a3e a9c6 cc3d 2160 38bd 4ca4 c1bd
00000010: bec3 083e 276d 473c ba2d ca3a fd2b 6b3c
00000020: f050 c83d 294d 05bd 7da1 c33d b3b6 bbbd
00000030: 3ba4 48bc e2ef 46bd 3220 853e 9a45 fbbc
00000040: 812d d23d 3440 4fbd ad15 1f3e 5446 b53c
00000050: 7488 36bd eacb f9bc 4bf3 62bd 285d 913d
00000060: 074e 363c b048 fb3d c8b9 61bc 2198 383c
00000070: c9f4 b23d a168 8fbc eccf ce3c c4e5 cb3d

_network.4.running_mean f4 [32]
0.21818924 0.0023566592 -0.3447656 -0.038844723 0.3099384 0.36086464 0.1946919 0.06221093
-0.080984116 0.12158072 0.30666363 0.23335317 -0.051938504 -0.29782924 -0.1459269 -0.15587139
0.12952709 -0.020019142 0.10246779 -0.25847942 0.098498076 0.25964457 0.21186721 -0.20380636
-0.06275767 0.25185537 -0.09776037 0.3351749 -0.082658395 -0.24236669 0.1028122 0.10654469
00000000: 006d 5f3e 2e72 1a3b 1e85 b0be a51b 1fbd
00000010: 3fb0 9e3e 40c3 b83e 505d 473e e3d0 7e3d
00000020: 00db a5bd 50ff f83d 0403 9d3e 22f4 6e3e
00000030: 78bd 54bd 137d 98be dc6d 15be c09c 1fbe
00000040: c0a2 043e 2fff a3bc a2da d13d 6a57 84be
00000050: 5cb9 c93d 22f0 843e b8f3 583e 9db2 50be
00000060: 1887 80bd 30f3 803e 9736 c8bd 0b9c ab3e
00000070: ce48 a9bd f92e 78be 348f d23d 1a34 da3d

_network.4.running_var f4 [32]
0.35596052 0.13276263 0.3312746 0.21992204 0.22386141 0.15452367 0.20406473 0.14221458
0.3769589 0.23688197 0.2740395 0.07222803 0.20588413 0.24554408 0.3339438 0.1435554
0.21610811 0.17354849 0.2367423 0.43839014 0.2457249 0.15692458 0.11494225 0.16750857
0.10255513 0.30274558 0.25899732 0.19449924 0.2960747 0.18670169 0.1868949 0.14356408
00000000: 7540 b63e edf2 073e d39c a93e 3e33 613e
00000010: ed3b 653e 743b 1e3e 58f6 503e b3a0 113e
00000020: c200 c13e 3091 723e e84e 8c3e 4aec 933d
00000030: 4ad3 523e e86f 7b3e affa aa3e 3000 133e
00000040: 724b 5d3e b2b6 313e 936c 723e ac74 e03e
00000050: 4f9f 7b3e d6b0 203e d866 eb3d 5e87 2b3e
00000060: 6d08 d23d 7801 9b3e 4c9b 843e cf2a 473e
00000070: 1a97 973e ba2e 3f3e 6061 3f3e 7602 133e

_network.6.weight f4 [32, 32]
-0.038284384 -0.01194616 -0.04476715 0.013318865 -0.2202146 -0.1873502 0.0019375456 -0.1798533
-0.094289765 0.020007597 0.049518604 0.016613899 0.08317975 0.05852215 0.08834316 0.17146024
-0.20083536 -0.15856622 -0.049889907 0.08842941 -0.057005364 -0.1882969 0.014016772 -0.2589508
0.12758997 -0.050223153 -0.04269842 0.11584206 0.042504475 0.14437565 0.13381973 0.05560305
0.11405186 0.22417222 -0.09003263 0.10270555 -0.12200651 0.1043391 -0.16615337 -0.013358196
-0.27658916 -0.033778485 0.058677033 0.1261264 0.03987309 0.18024367 0.15211315 -0.14228518
0.12449039 0.08378172 0.25611922 -0.14440332 0.1892184 -0.049104106 -0.1694433 -0.11239773
-0.121854715 -0.06194172 -0.14905359 0.19898155 -0.08366262 0.089974225 -0.22455177 0.16710423
0.09841784 -0.18286243 0.08663301 0.06961071 -0.24421872 -0.25844747 -0.09797955 0.063929796
0.0766597 -0.1368593 0.14307 -0.051540587 -0.18321902 -0.014429832 -0.066118576 0.016768135
0.00028862312 0.012695044 0.13135412 -0.24525118 0.028850911 -0.1422132 -0.14279386 0.08565642
0.25970656 0.04409209 0.13026895 0.0688743 -0.06100213 -0.47536397 0.15162179 -0.051522247
0.010642892 0.025280835 0.10234056 -0.07401794 -0.030256815 -0.08887124 0.073297784 0.04559159
-0.11979395 -0.009583367 -0.08728201 -0.026325868 -0.051294927 -0.04979584 0.014708383 -0.0765577
0.23005526 -0.14689814 -0.06854634 -0.14319213 0.15280396 -0.108765446 0.018068774 -0.039968517
-0.2859192 0.080841705 0.13728471 -0.117188565 0.03144141 0.08277193 0.012772616 0.010625774
0.12287228 -0.1355211 0.1387246 0.035961654 0.058807172 0.0046619466 -0.0028324076 0.08031611
0.117879055 -0.15152018 -0.2049669 0.13219406 -0.20323505 0.13127021 -0.043369133 -0.013858416
-0.21948655 0.17766297 -0.29376474 -0.085718244 -0.16388468 0.08951869 -0.14028911 -0.007892786
0.112991765 -0.05586029 0.12657279 0.053317174 0.037356 0.013938946 -0.19911385 0.15303643
-0.0653036 -0.13691637 -0.19615966 0.0135406535 -0.1379717 -0.04113711 -0.11329832 0.047060434
-0.062461946 -0.06844534 0.16438848 -0.0819631 0.08249995 0.084671415 0.06858082 0.0057332683
-0.15235007 0.17710291 0.115713984 -0.0007863869 0.084437065 0.040354818 -0.17540656 0.21312167
-0.046292078 0.046725493 0.18023232 0.030943789 0.073114365 -0.23123862 -0.11760549 -0.2364462
0.06906858 0.0649351 0.028068919 -0.19514035 0.1382332 -0.14374611 0.07824949 0.08979021
-0.13581285 -0.18492554 0.004584466 0.0012590883 -0.2949502 -0.21252663 0.141102 -0.011798732
0.14006165 -0.14056282 -0.050489847 -0.1427848 0.07359494 -0.018733613 -0.00833576 -0.28866655
0.09785357 0.08572493 -0.006866206 0.017951166 -0.2547092 0.039334323 -0.07254985 -0.17183928
0.085287 0.08883452 0.13480091 0.10715357 0.09480191 -0.0134385275 0.11838625 -0.12736903
-0.17039186 0.11567133 0.032210045 -0.065775216 0.1713076 0.06419349 0.0099382885 0.15277709
-0.2518893 0.04761522 -0.038513232 0.1468123 -0.09131359 0.006199426 -0.0241326 -0.05193909
-0.029800154 -0.0021519808 -0.13021594 0.10794489 0.021119677 0.2472906 -0.25690913 -0.054197583
00000000: 16d0 1cbd d4b9 43bc c25d 37bd 5e37 5a3c
00000010: f07f 61be bbd8 3fbe 3ef5 fd3a 772b 38be
00000020: fe1a c1bd f9e6 a33c 05d4 4a3d df19 883c
00000030: 255a aa3d ecb4 6f3d 42ed b43d 4693 2f3e
00000040: c9a7 4dbe 2f5f 22be 5c59 4cbd 7a1a b53d
00000050: 757e 69bd e7d0 40be 9aa6 653c 3395 84be
00000060: f2a6 023e cbb6 4dbd 8ae4 2ebd 9a3e ed3d
00000070: 2c19 2e3d 36d7 133e 0a08 093e 06c0 633d
00000080: 0694 e93d 678d 653e 0763 b8bd 4a57 d23d
00000090: 8dde f9bd bdaf d53d 1c24 2abe 56dc 5abc
000000a0: 189d 8dbe 4f5b 0abd 5457 703d 4727 013e
000000b0: f751 233d cc91 383e 8dc3 1b3e 35b3 11be
000000c0: d1f4 fe3d c095 ab3d 0f22 833e 77de 13be
000000d0: 78c2 413e 6321 49bd 8b82 2dbe c830 e6bd
000000e0: f78e f9bd 9ab6 7dbd 81a1 18be d2c1 4b3e
000000f0: 4f57 abbd 6844 b83d e6f0 65be 5f1d 2b3e
00000100: 4b8f c93d 4a40 3bbe a66c b13d 0f90 8e3d
00000110: 7914 7abe 3a53 84be 81a9 c8bd a0ed 823d
00000120: c3ff 9c3d d824 0cbe f180 123e 391c 53bd
00000130: c49d 3bbe 1a6b 6cbc 2d69 87bd 545d 893c
00000140: 5752 9739 e0fe 4f3c b281 063e 2023 7bbe
00000150: bf58 ec3c 56a0 11be 8e38 12be a26c af3d
00000160: 42f8 843e e899 343d 3965 053e f80d 8d3d
00000170: 5fdd 79bd e862 f3be be42 1b3e fe08 53bd
00000180: 865f 2e3c c119 cf3c ed97 d13d b896 97bd
00000190: 24dd f7bc 2002 b6bd 261d 963d 3fbe 3a3d
000001a0: 8856 f5bd 8e03 1dbc e9c0 b2bd 59a9 d7bc
000001b0: a11a 52bd b9f6 4bbd 6efb 703c 49ca 9cbd
000001c0: 9b93 6b3e 776c 16be 0662 8cbd f5a0 12be
000001d0: a478 1c3e 6bc0 debd f704 943c 07b6 23bd
000001e0: 0064 92be 5690 a53d 5d94 0c3e 8f00 f0bd
000001f0: b5c8 003d 5484 a93d 3c44 513c ba17 2e3c
00000200: 76a4 fb3d 0bc6 0abe d20d 0e3e 874c 133d
00000210: cadf 703d 3ec3 983b ea9f 39bb c67c a43d
00000220: 936a f13d 1b28 1bbe d8e2 51be e15d 073e
00000230: d91c 50be b36b 063e d5a3 31bd 690e 63bc
00000240: 15c1 60be 48ed 353e 5568 96be 0c8d afbd
00000250: 63d1 27be 9355 b73d f3a7 0fbe be50 01bc
00000260: 3a68 e73d c2cd 64bd 4c9c 013e 1c63 5a3d
00000270: 9b02 193d 2d60 643c 80e4 4bbe 95b5 1c3e
00000280: e5bd 85bd ce33 0cbe 14de 48be 9ed9 5d3c
00000290: 7448 0dbe 637f 28bd f308 e8bd 71c2 403d
000002a0: 19d8 7fbd 122d 8cbd 7455 283e 45dc a7bd
000002b0: bcf5 a83d 3568 ad3d 1a74 8c3d 24de bb3b
000002c0: a801 1cbe 775a 353e 74fb ec3d 8825 4eba
000002d0: 57ed ac3d 184b 253d c79d 33be 913c 5a3e
000002e0: c39c 3dbd 3b63 3f3d d28e 383e d47d fd3c
000002f0: fcbc 953d d1c9 6cbe 26db f0bd f41e 72be
00000300: d473 8d3d b2fc 843d caf0 e53c dfd2 47be
00000310: 018d 0d3e 2e32 13be 4541 a03d eee3 b73d
00000320: 8612 0bbe 1f5d 3dbe 4a39 963b fe07 a53a
00000330: b603 97be 95a0 59be 0b7d 103e 784f 41bc
00000340: 526c 0f3e b3ef 0fbe 71ce 4ebd 2e36 12be
00000350: f2b8 963d 3c77 99bc b692 08bc 1acc 93be
00000360: 7467 c83d 8d90 af3d e9fd e0bb 530e 933c
00000370: 3f69 82be 071d 213d 0495 94bd a3f6 2fbe
00000380: f3aa ae3d dfee b53d 4009 0a3e 5573 db3d
00000390: 8127 c23d 452d 5cbc 7e74 f23d 076d 02be
000003a0: 347b 2ebe 17e5 ec3d aeee 033d 28b5 86bd
000003b0: 426b 2f3e e077 833d 34d4 223c 9971 1c3e
000003c0: a2f7 80be 2d08 433d 0dc0 1dbd f755 163e
000003d0: 9f02 bbbd 8e24 cb3b bbb1 c5bc 15be 54bd
000003e0: 741f f4bc 3f08 0dbb 5457 05be 3612 dd3d
000003f0: 2c03 ad3c bf39 7d3e 9889 83be 49fe 5dbd

_network.6.bias f4 [32]
0.14873682 0.07419474 0.14416966 0.057276297 -0.036648862 -0.060706668 0.0092814695 0.15512225
-0.13661541 0.10491099 -0.019155698 -0.028339105 -0.0574865 -0.08130915 -0.12638249 -0.12339143
-0.1353316 0.010715837 -0.08763519 0.0047570034 -0.027963975 -0.06675688 0.13029599 0.04348803
-0.09076947 -0.16602392 -0.092725925 -0.14796221 -0.09233081 -0.031807914 0.11744614 -0.028234169
00000000: 774e 183e 69f3 973d 36a1 133e 8d9a 6a3d
00000010: 1e1d 16bd 8ea7 78bd 4e11 183c 5ed8 1e3e
00000020: e9e4 0bbe 93db d63d 69ec 9cbc 6927 e8bc
00000030: f776 6bbd 6985 a6bd 696a 01be a5b4 fcbd
00000040: 5e94 0abe 7a91 2f3c 147a b3bd a3e0 9b3b
00000050: b514 e5bc d5b7 88bd 506c 053e 8120 323d
00000060: 58e5 b9bd 2d02 2abe 17e7 bdbd 6883 17be
00000070: f017 bdbd 0449 02bd 9a87 f03d 584b e7bc

_network.7.weight f4 [32]
0.7361283 0.85213834 0.6799393 0.85643774 0.7352612 0.8745494 0.7457566 0.9073024
0.76201105 0.8326669 0.88338786 0.9142164 0.84565556 0.8614857 0.89573085 0.888616
0.8661464 0.89155245 0.6643467 0.7623031 0.8383952 0.8487715 0.8538471 0.8955125
0.7989768 0.89148176 0.911627 0.8551739 0.8898216 0.86771095 0.7505656 0.81859076
00000000: e772 3c3f bd25 5a3f 8110 2e3f 813f 5b3f
00000010: 143a 3c3f 78e2 5f3f e8e9 3e3f f844 683f
00000020: 2813 433f a829 553f b525 623f 160a 6a3f
00000030: e27c 583f 548a 5c3f 9e4e 653f 577c 633f
00000040: c5bb 5d3f c83c 643f a012 2a3f 4c26 433f
00000050: 11a1 563f 1749 593f b995 5a3f 4f40 653f
00000060: be89 4c3f 2638 643f 6360 693f adec 5a3f
00000070: 59cb 633f 4e22 5e3f 1125 403f 2a8f 513f

_network.7.bias f4 [32]
-0.21939734 0.12567677 -0.30076528 -0.011485123 -0.23488069 -0.02451171 -0.21463794 -0.065647066
-0.22261605 -0.08676958 -0.17623657 0.015140413 -0.1643835 0.009310042 -0.032038767 -0.13951705
-0.09759851 -0.14000924 -0.37276775 -0.26645687 -0.11583123 -0.04075594 -0.12287423 -0.11737373
-0.119409755 -0.041895803 -0.05187519 -0.023403248 0.046805497 -0.17205681 -0.24853301 -0.22611241
00000000: b2a9 60be 69b1 003e e8fd 99be 192c 3cbc
00000010: 9084 70be c8cc c8bc 0cca 5bbe f871 86bd
00000020: 76f5 63be 40b4 b1bd 5c77 34be 7f0f 783c
00000030: 2654 28be 2589 183c 153b 03bd 8fdd 0ebe
00000040: bae1 c7bd 955e 0fbe 6adb bebe 096d 88be
00000050: ed38 edbd b3ef 26bd 7ca5 fbbd a361 f0bd
00000060: 1a8d f4bd ef9a 2bbd 147b 54bd 2bb8 bfbc
00000070: 1fb7 3f3d a92f 30be 707f 7ebe 038a 67be

_network.7.running_mean f4 [32]
-0.11304315 0.15061069 -0.17504698 -0.12319322 -0.22663844 -0.231443 -0.45574927 0.28615695
-0.7349348 0.19892623 -0.37212086 0.15779331 -0.115875006 0.09418686 -0.22001721 0.32161602
-0.312979 -0.23610815 -0.6447867 -0.3708347 -0.14067745 -0.6453854 0.0039384747 -0.0117714945
0.042140014 -0.54616046 -0.28993398 -0.32644337 -0.010697899 -0.030020148 -0.3593433 -0.6491642
00000000: 2b83 e7bd b039 1a3e 843f 33be ba4c fcbd
00000010: e813 68be 65ff 6cbe f857 e9be 2a83 923e
00000020: b024 3cbf 51b3 4b3e a086 bebe 9294 213e
00000030: e04f edbd 0ae5 c03d 314c 61be dbaa a43e
00000040: c93e a0be 56c6 71be be10 25bf 0cde bdbe
00000050: c00d 10be fa37 25bf 520e 813b 3add 40bc
00000060: 029b 2c3d 2cd1 0bbf 3a72 94be 9623 a7be
00000070: 3e46 2fbc d0ec f5bc d8fb b7be a02f 26bf

_network.7.running_var f4 [32]
0.2602881 1.1278547 0.54382694 0.2274858 0.192431 0.43264768 0.4375643 0.6374741
0.20343232 0.24220833 0.5268567 0.6397564 0.29806066 0.8244689 0.5308242 0.38697818
0.2967403 0.1080831 0.61737216 0.10477209 0.1335219 0.31569844 0.39905053 0.12656821
0.23115519 0.8201155 1.0578996 0.55352044 0.7489797 0.40666366 0.23862177 0.38118163
00000000: 7b44 853e 8b5d 903f 3e38 0b3f 0af2 683e
00000010: a20c 453e ff83 dd3e 6e08 e03e 8131 233f
00000020: 9050 503e 7605 783e 15e0 063f 13c7 233f
00000030: 689b 983e 6510 533f 18e4 073f 0122 c63e
00000040: 58ee 973e ac5a dd3d 1a0c 1e3f c092 d63d
00000050: f7b9 083e 3aa3 a13e 5a50 cc3e 199b 013e
00000060: f2b3 6c3e 17f3 513f 4169 873f 84b3 0d3f
00000070: 22bd 3f3f 3836 d03e 4459 743e 3d2a c33e

_network.9.weight f4 [1, 32]
0.0020137725 0.08969546 0.0029797864 0.036483765 0.0050829467 0.03365609 0.014356766 -0.059844725
0.00944471 0.015950702 -0.03744363 0.056526035 -0.010539481 0.0677291 0.025472207 -0.018243747
0.011122203 -0.004125524 0.0009271082 0.0012698463 0.0048534507 0.018019874 -0.042759325 -0.013478832
-0.0075870138 0.06378231 -0.06663391 0.05251159 0.088361636 -0.012099506 0.0104954075 -0.0021582954
00000000: 7ff9 033b 41b2 b73d 8548 433b 0070 153d
00000010: d98e a63b f8da 093d a438 6b3c be1f 75bd
00000020: fcbd 1a3c 0cab 823c 7e5e 19bd d887 673d
00000030: caad 2cbc 8eb5 8a3d 17ab d03c e973 95bc
00000040: e739 363c 672f 87bb 2e09 733a f970 a63a
00000050: b209 9f3b 6a9e 933c 6724 2fbd 52d6 5cbc
00000060: 7c9c f8bb 4da0 823d 5c77 88bd 6516 573d
00000070: f2f6 b43d 023d 46bc eef4 2b3c 3072 0dbb
