transformers/results/lstm_option_pricer/configs/hyperopt/trial_11/lstm_option_pricer_model_20251125_105301.pt (torch, 763790 bytes, 49 tensors)

lstm_layers.0.weight_ih_l0 f4 [256, 8]
0	0xb61b081a	-2.3101516e-06
1	0xbadc8080	-0.0016822964
2	0xbb1de1cd	-0.0024090887
3	0xbb64b622	-0.0034898599
4	0x37070495	8.047694e-06
5	0xbb1de1cd	-0.0024090887
6	0xba0c97a9	-0.00053631753
7	0x39b1f1d0	0.00033940235
8	0x3b22203b	0.002473845
9	0xb9b01dbd	-0.00033591493
10	0xbbb42397	-0.0054974067
11	0x3b11a4b8	0.0022223424
12	0x3bb4cda5	0.005517679
13	0xbbb42397	-0.0054974067
14	0xbbbaf457	-0.005705397
15	0x3b031794	0.0020003067
16	0x3a1ff709	0.000610218
17	0xbb86586d	-0.0040998966
18	0xbb0c8ff8	-0.0021448117
19	0xbb8ad818	-0.004237186
20	0x3b22f165	0.002486312
21	0xbb0c8ff8	-0.0021448117
22	0xba92cfac	-0.0011200807
23	0x39a847b0	0.00032096868
24	0x3ad9deea	0.001662222
25	0x3dbbd307	0.0917111
26	0x3c40ae59	0.011760318
27	0xbcc3f3e6	-0.02392001
28	0xbbaaeb9b	-0.0052160746
29	0x3c3964c0	0.011315525
30	0x3d291867	0.041283038
31	0xbc5a2d84	-0.013316516
32	0x3c4d0807	0.012514121
33	0xbcd22e8f	-0.025656966
34	0xbcedbb56	-0.029019993
35	0x3a7aecec	0.0009572047
36	0x3be3f3c0	0.0069565475
37	0xbcedbb58	-0.029019997
38	0xbbee31b7	-0.00726911
39	0x3c452a2d	0.012033981
40	0x3b844812	0.0040369118
41	0x3b7780a8	0.0037765894
42	0xbb354ded	-0.0027664856
43	0x3a812634	0.0009853304
44	0xbb92d8c3	-0.0044814064
45	0xbb354ded	-0.0027664856
46	0xbc0a24c6	-0.008431619
47	0x3b152758	0.0022759046
48	0x3b47576d	0.00304171
49	0x3ca2fae1	0.019895019
50	0x3c46646a	0.0121089015
51	0x3d3837d4	0.044975117
52	0x3bfe5491	0.007761546
53	0x3c465b2c	0.012106698
54	0x3c0e4861	0.008684249
55	0x3b2d125e	0.0026408653
56	0x3bc6ed83	0.006070794
57	0x3b5217d0	0.003205765
58	0xbc4a1cb6	-0.012335947
59	0xbc62ca38	-0.013842158
60	0xbbbc7624	-0.005751388
61	0xbc4a1cb6	-0.012335947
62	0x3b6f187e	0.0036483104
63	0x3c010a3d	0.007875976
64	0x3ca2937e	0.01984572
65	0x3cf5498d	0.029942298
66	0xbc954b24	-0.018224306
67	0x3d9f437e	0.07776545
68	0xbcce5edf	-0.025191722
69	0xbc9540eb	-0.018219432
70	0x3dfb05ad	0.12256942
71	0x3c9c713d	0.019096965
72	0xbcddaa25	-0.02705867
73	0x3d5ceb15	0.05393513
74	0x3b793371	0.0038025046
75	0x3becf5e6	0.007231462
76	0xbca8d853	-0.020610964
77	0x3b6b9bb8	0.003595097
78	0xbca6698f	-0.020314006
79	0xbd0baa35	-0.03409787
80	0x3d3656b9	0.0445163
81	0x3d76e08d	0.060272742
82	0x3c79ada9	0.015239158
83	0x3dc9ac4d	0.09847317
84	0x3b730f48	0.0037087966
85	0x3c78d1a7	0.015186704
86	0x3ded7d1b	0.115961276
87	0x3cf4cf5a	0.02988403
88	0x3c8469f8	0.016163811
89	0x3d60bbc4	0.054866567
90	0xbbedca17	-0.007256757
91	0xba694c92	-0.00088996545
92	0x3c436bd2	0.011927562
93	0xbbf1eee7	-0.0073832157
94	0x3d567f3f	0.052367445
95	0x3c83b334	0.016076662
96	0x3c4e4728	0.012590207
97	0x3c132432	0.008980798
98	0xbbab6d5a	-0.0052315416
99	0x3c8d92bb	0.01728188
100	0x3c0e181f	0.008672743
101	0xbbab92ba	-0.005235997
102	0x3d3baaec	0.0458173
103	0x3c1c083a	0.009523446
104	0xbc376d3c	-0.011195477
105	0x3cb12fa8	0.02162917
106	0xbc6da19c	-0.014503863
107	0x3c37ca14	0.011217613
108	0x3caa6bb3	0.020803308
109	0xbc63afba	-0.013896877
110	0xbd05220e	-0.03250318
111	0xbbee6628	-0.0072753616
112	0xbb0335c2	-0.0020021056
113	0xbb21cf66	-0.002469027
114	0x39f6174f	0.00046938143
115	0xbaf22e06	-0.0018476851
116	0xb9db913d	-0.00041879146
117	0x39f6174f	0.00046938143
118	0xbb3a3818	-0.0028414782
119	0xbae92a2b	-0.0017789056
120	0x3cac9643	0.021067744
121	0xbd660b95	-0.05616339
122	0xbc665d25	-0.014060293
123	0x3bdf9d80	0.0068241954
124	0xbbe4e856	-0.0069857044
125	0xbc337a25	-0.0109544145
126	0xbd3b4ac5	-0.045725603
127	0x3d00a106	0.031403564
128	0xbb20a325	-0.0024511304
129	0xbaf6a5bd	-0.0018817704
130	0xb96516b8	-0.00021847605
131	0x3a836e4c	0.0010027378
132	0xbabe8942	-0.0014536756
133	0xb96516b8	-0.00021847605
134	0x3bb64c0a	0.005563264
135	0xbb0a83b1	-0.0021135623
136	0x3bd4cb94	0.006493995
137	0xba86c0ee	-0.0010280886
138	0xbb907a9e	-0.0044091484
139	0xbb0510c4	-0.0020304183
140	0xbb205fcc	-0.0024471162
141	0xbb907a98	-0.0044091456
142	0xbc1fcb0a	-0.009752998
143	0x3bc3d366	0.0059761284
144	0xbc6c85f1	-0.014436231
145	0x3cfc2602	0.030779842
146	0xbbbb3e4a	-0.0057142125
147	0x3c8eb019	0.017417954
148	0xbc3ca480	-0.011513829
149	0xbbdd6c3d	-0.006757288
150	0xbc35efa7	-0.011104501
151	0xbc15786c	-0.009122949
152	0xb8aed169	-8.335972e-05
153	0x3b68720c	0.0035468368
154	0x3c38d4a5	0.011281167
155	0x3bc2eeee	0.005948893
156	0x3b451b35	0.003007603
157	0x3c38d69b	0.011281635
158	0xbae3e57d	-0.0017387118
159	0xba5b7176	-0.0008371094
160	0x3b82fd34	0.0039974693
161	0x3cf581e7	0.029969169
162	0xbc67d419	-0.014149689
163	0x3cfcd879	0.030864941
164	0x3c866992	0.016407762
165	0xbc67d419	-0.014149689
166	0xbbc66a34	-0.006055141
167	0x3ba46db5	0.005017961
168	0x39da3932	0.00041622814
169	0xbbb0f96d	-0.0054008276
170	0xbb19f035	-0.0023489122
171	0x3b55f7ea	0.003264899
172	0xbc21f678	-0.009885423
173	0xbb19f035	-0.0023489122
174	0xbb799fed	-0.0038089708
175	0xb9260e4e	-0.00015836323
176	0xb9d66a39	-0.00040896403
177	0xbba5716f	-0.0050489227
178	0xb9f6b4ba	-0.00047055428
179	0x3b95df3b	0.0045737303
180	0xbb93fbd6	-0.004516105
181	0xb9f6b4ba	-0.00047055428
182	0xbbcc6fe5	-0.006238925
183	0xb91fb965	-0.00015232486
184	0x3d4f2b91	0.050578658
185	0xbc8e826c	-0.017396174
186	0xbb8a3ed9	-0.004218918
187	0x3cb387e9	0.021915393
188	0x3d2b164c	0.04176931
189	0xbb8a3aab	-0.0042184195
190	0xbb3ccace	-0.0028807404
191	0x3cda219b	0.026627352
192	0x3b50f329	0.0031883216
193	0xbb575741	-0.0032858404
194	0xbbbccb45	-0.0057615363
195	0x3aca57c7	0.0015437537
196	0x3bff9269	0.007799436
197	0xbbbccb45	-0.0057615363
198	0x3bb5e7fa	0.0055513354
199	0x3b55b228	0.003260741
200	0xb8ed6712	-0.00011320239
201	0xb910968d	-0.00013788995
202	0xb837d113	-4.3825316e-05
203	0xb908819e	-0.00013018257
204	0xb90bfb8f	-0.00013349786
205	0xb837d113	-4.3825316e-05
206	0xb9530009	-0.00020122541
207	0xb8d0a0e8	-9.948184e-05
208	0x3c8a4498	0.016878411
209	0x3cb6615d	0.022263223
210	0xbd6de770	-0.058082044
211	0xbd09c948	-0.033639222
212	0x3c74aebc	0.014934238
213	0xbd6de781	-0.058082107
214	0xbd28bfb8	-0.041198462
215	0x3c623ac2	0.013807954
216	0xbbbb8419	-0.0057225344
217	0xbd002239	-0.031282637
218	0xbc25cbed	-0.0101194205
219	0xbc45bd31	-0.0120690325
220	0x3be8821d	0.007095589
221	0xbc25cbef	-0.010119422
222	0x3c1a7b95	0.009428878
223	0xba27ee9c	-0.00064061
224	0x3aa4f140	0.0012584105
225	0xb986a8fc	-0.00025684375
226	0x3c3f4ce1	0.011676044
227	0x3c3a4737	0.011369518
228	0x3bff7b98	0.007796716
229	0x3c3f4ce1	0.011676044
230	0x3cfe9dc9	0.031081097
231	0x3ad786c6	0.0016443364
232	0xbc657587	-0.0140050715
233	0xbd0c3e86	-0.034239314
234	0xbc191063	-0.009342286
235	0x3ab43bba	0.001375071
236	0xbd0e56f4	-0.034750894
237	0xbc190d21	-0.009341509
238	0xbd3a268a	-0.04544691
239	0xbc0ab1b9	-0.008465224
240	0x3a8c0bd0	0.0010684673
241	0x3c14a108	0.009071596
242	0xbc05d2a8	-0.0081679
243	0xbc892109	-0.016739385
244	0x3bbcc73c	0.0057610553
245	0xbc05d2a8	-0.0081679
246	0xba8551a3	-0.0010171424
247	0x3954837d	0.00020266879
248	0xbb8a5304	-0.004221322
249	0xbae8583e	-0.0017726494
250	0x3c87518e	0.01651838
251	0xbabac393	-0.001424896
252	0xbb6c2e34	-0.0036038281
253	0x3c873dda	0.016508985
254	0x3d186600	0.03720665
255	0xbb05064d	-0.0020297945

lstm_layers.0.weight_hh_l0 f4 [256, 64]
0	0xba6e19b9	-0.00090828125
1	0x381a8f22	3.6849764e-05
2	0xb90b0d11	-0.0001326094
3	0xbad06dd0	-0.0015901867
4	0xba29ff0d	-0.0006484844
5	0xba8f0b5b	-0.0010913418
6	0x3a39a421	0.0007081647
7	0xba044d3f	-0.0005046911
8	0x3800d550	3.071624e-05
9	0xba9be6be	-0.0011894328
10	0x3ae241bd	0.0017262023
11	0xba5948b0	-0.00082887243
12	0xbaf027c1	-0.0018322394
13	0x3a11edc7	0.00055667426
14	0x39a0ef8d	0.00030696057
15	0x3991ba08	0.0002779516
16	0xb901756a	-0.00012346139
17	0xb73029be	-1.0500136e-05
18	0xbac19ca7	-0.0014771417
19	0x39a4336b	0.00031318827
20	0x39bead5b	0.00036368784
21	0x3a226544	0.00061948993
22	0xb9f2e92d	-0.00046331566
23	0x3ab3d0f3	0.0013718888
24	0xb9df237a	-0.00042560307
25	0xb62568a6	-2.464783e-06
26	0xb926bbc4	-0.00015900942
27	0xb913578b	-0.00014051625
28	0xb97046ca	-0.00022914555
29	0x38e80ba5	0.00011064791
30	0xb9d971b4	-0.0004147418
31	0x39c02658	0.00036649662
32	0x3a177ccd	0.00057787896
33	0x3980d2a4	0.00024571002
34	0x3994929b	0.0002833799
35	0xb9db7a5c	-0.000418621
36	0xb93ff440	-0.0001830617
37	0xb8b146a3	-8.453175e-05
38	0xbae8e315	-0.0017767871
39	0xb8fe58d2	-0.00012128208
40	0xba66e62b	-0.00088081014
41	0xbacb8815	-0.0015528227
42	0xbad15a0e	-0.0015972273
43	0x39f42fe8	0.00046575
44	0xba004373	-0.0004892863
45	0x3819b030	3.664213e-05
46	0x399e6076	0.00030207977
47	0xb9dd6a3b	-0.00042231553
48	0x3a1675b6	0.0005739586
49	0xb995bcef	-0.0002856026
50	0xb9e4033c	-0.0004348996
51	0x3ad27ea2	0.0016059468
52	0xb80f3b4a	-3.4149074e-05
53	0x38e0efa0	0.00010725786
54	0xb958b629	-0.00020667225
55	0xbab44c55	-0.0013755659
56	0xb9955ec8	-0.00028490112
57	0x396c05eb	0.00022508918
58	0x39f3afde	0.00046479603
59	0xb9184de1	-0.00014524862
60	0xb8c2c172	-9.286673e-05
61	0xbaa6cfa0	-0.0012726672
62	0xb99d8862	-0.00030046987
63	0x38a92e67	8.067191e-05
64	0xb8913aee	-6.925115e-05
65	0x3a8ee350	0.0010901485
66	0x3a225180	0.0006191954
67	0xb9609024	-0.00021416001
68	0xba919216	-0.0011106159
69	0xb9dd588a	-0.00042218372
70	0x3af5b7cc	0.0018746792
71	0x382b07ab	4.077672e-05
72	0xba320198	-0.00067903986
73	0xb9e41b42	-0.00043507857
74	0x3af3504e	0.0018563361
75	0x3a396333	0.0007071972
76	0xba1aa655	-0.0005899419
77	0x3abef12e	0.0014567727
78	0x387bd12b	6.0037866e-05
79	0xba7504b2	-0.0009346708
80	0x3960626f	0.00021398974
81	0x3a28532c	0.0006421085
82	0x3894794f	7.0797854e-05
83	0xba40ad33	-0.00073500274
84	0x397464f1	0.00023307257
85	0x39cc8562	0.0003900929
86	0xb8e53e1f	-0.00010931142
87	0x3aca0094	0.0015411549
88	0x3a8ad83c	0.0010593007
89	0xb779042c	-1.4842528e-05
90	0x3a82deb2	0.0009984581
91	0x3a395d32	0.0007071077
92	0xb6b78218	-5.46897e-06
93	0x3a6170b4	0.0008599863
94	0x3997896c	0.00028903352
95	0xb9c2290f	-0.00037033155
96	0xb9d5d6d9	-0.000407866
97	0xba54b305	-0.0008113834
98	0x3a0c665d	0.00053558295
99	0x399b3547	0.00029603599
100	0xbad1df11	-0.0016011914
101	0xbaac141c	-0.0013128552
102	0x3a8e032b	0.0010834684
103	0x3962139a	0.00021560342
104	0x3913fe5e	0.00014113772
105	0x394944f0	0.00019194535
106	0x398e1847	0.0002710244
107	0x3aa710e4	0.0012746123
108	0xb8b4fd0a	-8.630201e-05
109	0x3a67e4e2	0.0008846057
110	0x38755806	5.849453e-05
111	0x39141294	0.00014121301
112	0x39fe5a43	0.00048513905
113	0x3a28c41c	0.0006437914
114	0x39f04c56	0.00045833242
115	0xb916c36f	-0.0001437792
116	0x3a8b53c0	0.0010629818
117	0x3890d9b1	6.907003e-05
118	0x3a165fe4	0.0005736335
119	0xbaa2e771	-0.0012428594
120	0x3a213b0a	0.000615046
121	0xba3b66b4	-0.0007148788
122	0xb9a19722	-0.00030820916
123	0xb9117f45	-0.00013875689
124	0x3a490545	0.0007668327
125	0xba251612	-0.0006297539
126	0x3a56cac9	0.00081936695
127	0x3a37bc48	0.0007008952
128	0xba216c5b	-0.0006157809
129	0x39637ffe	0.00021696088
130	0x3a358693	0.0006924655
131	0xba5f949e	-0.00085289206
132	0xb93904e3	-0.00017644795
133	0x38866313	6.408072e-05
134	0x3a4fe0e2	0.00079299335
135	0xb9e0c008	-0.00042867684
136	0xba1e54b1	-0.00060398417
137	0xb9a7c594	-0.0003199993
138	0x3ad6406e	0.0016346106
139	0xb87a9c94	-5.975047e-05
140	0xb9f70a88	-0.00047119358
141	0x3a6e9b0d	0.0009102084
142	0xb995cfb6	-0.0002857425
143	0x393b9802	0.00017890337
144	0xb8ef09c2	-0.000113982256
145	0xb8d43b6a	-0.000101200145
146	0xba1dd9e2	-0.0006021542
147	0x390d428d	0.000134716
148	0xb9bc21fb	-0.00035883472
149	0xb99571b9	-0.00028504225
150	0x399dd0e9	0.00030101024
151	0x3a905758	0.0011012359
152	0x38b8d5a2	8.813596e-05
153	0xb80d37f7	-3.366914e-05
154	0x3a3c70af	0.0007188422
155	0xb9aba3fc	-0.0003273784
156	0xba57f9ad	-0.0008238804
157	0x39a2a0c0	0.00031018816
158	0x3954d4f6	0.0002029723
159	0xb9f1f2f2	-0.0004614811
160	0x38c4c705	9.3830786e-05
161	0x390f714f	0.00013679753
162	0xb8da9b1d	-0.00010423942
163	0xb8a37e3a	-7.795957e-05
164	0xb99679d3	-0.00028700996
165	0xba9c1205	-0.0011907226
166	0xb9d61bcd	-0.00040837974
167	0x3940c249	0.00018382924
168	0xb99ea2d1	-0.00030257416
169	0xb9993d4f	-0.00029228113
170	0x39909a3a	0.00027580728
171	0x3a912b71	0.0011075569
172	0xb9a654e0	-0.00031725224
173	0xb9942628	-0.00028257188
174	0x399c6953	0.0002983311
175	0xb8850357	-6.342556e-05
176	0x38f6455f	0.000117431155
177	0xba2b34aa	-0.000653098
178	0xb9ca2cfc	-0.00038561958
179	0x39d2a632	0.00040178146
180	0x39f3555d	0.00046412172
181	0x3a2447c7	0.0006266799
182	0xb8c150a9	-9.217981e-05
183	0xb9d26fe5	-0.0004013769
184	0x3971815e	0.00023031744
185	0x3883bb9f	6.281514e-05
186	0x39c08061	0.00036716743
187	0xb9153232	-0.00014228447
188	0x3a127d05	0.00055880874
189	0xba1b3c3b	-0.0005921756
190	0x38fed2e3	0.000121509445
191	0x392b7c8c	0.00016354228
192	0x3a993361	0.0011688286
193	0xbafa01cb	-0.0019074021
194	0xbb09b83d	-0.0021014356
195	0xba351691	-0.00069079647
196	0x3c17e10f	0.009269967
197	0x3b17b0cd	0.0023146153
198	0xbc1471c8	-0.009060331
199	0xbb1e74c3	-0.0024178482
200	0xbaeb3cbe	-0.001794718
201	0x3ac46b54	0.00149856
202	0xbc2209e3	-0.0098900525
203	0xbc16fba9	-0.009215274
204	0x3b60d4a4	0.0034306431
205	0xbc3277c9	-0.010892817
206	0x3901ba78	0.00012371864
207	0x3c67d5c2	0.014150085
208	0xbac0a950	-0.0014698897
209	0x3ae95b54	0.0017803707
210	0x3bd9e29e	0.0066493293
211	0xb9d10516	-0.00039867376
212	0x3bdb73a6	0.006697136
213	0xbbb140c3	-0.0054093315
214	0xba05a442	-0.00050980237
215	0xbc3f2e9c	-0.011668827
216	0xba61d3bb	-0.0008614619
217	0xb88d5a2c	-6.7402e-05
218	0x3a1284f4	0.00055892696
219	0xbc165050	-0.009174421
220	0xb8cf93b7	-9.898043e-05
221	0xbc8aea66	-0.016957473
222	0xbb8baf21	-0.0042628204
223	0x3b46c3ef	0.0030329188
224	0x3b38f04a	0.0028219395
225	0x3c8e3999	0.01736145
226	0xbad0578b	-0.001589523
227	0xbb60c088	-0.0034294445
228	0x3a84cea9	0.001013239
229	0xb9e1121b	-0.00042928834
230	0xbb73cf2d	-0.0037202344
231	0xbbba2472	-0.005680614
232	0xbbb82ce2	-0.005620585
233	0x3901ac75	0.00012366644
234	0xbc815b25	-0.015790531
235	0xbc290046	-0.010315007
236	0xbc399ebf	-0.011329352
237	0xba84a1c1	-0.0010119007
238	0xb9190588	-0.00014593278
239	0xba52fb1e	-0.00080482836
240	0xba52041c	-0.00080114766
241	0xba3a1224	-0.000709804
242	0x3a435acc	0.00074521895
243	0xbacba447	-0.0015536629
244	0xbb8a0856	-0.0042124195
245	0x3a045105	0.0005047473
246	0xbbb79694	-0.005602667
247	0x3bb74abe	0.0055936268
248	0xbb8a4831	-0.0042200317
249	0x3c394800	0.01130867
250	0x37f62141	2.934097e-05
251	0xbac68ccd	-0.0015148163
252	0xba888ce0	-0.0010417961
253	0x3b9d642b	0.0048032007
254	0x3a9c8654	0.0011941888
255	0xbbde0729	-0.006775756

lstm_layers.0.bias_ih_l0 f4 [256]
0	0xb95f571c	-0.00021299388
1	0x3b7c4645	0.0038494032
2	0x3a48f478	0.0007665823
3	0x3cc9f858	0.024654552
4	0x3c181b71	0.009283886
5	0xba2ea708	-0.0006662463
6	0x3d3ce20d	0.046114016
7	0x3c52fc2b	0.012877504
8	0x3d776d81	0.060407165
9	0x3c0f438b	0.008744131
10	0x3db05554	0.08610025
11	0x3ce4e78b	0.02794244
12	0x3d4a8d6a	0.04945127
13	0x3d88ad66	0.06673698
14	0xbb5b3dec	-0.0033453656
15	0xbc13d331	-0.00902252
16	0xbaea56f3	-0.0017878696
17	0x3b57a205	0.0032902968
18	0x3c68d8d7	0.014211855
19	0x3ba8c5b7	0.0051505226
20	0x3d2fbec3	0.042906534
21	0x39de4c80	0.00042400137
22	0xbb5d7e95	-0.0033797373
23	0x3d26bb23	0.04070581
24	0x3c1e0ba3	0.009646329
25	0xb9a12326	-0.000307345
26	0x3cde6020	0.027145445
27	0x3c0bf186	0.00854147
28	0x3bad5503	0.005289675
29	0x3c53a2fa	0.012917275
30	0x3b79392a	0.0038028457
31	0x3a9ccf36	0.0011963609
32	0xba97ea8f	-0.001159029
33	0xbd0cc37e	-0.034366123
34	0xba37c5bd	-0.00070103613
35	0x3c330f86	0.010928994
36	0x3cdb63e6	0.026781034
37	0x3d3dd6f6	0.04634758
38	0x3c88b06e	0.01668569
39	0xbb967feb	-0.0045928857
40	0x389758c7	7.216777e-05
41	0x3cc9e92f	0.024647323
42	0x3cb0aaf1	0.021565886
43	0x3c2e3ee7	0.010635114
44	0x3d00b1b9	0.03141949
45	0x3bc36948	0.0059634782
46	0xbaeedcbb	-0.0018223742
47	0xbb4646a1	-0.00302545
48	0xbbc65f35	-0.00605383
49	0x3bbb1090	0.0057087615
50	0x39cc7a90	0.00039001228
51	0x3cd6e8a3	0.026233977
52	0x3c2611d4	0.0101360865
53	0xb9c9c9b1	-0.0003848798
54	0x3c553e7d	0.013015387
55	0x3cf46b16	0.029836219
56	0xba2a9d96	-0.00065084675
57	0xbbb54c2b	-0.0055327616
58	0x3bc6465a	0.006050867
59	0x3c127f57	0.008941493
60	0x3c799f49	0.01523573
61	0x3bff19bc	0.00778505
62	0x3d5a357a	0.053273655
63	0xbaa76584	-0.0012771343
64	0xbc1da141	-0.009620965
65	0xbb46a753	-0.0030312135
66	0x3c5dd551	0.013539628
67	0x3efa8e15	0.48936525
68	0x3e934fb4	0.28771746
69	0x3c3dc6f7	0.011583081
70	0x3e060415	0.13087495
71	0x3d0c66c2	0.034277685
72	0xbe4fadbe	-0.20281121
73	0x3eb54998	0.3540771
74	0x3f0456a2	0.5169469
75	0x3e8fae67	0.28062746
76	0x3e3deda7	0.18547688
77	0x3e3cdb1e	0.18442962
78	0xbad345a0	-0.0016118772
79	0x3f0ae329	0.5425287
80	0xbbbb8b23	-0.0057233735
81	0xbcaf7f4b	-0.021423003
82	0x3edee740	0.43535805
83	0xbcd40731	-0.025882335
84	0x3dc3b486	0.095559165
85	0x3b1c43eb	0.0023844193
86	0x3b9e09b0	0.004822932
87	0x3e9c0a55	0.30476633
88	0x3c19e2fc	0.009392496
89	0xb97cfda6	-0.00024127084
90	0xbdf50fc0	-0.11965895
91	0x3e0cf701	0.137661
92	0xbd164b4b	-0.0366929
93	0x3efe5df4	0.49681056
94	0xbc5d4fa5	-0.013507758
95	0xbd8af301	-0.067846306
96	0xbd71e526	-0.059056424
97	0x3f33a181	0.7016831
98	0xbc9844c1	-0.018587472
99	0xbc937029	-0.017997818
100	0x3daaca4d	0.08339367
101	0x3dab82f7	0.08374589
102	0x3f0406c2	0.5157281
103	0x3d4580b5	0.048218448
104	0x3c80e1d0	0.015732676
105	0x3ed65557	0.41861984
106	0x3f0e3775	0.5555337
107	0x3cd47c78	0.025938258
108	0x3e9f0c9f	0.31064317
109	0x3c021f49	0.007942029
110	0xbb390b4d	-0.0028235496
111	0xb5e1e06c	-1.6829122e-06
112	0x3acaface	0.0015486123
113	0xbc10c7f2	-0.008836733
114	0x3beb8027	0.007186908
115	0x3f15d3d6	0.5852636
116	0xbba6b1ec	-0.005087128
117	0xbb4265ad	-0.0029662654
118	0x3e8470c1	0.25867274
119	0x3dba22f0	0.09088695
120	0x3d827e4f	0.06371748
121	0x3ec8a4d1	0.39188245
122	0xbbc220c5	-0.0059243166
123	0xbd967780	-0.073470116
124	0xbd732934	-0.059365466
125	0x3e5fff08	0.2187463
126	0xbe4d66f1	-0.200588
127	0x3bce5b41	0.0062974994
128	0x3ad0e11d	0.001593623
129	0x3c368828	0.011140861
130	0x3cfa02d5	0.030518929
131	0x3c7ec7b3	0.015550542
132	0x3d06faa4	0.032953873
133	0x3d069321	0.032855157
134	0xbd358297	-0.044313993
135	0xbcd45bf0	-0.025922745
136	0xbd085376	-0.03328272
137	0x3cc8d8ca	0.024517436
138	0xbd2c8f1e	-0.042128675
139	0xbc34b8ae	-0.011030359
140	0x3cd2703b	0.025688281
141	0xbd62dbb1	-0.055385295
142	0x3bdfad6d	0.006826094
143	0x3d5a2f21	0.053267602
144	0xbc772b61	-0.015086026
145	0xbd0e3828	-0.034721524
146	0x3d18c359	0.037295673
147	0xbc24e67a	-0.0100647155
148	0x3d1ec9ca	0.03876666
149	0xbd23c135	-0.03997918
150	0x3c8afb9f	0.016965685
151	0xbcf68cb1	-0.030096384
152	0xb990226b	-0.00027491464
153	0x39c60b32	0.00037773844
154	0x3d101f6e	0.035186224
155	0xbd4bbce1	-0.049740676
156	0xbcbcfeb2	-0.023070667
157	0xbd7ba771	-0.06143898
158	0xbd1d0a3d	-0.038339842
159	0x3c6c6674	0.014428724
160	0x3ce2a3dc	0.027666025
161	0x3d9df242	0.07712223
162	0xbcbec2cf	-0.023286251
163	0x3cfb398d	0.03066709
164	0x3c3d79ed	0.011564714
165	0xbd94478d	-0.0724021
166	0x3d57c043	0.05267359
167	0xbce4f34e	-0.027948048
168	0xbd536220	-0.05160725
169	0x3ceb2e44	0.028708585
170	0x3cfc0e9e	0.030768689
171	0xbd254867	-0.04035225
172	0xbda5d03f	-0.080963604
173	0xbc952028	-0.01820381
174	0x3b196cd9	0.0023410826
175	0xbc21c595	-0.009873767
176	0xbcc68628	-0.024233893
177	0xbd0d5b99	-0.034511182
178	0xbba56521	-0.005047456
179	0xbd2ebeaf	-0.04266232
180	0xbccea526	-0.025225233
181	0x3d64c23c	0.0558493
182	0xbd3272f9	-0.043566678
183	0x3d2aaf9a	0.041671373
184	0xbd1afc59	-0.037838314
185	0x3d4b8df3	0.04969592
186	0x3cc909b9	0.024540769
187	0xbcd0ba09	-0.025479333
188	0xbc360ad6	-0.011110982
189	0x3d105f38	0.035247058
190	0x3c005d5b	0.007834758
191	0xbcf5c6eb	-0.030002078
192	0xb92eebca	-0.00016681771
193	0x3b7a53d8	0.0038196947
194	0x3a528545	0.0008030723
195	0x3d0be065	0.034149546
196	0x3bc11cd8	0.005893331
197	0xb821bd86	-3.85619e-05
198	0x3d46f7d4	0.04857619
199	0x3c31cbf2	0.010851847
200	0x3d84605f	0.06463694
201	0x3c3fdb33	0.011709976
202	0x3dad9347	0.084753565
203	0x3d09dd9f	0.03365862
204	0x3d79900c	0.06092839
205	0x3d66a4ba	0.05630944
206	0xbb5adc33	-0.003339541
207	0xbcafbe3f	-0.021453021
208	0xbae960a9	-0.0017805296
209	0x3b5a905e	0.003335021
210	0x3cc7d143	0.024391776
211	0x3ba66b88	0.0050787367
212	0x3d243101	0.040085796
213	0x39f51df6	0.00046752364
214	0xbb5fbd05	-0.0034139764
215	0x3d3a14c6	0.045429967
216	0x3c1d780f	0.009611144
217	0xb9a12496	-0.00030735572
218	0x3cf8bed7	0.030364437
219	0x3c1aa116	0.00943782
220	0x3b9eb62d	0.0048434944
221	0x3c47db33	0.012198257
222	0x3b72a19a	0.0037022592
223	0xbae88a14	-0.0017741346
224	0xbc29b86c	-0.010358911
225	0xbcbbf199	-0.022942351
226	0xba50d23b	-0.0007965897
227	0x3c2beb75	0.010493149
228	0x3cdae67b	0.02672123
229	0x3d355320	0.044268727
230	0x3d43f219	0.047838304
231	0xbb9bb575	-0.004751856
232	0xb9af428f	-0.0003342819
233	0x3cee1487	0.029062523
234	0x3d17c9d6	0.03705772
235	0x3c130fd0	0.008975938
236	0x3d119b7b	0.03554867
237	0x3bc4a46c	0.006001046
238	0xbaeed93d	-0.0018222701
239	0xbb462548	-0.0030234624
240	0xbbc7db1b	-0.0060991175
241	0x3bbb8edc	0.0057238173
242	0x39c71c22	0.00037977198
243	0x3d2fc8e0	0.04291618
244	0x3c2a8c7e	0.0104094725
245	0xb9c78eb6	-0.00038062566
246	0x3c7db10a	0.015484104
247	0x3d030665	0.03198852
248	0x3aba140f	0.0014196652
249	0x3b81b4af	0.0039583067
250	0x3bc6c553	0.0060660033
251	0x3c166997	0.009180448
252	0x3c7cde79	0.015433901
253	0x3c1ffc52	0.009764748
254	0x3d730840	0.05933404
255	0xbadd8063	-0.0016899224

lstm_layers.0.bias_hh_l0 f4 [256]
0	0xb95f5706	-0.00021299356
1	0x3b7c4649	0.0038494042
2	0x3a48f48c	0.0007665835
3	0x3cc9f852	0.024654541
4	0x3c181b6b	0.009283881
5	0xba2ea726	-0.00066624803
6	0x3d3ce206	0.04611399
7	0x3c52fc40	0.012877524
8	0x3d776d81	0.060407165
9	0x3c0f439b	0.008744146
10	0x3db0554c	0.08610019
11	0x3ce4e790	0.027942449
12	0x3d4a8d74	0.049451306
13	0x3d88ad69	0.066737
14	0xbb5b3de9	-0.003345365
15	0xbc13d324	-0.009022508
16	0xbaea56f3	-0.0017878696
17	0x3b57a1fc	0.0032902947
18	0x3c68d8db	0.014211859
19	0x3ba8c5b2	0.0051505202
20	0x3d2fbecd	0.04290657
21	0x39de4c7a	0.0004240012
22	0xbb5d7e9e	-0.0033797394
23	0x3d26bb1c	0.040705785
24	0x3c1e0b9c	0.009646323
25	0xb9a12326	-0.000307345
26	0x3cde6022	0.02714545
27	0x3c0bf186	0.00854147
28	0x3bad5505	0.005289676
29	0x3c53a2ea	0.01291726
30	0x3b79392b	0.003802846
31	0x3a9ccf46	0.0011963628
32	0xba97ea92	-0.0011590293
33	0xbd0cc37c	-0.034366116
34	0xba37c5be	-0.0007010362
35	0x3c330f8f	0.010929002
36	0x3cdb63e5	0.026781032
37	0x3d3dd6fa	0.046347596
38	0x3c88b063	0.01668567
39	0xbb967ff7	-0.0045928913
40	0x38975918	7.216836e-05
41	0x3cc9e927	0.024647309
42	0x3cb0aaf3	0.02156589
43	0x3c2e3ee8	0.010635115
44	0x3d00b1bc	0.0314195
45	0x3bc3694a	0.005963479
46	0xbaeedcb9	-0.001822374
47	0xbb4646a5	-0.003025451
48	0xbbc65f33	-0.006053829
49	0x3bbb1093	0.005708763
50	0x39cc7a7c	0.0003900117
51	0x3cd6e8b0	0.026234
52	0x3c2611d7	0.010136089
53	0xb9c9c9a3	-0.0003848794
54	0x3c553e84	0.013015393
55	0x3cf46b14	0.029836215
56	0xba2a9db9	-0.0006508488
57	0xbbb54c32	-0.005532765
58	0x3bc64656	0.006050865
59	0x3c127f5a	0.008941496
60	0x3c799f41	0.015235723
61	0x3bff19b6	0.0077850474
62	0x3d5a357b	0.05327366
63	0xbaa76583	-0.0012771342
64	0xbc1da141	-0.009620965
65	0xbb46a748	-0.003031211
66	0x3c5dd553	0.01353963
67	0x3efa8e15	0.48936525
68	0x3e934fb9	0.2877176
69	0x3c3dc6ef	0.011583074
70	0x3e060418	0.13087499
71	0x3d0c66be	0.03427767
72	0xbe4fadbf	-0.20281123
73	0x3eb54994	0.35407698
74	0x3f0456a7	0.5169472
75	0x3e8fae68	0.2806275
76	0x3e3deda9	0.18547691
77	0x3e3cdb1a	0.18442956
78	0xbad345a5	-0.0016118778
79	0x3f0ae32a	0.54252875
80	0xbbbb8b25	-0.0057233744
81	0xbcaf7f50	-0.021423012
82	0x3edee73f	0.43535802
83	0xbcd40732	-0.025882337
84	0x3dc3b482	0.095559135
85	0x3b1c43ee	0.00238442
86	0x3b9e09ae	0.0048229313
87	0x3e9c0a57	0.3047664
88	0x3c19e2f7	0.009392492
89	0xb97cfda6	-0.00024127084
90	0xbdf50fc0	-0.11965895
91	0x3e0cf6ff	0.13766097
92	0xbd164b4a	-0.036692895
93	0x3efe5df2	0.4968105
94	0xbc5d4fa5	-0.013507758
95	0xbd8af300	-0.0678463
96	0xbd71e525	-0.05905642
97	0x3f33a183	0.7016832
98	0xbc9844c0	-0.01858747
99	0xbc93702b	-0.017997822
100	0x3daaca4d	0.08339367
101	0x3dab82fc	0.08374593
102	0x3f0406c2	0.5157281
103	0x3d4580b1	0.048218433
104	0x3c80e1d4	0.015732683
105	0x3ed65556	0.4186198
106	0x3f0e3775	0.5555337
107	0x3cd47c71	0.025938245
108	0x3e9f0c97	0.31064293
109	0x3c021f45	0.007942026
110	0xbb390b49	-0.0028235486
111	0xb5e1f10e	-1.6833962e-06
112	0x3acafad5	0.0015486131
113	0xbc10c7f2	-0.008836733
114	0x3beb8022	0.0071869055
115	0x3f15d3d7	0.58526367
116	0xbba6b1e1	-0.005087123
117	0xbb4265ac	-0.0029662652
118	0x3e8470c2	0.25867277
119	0x3dba22f2	0.090886965
120	0x3d827e4c	0.063717455
121	0x3ec8a4d2	0.39188248
122	0xbbc220bd	-0.005924313
123	0xbd96777f	-0.07347011
124	0xbd732936	-0.059365474
125	0x3e5fff09	0.21874632
126	0xbe4d66f1	-0.200588
127	0x3bce5b32	0.0062974924
128	0x3ad0e16c	0.0015936322
129	0x3c368829	0.011140862
130	0x3cfa02e8	0.030518964
131	0x3c7ec7b9	0.015550547
132	0x3d06faa1	0.032953862
133	0x3d06932a	0.03285519
134	0xbd358299	-0.044314
135	0xbcd45bf9	-0.025922762
136	0xbd085373	-0.03328271
137	0x3cc8d8ba	0.024517406
138	0xbd2c8f1d	-0.04212867
139	0xbc34b887	-0.011030323
140	0x3cd2703c	0.025688283
141	0xbd62dbaf	-0.055385288
142	0x3bdfad6b	0.006826093
143	0x3d5a2f25	0.053267617
144	0xbc772b54	-0.015086014
145	0xbd0e3829	-0.034721527
146	0x3d18c367	0.037295725
147	0xbc24e691	-0.010064737
148	0x3d1ec9bd	0.03876661
149	0xbd23c126	-0.039979123
150	0x3c8afb94	0.016965665
151	0xbcf68cc1	-0.030096414
152	0xb9902021	-0.00027489758
153	0x39c60b5c	0.00037773966
154	0x3d101f69	0.035186205
155	0xbd4bbcdd	-0.04974066
156	0xbcbcfeba	-0.023070682
157	0xbd7ba779	-0.06143901
158	0xbd1d0a3d	-0.038339842
159	0x3c6c6668	0.014428712
160	0x3ce2a3d7	0.027666016
161	0x3d9df249	0.07712228
162	0xbcbec2d3	-0.023286259
163	0x3cfb3990	0.030667096
164	0x3c3d79e5	0.011564706
165	0xbd94478f	-0.07240211
166	0x3d57c03f	0.052673575
167	0xbce4f355	-0.027948061
168	0xbd53621c	-0.051607236
169	0x3ceb2e45	0.028708586
170	0x3cfc0ea0	0.030768692
171	0xbd254863	-0.040352236
172	0xbda5d03e	-0.0809636
173	0xbc95202f	-0.018203823
174	0x3b196ccc	0.0023410795
175	0xbc21c593	-0.0098737655
176	0xbcc68621	-0.02423388
177	0xbd0d5b96	-0.03451117
178	0xbba5651c	-0.0050474536
179	0xbd2ebeb4	-0.042662337
180	0xbccea52a	-0.02522524
181	0x3d64c23a	0.05584929
182	0xbd3272f8	-0.043566674
183	0x3d2aaf8f	0.041671332
184	0xbd1afc4d	-0.03783827
185	0x3d4b8df8	0.04969594
186	0x3cc909cc	0.024540804
187	0xbcd0ba04	-0.025479324
188	0xbc360ad2	-0.011110978
189	0x3d105f33	0.03524704
190	0x3c005d6a	0.007834772
191	0xbcf5c6ec	-0.03000208
192	0xb92eec22	-0.000166819
193	0x3b7a53de	0.0038196961
194	0x3a52853b	0.0008030717
195	0x3d0be06b	0.03414957
196	0x3bc11ce3	0.005893336
197	0xb821bdb1	-3.8562055e-05
198	0x3d46f7d9	0.04857621
199	0x3c31cbee	0.010851843
200	0x3d84605f	0.06463694
201	0x3c3fdb39	0.011709982
202	0x3dad9349	0.08475358
203	0x3d09dd9c	0.03365861
204	0x3d79901f	0.06092846
205	0x3d66a4c1	0.056309465
206	0xbb5adc30	-0.0033395402
207	0xbcafbe3e	-0.02145302
208	0xbae960a9	-0.0017805296
209	0x3b5a905f	0.0033350212
210	0x3cc7d14c	0.024391793
211	0x3ba66b87	0.005078736
212	0x3d243101	0.040085796
213	0x39f51dfe	0.00046752387
214	0xbb5fbcf8	-0.0034139734
215	0x3d3a14c0	0.045429945
216	0x3c1d780f	0.009611144
217	0xb9a12496	-0.00030735572
218	0x3cf8bed7	0.030364437
219	0x3c1aa116	0.00943782
220	0x3b9eb62d	0.0048434944
221	0x3c47db27	0.012198246
222	0x3b72a1a8	0.0037022624
223	0xbae88a15	-0.0017741347
224	0xbc29b86b	-0.01035891
225	0xbcbbf19d	-0.022942359
226	0xba50d24d	-0.00079659076
227	0x3c2beb73	0.010493147
228	0x3cdae678	0.026721224
229	0x3d355323	0.04426874
230	0x3d43f224	0.047838345
231	0xbb9bb572	-0.0047518546
232	0xb9af42c5	-0.00033428348
233	0x3cee147c	0.029062502
234	0x3d17c9d6	0.03705772
235	0x3c130fd7	0.0089759445
236	0x3d119b87	0.035548713
237	0x3bc4a46e	0.006001047
238	0xbaeed93d	-0.0018222701
239	0xbb46254a	-0.0030234628
240	0xbbc7db1a	-0.006099117
241	0x3bbb8eda	0.0057238163
242	0x39c71c01	0.00037977102
243	0x3d2fc8d3	0.04291613
244	0x3c2a8c82	0.010409476
245	0xb9c78edb	-0.00038062673
246	0x3c7db110	0.0154841095
247	0x3d030664	0.031988516
248	0x3aba1419	0.0014196663
249	0x3b81b4af	0.0039583067
250	0x3bc6c555	0.0060660043
251	0x3c166993	0.009180444
252	0x3c7cde77	0.015433899
253	0x3c1ffc58	0.009764753
254	0x3d73083e	0.059334032
255	0xbadd8072	-0.0016899242

lstm_layers.1.weight_ih_l0 f4 [256, 64]
0	0x3c090479	0.008362883
1	0x3b23053e	0.002487495
2	0xbb1858d9	-0.0023246317
3	0x3b23c5f0	0.0024989806
4	0x3c9b605a	0.018966842
5	0x3b50d428	0.0031864736
6	0x3c030405	0.007996564
7	0x3c99a25a	0.018754173
8	0xbd18923a	-0.037248828
9	0xbb290ad4	-0.0025793808
10	0x3ce955e1	0.028483333
11	0xbbd23075	-0.006414468
12	0x3b0f131b	0.0021831456
13	0xbc9d0e9f	-0.019172011
14	0x3c152e1f	0.009105234
15	0xbcbf8f07	-0.02338363
16	0xbc260b61	-0.010134549
17	0x3cb555c2	0.02213562
18	0x3c23acfc	0.009989973
19	0x3c1f3677	0.009717575
20	0xbc278299	-0.010224008
21	0x3cfda4a9	0.030962305
22	0x3be37fd4	0.0069427285
23	0xbcb7f90c	-0.022457622
24	0x3baeb363	0.005331443
25	0x802ff8c8	-4.405514e-39
26	0xbcc01abd	-0.02345025
27	0xbbdeb37c	-0.0067962985
28	0x3a8f0e8a	0.0010914367
29	0xbcbb4479	-0.022859799
30	0x3c14c244	0.00907952
31	0x3969ff22	0.00022315656
32	0x3caebb5b	0.021329572
33	0xbc81dc99	-0.01585226
34	0x3ca4cc69	0.020117002
35	0xba79542b	-0.0009511138
36	0xbbf3d275	-0.00744086
37	0x3b1c73ce	0.0023872736
38	0xbadad230	-0.0016694721
39	0x3aa3c5e9	0.0012494895
40	0x3bc20303	0.005920769
41	0xbb8738da	-0.0041266503
42	0x00301ec8	4.419146e-39
43	0x3c3c8d60	0.011508316
44	0xbb6d4474	-0.0036204131
45	0x3c4678f8	0.012113802
46	0xbc03474f	-0.008012607
47	0xbbba0dd9	-0.0056779203
48	0xbbc6022f	-0.006042741
49	0x3be18c91	0.006883212
50	0xbb8130ea	-0.0039425986
51	0x3cb48e55	0.022040525
52	0x3bdf6296	0.0068171723
53	0xbb8e701d	-0.004346861
54	0x3bad6a8f	0.005292244
55	0xbc2c7ed3	-0.010528284
56	0x3c24d22d	0.010059875
57	0xbaa5678f	-0.0012619364
58	0x3bed79ad	0.007247171
59	0xbbc45a49	-0.005992208
60	0xbce063ff	-0.027391432
61	0xbc0cc08a	-0.008590827
62	0x3c47aaf4	0.0121867545
63	0xbc4b9914	-0.012426633
64	0xb98e99bd	-0.00027198895
65	0x3ae06aa0	0.001712162
66	0xbbd57291	-0.0065139015
67	0x3a9acc3e	0.0011810136
68	0x3c230a9d	0.009951261
69	0xbb3b43c7	-0.0028574334
70	0x3aa89788	0.0012862543
71	0xbb07b92c	-0.0020709736
72	0xbabbc43e	-0.0014325453
73	0x3ab26176	0.0013609368
74	0x3b6e1229	0.0036326742
75	0xbbcf2aea	-0.0063222544
76	0x3aac44cb	0.001314306
77	0x3a53581e	0.0008062142
78	0x37b283cf	2.1280632e-05
79	0x3c12bf6c	0.008956771
80	0x3aad82f3	0.0013237878
81	0x3c014eaf	0.007892295
82	0x3bf173b6	0.00736853
83	0x3ba8b5d3	0.0051486283
84	0x3c3d2975	0.011545529
85	0x3bb516b9	0.0055263904
86	0xbb52ca33	-0.0032163977
87	0x3b59c881	0.0033231082
88	0x39137196	0.00014061327
89	0x003172f4	4.541177e-39
90	0x3a8f5149	0.0010934259
91	0x3b5193e3	0.0031979016
92	0x3b956534	0.0045591835
93	0x3adcbf0b	0.0016841603
94	0xbba84caf	-0.0051360945
95	0x3bd3a219	0.0064585325
96	0xb9ee141c	-0.0004540988
97	0x3c53d125	0.012928282
98	0x3b0aa160	0.0021153316
99	0xbaec2885	-0.0018017447
100	0xba863f7a	-0.0010242306
101	0xbad015d3	-0.0015875645
102	0x395d1e94	0.00021087594
103	0xbb008b8d	-0.0019614429
104	0xbb7bb507	-0.0038407461
105	0x3bd007ec	0.0063486006
106	0x00300e6c	4.413277e-39
107	0xbaecf071	-0.0018077028
108	0xbb2c09b4	-0.00262509
109	0xba98a65a	-0.0011646256
110	0xbaf00467	-0.0018311859
111	0x3af16e6d	0.001841975
112	0x3b206a0c	0.0024477271
113	0x3b5c41f8	0.0033608656
114	0x3b13cf08	0.002255382
115	0x3ba93202	0.005163432
116	0xbaa12a7f	-0.001229599
117	0xbac6a9bb	-0.0015156785
118	0x39dd6479	0.00042227263
119	0x391efc42	0.00015162028
120	0x39990b0d	0.00029190668
121	0x3c09684a	0.008386681
122	0xbab8547a	-0.0014063262
123	0x3bafb239	0.005361822
124	0xb9681b13	-0.0002213533
125	0x3b86335d	0.0040954784
126	0x3baee081	0.0053368215
127	0x3b07b86b	0.0020709287
128	0x3a4f994a	0.0007919265
129	0x3b1b5598	0.002370214
130	0x3b80c6df	0.0039299573
131	0x3aef0cbd	0.0018238049
132	0x3a82f0d2	0.0009989983
133	0x3b08ce86	0.002087505
134	0xb89a0431	-7.344073e-05
135	0xb9e59ca9	-0.00043795005
136	0xbbe9f381	-0.0071396236
137	0x3b0ec040	0.002178207
138	0xbb54b374	-0.0032455595
139	0x3b1f41ae	0.0024300623
140	0x3b3b2846	0.002855794
141	0xbafe3306	-0.0019393868
142	0xba541fc9	-0.00080918946
143	0xbb4c6ea5	-0.003119388
144	0xb97596d4	-0.00023421209
145	0x3a242e37	0.000626299
146	0x3b05e507	0.00204307
147	0xbac6afbf	-0.0015158578
148	0xba15fb8b	-0.0005721382
149	0xbb321f65	-0.0027179357
150	0x3ab8e66c	0.0014106757
151	0xbb34525a	-0.0027514906
152	0x3aea7ff4	0.0017890916
153	0x002fba24	4.383043e-39
154	0x3b09c170	0.0021019839
155	0xba8f69cd	-0.0010941565
156	0x3aaac97d	0.0013030019
157	0xbac5cb13	-0.0015090428
158	0xbb25f7b6	-0.002532465
159	0xb9049084	-0.00012642337
160	0xbab29e50	-0.0013627503
161	0xbb179cd0	-0.002313424
162	0xbb08e76b	-0.002088989
163	0x3b1b9dcf	0.0023745184
164	0xbae865f7	-0.0017730583
165	0xbb4a620c	-0.0030881194
166	0x3a89807a	0.001049056
167	0xbb00395d	-0.0019565441
168	0x3a3149a2	0.00067629863
169	0x3b4954c4	0.003072069
170	0x802fff6c	-4.407896e-39
171	0xba92921f	-0.0011182463
172	0xbb40ccc0	-0.0029418916
173	0xb9826417	-0.00024870105
174	0xb9cecf04	-0.0003944562
175	0xb98b3f62	-0.0002655937
176	0xb8e70c97	-0.000110172834
177	0x3a68dd12	0.00088830397
178	0x38d72a7f	0.000102599144
179	0xbb20838a	-0.0024492466
180	0x3a1887d3	0.0005818579
181	0x3ad0e623	0.0015937727
182	0xba051fe3	-0.0005078299
183	0x3b2293ec	0.0024807407
184	0xba93c678	-0.0011274358
185	0xbab52bc4	-0.0013822247
186	0xbaddf45e	-0.0016933789
187	0xbb1d2edc	-0.002398423
188	0x39322af3	0.00016991403
189	0x3a9694b7	0.0011488412
190	0x3a7bfb86	0.000961237
191	0xbac0db05	-0.001471371
192	0x3ae2ceb9	0.001730404
193	0xbbf6b59f	-0.007528975
194	0xbc093b4c	-0.008375954
195	0xbb22b9ac	-0.0024829907
196	0xbba639b2	-0.005072796
197	0xba622ae8	-0.00086276093
198	0xbb8c927e	-0.004289924
199	0x3c2446d8	0.010026656
200	0x3c2e98cd	0.010656548
201	0x3a42ad3d	0.0007426327
202	0x3a0f6e89	0.0005471488
203	0xbbd28c15	-0.0064253905
204	0xbb7e819a	-0.0038834573
205	0x3bbebbde	0.0058207354
206	0xbb44afc9	-0.0030012003
207	0x3b46cbbe	0.0030333842
208	0xba67c2c8	-0.00088409754
209	0xbb3719e7	-0.0027939023
210	0x3a58ac60	0.0008265432
211	0xbb15afdb	-0.0022840414
212	0xbbdf75c1	-0.0068194573
213	0x3b5d5880	0.0033774674
214	0x399b1e71	0.00029586584
215	0x3af846cf	0.0018942001
216	0xbb7d72de	-0.0038673203
217	0x80354bb1	-4.894434e-39
218	0x3b736cde	0.0037143747
219	0x3bf62307	0.0075115
220	0xb8fc0ba3	-0.00012018464
221	0x3bec8061	0.0072174524
222	0x3bf6e503	0.0075346245
223	0x3a2bb6f1	0.0006550393
224	0xbb934ffd	-0.0044956193
225	0x3a8df257	0.0010829669
226	0x3aa6276e	0.0012676546
227	0x3bb00a57	0.0053723264
228	0x3a7ff5c9	0.0009764103
229	0x3b4df286	0.0031425073
230	0xbb5825e9	-0.003298158
231	0x3b384551	0.0028117488
232	0xbad4be39	-0.0016231007
233	0x3810fd18	3.4567987e-05
234	0x002ff77a	4.405046e-39
235	0x3b21ae01	0.0024670365
236	0x3bbd7ba4	0.0057825614
237	0xbac00cbf	-0.0014652236
238	0xbba006d8	-0.0048836283
239	0x3b19c6e2	0.002346449
240	0xbb956fc0	-0.004560441
241	0xbb68235d	-0.0035421469
242	0xb9318c93	-0.00016932403
243	0xbb0e3118	-0.0021696743
244	0xbac1163b	-0.0014731357
245	0xba5e5b0c	-0.0008482195
246	0xbbb1e999	-0.0054294583
247	0xbb53f943	-0.0032344616
248	0xbae7da81	-0.0017689021
249	0x38d2e62a	0.00010056452
250	0xbb32022f	-0.0027161946
251	0xba906a80	-0.0011018068
252	0x3b51e096	0.0032024733
253	0x3ba71d88	0.005099956
254	0x3a6d288d	0.0009046875
255	0x3b7175df	0.0036843938

lstm_layers.1.weight_hh_l0 f4 [256, 64]
0	0xbab46a6d	-0.0013764628
1	0xbba1d91f	-0.004939213
2	0xbb28a679	-0.002573399
3	0xb93dd73f	-0.0001810463
4	0xbaa29586	-0.0012404181
5	0xbb581e1c	-0.003297693
6	0xbb632f7d	-0.0034665756
7	0xb72a9122	-1.0166581e-05
8	0x3a67b78d	0.0008839302
9	0xbac35d3b	-0.0014905104
10	0xbc1576b9	-0.009122544
11	0xbab200b5	-0.0013580533
12	0x393169ec	0.00016919494
13	0xb8dbdb0f	-0.000104835366
14	0x39456544	0.00018825108
15	0x3973fef3	0.00023269262
16	0x395a7b8e	0.00020836128
17	0xb83f7475	-4.5646408e-05
18	0xba29553c	-0.0006459539
19	0xbaf86764	-0.0018951711
20	0xbc02a594	-0.007974047
21	0xb6c41ab4	-5.844364e-06
22	0xbb8ab6e5	-0.0042332285
23	0xb8a25b3b	-7.741755e-05
24	0xb8302a4a	-4.2001055e-05
25	0x3b8a8c4b	0.00422815
26	0x3b0de46e	0.0021651047
27	0xba666ec4	-0.0008790309
28	0xbadf4dc7	-0.0017036729
29	0x38e3b2ca	0.000108575055
30	0x3ab5a1c8	0.0013857419
31	0xb8b33140	-8.544559e-05
32	0xb9890ee0	-0.0002614176
33	0xbaf9ac57	-0.0019048554
34	0x3b488226	0.0030595153
35	0xbb957925	-0.0045615607
36	0x3b0492a5	0.0020229009
37	0xb9349e40	-0.0001722509
38	0xb93d48c1	-0.00018051548
39	0xba06d7da	-0.0005143859
40	0xb9b59acc	-0.00034638343
41	0x3937b725	0.00017520467
42	0x3b4caee4	0.0031232173
43	0xba145a78	-0.0005659233
44	0xbb6b9fed	-0.0035953477
45	0xbb8e8d8a	-0.004350369
46	0xbab9560f	-0.0014140027
47	0x3b338056	0.0027389727
48	0xbba89261	-0.005144403
49	0x38f91938	0.000118779426
50	0x3c270ead	0.01019637
51	0x3a3c9fbd	0.0007195434
52	0xba951385	-0.0011373615
53	0x3b4ac0e1	0.0030937719
54	0xbbe07783	-0.0068501844
55	0x3b66e9be	0.0035234536
56	0x3ba47e19	0.005019915
57	0xbb8e08cb	-0.0043345443
58	0xb8ba5bac	-8.886246e-05
59	0xba7beb34	-0.0009609938
60	0x3be337a6	0.006934124
61	0xbafbde1e	-0.0019215976
62	0x3ab90d7d	0.00141184
63	0xbaf270f5	-0.0018496799
64	0x3acb4a8d	0.0015509889
65	0xba80ed6e	-0.0009836385
66	0xba593e25	-0.00082871533
67	0xb9eceb3f	-0.000451887
68	0x3a98777c	0.0011632289
69	0xba8139f8	-0.0009859195
70	0xba3fae26	-0.0007312022
71	0x3897fdf8	7.2475465e-05
72	0xbab8a59e	-0.0014087444
73	0xba8bf0d6	-0.0010676633
74	0xb9d1958e	-0.00039975013
75	0xba37c05d	-0.00070095604
76	0xba8611d7	-0.0010228705
77	0xb884c4df	-6.3309206e-05
78	0x3897ac0e	7.232289e-05
79	0x3a259333	0.0006316185
80	0x38d6af9e	0.000102370264
81	0x38ad11b4	8.25258e-05
82	0x39fdd416	0.00048413937
83	0x3aff87a4	0.001949538
84	0xbab6fd11	-0.0013960918
85	0x383e2f27	4.5343444e-05
86	0x3a878282	0.0010338577
87	0x37e0e7ea	2.6810874e-05
88	0x37f5bec9	2.9295117e-05
89	0x3b2aa411	0.0026037733
90	0x3aade7a9	0.0013267893
91	0x388c565c	6.691806e-05
92	0xbaa5fc8a	-0.0012663763
93	0x385927f3	5.1774037e-05
94	0x3ae8876b	0.0017740553
95	0xbb39a91e	-0.0028329561
96	0x3b0015d4	0.001954426
97	0xba88ee90	-0.0010447074
98	0x3a19c135	0.0005865277
99	0x3aba7b1b	0.0014227362
100	0x3ae63737	0.0017564063
101	0xbb5b2a36	-0.0033441908
102	0xb893a950	-7.041043e-05
103	0xba136450	-0.00056225527
104	0xba479b06	-0.0007614348
105	0x38989316	7.275322e-05
106	0x3ada0e6a	0.0016636376
107	0x3b213e1a	0.0024603666
108	0xbaf9f269	-0.0019069436
109	0xbb6008da	-0.0034184963
110	0x3b1a7f7c	0.0023574522
111	0x39b7fca2	0.00035092706
112	0xb7de4f66	-2.6501435e-05
113	0x38863fed	6.401525e-05
114	0x3af8a4f1	0.0018970055
115	0x3a862675	0.001023485
116	0xb91e15ad	-0.00015076129
117	0xb972f1a6	-0.0002316894
118	0xba35319d	-0.0006911995
119	0xba87fa43	-0.0010374266
120	0x3ab4a15f	0.0013781002
121	0x3a88aa6d	0.0010426767
122	0xb7dacfcb	-2.6084386e-05
123	0x3a806d28	0.0009798156
124	0x3a9fc099	0.0012188136
125	0x398ea495	0.00027206974
126	0xbad5d0e6	-0.0016312867
127	0x3a0e99aa	0.0005439768
128	0xb9b91cee	-0.00035307504
129	0x38cca2b1	9.757782e-05
130	0x3a599fed	0.0008301724
131	0x39b9248b	0.00035313176
132	0x38b32bff	8.54358e-05
133	0x382587e2	3.9465616e-05
134	0x3ab98fcd	0.0014157236
135	0x375691e7	1.27893645e-05
136	0xb8e91356	-0.000111139074
137	0x39985227	0.00029052907
138	0x38d1dca4	0.00010006994
139	0xb9437772	-0.00018641146
140	0xb8ab0dbd	-8.156474e-05
141	0xb78f4322	-1.707819e-05
142	0x37bde8f9	2.2639042e-05
143	0x3a44cad2	0.0007507029
144	0x381ad03a	3.6910387e-05
145	0x375c703b	1.31391525e-05
146	0x39658707	0.00021889443
147	0xb825d24d	-3.9534923e-05
148	0xb9260001	-0.00015830995
149	0x37d46699	2.5320145e-05
150	0xb9eae5c4	-0.00044803147
151	0x3746bfc0	1.1846365e-05
152	0x3735a536	1.0826907e-05
153	0xba86cb1c	-0.001028392
154	0xb8f9da96	-0.0001191396
155	0xb8917cc2	-6.937377e-05
156	0x396bec92	0.00022499476
157	0x377a7992	1.49294665e-05
158	0xba26077b	-0.0006333512
159	0xba1c20fa	-0.00059558416
160	0xb9bf7a78	-0.00036521605
161	0xb8ff689d	-0.00012178833
162	0xb9f52c5e	-0.00046763098
163	0xba800644	-0.0009767492
164	0x398b4785	0.00026565432
165	0xba717868	-0.00092113623
166	0xb7af2b29	-2.0881724e-05
167	0x3a1de588	0.00060232775
168	0xb9d8c4ee	-0.00041345455
169	0xba251018	-0.00062966486
170	0xba5c6613	-0.0008407544
171	0x398f7144	0.00027359475
172	0x37af46d4	2.0894608e-05
173	0xb9c1b69b	-0.0003694788
174	0x3aa18c15	0.0012325073
175	0x39fbebaf	0.0004805005
176	0x3a5b0584	0.0008355009
177	0x37e029b3	2.6722299e-05
178	0xba8a8630	-0.0010568555
179	0x3a60841a	0.00085646065
180	0xb981e1cb	-0.00024773026
181	0xb8006183	-3.0608393e-05
182	0xb99347e3	-0.00028091585
183	0xb8d1e76c	-0.00010009002
184	0x398e5927	0.00027150774
185	0xb90cc01b	-0.00013423005
186	0xb703b3f7	-7.85011e-06
187	0x39ad4aa1	0.00033052734
188	0xba8a9c72	-0.0010575189
189	0xb9c1c5f8	-0.00036959327
190	0xb833a507	-4.283062e-05
191	0x3a52eb27	0.00080459047
192	0xba42197e	-0.00074043113
193	0x3a7b0cfe	0.0009576826
194	0xba9929f7	-0.001168548
195	0x3ac46f0f	0.0014986711
196	0xbaa89bce	-0.0012863816
197	0x389734b5	7.2100585e-05
198	0x3a9a79d4	0.0011785575
199	0x38eefe91	0.00011396141
200	0x3ac5740d	0.0015064493
201	0xb91fa0bd	-0.00015223301
202	0x3a0dfc34	0.00054163043
203	0x39e8fa77	0.000444371
204	0x3b09a8d5	0.0021005173
205	0x3911aae4	0.0001389194
206	0xb90ce658	-0.0001343725
207	0xb9be05b6	-0.0003624388
208	0xb8fb7f3a	-0.000119923105
209	0x3922aab4	0.00015513116
210	0xbaca3a7e	-0.0015428809
211	0xbacab39a	-0.0015464902
212	0x3abaa3a0	0.0014239438
213	0xb8be7222	-9.081165e-05
214	0x393f7a0e	0.00018260648
215	0xb91d35fd	-0.00014992799
216	0xb9173595	-0.00014420443
217	0xbb076743	-0.0020660914
218	0xba1f4804	-0.00060761
219	0x3ab6e12d	0.0013952606
220	0xb9fb7d0d	-0.0004796762
221	0xb9239aad	-0.00015602513
222	0x3841cb78	4.620428e-05
223	0x3b12bf74	0.0022391947
224	0x3a75dc56	0.0009378841
225	0x3a84d7f0	0.0010135155
226	0xba193e17	-0.0005845739
227	0x3959b559	0.0002076229
228	0xba4eeb13	-0.0007893305
229	0x3b093f43	0.0020942248
230	0x391ebe7a	0.00015139012
231	0x3938d889	0.00017628273
232	0x3ab4aff8	0.0013785353
233	0x3a1ce225	0.0005984626
234	0xba446530	-0.0007491885
235	0xbad2a1e8	-0.001606998
236	0x3a9b0056	0.0011825662
237	0x3a893faa	0.0010471244
238	0xbb2c0354	-0.00262471
239	0x396b8d5e	0.0002246401
240	0x39898807	0.00026232025
241	0xb8cd7a0f	-9.797897e-05
242	0xbafbd587	-0.0019213416
243	0xb9f7acf7	-0.0004724038
244	0x3a38be99	0.0007047444
245	0x381dffd1	3.7669965e-05
246	0xba0b9195	-0.00053241226
247	0xbaea3ac1	-0.0017870293
248	0x3a05275c	0.00050794124
249	0xbabb5318	-0.0014291732
250	0x3913621a	0.00014055558
251	0xbafee146	-0.0019445799
252	0xb96a085e	-0.00022319096
253	0x3a603556	0.00085528695
254	0xba48357a	-0.0007637363
255	0x3ac0894f	0.0014689359

lstm_layers.1.bias_ih_l0 f4 [256]
0	0x3c7399db	0.014868225
1	0x3b3e7e02	0.0029066806
2	0x3a569480	0.00081855804
3	0x3b06b3bf	0.0020553914
4	0x3c3b8435	0.011445095
5	0x3852423a	5.012958e-05
6	0x3b7275ba	0.003699644
7	0xb8560539	-5.102644e-05
8	0xbbe0f3d6	-0.006865005
9	0xb94dcc46	-0.00019626421
10	0x3bd2f2fd	0.006437658
11	0xba4e4ddf	-0.000786988
12	0x3c999294	0.018746652
13	0xb88ae640	-6.62324e-05
14	0xb885d6b4	-6.381926e-05
15	0x3c161251	0.00915964
16	0xb877210e	-5.8920174e-05
17	0xb8b5b8cb	-8.665173e-05
18	0xb904eb92	-0.00012676258
19	0x3ac2e60a	0.0014869582
20	0x3b775bdc	0.0037743961
21	0xb83ddb27	-4.5265213e-05
22	0x3aa424da	0.001252319
23	0xb8a1f88a	-7.723372e-05
24	0xb89d0aa2	-7.488324e-05
25	0xbaa64077	-0.0012684007
26	0x3c4759ce	0.012167407
27	0x3bd0187d	0.0063505755
28	0xba572a9a	-0.0008207947
29	0xb8a221bd	-7.731046e-05
30	0x3b2eb7c8	0.0026659835
31	0x3c559099	0.013034963
32	0x3cf6839c	0.030092053
33	0xbbf6eb04	-0.0075353403
34	0x3a93cd81	0.0011276455
35	0x3c33e6cd	0.01098032
36	0xb9eb01f6	-0.00044824154
37	0x3c232c40	0.0099592805
38	0xb8a4bae3	-7.85494e-05
39	0x3b9a857d	0.00471562
40	0x3b46bee3	0.003032618
41	0x3aa46807	0.001254321
42	0x3bad7e99	0.0052946326
43	0x3a3a4687	0.00071058463
44	0x3b74718b	0.0037299122
45	0xbbf82b5a	-0.0075735273
46	0x3ca24ca4	0.019811936
47	0x3b407566	0.002936685
48	0x3bef9682	0.007311643
49	0xb826f5d4	-3.980643e-05
50	0x3ba34ebb	0.0049837506
51	0x3c879a89	0.01655318
52	0xb9b0e80a	-0.00033742219
53	0x3bf9047c	0.0075994115
54	0x3c9ae682	0.018908743
55	0xba6ae0c5	-0.0008959885
56	0x3af0c1b1	0.0018368271
57	0x3ccd4778	0.025058493
58	0xb8920cef	-6.9642316e-05
59	0x3a9ba6d0	0.0011875276
60	0x3b8c155d	0.0042750076
61	0x3a9e3967	0.0012071551
62	0x3b5cfe2e	0.003372084
63	0x3bc495c1	0.0059992974
64	0x3d447528	0.04796329
65	0x3a4af3eb	0.0007742035
66	0x3b32a84c	0.0027260957
67	0x3d2d4036	0.042297564
68	0x3d63e804	0.05564119
69	0xbc99b982	-0.018765215
70	0x3d1f2bd7	0.03886017
71	0xb81c93ac	-3.733083e-05
72	0xbcc58068	-0.02410908
73	0xbb876058	-0.004131358
74	0xba9cb84e	-0.0011956783
75	0xbd26513e	-0.040604822
76	0xbe025035	-0.12725909
77	0xb84f4e59	-4.9425613e-05
78	0xb8440370	-4.6733243e-05
79	0x3aa0fd16	0.0012282457
80	0xb8335697	-4.275757e-05
81	0xb887aff9	-6.470079e-05
82	0xbc6d73e6	-0.014492964
83	0xbce281f8	-0.027649865
84	0xbc924258	-0.0178539
85	0xb81034db	-3.43815e-05
86	0x39206027	0.00015294609
87	0xb869de28	-5.5758428e-05
88	0xb8653ebd	-5.4656284e-05
89	0x3d9e24f6	0.077218935
90	0x3bff37b3	0.0077886223
91	0x3ce5fd92	0.028075013
92	0xbb193d57	-0.0023382509
93	0xb8745354	-5.825174e-05
94	0xba8d4fe5	-0.0010781257
95	0xbc554344	-0.013016526
96	0xbd3a45a1	-0.04547656
97	0xbcbd3e92	-0.023101125
98	0x3c8f3cce	0.017485049
99	0x3d81b2cb	0.0633293
100	0x3ad396c8	0.0016142959
101	0xbbfa16f7	-0.007632132
102	0xb87180d2	-5.757885e-05
103	0x3de2317e	0.11044596
104	0xba76f01f	-0.0009419936
105	0xbc57b9e6	-0.01316688
106	0x3ba15e4b	0.0049245707
107	0x3ba06473	0.004894787
108	0xbccec2d5	-0.025239388
109	0xbcb79ed7	-0.022414608
110	0xbd58e881	-0.052956108
111	0x3d3346b2	0.043768592
112	0x3e4d19a8	0.20029318
113	0xb801a96f	-3.0913794e-05
114	0xbae2c1b6	-0.0017300162
115	0xbe047b94	-0.12937766
116	0xbb4b5a9f	-0.0031029356
117	0xbb9f6acc	-0.004865026
118	0xbcbea81e	-0.023273524
119	0x3bcb214f	0.006199039
120	0xbbda2a46	-0.0066578714
121	0x3d840ef8	0.064481676
122	0xb85ca292	-5.2603493e-05
123	0x3c15ec07	0.009150512
124	0x3d5c54a3	0.053791653
125	0xbcaf3041	-0.021385314
126	0xbd2f2b86	-0.042766117
127	0x39e790fe	0.0004416778
128	0x3d994721	0.0748427
129	0x3ac7de3a	0.0015248724
130	0x3b4289e1	0.0029684233
131	0xbd59452d	-0.053044487
132	0x3c96e155	0.018417994
133	0xbc3e69f4	-0.011621941
134	0x3c11e7d0	0.008905366
135	0xb98b6820	-0.00026589725
136	0xbca2e682	-0.019885305
137	0x3cdc4e6e	0.026892867
138	0x3b403792	0.0029329997
139	0xbcaf1621	-0.021372857
140	0xbce66024	-0.028122015
141	0xb6b805e7	-5.4843144e-06
142	0xb8d21caf	-0.00010018923
143	0x3c2cba72	0.010542499
144	0xb8f26dc1	-0.000115599025
145	0xb9ab99bb	-0.000327302
146	0x3c2059bd	0.00978702
147	0x3b917121	0.004438535
148	0x3b6cc507	0.003612818
149	0x394e2245	0.00019658457
150	0x3cc39c6a	0.023878295
151	0x39984dd0	0.00029049674
152	0x3990f366	0.00027647166
153	0x3cfa74e0	0.030573308
154	0x3d8174dd	0.06321118
155	0x3d0bfeea	0.034178652
156	0xbcde8c1a	-0.027166415
157	0x37a1e8d4	1.9301115e-05
158	0xbc0da7e3	-0.008645984
159	0xbca14ad5	-0.019689003
160	0x3e0321c8	0.12805855
161	0xbc4edecc	-0.012626361
162	0x3b5f1bb7	0.003404362
163	0x3d69a18e	0.057038836
164	0xbac1ad44	-0.0014776369
165	0x3c323954	0.010877926
166	0x392bb2db	0.0001637446
167	0x3cdbad5a	0.026816059
168	0x3a31030b	0.00067524676
169	0xbd50eb5c	-0.051005706
170	0x3d13f433	0.03612156
171	0x3bb78c71	0.0056014587
172	0xbc2a8b7b	-0.010409231
173	0xbcb2b211	-0.021813424
174	0x3bdd1bea	0.0067477124
175	0x3c011793	0.007879156
176	0x3cf0fe29	0.029418068
177	0x3901fb42	0.00012396
178	0xbce0700c	-0.027397178
179	0xbd4f1837	-0.050560202
180	0xb9154e3e	-0.00014238895
181	0xbc6e6acf	-0.014551832
182	0xbcf67037	-0.030082805
183	0xbc71a857	-0.014749608
184	0x3984d5df	0.00025336348
185	0x3d9ef50f	0.07761585
186	0xb89c408e	-7.450684e-05
187	0x3cd3925d	0.025826627
188	0xbd442bb3	-0.047893237
189	0xbcec7a85	-0.028867016
190	0xbc2e7148	-0.010647126
191	0x3b9389a8	0.004502494
192	0xbd267374	-0.04063745
193	0x3b43a696	0.0029853932
194	0x3a351692	0.0006907965
195	0x3adde2f1	0.0016928596
196	0x3c4139b4	0.011793543
197	0x3a92f7d7	0.0011212778
198	0x3a2797a2	0.00063931395
199	0xb85605d9	-5.1027022e-05
200	0xbc2dc49b	-0.010605956
201	0xb3af5d76	-8.166073e-08
202	0x3bec425f	0.0072100605
203	0x3b046329	0.0020200706
204	0x3c9b82dd	0.018983299
205	0xb88ae6fd	-6.623378e-05
206	0xb885d73a	-6.382023e-05
207	0x3c172ed3	0.009227472
208	0xb8772219	-5.8921145e-05
209	0xb8b5b9a5	-8.6653316e-05
210	0xb95019f4	-0.00019846094
211	0x3a9add41	0.0011815206
212	0x3b7ee279	0.0038892312
213	0xb83ddc6c	-4.5266395e-05
214	0xb9f691af	-0.0004702932
215	0xb8a1f96a	-7.723535e-05
216	0xb89d0b77	-7.488479e-05
217	0xbd47c5dd	-0.04877268
218	0xbb9f20ed	-0.00485622
219	0x3b80c19a	0.003929329
220	0xba5f2312	-0.0008512001
221	0xb8a222a5	-7.731215e-05
222	0x3b134ef2	0.0022477475
223	0x3c5ae7d0	0.0133609325
224	0xbcdf4458	-0.027254269
225	0xbbf08fd5	-0.007341365
226	0x3a99eb17	0.0011743036
227	0xbcf382e0	-0.029725492
228	0xb9ec462c	-0.0004506571
229	0x3c05494a	0.008135149
230	0xb8a4bba9	-7.855084e-05
231	0x3b50200d	0.0031757385
232	0x3b3bb948	0.0028644372
233	0xbad8e536	-0.0016547802
234	0xbb98e8ea	-0.0046664374
235	0x3a26b52c	0.0006359394
236	0x3b0f273d	0.0021843456
237	0x3bc7bfea	0.006095876
238	0x3d1a4960	0.037667632
239	0x3b4b52e1	0.0031024741
240	0x3bf9a245	0.007618221
241	0xb826f693	-3.9807124e-05
242	0x395bbfb5	0.00020956884
243	0x3c73103b	0.014835413
244	0xb9c18ab0	-0.0003691516
245	0x3bf9df24	0.0076254774
246	0x3c944ebb	0.018103948
247	0xba5136fe	-0.0007980912
248	0x3b06f2ed	0.0020591572
249	0xbcd066cd	-0.025439644
250	0xb8920d9e	-6.964359e-05
251	0x3aa629c0	0.0012677237
252	0xba15d080	-0.0005714968
253	0x3a9f442d	0.0012151055
254	0x3b7ff11f	0.0039053631
255	0xbcea3ba9	-0.028592901
