transformers/results/pimentel_mlp_random/pimentel_mlp_random/configs/hyperopt/trial_30/pimentel_mlp_random_model_20251209_093305.pt (torch, 172889 bytes, 31 tensors)

_network.0.weight f4 [96, 5]
00000000: cead f03e 4c10 f63e 3641 15be a346 9e3e
00000010: 24f9 5abc 60e3 823e 93cc 13be ab25 b93e
00000020: 26d6 cf3e f72e b0bd 9e1c 173f f683 15bd
00000030: 44a7 893e 61a4 253d 70a8 253d 0685 483e
00000040: 06c9 0e3f 19da 9f3c 366e ff3c ed8e cd3c
00000050: b9ba ccbe 111a cd3c f150 80be d171 613e
00000060: ba01 8fbe a19c d3be d0de c8ba d24b b8be
00000070: ed12 e2ba 1324 25be 3343 533f 57dc 5abe
00000080: e6ae 813e 98d2 1c3b 29d4 e9bc c39f ae3e
00000090: 1830 bf3c 41e7 cb3e c27b 153e d5e0 993c
000000a0: 0bca b53e 2bb6 bbbd f4f4 85bc 64c7 ca3e
000000b0: 025d 803d 5ed8 68be 08a6 9e3e 8fe4 a33b
000000c0: e2b4 a13e d4e4 97be 2396 1fbf 72ad a9bd
000000d0: 06d5 6bbe c07b 9d3e 07f6 fb3d 6a00 a93e
000000e0: fe51 223e 28b5 e1bc f42f cc3e e40c c1bc
000000f0: 887a d93d 4202 a7be e88c 093e eb14 62be
00000100: 35e7 843e db6a 013e 49aa b03e bf4e 08bf
00000110: f6ee 4abe 83f2 27be c3e1 0b3f b27c 533a
00000120: 6874 ff3e 8c56 c6be ae2a 0ebe 84dc d5be
00000130: 4528 c0be af34 a83d c5c3 753e 7305 973e
00000140: 0ddb aebe 28c0 77be 2bba 8e3e e0b1 91be
00000150: d454 6f3e 942c 24bd 0319 ab3c 529f 93bf
00000160: 0604 48bb d3cb 973d 4bcc 8f3e a648 423d
00000170: f1d8 b43e 03f9 a13e 5229 32bc 8193 62be
00000180: 37f7 f03e 0253 4ebe 98f6 43be 69de fbbe
00000190: 6fa4 eebe edbf 953d 4beb 113d 92c8 75be
000001a0: 0439 8a3d 3de6 f9bd 2003 03bf deeb 05bf
000001b0: 339a a1be e9a3 b3be bf3d 2c3f c6e0 abbc
000001c0: ad1c 7a3e d476 afbe 6b30 98bb 0cc1 89bd
000001d0: ac63 823d 9878 86bf 5cb9 303c 1379 23bd
000001e0: be1f f03d cd56 24be a1ba 0e3e c186 edbe
000001f0: baea aebd 279a 45be 9dcd bbbb 2f5e d5be
00000200: 3c5f 073f 721d e2bc 6b2a 283f 5f75 fb3b
00000210: 7e86 a4be edb2 7d3e a30c 61bc 50ae c6bd
00000220: 257c 43be be35 2dbf b795 2b3e 93f1 22be
00000230: c16a d23e 4087 9cbe 7a79 9e3e 6740 b7be
00000240: e13d 203c 2376 8d3c 01cb 1c3e 1aa9 f23d
00000250: b979 5b3f 9035 0b3d b1fc 703e 7821 a8bd
00000260: 38dc 303e c3b6 98be 7944 203f a00a eebe
00000270: 4476 9c3e c4cd 153c 314a 033e b612 30be
00000280: f6df 1b3f 8695 28bd c3e5 d73d b34e a1be
00000290: fe64 ed39 bf23 f43b 0520 b9be 7fcf 993e
000002a0: b67c 113e 839d d9be 3e3f f2be 4f8d 213d
000002b0: 532e 173e cc29 27be cb24 e9bb fff8 58bd
000002c0: e340 92be bca6 82bd 2b71 3f3f aab0 53be
000002d0: 784d 593e eaee 583e 8db7 5e3d 4a0f d3bd
000002e0: e209 d33e f67e 393f e134 273d 2fa8 08bd
000002f0: 5bc3 4dbd 5887 8dbc 2890 9ebd 5173 2ebd
00000300: 1ae9 f73d d61f 303f 0c80 64ba 8e19 90be
00000310: 3a77 953b 5210 9dbd 3cc1 333e ca3c 133d
00000320: 5ef1 21bf 8918 b3bd 3aa5 443e 083b 223e
00000330: 484b 2cbd 0cff 38be 029c 71be 9782 37bf
00000340: 78ca 0ebe 6f3d f33d d478 1f3f 5975 043e
00000350: 009d 7fbe fa27 2fbe 2955 1a3c af4e 3a3f
00000360: 0023 23bd 52a7 14be 6b00 023e 4afc 2d3c
00000370: 0091 f2be bf14 8a3e 27e1 71be 1026 d0bd
00000380: 783a 6ebe a006 ad3e efae bf3e 3589 5b3e
00000390: b67d 0cbe 30aa 24bf 2c7b 27bf 6b43 923e
000003a0: a879 9a3d 1858 9b3e dc80 293e 94fd da3e
000003b0: 86b1 bdbd 6e00 8bbe 1666 c9be 7770 69bd
000003c0: 2c7b f83e c014 c1bd 0063 f6bc 329a 70be
000003d0: 543b 8dbb ee27 d1be b83c 96be 75ec a73d
000003e0: 7974 36be fd61 b93e 6251 64bd 76c7 88be
000003f0: 8933 0a3e 0698 d1be 55ce 2dbb 1f07 24bf
0.47007602 0.4805931 -0.14575657 0.30913267 -0.013365064 0.25564098 -0.14433508 0.3616155
0.4059307 -0.08602708 0.5902804 -0.0365028 0.26885426 0.040439967 0.040443838 0.19581994
0.5577549 0.019513177 0.031180482 0.025092566 -0.39986208 0.025036843 -0.25061753 0.22016074
-0.27931005 -0.41330436 -0.0015325192 -0.35995346 -0.0017248072 -0.16127042 0.8252441 -0.21373115
0.2532875 0.0023929235 -0.028543549 0.34106264 0.023338363 0.3982487 0.14597991 0.018783966
0.3550571 -0.09165605 -0.016352154 0.39605248 0.0626774 -0.22738788 0.30986047 0.0050016115
0.31583315 -0.2966677 -0.62338465 -0.08285035 -0.2303048 0.30758476 0.12302785 0.33008128
0.1585159 -0.027552202 0.39880335 -0.023565717 0.10619074 -0.3261891 0.13432658 -0.22078292
0.25957647 0.12638418 0.34504917 -0.53245157 -0.19817719 -0.16401105 0.5464136 0.0008067592
0.49893498 -0.38737905 -0.13883469 -0.41769803 -0.37530723 0.082131736 0.24000461 0.29496345
-0.34151497 -0.24194396 0.2787641 -0.2845602 0.23372203 -0.040081576 0.02088595 -1.1532996
-0.0030519976 0.07411923 0.2808555 0.047432564 0.35321763 0.31635293 -0.010874109 -0.22126581
0.4706361 -0.20148852 -0.19137037 -0.49193123 -0.46609828 0.073119976 0.035624783 -0.24002293
0.06749156 -0.122021176 -0.51176643 -0.5231303 -0.31562957 -0.3508599 0.6728172 -0.020981204
0.24425001 -0.34270346 -0.0046444437 -0.06726274 0.06366667 -1.0505552 0.010786381 -0.039910387
0.11724804 -0.16048737 0.13938381 -0.46391872 -0.08540864 -0.19297086 -0.005731298 -0.4167342
0.5287969 -0.027601931 0.65689725 0.007673904 -0.3213386 0.24775286 -0.013735923 -0.09701216
-0.19090326 -0.6766013 0.1675633 -0.15912466 0.41097072 -0.30571938 0.30952054 -0.35791323
0.009780378 0.017268246 0.15311815 0.1184866 0.8573261 0.033986628 0.23533894 -0.08209509
0.17271507 -0.29826936 0.6260448 -0.4649248 0.3055898 0.009143297 0.1282127 -0.17194638
0.6088861 -0.04115822 0.105418704 -0.31505355 0.00045279408 0.0074505503 -0.3615724 0.3004112
0.1420773 -0.42502984 -0.47313875 0.039441403 0.14763765 -0.16324538 -0.0071149818 -0.052971836
-0.2856513 -0.06379458 0.74782056 -0.2067286 0.21220958 0.21184888 0.054374266 -0.103056505
0.41218477 0.7245935 0.040821914 -0.033363517 -0.050235134 -0.017276451 -0.077423394 -0.042590443
0.121050075 0.6879858 -0.000871659 -0.28144497 0.004561332 -0.076691285 0.17554182 0.035946645
-0.6325892 -0.08744914 0.19203654 0.15842831 -0.04206398 -0.18066043 -0.23594669 -0.7168364
-0.13944423 0.11876952 0.62293744 0.1293539 -0.24962234 -0.17105094 0.009419718 0.7277631
-0.0398283 -0.14516953 0.12695472 0.010619232 -0.4737625 0.26968953 -0.23621045 -0.1016351
-0.23264492 0.33794117 0.3743815 0.21439059 -0.1371983 -0.64322186 -0.6542232 0.2856706
0.07542735 0.30340648 0.16553062 0.4277159 -0.092623755 -0.27148765 -0.39335698 -0.05699202
0.48531473 -0.09427786 -0.030076504 -0.23496321 -0.004310051 -0.40850776 -0.293432 0.081993975
-0.17817868 0.36207572 -0.055741675 -0.26714677 0.13496222 -0.40936297 -0.0026520689 -0.64073366

_network.0.bias f4 [96]
00000000: 3b88 673e 1c13 31be fe54 83be 24ca 6a3d
00000010: fe5a 7abe 8d5f 56be dd40 813e 7a39 a1bd
00000020: a53c d03e 9a28 d73e dd99 083e 4c64 1c3e
00000030: 99ff c73d d821 003c 563c 06bd ac3e c43b
00000040: fe63 2e3e 3076 d33e e152 e9bd 0a8d 3abe
00000050: ae5e f2bd bcb3 59be 3eb8 a93d 4aaa a73e
00000060: 442d b13e 044b 4f3e 1d36 a1be 4da6 70be
00000070: d2a2 c9bd 58d0 a7bd 957e 093d 17c1 b5be
00000080: d888 393e 85be acbe 121c 7cbe 7502 bdbe
00000090: ff04 be3e 1c73 dfbe f7c1 aa3e 7ff2 07bc
000000a0: 96c1 9ebc 8868 8d3e c89c 12bd c098 b63e
000000b0: 9909 a33e 3ea3 c3be 28fd 273e 7ea1 a93d
000000c0: 89d4 e53d f5e6 9e3d bc51 fb3d 2af7 19be
000000d0: 983a 4dbd 1d4e f93e a280 983e de35 88bc
000000e0: c6d2 c8be b9e3 9e3c 960f 9ebe 26d0 bb3e
000000f0: 4150 7dbe ee10 343c e4f7 adbd 2b4b 9e3d
00000100: 00bb d33e 0aa1 2e3d ab7b 813e e1e6 ab3e
00000110: d1cb b73e e05a 17be 1cf6 cbbd e2b4 563e
00000120: 6903 f5bd 2633 543e 13a7 adbd cb7d 97be
00000130: cc9b 393e 4203 9a3d afd2 473e 4618 e13e
00000140: ff13 813e 0de6 d53e f002 c23c a004 b2be
00000150: 0a2f 9ebe 5f1e 8fbe 2d14 cabe faaf 98be
00000160: 14f5 cdbe 060a d0be a65f 87be 2aa4 ddbe
00000170: 81cc 8abe db68 2d3e 2574 bc3e 2aff 0cbe
0.22610562 -0.17292446 -0.2565078 0.057321683 -0.24448773 -0.20934887 0.252448 -0.07872291
0.40671268 0.42023164 0.13339944 0.15272635 0.09765548 0.007820569 -0.032772385 0.0059889164
0.17030331 0.41301107 -0.11392761 -0.18217865 -0.11834465 -0.2125997 0.082870945 0.32747108
0.34604847 0.2024346 -0.31486598 -0.23500939 -0.09845509 -0.08194035 0.033567984 -0.35498878
0.18118608 -0.33739105 -0.24620083 -0.36915937 0.37113187 -0.4364251 0.33351108 -0.008297562
-0.019379418 0.27618814 -0.03579405 0.35663414 0.3184326 -0.3821048 0.16405165 0.08282755
0.112221785 0.07758895 0.12271449 -0.15035692 -0.050104707 0.48692408 0.2978564 -0.016627248
-0.39223307 0.019395696 -0.30871266 0.36682242 -0.24737646 0.0109903645 -0.08494547 0.07729181
0.41353607 0.042634048 0.25289664 0.33574584 0.35897687 -0.1478076 -0.09959051 0.20967439
-0.11963541 0.20722637 -0.084791325 -0.2958816 0.18125838 0.07520153 0.19513963 0.43963832
0.25210568 0.41777077 0.023683041 -0.34769154 -0.30895263 -0.2795286 -0.39468518 -0.2982176
-0.40226042 -0.40632647 -0.2644016 -0.4328931 -0.2710915 0.1693453 0.3680736 -0.13769212

_network.1.weight f4 [96]
00000000: a51e 973f 56c0 0c3f d1b6 623f 7859 063f
00000010: 41b4 753f 2a54 763f 4873 893f 3136 7a3f
00000020: 9e82 6b3f fb75 443f d845 933f 28ea 713f
00000030: 7749 463f 3ee8 1a3f 001b 633f 6e58 5c3f
00000040: 1100 543f ddf6 b43f afc4 383f 7ce1 113f
00000050: 0adb 9f3f 8d3c 323f f74c 933f c66f c43f
00000060: bf93 343f d6d3 1e3f 2c3b 9c3f 3a4d 473f
00000070: 5189 5b3f b730 343f bb90 323f b27e 753f
00000080: 967a 973f 21fe 803e 3455 823f c938 063f
00000090: 243e 3d3f c2d3 8c3f 43ec 183f 0d3b 6e3f
000000a0: ca6d 753f 4719 1c3f e43d 733f 8762 9c3f
000000b0: 8ea2 4f3f 96fd 1d3f f782 823f 4f71 3c3f
000000c0: c230 903f 1174 6c3f 8446 433f 7f61 873f
000000d0: 389b 7f3f 162c 933f 67e1 3d3f 8140 263f
000000e0: 3071 303f 2fbd 113f d280 9e3f 7830 663f
000000f0: 6eaa 303f f234 9f3f acad 893f 906d 493f
00000100: 7018 423f 9ce1 1d3f 2103 883f dec6 953f
00000110: c6ae 453f 97d5 4a3f c63a 203f 699c 313f
00000120: e6da a53f c7f0 2b3f de36 993f ef77 373f
00000130: 941e 8c3f cd1a a13f eda2 183f 982d 5b3f
00000140: 1601 543f 0eef 6a3f 0b11 2f3f 69b6 6f3f
00000150: 01aa 3b3f 66df c03f 7e25 a03f b736 973f
00000160: 2af2 603f 929a 433f 87dc 863f 1fa7 513f
00000170: af90 423f 5a60 4e3f 60b8 773f f20c 963f
1.1806227 0.5498098 0.88560206 0.5248027 0.9597817 0.96222174 1.0738306 0.9773894
0.9199618 0.76742524 1.150569 0.9449792 0.7745585 0.60510623 0.88713074 0.86072433
0.828126 1.4137837 0.72175115 0.56984687 1.248872 0.69623643 1.1507863 1.534661
0.7053794 0.62041986 1.2205558 0.77852213 0.85756403 0.7038683 0.6975209 0.95896447
1.1834285 0.25193885 1.0182252 0.524304 0.73922944 1.1002123 0.59735507 0.93058854
0.9587065 0.6097607 0.9501631 1.2217568 0.81107414 0.61715066 1.0196217 0.73610395
1.126488 0.92364603 0.76279473 1.0576628 0.9984622 1.1497829 0.7417206 0.64942175
0.6892271 0.56929296 1.2383063 0.8991771 0.69010055 1.2438033 1.0756125 0.78682804
0.7581854 0.6167238 1.0625955 1.1701314 0.7721981 0.7923216 0.6258968 0.6937929
1.2957428 0.6716427 1.1969869 0.7166738 1.0946832 1.2586304 0.59623605 0.85616446
0.82814157 0.9177102 0.6838538 0.9363771 0.7330628 1.5068176 1.2511442 1.1813573
0.87869513 0.7640773 1.053605 0.8189563 0.7600202 0.8061577 0.9676571 1.17227

_network.1.bias f4 [96]
00000000: 12ef 71be a34e 62be 6f50 ba3e ec87 fdbe
00000010: 59ee 06be fa8a b5bd a015 b23d 697f 4b3d
00000020: 62aa b8be d61b 95be ea1b 35be 2ed9 96be
00000030: 658f e3bd 9d6c 2fbe 9ade ccbd 5829 69be
00000040: 9813 57be 60bd c1be 0463 0bbf 0580 36be
00000050: 1b48 b9be d813 97be bb93 f43e 0b28 ffbd
00000060: 7401 d4be d92a c7be 882b 253f 544d 86bd
00000070: c977 3ebe 8030 99be ebe1 67be b65a 7cbe
00000080: e15b b33e e74c bdbe 3d98 19bd bfce fbbe
00000090: bc04 93be 3fac f73e 19a5 5bbe a214 55be
000000a0: 5481 e7bc 7d84 b7bd daec a7bd 4907 353f
000000b0: 5680 29be 06bc 6dbe 9e23 fcbd 9ade 91be
000000c0: 1372 353e 3963 d53b 4d72 b0be b738 a13d
000000d0: b501 2e3e eadd 693f 2138 a7bd 7d1e cebe
000000e0: f5f8 a6be fc0c ebbe 6bde 21bc d365 11be
000000f0: c35a 89bd 3124 f33e bf24 8c3e 7699 36bd
00000100: eb32 3dbe b7a0 dcbd c794 b83d d308 89be
00000110: 0cec 71be 0880 a8bd 09e5 92bd 5338 61be
00000120: 503e 86be bc78 bebd 4e6f 923e db93 1cbe
00000130: e5d6 d3bd ac81 f93e 85b7 dbbe 3f35 2cbd
00000140: 2ba5 8fbe f174 02bd 6fda 09be 4100 a3bd
00000150: a082 f0bd 91bf 913d 1b9b ed3d a6d0 ef3e
00000160: 09bd 82bd 5ce1 71be f119 c6be 7ede 9abe
00000170: 3b75 cabe 6ac0 dcbe ab50 b0be 1201 d33e
-0.23626354 -0.2210031 0.3638949 -0.49517763 -0.1317686 -0.08864398 0.08695531 0.049682055
-0.36067492 -0.291228 -0.1768643 -0.2946257 -0.11111335 -0.17131276 -0.100033954 -0.22769678
-0.21003568 -0.37839794 -0.5444796 -0.17822273 -0.36187825 -0.29507327 0.4776896 -0.124588095
-0.4140736 -0.38899878 0.6451955 -0.06557718 -0.18600382 -0.29919815 -0.22644775 -0.24643978
0.35031036 -0.36972734 -0.0374987 -0.49181172 -0.2871455 0.483736 -0.21449699 -0.20808652
-0.02825991 -0.08960817 -0.08199473 0.7071424 -0.16552863 -0.23216256 -0.12311481 -0.28490144
0.17719297 0.0065120724 -0.34462205 0.078721456 0.16992839 0.9135424 -0.081650026 -0.40257636
-0.32611814 -0.45908344 -0.009879689 -0.14198999 -0.067067645 0.4748855 0.27371785 -0.044579946
-0.18476455 -0.107728414 0.09012752 -0.26764545 -0.23625201 -0.08227545 -0.07172591 -0.21994142
-0.26219416 -0.09300372 0.28600544 -0.15290777 -0.10343722 0.48731744 -0.42913452 -0.042042967
-0.280557 -0.031849805 -0.13462232 -0.07959033 -0.11743665 0.071166165 0.1160185 0.46838874
-0.06383712 -0.23621124 -0.38691667 -0.30247873 -0.39542565 -0.4311555 -0.34436545 0.41211754

_network.1.running_mean f4 [96]
00000000: 1791 3e3f 78c6 a23d 1235 513d 36aa cc3e
00000010: 3489 edbe b6e2 02bf 1fdb 073f 1f95 553e
00000020: 5c9d 3c3f 1fd2 ed3e 797f 6e3c 76ba 083f
00000030: 7565 313d a5a9 39bd b197 303c 3d1e 60bd
00000040: ab74 73bd 9ba6 8e3e 7f65 613e 02b5 dfbe
00000050: 2650 b9be 5ca2 5ebf d84e 623e 6398 293e
00000060: c294 a73d 15c5 9b3e 5b6c 023d ba56 e3be
00000070: b4a2 37be df8d df3e 3775 8e3e 6b72 e2be
00000080: 19be 8f3e 0de2 13bf 7dbb fabe ccfc 82be
00000090: fcf7 333f d0e6 1dbe b5f0 213f 2965 05bd
000000a0: f057 72be 476c e8bb 2ed1 283e 49e0 303f
000000b0: bb0e 1b3d 2a1b ddbe 78c5 7b3e 830d 06bd
000000c0: 5492 1f3e 0fc9 ecbd 79ae 44be 17de 72be
000000d0: 39bb 053d dffc 6e3f c7a1 123f 0c77 bfbd
000000e0: 8d3c 2dbf 1595 973e 8bf4 26bf c020 67bd
000000f0: e1a5 18bf 2032 c23e 3fae 8b3e 4295 0f3e
00000100: ae2b ac3e 90ca e9be 2ea1 a53e 22c9 763d
00000110: fff6 25be 96b9 70be ea4a 42be 04a2 a73e
00000120: 3b9b 98be 75c0 40bd 2e4e b93e be5d c4be
00000130: 0f51 e83e f27b cf3e 1490 c03e 5b18 743c
00000140: 1750 ac3e d151 603d 951f 403e b237 61bf
00000150: 4181 19be 6128 f9be 2a7d 5cbe b526 08be
00000160: 6a6e 09bc a8c9 17bf d2d5 b4be a96e 54be
00000170: b850 eebe 9b5d f63e 20fa 323f 9f44 e2bd
0.7444014 0.07948011 0.051076002 0.3997361 -0.4639374 -0.51127183 0.5306873 0.20857666
0.7367761 0.46449372 0.014556759 0.53409517 0.043309648 -0.0453278 0.010778354 -0.054716337
-0.059437435 0.27861485 0.22011374 -0.43692786 -0.3619396 -0.8696649 0.22100389 0.16562037
0.0818267 0.304238 0.031841617 -0.44402105 -0.1793316 0.43662927 0.27823803 -0.4422792
0.2807472 -0.577668 -0.48971167 -0.25583494 0.7030027 -0.15420079 0.63257915 -0.032567177
-0.23666358 -0.007092986 0.16486046 0.6909223 0.037855845 -0.43184787 0.24587047 -0.03272773
0.15583163 -0.115617864 -0.19207181 -0.23717533 0.032649253 0.933546 0.572781 -0.09348878
-0.6767052 0.29605928 -0.6521689 -0.056427717 -0.5962811 0.37928867 0.27281377 0.14021781
0.33627075 -0.45662355 0.32349533 0.06025041 -0.16207503 -0.23508295 -0.1897389 0.32740796
-0.2980593 -0.04705854 0.3619246 -0.3835277 0.45374343 0.4052425 0.37609923 0.014898385
0.33654854 0.054765526 0.18762048 -0.8797561 -0.14990713 -0.4866362 -0.21532121 -0.13296016
-0.008388141 -0.5929208 -0.35319382 -0.20745338 -0.4654596 0.4811829 0.6991291 -0.11048245

_network.1.running_var f4 [96]
00000000: 8255 483c 728f e33c f705 1e3c 7ad3 943c
00000010: 2ffa fe3b 9485 0c3c 6811 813c 9632 3d3c
00000020: f411 7e3c e873 ec3b 33c6 8f3c 5e98 1f3c
00000030: d453 953b d48f da3c a8b5 ac3c b877 c73c
00000040: 754e ad3b cfc2 303d 501c 863c 5aa1 d73c
00000050: 8a4d 033c 6476 f63c 942c 8a3c 37ef 113d
00000060: 3e15 363c c2ea a93c 15cd 0e3c 2aae 9d3c
00000070: 7a78 1b3c fa71 503d 3905 1a3c ed49 d53b
00000080: b07e 523c 24f7 953c 2506 983b fdec 773d
00000090: 9d4f 013c 30b3 0f3c ebb8 273d 9c33 6f3b
000000a0: 5881 383c 3dac ce3c 3d9d 5d3c 7d59 053c
000000b0: 50c8 543c c038 b13c 0219 513c 6a1e 933c
000000c0: 5624 e73b 4517 e93b b2ff ec3b b384 2f3c
000000d0: 9642 413c cf85 8a3c 23f5 173d 8f38 f03c
000000e0: 8e41 b73b 99c5 8e3d 1a60 3a3d a040 c43b
000000f0: 9dbb ba3b efc3 893c c099 223c 5a7e 753c
00000100: cc90 6e3c 6109 3e3d 7493 4c3c 768f e33b
00000110: bdcf 3e3d 592f bd3c ea1a 4b3c a38d f53c
00000120: 2076 143d 1b03 033d 7a1c 923c 93b2 403c
00000130: 9c50 9e3c 4443 4d3c d2de 0a3d 1ebe 293c
00000140: 32ad a43b b9c0 883c 448a ca3c 976c d43b
00000150: 186f 2f3c eeee 873d ceb1 e23b ea15 cf3b
00000160: 1e2a 303c 9202 193d 7c10 9f3c a6dc 4e3c
00000170: 30ba 2d3c 7445 403d 7906 5a3c 8daf fc3b
0.012227418 0.027778361 0.009644977 0.018167246 0.007781289 0.008576769 0.01575537 0.011547705
0.01550721 0.0072159655 0.017550563 0.009740917 0.004557112 0.02667991 0.021082714 0.024349079
0.005288894 0.043154534 0.016370922 0.026322056 0.008014092 0.03008575 0.01686696 0.035628524
0.011113463 0.020741824 0.008715888 0.019248087 0.009489173 0.050889947 0.009400659 0.006509057
0.0128475875 0.018306322 0.0046394044 0.060528744 0.007892516 0.008770749 0.040947836 0.0036499267
0.011261307 0.025228614 0.013526258 0.008139011 0.012987211 0.021633506 0.01276231 0.017958838
0.007053892 0.0071133696 0.0072326297 0.01071279 0.0117956605 0.016909508 0.037099015 0.029323844
0.0055925315 0.069712825 0.045501806 0.005989149 0.005698635 0.016817061 0.009924352 0.014983738
0.014560889 0.046395663 0.012486327 0.006944592 0.046584833 0.023093866 0.0123965535 0.029974764
0.036245465 0.031985383 0.017835844 0.011761325 0.019325547 0.012528244 0.033903904 0.010360269
0.0050255293 0.01669346 0.024724133 0.0064826715 0.010707639 0.06637369 0.0069181686 0.006319751
0.010752229 0.037355967 0.01941704 0.012625849 0.010603473 0.046941236 0.013307207 0.007711357

_network.3.weight f4 [96, 96]
00000000: 5507 99bd 7735 b73d 64fc 95bd bfed 2d3d
00000010: 66c9 82bc af79 1ebf cf43 10bc a03e 683d
00000020: 5b91 413e 3d47 0d3e ff79 4cbe dce9 8c3d
00000030: e521 533e 32ee 7cbd b51f 1a3d b037 c8bc
00000040: 0939 9bbe a9aa b3be 78aa ddbd a8d2 c2bd
00000050: 7cf4 bfbd a82d 6c3c 56ca 413c 7139 aabe
00000060: 622c 703c 6625 6b3e 4c3a 8ebe 9aa2 463c
00000070: 83a0 8abc 52a6 28bd e554 0f3d 314a b4bd
00000080: a8c2 b63c 8f5d 33be ef93 a9bb 6926 88be
00000090: e9cf 64bb 1999 983d af62 013c 146c 0d3d
000000a0: 0dca cdbe 0e5d 44be ca42 04be 7309 f83d
000000b0: 5ae5 90be a429 a73d 4422 58be 0ae3 46bd
000000c0: 5b5c 313c 0ca5 64be f52b dd3d 04ec ffbe
000000d0: 37dc d1bd 5fea 463e 455b 1d3d b7f2 52bd
000000e0: 45f0 f33d 07ca d0bd 7abe 65be 8a38 b7be
000000f0: 2b12 b8bd db59 243d 0e0e 6bbe 1990 e8b9
00000100: a539 5cbe 0f92 acbe d45a 3c3d 9724 b83d
00000110: 4662 7b3c b728 3dbe 5bda 183e 1f25 1d3d
00000120: 9399 f6bd 93f8 eebd 6356 de3d b9b6 c9bd
00000130: a321 093e a27b 6cbc 0188 05be 375e 02be
00000140: aee9 503d 5b98 8bbe 7e86 0dbe b919 c1bd
00000150: c30c bd37 f248 89bd 5833 01be 12a9 303e
00000160: def2 e83d a47a 40be 5088 193e d568 dfbd
00000170: d7cb 9c3e 2739 aa3d ebc8 5dbe df65 463e
00000180: 29cf 0a3e 6c66 f93c f5ba 19be cf1d 0ebb
00000190: 1df9 9ebd 7bc3 e1be e059 35be 1678 2cbe
000001a0: add5 273e 983c 213e 9df7 6fbe 5c6e 333e
000001b0: 8051 103e 05bc 8c3d f7e3 21be 7dcf 88be
000001c0: a217 90bd 0b2f abbd db49 2bbe e1e3 793d
000001d0: 6712 923d 7da8 773e 00e4 333d ad7b 76bc
000001e0: fdb4 ea3d 6869 6d3e 177f 55be e46d 8f3e
000001f0: 9edd 3f3d 6228 5c3d 283d 77bd ad17 51be
00000200: 7a4b a43d 5549 05be c4f5 d83d cfd3 d4bd
00000210: 246e 38be 41f5 283e e544 0cbd 6417 afbd
00000220: a454 a0be 066f e8bd 8501 163e b1c4 e5bd
00000230: e2ee 93bd 3c73 1ebe fef0 8cbe 0330 43bd
00000240: b171 423d 6648 afbc a9a9 923e cd78 05bf
00000250: 577c 6ebd 9e4a 1c3e 2bfe c83d 533a d13d
00000260: 08e8 d73d 3bd2 5cbe c4ff d3bd 1c1a adbe
00000270: 8e5c ae3c 963f de3d d018 82bd 6b1e 2b3e
00000280: 0a88 b5be 8613 87be b682 003e 3d50 803e
00000290: f7ce 0d3d ac8c 1fbd 4c32 2f3c f837 623d
000002a0: 6b29 0a3e d778 99bd 2e2d 7b3e c55d 0bbe
000002b0: e692 0bbc 392d 0a3e 95ad 54be 8c9a d8bd
000002c0: a188 0abe ad99 31be 0e6d 6dbe c8f7 d2bc
000002d0: eef6 303e 1db9 cf3d d1cf ba3d d59c ee3d
000002e0: f272 133e f3a3 6fbe 88c4 1e3e 4634 29be
000002f0: ada7 e33c 48f7 683e f993 a4bc 2fa8 dc3c
00000300: 21d4 2f3e 7c31 3cbc 45c0 543d 1748 903e
00000310: a8f2 193c 3eb8 ffbc 41b0 3e3d 4261 85bd
00000320: f712 23be 787e 983e 829c 303d ecf5 8c3c
00000330: b46e 413e 334e 0e3d 1582 58be edfd b53d
00000340: 5340 d9bc 7e84 95bd df10 eb3c a3b9 753d
00000350: 69cb d5bb 7a4b 3f3e e2fb bbbd 0347 053e
00000360: ba54 38bd 994a a3be 7ffc 713e 1155 70be
00000370: a6b2 7dbe 5a37 6dbd 47c7 67be 3b24 bb3e
00000380: 6c9b 0dbe 6398 883d 2bed 07be 91dc 973d
00000390: f3c8 06bd 4766 163e 7801 bcbd 9687 193d
000003a0: 89f6 033e 5974 6b3c 309f 2a3e 3b23 783e
000003b0: d25f fe3d b254 bb3d 8108 8e3e db6e 39be
000003c0: 6701 ecbd 41b2 1c3e 6f06 303d dc9f 883e
000003d0: cc48 78bd d972 ab3e 83cc 6dbe b1b4 06be
000003e0: afce a7bd 6d8b bdbc e7d8 173e 6398 453d
000003f0: 985d a83d caff f13d a2f4 aa3e 8346 e9bc
-0.074721016 0.089457445 -0.0732353 0.04246306 -0.015965175 -0.61904424 -0.008805229 0.05670035
0.18903105 0.13796706 -0.19968413 0.06880543 0.20618398 -0.0617506 0.037627894 -0.024440616
-0.30316952 -0.3509114 -0.1082353 -0.09512836 -0.093728036 0.014415182 0.011828026 -0.3324695
0.014659019 0.22963485 -0.27778852 0.012123728 -0.016922241 -0.04117424 0.03499307 -0.088032134
0.022309616 -0.17516159 -0.0051751058 -0.26591805 -0.0034913963 0.07451076 0.007897063 0.0345269
-0.40193215 -0.19176123 -0.12916103 0.12111177 -0.2829998 0.08162239 -0.21106821 -0.048556365
0.010825242 -0.22328585 0.107994 -0.49984753 -0.10247081 0.19425343 0.03841712 -0.051501002
0.11911062 -0.10194784 -0.22435942 -0.35785323 -0.0898784 0.040124755 -0.2295458 -0.0004435785
-0.21506365 -0.33705184 0.045985058 0.08991354 0.015343254 -0.18472563 0.14927046 0.03836548
-0.12041011 -0.116685055 0.10856321 -0.09849305 0.13391738 -0.014433773 -0.13040163 -0.12731253
0.051004104 -0.27264675 -0.13820836 -0.09428734 2.2536498e-05 -0.06703366 -0.12617242 0.17251995
0.11374448 -0.18796784 0.14993405 -0.10908667 0.30624267 0.08311682 -0.21658675 0.19374798
0.13555588 0.030444346 -0.15012725 -0.0021685248 -0.07762358 -0.44094452 -0.17710066 -0.16842684
0.16390105 0.15745771 -0.234343 0.17522568 0.1409359 0.068717994 -0.15809618 -0.267208
-0.070357576 -0.08358582 -0.16727392 0.061008338 0.07132416 0.24185367 0.04391861 -0.015044135
0.11460302 0.2318474 -0.20849262 0.28013527 0.04684221 0.05374945 -0.060361058 -0.20419188
0.080222085 -0.13016255 0.10593751 -0.10391962 -0.18010765 0.16499807 -0.03424539 -0.08549383
-0.31314576 -0.11349301 0.14649017 -0.112191565 -0.07223298 -0.15473646 -0.27527612 -0.04765321
0.047471706 -0.021396827 0.28645065 -0.5213745 -0.05822405 0.15262839 0.09814104 0.102162026
0.10542303 -0.21564572 -0.10351518 -0.33808982 0.021284368 0.10851972 -0.06352389 0.16710822
-0.35455352 -0.26382083 0.12549862 0.25061217 0.034621205 -0.038952515 0.010693144 0.055229157
0.13492362 -0.074937515 0.24528953 -0.13609989 -0.00851891 0.13493814 -0.20769341 -0.105763525
-0.13528682 -0.17343779 -0.23186132 -0.025752917 0.17281696 0.101427294 0.09121669 0.11651007
0.14399317 -0.23402385 0.15504658 -0.16523847 0.027789915 0.2275058 -0.02009009 0.026935665
0.17170765 -0.011486407 0.051941175 0.2818 0.009396233 -0.031215783 0.046554808 -0.06512691
-0.15925203 0.29783988 0.043118007 0.017207108 0.18889886 0.034742545 -0.21143372 0.08886323
-0.02651993 -0.073006615 0.028694568 0.05999149 -0.0065244925 0.18681136 -0.09178902 0.1301537
-0.045002677 -0.3189285 0.23631476 -0.2346995 -0.2477518 -0.057914115 -0.22634612 0.3655108
-0.1382882 0.066696905 -0.13274066 0.074151166 -0.032906484 0.14687453 -0.09179968 0.03748282
0.12887014 0.014371001 0.16662288 0.2423219 0.1242062 0.09147014 0.27740863 -0.18108694
-0.11523705 0.15302373 0.042974886 0.26684463 -0.0606163 0.3348606 -0.23222546 -0.13154866
-0.08193719 -0.023137772 0.14828835 0.04824103 0.082209766 0.11816366 0.33389765 -0.028476005

_network.3.bias f4 [96]
00000000: 988b 0f3d 9b72 ccbd 3626 36bd 9f74 49bd
00000010: ce7b c53d a39c 2fbd 0596 88bd 621f 11bd
00000020: 4a64 1b3c 8f82 283d f2fe 973d deda 953d
00000030: a540 2e3c 2b65 bd3d fdae 5c3d e959 5d3d
00000040: ab44 b2bd b0f3 053c 286f b2bc 526a c4bd
00000050: bbd8 4dbd b706 9e3d 116c 193d f6fb be3d
00000060: 4662 8d3d 6ef0 54ba c4ad ba3d 4d07 b23c
00000070: b6ec 6bbc 392a 31bd b313 853d 7cf8 383d
00000080: 5dd6 8f3d f0ef 8fbc d965 bfbd 3071 983c
00000090: 4fe8 323c d38d 86bd 6405 c53c 6319 4abc
000000a0: 9255 b13d 7a84 9a3b 35e9 4bbd e9aa a53d
000000b0: e7f8 3f3b 1f50 8cbc fe8e 453d cc56 c33d
000000c0: c1e6 3d3d ddfd 3a3b de68 a93d 627b 35bd
000000d0: 61cb b73d 0918 6dbd 3d93 063b d119 bd3d
000000e0: c554 253d 3606 b0bc 1f0c 803d cbe1 733d
000000f0: 94ca babd ae45 38bc 0f1b a3bd fc71 b4bc
00000100: 871b 44bc 1983 24bd d874 17bd 35c2 5f3d
00000110: 9d14 41bb 3501 cebd 9a26 8f3c 359a cbbd
00000120: bcec 8dbd 79b3 7b3d 225c 9e3d ca2b 13bd
00000130: e920 7bbd e9f4 3a3d e81c c5bd adef 803d
00000140: 1871 8e3d 5b4f 2f3d 06d0 fc3c 4d77 ad3c
00000150: 4571 9dbd b582 25bd 9b89 853d 90d6 ae3d
00000160: 2173 2c3b fc4a d53c a155 c4bd 9043 923d
00000170: 95a2 70bd 2d09 5cbd 0687 cb3d 1971 eebc
0.035045236 -0.09982797 -0.044470035 -0.049183484 0.096427545 -0.04287399 -0.06669239 -0.03543032
0.00948436 0.041140135 0.07421674 0.07317136 0.01063553 0.09247812 0.05387782 0.054040823
-0.087045036 0.008175775 -0.021781519 -0.095905915 -0.05025552 0.077161245 0.037456576 0.093254015
0.0690351 -0.0008122985 0.091151744 0.021731997 -0.014399698 -0.043253157 0.06497898 0.04515885
0.070233084 -0.017570466 -0.09345598 0.01860866 0.0109196445 -0.065700196 0.024050422 -0.012335154
0.08658899 0.0047154995 -0.04978295 0.08089239 0.0029292644 -0.017128048 0.04823207 0.095380396
0.046362642 0.0028532662 0.08271955 -0.04430712 0.08974338 -0.05788425 0.0020534538 0.0923344
0.040364046 -0.021487337 0.06252312 0.059541505 -0.0912067 -0.011247082 -0.079641454 -0.022027008
-0.011969454 -0.040164087 -0.036976665 0.05462857 -0.002946175 -0.10058824 0.017474461 -0.09941522
-0.06929919 0.061450455 0.07732417 -0.035930432 -0.061310682 0.04564372 -0.09624654 0.062957145
0.06955165 0.04280029 0.030860912 0.021175051 -0.0768762 -0.040407855 0.06520387 0.08537018
0.002631374 0.026036732 -0.09586645 0.07141793 -0.0587488 -0.05371969 0.09937863 -0.029106664

_network.4.weight f4 [96]
00000000: 27bc 733f a639 853f e37a 703f 1e5d 7d3f
00000010: 7233 2a3f 29f6 673f 22ae 783f e874 3a3f
00000020: d32e 373f 265d 703f b000 633f 2a1c 823f
00000030: 920d 5c3f 096f 9f3f 964d 693f 88f8 3a3f
00000040: 8b86 663f 8e07 8e3f 309f 3f3f 452f 893f
00000050: a384 983f 437e 7a3f 416d 743f d1ea 723f
00000060: 0153 373f fd02 123f d7c6 0f3f 04fe 2f3f
00000070: 6ace 633f 0bef 653f a36f 993f 38ee 7b3f
00000080: 14a4 6a3f 7cb1 873f 4909 763f 8a38 4c3f
00000090: 47b3 663f 46b3 523f ac5d 363f 1e2e 313f
000000a0: 06b0 843f 4255 893f 7e11 763f dc99 5e3f
000000b0: 55d4 4a3f d5d2 623f 3163 0e3f fb4c 933f
000000c0: 6ab3 763f d982 7a3f 5ebb 383f 2dde a23f
000000d0: 6cc7 833f 0d07 463f a7e3 673f 9132 883f
000000e0: 7811 803f 5b80 903f 3331 803f f0a5 393f
000000f0: 33c7 373f 2fd3 793f 5c77 9a3f 42b9 473f
00000100: b0bd 933f ad50 813f 355f 253f 6b64 a53f
00000110: c309 3e3f 93c8 4c3f 41df 343f e165 853f
00000120: ab9d 893f 0bea 5b3f a19e 763f e545 793f
00000130: 1094 053f 30b8 5a3f 4540 563f 8f97 5a3f
00000140: dbaf 7e3f db53 573f 790c 623f f4b2 853f
00000150: 38b1 913f 107d 5d3f c52d 773f 785d 783f
00000160: f843 4f3f c3f5 673f 379f 703f a5ae 553f
00000170: b8af 743f fd14 783f b32a 933f 4f7a 4d3f
0.9520897 1.0408218 0.9393751 0.9897021 0.6648475 0.90609986 0.97140706 0.72834635
0.71555823 0.93892133 0.88672924 1.0164845 0.85958207 1.245576 0.9113401 0.7303548
0.90049046 1.1096056 0.74852276 1.071755 1.1915478 0.9784891 0.9547921 0.9488955
0.7161103 0.5703581 0.5616278 0.6874697 0.8898684 0.89817876 1.1987194 0.9841037
0.91656613 1.0601039 0.9610792 0.7977377 0.90117306 0.823048 0.7123668 0.69210994
1.0366218 1.0729144 0.9612044 0.8695352 0.7923024 0.88602954 0.55620104 1.1507868
0.96367514 0.9785591 0.721609 1.2724053 1.0295234 0.7735451 0.90581745 1.0640432
1.0005331 1.1289171 1.0015014 0.72518826 0.7178833 0.97587866 1.2067676 0.78017056
1.1542263 1.0102745 0.645984 1.292127 0.74233645 0.7999355 0.7065316 1.0421716
1.0751241 0.85903996 0.963358 0.97372276 0.5217905 0.854373 0.8369182 0.8538751
0.99487084 0.8411233 0.8830028 1.0445237 1.1382208 0.86518955 0.96554214 0.9701762
0.8096309 0.9060938 0.9399294 0.8346961 0.95580626 0.96907026 1.1497406 0.80264753

_network.4.bias f4 [96]
00000000: a798 93be 837a 753d 84a3 adbe 3d62 883e
00000010: 2f1d 60be 5fe2 08be 3c96 cbbe 248c 74be
00000020: 2c43 75be 8f2e d13c 039f 9dbd 89af b9bc
00000030: 940d 90be 06ba 2abe db9a 0a3e 0eb7 35be
00000040: 5c4b bdbe 9b4c b93e fb4b 35be 6413 ccbd
00000050: 8b5f f5bd 5eee 0a3e 9109 d5bd 3cf2 76bd
00000060: fe07 35be ff8b e3be f81f a6be f809 8fbe
00000070: 5d64 753d 8499 a1be bc8c 65bc 27af 153e
00000080: a127 cd3e fa6c a5be 88a0 e83e 32c7 08bf
00000090: fccd 09bf 7cc7 793d 7d8f 0cbe f2ec b8be
000000a0: 03b5 ca3d 9c40 5abe 3639 d1be 5e07 7bbe
000000b0: 92e7 dcbe c3a8 d3be 9998 7dbe 9a38 09bf
000000c0: bdb8 94be db4b bdbd 49ec 9abe 9d9f 8c3e
000000d0: 2a3f bebe 56c0 7abe 4b06 aebe 277b 6dbe
000000e0: 9c58 b23e 2e6f ce3e bea6 3d3e 349b aebe
000000f0: 6a52 23be 872d 9abe 7609 d03b 7517 1fbf
00000100: b4f0 523e 03b9 0f3e 8939 9fbe e351 bf3d
00000110: 1fa8 873d d4e0 d8bd e06f fdbd 6eda 9fbd
00000120: 9c09 2f3d c090 0d3d f3d4 37be a08e 303e
00000130: 02cf bfbe 42f7 21be 349c 9bbe 5be2 673d
00000140: 5617 41bf 4d60 04bf 4a64 54be 2c39 b0be
00000150: 6e9b 9d3d 96b9 5fbd 86a2 aabe ed04 403c
00000160: 620e e8bd f12b f1bd f304 adbe d597 06bf
00000170: c1c9 ba3e 19c5 663d 3c4a 2ebe a289 4dbd
-0.28827402 0.05993129 -0.33913815 0.2663745 -0.21886133 -0.13367604 -0.39763057 -0.23881584
-0.23951405 0.025534896 -0.07696345 -0.02266671 -0.2813536 -0.16672525 0.13535635 -0.17745611
-0.36971557 0.36191258 -0.17704765 -0.09964636 -0.11981114 0.13567492 -0.10402215 -0.060289606
-0.1767883 -0.44442746 -0.32446265 -0.27937293 0.059910167 -0.31562436 -0.0140106045 0.14617597
0.40069297 -0.32309705 0.45434976 -0.5342895 -0.5382993 0.06098126 -0.13726611 -0.36118275
0.098978065 -0.21313709 -0.4086396 -0.24514529 -0.43145424 -0.41339692 -0.24765243 -0.5360199
-0.29047194 -0.09242984 -0.30258396 0.27465525 -0.37157565 -0.24487433 -0.33989176 -0.2319151
0.3483323 0.40319198 0.18520638 -0.34102786 -0.15949407 -0.3011286 0.006348784 -0.6214517
0.20599633 0.1403542 -0.31098583 0.093417905 0.066238634 -0.105897576 -0.12374854 -0.07805334
0.042733774 0.034561872 -0.17952327 0.17241907 -0.37462622 -0.15816978 -0.3039261 0.056612354
-0.7542623 -0.51709443 -0.20741382 -0.3441862 0.076956615 -0.054620348 -0.3332712 0.011719924
-0.11330868 -0.11775959 -0.33792838 -0.5257543 0.3648205 0.05634031 -0.17020506 -0.050180085

_network.4.running_mean f4 [96]
00000000: 9b55 adbf 164f b7be 3cde 9c3f 0eb0 c8bf
00000010: 4882 2dc0 5984 f0bf fcf9 6340 c016 5f3f
00000020: 7bce 2fc0 57fc f33e c6bc 0cc0 972b 9c3f
00000030: 38bd 9fbf 16c2 0540 cd8d 86c0 5ad5 0bc0
00000040: 7686 0f3f c438 1cc0 7ee0 b0bf a965 cbbf
00000050: 165e 31bf 783d 11c0 7038 983f e358 0cbf
00000060: abd3 f5be 6ede 0f3f 5105 dfbf 0bc5 7c3e
00000070: bab4 21c0 2c35 143e 5232 c8bf a11c 98bf
00000080: 7496 d5bf e4c3 9b3f 2663 c7bf 4b5f f53f
00000090: f0a1 283e 3cef f6bf 0647 54bf 45d4 113f
000000a0: d388 f1bf 1baf f93e 2f1d fd3f cb8e f3bf
000000b0: fbe0 e23f 0eac 0d40 0cad 933e b566 7840
000000c0: fa29 613e cdaf 25c0 fe1a 0bc0 2d8c 823d
000000d0: 3ccc 0740 5a0d 2d3f cfea efbf cfd7 243f
000000e0: d80f 8ac0 5cfb 25c0 96b4 ffbf a2b1 f0be
000000f0: e838 28c0 bb25 3240 378f 633d 693d 2140
00000100: c829 f9be 1fdb 1b3e 71e7 09c0 9d34 103e
00000110: e636 99be 3af0 01c0 d712 fcbf 31ac 7abf
00000120: c5c7 cbbf 8b4f 91bd 8ea2 2ebf 1cf7 67c0
00000130: ec4f abbf 8880 3ec0 8e50 86bf 261c 02c0
00000140: 068b 8a3f c712 6c3e 6abb 4dbf 408d 5240
00000150: 51c6 49bd f230 223e 2c4d e13f 30a7 9fbf
00000160: 3b21 6c3e 5315 d63e c304 af3f f584 d43f
00000170: 7cc6 70bf 4da9 9fbe 2ac4 1f40 928c b0bf
-1.354175 -0.35802525 1.225532 -1.5678728 -2.7110767 -1.8790389 3.5621328 0.8714409
-2.7469776 0.47653458 -2.1990218 1.2200803 -1.247962 2.089971 -4.2048097 -2.184897
0.56064546 -2.4409647 -1.381851 -1.5890399 -0.6928419 -2.2693768 1.1892223 -0.5482313
-0.48013052 0.56198776 -1.7423497 0.24684541 -2.5266557 0.14473408 -1.5640357 -1.1883737
-1.668654 1.2169156 -1.5577133 1.9169706 0.16468024 -1.9291759 -0.82920873 0.5696452
-1.886988 0.48766407 1.9774531 -1.9027952 1.7724909 2.2136264 0.28842962 3.8812687
0.21988669 -2.588855 -2.1735225 0.06374393 2.1218405 0.675985 -1.8743533 0.643918
-4.314434 -2.5934668 -1.9976985 -0.47010523 -2.6284733 2.783553 0.055556502 2.5193732
-0.4866469 0.15220307 -2.154751 0.1408257 -0.29924697 -2.0302873 -1.969325 -0.97918993
-1.592034 -0.0709525 -0.6821679 -3.6244574 -1.3383765 -2.976595 -1.0493333 -2.032968
1.0823677 0.23054038 -0.80364096 3.2898712 -0.049261395 0.15838984 1.7601676 -1.2472897
0.23059551 0.41813144 1.3673328 1.6603075 -0.94052863 -0.31183854 2.496348 -1.3792899

_network.4.running_var f4 [96]
00000000: 56b3 2340 e88d 1240 0e4b 473f 3ddc fa3f
00000010: fbfb 9e40 d8b6 8440 59dc 2340 b5a1 c040
00000020: d9ee 1e41 ddb5 a23f bb72 2641 168a 0b40
00000030: 1b28 a140 d8f5 1b40 5460 4a41 a2ce b43f
00000040: c3fb 3d40 123a bc3f beee e83f cb6a 363f
00000050: 3efa 553f f745 fd40 ce4c 1240 eae0 ba40
00000060: 2d7a be40 2afd d93f 7583 8740 6eb4 6340
00000070: 1ee6 ff40 efc5 4340 3389 4740 1567 943f
00000080: 5e22 8940 ca60 763f ee44 1540 a1d7 2440
00000090: 72fe 8840 16d5 0c40 c6b5 1740 d97d 1940
000000a0: 24d6 b23f 355c 263f 7a15 8440 6438 2a40
000000b0: 6c63 3240 00ec 4940 394e 4a40 d334 0640
000000c0: 0e01 0940 5bc2 0e40 5f64 c33f 214c 3140
000000d0: 7688 4040 c6db c43f b4b5 3f40 1782 7a40
000000e0: 1210 d540 a572 f83f e068 a83f 2727 ac3f
000000f0: 9be5 6a40 2e2e 8640 4ae4 8c40 5f45 6640
00000100: 1c4d 133f d956 713f fece 0141 88e2 963f
00000110: 1df9 3f40 5101 4d40 b4d2 2440 2006 aa3f
00000120: f3db b53f a99f 2540 f844 6740 004c ab40
00000130: e396 a43f 8855 2d41 42e2 d83f fda7 f43f
00000140: b376 7940 838b e53f 0ca6 ca3f ead4 ea3f
00000150: 3c5d a93e f56c 7840 1e77 6440 7bac 9c3f
00000160: 37ea f33f 5f30 b340 f069 3540 fca8 4c40
00000170: 3824 6a40 0d60 e13f bb55 3d40 fdb3 9340
2.5578208 2.2899113 0.778489 1.9598461 4.9682593 4.14732 2.560324 6.0197396
9.933312 1.271175 10.40301 2.180303 5.0361457 2.43688 12.648518 1.4125559
2.9684913 1.4705222 1.8197858 0.71256703 0.83584964 7.9147906 2.2859378 5.8399553
5.952414 1.7030385 4.234797 3.5578876 7.9968405 3.058956 3.117749 1.1593958
4.285445 0.9624144 2.3323321 2.575661 4.28106 2.2005057 2.3704696 2.3983061
1.39716 0.64984447 4.1276217 2.6596918 2.7873182 3.1550293 3.1610243 2.0969741
2.1406894 2.2306125 1.5265006 2.7702715 3.008329 1.537957 2.9954653 3.91419
6.6582117 1.9409987 1.3157005 1.3449448 3.670264 4.193137 4.4028673 3.597984
0.57539535 0.94273144 8.113035 1.1787882 2.9995797 3.2032053 2.5753603 1.3283119
1.4207748 2.58787 3.6135845 5.3530273 1.2858547 10.833382 1.6944048 1.9113766
3.8978698 1.7933201 1.5831923 1.8346226 0.33078945 3.8816502 3.5697703 1.2240137
1.9055852 5.5996547 2.834591 3.197814 3.6584606 1.7607437 2.9583576 4.615721

_network.6.weight f4 [96, 96]
00000000: 76b0 a43d e4bc a33c a028 0a3c f78a 123e
00000010: 3ff5 f4bd eebd d33d 7bbb db3d ec9d fcbd
00000020: f7c6 f73e 1dfd c43d 74f2 443d 5f09 8a3e
00000030: bd28 4d3e ed54 d8bd 3b04 26bd 9753 dd3d
00000040: f63f 1a3f 86bf 29be a72a 9e3d da7f ea3d
00000050: 6704 05bc 474e 4d3e 104e cc3d 283a 063e
00000060: 430c fd3d 5afe e2bd 00bb 5a3d 9326 a43e
00000070: 699c c0bb 6bde 91bd 80b4 563e e3fb e9bd
00000080: 664d 963d 6474 233d a171 e43c 8254 93bb
00000090: 4599 1d3e 7169 b4bd da6b 9c3c 4dcd 703d
000000a0: 138e dcbb 6f5a eb3d 030a c6bd 1cbd 42bb
000000b0: 1937 f4bc 2f20 afbd 7832 843d a9e6 afbc
000000c0: bfab 7c3d 6e47 49bc b3d0 e23d 4d17 c3bd
000000d0: 344f 1ebe c174 3e3e 6289 f63d 1a4a d33d
000000e0: 6032 70be 6a17 a03d e754 063d 0a2f 5c3e
000000f0: bfbc 3e3d cbd7 353d ef01 193e 6968 ecbc
00000100: 1e18 ec3d 998c 87bb ee1e 8dbd ba15 d9bb
00000110: aa0b 7c3d cd54 3dbd c7ec 943d 7677 083d
00000120: a52d 2a3e 2dec 0bbe 47b5 2ebd df39 103d
00000130: ae39 073c dafb de3e 3320 ec3d 251f 41be
00000140: 1ab3 833f 8010 853d 3fb7 d6bd 67d4 48bd
00000150: c1b2 a23d 77fc 12bd ac46 60bd 907c d7bd
00000160: 04c3 5cbc 0156 82bd 7349 0ebe e5dc 86bd
00000170: c8a8 863d 4b63 923d 213a cfbd c1ed 103e
00000180: a842 3dbe 1c5f 41be 2aec 2a3d 7d36 06be
00000190: b40f eabd 23b3 253e e3dc 353d 5f21 593e
000001a0: 25ff 9a3d d053 963e 4a6c a93e 53dd fb3c
000001b0: 7608 b23e e08a a0bb 1de5 0a3e 775f e53c
000001c0: f133 04be ebf0 27be 604c 4fbd b9eb b43d
000001d0: 1c12 5c3e 0821 503d 087b 83bd fd79 8b3e
000001e0: 8c18 ca3c 9e47 143e 6f08 74bd 5d1b 123d
000001f0: 7b35 213f ed53 d7bc 327f 953d 7d41 d3bd
00000200: e1f1 93bc 3c69 bbbd 641a e1bd b20f 0c3e
00000210: 5aae 6abd 2267 163e f163 793d 7798 863e
00000220: 21ed 03be be8d 9d3b ee15 c5b8 8409 a23d
00000230: b537 4cbd 40f4 45be 5bbd 84be e446 b93d
00000240: 88d7 77bd a6ea 03bc 80d0 a3bd 895b 1bbe
00000250: 12f1 623d c656 f13d 5478 af3d 2a91 f8be
00000260: 3045 09bd 3f4e 84bc 78c1 b93c 365c 093e
00000270: 313a 3d3e 8886 5d3d c964 92bd 491c ecbe
00000280: c0ec 23bf 5ae7 d03d e549 acbc 513d 5d3e
00000290: ddec 08be f931 aabd 104a c93b cb2a 66be
000002a0: 4615 48be d189 6c3e 1b8d 78bd 4a53 3c3c
000002b0: 66f6 813d eef9 ed3c 41e9 5cbd b0f5 893c
000002c0: 404e fb3d a60a c43c 3b22 693e b35c 2a3e
000002d0: 153b 8d3e b133 39be 5750 90bd 4f69 00bd
000002e0: 2ef0 59be 831a 87be d800 d03d e573 06be
000002f0: ccf1 18be 75e9 afbe 6125 52be ea2a 053d
00000300: 9569 0cbe 3527 f73d c538 06bd 75c5 2abe
00000310: 508d 19bd b4d1 4cbe e0f9 123d d708 cb3b
00000320: fe86 1b3b 75cb 1dbe b3ce 49be eab7 1d3e
00000330: a96b 23be ab12 2b3e 5be2 4dbe cb9b c8bd
00000340: be0f d43d b6fb 693e a81b 0f3d 8f45 a8be
00000350: 9bf2 9c3c a5a4 c2bd 68af 28be 1cb7 bb3d
00000360: 34a5 70bb c350 cbbd 8e1f 5f3e 3822 79be
00000370: 37c6 75be 6709 ff3d 182b 8b3d f88a ff3d
00000380: 3e51 cebc 5eac a43d 01cd bbbd 2238 4dbd
00000390: 817c f73d db3b 8fbe 4329 ce3d 8e0a 7b3e
000003a0: 7971 6a3e 8379 d03c de79 c03c 790f 23bd
000003b0: e6e0 773e 51b6 b53d b189 c8bc 3792 a23d
000003c0: f1f8 383e d1e4 b1bc ec02 d7bd a03f 60be
000003d0: 142d 583a 7b22 f6bd 40e9 6ebe 2e43 bbbe
000003e0: f363 1ebe 14dd 90be 5544 39be 52ee 1e3d
000003f0: d88e 833e 31f5 f8bd 69d1 cabd 7a1a 623d
0.0804147 0.019987531 0.008432537 0.14310823 -0.119608395 0.103389606 0.107291184 -0.12334809
0.48393986 0.0961859 0.048082784 0.26960275 0.20035072 -0.10563073 -0.04053138 0.10806959
0.60253847 -0.16576967 0.07722979 0.11450167 -0.008118725 0.20049392 0.09975827 0.13108122
0.12355854 -0.1108367 0.053400993 0.3206068 -0.0058780205 -0.07122501 0.20967293 -0.11424997
0.07338981 0.03990592 0.027886214 -0.004496158 0.15390499 -0.08809174 0.019094396 0.05878954
-0.0067308038 0.11491858 -0.09669878 -0.0029714769 -0.029811429 -0.085510604 0.06454939 -0.021472292
0.061687227 -0.012285097 0.110749625 -0.09525929 -0.15459901 0.18599226 0.120379224 0.10316868
-0.23456717 0.07816966 0.032795813 0.21502319 0.04656672 0.04439525 0.14942144 -0.02885838
0.115280375 -0.0041366336 -0.06890665 -0.0066249045 0.06153456 -0.04622345 0.07271724 0.03331705
0.16618975 -0.13664313 -0.04265335 0.03521144 0.008253498 0.43551522 0.11529579 -0.18859537
1.0289032 0.06497288 -0.1048417 -0.049030688 0.07944251 -0.0358853 -0.054754898 -0.10521805
-0.01347423 -0.0636406 -0.13895206 -0.06585101 0.06575161 0.07147845 -0.10118509 0.14153196
-0.18482459 -0.18883938 0.04172913 -0.13106723 -0.114287764 0.16181616 0.044400107 0.21204136
0.07568196 0.2936082 0.3309043 0.030745184 0.3477208 -0.0048993677 0.13563962 0.027999623
-0.12910439 -0.16400497 -0.050609946 0.08834023 0.21491283 0.05081275 -0.06419951 0.27241507
0.024669908 0.14480445 -0.059578355 0.035670627 0.6297223 -0.026285136 0.07299651 -0.10315225
-0.018059673 -0.09150931 -0.10991362 0.13677862 -0.05729518 0.1468778 0.060886327 0.26288196
-0.12883426 0.0048081568 -9.397777e-05 0.07911971 -0.049857814 -0.19331455 -0.25925717 0.090467244
-0.06050828 -0.00805155 -0.079987526 -0.15171637 0.055405684 0.11784129 0.08567873 -0.4854825
-0.033513248 -0.016150592 0.02267526 0.13414082 0.1847923 0.054083377 -0.071481295 -0.4611533
-0.64033127 0.10200377 -0.02103133 0.21605422 -0.13371606 -0.08310313 0.006142862 -0.22477262
-0.19539365 0.23099448 -0.060681444 0.011494467 0.06345825 0.02904984 -0.053933386 0.016840786
0.122707844 0.023930859 0.22766964 0.16636924 0.2758414 -0.18086125 -0.070465736 -0.03135043
-0.21283028 -0.26387414 0.10156411 -0.13130148 -0.14935988 -0.343578 -0.20522071 0.03251163
-0.13712151 0.12068025 -0.032768983 -0.16676886 -0.03748828 -0.2000187 0.03588283 0.006196122
0.0023731585 -0.15409644 -0.19707756 0.15402189 -0.15959038 0.1670634 -0.20105879 -0.0979534
0.10354565 0.22849926 0.034938484 -0.3286557 0.019158652 -0.0950406 -0.16473162 0.09165785
-0.0036719562 -0.099275135 0.21789381 -0.2432946 -0.24001394 0.12452965 0.06795329 0.12477678
-0.025185224 0.08040689 -0.09169961 -0.05010236 0.12084294 -0.27975354 0.10066464 0.24515745
0.22894849 0.025448566 0.02349561 -0.039809678 0.24206886 0.08872665 -0.024479719 0.079380445
0.18063714 -0.021715553 -0.10498604 -0.21899271 0.0008246463 -0.120182954 -0.23331165 -0.36574692
-0.15467815 -0.2829367 -0.18092473 0.0388015 0.2569492 -0.121561415 -0.09903223 0.05520103

_network.6.bias f4 [96]
00000000: 5369 473d fc15 eebc 492c 79bd 5f2b 3f3d
00000010: 7403 80bd 298d b23c 3c32 eb3c 8fd2 18bb
00000020: 0c40 d2bc e6df 5fbc 06e7 69bd 8f20 883d
00000030: c7f4 14bc 6592 2dbd 7cef 61bd be18 373d
00000040: 3df5 7ebd 7347 2b3d 8625 7b3a c53f bfbd
00000050: 4f07 843d b4a5 223d 6fcc 2e3d 7722 3abd
00000060: 0282 b5bd ab1f 423d 0d10 a1bd 465d 443d
00000070: bcb8 b33d 9a97 47bc dac6 a7bd fe8a 9b3d
00000080: 73cd c4bd b4f4 08bd f804 9abd 95e6 2f3d
00000090: c6a9 ba3d dc03 84bd 7c1a 6dbd 9acc a73d
000000a0: 3c83 4a3d 5053 913d e6a8 94bd aef0 c03d
000000b0: 110b 16bd 902d 65bd 36b2 0bbd d0cc d23b
000000c0: f38c 713d 131f d2bc 7830 8cbd c0f6 863c
000000d0: 91cf c6bd c084 a5bd 13b5 b03c bba7 b83d
000000e0: 378f 70bd d0aa 693d 0962 80bd a8e8 0ebd
000000f0: a68a cc3d cb35 de3c 845f 2fbd d812 3bbd
00000100: 987b b43c 1b12 803d 6118 9c3d a803 f83b
00000110: b418 50bd 4c5e 4d3d 0787 adbd 9c7f 69bb
00000120: 7c03 bfbd 3b48 afbc 79b7 443a 452c aa3d
00000130: 2f4d be3c eaa5 8bbd ccde 3e3d 6efc 223b
00000140: c73c 84bd 5c60 afbd 13b1 ac3c 55dd 6cbd
00000150: 81a5 1cbd 389e 54bd 5f4a 9abd 1404 86bd
00000160: b887 75bc 4454 1ebb 77d7 8b3d 0ae3 a9bd
00000170: 4890 b13d 8d4b bf3d 2450 c8bd d308 853d
0.04868443 -0.029063217 -0.06083325 0.04667222 -0.06250659 0.021795826 0.028710477 -0.0023318862
-0.025665306 -0.013664221 -0.057105087 0.06646835 -0.009091563 -0.04237594 -0.05516003 0.04470133
-0.062245596 0.041816186 0.00095804816 -0.09338335 0.064467065 0.039708808 0.04267543 -0.045443024
-0.08862688 0.047393482 -0.078643896 0.047940515 0.0877547 -0.012182141 -0.08192225 0.0759487
-0.09609499 -0.033436492 -0.07520479 0.04294451 0.09114413 -0.064460486 -0.057886586 0.081933215
0.04944156 0.07095969 -0.07258777 0.09420906 -0.036631647 -0.055951655 -0.034105502 0.006433107
0.05897231 -0.025649583 -0.06845182 0.016475081 -0.09707559 -0.08081961 0.021570718 0.09016367
-0.05873033 0.057047665 -0.06268699 -0.034889847 0.099873826 0.02712526 -0.0428157 -0.045672268
0.02203159 0.06253453 0.076218374 0.0075687952 -0.05080481 0.050138757 -0.0847302 -0.003562904
-0.093268365 -0.021396747 0.0007504146 0.08309225 0.023230163 -0.06818755 0.046599194 0.0024869698
-0.06456905 -0.08563301 0.02108053 -0.057828266 -0.038243774 -0.0519087 -0.075337164 -0.065437466
-0.014985971 -0.0024159113 0.06828206 -0.082952574 0.086700976 0.09340582 -0.097809106 0.06495824

_network.7.weight f4 [96]
00000000: aea1 7d3f bbcc 733f 7aa2 5f3f 3542 6c3f
00000010: 6855 4b3f 6939 7f3f 118d 223f 14d2 5c3f
00000020: 8b37 873f b02c 653f af88 853f e4fc 3e3f
00000030: bdac 793f 9d0e 7a3f 2946 703f 00ba 413f
00000040: 4efc 5b3f 0a1a 463f 6598 6f3f 769e 663f
00000050: 808e 843f 991d 843f 1b3f 673f 6757 853f
00000060: ad6b 7c3f e0c0 4f3f 75c3 6c3f 516d 893f
00000070: 47b3 333f 017d 2b3f 262b 593f 6cd1 083f
00000080: ad5c 823f da42 743f a7b0 723f 915e 453f
00000090: 9f9b 853f 60f7 8b3f 07b6 5a3f 0837 873f
000000a0: 934c 6f3f 0a33 733f bd3b 5b3f e2e7 7e3f
000000b0: c1e7 7c3f fb68 743f ed51 833f 0305 883f
000000c0: 3a92 833f 986d 8a3f 2a13 7d3f 3fd0 783f
000000d0: f6b0 3d3f 0634 703f 0c3c 783f 9705 1a3f
000000e0: 5f23 6e3f 5ce2 653f 86a6 913f 2c01 8f3f
000000f0: 5b4c 463f 3856 7d3f 4ef8 583f 7f7a 3a3f
00000100: c68b 913f b382 8d3f 618f 3c3f f78f 713f
00000110: 65b7 813f cacb 423f 5a0e 6a3f 9b0c 7d3f
00000120: 10dc 3c3f 6c47 ae3f 599c 8f3f 3330 8c3f
00000130: 4a5f 4e3f 15ea 693f 5740 483f b7a1 2e3f
00000140: db23 793f 0757 4b3f 5bf4 7d3f e0ab 893f
00000150: ddba 783f f616 1e3f 1645 973f b1c9 6d3f
00000160: b4bd 913f 29c4 753f 6334 823f 67d8 7a3f
00000170: e742 303f 5772 443f 9a1c 8e3f a59d 6b3f
0.9907483 0.9523427 0.87357295 0.92288524 0.79427195 0.99696976 0.634965 0.86258054
1.0563825 0.8952131 1.0432338 0.7460463 0.975292 0.9767855 0.93857056 0.7567444
0.8593186 0.7738348 0.9359191 0.9008554 1.0355988 1.0321532 0.90330666 1.0417298
0.986018 0.8115368 0.92485744 1.0736486 0.7019543 0.66987616 0.84831464 0.5344455
1.0184532 0.9541451 0.948008 0.7709742 1.0438117 1.0934868 0.85434 1.0563669
0.9347622 0.94999754 0.8563803 0.99572575 0.9879113 0.9547269 1.0259377 1.062653
1.0279 1.0814695 0.9885737 0.9719276 0.74098146 0.9382938 0.96966624 0.6016478
0.9302272 0.8979852 1.1378944 1.1172233 0.7746026 0.98959684 0.8475388 0.72843164
1.137078 1.1055511 0.7365628 0.943603 1.0134093 0.7609221 0.9142815 0.9884736
0.7377329 1.3615546 1.1219589 1.0952209 0.8061415 0.91372806 0.78223175 0.6821551
0.97320336 0.7942967 0.9920098 1.0755577 0.9716013 0.61753786 1.1817958 0.9288588
1.1386018 0.9600244 1.0172237 0.97986454 0.68852085 0.7673697 1.1102479 0.9203742

_network.7.bias f4 [96]
00000000: f744 f4be 3e8f d23b c58e e2be 279f 003d
00000010: 7dd9 86be 0bde 22be f41c 59be 7e05 59be
00000020: e25a 6fbc 82be 0fbe b603 54be 2ff6 aabe
00000030: 15e5 ef3d fa39 a63d b612 a13e 4a9d 12be
00000040: 117f 68be ff4d 63be e1c7 18bf c87b 91bd
00000050: ed7c 9f3e ae0c afbe 5414 eabe f320 82be
00000060: 43f0 4c3d 90bb c1be dc87 00bf f26b 2e3e
00000070: 0138 8dbe ce40 d2be cf01 63be 92b0 e6be
00000080: 4543 b3be 8c05 c23e 7c17 b2bd 07bf 71be
00000090: 4f29 c33c 0136 05be 6612 79be 9993 8d3d
000000a0: bc06 45be 95e4 d53d c30d 8bbd 294a 27be
000000b0: 7327 abbd d082 26be e4db 2bbe 8357 8ebe
000000c0: 09dc 9c3e 7ba9 b8be a8dc 0e3c 9a0b aa3e
000000d0: fc7e 98be 0465 cdbe 7166 80bd 1ac0 afbe
000000e0: 9c02 af3d 29bf 0ebf 74bf 9bbe e1df 5dbe
000000f0: 1ddb 21bd 8150 693e ba4f cabd fcb9 dcbe
00000100: 8992 c0bd 18b2 8abd 0d4f a0bd f03a 93be
00000110: 3741 cb3e a513 f5bb e596 c1be 531f ac3e
00000120: 4e9f a6be 5b7b 3c3c ab32 c2be ea7f 623e
00000130: b2f7 283e 40c9 a5be 55f7 b7be 3107 a3be
00000140: dc15 953d 3d26 8dbe 2b98 22be 7155 92be
00000150: bbde 043d 9c13 03bf 91ff 1dbe 5b05 07bf
00000160: ca53 2d3e 30ff a5bd 1d8e 1a3e b22f 41bd
00000170: afc4 dfbe 7c3d 0c3e 276f 663e 174d 68bd
-0.47708866 0.006425767 -0.4424955 0.03140178 -0.26337805 -0.15905015 -0.21202451 -0.21193501
-0.0146090705 -0.14037517 -0.2070454 -0.33390948 0.11713616 0.08116527 0.31459588 -0.14317814
-0.22704722 -0.22197722 -0.5967999 -0.071036875 0.31149998 -0.3418936 -0.45718634 -0.25415763
0.05003382 -0.3783841 -0.50207305 0.17033365 -0.2758179 -0.41065067 -0.22168659 -0.45056587
-0.3501226 0.37894857 -0.086958855 -0.23608027 0.023823408 -0.13008882 -0.24323425 0.06912918
-0.1924085 0.10443989 -0.06789734 -0.16336884 -0.08357134 -0.16260839 -0.167831 -0.2780114
0.30636624 -0.36066803 0.008719601 0.33211976 -0.2978438 -0.4011613 -0.06269539 -0.3432625
0.085454196 -0.5576044 -0.30419505 -0.21667434 -0.039515603 0.22784616 -0.09878488 -0.43110645
-0.09402949 -0.0677225 -0.07827578 -0.28755903 0.39698192 -0.0074791485 -0.37810436 0.33617648
-0.32543415 0.01150402 -0.37929282 0.22119108 0.16500738 -0.32380104 -0.35930887 -0.31841424
0.0727956 -0.27568236 -0.1587836 -0.28580812 0.032438975 -0.51201797 -0.15429522 -0.52742547
0.16926494 -0.08105314 0.15093274 -0.047164626 -0.43704745 0.1369533 0.22503339 -0.056714144
