transformers/results/pimentel_mlp_random/pimentel_mlp_random/configs/hyperopt/trial_33/pimentel_mlp_random_model_20251209_095445.pt (torch, 172889 bytes, 31 tensors)

_network.0.weight f4 [96, 5]
0	0x3ecb9da2	0.39768702
1	0x3eb42a21	0.35188392
2	0xbdfa972a	-0.122358635
3	0x3ec90132	0.39258724
4	0xbd0d8389	-0.03454927
5	0x3e110a82	0.14164165
6	0xbe52fa76	-0.20603356
7	0x3e8ef9ba	0.279249
8	0x3eb8a91b	0.36066517
9	0xbea55772	-0.32293278
10	0x3f051208	0.5198064
11	0xbb9d5b83	-0.004802169
12	0x3e6a95a8	0.22908652
13	0x3dbaac53	0.091148995
14	0x3cf783c7	0.030214204
15	0xbd9043f6	-0.070442125
16	0x3eacf729	0.33782318
17	0x3d73dfa7	0.059539463
18	0xbe656f0e	-0.22405645
19	0x3dd17a18	0.10228366
20	0xbe9e6d04	-0.30942547
21	0x3b5bc814	0.0033536004
22	0xbdf00ba2	-0.11720969
23	0x3e85dc39	0.2614458
24	0xbe86484d	-0.26227036
25	0xbea35b18	-0.31905437
26	0xbddf896e	-0.109148845
27	0xbe6ee695	-0.23330148
28	0x3d412601	0.047155384
29	0xbea4eb6b	-0.3221086
30	0x3ef61ff9	0.48071268
31	0xbeadbc86	-0.33932894
32	0x3e9b22e1	0.30300048
33	0x3dcbd2bb	0.09952303
34	0xbdb34a69	-0.08754427
35	0x3ea0702a	0.31335574
36	0x3d600f7f	0.05470228
37	0x3ea78744	0.32720387
38	0x3ddd4f8d	0.10806189
39	0xbd82fa44	-0.06395391
40	0x3e318839	0.17337121
41	0xbe0aa229	-0.13538422
42	0x3e3b092a	0.18265215
43	0x3ec15d38	0.37766433
44	0x3e5b1d48	0.21397889
45	0xbe427e64	-0.18993527
46	0x3e7f00e3	0.24902682
47	0x3d389f16	0.04507359
48	0x3e8a556e	0.27018303
49	0xbe7aecc6	-0.24504384
50	0xbf05a16b	-0.5219943
51	0xbe023f48	-0.12719452
52	0xbe9d8d15	-0.307717
53	0x3e980d54	0.2969767
54	0x3de93c24	0.11388424
55	0x3e39fd88	0.18163121
56	0x3e1b8d7f	0.15190695
57	0x3d2ad321	0.041705254
58	0x3ec98383	0.39358148
59	0xbe60dfcf	-0.21960376
60	0x3ded560a	0.11588676
61	0xbe9577e2	-0.29193026
62	0x3db50b87	0.08840089
63	0xbe3c1f86	-0.183714
64	0x3df967dc	0.12178013
65	0xbd99301e	-0.07479881
66	0x3eb877ad	0.36028805
67	0xbe8f0d20	-0.279397
68	0xbe9d7cfc	-0.30759418
69	0xbe7075d4	-0.23482448
70	0x3ef773ea	0.48330623
71	0x3d99ecaa	0.07515843
72	0x3ec73a31	0.38911584
73	0xbec9ccce	-0.39414066
74	0xbeba7a13	-0.3642126
75	0xbeb125c6	-0.3459913
76	0xbea4f2f9	-0.32216623
77	0x3dd5aea2	0.10433699
78	0x3e7728f7	0.2413672
79	0x3ea9ae99	0.3314102
80	0xbe8883b4	-0.26662982
81	0xbe772291	-0.2413428
82	0x3e6853ae	0.22688171
83	0xbe7d48e8	-0.24734843
84	0x3e5b9395	0.21443017
85	0xbd7f6842	-0.062355287
86	0x3e669c6f	0.22520612
87	0xbed884ee	-0.42288917
88	0xbe734147	-0.2375537
89	0x3dd31ce4	0.10308245
90	0x3df3fa19	0.11912937
91	0xbe0362e4	-0.12830693
92	0x3e876b3f	0.2644901
93	0x3eaf5e53	0.3425165
94	0xbe831cb3	-0.25607833
95	0xbe5ff4fc	-0.21870798
96	0x3eced0ca	0.40393668
97	0xbe806649	-0.25078037
98	0xbe5de146	-0.21667966
99	0xbea7e30a	-0.32790405
100	0xbeb2f4e9	-0.34952477
101	0x3d5da281	0.054110054
102	0x3c65b552	0.014020281
103	0xbe75991d	-0.2398419
104	0x3d892b6d	0.06697736
105	0xbeaade23	-0.33372602
106	0xbe9a8bdb	-0.30184826
107	0xbe8bd006	-0.27307147
108	0xbeee84fb	-0.4658583
109	0xbe026748	-0.12734711
110	0x3f1a1dfa	0.6020199
111	0x3c39dd8f	0.011344328
112	0x3dd89610	0.10575497
113	0xbead0af6	-0.33797425
114	0xbe0002aa	-0.12501016
115	0xbe13be5a	-0.14428082
116	0x3d4c25e9	0.04984084
117	0xbf0bba9c	-0.5458162
118	0xbe019124	-0.12653023
119	0xbe3d1162	-0.18463662
120	0x3db76229	0.089542694
121	0xbdfa0e67	-0.12209778
122	0xbd35d864	-0.04439582
123	0xbeb75552	-0.35807282
124	0xbe7c11bd	-0.24616142
125	0xbe8ad0c6	-0.27112406
126	0xbe3c7d61	-0.18407203
127	0xbeb204f9	-0.3476942
128	0x3eba3475	0.36368147
129	0xbc2a866b	-0.010408024
130	0x3ef5d5fc	0.4801482
131	0x3b9a2942	0.0047046253
132	0xbe9320d6	-0.2873599
133	0x3ea3d83a	0.32000905
134	0xbc93e2fd	-0.018052572
135	0xbe015962	-0.12631753
136	0xbea95fb3	-0.33080825
137	0xbf00975d	-0.5023096
138	0x3df19130	0.117952704
139	0xbe2905ef	-0.1650617
140	0x3e9b993a	0.3039034
141	0xbe9f4666	-0.31108397
142	0x3e991c79	0.29904535
143	0xbeaef3a2	-0.34170252
144	0xbd46e8fb	-0.04856203
145	0x3dd7e85d	0.10542367
146	0x3e6b5d2a	0.22984758
147	0x3ea6cf39	0.32579973
148	0x3eeb8b42	0.46004683
149	0xbe937d9b	-0.28806767
150	0x3e1ce464	0.15321499
151	0xbe29e973	-0.1659296
152	0xbc87b27b	-0.016564598
153	0xbebb19b9	-0.36543062
154	0x3ebaf229	0.3651288
155	0xbead9916	-0.33905858
156	0x3e8c07aa	0.27349597
157	0x3d7fd312	0.06245715
158	0x3e09cbf4	0.13456708
159	0xbe5d5ebd	-0.21618171
160	0x3f023bbe	0.5087241
161	0x3aa79f78	0.0012788614
162	0x3dcc1ff5	0.09967033
163	0xbea9d88e	-0.3317303
164	0x3d32ad37	0.04362222
165	0xbcc1c832	-0.02365503
166	0xbe7b5d11	-0.24547221
167	0x3ec9bf60	0.3940382
168	0x3e047185	0.1293393
169	0xbe08e6d4	-0.13369304
170	0xbec1ee60	-0.37877178
171	0xbb54c99a	-0.0032468797
172	0x3e13d70d	0.14437504
173	0xbe066035	-0.13122638
174	0xbcee3edd	-0.02908271
175	0xbe2866c7	-0.16445456
176	0xbeabc12c	-0.33545816
177	0x3e192638	0.14955986
178	0x3ed33847	0.41253874
179	0xbeaa6696	-0.33281392
180	0x3e2e2b6a	0.17008749
181	0x3e396f21	0.18108799
182	0x3d3855df	0.045003768
183	0xbe327772	-0.17428377
184	0x3e707a79	0.2348422
185	0x3ea23718	0.31682658
186	0x3d3d889f	0.04627287
187	0xbcd9c040	-0.02658093
188	0xbe091711	-0.13387705
189	0x3c9f368f	0.019435195
190	0xbe0933ff	-0.13398741
191	0xbdde0932	-0.108415976
192	0x3e8bb300	0.27285004
193	0x3ec4c9e6	0.38435286
194	0xbd02b000	-0.031906128
195	0xbe16f25a	-0.14740887
196	0x3ba95fb6	0.0051688803
197	0xbd573896	-0.0525442
198	0x3dbdaa8e	0.09261046
199	0x3d244c44	0.040111795
200	0xbf0afe4d	-0.5429428
201	0xbdc92244	-0.09820989
202	0x3e8e51b4	0.2779671
203	0x3df9177b	0.12162682
204	0xbc74bd29	-0.014937677
205	0xbe6fbf1b	-0.23412745
206	0xbe726d2c	-0.23674458
207	0xbf09b1bc	-0.53786826
208	0xbe135455	-0.14387639
209	0x3e0733ba	0.13203326
210	0x3eb470ff	0.3524246
211	0x3e2bece7	0.1678959
212	0xbe9b86bc	-0.30376232
213	0xbe934aef	-0.28768107
214	0xbc29575d	-0.01033577
215	0x3f1192a7	0.568644
216	0x3c6749d8	0.014116727
217	0xbe1b9e33	-0.15197067
218	0x3ddb9725	0.10722188
219	0xbcf01a53	-0.029309427
220	0xbeb82fd3	-0.35973987
221	0x3e94bc33	0.29049835
222	0xbe63192b	-0.2217757
223	0xbdd1bc11	-0.10240949
224	0xbea2b381	-0.31777576
225	0x3eb32101	0.34986117
226	0x3ea6646b	0.32498488
227	0x3e539ae8	0.20664561
228	0xbe9d5c13	-0.3073431
229	0xbea82b54	-0.32845557
230	0xbef3a456	-0.47586316
231	0x3e96e38f	0.29470488
232	0x3e1397b8	0.14413345
233	0x3eb2e8c5	0.34943214
234	0x3df71f19	0.12066478
235	0x3e9835a7	0.29728433
236	0xbbf520ce	-0.0074807173
237	0xbe8b4283	-0.27199182
238	0xbecbcea9	-0.39806107
239	0xbe567484	-0.20942885
240	0x3e90d7a0	0.2828951
241	0xbe41a99a	-0.18912354
242	0xbd7822e0	-0.060580134
243	0xbe750b61	-0.23930122
244	0xbd25b09c	-0.04045163
245	0xbeb2352a	-0.34806186
246	0xbe99d372	-0.30044132
247	0x3db79e85	0.08965782
248	0xbe187418	-0.14888036
249	0x3e4af8b0	0.19821429
250	0xbd9fa211	-0.077945836
251	0xbe99aa0e	-0.30012554
252	0xbe184147	-0.14868651
253	0xbe8ce9dc	-0.2752217
254	0xbdc6204d	-0.0967413
255	0xbee7d7e5	-0.45281902

_network.0.bias f4 [96]
0	0x3e6a3e76	0.2287539
1	0xbe31fe5c	-0.17382187
2	0xbe86a3b6	-0.26296777
3	0x3d7578d9	0.059929702
4	0xbe8630d2	-0.26209122
5	0xbe8a59a8	-0.27021527
6	0x3e6e4cec	0.23271531
7	0xbd986d00	-0.07442665
8	0x3ed16ccc	0.40903318
9	0x3edea024	0.43481553
10	0x3e078bd1	0.1323693
11	0x3e1ee110	0.15515542
12	0x3dcffae3	0.10155275
13	0x3be78133	0.0070649623
14	0xbd04f5f4	-0.03246112
15	0x3bc3d5fe	0.0059764376
16	0x3e2ac189	0.1667539
17	0x3ed4cb6b	0.41561446
18	0xbdece17f	-0.115664475
19	0xbe4195ac	-0.18904752
20	0xbddab567	-0.10679131
21	0xbe5d73db	-0.21626227
22	0x3d9ceb94	0.076621205
23	0x3eaa711c	0.3328942
24	0x3eb32839	0.34991625
25	0x3e51e209	0.20496382
26	0xbea89fc3	-0.3293439
27	0xbe747583	-0.23872952
28	0xbdcbb8e4	-0.099473745
29	0xbdaa1c8b	-0.083062254
30	0x3d1541a6	0.03643956
31	0xbecc6504	-0.3992082
32	0x3e1323b3	0.14369087
33	0xbeae3ca6	-0.34030646
34	0xbea09f99	-0.31371763
35	0xbebe22a3	-0.371358
36	0x3ec6904f	0.38781974
37	0xbee174e0	-0.4403448
38	0x3eac8fd4	0.33703482
39	0xbc5f3201	-0.013622762
40	0xbd5ab3cb	-0.05339412
41	0x3e8f7da8	0.28025556
42	0xbd288b45	-0.041148443
43	0x3e947cbf	0.29001424
44	0x3ea4d3e0	0.32192898
45	0xbec6bbfd	-0.388153
46	0x3e2d0a1f	0.16898392
47	0x3daba450	0.083809495
48	0x3dc5b16a	0.0965298
49	0x3d8d54ca	0.06900938
50	0x3dfb7f3a	0.12280126
51	0xbe5a7c87	-0.21336566
52	0xbd699e26	-0.057035588
53	0x3ed835eb	0.42228636
54	0x3e9a0eeb	0.30089507
55	0xbc8714dd	-0.01648944
56	0xbed6e366	-0.41970366
57	0x3ca2a439	0.019853698
58	0xbe9c6697	-0.3054702
59	0x3eba3ad1	0.36372998
60	0xbe8a86b8	-0.27055907
61	0xbcb5c9c8	-0.022190943
62	0xbdcc017f	-0.09961223
63	0x3da3d65b	0.079998694
64	0x3ed7460c	0.4204563
65	0x3d2d5828	0.0423204
66	0x3e84f604	0.25968945
67	0x3eafd195	0.34339586
68	0x3eb91497	0.3614852
69	0xbe1dbfc2	-0.15405181
70	0xbdcd2d0a	-0.10018356
71	0x3e5bc1ae	0.21460602
72	0xbdfb079d	-0.122573115
73	0x3e56acd1	0.20964362
74	0xbdc80d04	-0.097681075
75	0xbe9b5a86	-0.303425
76	0x3e3bc10c	0.1833536
77	0x3d93beca	0.072141245
78	0x3e4b8957	0.1987661
79	0x3ee353be	0.44399828
80	0x3e978501	0.2959366
81	0x3ed9dd72	0.42551762
82	0x3cc2db67	0.02378626
83	0xbec24029	-0.37939575
84	0xbea07d2b	-0.31345496
85	0xbe8ecba0	-0.2788973
86	0xbec9822c	-0.39357126
87	0xbe71545e	-0.2356734
88	0xbed288e8	-0.41120076
89	0xbed2c85a	-0.4116848
90	0xbe88c313	-0.2671133
91	0xbee0ff1c	-0.43944633
92	0xbe8cdcc0	-0.2751217
93	0x3e2ee794	0.17080528
94	0x3ebfaf37	0.37438366
95	0xbe0b8a66	-0.13627014

_network.1.weight f4 [96]
0	0x3f7c0380	0.9844284
1	0x3f78e6eb	0.9722735
2	0x3f84d5e2	1.0377772
3	0x3f764b8b	0.9620902
4	0x3f7e4f51	0.9933978
5	0x3f7188ef	0.9434957
6	0x3f82c741	1.0217057
7	0x3f77bf81	0.96776587
8	0x3f78e3dc	0.97222686
9	0x3f783a5c	0.9696405
10	0x3f86497d	1.0491177
11	0x3f6baf44	0.9206431
12	0x3f6c57da	0.9232155
13	0x3f73ad26	0.9518608
14	0x3f7833b8	0.96953917
15	0x3f7dce60	0.9914303
16	0x3f769a8e	0.9632958
17	0x3f79bfa8	0.9755807
18	0x3f7400d5	0.9531377
19	0x3f688c8f	0.90839475
20	0x3f888769	1.0666324
21	0x3f752d38	0.95772123
22	0x3f863f98	1.0488157
23	0x3f83e420	1.0303993
24	0x3f7016d5	0.9378484
25	0x3f7b8343	0.98247164
26	0x3f8b1995	1.0867182
27	0x3f75a146	0.9594921
28	0x3f81f66d	1.0153328
29	0x3f70d36a	0.9407259
30	0x3f6fdfac	0.9370067
31	0x3f79909f	0.974863
32	0x3f88c46c	1.0684943
33	0x3f641e6d	0.89108926
34	0x3f8315c6	1.024102
35	0x3f74119f	0.9533939
36	0x3f74e35c	0.9565942
37	0x3f8768a7	1.0578812
38	0x3f809c57	1.0047711
39	0x3f8265cd	1.0187317
40	0x3f85cf2a	1.0453846
41	0x3f824fda	1.0180619
42	0x3f81dfbd	1.0146405
43	0x3f8d2c3d	1.1029125
44	0x3f7c03e2	0.98443425
45	0x3f733e7b	0.9501721
46	0x3f7e5757	0.9935202
47	0x3f7b7311	0.9822245
48	0x3f84fb51	1.0389196
49	0x3f76ce07	0.9640812
50	0x3f6ff0fd	0.93727094
51	0x3f81934b	1.0123075
52	0x3f7d72a6	0.99003065
53	0x3f79a2ca	0.9751402
54	0x3f7e223b	0.9927098
55	0x3f733709	0.9500585
56	0x3f7450ca	0.95435774
57	0x3f6dfdd9	0.92965466
58	0x3f81b21d	1.0132481
59	0x3f706739	0.93907505
60	0x3f6bdd6f	0.92134756
61	0x3f9231ed	1.1421486
62	0x3f822b7a	1.0169518
63	0x3f77e03f	0.9682655
64	0x3f6f57c2	0.9349328
65	0x3f77bcc1	0.9677239
66	0x3f838564	1.0275083
67	0x3f84e31b	1.0381807
68	0x3f7768b9	0.9664417
69	0x3f81606d	1.0107552
70	0x3f6b31d9	0.91872936
71	0x3f724236	0.9463228
72	0x3f74a09d	0.95557576
73	0x3f79d6ec	0.9759357
74	0x3f7f7342	0.99785244
75	0x3f692f3b	0.9108769
76	0x3f87e4be	1.0616682
77	0x3f8a7f96	1.0820186
78	0x3f725183	0.94655627
79	0x3f774c84	0.9660113
80	0x3f75e3b4	0.9605057
81	0x3f8025eb	1.0011572
82	0x3f73ce43	0.95236605
83	0x3f81a437	1.0128239
84	0x3f783d8b	0.9696891
85	0x3f83acb7	1.0287083
86	0x3f820f83	1.0160984
87	0x3f8fb743	1.1227802
88	0x3f7d36f7	0.98911995
89	0x3f78a1e5	0.9712203
90	0x3f73c1be	0.952175
91	0x3f7524d0	0.95759296
92	0x3f7ccb17	0.9874739
93	0x3f713dcf	0.9423494
94	0x3f7b8de2	0.9826337
95	0x3f8a503b	1.0805734

_network.1.bias f4 [96]
0	0xbcbac49b	-0.022798827
1	0x3d309b79	0.04311702
2	0x3e87eaa4	0.26546204
3	0xbd02ad56	-0.031903587
4	0x3d3fff4d	0.046874333
5	0x3d07976c	0.03310339
6	0x3d1d785f	0.038444873
7	0x3e39927c	0.18122286
8	0x3ab7ffd8	0.0014038039
9	0xbc29999a	-0.010351563
10	0x3c9c7b10	0.01910165
11	0x3c82cbd5	0.015966335
12	0x3d08d763	0.033408534
13	0x3d29a87e	0.041420452
14	0xbce8f237	-0.02843581
15	0xbd332d1c	-0.04374419
16	0x3b16b2e0	0.0022994801
17	0xbd616f2e	-0.05503767
18	0xbda06466	-0.078316495
19	0x3c75e7c7	0.015008873
20	0x3cdc718e	0.026909616
21	0xbd123de5	-0.03570356
22	0x3e06bd5c	0.13158172
23	0x3d039b74	0.032130674
24	0xbd21f56a	-0.039540686
25	0x3bf5a574	0.00749653
26	0x3e05dc73	0.13072376
27	0xbc4b3a5b	-0.01240405
28	0x3cb10fe9	0.021614032
29	0xbce97339	-0.028497325
30	0xbd800e3c	-0.06252715
31	0xbc7e2d73	-0.015513766
32	0x3de97237	0.11398738
33	0xbbee95f0	-0.0072810575
34	0x3df54467	0.11975937
35	0xbd72f046	-0.059311174
36	0xbd6e7149	-0.058213506
37	0x3df2cb14	0.1185514
38	0x3c72f214	0.014828224
39	0xbbe9db7f	-0.0071367617
40	0x3d98d9a7	0.07463389
41	0x3d218ad5	0.03943904
42	0xbd00f1fb	-0.03148077
43	0x3e8cad05	0.27475753
44	0x3d9df323	0.0771239
45	0xbd9ff262	-0.07809903
46	0x3d72cdc6	0.059278272
47	0x3c238dec	0.009982567
48	0x3ca53b21	0.020169796
49	0x3d6511f1	0.055925313
50	0xbd87f511	-0.066385396
51	0x3cc25c66	0.0237257
52	0x3c84f346	0.016229283
53	0x3e276095	0.16345437
54	0xbcb64488	-0.022249475
55	0xbca588cc	-0.020206831
56	0xbc45c5d4	-0.012071092
57	0xbd418282	-0.047243603
58	0x3cef2c0f	0.029195813
59	0x3d830ca9	0.06398899
60	0x3c92e6a2	0.01793224
61	0x3e672e15	0.22576173
62	0x3e2bc2c9	0.16773523
63	0xbbdbe7b0	-0.006710969
64	0xbd81e624	-0.06342724
65	0xbd75b863	-0.059990298
66	0x3d8048aa	0.062638596
67	0xbc2cf64b	-0.010556768
68	0xbd61f878	-0.0551686
69	0x3d1b6950	0.03794223
70	0x3cb5f680	0.022212267
71	0xbc918b59	-0.017766641
72	0x3d00895c	0.031380996
73	0xbc80d7f6	-0.015727978
74	0x3daae824	0.083450586
75	0x3c9d4766	0.019199084
76	0xbbbd6711	-0.0057801087
77	0x3de11489	0.10990245
78	0x3cb6cdef	0.022314994
79	0xbd5b2104	-0.053498283
80	0xbc49a036	-0.012306264
81	0x3bd55798	0.006510686
82	0x3d6755ce	0.056478314
83	0xbd58091a	-0.052743055
84	0x3bf365c2	0.007427902
85	0x3c8791e0	0.01654905
86	0x3d374693	0.04474504
87	0x3e14dbec	0.14537019
88	0x3d7e94d5	0.062153656
89	0xbd9d18c9	-0.07670743
90	0xbdb5dc95	-0.08879963
91	0xbd7e39fd	-0.06206702
92	0x3c1d0871	0.009584532
93	0xbd4ebca3	-0.050472867
94	0x3de83542	0.11338283
95	0x3dcb2b7f	0.099204056

_network.1.running_mean f4 [96]
0	0x3f32762f	0.69711584
1	0xbe10b7c0	-0.14132595
2	0x3d2edb86	0.042689823
3	0x3df3d30d	0.11905489
4	0xbecfaff4	-0.4056393
5	0xbf1cf3a9	-0.61309296
6	0x3eaec52b	0.34134802
7	0x3e15becd	0.14623566
8	0x3f3c9c1c	0.73675704
9	0x3ef4b0fa	0.47791272
10	0x3c8f707d	0.017509693
11	0x3ec50c3e	0.38485903
12	0x3c3430f5	0.010998
13	0xbe341324	-0.17585427
14	0xbde43ab8	-0.11144012
15	0x3c99e7cc	0.018787287
16	0xbcf45e3d	-0.029830093
17	0x3eb77962	0.35834795
18	0xbd21099a	-0.039315797
19	0xbed24429	-0.41067627
20	0xbea00ea4	-0.3126117
21	0xbf4e36ee	-0.80552566
22	0x3dfd60e9	0.12372
23	0x3d89f028	0.06735259
24	0x3d1f0a1f	0.03882801
25	0x3e0da3a8	0.13831961
26	0xbca64254	-0.0202953
27	0xbf053321	-0.5203114
28	0xbe7e8eae	-0.24859115
29	0x3e3e5701	0.18587877
30	0x3ce469bb	0.027882447
31	0xbeea5f73	-0.45775947
32	0x3e6c5188	0.23077977
33	0xbecc0935	-0.39850774
34	0xbf07e0ff	-0.5307769
35	0xbf04a5e0	-0.51815605
36	0x3f117f88	0.5683522
37	0xbeb234e7	-0.34805986
38	0x3ee3deac	0.44505823
39	0xbc853059	-0.016258406
40	0xbe6be463	-0.23036341
41	0x3b5ec8a1	0.0033994096
42	0xbc371740	-0.011174977
43	0x3f0cd7ec	0.5501697
44	0x3d6ff94b	0.058587354
45	0xbec5709a	-0.3856247
46	0x3eadcc92	0.33945137
47	0xbe019e89	-0.12658133
48	0xbbf204d4	-0.0073858295
49	0xbe292071	-0.16516282
50	0xbe70169c	-0.23446125
51	0xbe5512e8	-0.20807993
52	0xbd5670dc	-0.052353725
53	0x3f1ce043	0.61279696
54	0x3f23aa35	0.6393159
55	0xbe920c16	-0.28524846
56	0xbf45651b	-0.771074
57	0x3d17a648	0.037023813
58	0xbf140761	-0.5782376
59	0xbc46c857	-0.012132726
60	0xbf19402f	-0.5986356
61	0x3e20694f	0.15665172
62	0x3e9c5473	0.3053318
63	0x3e7dbda1	0.24779369
64	0x3ec11615	0.3771216
65	0xbef76529	-0.48319367
66	0x3eb418d2	0.35175186
67	0x3dc64995	0.096820034
68	0xbdb258b0	-0.08708322
69	0xbe78d2d1	-0.2429917
70	0x3dd9d156	0.10635631
71	0x3eb6fd5d	0.35740176
72	0xbe9c6fd1	-0.3055406
73	0x3cacd4fd	0.021097654
74	0x3d9144b5	0.07093183
75	0xbe9714d5	-0.2950808
76	0x3ed232a3	0.41054258
77	0x3e8bda99	0.27315214
78	0x3ec1d3ba	0.37856847
79	0x3e3f9cd5	0.1871217
80	0x3eab9c08	0.3351748
81	0x3ca7b757	0.020473165
82	0x3e057c7f	0.13035773
83	0xbf49b31a	-0.7878891
84	0xbe16bcc4	-0.14720446
85	0xbe9361f2	-0.28785664
86	0xbe9f4df7	-0.3111417
87	0xbe6446a6	-0.22292575
88	0xbd2abf4f	-0.041686352
89	0xbf11bda0	-0.5692997
90	0xbec84ce9	-0.39121178
91	0xbeb30e02	-0.34971625
92	0xbebf04b7	-0.37308285
93	0x3e806956	0.25080365
94	0x3f2730fb	0.65309113
95	0xbe07e997	-0.13272701

_network.1.running_var f4 [96]
0	0x3c1c8ac0	0.009554565
1	0x3cc6a0ee	0.02424666
2	0x3c05f6d7	0.008176527
3	0x3c7a8b88	0.015292056
4	0x3beac625	0.007164734
5	0x3bd31a6d	0.006442359
6	0x3c8a37bc	0.01687228
7	0x3c01d03e	0.007923184
8	0x3c9f6f02	0.019462112
9	0x3bb45ff5	0.005504603
10	0x3c8f0887	0.01746012
11	0x3c247d70	0.010039672
12	0x3b5c06c1	0.0033573362
13	0x3ce3ce1b	0.02780824
14	0x3cb37b7b	0.021909466
15	0x3ca9ad70	0.020712584
16	0x3b85484f	0.0040674577
17	0x3ca262d8	0.019822523
18	0x3c99b549	0.018763201
19	0x3cc2d0be	0.023781177
20	0x3bd798f7	0.006579514
21	0x3cb189af	0.021672098
22	0x3c7d14e2	0.015446873
23	0x3c75ea2c	0.015009444
24	0x3c12fbf8	0.008971207
25	0x3c9d9c87	0.019239677
26	0x3c09149b	0.008366729
27	0x3c98ec13	0.018667256
28	0x3bfd72ff	0.007734656
29	0x3cae43b6	0.021272521
30	0x3c11455b	0.008866633
31	0x3ba0956e	0.004900626
32	0x3c4ff110	0.012691751
33	0x3c59e667	0.013299561
34	0x3b2fe109	0.0026837012
35	0x3d08bcdf	0.033383247
36	0x3bfa8867	0.007645655
37	0x3b796925	0.0038057056
38	0x3ca9ed8c	0.020743154
39	0x3a860b85	0.0010226822
40	0x3c1f961a	0.009740377
41	0x3c8eecd9	0.017446922
42	0x3c992da3	0.01869852
43	0x3b9db446	0.00481275
44	0x3c4c364b	0.012464116
45	0x3ccac69d	0.02475291
46	0x3c4af4ad	0.012387437
47	0x3ca0404e	0.019561913
48	0x3b9f5ab0	0.0048631057
49	0x3bba43e6	0.0056843637
50	0x3c003626	0.00782541
51	0x3c0cff1d	0.008605746
52	0x3bf93107	0.0076047215
53	0x3be76966	0.007062125
54	0x3d08cb91	0.03339726
55	0x3cb02548	0.021502152
56	0x3bca7653	0.006178656
57	0x3d3799d1	0.044824425
58	0x3cd4c285	0.02597166
59	0x3ba6c9cc	0.005089974
60	0x3be1b44d	0.0068879486
61	0x3bc3127d	0.0059531317
62	0x3bf99a02	0.007617236
63	0x3c652eac	0.013988178
64	0x3c723079	0.014782065
65	0x3ce0ba83	0.027432686
66	0x3c634796	0.013872048
67	0x3b8bdbea	0.004268159
68	0x3c6f39a8	0.014601149
69	0x3cd989a2	0.026554886
70	0x3c6b5863	0.014364335
71	0x3c9557ec	0.018230401
72	0x3c37dd16	0.011222145
73	0x3cb3b0b9	0.021934854
74	0x3c0ecc87	0.008715755
75	0x3c97a1b1	0.018509718
76	0x3c7d712d	0.015468878
77	0x3c5eea3b	0.01360565
78	0x3c8264de	0.015917238
79	0x3c821753	0.015880262
80	0x3b8de7e5	0.0043306225
81	0x3c6a88ec	0.014314871
82	0x3c807602	0.01568127
83	0x3ba7a1c1	0.005115718
84	0x3c14b267	0.009075738
85	0x3bc79a23	0.0060913726
86	0x3bc2e957	0.0059482264
87	0x3b32a51b	0.0027259055
88	0x3c162bbf	0.009165703
89	0x3d0276e8	0.03185168
90	0x3c8116de	0.015757974
91	0x3c2b7b08	0.010466345
92	0x3c1ef8b6	0.009702852
93	0x3d227a91	0.03966767
94	0x3c45f518	0.012082361
95	0x3bb1fff7	0.0054321247

_network.3.weight f4 [96, 96]
0	0xbd4c800f	-0.049926814
1	0x3d88c3fc	0.06678006
2	0xbc93947a	-0.018015135
3	0xbd82d9f1	-0.06389225
4	0x3d9307d7	0.0717923
5	0xbdfdb9e6	-0.12388973
6	0x3c980585	0.01855732
7	0x3dd8cf96	0.10586469
8	0x3d4124fc	0.04715441
9	0x3d44185a	0.047874786
10	0xbd92347e	-0.07138918
11	0x3aa3333c	0.0012451182
12	0x3d1ab057	0.037765827
13	0xbcc0db74	-0.023542143
14	0xbac06da4	-0.0014681113
15	0x3da9ca79	0.08290572
16	0xbda77541	-0.08176661
17	0xbd5bb57b	-0.05363987
18	0xbd264d54	-0.04060109
19	0xbdde8025	-0.108642854
20	0xbd4ea5d6	-0.050451122
21	0xbdf76df5	-0.120815195
22	0x3ce7dc03	0.028303152
23	0xbd74da8a	-0.059778728
24	0xbd921747	-0.07133346
25	0x3d875195	0.066073574
26	0xbe0a33ba	-0.13496295
27	0xbcebf542	-0.028803471
28	0xbd6cd43b	-0.057819586
29	0xbd379bfb	-0.04482649
30	0xbd3af257	-0.04564127
31	0xbbb2cb64	-0.005456375
32	0x3d43825c	0.047731742
33	0x3d9396ce	0.07206498
34	0x3d62ee74	0.055403188
35	0xbd4e1440	-0.05031228
36	0xbd6ebf28	-0.05828777
37	0x3d9e6632	0.07734336
38	0x3d3ac400	0.045597076
39	0xbc65b53d	-0.014020261
40	0xbc8adda0	-0.016951382
41	0xbe04630e	-0.12928411
42	0xbd3bc319	-0.045840356
43	0x3defb7f1	0.11705006
44	0xbd7f65e9	-0.06235305
45	0xbd030c80	-0.031994343
46	0xbdb559d1	-0.08855022
47	0xbd9a1d11	-0.07525075
48	0x3bef42a1	0.007301644
49	0xbd884c68	-0.06655198
50	0x3c655d4b	0.013999294
51	0xbcc779d7	-0.02435009
52	0xbdb4d320	-0.088293314
53	0x3c850527	0.016237808
54	0xbd32dea6	-0.043669365
55	0xbd0eb082	-0.0348363
56	0x3d6b153c	0.057393298
57	0x3da788af	0.08180367
58	0xbcea7652	-0.028620873
59	0xbd780c68	-0.060558707
60	0xbdc1a3a1	-0.09455038
61	0xbd38a4f8	-0.0450792
62	0xbda073a0	-0.07834554
63	0xbd228991	-0.039681975
64	0xbb02cf8b	-0.001996013
65	0xbdff78b0	-0.12474191
66	0x3db6c932	0.08925094
67	0x3d4dcb69	0.050242815
68	0xbde445ba	-0.11146112
69	0xbdf17e68	-0.11791688
70	0x3d72d1ed	0.059282232
71	0xbd0e9de3	-0.03481854
72	0xbcd3e68d	-0.025866771
73	0xbd9a155b	-0.075236045
74	0x3ddfff2b	0.10937341
75	0xbd5945d4	-0.05304511
76	0x3db5f390	0.088843465
77	0x3c355267	0.0110670095
78	0x3cfa8f31	0.030585857
79	0x3dac45c6	0.08411746
80	0xbb99c663	-0.004692839
81	0xbdc78768	-0.097426236
82	0xbb6ff3dd	-0.003661386
83	0x3cb40f8e	0.021980073
84	0xbd58f219	-0.052965257
85	0x3da813f0	0.08206928
86	0xbdcf1f51	-0.10113395
87	0x3dcdbfdb	0.10046359
88	0x3d988518	0.074472606
89	0xbbf2a41a	-0.0074048163
90	0x3d52ba51	0.051447216
91	0xbc8494cb	-0.016184231
92	0x3cb2f5d9	0.021845745
93	0xbd451198	-0.04811248
94	0xbd423fdd	-0.047424186
95	0x3e0a6520	0.13515139
96	0x3dd26082	0.10272314
97	0x3dbb01df	0.09131216
98	0xbda9678d	-0.08271704
99	0x3d984755	0.074354805
100	0xbd8520ab	-0.065003715
101	0xbdee792a	-0.11644204
102	0xbd99b743	-0.075056575
103	0xbb95ad8b	-0.004567807
104	0x3da20f6f	0.079131
105	0xbd010af7	-0.031504598
106	0xbe258030	-0.16162181
107	0x3da29adb	0.079396926
108	0xbcd6e97a	-0.026234377
109	0x3dac1ffd	0.08404539
110	0xbd5bdb72	-0.053676076
111	0xbdec97fc	-0.11552426
112	0xbe00ae1e	-0.1256642
113	0xbd7d85cc	-0.061895177
114	0x3d8d3d42	0.068964496
115	0x3da50872	0.080582514
116	0x3c172e78	0.009227388
117	0x3de0fda9	0.10985882
118	0x3d3a6071	0.04550213
119	0x3cfd7ee4	0.030944295
120	0x3d95246c	0.072823375
121	0x3db15e1e	0.086605296
122	0xbcd922f8	-0.026505932
123	0x3e0db203	0.13837437
124	0x3d7dc189	0.061952148
125	0xbc33ce61	-0.0109744975
126	0xbd6f2f6b	-0.05839483
127	0xbe0b3ddd	-0.13597818
128	0x3d8d9c2c	0.06914553
129	0xbda664d5	-0.08124701
130	0x3d8c0ea7	0.06838732
131	0x3d74ecfe	0.059796326
132	0xbdaaa5da	-0.08332415
133	0x3d442a40	0.047891855
134	0x3c8c4fb1	0.017127844
135	0xbdbdf102	-0.09274484
136	0xbcab89ed	-0.020939792
137	0xbdbc5e80	-0.09197712
138	0x3dfd846b	0.12378772
139	0x3d30573e	0.04305195
140	0x3c649906	0.013952499
141	0xbd7d9dee	-0.06191819
142	0xbdf177ee	-0.11790453
143	0xbcb4b052	-0.022056732
144	0xbd39e1cf	-0.045381363
145	0xbc97ccbb	-0.01853024
146	0x3d68f3ca	0.05687312
147	0x3b596d8a	0.0033176863
148	0xbd88ec93	-0.06685748
149	0xbd7a406c	-0.061096594
150	0x3d105d02	0.03524495
151	0xbd1419cd	-0.036157418
152	0xbda300f7	-0.079591684
153	0xbd1b6fd8	-0.03794846
154	0x3d927fc7	0.07153278
155	0xbe0444c4	-0.12916857
156	0xbdd2b032	-0.10287513
157	0xbd7e8595	-0.062139113
158	0xbc635a95	-0.013876577
159	0x3e02dbce	0.12779161
160	0xbde8801e	-0.113525614
161	0xbd801326	-0.06253652
162	0x3da6e7db	0.08149692
163	0x3de4d892	0.1117412
164	0x3d51bdbf	0.051206347
165	0x3b0c77e4	0.0021433765
166	0x3d7d9a56	0.061914764
167	0x3db8093e	0.08986138
168	0xbd6cc18d	-0.057801772
169	0xbcb3c30f	-0.021943597
170	0x3c824e81	0.015906574
171	0xbdb2f012	-0.08737196
172	0xbcd02993	-0.02541045
173	0x3de5f1d0	0.11227763
174	0x3c9b94ce	0.018991854
175	0x3c026331	0.007958219
176	0xbd799de1	-0.06094158
177	0xbd4ffa33	-0.050775718
178	0x3d6221a1	0.055207852
179	0xbd7485d3	-0.059697937
180	0x3cf1ba44	0.029507764
181	0x3d84c0a3	0.06482055
182	0xbc39502b	-0.011310617
183	0x3ce78aea	0.028264482
184	0xbd44dc20	-0.04806149
185	0xbcc5cbb3	-0.024144983
186	0x3c91bd85	0.017790565
187	0xbd68c626	-0.056829594
188	0xbdbb33ec	-0.09140763
189	0x3d4d0e0c	0.050062224
190	0x3ca05229	0.019570427
191	0xbdfe2515	-0.124094166
192	0xbd98d8d3	-0.07463231
193	0x3d98a195	0.07452694
194	0x3ccbb083	0.02486444
195	0x3d0a1f67	0.033721354
196	0xbcac464e	-0.021029618
197	0xbc3a294c	-0.011362385
198	0xbd069c3a	-0.032863833
199	0xbd0bc903	-0.034127247
200	0xbdcbd84c	-0.09953365
201	0x3ca0203c	0.01954662
202	0x3d37dd9a	0.04488907
203	0xbcb73a51	-0.022366675
204	0x3b856ba4	0.0040716697
205	0xbceff8d3	-0.029293453
206	0xbd05bfd7	-0.032653656
207	0x3d96bf04	0.07360652
208	0xbd9f6c1f	-0.07784294
209	0xbd9b6703	-0.07588007
210	0x3cc343e4	0.023836084
211	0x3d1acc8c	0.037792727
212	0xbd1a360c	-0.0376492
213	0x3dcde320	0.10053086
214	0xbda18431	-0.07886542
215	0x3dd1f66b	0.102520786
216	0x3b88ac4d	0.0041709305
217	0xbd98c607	-0.07459646
218	0x3d92dd26	0.07171087
219	0xbdba09c3	-0.09083893
220	0xbdf062ea	-0.11737616
221	0xbd22c6ed	-0.03974049
222	0xbd67dccb	-0.05660705
223	0x3dbed841	0.09318591
224	0xbd2b96a6	-0.041891716
225	0x3d325334	0.04353638
226	0xbe070508	-0.13185513
227	0x3d802648	0.062573016
228	0xbd44d199	-0.04805145
229	0xbd991ed2	-0.07476582
230	0x3bf05e3b	0.007335452
231	0x3db3a083	0.087708496
232	0x3dd83461	0.105568655
233	0xbc8ada3f	-0.016949771
234	0xbd7e7712	-0.062125273
235	0x3dbde210	0.092716336
236	0x3d46ec4e	0.0485652
237	0x3c4123fb	0.011788364
238	0x3d328073	0.04357953
239	0xbd5b892f	-0.053597625
240	0x3b22f05e	0.0024862508
241	0x3d94d0e4	0.07266405
242	0xbd050c97	-0.03248271
243	0x3da21896	0.07914846
244	0x3d38e642	0.045141466
245	0x3dde5e62	0.10857846
246	0xbdb26f9a	-0.087126926
247	0xbd73a640	-0.05948472
248	0xbd314bd7	-0.043285217
249	0x3c057d61	0.008147568
250	0x3da1234b	0.0786806
251	0xbd055397	-0.03255042
252	0x3d0ff296	0.035143457
253	0x3c4766e2	0.012170525
254	0x3e071925	0.13193186
255	0xbd09925f	-0.033586856

_network.3.bias f4 [96]
0	0x3d11719e	0.035508744
1	0xbdce08e8	-0.100602925
2	0xbd35e5b5	-0.04440852
3	0xbd4a9c4a	-0.049465455
4	0x3dc80171	0.097659
5	0xbd301571	-0.042989198
6	0xbd893e36	-0.06701319
7	0xbd123b96	-0.035701357
8	0x3c235bd8	0.009970628
9	0x3d293cdb	0.041317802
10	0x3d9988d5	0.07496802
11	0x3d96ebd6	0.07369201
12	0x3c273a6b	0.010206799
13	0x3dbe7b2a	0.093008354
14	0x3d5ee953	0.054421734
15	0x3d5f21d5	0.054475624
16	0xbdb34238	-0.087528646
17	0x3c084a72	0.00831853
18	0xbcb1fcf3	-0.02172706
19	0xbdc66029	-0.0968631
20	0xbd4e3f00	-0.05035305
21	0x3d9f11b9	0.07767052
22	0x3d19712e	0.037461452
23	0x3dc0ee6e	0.09420477
24	0x3d8e6e96	0.06954686
25	0xba486c0f	-0.00076454965
26	0x3dbbc99e	0.09169315
27	0x3cb1faf8	0.021726117
28	0xbc7576e8	-0.014981963
29	0xbd32c5f3	-0.04364581
30	0x3d86c8bf	0.06581258
31	0x3d3ae4b2	0.045628257
32	0x3d90ffcd	0.0708004
33	0xbc90e75d	-0.017688448
34	0xbdc14f41	-0.094389446
35	0x3c9794df	0.018503604
36	0x3c373abb	0.011183436
37	0xbd883673	-0.0665101
38	0x3cc99365	0.024606416
39	0xbc4bcde1	-0.012439222
40	0x3db23b78	0.08702749
41	0x3b98c102	0.00466168
42	0xbd4e5c26	-0.05038085
43	0x3da6fe1c	0.08153936
44	0x3b46e39f	0.0030348075
45	0xbc8ca705	-0.017169485
46	0x3d476cbc	0.04868768
47	0x3dc81666	0.09769897
48	0x3d3edfe9	0.046600256
49	0x3b32ee0e	0.0027302536
50	0x3dab33d3	0.08359494
51	0xbd375eae	-0.044768028
52	0x3dba12c3	0.0908561
53	0xbd6e31a3	-0.058152806
54	0x3afe627d	0.0019408014
55	0x3dbe4abc	0.09291598
56	0x3d26f55a	0.04076133
57	0xbcaf5072	-0.021400664
58	0x3d810163	0.062990926
59	0x3d770bb0	0.06031388
60	0xbdbc468d	-0.09193144
61	0xbc3a94b9	-0.011387997
62	0xbda46166	-0.0802639
63	0xbcb4078e	-0.021976259
64	0xbc4821a7	-0.012215055
65	0xbd27cc76	-0.040966474
66	0xbd18b2e6	-0.037279986
67	0x3d6269ab	0.055276554
68	0xbb3f83d6	-0.0029222867
69	0xbdcff3cf	-0.10153925
70	0x3c8ebc61	0.01742381
71	0xbdcd7d92	-0.10033716
72	0xbd8f3597	-0.06992643
73	0x3d7f6f90	0.062362254
74	0x3d9fed73	0.07808962
75	0xbd146a2b	-0.036234062
76	0xbd7e0561	-0.06201685
77	0x3d3d6d72	0.046246953
78	0xbdc7aa86	-0.09749322
79	0x3d80ef01	0.062955864
80	0x3d901637	0.07035487
81	0x3d30ab54	0.04313214
82	0x3cfefd25	0.031126568
83	0x3cab72b7	0.020928724
84	0xbda09d71	-0.078425296
85	0xbd27b085	-0.040939827
86	0x3d86b7ec	0.06578049
87	0x3db01da0	0.085994005
88	0x3b292cab	0.0025813978
89	0x3cd72a43	0.02626527
90	0xbdc60daf	-0.09670579
91	0x3d94d93f	0.07267999
92	0xbd73474a	-0.05939416
93	0xbd600495	-0.05469187
94	0x3dce1c91	0.10064042
95	0xbcf01439	-0.029306518

_network.4.weight f4 [96]
0	0x3f825e94	1.0185113
1	0x3f801f1e	1.0009496
2	0x3f80f6e7	1.0075349
3	0x3f921bc6	1.1414726
4	0x3f6ea6a7	0.9322304
5	0x3f73fd28	0.9530816
6	0x3f7ad0fd	0.9797514
7	0x3f7be93f	0.9840278
8	0x3f81ce3d	1.0141064
9	0x3f83c0aa	1.0293171
10	0x3f708482	0.9395219
11	0x3f7ca276	0.98685396
12	0x3f8573a4	1.0425916
13	0x3f78163e	0.9690894
14	0x3f7bd14f	0.98366255
15	0x3f81debe	1.01461
16	0x3f79969f	0.97495455
17	0x3f82e74a	1.0226834
18	0x3f72942e	0.94757354
19	0x3f845f91	1.0341665
20	0x3f866b3c	1.0501475
21	0x3f744ee1	0.9543286
22	0x3f75f9b8	0.96084166
23	0x3f754fbc	0.9582479
24	0x3f81845d	1.0118519
25	0x3f6fa1d5	0.9360631
26	0x3f73db61	0.9525662
27	0x3f7aebbf	0.9801597
28	0x3f7b2351	0.98100764
29	0x3f780d5a	0.9689537
30	0x3f8988c8	1.0744867
31	0x3f835d6a	1.0262883
32	0x3f848414	1.0352807
33	0x3f71ae0f	0.9440622
34	0x3f83e83d	1.0305248
35	0x3f6ffe3f	0.93747324
36	0x3f80d364	1.0064511
37	0x3f82c032	1.0214903
38	0x3f7f92df	0.9983348
39	0x3f657896	0.89637125
40	0x3f876d44	1.058022
41	0x3f827161	1.019085
42	0x3f83719a	1.0269043
43	0x3f78b3d9	0.97149426
44	0x3f72ac38	0.94794035
45	0x3f80c55a	1.0060227
46	0x3f60d585	0.87825805
47	0x3f869531	1.051428
48	0x3f847235	1.0347353
49	0x3f7ec713	0.99522513
50	0x3f6e4708	0.93077135
51	0x3f854b4a	1.0413601
52	0x3f8307ae	1.0236719
53	0x3f6af5f7	0.9178156
54	0x3f701bd8	0.93792486
55	0x3f84988b	1.0359052
56	0x3f78709c	0.9704683
57	0x3f830105	1.0234686
58	0x3f832fff	1.0249022
59	0x3f78a86d	0.97132
60	0x3f6ae55f	0.9175624
61	0x3f7516bf	0.9573783
62	0x3f8722ce	1.0557497
63	0x3f6bab08	0.9205785
64	0x3f74a34b	0.95561665
65	0x3f87c39c	1.060657
66	0x3f72279e	0.945917
67	0x3f8655e3	1.049496
68	0x3f7e6010	0.9936533
69	0x3f77e7f8	0.9683833
70	0x3f807bfd	1.0037838
71	0x3f74db95	0.95647556
72	0x3f808300	1.0039978
73	0x3f76d261	0.9641476
74	0x3f79f7dd	0.97643834
75	0x3f81b7d4	1.0134225
76	0x3f7a50be	0.9777945
77	0x3f7977fe	0.9744872
78	0x3f791f6f	0.9731359
79	0x3f730f0b	0.9494483
80	0x3f7fb0eb	0.9987933
81	0x3f81ed48	1.0150537
82	0x3f84bea7	1.0370682
83	0x3f75e973	0.9605934
84	0x3f8ccf40	1.1000748
85	0x3f80e03c	1.0068431
86	0x3f81b325	1.0132796
87	0x3f796fd0	0.9743624
88	0x3f7af0b5	0.9802354
89	0x3f7b0783	0.98058337
90	0x3f762596	0.961511
91	0x3f807496	1.0035579
92	0x3f8569a6	1.0422866
93	0x3f80effa	1.0073235
94	0x3f85b795	1.044665
95	0x3f730633	0.94931334

_network.4.bias f4 [96]
0	0x3bada7df	0.005299553
1	0x3c42e911	0.011896388
2	0xbb668277	-0.0035172978
3	0x3e23d180	0.15997887
4	0xbd2599c6	-0.040429853
5	0xbd8e6dbd	-0.06954525
6	0x3c08a20e	0.008339418
7	0xbcdab8f1	-0.026699515
8	0x3bac3343	0.0052551343
9	0x3cf897dc	0.03034585
10	0xbd5ecb50	-0.054393113
11	0xbd285f28	-0.041106373
12	0x3c7b4cc0	0.015338123
13	0xbceacbc2	-0.028661612
14	0xbb7b3cc9	-0.0038335791
15	0xbc4f4ece	-0.012653066
16	0xba6bf796	-0.0009001432
17	0x3dfdcb6c	0.12392315
18	0xbd451e49	-0.048124585
19	0x3d8a8dee	0.06765352
20	0xb9f76e62	-0.00047193753
21	0xbd11c605	-0.035589237
22	0xbb83dae7	-0.004023898
23	0xbd33bf42	-0.04388357
24	0x3d268cfa	0.04066179
25	0xbd011dea	-0.03152267
26	0xbc82856e	-0.015932765
27	0xbd268cfb	-0.040661793
28	0x3c83d83f	0.016094325
29	0xbd15efa7	-0.036605503
30	0x3e05afc6	0.13055333
31	0xbaaa9300	-0.001301378
32	0x3db29d43	0.087214015
33	0xbd30dd98	-0.04318008
34	0x3e08d95c	0.13364166
35	0xbd0ccfbd	-0.034377802
36	0xbd4d49ca	-0.0501192
37	0x3da17805	0.0788422
38	0xbb96ad33	-0.0045982837
39	0xbde1d1ed	-0.11026368
40	0x3df33528	0.11875373
41	0x3b32c011	0.0027275125
42	0xbdc36f8d	-0.09542761
43	0xbbd3a7d1	-0.0064592143
44	0xbd7b7412	-0.06138999
45	0xbb987261	-0.004652307
46	0xbcf04e9c	-0.029334359
47	0xbe8b520d	-0.27211037
48	0xbbd34743	-0.006447704
49	0x3bbe33a6	0.005804497
50	0xbde38944	-0.11110166
51	0x3c64cc9b	0.013964797
52	0xbe12f2d4	-0.14350444
53	0xba4c5f37	-0.00077961705
54	0xbd67d313	-0.05659778
55	0x3d9f4974	0.07777682
56	0xbc0916f5	-0.00836729
57	0x3d540bb1	0.051768962
58	0x3d813999	0.06309814
59	0xbb8066be	-0.003918498
60	0xbd3c7d21	-0.04601777
61	0x3bfa11a9	0.0076315
62	0x3d172448	0.036899835
63	0xbd8f43ee	-0.069953784
64	0x3c8d0fd2	0.017219458
65	0x3dd8540b	0.10562905
66	0xbd16c707	-0.0368109
67	0xbd1ed57f	-0.038777824
68	0x3c3d4c82	0.011553885
69	0x3c43909a	0.011936331
70	0x3d13df7c	0.036101803
71	0xbcb68d26	-0.022284102
72	0x3db348bc	0.08754107
73	0x3b19b23d	0.0023452186
74	0x3c5c6c0f	0.013453498
75	0x3d386302	0.045016296
76	0xbdf2bdd9	-0.11852617
77	0xbd242b83	-0.04008056
78	0xbcb8e447	-0.022569789
79	0x3d04cc99	0.032421682
80	0xbd23082e	-0.039802723
81	0xbde81eca	-0.113339975
82	0xbbc6e9dd	-0.006070359
83	0xbdabaf8e	-0.08383094
84	0x3da56046	0.08075003
85	0x3d9da200	0.07696915
86	0xbcf5832d	-0.029969776
87	0x3c7fdf78	0.015617244
88	0xbd8eab5b	-0.06966277
89	0xbbc25cbf	-0.0059314664
90	0xbc17a5ad	-0.009255809
91	0xbdb2c454	-0.08728853
92	0x3e160877	0.14651667
93	0x3d0c046a	0.034183897
94	0xbab6c64d	-0.0013944596
95	0xbd0ab576	-0.03386446

_network.4.running_mean f4 [96]
0	0xbeba4f60	-0.36388683
1	0xbe8f3e0a	-0.2797702
2	0x3ca76f5f	0.020438848
3	0xbeca7811	-0.39544728
4	0xbed1ed63	-0.41001424
5	0xbebdb9c4	-0.3705579
6	0x3e09cdb6	0.13457379
7	0x3f02ef09	0.5114599
8	0xbe71d010	-0.23614526
9	0x3d43bc0b	0.047786754
10	0xbf0a49a7	-0.54018635
11	0x3e9ff039	0.31237963
12	0x3e5cd323	0.21564917
13	0xbd3da95f	-0.046304103
14	0xbf2efe72	-0.68357
15	0xbd74afd3	-0.05973799
16	0x3e9d5a34	0.30732882
17	0xbf91b508	-1.1383371
18	0xbec18315	-0.3779532
19	0xbef2cf95	-0.47423998
20	0xbc7ea93a	-0.015543276
21	0xbf1b0cea	-0.6056658
22	0x3f016c05	0.5055545
23	0xbcb57878	-0.02215217
24	0xbf335536	-0.70051897
25	0xbd9b9065	-0.075959004
26	0xbf6eb97a	-0.93251765
27	0x3f64927e	0.8928603
28	0xbf77a53d	-0.9673651
29	0xbd68e364	-0.05685748
30	0xbe12c141	-0.14331533
31	0x3e2ed531	0.17073514
32	0xbeb0caa8	-0.34529614
33	0xbe2be094	-0.16784889
34	0xbec5efcf	-0.38659522
35	0xbf13661b	-0.57577676
36	0x3e80d975	0.25165907
37	0xbf32de53	-0.6987049
38	0x3d8f309e	0.06991695
39	0xbee1cf3d	-0.44103423
40	0xbf5ea92d	-0.8697689
41	0xbdd81163	-0.10550191
42	0x3ef6073f	0.48052403
43	0xbe2036b8	-0.15645874
44	0x3e53e2af	0.20691942
45	0xbd0ce9d8	-0.0344027
46	0x3f577626	0.84164655
47	0x3fb5a5e7	1.4191254
48	0x3da84b58	0.08217496
49	0xbe7c4307	-0.24634944
50	0x3f0cbaed	0.54972726
51	0x3d8b7466	0.068093106
52	0x3f8c07f5	1.0939928
53	0xbeb02832	-0.34405667
54	0x3e19b7ba	0.15011492
55	0x3ed1e42d	0.40994397
56	0xbeb83baa	-0.3598302
57	0xbe3a8476	-0.18214592
58	0xbf0e90d1	-0.5568972
59	0xbdd3f435	-0.10349313
60	0xbeda44a8	-0.42630506
61	0x3e8836ac	0.2660421
62	0xbc90e13a	-0.017685521
63	0x3e52de82	0.20592692
64	0x3e58edb2	0.21184424
65	0xbe4676fb	-0.19381325
66	0xbc119d86	-0.008887654
67	0xbd5424c5	-0.05179288
68	0xbef7e9e7	-0.4842064
69	0xbeedfccb	-0.46481928
70	0xbeb657d2	-0.35613877
71	0x3e3cbb67	0.18430863
72	0xbf01ab3a	-0.50651896
73	0xbdb59ee9	-0.088682
74	0xbec8a10b	-0.39185366
75	0xbf1910fd	-0.5979155
76	0x3f0da080	0.5532303
77	0xbf5f4562	-0.87215245
78	0xbedc5c79	-0.430393
79	0xbe51b335	-0.20478518
80	0x3eec59f4	0.4616238
81	0x3f36f110	0.7146158
82	0xbeb82159	-0.35962942
83	0x3f4186fe	0.75596607
84	0xbe8d0ecc	-0.27550352
85	0xbf184471	-0.59479433
86	0x3e0d5606	0.13802347
87	0xbf05b3f7	-0.5222773
88	0x3f160808	0.58606005
89	0x3f1eac70	0.6198187
90	0xbea4ddb6	-0.32200402
91	0x3f3436dd	0.70396215
92	0xbf55125d	-0.83231145
93	0x3b69de4a	0.0035685473
94	0x3ec850a8	0.39124036
95	0xbf14df9d	-0.58153707

_network.4.running_var f4 [96]
0	0x3ea16a6f	0.31526515
1	0x3e78ae85	0.24285324
2	0x3def75ae	0.116923675
3	0x3e35e124	0.17761666
4	0x3f32a3ef	0.6978139
5	0x3e771c47	0.2413188
6	0x3f13893f	0.57631296
7	0x3ed2f59e	0.41203016
8	0x3f0ab4aa	0.5418192
9	0x3d94f23f	0.07272767
10	0x3ebf84b1	0.37405923
11	0x3f05eccd	0.52314454
12	0x3e0281d6	0.12744841
13	0x3e9bcacf	0.30428168
14	0x3ec9da00	0.39424133
15	0x3dba3cf5	0.09093658
16	0x3f093529	0.5359674
17	0x3ede3fc0	0.43408012
18	0x3ee2d0ab	0.44299826
19	0x3e85b362	0.2611342
20	0x3e3fa7ca	0.1871635
21	0x3fa41389	1.2818462
22	0x3f08f07c	0.5349195
23	0x3ec454b1	0.38345864
24	0x3f4de3bb	0.80425614
25	0x3f439f6f	0.7641515
26	0x3f3041e2	0.6885053
27	0x3e6c436c	0.23072594
28	0x3ec7e5ca	0.39042503
29	0x3edfde61	0.4372435
30	0x3f15d97c	0.5853498
31	0x3e5507e9	0.20803799
32	0x3eedb97d	0.4643058
33	0x3ede7aa0	0.4345293
34	0x3e203181	0.15643884
35	0x3f863ffd	1.0488278
36	0x3e83acde	0.25717825
37	0x3ea4e0c4	0.32202733
38	0x3eb2b22c	0.3490156
39	0x3e994f81	0.2994347
40	0x3eac6567	0.33671114
41	0x3e4397ef	0.19100927
42	0x3ebf2f8b	0.3734096
43	0x3e88022f	0.26564166
44	0x3f1dc079	0.61621815
45	0x3ea3228d	0.31862298
46	0x3ef3348d	0.4750103
47	0x3e43c0c2	0.191165
48	0x3e92c79e	0.2866792
49	0x3ebe823c	0.37208736
50	0x3f17271a	0.5904404
51	0x3eb41920	0.3517542
52	0x3dfd9714	0.123823315
53	0x3ef83c31	0.48483422
54	0x3e9ce5d8	0.30644107
55	0x3ea83c2f	0.32858416
56	0x3e19dd75	0.15025885
57	0x3e1e5341	0.15461446
58	0x3e3b125b	0.18268721
59	0x3e1dd6db	0.15413992
60	0x3f103ef1	0.5634604
61	0x3eceb9ee	0.40376228
62	0x3ddceabe	0.10786961
63	0x3ecda993	0.40168437
64	0x3ec3726f	0.38173243
65	0x3df7f8c5	0.12107996
66	0x3eba5d0d	0.36399117
67	0x3d5cb4ef	0.05388349
68	0x3f163e6a	0.58688986
69	0x3eb975c6	0.36222667
70	0x3f19efaa	0.60131323
71	0x3e7ea7fe	0.24868771
72	0x3e7971f1	0.24359871
73	0x3f11f65a	0.5701653
74	0x3f200c89	0.6251913
75	0x3ee90626	0.45512503
76	0x3e78b9ab	0.24289577
77	0x3eb9f480	0.3631935
78	0x3ebed71b	0.37273487
79	0x3eaf4300	0.34230804
80	0x3ecda95e	0.4016828
81	0x3ecb3c4b	0.39694437
82	0x3ecfc91e	0.40583128
83	0x3e6cc964	0.231237
84	0x3d484c14	0.04890068
85	0x3e9d4a40	0.3072071
86	0x3ea3d02d	0.31994763
87	0x3f497caf	0.7870588
88	0x3e1a4ed8	0.15069139
89	0x3ec06df1	0.3758388
90	0x3ed6127e	0.41810983
91	0x3da933e2	0.08261849
92	0x3f132ef5	0.57493526
93	0x3e41c3cd	0.18922348
94	0x3df27cc9	0.11840207
95	0x3f396edc	0.72434783

_network.6.weight f4 [96, 96]
0	0xbcfa30ae	-0.03054079
1	0x3cfc41eb	0.03079315
2	0xbc81cdac	-0.015845142
3	0x3dc4ecad	0.09615455
4	0x3d3228b0	0.043495834
5	0x3d8f7589	0.0700484
6	0x3d37f07f	0.04490709
7	0xbd6df718	-0.058096975
8	0xbdfe2b70	-0.12410629
9	0xbc24c53f	-0.010056793
10	0xbce07671	-0.027400227
11	0x3d84014b	0.06445559
12	0xbca13312	-0.019677673
13	0xbdbc776a	-0.09202464
14	0xbd7607df	-0.0600661
15	0xbb9dd16c	-0.004816225
16	0x3de4d6ec	0.111738056
17	0xbdc670cf	-0.09689485
18	0x3c4f8d7c	0.01266801
19	0xbd3b5358	-0.04573378
20	0x3c964d53	0.018347418
21	0xbc54b9bd	-0.012983737
22	0x3d915939	0.07097096
23	0x3ce2602d	0.02763375
24	0xbd08404b	-0.03326444
25	0x3d0866e5	0.033301253
26	0x3d0c9978	0.034326047
27	0x3ca10df6	0.019659977
28	0x3dce2a86	0.100667045
29	0x3c6dc61e	0.014512567
30	0x3dddcc3e	0.10829972
31	0xbdd434ad	-0.103616096
32	0x3d81746a	0.06321032
33	0x3cf561d5	0.029953877
34	0xbcb64826	-0.0222512
35	0x3d2f4e5b	0.042799335
36	0xbc37f1a6	-0.011227047
37	0xbdf82c73	-0.12117853
38	0x3d7518ef	0.05983823
39	0x3d0a30bf	0.033737894
40	0xbe0a289c	-0.13492054
41	0x3cab8f64	0.020942397
42	0xbd4e12bc	-0.050310835
43	0xbce7ee12	-0.028311763
44	0x3d12681b	0.035743814
45	0xbdb9ad7c	-0.09066293
46	0xbd9c72b1	-0.07639063
47	0xbdfb9cc4	-0.1228576
48	0xbd8a2286	-0.06744866
49	0x3df0e1ed	0.11761842
50	0xbc0c4ef1	-0.008563743
51	0xbcbc13ff	-0.022958754
52	0xbd52dc37	-0.051479544
53	0x3d12e7b5	0.035865504
54	0x3db657b6	0.08903448
55	0xbb94d4c0	-0.0045419633
56	0x3bc6373d	0.0060490654
57	0xbd37f92a	-0.044915356
58	0xbda4e6c0	-0.080518246
59	0xbc2c4671	-0.010514841
60	0xbc2df445	-0.01061732
61	0xbd4a777d	-0.04943036
62	0xbd272644	-0.040807977
63	0x3d967d2f	0.073480956
64	0x3d2789c8	0.040902883
65	0xbc554c3c	-0.013018664
66	0x3d056432	0.032566257
67	0x3e00cfb1	0.12579228
68	0xbd56a14c	-0.05239992
69	0x3d921d32	0.07134475
70	0xbdc61516	-0.096719906
71	0x3d3e2266	0.046419524
72	0xbd68b67d	-0.05681466
73	0x3ba4c459	0.0050282893
74	0xbdda643b	-0.10663649
75	0xbd761528	-0.06007877
76	0x3bff3e68	0.007789422
77	0xbc747e12	-0.014922636
78	0x3dfa05ee	0.12208162
79	0xbcc37c97	-0.02386312
80	0x3d9c7e85	0.07641319
81	0x3d014b2e	0.031565838
82	0xbd5069ac	-0.050882027
83	0xbd9f742b	-0.07785829
84	0xbdbfa7ba	-0.09358163
85	0xbd18c11f	-0.03729355
86	0xbcf63d7f	-0.03005862
87	0xbd8ae4be	-0.0678191
88	0xbdc69e95	-0.09698216
89	0x3ca4d7ad	0.020122373
90	0xbddab84e	-0.106796846
91	0xbe1cc30b	-0.15308778
92	0x3ca11344	0.019662507
93	0xbd5ba865	-0.05362739
94	0x3d5127d3	0.05106337
95	0xbd90a044	-0.07061818
96	0xbcaabb47	-0.020841254
97	0x3d5413f9	0.05177686
98	0xbda6942e	-0.08133732
99	0xbe28df43	-0.16491418
100	0x3c178f06	0.009250408
101	0xbdbb719f	-0.09152531
102	0x3d6a2a67	0.057169344
103	0x3d8ce1de	0.06879018
104	0x3d388003	0.045043956
105	0x3d5fdb84	0.054652706
106	0x3d9e2dd9	0.077235885
107	0x3c7cc032	0.015426682
108	0x3dcad1dc	0.09903309
109	0xbcedb2ec	-0.02901598
110	0x3db93dd1	0.09044994
111	0xbd3e7224	-0.04649557
112	0x3d275cc7	0.040859964
113	0xbdf19a90	-0.117970586
114	0xbd8dd9d2	-0.069263116
115	0xbe037d3f	-0.12840746
116	0x3d0b490b	0.034005206
117	0x3b6e61ec	0.0036374284
118	0xbdafa0ab	-0.08575567
119	0x3da22f51	0.07919181
120	0xbbc3fdc7	-0.0059811804
121	0x3d9e052d	0.07715831
122	0xbaa616c1	-0.0012671576
123	0xbb8ef3f8	-0.0043625794
124	0x3da54e6b	0.08071598
125	0xbcf7f0e4	-0.030266233
126	0x3d7204f5	0.05908676
127	0xbd9b3846	-0.07579093
128	0xbc96344b	-0.018335482
129	0xbd7b847b	-0.06140564
130	0xbe02aedd	-0.12762018
131	0x3dcb5331	0.09927977
132	0xbc4604f3	-0.012086141
133	0xbd036559	-0.032079075
134	0x3dae995c	0.08525345
135	0x3dbd2962	0.09236409
136	0xbe04705b	-0.12933485
137	0xb9b58e0d	-0.00034628846
138	0x3d549c2c	0.05190675
139	0x3dcd52c0	0.10025549
140	0x3baccd1e	0.0052734753
141	0xbd20dc0c	-0.039272353
142	0xbd2ba9e0	-0.041910052
143	0x3b387d11	0.0028150717
144	0x3ce769aa	0.028248627
145	0x3cf2f867	0.029659463
146	0xbd025813	-0.031822275
147	0xbd9d6b23	-0.0768645
148	0xbd8f61a1	-0.07001043
149	0xbd608f39	-0.054824088
150	0xbcdad58b	-0.026713153
151	0xbd7a694a	-0.061135568
152	0x3d7637f2	0.060111947
153	0xbe0374f2	-0.1283758
154	0x3ccb5d72	0.024824832
155	0x3c1ef8fa	0.009702915
156	0x3db91e1c	0.09038946
157	0x3d89639f	0.06708454
158	0xbd8c2947	-0.068438105
159	0xbd0b2450	-0.033970177
160	0xbde39fcc	-0.11114463
161	0xbd7aa55c	-0.061192855
162	0xbd97db68	-0.07414895
163	0x3d902790	0.07038796
164	0xbd39f6be	-0.045401327
165	0xbd4a651f	-0.049412843
166	0x3c66676e	0.0140627455
167	0xbd2b1bc5	-0.04177453
168	0x3d235e59	0.0398849
169	0x3dfc2977	0.12312596
170	0xbd952cd2	-0.072839394
171	0x3d939ba3	0.0720742
172	0x3cae770c	0.021297
173	0x3cc41e70	0.023940295
174	0xbd5afd83	-0.053464424
175	0x3ca630f7	0.02028702
176	0xbbca97f7	-0.0061826664
177	0x3d1fbf29	0.039000664
178	0xbcf849d6	-0.030308645
179	0x3d3bd32b	0.045855682
180	0x3c956398	0.018235967
181	0xbda43882	-0.080185905
182	0xbd9e0735	-0.077162184
183	0xbd17b68b	-0.03703932
184	0xbdba5e6b	-0.0910004
185	0x3dda7b91	0.106681
186	0xbd49fed2	-0.04931528
187	0xbdacc437	-0.084358625
188	0xbdbd38c8	-0.09239346
189	0x3ab8b301	0.0014091433
190	0xbd25a12b	-0.040436905
191	0xbd875788	-0.06608492
192	0xbddf12dc	-0.10892269
193	0xbd385131	-0.044999305
194	0xbbc71d16	-0.0060764654
195	0xbe3bb193	-0.18329458
196	0xbd997634	-0.074932486
197	0xbda885ec	-0.082286686
198	0x3c82b2f7	0.015954478
199	0x3d3e25d4	0.046422794
200	0x3c3b683d	0.011438427
201	0xbda47e0f	-0.08031856
202	0xbd842423	-0.06452205
203	0x3d0e2847	0.03470638
204	0xbba263a2	-0.004955725
205	0xbc16ffb4	-0.009216238
206	0xbbc6ec43	-0.006070645
207	0x3ca46973	0.020069813
208	0x3c38f074	0.011287797
209	0x3dafe34e	0.08588277
210	0x3d8ddbef	0.06926715
211	0xbb9c1ac5	-0.0047639334
212	0xbd0e3f23	-0.03472818
213	0xbd7db9ea	-0.06194488
214	0xbdfccd38	-0.1234383
215	0x3d9dbc4f	0.07701933
216	0x3d58f154	0.052964523
217	0xbd836499	-0.06415672
218	0x3d19974c	0.037497804
219	0x3cb9e1e9	0.02269073
220	0x3d9b0ad4	0.07570425
221	0x3d0a62d3	0.033785652
222	0xbda099dc	-0.07841846
223	0xbd717bc8	-0.058955938
224	0xbd932a25	-0.07185773
225	0x3dbc31bb	0.09189173
226	0x3d9a6270	0.07538307
227	0xbdc15670	-0.09440315
228	0x3dacb429	0.084328
229	0xbdb2c480	-0.08728886
230	0x3d71c4d5	0.059025604
231	0x3d2d28ad	0.04227512
232	0x3df45dde	0.11931966
233	0x3bd3e5c9	0.0064666015
234	0xbcf3623d	-0.02970993
235	0xbda1ac5d	-0.07894204
236	0xbc4a04d3	-0.012330252
237	0x3c922950	0.017841965
238	0x3cfc1a2f	0.030774204
239	0x3d3dc786	0.04633286
240	0xbc0b29f6	-0.008493891
241	0xbe082150	-0.13293958
242	0xbd7bd98e	-0.061486773
243	0x3d7ce518	0.06174192
244	0x3c89bc0c	0.0168133
245	0x3d9b1fa8	0.07574397
246	0xbdacd591	-0.08439172
247	0xbdabe8c0	-0.08394003
248	0x3d4a9386	0.049457096
249	0x3c888a95	0.016667644
250	0xbdd45bf6	-0.10369103
251	0xbd74de29	-0.05978218
252	0xbc1e764f	-0.009671762
253	0xbd13ad27	-0.036053803
254	0xbddb5696	-0.10709874
255	0xbde15a1e	-0.110035166

_network.6.bias f4 [96]
0	0x3d48da2b	0.049036186
1	0xbcf31b89	-0.029676216
2	0xbd7b24e8	-0.061314493
3	0x3d412e9c	0.04716359
4	0xbd812346	-0.06305556
5	0x3cb45d57	0.022017164
6	0x3cedcc75	0.029028157
7	0xbb18fd1c	-0.0023344224
8	0xbcd6a502	-0.026201729
9	0xbc602b34	-0.013682175
10	0xbd6c994d	-0.057763387
11	0x3d89603e	0.0670781
12	0xbc15705c	-0.009121027
13	0xbd2eaade	-0.04264342
14	0xbd64e8a0	-0.05588591
15	0x3d389100	0.045060158
16	0xbd80da00	-0.0629158
17	0x3d2c539a	0.042071916
18	0x3995b522	0.0002855445
19	0xbdc0d455	-0.09415499
20	0x3d857d6b	0.06518062
21	0x3d246e65	0.040144343
22	0x3d3096e1	0.04311264
23	0xbd3b38bc	-0.045708403
24	0xbdb5a548	-0.088694155
25	0x3d452468	0.048130423
26	0xbda2c21d	-0.079471804
27	0x3d45dfb8	0.048309058
28	0x3db51562	0.08841969
29	0xbc4d7555	-0.012540181
30	0xbda94cba	-0.082665876
31	0x3d9cad7b	0.07650276
32	0xbdc856e1	-0.09782196
33	0xbd0aafca	-0.03385905
34	0xbd9afe88	-0.07568079
35	0x3d31a9de	0.04337489
36	0x3dbd016d	0.092287876
37	0xbd8587e2	-0.06520058
38	0xbd6fc6eb	-0.058539312
39	0x3da9999d	0.082812525
40	0x3d4d1bcb	0.050075334
41	0x3d923a25	0.071399964
42	0xbd95f478	-0.07322019
43	0x3dc3650a	0.09540756
44	0xbd17de46	-0.03707721
45	0xbd67b350	-0.05656749
46	0xbd0b4552	-0.034001656
47	0x3bd90f85	0.0066241645
48	0x3d740dbf	0.05958342
49	0xbcd5ccb5	-0.026098588
50	0xbd8cfb88	-0.06883913
51	0x3c86edff	0.016470907
52	0xbdc9034f	-0.09815084
53	0xbda677cd	-0.08128319
54	0x3cb3e1a2	0.021958176
55	0x3db9fce8	0.09081441
56	0xbd71a040	-0.058990717
57	0x3d6cc86e	0.057808332
58	0xbd81fba7	-0.06346827
59	0xbd0f8a03	-0.035043728
60	0x3dcf52a0	0.10123181
61	0x3ce2813d	0.027649516
62	0xbd3124d1	-0.043248
63	0xbd3c7723	-0.046012055
64	0x3cb85e9b	0.022506049
65	0x3d81d09c	0.06338617
66	0x3d9d6618	0.076854885
67	0x3bf7d83f	0.0075636203
68	0xbd536bc7	-0.051616456
69	0x3d502296	0.050814234
70	0xbdaeeee0	-0.085416555
71	0xbb5e9862	-0.003396534
72	0xbdc0907e	-0.0940256
73	0xbcaf9650	-0.02143398
74	0xba175f0c	-0.0005774356
75	0x3dab4431	0.08362616
76	0x3cbf6d37	0.023367507
77	0xbd8ce455	-0.068794884
78	0x3d402f14	0.046919897
79	0x3b2d570e	0.0026449594
80	0xbd84f0e3	-0.06491258
81	0xbdb0f2ee	-0.08640085
82	0x3cac797d	0.021054024
83	0xbd7065f5	-0.058690984
84	0xbd1fcad0	-0.039011776
85	0xbd5627bb	-0.052283984
86	0xbd9b7a89	-0.07591731
87	0xbd878032	-0.06616248
88	0xbc756613	-0.01497795
89	0xbb23de76	-0.0025004423
90	0x3d8cfbe2	0.0688398
91	0xbdab7722	-0.08372332
92	0x3db2e4f3	0.08735075
93	0x3dc10486	0.09424691
94	0xbdca07d3	-0.098647736
95	0x3d8693d7	0.06571167

_network.7.weight f4 [96]
0	0x3f828acc	1.0198607
1	0x3f7eefb5	0.99584514
2	0x3f7e88bd	0.99427396
3	0x3f834933	1.0256714
4	0x3f741355	0.95342
5	0x3f7fc1ea	0.99905264
6	0x3f817863	1.0114864
7	0x3f836db0	1.0267849
8	0x3f7e3c67	0.99310917
9	0x3f7f2800	0.9967041
10	0x3f7d75a5	0.99007636
11	0x3f802cb8	1.0013647
12	0x3f850a28	1.0393724
13	0x3f85b8de	1.0447042
14	0x3f80ab08	1.0052195
15	0x3f796fbc	0.9743612
16	0x3f8502cc	1.0391479
17	0x3f751ac3	0.9574396
18	0x3f86480e	1.0490739
19	0x3f6d9a63	0.928137
20	0x3f76ad30	0.96358013
21	0x3f8057d7	1.0026807
22	0x3f78dab7	0.9720873
23	0x3f7b5be4	0.9818709
24	0x3f80a99f	1.0051764
25	0x3f7fd4ee	0.9993428
26	0x3f761503	0.9612581
27	0x3f84f4f9	1.038726
28	0x3f819c03	1.0125736
29	0x3f78f7a3	0.97252864
30	0x3f699523	0.9124319
31	0x3f845ec8	1.0341425
32	0x3f7891fb	0.9709775
33	0x3f855639	1.0416938
34	0x3f75d524	0.9602835
35	0x3f7d234e	0.98881996
36	0x3f85facd	1.0467163
37	0x3f80aac9	1.005212
38	0x3f800cc8	1.00039
39	0x3f757cc8	0.95893526
40	0x3f791d46	0.9731029
41	0x3f6edcbf	0.9330558
42	0x3f81177c	1.0085292
43	0x3f8310e9	1.0239536
44	0x3f778dfd	0.9670103
45	0x3f79cde2	0.9757978
46	0x3f7ffe46	0.99997365
47	0x3f82e213	1.0225242
48	0x3f80c5f9	1.0060416
49	0x3f7eb745	0.994984
50	0x3f83dcf2	1.0301802
51	0x3f8909d6	1.0706127
52	0x3f7c629e	0.9858798
53	0x3f77e451	0.9683276
54	0x3f68ae4e	0.9089097
55	0x3f7a9963	0.978903
56	0x3f818d98	1.0121336
57	0x3f75b960	0.95985985
58	0x3f86cabe	1.0530622
59	0x3f866748	1.0500269
60	0x3f7d2b27	0.9889397
61	0x3f745216	0.95437753
62	0x3f79e40d	0.976136
63	0x3f7e5e9a	0.993631
64	0x3f7c7214	0.9861157
65	0x3f65f561	0.89827543
66	0x3f668934	0.90053105
67	0x3f85ae50	1.0443821
68	0x3f850d2f	1.0394648
69	0x3f6b50ff	0.91920465
70	0x3f748af5	0.9552453
71	0x3f853145	1.0405661
72	0x3f839efb	1.0282892
73	0x3f8a9fe4	1.0830045
74	0x3f76e570	0.96443844
75	0x3f84ccc8	1.0374994
76	0x3f7cbaf0	0.98722744
77	0x3f7b4211	0.98147684
78	0x3f6ce57e	0.9253768
79	0x3f75c2fa	0.96000636
80	0x3f7e322f	0.99295324
81	0x3f84df50	1.038065
82	0x3f6ebfe2	0.9326154
83	0x3f7bb915	0.9832929
84	0x3f75cba3	0.9601385
85	0x3f81b5b2	1.0133574
86	0x3f80b659	1.0055648
87	0x3f879613	1.0592674
88	0x3f69b61e	0.91293514
89	0x3f830486	1.0235755
90	0x3f8665ea	1.0499852
91	0x3f889ac0	1.0672226
92	0x3f721c64	0.9457457
93	0x3f6bca59	0.92105633
94	0x3f85e228	1.0459642
95	0x3f7659c6	0.96230733
