checkpoints/mlp_GG/2023_06.pt (torch, 18270 bytes, 19 tensors)

_network.0.weight f4 [32, 5]
00000000: 3007 c0be fa0e 843e 266a c83e 1395 1cbe
00000010: e38d 553d 1860 533e bcfb d73e d2c3 953e
00000020: c83c 493d 8d09 06bd 265e b2be 53f3 e53e
00000030: 2a4a c0bd 03fa b83e 2946 c13d 0c6d ff3d
00000040: 2775 d43e acb8 1f3e b58e 903e cfe7 94be
00000050: d639 bc3e bf2d a1bc 9d6d d83d dd68 c5be
00000060: b302 cbbe 5908 c6bd 0416 f1be 626a 8b3d
00000070: adf2 c43d 9a2d 543c da6a 9bbe acfa 07bd
00000080: d461 f4be e38b c7be 062e 69be 18bd 3f3e
00000090: 35ff 75be 6c1b ee3c b982 a1bd 19ab 84bd
000000a0: a92d 663e 44d4 b83e 7797 4b3e 9b0f f9be
000000b0: acbf 39be 6fa8 aabe e110 93be b998 cf3e
000000c0: af56 f7bb b631 693e 3709 853d 8777 eb3e
000000d0: 231e f4bd 16f6 63bc 4f91 c13d 4528 09be
000000e0: 25bc a8be 6a24 4abe cc5c be3e 1389 ed3c
000000f0: 627c 953e 0a08 cfbd 4f16 75be 10c7 62be
00000100: 22e2 f13d 6a66 c4bd ad85 94be 0a7a e5bc
00000110: 6b7c f43d 563a a6be a063 ad3e 5c38 443e
00000120: c027 663d 33eb f5be 4194 6f3e 319f 983d
00000130: 878f a73e 2307 643e d214 263e 0a08 8dbe
00000140: c136 c5bb 661a 9cbe 32a0 d4bc 56d2 8ebe
00000150: abbe 3fbe 7db4 c23e 729d d3be e545 c73e
00000160: 87ec 903e d3b5 d93d df8e 27be 7116 2d3f
00000170: 35eb acbe 4cbf 9a3e 2edc 793e 25e4 0fbe
00000180: 4569 03bf aaaa c23d a539 6dbe f477 f0bd
00000190: 26e8 d23d fc8f ad3e bcbf 4fbe 2ff5 32bd
000001a0: 02ee f5bd 3c7a bb3e a4ec bbbe f27c cabe
000001b0: 9c68 d33e 5a50 c6be ea52 a6bc f72a 06bf
000001c0: 058e 4e3c c442 7cbe 0c4b 5bbe c6fa 9a3e
000001d0: 49ac 183e 4db4 27bc 766f 9dbb 5150 a0be
000001e0: f4d4 db3e 581a 9e3e 5d62 d83d d615 493e
000001f0: 29aa a3be 68f2 6f3e be05 13bf 7486 f1bd
00000200: cae6 913d 1d2a 003e 98a6 0dbe bc0d 0a3e
00000210: d5b5 b43d 19b0 9c3e b81d 103d 31df 533e
00000220: 2311 bdbe 48f8 b83e cf05 51be 5284 c9be
00000230: ce69 8abe 4942 563d 6098 983e 7e86 e6be
00000240: 4730 e23d 86ed 8d3e 3df4 f13e 3448 e9bd
00000250: 9615 82be f522 ac3e b8f3 aebd bdfb 863e
00000260: 3d9b c83e ed1b 57be 737e ef3d 2199 353d
00000270: 1904 ccbe 2a44 b23c 75db 6e3c a5b9 cf3c
-0.37505484 0.25792676 0.39143485 -0.15291242 0.052137267 0.20642126 0.42184246 0.29250962
0.04913023 -0.032723952 -0.34837455 0.44912204 -0.09389146 0.36128244 0.0943721 0.12471971
0.4149563 0.1559779 0.28233877 -0.29083106 0.36762875 -0.019675134 0.10567782 -0.38556567
-0.39650497 -0.09669561 -0.4708711 0.068074 0.09616599 0.012950325 -0.3035496 -0.033198044
-0.47730887 -0.38973913 -0.22771463 0.18724477 -0.24023135 0.02906581 -0.078862615 -0.06477947
0.22478355 0.36099446 0.19881998 -0.4864472 -0.18139523 -0.3333163 -0.28723815 0.40546206
-0.0075481753 0.2277287 0.06495898 0.4598963 -0.119198106 -0.013913652 0.094515435 -0.13394268
-0.32956043 -0.19740453 0.37180173 0.028996026 0.2919646 -0.10108955 -0.23934291 -0.22146249
0.118107095 -0.095898464 -0.29008237 -0.028012294 0.11937793 -0.32466382 0.3386507 0.19162124
0.056190252 -0.48031005 0.23396398 0.07452238 0.3272669 0.22268347 0.1621888 -0.27545196
-0.00601849 -0.3048889 -0.025955293 -0.2789485 -0.18725078 0.38028327 -0.4133106 0.38920513
0.28305456 0.10630383 -0.16363095 0.6761237 -0.337732 0.30224073 0.24400398 -0.14051874
-0.51332504 0.09505208 -0.23166521 -0.11741629 0.10298185 0.33898914 -0.20287985 -0.043690857
-0.12008287 0.36616695 -0.3670398 -0.3954845 0.41290748 -0.38733178 -0.020303208 -0.5240931
0.012607102 -0.24634844 -0.21415347 0.3026945 0.14909472 -0.010235858 -0.004804547 -0.31311277
0.42935908 0.30879474 0.10565636 0.19637236 -0.3196576 0.23432314 -0.57430637 -0.11793223
0.07124098 0.12516065 -0.13833082 0.13481802 0.08823744 0.30603102 0.035184592 0.2069061
-0.36927137 0.36126924 -0.20412372 -0.39358765 -0.27033848 0.05230931 0.29803753 -0.45024484
0.110443644 0.27720279 0.47256652 -0.11390725 -0.25407094 0.3362042 -0.085425794 0.26363936
0.39180937 -0.21006747 0.1169404 0.04433549 -0.39846876 0.021761019 0.01457869 0.025357077

_network.0.bias f4 [32]
00000000: 846f b83e 75d2 a33c e151 dcbe 22fb a8bd
00000010: 48ff 8b3e 76f0 9cbe 9996 c93e 0a5c c03e
00000020: cfe0 bbbe 4d1e 703e 00dd 00be da88 ddbd
00000030: 65f3 2b3e 7549 c73e d211 3abe be9e 7abe
00000040: 2de4 083e 8a70 0dbe 4955 7f3d 891d e03d
00000050: 555d 39be acf2 c53e 692c 88be 773c 6a3e
00000060: 6f65 8cbe 375f b9be a9c5 073e 90f3 afbe
00000070: b3c7 81bd b0fb 203e 6f1b d03e 6a51 87be
0.3602258 0.019997815 -0.4303122 -0.08251025 0.27343202 -0.30652207 0.3937271 0.3757022
-0.36694953 0.23449059 -0.12584305 -0.10817118 0.16792066 0.3892323 -0.1817086 -0.24474618
0.13368292 -0.13812461 0.062337194 0.109431334 -0.1810201 0.38661706 -0.26596382 0.22874628
-0.27421138 -0.36205456 0.13258995 -0.3436551 -0.06336918 0.15721011 0.4064593 -0.26429302

_network.1.weight f4 [32]
00000000: 17f7 773f a0bc 7a3f 7d06 813f 70ac 7e3f
00000010: 6a45 873f 0d10 883f d15c 783f f767 803f
00000020: d050 7e3f 02dc 813f 0ab5 913f 5308 793f
00000030: e4ad 723f abee 763f ea46 653f a030 713f
00000040: e969 7f3f ef9b 753f 3901 8a3f a7c3 813f
00000050: 27d9 883f 2b4a 623f c496 863f 9767 6c3f
00000060: 8e93 7f3f f16b 803f 11ee 723f a112 853f
00000070: 4fca 633f c800 603f ce0b 7c3f 5e29 993f
0.96861404 0.9794407 1.0080105 0.9948187 1.0568058 1.0629898 0.97016627 1.0031728
0.9934206 1.0145266 1.1383374 0.97278327 0.94796586 0.9645793 0.8956133 0.9421482
0.9977098 0.9594106 1.0781623 1.0137833 1.069127 0.8839442 1.051476 0.92345566
0.99834526 1.0032941 0.9489451 1.039631 0.88980573 0.8750119 0.9845551 1.1965749

_network.1.bias f4 [32]
00000000: bd0f beb9 660d 30bc 0606 e23d 41c1 243b
00000010: 47e5 87bd 559a 883d eadc afbb 5f62 403c
00000020: 04a2 eebc 40a8 6e3d 8717 b23d c467 b7bc
00000030: 8d2d 4dbc 19cf 48bd 80ad 4fbd 4bc1 8bbc
00000040: 9132 4ebd 4bc2 173e 6e62 743d d00f 033d
00000050: 1fdd 093d 51ff 00be e686 b93c 2d76 0fbd
00000060: dcc6 443c 7e3d 3f3e dda7 4e3d e1fe c43c
00000070: 7f6a 193d 5724 713c 2a0d 34bd 6b77 c73e
-0.0003625135 -0.010745382 0.11036305 0.0025139602 -0.06635528 0.066700615 -0.005366911 0.0117422035
-0.02912999 0.058265924 0.08695894 -0.022388346 -0.012523067 -0.04902563 -0.050702572 -0.017059943
-0.050341193 0.1482021 0.059664182 0.0319975 0.033658143 -0.12597395 0.022647332 -0.03502481
0.012010302 0.18675801 0.050453056 0.024047317 0.03745508 0.014718137 -0.043957867 0.38958296

_network.1.running_mean f4 [32]
00000000: cb08 a03e d7e1 a03e 002c 43be b015 123e
00000010: a881 823d a99f f6be 364c 9ebd 4787 943e
00000020: a6a5 d2be 8e04 063e 8adc e93d 383c 0dbe
00000030: db04 343e 83aa 023e ac5f 83bd f878 ebbd
00000040: 0fbc 57be 02b1 873d b6e6 f93e 1f54 9dbe
00000050: 105b cbbd db71 af3e 5922 33bf 3217 853e
00000060: 8692 dabc c4b7 d8be 0a38 973e 85a4 26bf
00000070: 9882 89be 1e53 fe3e 769c f73e 11e1 c6be
0.31256709 0.31422302 -0.19059753 0.14266086 0.06372386 -0.48168686 -0.0772938 0.29009458
-0.41142005 0.13087675 0.114190176 -0.13792503 0.17579977 0.12760358 -0.06414732 -0.11497682
-0.21067832 0.066255584 0.4880883 -0.30728242 -0.09929478 0.34266552 -0.69974285 0.2599426
-0.026681196 -0.42327702 0.29534942 -0.65094787 -0.26857448 0.49672788 0.48361558 -0.38843587

_network.1.running_var f4 [32]
00000000: 53ca 413c 00a3 d33b 801b af3c 40f0 a13c
00000010: 9c34 053d 0ef5 8f3b 723e 303c 96e2 7f3b
00000020: 5420 bb3c dd0a b53c 967d 423b 4a11 503c
00000030: cd77 333c f651 2b3c b099 043d dfcd 473c
00000040: 70d9 a43b 98d0 213c 89e6 7e3c a44d 8e3b
00000050: 4b59 bb3b b27e 3d3d ddb2 c73b 4906 993c
00000060: 0cb5 f23c 3bb0 9c3b 3804 0b3c 3edf 8e3c
00000070: ddb4 983c 9a89 9e3c 54c7 203c ce1b fb3a
0.011828023 0.00645864 0.021375418 0.01976788 0.032520875 0.0043932265 0.010757076 0.0039044968
0.022842564 0.022099907 0.0029676906 0.0126994345 0.010953856 0.010456553 0.03237313 0.01219508
0.0050308034 0.009876393 0.015557894 0.0043427516 0.0057174317 0.046263404 0.00609432 0.018679755
0.029627346 0.0047817505 0.008484893 0.017440435 0.01864093 0.019352723 0.0098131485 0.0019158067

_network.3.weight f4 [32, 32]
00000000: e443 c83d d1bc 1e3a 676d cf3d 6ae5 1abe
00000010: 5793 9bbd 8414 33be aeb9 ebbd 7db9 8cbd
00000020: 4731 2bbe b86f 3bbe c1bd 203e fb07 0bbe
00000030: 5835 1dbe 8337 50bc 09c3 1e3e bd15 06be
00000040: f3e1 eabc 5a2a a9bd 5631 28bc 3aad 23bd
00000050: 140f 66bd 49cb 3fbe 7748 40be beb4 9c3d
00000060: f5d3 ef3d 63a8 c43d ba99 083d 8027 853d
00000070: 0c32 013e 997b b9bd 7b21 c53d cf86 42be
00000080: f8af 5d3d 23cc 6ebd a50e 1d3e 91a1 283e
00000090: 9ea6 15be 4cf1 5ebc b21d e9bd 58f6 d7bd
000000a0: 8dae a83d a3ea ac3d 0875 66bd f479 aa3c
000000b0: b12b 3ebd b246 a7bd 0179 143e c3b6 10be
000000c0: ba85 43bd 783d e83d a362 46bd 66c7 66be
000000d0: 561f 223d e00d 9c3d b921 aabd 17b7 153c
000000e0: cbc0 7b3d c671 d0bd b490 bbbd 626f 6ebb
000000f0: d868 75bd 881b d03d 3759 2c3e 86b2 093e
00000100: e707 3c3d 1b38 a23d 4155 3abb b779 1d3e
00000110: bb3c c03d 70b0 b43d 0075 2abe 3003 873d
00000120: 0eb0 05bc 5552 9ebd e32c 3cbe 3e6f b9bc
00000130: 8763 8b3d fc77 61bd 48f7 6a3d 3786 2b3e
00000140: d9cb 1dbe 88e1 80bd 381c 1f3e 34c7 3bbe
00000150: 5bba 1a3e b89a eb3c 6923 14bd d288 963c
00000160: 7255 323e 968e f43d 2f13 88bc 1d51 07be
00000170: d884 33be 27b8 6cbe cdca c1bc 58e4 4bbe
00000180: 823c 9fbc 7eb7 00be 7f40 0d3e 0570 bc3c
00000190: bcb7 d33d d67d 3f3b 83f8 ac3d 3c53 453e
000001a0: 0770 9d3d ffc1 453b f96a a5bc 4209 873d
000001b0: c1d8 08be 7c97 393e e3ec 1e3e 0b58 eebc
000001c0: d5b7 ebbd ef05 b63d 5ab6 9fbd 0cfd 17bd
000001d0: 21da 703e c3cb 093e 938f 0b3c e1f5 5d3e
000001e0: 6b26 42bd 9229 b5bd 783c 2dbe 69d0 8bbd
000001f0: b66f a33d e270 5bbd a6b5 89bd 29c8 0ebe
00000200: bf0e 483e bbef e8bd 1fa0 b4bd 637c b73d
00000210: bc52 213d b1fb 163e 2a39 973d ad3e d2bd
00000220: 7cf2 933d 1399 123e 922e 38be a6e8 c6bc
00000230: fa40 52be c0da 98bd f743 67be 7c70 9ebd
00000240: dba4 4dbe 5745 133d 96ac 12be 78fd c33d
00000250: 575c a03c 1fe0 203e 229c c3bd bea0 123d
00000260: e53c 50bd 509d a4b9 6368 743d 0dd7 fd3d
00000270: 9bd2 7c3d be86 0dbe 21d9 f1bd 685e 1b3e
00000280: 86fb 0c3e 5f1a 85bd e392 f3bd 0b10 f9bd
00000290: f9bd 9b3d 6c54 143e f7cd 1d3d 68d2 f93d
000002a0: bdb3 3f3d 471c 523e fa34 3e3e 0427 cbbd
000002b0: 2b0e 8cbd 07c6 09be 0a9b 033e a596 013e
000002c0: 3d6c 093d f04e c3bd 999d bfbd 23c5 30be
000002d0: 1d67 253e 0c81 973d cadc 9abd 9022 95bc
000002e0: 8b29 733c 7cf2 08be 4af4 0bbd a678 ff3c
000002f0: 8a78 e63b bcef 8abd 982d 133e 1332 313e
00000300: 246b f3bd db43 123e 315b 20bd 5cb0 ec3c
00000310: 7957 36bd f82b b7bc b9e7 64be 70d7 383d
00000320: f00f be3c 5363 053e 6048 2abb 124b b3bd
00000330: 4f00 51be cba2 27bd f2b5 1fbe 2698 40bd
00000340: 4e04 e3bd 1b2e 663b cc69 11be f10a 99bc
00000350: 4e7f 373e 553b f0bd 674b 1f3e c7bb 613c
00000360: e3f6 543d 88b0 32be e328 9cbd 8547 1a3e
00000370: b13b a8bd ed28 053e fd59 423c 7917 9bbd
00000380: 7e7e cb3b c69e 313e 1bf4 92bc e5f6 673d
00000390: 2656 8dbd f56a 673e 520d 1fbd 976d b3bd
000003a0: 342f a2bd 121b 943d 4c2f 19bd 25ac 35bd
000003b0: 6863 5c3d d814 97bd 6391 2a3e abd0 713d
000003c0: f51b 0e3d 8414 a13d 9f7e f53d 6f69 273e
000003d0: 3732 24be b174 0ebe 7fcf 033a 5c58 05be
000003e0: fac3 7cbd 5877 e73c f283 25be b739 b33d
000003f0: 7d55 83bc a6b3 08be c466 133c 0e61 7a3d
0.09778574 0.00060553575 0.10128289 -0.15126577 -0.07596462 -0.17488295 -0.11510025 -0.068713166
-0.16718017 -0.18304336 0.15697385 -0.13577263 -0.1535238 -0.0127085475 0.15504088 -0.1309423
-0.028672194 -0.08260031 -0.010265669 -0.039960124 -0.056166723 -0.18729891 -0.18777643 0.07651661
0.117103495 0.0960243 0.03334973 0.06501675 0.12616748 -0.090567775 0.096255265 -0.18996738
0.054122895 -0.05830015 0.15337618 0.16467883 -0.1461434 -0.013607334 -0.11382617 -0.10545033
0.08236418 0.08443191 -0.056263953 0.020810105 -0.046428386 -0.08167781 0.14499284 -0.14132218
-0.047734953 0.11339849 -0.04843391 -0.22537002 0.039580666 0.07619834 -0.08307213 0.00913789
0.06146316 -0.101779506 -0.09158459 -0.0036382307 -0.05991444 0.10161501 0.16830908 0.13447008
0.045905974 0.079208575 -0.0028432163 0.15378462 0.093865834 0.08822715 -0.16646194 0.06592405
-0.0081596505 -0.07730547 -0.18376498 -0.022636052 0.06806093 -0.055046067 0.057364732 0.16750418
-0.15409793 -0.06293017 0.15538108 -0.18337709 0.15110151 0.0287603 -0.036166582 0.018375788
0.17415407 0.119412586 -0.01661071 -0.13214536 -0.17531145 -0.23117124 -0.023656273 -0.19911325
-0.019438032 -0.12569997 0.13794135 0.023002634 0.10337779 0.0029219291 0.08445837 0.19270033
0.07687383 0.0030175445 -0.02019261 0.06593563 -0.13363935 0.18124193 0.15520053 -0.029094717
-0.115096726 0.088878505 -0.07798453 -0.03710656 0.2352071 0.13456635 0.0085181175 0.21675827
-0.04739992 -0.088458195 -0.16917598 -0.068268605 0.079802915 -0.05357445 -0.067241 -0.13943543
0.19536875 -0.1137385 -0.08819603 0.08959272 0.039385542 0.1474445 0.0738395 -0.10265861
0.072239846 0.14316206 -0.17986515 -0.024280857 -0.20532599 -0.07463598 -0.2258452 -0.077362984
-0.20082419 0.0359548 -0.14323649 0.0956983 0.019575281 0.15710495 -0.09551264 0.035797827
-0.050839324 -0.00031397725 0.059669863 0.12394533 0.061724287 -0.13820931 -0.11808992 0.15172732
0.13767824 -0.064991705 -0.11893251 -0.12161263 0.07604594 0.1448533 0.0385265 0.12198335
0.04680227 0.205186 0.18574896 -0.09919551 -0.0683864 -0.13454448 0.12852111 0.12655123
0.03355049 -0.095365405 -0.09356231 -0.17262702 0.16152616 0.073976606 -0.075616434 -0.018204957
0.014841448 -0.1337375 -0.03416852 0.03118546 0.0070334123 -0.06784007 0.14372861 0.17304258
-0.1188567 0.14283697 -0.039149467 0.028892688 -0.044517014 -0.022359833 -0.2235402 0.045127332
0.023200959 0.1302617 -0.002598308 -0.08754553 -0.20410274 -0.040926736 -0.1559675 -0.0470201
-0.110848054 0.0035122696 -0.14200515 -0.018681975 0.17919657 -0.11730067 0.15556107 0.01377768
0.051993262 -0.17450154 -0.07624986 0.15066345 -0.0821451 0.13003893 0.011862275 -0.075728364
0.0062101474 0.17345724 -0.017938664 0.05663194 -0.06901197 0.22599395 -0.038831063 -0.08761137
-0.079191595 0.07231726 -0.03739862 -0.044353623 0.05380574 -0.073770225 0.16657023 0.059036892
0.03469463 0.07865241 0.11987042 0.16348813 -0.1603478 -0.13911702 0.0005028173 -0.13021988
-0.061710335 0.02825515 -0.16163614 0.087512426 -0.016031975 -0.1334978 0.008996669 0.061127715

_network.3.bias f4 [32]
00000000: 8709 23be 5ab5 1e3e bcef d6bc b7ab 693b
00000010: a4be f03d 82bd 533c 10ba a93d 5f9a febd
00000020: ae63 7abd d368 c5bd 97b7 e13d 1521 02be
00000030: 45b1 943d a6bd e4bd 4a00 30be 5d40 4cbd
00000040: 0157 a63d 6e48 28be 7601 2d3d b4ab 2abe
00000050: e5f8 833c aa94 e4bd 91f0 d4bc 0db3 ee3d
00000060: a079 293e 80a2 a0bd a124 e23c 6aab 13be
00000070: b4fe d1bd 44ef f23c e0d3 1f3c 9533 48bc
-0.15921603 0.15498868 -0.026237361 0.0035655329 0.11755112 0.0129236 0.08287442 -0.12431788
-0.06113022 -0.09639134 0.11021345 -0.12707932 0.07260374 -0.11168985 -0.1718761 -0.04986607
0.081220634 -0.1643388 0.04223772 -0.16667062 0.016109893 -0.11161168 -0.025993617 0.11655245
0.16550303 -0.078434944 0.027605357 -0.14420858 -0.10253659 0.029655106 0.009755105 -0.012219329

_network.4.weight f4 [32]
00000000: 1946 803f 6c5d 733f 9a07 843f a8d3 623f
00000010: 9b44 753f e4c1 813f 1d71 7f3f 681c 743f
00000020: 53f8 843f 0155 7d3f 470b 833f 82bf 763f
00000030: bb1a 843f cfbc 893f 39b6 813f 7212 763f
00000040: 7a4e 853f 7534 803f 5f48 8e3f b689 7b3f
00000050: 021f 833f 863c 743f 6be0 863f a31f 863f
00000060: 93f2 5f3f fac8 7d3f 3008 8e3f 5e35 903f
00000070: c576 7b3f fb54 743f d9ec 793f 97f6 703f
1.0021392 0.95064425 1.031482 0.8860421 0.9580781 1.0137296 0.9978197 0.95355844
1.0388283 0.9895783 1.0237817 0.9638597 1.0320657 1.0760745 1.0133735 0.96121895
1.0414574 1.0016009 1.1115836 0.98257005 1.0243838 0.9540485 1.0537237 1.0478405
0.87479514 0.9913479 1.1096249 1.1266286 0.982281 0.9544217 0.97627026 0.94126266

_network.4.bias f4 [32]
00000000: 556a 953b 7627 c83b 468f b63d 8862 03be
00000010: 40bd 23bc 2bef 3f3d f581 98bd eee2 3e3c
00000020: 64d2 9c3d a047 a33d abc5 673d da2d 6e3d
00000030: 7c20 093e 8651 8e3d 621d 25be 515d 21bd
00000040: 0c13 7d3d c17b b33c cb6d 913d 8c61 00bd
00000050: 13b7 80bd aa9a 99bd 15f5 ca3d 84ff 263d
00000060: aa4a d0bd d457 b5bc 2eb7 c73d bbf7 433d
00000070: 92d6 563e 038a 073d 4fc1 7bbc 240b 8bbc
0.004559795 0.0061082197 0.08914046 -0.12830555 -0.009993851 0.046858948 -0.07446662 0.011650784
0.07657316 0.07972646 0.056584995 0.058149196 0.13391298 0.06949143 -0.1612449 -0.039395634
0.061785743 0.021909596 0.071010195 -0.031343028 -0.06284919 -0.07500203 0.09910027 0.040771022
-0.10170491 -0.022136606 0.09751736 0.047843676 0.2098029 0.033090603 -0.015365913 -0.016973086

_network.4.running_mean f4 [32]
00000000: c963 24bf 5ad1 313e ba65 1dbe 7948 483e
00000010: 8659 a13c 0bb4 853e 6b9b 50be c073 dcbc
00000020: cac0 7e3e a527 59be d495 c83e 64b3 c93d
00000030: b2dc 863d d4a9 ccbd 9a95 d8bc 0288 46be
00000040: fefc 543e 9942 e8be e2a6 cc3e 851d babe
00000050: 9093 283f e6d4 9dbe 78e2 59be a0d0 5d3b
00000060: 4e08 94be 9c4a 33bd adea 2ebe 5279 ddbd
00000070: f2b6 e73d 1031 02be 9efe abbc f286 6d3e
-0.6421476 0.17365018 -0.15370837 0.19558896 0.019696008 0.26113924 -0.20371787 -0.026910663
0.2487823 -0.2120653 0.3917681 0.09848669 0.06585063 -0.0999333 -0.026438523 -0.1938782
0.20799634 -0.4536331 0.3997107 -0.36350647 0.6585016 -0.3082649 -0.21277797 0.0033846274
-0.28912586 -0.043772325 -0.17081709 -0.10814156 0.11314191 -0.12714028 -0.020995434 0.23196009

_network.4.running_var f4 [32]
00000000: 9c1d 923e 2cd7 e03d 9403 ba3e 498e 3d3e
00000010: c0ce 983e 1af1 193e aadb ea3d 96a4 4e3e
00000020: 0402 4c3e 4377 093f 6996 473e ec83 c43e
00000030: 407e e13e 7ee6 a13e a463 5d3e 4c40 703e
00000040: 8471 013e 558a 8d3e 4e31 9d3e ca33 6e3e
00000050: 7ed7 b83e dab5 9d3e a397 873e 7c06 883e
00000060: d260 2f3e bf26 ab3e 831d bd3e 4c77 be3e
00000070: de7b af3e 2206 de3d e5a4 763e 315a 803e
0.28538215 0.10978541 0.36330855 0.18511309 0.29845238 0.15033379 0.11467679 0.20179972
0.19922644 0.53697604 0.1949097 0.38381898 0.44041634 0.31621164 0.21620041 0.23462027
0.12640959 0.276446 0.3070168 0.23261943 0.36101907 0.30802804 0.26482877 0.26567447
0.17126778 0.33427998 0.36936578 0.3720039 0.3427419 0.108410135 0.2408634 0.2506881

_network.6.weight f4 [32, 32]
00000000: ac98 d7bd 95bd c23d 07db 1b3e 753a 5d3d
00000010: fb50 3e3e bf68 c03d 9697 e2bd e616 443d
00000020: d760 0b3e feda dc3c 63d7 8ebd f9ae 40bd
00000030: 36e4 0b3e c8af 1ebe 6a2f 1c3e 956c 923d
00000040: 7abe 61bb 8953 47be ba90 7b3e 46bc e6bd
00000050: 2657 ea3d ad25 c53d 5e9b 8f3d e9d3 773e
00000060: befd 743d fda8 173d b254 193d 1913 733e
00000070: be3f d73b 788e d13d 87f1 25be e8c0 a3bc
00000080: 0925 22be e796 e2bd c04a d13c 2124 85bd
00000090: 01e9 bb3b f812 3a3e cbd7 f43d 34ce 7ebd
000000a0: 91ad 08bd 33ca 2cbe f74a d1bd 4907 88bd
000000b0: ac86 8c3d fa13 47bd d9f1 f43d d5b5 a7bd
000000c0: c266 c7bd 5688 a23c c5c3 aebd ae58 0f3e
000000d0: 63ba 6fbe 3041 84be 92bb 4bbe bbfb 743d
000000e0: 2a3f d2bd 3f32 903b 512b 86bd 93c5 f23d
000000f0: 65ca 4f3d 8006 0a3d dd20 6c3e 9965 893d
00000100: b479 be3c 2d00 0d3e b2ec 2b3e a8ea d7bd
00000110: 5512 ea3d d539 af3d 2b63 19bd fd77 35bc
00000120: a2ac d93d 37da 89bd 27bc 27be 6a3f dbbc
00000130: a87b 953c 52e9 7d3e d822 303d ac04 9b3b
00000140: ecff 1dbe c52a 773e 0d78 fbbd eae8 59bc
00000150: 3b68 1d3d 8a97 00bc d200 733d 9062 1dbe
00000160: 1831 69bd 38eb a7ba 34b4 8abd 0ec0 27be
00000170: 3a37 24be e085 21be 0a84 123e 0b3e c2bd
00000180: 209c ae3d f5b8 8dbd 4e4b 74bc 5aff 2ebe
00000190: 0cc7 cc3d 8df2 8b3c 8f9e 7cbd 2f33 3ebe
000001a0: 3458 253e 11dc ef3d a958 49bd a002 423e
000001b0: 5b00 383e da6b e7bd ce6c f3bd b38d dabd
000001c0: d0d7 eabd 80cb 9d3d 9dba 743d 0381 9d3d
000001d0: 2aeb 783d 29c9 dc3d 7913 3a3e 0f1f 903c
000001e0: 9eff b4bd 2ab5 e13d db65 22be f1f1 093e
000001f0: 5ae3 05be 7a01 c23d 26f8 e93c 1e31 e63d
00000200: d9ef c23d caaf e239 b545 a63c fc80 0dbe
00000210: fc7a 85be 4cea 44be cf3c 45bd c7bf 43be
00000220: 7a3a 9fbc 55e0 7cbe 8a6b 95bd 176f 68bd
00000230: f457 13be fc0e f2bd 8147 523e a431 eebd
00000240: 0247 213e 1ae8 a4bc 1ecc 4e3d 66f4 55bd
00000250: bf50 12be 12a7 8d3d 58db 73bd 2d86 253e
00000260: 8cc5 023d 8107 fe3d ded5 08be 814e 19be
00000270: be8f 823d b6f0 09be c1c8 a1bd 847e da3d
00000280: ba49 23bc c1a2 0bbd d09d 06be 25bf dbbd
00000290: 60a0 1a3e 3cf7 ac3c 1989 8fbb 3a11 143e
000002a0: 1b20 383d fdf8 25be 4c86 013e 9da5 af3d
000002b0: 3220 b13d a7e2 5abd 079e 093e cd90 d33d
000002c0: b629 d33d a60a a9bd d7aa 4e3d 92fd b03d
000002d0: 39f1 283e 4746 adbc 5601 833d 7327 b2bd
000002e0: c0ab 673c 8106 babd b5fd 8a3d fb29 b8bd
000002f0: 13f4 243e b579 293e 84cd 1cbe 9f66 0fbd
00000300: be8e 1ebb 7d19 0fbe 435c ec3c 80dd 2ebe
00000310: e553 97be 640f 5fbd c1ff 08be 5a41 03be
00000320: 0b9c 53be bbe8 503c 6f49 0a3e 12a7 84be
00000330: 25c3 6d3d 9a6e e4bd f15a 27bc c20b 013d
00000340: 5939 22be ee68 583d 4416 2b3c 9296 29bc
00000350: 3d33 97bd 9695 c6bc 5b04 3e3d fa89 1ebe
00000360: 6f2b 46be db92 44be ec6f d03b c8d2 0ebd
00000370: a0a0 65be 36d3 9b3d fb89 16be 5573 09be
00000380: 0e12 493e 455a 7cbb b012 bebd d259 693d
00000390: e67e 6c3d 4842 903c dec0 1ebe bbbe f4bd
000003a0: 58cb d6bd 6314 62bd c02c b43d 5689 48be
000003b0: a5df 17be 0ec4 27be ccf1 4ebe 0e5d abbd
000003c0: ac58 623d e663 413b 842b 813d e678 bd3d
000003d0: 498e 8cbd 9c69 063e b62a f4bd 112c eabd
000003e0: dd5a 23bd a344 243d 30c2 953c 6879 573e
000003f0: df14 91be 886b 60be 68ce e73d 3e76 52be
-0.10527167 0.09508816 0.15220271 0.054010827 0.18585579 0.09394979 -0.11064069 0.0478734
0.1361116 0.026959892 -0.069746755 -0.047041867 0.13661274 -0.15496743 0.15252462 0.07149617
-0.0034445808 -0.1946546 0.24566928 -0.11266379 0.114424035 0.09626327 0.07012056 0.24201931
0.0598123 0.037026394 0.037434287 0.23737754 0.006568878 0.10232252 -0.16205417 -0.019989446
-0.1583444 -0.110639386 0.025548339 -0.06501032 0.0057345633 0.18171299 0.11955222 -0.06220837
-0.03336865 -0.16874008 -0.102193765 -0.066420145 0.06861624 -0.048603036 0.11960191 -0.081889786
-0.09736396 0.0198404 -0.08533434 0.13998672 -0.23410945 -0.25830984 -0.19895771 0.05981038
-0.10265954 0.004400521 -0.06551231 0.118540905 0.050730128 0.033697605 0.23059411 0.06708831
0.023251392 0.13769598 0.16789511 -0.10542804 0.11429278 0.085559525 -0.03744809 -0.011075971
0.1062863 -0.06731074 -0.16380368 -0.026763637 0.01824744 0.24796036 0.04300198 0.0047307815
-0.15429658 0.24137409 -0.12278757 -0.01330016 0.03842948 -0.00784863 0.059326954 -0.1536963
-0.056931585 -0.001281119 -0.06772652 -0.16381857 -0.16036692 -0.15773726 0.14308181 -0.0948449
0.08525872 -0.069200434 -0.014910532 -0.17089596 0.09998903 0.01708343 -0.06167465 -0.18574212
0.16146928 0.11711896 -0.04915682 0.18946314 0.17968886 -0.11299868 -0.11885987 -0.10671558
-0.11466944 0.0770483 0.05974828 0.07690623 0.060771145 0.10780556 0.1817149 0.017592935
-0.088378176 0.110208824 -0.15859167 0.134712 -0.13075009 0.09472938 0.02856071 0.11239837
0.095184036 0.00043237052 0.02029691 -0.13818735 -0.26070392 -0.19230002 -0.048153695 -0.19116126
-0.019437063 -0.24694951 -0.07295902 -0.05674657 -0.1438902 -0.11819264 0.20535089 -0.11630562
0.15749744 -0.020130206 0.05048763 -0.05223503 -0.14288615 0.06916632 -0.059535354 0.16164465
0.031926677 0.12403775 -0.13362834 -0.14971353 0.06375073 -0.1347073 -0.07899619 0.10668662
-0.009966308 -0.03409076 -0.13146138 -0.10729817 0.1510024 0.021113984 -0.004380357 0.14459696
0.044952493 -0.16208263 0.12648886 0.0857651 0.08648719 -0.05343881 0.13439189 0.10330353
0.1031069 -0.08253984 0.050455894 0.08642115 0.16498269 -0.021151675 0.06396739 -0.086989306
0.0141400695 -0.09083272 0.06786672 -0.08992382 0.16108732 0.16550334 -0.15312773 -0.035009976
-0.0024193968 -0.13974567 0.028852588 -0.17076683 -0.29556194 -0.054458037 -0.13378812 -0.12817898
-0.20664994 0.0127508 0.13504575 -0.25908715 0.058047432 -0.11153908 -0.010214553 0.031505354
-0.15842189 0.052834444 0.01044232 -0.01035084 -0.0738282 -0.02424125 0.046390872 -0.15482321
-0.19352506 -0.19196646 0.0063609984 -0.034868985 -0.22424555 0.07608645 -0.14701073 -0.13422902
0.19635794 -0.0038505953 -0.09280908 0.056970425 0.057738207 0.01760973 -0.1550326 -0.119504414
-0.104880035 -0.055195224 0.08797598 -0.1958364 -0.14831407 -0.16383383 -0.20209426 -0.08367358
0.055260345 0.0029509007 0.06307128 0.09251575 -0.06863076 0.13126224 -0.11922209 -0.11434186
-0.039881576 0.04010452 0.018281072 0.21042407 -0.28336236 -0.2191602 0.11318666 -0.20552918

_network.6.bias f4 [32]
00000000: 0620 0a3d 795d a3bc b90b 02be 1017 e3bd
00000010: 7722 d4bd e5b1 203e 9e19 bc3d adce 31be
00000020: 95f0 5d3d 7b97 f3ba 80e8 2abd 7888 263e
00000030: b175 4dbd 7926 a93d 48b6 113e 62bc c3bd
00000040: 6a00 f23d d1f3 13be f9a3 ecbd e5a7 43bd
00000050: 7c30 83bd 5840 633d 090b c7bd 2677 e3bd
00000060: 7b43 d13d f878 c83d f83b e23d 7a81 9b3b
00000070: 1116 09bd 3404 0f3e 0c4a 12be 32ed 353d
0.033721946 -0.019942032 -0.12699784 -0.11088383 -0.10358136 0.15692861 0.091845736 -0.17363997
0.054184515 -0.0018584573 -0.041725636 0.16262996 -0.050161067 0.08259291 0.14229691 -0.095574155
0.11816485 -0.14448477 -0.11554713 -0.04776754 -0.06405732 0.055481285 -0.09718902 -0.1110671
0.10217949 0.09788698 0.110465944 0.0047456594 -0.03346831 0.13966447 -0.14286059 0.04441566

_network.7.weight f4 [32]
00000000: efee 6c3f 3c6a 713f e0ee 733f d72f 673f
00000010: f247 693f 8dde 6c3f fca8 6b3f 65eb 6d3f
00000020: faa0 6a3f 0555 653f ad7f 6b3f 87a6 653f
00000030: 5333 6a3f 2ad5 733f dcc6 733f 5a1d 723f
00000040: 3058 713f 12b6 793f ce50 6f3f 75bf 6b3f
00000050: 2427 733f 32fa 6e3f 2470 763f 0391 753f
00000060: 657f 6b3f e118 753f 29d4 6d3f 22be 673f
00000070: 1baa 713f cb95 713f 4f33 6b3f 9792 6e3f
0.92552084 0.94302726 0.9528637 0.9030737 0.91125405 0.92527086 0.92054725 0.9293731
0.9165188 0.89582855 0.9199169 0.89707226 0.91484565 0.9524714 0.9522531 0.94576037
0.9427519 0.9754344 0.93482673 0.92089015 0.949816 0.9335052 0.96264863 0.95924395
0.91991264 0.9574109 0.92901856 0.90524495 0.94400185 0.9436919 0.91875166 0.9319243

_network.7.bias f4 [32]
00000000: e53f c3bc 4f07 17bd 4ba8 5bbd e8b4 75bd
00000010: 157d 82bd 9fad 46bc dc0f 1dbd a3dd 37bd
00000020: 6f08 67bd bb74 a9bd 1896 debc 1690 cfbd
00000030: 7515 58bb a733 d53c ffda b63c d1e1 f0bc
00000040: d527 c9bb e345 bfb9 8d75 85bd 4848 55bd
00000050: c238 7fbd 1885 5cbd 7608 33bc 23f2 5a3c
00000060: cea3 42bd 3900 2339 2fc9 4dbd 76b7 08bd
00000070: 12d5 7d3b 5fbe 6bbd e616 25bd b938 87bd
-0.023834178 -0.036872204 -0.053627294 -0.05998698 -0.06371514 -0.012126355 -0.038345203 -0.044889104
-0.056404527 -0.08274218 -0.02717118 -0.10134904 -0.0032971774 0.026025606 0.022321222 -0.029404553
-0.0061387816 -0.0003648243 -0.06516562 -0.052070886 -0.062309988 -0.053837866 -0.01092731 0.013363394
-0.047519498 0.00015544974 -0.05024069 -0.033378087 0.0038731736 -0.0575546 -0.04030504 -0.06602616

_network.7.running_mean f4 [32]
00000000: 2a72 1d3f fcd1 8cbe 76a6 47be fbb4 073e
00000010: 95ba 22bf 918c d63e 96c4 4dbf b0b7 27bf
00000020: 2784 c6bd 7510 1f3e 6499 993e 1eef 95be
00000030: 4040 923e 04d1 e9be 9675 86be 7980 cbbd
00000040: 043b 173f c02e 58bf 92ed 87be dd4d a5be
00000050: 6447 12bf 2133 c9be 39ea 89be ba98 c4bd
00000060: abea cd3e 0c7b 803e 1e78 8b3e 7490 a3be
00000070: 325e 07bf 5e46 c7be e554 333e cc7a 14bf
0.61502326 -0.27503955 -0.19497094 0.13252632 -0.6356595 0.4190412 -0.8037809 -0.6551466
-0.09693175 0.15533622 0.2999984 -0.29283994 0.28564644 -0.4566728 -0.26261586 -0.099366136
0.59074426 -0.84446335 -0.2654844 -0.32285967 -0.57140183 -0.3929682 -0.2693651 -0.09599443
0.402181 0.25093877 0.2724008 -0.31946146 -0.52878106 -0.38920873 0.17512853 -0.57999873

_network.7.running_var f4 [32]
00000000: a662 2a3f 227a 9a3e a388 053f 62d9 a63e
00000010: f339 e73e af1d e53e d2e8 1c3f 386e ee3e
00000020: 3823 363e 3c08 443f 0e42 ee3e 3d95 2b3e
00000030: cc9d 9d3e 9b78 5c3f 58f3 af3f 7728 513f
00000040: 9090 3a3f d15c 3a3f 1075 2e3f 70d8 543e
00000050: 8aaf 873f b8da d23e 90a7 983e 1ec2 323f
00000060: d0be af3e 3eee a93e 8b7d 163f 4f7a 273e
00000070: 95be 2d3f 2e0b 2d3f 597e 083f 2a47 013f
0.66556776 0.30171305 0.52161616 0.32587725 0.451614 0.4474921 0.61292756 0.46568465
0.17786872 0.76575065 0.4653477 0.16756149 0.30784452 0.8612153 1.3746138 0.8170237
0.72876835 0.72797877 0.68147373 0.2078569 1.0600445 0.41182494 0.2981534 0.6982745
0.34325266 0.33189577 0.58785313 0.16355251 0.6786893 0.67595184 0.5331779 0.5049921

_network.9.weight f4 [1, 32]
00000000: 5ab1 583d 986d 6e3c d00a 6e3c d449 043d
00000010: d0f3 43bc 2760 0fbd f403 95bc 8f6a f6bb
00000020: 1dce cc3b cb3d a7bc ffb4 a73d 8176 f93a
00000030: 02cf 8f3d c9a0 cdbd 8a0d edbd 09db 013e
00000040: 70c1 a7bd f742 adbd eb2e 313b b3fa 8b3c
00000050: 0514 473d 8858 533d 2660 ebbc fe3a 1bbe
00000060: 6052 edbb 43f3 45bd 926a 2a3d 042d bf3c
00000070: 6b99 2abd 2dc9 713d 663c a53d 90fd 9d3d
0.05290351 0.014552496 0.014528945 0.03229697 -0.011959985 -0.035003807 -0.018190362 -0.007520027
0.0062501566 -0.020415207 0.08188819 0.0019032509 0.070219055 -0.10040433 -0.11574848 0.12681212
-0.08191192 -0.08460038 0.0027036022 0.017087316 0.048603076 0.0515981 -0.02873237 -0.15159222
-0.007242486 -0.048327696 0.04160554 0.023336895 -0.041650217 0.059029747 0.08068161 0.07714379
