checkpoints/mlp_GG/2023_04.pt (torch, 18270 bytes, 19 tensors)

_network.0.weight f4 [32, 5]
-0.11948223 0.45229968 0.30540016 -0.3064571 -0.40830332 0.2566578 0.08344031 0.14984237
-0.33918065 -0.27544317 0.4535015 -0.2513987 0.36690515 -0.018039383 -0.28054184 -0.16629618
-0.007631104 -0.043859176 -0.22227465 -0.27578634 0.17696038 -0.51428115 0.107545696 0.19600809
-0.07377832 -0.013610924 0.5682441 -0.3243813 0.0855791 0.059819266 0.29414588 0.48972616
-0.021363666 0.14538157 -0.24008703 0.1591245 -0.4104879 -0.07410811 -0.23669243 -0.43413663
0.19866395 -0.16855733 -0.11880434 -0.36039177 -0.07695675 0.028971199 -0.67833924 0.19403237
-0.17118262 -0.03016883 0.09617875 -0.11539223 -0.01107916 -0.034838393 -0.058278378 -0.19382201
-0.053425077 0.11631235 0.43930677 -0.17791677 0.20585638 -0.012375941 -0.37200075 0.255308
-0.080569714 0.08121301 0.15340643 0.2821729 -0.45412496 -0.44438905 0.43820548 -0.2008183
-0.31687072 0.24003638 -0.096777014 -0.0071470886 0.4235622 -0.38806367 0.046964727 0.19750103
0.10198191 0.14022166 -0.15527543 0.3429694 -0.048956424 0.12421927 -0.57963824 -0.030794514
-0.18397477 -0.2600544 -0.27776948 0.3171548 0.046021987 0.18090609 0.42239642 0.091252625
0.5123739 0.20166917 0.031752646 -0.18435508 0.44022733 0.036614284 0.16452597 -0.3511691
-0.32131425 0.0019323422 -0.0033377893 0.25320694 -0.26486483 0.38548803 -0.059009217 0.16939911
0.29805487 0.2658048 -0.29382783 -0.08994965 -0.66695595 0.17493467 -0.12977779 -0.19030537
0.13688987 -0.67497796 -0.14443696 0.12342035 0.20481417 -0.06772589 0.3470998 -0.22385135
-0.37807196 -0.15962012 0.15316275 0.12233303 -0.0061553605 0.18039018 -0.172866 0.28292173
-0.079651885 -0.2620291 0.35343128 0.058233734 -0.20488119 0.08717096 -0.14354943 -0.03316779
-0.2247204 -0.23015225 -0.46323267 0.34372863 0.049249467 0.2061339 0.36789274 0.4286856
0.10722323 0.1654699 0.2491369 0.15607904 -0.058866065 0.36936867 0.33468843 0.046439823
00000000: 19b3 f4bd d393 e73e 695d 9c3e f2e7 9cbe
00000010: 220d d1be a768 833e c1e2 aa3d 4770 193e
00000020: 16a9 adbe e306 8dbe 5931 e83e 55b7 80be
00000030: feda bb3e 54c7 93bc 2ea3 8fbe 8c49 2abe
00000040: 570e fabb aea5 33bd f79b 63be de33 8dbe
00000050: 1a35 353e eea7 03bf eb40 dc3d 58b6 483e
00000060: 1619 97bd 5a00 5fbc 7278 113f 4e15 a6be
00000070: 1844 af3d 0c05 753d 4a9a 963e 63bd fa3e
00000080: db02 afbc e8de 143e 60d9 75be 88f1 223e
00000090: 782b d2be fec5 97bd 805f 72be 2847 debe
000000a0: 906e 4b3e 4b9a 2cbe b14f f3bd 4585 b8be
000000b0: 809b 9dbd 0255 ed3c a4a7 2dbf 6cb0 463e
000000c0: 7f4a 2fbe 9f24 f7bc 5df9 c43d c352 ecbd
000000d0: 5d85 35bc b4b2 0ebd 4fb5 6ebd 4779 46be
000000e0: 41d4 5abd 2b35 ee3d d1ec e03e d02f 36be
000000f0: 04cc 523e 75c4 4abc e276 bebe bbb7 823e
00000100: bc01 a5bd 0253 a63d 9316 1d3e f778 903e
00000110: 1183 e8be f686 e3be 785c e03e 50a3 4dbe
00000120: e13c a2be 19cc 753e 0733 c6bd 2032 eabb
00000130: 25dd d83e 48b0 c6be 165e 403d b63d 4a3e
00000140: e4db d03d 4496 0f3e 8600 1fbe af99 af3e
00000150: 8886 48bd ac66 fe3d 2c63 14bf c744 fcbc
00000160: e263 3cbe da25 85be cd37 8ebe 1d62 a23e
00000170: 8d81 3c3d 723f 393e 5844 d83e a8e2 ba3d
00000180: f02a 033f 5d82 4e3e 100f 023d 94c7 3cbe
00000190: 7a65 e13e dcf8 153d 7f79 283e 70cc b3be
000001a0: 4d83 a4be a546 fd3a d0be 5abb 57a4 813e
000001b0: 5d9c 87be b05e c53e a6b3 71bd f676 2d3e
000001c0: a69a 983e 9117 883e 9a70 96be 8637 b8bd
000001d0: a0bd 2abf 1322 333e 78e4 04be 69df 42be
000001e0: dc2c 0c3e 5bcb 2cbf 48e7 13be cfc3 fc3d
000001f0: ceba 513e dfb3 8abd 11b7 b13e 4a39 65be
00000200: a692 c1be 7573 23be b2d6 1c3e bd89 fa3d
00000210: e8b2 c9bb 34b8 383e c903 31be 1edb 903e
00000220: 8720 a3bd ae28 86be f2f4 b43e 7f86 6e3d
00000230: 60cc 51be b086 b23d 9ffe 12be f3da 07bd
00000240: 1b1d 66be 08ad 6bbe d52c edbe 33fd af3e
00000250: cfb9 493d c414 533e 705c bc3e ae7c db3e
00000260: da97 db3d f170 293e be1d 7f3e 2fd3 1f3e
00000270: 8b1d 71bd e41d bd3e 485c ab3e af37 3e3d

_network.0.bias f4 [32]
-0.4056229 0.27676505 -0.32999688 0.12970874 0.3038391 -0.41163167 0.30614483 0.21971397
0.23403661 -0.3930432 -0.44781458 -0.20106597 -0.44909567 0.03246495 0.24921891 0.2033405
-0.27250206 0.11731582 -0.25485677 0.2560396 0.43985468 0.01368814 0.24803947 0.17645197
0.13003534 -0.19946814 -0.30415928 0.3007024 -0.033486243 0.38588008 0.32328692 -0.43328646
00000000: cead cfbe 26b4 8d3e 5af5 a8be 5ed2 043e
00000010: cc90 9b3e 63c1 d2be 04bf 9c3e b3fc 603e
00000020: 4ba7 6f3e f53c c9be f447 e5be 3de4 4dbe
00000030: deef e5be f8f9 043d 3e33 7f3e 7e38 503e
00000040: 6485 8bbe 4743 f03d 967c 82be 9f17 833e
00000050: a234 e13e 3844 603c 0ffe 7d3e d3af 343e
00000060: fc27 053e 6041 4cbe c4ba 9bbe aaf5 993e
00000070: df28 09bd 1392 c53e dd85 a53e b9d7 ddbe

_network.1.weight f4 [32]
1.0908288 0.9744429 0.9416821 0.89194256 1.0430655 1.1512831 0.9605234 0.98881346
0.99512565 1.0513747 1.0115292 0.9853142 0.97404784 0.99154216 0.9780519 1.0105419
1.0041608 0.98464423 1.093344 0.96249664 0.9134978 0.94366217 0.96089286 1.021483
1.1688986 0.996826 0.9957647 0.9746978 0.92519134 0.9678697 0.84379274 0.9223536
00000000: 47a0 8b3f 1775 793f 1412 713f 5956 643f
00000010: 2c83 853f 3f5d 933f dde4 753f e122 7d3f
00000020: 8ec0 7e3f 7293 863f ca79 813f 8d3d 7c3f
00000030: 335b 793f b5d5 7d3f 9c61 7a3f 7059 813f
00000040: 5788 803f a511 7c3f b2f2 8b3f 2e66 763f
00000050: feda 693f d893 713f 13fd 753f f4bf 823f
00000060: 789e 953f fd2f 7f3f 6fea 7e3f cc85 793f
00000070: 57d9 6c3f 4fc6 773f cd02 583f 5e1f 6c3f

_network.1.bias f4 [32]
-0.013290825 -0.03698306 -0.06478923 -0.07213855 0.11349368 -0.07764352 0.11332077 -0.010262401
0.020596659 0.11341208 0.042358078 0.02592007 0.056430586 -0.017036738 -0.09814075 -0.050461657
0.0029900556 0.0059164157 0.019405652 -0.15318322 -0.06026963 0.012207207 -0.023363868 0.24935831
0.2742304 -0.017557988 0.006192209 -0.0025931036 -0.1655325 0.024512578 -0.05985051 0.09105572
00000000: c3c1 59bc 8d7b 17bd 37b0 84bd 60bd 93bd
00000010: 606f e83d 9103 9fbd b814 e83d a123 28bc
00000020: 53ba a83c 9844 e83d aa7f 2d3d 5456 d43c
00000030: c223 673d a190 8bbc 04fe c8bd e2b0 4ebd
00000040: cff4 433b 7ede c13b 9af8 9e3c 10dc 1cbe
00000050: 4add 76bd bd00 483c 9565 bfbc c957 7f3e
00000060: ed67 8c3e c5d5 8fbc 04e8 ca3b 0ff1 29bb
00000070: 5a81 29be 9ace c83c cf25 75bd 6c7b ba3d

_network.1.running_mean f4 [32]
-0.5640303 0.1528859 -0.34607923 -0.17620525 0.22932397 -0.15164608 0.57912433 -0.20240727
0.036520038 -0.7305703 -0.49990183 -0.17844047 -0.33444607 -0.25185287 0.3739217 0.44697836
-0.059770823 -0.27887303 0.04682521 0.45474318 0.3466158 0.1048176 0.30630672 -0.26417598
0.043976106 -0.35292214 -0.19245476 0.54102945 -0.21886328 0.2569728 0.8551393 -0.18092576
00000000: 4a64 10bf 1f8e 1c3e 4c31 b1be 266f 34be
00000010: e7d3 6a3e 1c49 1bbe 7e41 143f da43 4fbe
00000020: 0996 153d a806 3bbf 22f3 ffbe 19b9 36be
00000030: 843c abbe dcf2 80be aa72 bf3e 59da e43e
00000040: 40d2 74bd 72c8 8ebe cbcb 3f3d 19d4 e83e
00000050: a077 b13e 9caa d63d 3cd4 9c3e 1342 87be
00000060: 4a20 343d 36b2 b4be dc12 45be e880 0a3f
00000070: b21d 60be f091 833e 69ea 5a3f 9a44 39be

_network.1.running_var f4 [32]
0.008721964 0.017615803 0.024402376 0.0023301733 0.007126646 0.005878334 0.018733881 0.019416353
0.0125178 0.007820551 0.0012266842 0.020723343 0.009982374 0.017894398 0.016001604 0.0054137413
0.008426365 0.010761334 0.023789437 0.008102035 0.032036908 0.024517545 0.014737992 0.0057892874
0.0066469247 0.008695788 0.007984145 0.006332767 0.0037947267 0.016196463 0.005952415 0.007797921
00000000: 92e6 0e3c 044f 903c 7ee7 c73c d2b5 183b
00000010: a486 e93b 0a9f c03b cc77 993c 0b0f 9f3c
00000020: 7517 4d3c c521 003c b1c8 a03a 00c4 a93c
00000030: 1c8d 233c 4697 923c cc15 833c c165 b13b
00000040: bd0e 0a3c 4e50 303c 11e2 c23c 66be 043c
00000050: 2239 033d 05d9 c83c 9e77 713c 10b4 bd3b
00000060: 72ce d93b c778 0e3c eecf 023c 1a83 cf3b
00000070: f3b0 783b 72ae 843c 7a0c c33b b485 ff3b

_network.3.weight f4 [32, 32]
-0.03944997 0.033590384 -0.11999536 -0.07900228 0.12735969 0.041454222 0.047607396 -0.070580184
-0.1585719 0.19138297 -0.06908019 0.03980764 0.13558513 -0.06514377 -0.11220649 -0.0118638575
0.13463028 -0.024491508 -0.13966124 -0.08478852 -0.07916526 -0.10043593 0.11478057 -0.106961325
-0.12806371 0.09314779 0.14118418 -0.05327588 0.08603848 -0.103412524 0.044527955 0.059045102
0.11403253 0.0789728 0.10248507 -0.03229667 -0.19549327 -0.05697077 -0.2109368 -0.053734303
-0.059792582 0.09015558 0.098028444 0.07179676 -0.03566751 -0.13214311 -0.0035173337 0.094041854
-0.04011167 -0.185447 0.0045897546 -0.08789989 0.02465171 -0.16757555 -0.09703272 -0.03338295
-0.048665494 -0.13353829 -0.08006808 -0.14379747 -0.009937352 -0.01684863 0.053065196 -0.21597251
0.076398075 -0.0014960048 -0.04522666 0.04202037 -0.16163011 0.122122146 -0.13961057 -0.03142817
0.09828469 0.10322189 0.13002747 0.12716843 -0.073925614 0.08457406 0.112664685 -0.08059739
0.1763191 -0.08369523 -0.10351763 0.14562002 -0.12831414 -0.10018704 0.08775928 0.14911008
0.06895908 -0.03980947 0.07206734 0.12431503 0.026600704 -0.12742297 -0.12903744 0.0368034
-0.05412461 -0.07019581 0.08720827 -0.004545361 0.24579848 -0.027750496 0.04581976 0.0004234657
-0.02612967 -0.074120246 0.21537538 0.15786114 0.11600503 0.036989626 -0.01850799 -0.021716002
-0.050160203 -0.1572849 0.0955566 0.058039654 -0.15162344 0.10208403 -0.12296411 -0.03224823
0.1130548 -0.21815152 0.21998951 0.04313303 0.14431335 0.059531875 0.07998964 0.017282346
0.060841233 0.13307105 -0.17372623 -0.07030576 0.111449584 0.083681084 -0.006443776 0.046236742
0.009797386 -0.03644915 0.16428305 0.1675982 -0.03613735 -0.08503639 -0.09553636 0.20097056
0.19633959 -0.08010004 -0.17214224 -0.047012143 -0.17084292 -0.1607524 0.06622909 -0.036646076
-0.0070821764 -0.005767198 0.06975483 0.007862848 0.23540345 0.039098207 -0.17630556 0.14452498
0.09528977 0.121552706 0.09454048 0.0031299312 -0.1448082 -0.08708461 -0.0031757944 0.17265925
0.16650285 0.010511121 -0.05998597 0.03804858 0.0018607234 0.020737229 -0.16259907 -0.083748475
0.059039176 -0.107042596 0.06626186 0.018885665 0.15795678 0.045208402 0.10337449 -0.00024484287
-0.12416017 0.14285469 -0.0036868216 0.07008345 0.026160216 -0.05953174 -0.117240116 -0.18139859
-0.10905647 -0.037093524 0.10774653 -0.16017872 -0.1461344 0.09898442 0.077501886 -0.09758996
-0.15871105 0.07795563 -0.08059784 -0.06139472 0.17748402 -0.1395311 0.061917678 -0.020030027
0.19820848 -0.10160681 0.012483861 0.05370521 -0.01364628 0.1329319 0.076223865 -0.17424098
-0.12177183 0.013324303 0.10463259 0.23147394 0.10463909 -0.06602239 0.016601881 -0.091559276
0.2206752 -0.016910981 0.058830995 -0.0153316045 -0.012753537 0.036672156 0.06779118 -0.0308472
-0.03324434 -0.1800425 0.03413545 -0.18663765 0.13541389 0.031096453 0.15843055 0.07458684
0.08905063 0.11804565 -0.10536387 -0.08325084 -0.11617313 0.010733621 0.040181395 -0.17982243
-0.16204055 -0.028940152 0.13905826 -0.06602836 0.045375083 0.051911585 0.05534677 -0.074725516
00000000: 4b96 21bd 1296 093d 21c0 f5bd f3cb a1bd
00000010: 946a 023e e7cb 293d f9ff 423d 588c 90bd
00000020: ac60 22be e6f9 433e ea79 8dbd 560d 233d
00000030: d4d6 0a3e 196a 85bd 84cc e5bd a060 42bc
00000040: 85dc 093e 6aa2 c8bc 5b03 0fbe 9ba5 adbd
00000050: 6521 a2bd 5ab1 cdbd 1312 eb3d 8a0e dbbd
00000060: 2223 03be 45c4 be3d 9692 103e cf37 5abd
00000070: f134 b03d f2c9 d3bd f262 363d 47d9 713d
00000080: e389 e93d 7ebc a13d b1e3 d13d 8349 04bd
00000090: 632f 48be 2f5a 69bd d1ff 57be 8018 5cbd
000000a0: 11e9 74bd 7da3 b83d 23c3 c83d 2e0a 933d
000000b0: 1818 12bd 8650 07be 1183 66bb 0499 c03d
000000c0: 224c 24bd d2e5 3dbe a765 963b dc04 b4bd
000000d0: 62f2 c93c ed98 2bbe 17b9 c6bd 8fbc 08bd
000000e0: 7855 47bd 43be 08be bcfa a3bd a53f 13be
000000f0: 46d0 22bc 2306 8abc e45a 593d e627 5dbe
00000100: 9876 9c3d 9715 c4ba 973f 39bd 8d1d 2c3d
00000110: 5d82 25be 2d1b fa3d 13f6 0ebe d3ba 00bd
00000120: 7c49 c93d 0066 d33d ec25 053e 7138 023e
00000130: 5066 97bd 2a35 ad3d bebc e63d 3f10 a5bd
00000140: ff8c 343e 6868 abbd 0d01 d4bd 6a1d 153e
00000150: c864 03be dd2e cdbd 23bb b33d 50b0 183e
00000160: 6b3a 8d3d 410f 23bd 0b98 933d e198 fe3d
00000170: b8e9 d93c 2b7b 02be 6422 04be 29bf 163d
00000180: c4b1 5dbd d2c2 8fbd 409a b23d 40f1 94bb
00000190: 99b2 7b3e 0255 e3bc 80ad 3b3d 9b04 de39
000001a0: e40d d6bc 5bcc 97bd 5d8b 5c3e 5aa6 213e
000001b0: 0c94 ed3d 6f82 173d 119e 97bc c2e5 b1bc
000001c0: c974 4dbd 4b0f 21be 2eb3 c33d fdba 6d3d
000001d0: 2d43 1bbe 6f11 d13d 9bd4 fbbd b816 04bd
000001e0: 4689 e73d 1d63 5fbe ee44 613e 43ac 303d
000001f0: e1c6 133e b2d7 733d 9cd1 a33d b593 8d3c
00000200: a834 793d c743 083e 4ae5 31be 77fc 8fbd
00000210: ae3f e43d fd60 ab3d 5026 d3bb bd62 3d3d
00000220: 3785 203c b44b 15bd d139 283e dd9e 2b3e
00000230: c204 14bd 8f27 aebd 91a8 c3bd 3acb 4d3e
00000240: 3f0d 493e 7d0b a4bd 0e46 30be ce8f 40bd
00000250: 72f1 2ebe 479c 24be 1ea3 873d 321a 16bd
00000260: 9a11 e8bb c3fa bcbb 9fdb 8e3d 2dd3 003c
00000270: 9a0d 713e 7125 203d 7289 34be 5bfe 133e
00000280: 4827 c33d a0f0 f83d 709e c13d 881f 4d3b
00000290: 9a48 14be 6a59 b2bd fd20 50bb 96cd 303e
000002a0: b97f 2a3e d636 2c3c d9b3 75bd d4d8 1b3d
000002b0: 84e3 f33a 1fe1 a93c 5f80 26be 5284 abbd
000002c0: 10d3 713d 2639 dbbd 4cb4 873d 1cb6 9a3c
000002d0: 6cbf 213e 722c 393d 01b6 d33d 415e 80b9
000002e0: b047 febd 8048 123e 9a9e 71bb e987 8f3d
000002f0: f34d d63c 8ed7 73bd 961b f0bd 8dc0 39be
00000300: 0059 dfbd 61ef 17bd 36aa dc3d e405 24be
00000310: 42a4 15be 58b8 ca3d 4fb9 9e3d 3fdd c7bd
00000320: 2685 22be 34a7 9f3d 7b10 a5bd 0879 7bbd
00000330: 5fbe 353e 3ee1 0ebe 649d 7d3d 0316 a4bc
00000340: 2af7 4a3e 3b17 d0bd 1c89 4c3c fff9 5b3d
00000350: a694 5fbc 4d1f 083e 421b 9c3d 3a6c 32be
00000360: 8263 f9bd 2d4e 5a3c 9d49 d63d 8107 6d3e
00000370: 054d d63d bf36 87bd ab00 883c 6e83 bbbd
00000380: aef8 613e e688 8abc c5f8 703d 6931 7bbc
00000390: 36f4 50bc 8b35 163d 1ad6 8a3d 44b3 fcbc
000003a0: 382b 08bd 105d 38be 9dd1 0b3d f11d 3fbe
000003b0: f0a9 0a3e fdbd fe3c 9e3b 223e fcc0 983d
000003c0: 2d60 b63d ebc1 f13d 03c9 d7bd 6b7f aabd
000003d0: 2eec edbd 12dc 2f3c 3f95 243d 5f23 38be
000003e0: f5ed 25be e613 edbc 4a65 0e3e e039 87bd
000003f0: 39db 393d 3ea1 543d 4bb3 623d b109 99bd

_network.3.bias f4 [32]
-0.14562052 -0.009413091 0.003399532 -0.06850959 0.17071116 -0.15514956 -0.12667723 0.08629237
-0.1465373 0.022022277 -0.0030431997 0.042287696 0.0777337 -0.049022496 -0.13908666 -0.12438383
-0.14894947 -0.17606337 0.15351982 0.15344994 -0.010014638 0.049420703 -0.05449155 -0.10968567
0.17372926 0.06342641 0.01108366 0.093820274 0.036562312 -0.049319558 0.065750696 0.09777535
00000000: 8c1d 15be 5d39 1abc afca 5e3b c24e 8cbd
00000010: e8ce 2e3e 87df 1ebe adb7 01be 0eba b03d
00000020: e00d 16be 1068 b43c 6b70 47bb dd35 2d3d
00000030: d932 9f3d d0cb 48bd bc6c 0ebe f3bc febd
00000040: 3686 18be f549 34be 4d34 1d3e fb21 1d3e
00000050: 7014 24bc 5d6d 4a3d 8832 5fbd e1a2 e0bd
00000060: 15e6 313e b5e5 813d 3d98 353c d824 c03d
00000070: 5dc2 153d 4e03 4abd 4da8 863d 713e c83d

_network.4.weight f4 [32]
1.0010445 0.9778806 0.94976705 0.91499346 0.9882739 1.0715004 1.0029037 1.039892
0.9528572 1.0457754 1.0349423 0.9770269 0.99209726 0.9489894 0.98122084 1.0285329
1.0102499 0.9830782 0.98537743 0.9743786 0.9345184 1.0478917 1.0753438 1.0169376
1.0412086 0.92435133 0.9000034 0.9153714 1.0403608 1.0493215 0.94977236 0.91469115
00000000: 3a22 803f 6256 7a3f ef23 733f 033d 6a3f
00000010: 85ff 7c3f ed26 893f 265f 803f 2e1b 853f
00000020: 73ee 733f f8db 853f fd78 843f 6f1e 7a3f
00000030: 16fa 7d3f f8f0 723f 4a31 7b3f f7a6 833f
00000040: de4f 813f 03ab 7b3f b241 7c3f e070 793f
00000050: 993c 6f3f 5121 863f dea4 893f 032b 823f
00000060: 5346 853f 4aa2 6c3f 9f66 663f c855 6a3f
00000070: 8b2a 853f 2b50 863f 4824 733f 3329 6a3f

_network.4.bias f4 [32]
0.032036535 -0.040562704 -0.025736922 -0.046436243 -0.033134475 0.015940236 -0.058159996 -0.019280227
0.036888085 0.06458253 0.01435795 0.04946102 0.006970149 0.007072306 -0.14983587 0.032362252
-0.010521768 -0.046076078 -0.018819893 0.015640369 0.00912495 0.11461755 0.049425192 0.06606441
0.08107163 -0.059725814 -0.006085746 0.019118594 0.19514817 0.066027865 -0.12438964 0.0020826897
00000000: be38 033d 1425 26bd 3dd6 d2bc ee33 3ebd
00000010: 04b8 07bd 1995 823c 2d39 6ebd 91f1 9dbc
00000020: f617 173d d843 843d 9b3d 6b3c a397 4a3d
00000030: d965 e43b cdbe e73b 936e 19be 488e 043d
00000040: 7e63 2cbc 45ba 3cbd 2d2c 9abc 3b20 803c
00000050: d080 153c 9bbc ea3d 1272 4a3d c74c 873d
00000060: e208 a63d 0ea3 74bd f06a c7bb 999e 9c3c
00000070: ecd4 473e 9e39 873d ffbf febd bc7d 083b

_network.4.running_mean f4 [32]
-0.24727279 -0.56958234 0.24110137 0.29684904 0.3418151 -0.059831716 -0.18777268 0.060717903
-0.25251734 -0.13603598 -0.15178922 0.20386767 0.12527426 -0.06650301 -0.37811893 -0.09833887
-0.106587514 -0.21737418 0.21805383 0.14915285 0.18133578 0.22492775 0.2592754 -0.019899536
0.20536569 0.19289336 0.057223577 -0.22203262 0.1264857 -0.00794813 0.28847978 0.005499049
00000000: 1435 7dbe 26d0 11bf 47e3 763e 99fc 973e
00000010: 6402 af3e 1a12 75bd 7b47 40be 56b3 783d
00000020: f449 81be 044d 0bbe a26e 1bbe b0c2 503e
00000030: e547 003e bb32 88bd ce98 c1be e465 c9bd
00000040: 8e4a dabd 5697 5ebe 8149 5f3e 86bb 183e
00000050: 16b0 393e 7653 663e bfbf 843e 5a04 a3bc
00000060: 624b 523e d685 453e 4563 6a3d 855c 63be
00000070: 7885 013e e038 02bc 9fb3 933e 5e31 b43b

_network.4.running_var f4 [32]
0.2218714 0.20654336 0.15633889 0.20169151 0.26255605 0.20133197 0.39462245 0.2871491
0.30708665 0.21674551 0.3222354 0.14122978 0.113392755 0.22962782 0.22503865 0.23713633
0.22542423 0.18700744 0.17697315 0.29016325 0.20790906 0.39515284 0.20363462 0.13941146
0.17452675 0.19267464 0.32888824 0.39305988 0.11932069 0.33765063 0.18321566 0.08161987
00000000: 4232 633e 1a80 533e 4d17 203e 3888 4e3e
00000010: bf6d 863e f829 4e3e f40b ca3e 3505 933e
00000020: 763a 9d3e 89f2 5d3e 0afc a43e 8a9e 103e
00000030: 763a e83d 8e23 6b3e 8870 663e ded3 723e
00000040: 9cd5 663e e17e 3f3e 7338 353e 4790 943e
00000050: 1de6 543e 7951 ca3e 9885 503e e1c1 0e3e
00000060: 24b7 323e 804c 453e 0a64 a83e 253f c93e
00000070: 685e f43d 8be0 ac3e e39c 3b3e 5228 a73d

_network.6.weight f4 [32, 32]
0.24614261 -0.1331549 -0.045004576 0.13532875 0.21618782 0.033191312 0.086372405 -0.14766352
0.14403272 -0.09735362 0.071829885 -0.06778212 -0.007959371 -0.0926439 -0.20685294 0.20334166
-0.09595873 0.11253358 -0.011915501 -0.13940123 -0.20531324 -0.033838242 -0.069790386 0.11999326
0.100489765 -0.0002116147 -0.07905456 0.11497364 -0.16842715 0.21803415 0.023009542 -0.093629085
0.1044632 0.016272476 0.10469169 -0.058747325 -0.1354697 -0.095559865 -0.105660744 0.013724813
-0.07399855 -0.103448346 -0.123527065 -0.22522563 0.038453788 -0.11857191 0.07610667 0.020782039
-0.12546991 0.06274294 -0.11956533 -0.18137394 0.019399276 -0.18569061 0.12621775 -0.004660226
-0.00068408466 0.075123265 -0.18968436 0.015751978 -0.1162541 -0.047227662 -0.26953965 -0.20517361
0.113736376 -0.022020772 -0.050152373 0.044565596 -0.081900574 0.10354246 -0.10376078 -0.07290836
0.14811195 0.13805032 -0.04405577 0.040266752 -0.06899559 -0.03373465 -0.049399175 -0.17784296
-0.0195197 0.01121789 0.053089496 -0.026580907 0.05138299 -0.10442902 -0.3012633 0.0049815136
-0.1621191 -0.07637885 0.07287652 -0.0278302 -0.20086585 0.18624856 -0.16460517 0.08158163
0.001734545 -0.12757193 0.113319345 0.16180828 0.011574928 -0.20269203 0.03536856 0.18669812
0.16744985 0.12586622 -0.10342377 0.08799719 0.064579315 -0.0598352 -0.05215564 0.06397314
0.16063027 -0.13690417 -0.0029290356 -0.025264272 -0.017911732 0.08612442 0.13375509 -0.2027013
-0.037146606 -0.12889835 -0.03548663 -0.12261426 0.06184037 0.18112497 0.079126194 -0.08452709
-0.1263558 -0.07883515 -0.20008662 0.015601498 -0.1587005 -0.027165776 -0.08530274 -0.13337886
0.10874818 -0.17055216 0.012093575 0.07842819 -0.17194135 -0.041880276 -0.008872591 -0.1587789
-0.0029307343 -0.10062134 0.20627882 -0.13292359 0.18766299 0.19172305 -0.19432864 0.096557684
0.03394657 0.13985886 -0.23003872 -0.17838152 -0.30652654 0.10605465 -0.007673234 -0.031903233
0.09929889 -0.012646094 0.15182428 -0.04758202 0.057703 0.11034699 0.07353702 -0.05693929
0.11901182 -0.3208549 0.08163823 -0.020749126 -0.11670793 -0.09181977 -0.100673355 -0.013915148
0.073419146 -0.047813818 0.24964046 -0.062242445 0.13574761 0.20513147 -0.1764074 0.06308205
-0.14728732 0.17962581 -0.006989071 0.0838704 -0.09774576 4.4844783e-05 -0.122965455 0.055608694
-0.16280536 0.1422982 -0.2172162 -0.12057699 -0.15929559 -0.008859087 -0.111278616 0.050249364
0.13108826 -0.08813149 0.015148861 0.120202355 -0.042822156 -0.014569329 -0.048216686 0.093230374
0.109487474 -0.0067458022 -0.17079182 0.041909896 0.04904685 0.1542096 -0.08055997 -0.10936079
0.043344032 -0.18632509 0.08105412 0.085703805 -0.05972898 -0.109490946 -0.12028969 0.10128674
0.05446128 0.045941137 0.07800119 -0.11564569 -0.108347565 -0.018932145 0.14268386 0.16909873
-0.022050994 0.17623994 -0.2849509 0.016568517 0.2576176 -0.12245258 -0.104345575 -0.1376419
0.05567762 -0.03675057 -0.20310518 0.12736447 -0.0689712 -0.1672787 -0.035291262 -0.16472435
0.19017945 -0.054085217 0.06370989 -0.057987038 0.03223404 0.1465303 0.23761612 -0.08873778
00000000: cf0c 7c3e c259 08be b856 38bd 9f93 0a3e
00000010: 5760 5d3e 9df3 073d 04e4 b03d 1b35 17be
00000020: 507d 133e 5661 c7bd 8c1b 933d 5ad1 8abd
00000030: 0668 02bc 16bc bdbd 42d1 53be cc38 503e
00000040: 0386 c4bd 0178 e63d 3c39 43bc 32bf 0ebe
00000050: a23d 52be f899 0abd 43ee 8ebd 07bf f53d
00000060: 94cd cd3d e3e4 5db9 5be7 a1bd 4d77 eb3d
00000070: 2b78 2cbe 5844 5f3e 827e bc3c 9bc0 bfbd
00000080: cdf0 d53d db4d 853c 9968 d63d 09a1 70bd
00000090: 92b8 0abe e4b4 c3bd a964 d8bd 0ade 603c
000000a0: 8d8c 97bd badc d3bd c2fb fcbd 8ca1 66be
000000b0: b881 1d3d d4d5 f2bd d0dd 9b3d 183f aa3c
000000c0: 2f7b 00be 5f7f 803d abde f4bd 17ba 39be
000000d0: 3beb 9e3c ae25 3ebe 3a3f 013e cfb4 98bb
000000e0: 2554 33ba 3ada 993d 9e3c 42be 4b0a 813c
000000f0: a116 eebd cb71 41bd 1a01 8abe 0819 52be
00000100: 9eee e83d e864 b4bc 936c 4dbd 6a8a 363d
00000110: 7dbb a7bd 120e d43d 8880 d4bd fa50 95bd
00000120: a9aa 173e 105d 0d3e d373 34bd c0ee 243d
00000130: 8f4d 8dbd 582d 0abd ca56 4abd 771c 36be
00000140: c7e7 9fbc 3ecb 373c 5f74 593d 34c0 d9bc
00000150: f876 523d e2de d5bd 2f3f 9abe f73b a33b
00000160: 8d02 26be 846c 9cbd 4940 953d 29fc e3bc
00000170: c7af 4dbe f1b7 3e3e 428e 28be 4514 a73d
00000180: ac59 e33a 37a2 02be f913 e83d 12b1 253e
00000190: c4a4 3d3c 808e 4fbe a0de 103d cb2d 3f3e
000001a0: f977 2b3e 13e3 003e d7cf d3bd df37 b43d
000001b0: 2942 843d c115 75bd 27a1 55bd 5a04 833d
000001c0: 437c 243e 9b30 0cbe 10f5 3fbb 05f7 cebc
000001d0: a0bb 92bc 0062 b03d 18f7 083e ee90 4fbe
000001e0: 0a27 18bd eefd 03be 6e5a 11bd 2f1d fbbd
000001f0: 544c 7d3d d378 393e ea0c a23d 8a1c adbd
00000200: 6a63 01be 5374 a1bd 82e3 4cbe 6d9d 7f3c
00000210: 6282 22be c38a debc 34b3 aebd 7894 08be
00000220: 5eb7 de3d 3aa5 2ebe 2124 463c f59e a03d
00000230: 6511 30be a78a 2bbd 585e 11bc f096 22be
00000240: 9011 40bb 9012 cebd c13a 533e 1f1d 08be
00000250: ba2a 403e 0c53 443e 16fe 46be 09c0 c53d
00000260: 8f0b 0b3d 2937 0f3e 458f 6bbe a5a9 36be
00000270: 0cf1 9cbe 2e33 d93d c16f fbbb f7ac 02bd
00000280: 375d cb3d 9031 4fbc d377 1b3e 5de5 42bd
00000290: fb59 6c3d 9afd e13d 949a 963d 2c39 69bd
000002a0: 78bc f33d 1847 a4be f231 a73d 12fa a9bc
000002b0: 9104 efbd 010c bcbd d52d cebd 5cfc 63bc
000002c0: c75c 963d 6cd8 43bd c0a1 7f3e eff1 7ebd
000002d0: 6c01 0b3e fc0d 523e 24a4 34be 2931 813d
000002e0: 7dd2 16be d4ef 373e 9404 e5bb 3fc4 ab3d
000002f0: ee2e c8bd b817 3c38 50d5 fbbd f1c5 633d
00000300: 73b6 26be 9fb6 113e ec6d 5ebe 12f1 f6bd
00000310: 621e 23be b425 11bc 0be6 e3bd 47d2 4d3d
00000320: 003c 063e 487e b4bd ee32 783c a72c f63d
00000330: 4966 2fbd 32b4 6ebc dc7e 45bd 91ef be3d
00000340: f83a e03d e40b ddbb 0de4 2ebe b6a9 2b3d
00000350: 5ae5 483d 1fe9 1d3e a0fc a4bd 8df8 dfbd
00000360: 8389 313d 01cc 3ebe b4ff a53d 7a85 af3d
00000370: 60a6 74bd ca3c e0bd 715a f6bd 6c6f cf3d
00000380: cb12 5f3d c62c 3c3d 17bf 9f3d a6d7 ecbd
00000390: 54e5 ddbd 9617 9bbc b81b 123e 3828 2d3e
000003a0: 49a4 b4bc 3e78 343e 16e5 91be b3ba 873c
000003b0: 74e6 833e 6bc8 fabd 22b3 d5bd 00f2 0cbe
000003c0: 370e 643d c487 16bd cefa 4fbe d56b 023e
000003d0: c640 8dbd 1c4b 2bbe 928d 10bd 80ad 28be
000003e0: 67be 423e 7688 5dbd 557a 823d d183 6dbd
000003f0: d707 043d 0a0c 163e a451 733e 27bc b5bd

_network.6.bias f4 [32]
-0.035337433 -0.16186596 0.15941195 -0.102739155 0.095592186 -0.15067731 0.04313696 0.13524772
-0.1539812 0.036408298 -0.09168858 0.11235475 -0.09879931 -0.15780306 0.11118411 0.118260786
-0.08429815 -0.13880792 0.12319625 0.16099648 -0.022182036 0.06879392 0.124241956 -0.16115074
-0.032546766 -0.101471975 0.10330431 -0.043340854 0.012168759 0.04782838 0.0945878 0.09873159
00000000: fcbd 10bd 31c0 25be e33c 233e e868 d2bd
00000010: d6c5 c33d 274b 1abe 62b0 303d 617e 0a3e
00000020: 3fad 1dbe de20 153d 39c7 bbbd 3f1a e63d
00000030: 4b57 cabd 2097 21be 7fb4 e33d b632 f23d
00000040: 82a4 acbd aa23 0ebe 514e fc3d 43dc 243e
00000050: 1ab7 b5bc d4e3 8c3d 9172 fe3d b304 25be
00000060: c24f 05bd 8ad0 cfbd 3691 d33d 2e86 31bd
00000070: 795f 473c b1e7 433d 40b7 c13d ca33 ca3d

_network.7.weight f4 [32]
0.8446753 0.7396796 0.8393997 0.72954786 0.6748937 0.8250331 0.7740595 0.6611658
0.79772556 0.7894916 0.89001966 0.6474117 0.86511046 0.82691723 0.8210468 0.8545364
0.8705069 0.88503873 0.90383124 0.88482815 0.8497542 0.59797263 0.85619247 0.7786127
0.51086134 0.8547071 0.6999123 0.67904925 0.8602431 0.8118331 0.7776554 0.835957
00000000: a43c 583f a45b 3d3f e6e2 563f a6c3 3a3f
00000010: d5c5 2c3f 5f35 533f c328 463f 2942 293f
00000020: be37 4c3f 1f1c 4a3f 54d8 633f c6bc 253f
00000030: e177 5d3f d9b0 533f 2030 523f e6c2 5a3f
00000040: 8ad9 5e3f e691 623f 7c61 673f 1984 623f
00000050: 7e89 593f bc14 193f 6e2f 5b3f 2953 473f
00000060: cfc7 023f 16ce 5a3f 742d 333f 2cd6 2d3f
00000070: e438 5c3f 4bd4 4f3f 6d14 473f 4701 563f

_network.7.bias f4 [32]
-0.1017548 -0.2438824 -0.19600515 -0.09234432 -0.33111656 -0.058931652 -0.19048479 -0.37429753
-0.2514402 -0.15600054 -0.0037595152 -0.44494256 -0.1264587 -0.073168546 -0.015375292 -0.026769308
-0.0774758 -0.07667329 0.10333213 -0.04248776 -0.057194132 -0.40968287 -0.1641287 -0.144306
-0.43716288 -0.15795787 -0.31653693 -0.3296088 -0.15892525 -0.10631498 -0.2718312 -0.16383098
00000000: d264 d0bd 4fbc 79be 93b5 48be 051f bdbd
00000010: 1c88 a9be 5162 71bd 720e 43be eda3 bfbe
00000020: c5bc 80be 9bbe 1fbe 3362 76bb 83cf e3be
00000030: 647e 01be 64d9 95bd a6e8 7bbc 4f4b dbbc
00000040: a2ab 9ebd e306 9dbd cc9f d33d a507 2ebd
00000050: 6544 6abd f4c1 d1be 5b11 28be f4c4 13be
00000060: d0d3 dfbe b5bf 21be 2111 a2be 7cc2 a8be
00000070: 4dbd 22be abbb d9bd 762d 8bbe 4fc3 27be

_network.7.running_mean f4 [32]
0.040337086 -0.8691746 -0.122046426 0.054117464 -0.4465468 -0.056992345 -0.18362117 0.1403289
-0.45012453 -0.4489897 -0.24626312 -0.18198164 -0.5978092 0.04542489 0.13639726 -0.0312955
0.007254906 -0.14034006 0.21059878 0.30135137 -0.10386802 -0.019568432 0.3231045 -0.20377426
0.30843127 -0.08436534 0.1018728 -0.42667174 -0.36970022 -0.19496122 -0.008963777 -0.3817134
00000000: 8038 253d 3a82 5ebf 7af3 f9bd 46aa 5d3d
00000010: c8a1 e4be ce70 69bd 3007 3cbe 61b2 0f3e
00000020: b976 e6be fae1 e5be 662c 7cbe 6559 3abe
00000030: 060a 19bf 730f 3a3d b9ab 0b3e b62f 00bd
00000040: 90ba ed3b 4eb5 0fbe 35a7 573e ba4a 9a3e
00000050: c2b8 d4bd fa4d a0bc f46d a53e 33aa 50be
00000060: b4ea 9d3e bcc7 acbd b0a2 d03d b874 dabe
00000070: 5949 bdbe eaa3 47be cedc 12bc f06f c3be

_network.7.running_var f4 [32]
0.5060358 0.42035592 0.20367897 0.31542498 0.16250034 0.46877128 0.3533001 0.33291894
0.4297356 0.5322442 0.35315228 0.072811075 0.7445327 0.2941169 0.49636894 0.2119407
0.5648705 0.43731537 0.6200236 0.6119877 0.7777827 0.21745224 0.11247365 0.247426
0.19482785 0.5085064 0.16631715 0.28560853 0.3587113 0.47894943 0.14247005 0.16124906
00000000: 908b 013f e438 d73e 3891 503e 627f a13e
00000010: 7d66 263e ca02 f03e c0e3 b43e 5a74 aa3e
00000020: 4e06 dc3e 2841 083f 60d0 b43e f91d 953d
00000030: b299 3e3f 7e96 963e 1224 fe3e fc06 593e
00000040: 5a9b 103f cde7 df3e deb9 1e3f 3aab 1c3f
00000050: c41c 473f cdab 5e3e 9658 e63d 3e5d 7d3e
00000060: f480 473e 7a2d 023f 0b4f 2a3e 483b 923e
00000070: 02a9 b73e dc38 f53e abe3 113e 791e 253e

_network.9.weight f4 [1, 32]
-0.03055291 -0.011097793 0.0074287187 0.0162303 0.0015297051 0.036771722 0.0045572654 0.010003313
-0.017358236 0.013294918 -0.04749901 -0.010421558 -0.033257615 -0.022022102 0.023417683 0.048199683
0.056064922 -0.036232106 0.10515421 0.037471734 0.07090352 0.0069474224 -0.0013707008 -0.008458429
0.0023119585 -0.03023821 0.005500443 -0.019829638 -0.009366821 0.015759997 0.0098625785 0.016354835
00000000: 194a fabc 84d3 35bc 9c6c f33b 68f5 843c
00000010: 6380 c83a f29d 163d 1d55 953b f0e4 233c
00000020: dc32 8ebc eed2 593c 528e 42bd 2fbf 2abc
00000030: 2339 08bd b267 b4bc 71d6 bf3c 086d 453d
00000040: 55a4 653d 1e68 14bd 175b d73d f67b 193d
00000050: dd35 913d 34a7 e33b 16a9 b3ba 3995 0abc
00000060: 3a84 173b 1fb6 f7bc 0f3d b43b c471 a2bc
00000070: 4b77 19bc 1c1b 813c a796 213c 93fa 853c
