transformers/results/pimentel_mlp_gg/configs/hyperopt/trial_4/pimentel_mlp_gg_model_20251208_210538.pt (torch, 4802 bytes, 7 tensors)

_network.0.weight f4 [16, 5]
00000000: dc6b 963e 8c40 bf3e 347a 85bd 7212 e73e
00000010: 056b f6bd 032a 093e 90f3 28be f55a 6b3e
00000020: d10b b03e 21ba bbbe 9f5a da3e 0c4d fc3d
00000030: 810c 983e e8b0 a33d 0ba9 283e bdb4 8cbc
00000040: ab3b c63e 5679 103d 94fc 45be 4a3f 8e3d
00000050: fe5c 23be 16bb 3fbc 26fc 5dbe 030d 853e
00000060: 38d9 c8be fc9b 83be 0360 2fbe 6357 64be
00000070: 4643 a23d 3d5f c6be 1d2f db3e 8995 b9be
00000080: e2d6 a53e 0552 583d a073 24be 17ae a23e
00000090: 3b00 943d 23c2 a33e d285 803c 5390 31be
000000a0: 7aea 763d 4544 dbbd b175 6f3e 499b d23e
000000b0: 0b35 823e bc5b 19be ec7a 8d3e 33c2 3c3d
000000c0: a6a7 5d3e 0547 9fbe edc1 cabe c38f 57be
000000d0: 8452 c2be 0d36 bf3e bb9b e13d 3b4c 6a3e
000000e0: a55f 313e 65a6 30bd 62e1 9f3e d53b abbe
000000f0: f23b 963d 59ad b4be 26f6 da3d f647 20be
00000100: 8414 ab3d bae4 40bd 2778 a83e 54f9 9abe
00000110: d0fc 5bbe 8734 a0be ddf8 b43e aee0 523e
00000120: 0b1c ef3e da5f cabe 7d7c c9be c9f6 cebe
00000130: 2c9c 7fbe b102 593e e9c5 083e 57fa aa3e
0.29379165 0.37353933 -0.06517449 0.4513126 -0.12032131 0.13394932 -0.16499162 0.22983916
0.34384015 -0.36665443 0.42647263 0.12319383 0.2969704 0.079927266 0.16470735 -0.017176026
0.38717398 0.035271965 -0.19334632 0.06945665 -0.15953442 -0.01170232 -0.21678218 0.2598649
-0.39228225 -0.25704944 -0.1712647 -0.2229896 0.07922988 -0.38744536 0.42809382 -0.362469
0.32390505 0.052812595 -0.16059732 0.31773445 0.072266065 0.31984052 0.01568881 -0.17340212
0.060282208 -0.10706381 0.2338474 0.41134098 0.25431094 -0.149764 0.27632844 0.04608364
0.21645984 -0.3110887 -0.3960108 -0.21050934 -0.3795358 0.37345925 0.11016031 0.22880642
0.17321642 -0.043127436 0.3122664 -0.33444086 0.073356524 -0.35288504 0.1069148 -0.15652451
0.083535224 -0.04709313 0.3290417 -0.30268347 -0.21483159 -0.31290075 0.35346118 0.20593521
0.46701083 -0.39526254 -0.3935279 -0.40422657 -0.24961919 0.21192433 0.13356747 0.3339412

_network.0.bias f4 [16]
00000000: e4ce 63be 8e99 98be 5066 5e3e fec2 30be
00000010: 2287 873e aa96 ecbd ebe1 803e 6c4c acbe
00000020: 9168 65be dcbd ff3d ff53 ba3d 63ec ecbd
00000030: db20 803e 7f94 983e 271a acbe e1dd 7ebe
-0.22246891 -0.29804653 0.21718717 -0.17261884 0.26470286 -0.115521744 0.25172362 -0.33652055
-0.2240317 0.12487385 0.09098052 -0.11568525 0.25025067 0.29800794 -0.33613703 -0.24889328

_network.1.weight f4 [16]
00000000: f193 843f ac9f 773f 07cb 773f eeec 753f
00000010: 56f5 763f d49f 853f d3aa 7a3f 73d7 773f
00000020: 7f98 863f 02be 763f ba25 763f 47b3 773f
00000030: 47df 753f f46a 763f e7d6 843f bae4 853f
1.0357648 0.96728015 0.9679417 0.9606465 0.964681 1.0439401 0.9791691 0.96813124
1.0515288 0.9638368 0.96151316 0.9675793 0.9604382 0.9625695 1.0378083 1.0460427

_network.1.bias f4 [16]
00000000: dfba 193d 0923 08bd 41ad 08bd 1384 1dbd
00000010: fd81 11bd 2578 2d3d b8fc abbc a78e 09bd
00000020: d682 543d 27e2 10bd b321 1cbd 6e97 0abd
00000030: e6c9 1ebd 7dac 16bd d0ed 1f3d bede 3a3d
0.03753173 -0.033236537 -0.033368353 -0.038456034 -0.035524357 0.042350907 -0.02099453 -0.03358331
0.051882587 -0.035371926 -0.038118076 -0.03383582 -0.038766764 -0.03678559 0.039045155 0.04562258

_network.1.running_mean f4 [16]
00000000: 8cb2 513e cf03 92be a345 163f 1029 a2bd
00000010: 1fce f33d 84de e6be 5aa7 893e 398e 58be
00000020: 1262 bd3d a966 143e 97eb e53c bd6f 323d
00000030: 2a77 e33d 04a9 0c3e 751e d7be edbb 8fbe
0.20478266 -0.2851853 0.5870001 -0.07917988 0.11904549 -0.4509164 0.26885492 -0.21148004
0.09247221 0.14492287 0.02806644 0.043563593 0.11106713 0.1373635 -0.42015424 -0.28073063

_network.1.running_var f4 [16]
00000000: 5c60 8d3c e076 e83c c4e9 ae3b 9ddb 6f3c
00000010: 0478 a23c 82cb 4b3c cc17 363c d111 c83b
00000020: 4f9d 903c 92f0 8b3c 4da2 9e3c 1209 a43c
00000030: c294 e03b 48bf b73c 7e0f cb3c fbed 943c
0.017257862 0.028376997 0.0053379256 0.014639762 0.019832619 0.012438657 0.011114072 0.0061056395
0.017653136 0.017082486 0.0193645 0.020023856 0.006853671 0.022430077 0.02478766 0.018179884

_network.3.weight f4 [1, 16]
00000000: 2a4d 873e 1e76 45bd 0176 5bbd aba2 4ebe
00000010: 9391 d9bd 4473 d33d b853 2b3b 6d4e 18be
00000020: e827 383d 0c88 08be 7cd5 30be f8a7 d4bd
00000030: 1d9d 36be 2555 f6bd 5715 933e 3fac b63d
0.2642606 -0.04820835 -0.053579334 -0.2017924 -0.10623469 0.103247195 0.002614243 -0.14873667
0.044959933 -0.13333148 -0.17268938 -0.103836 -0.17833371 -0.12027959 0.28727219 0.08919572
