transformers/results/lstm_option_pricer/configs/hyperopt/trial_39/lstm_option_pricer_model_20251125_230047.pt (torch, 763790 bytes, 49 tensors)

lstm_layers.0.weight_ih_l0 f4 [256, 8]
0	0xbb579d26	-0.0032900064
1	0x3bc55d5b	0.0060230917
2	0x395335b1	0.0002014253
3	0xbbc9692b	-0.00614657
4	0xbaa8081a	-0.0012819797
5	0x39532c88	0.00020139117
6	0xba3b0e76	-0.0007135639
7	0xbaf62719	-0.0018779963
8	0x3c43718d	0.011928928
9	0x37cb97fc	2.4270259e-05
10	0x39ab4e22	0.00032673875
11	0xbc47ff9c	-0.012206938
12	0xbb0e864a	-0.0021747523
13	0x39b9ccac	0.00035438442
14	0xbc669948	-0.014074631
15	0x3c538652	0.012910442
16	0x3a72cf4c	0.0009262457
17	0x3be94a82	0.0071194777
18	0xb98e89b6	-0.00027186953
19	0x3bbfafcd	0.0058498145
20	0x3b126ce7	0.0022342743
21	0xb98e89b0	-0.00027186936
22	0x3b70237a	0.003664224
23	0x39c53f4a	0.00037621922
24	0x3c2d83fc	0.01059055
25	0x3cabd3fd	0.020975107
26	0x3c2fe0b5	0.010734727
27	0xbb9dc8a5	-0.0048151785
28	0x3c1aacf0	0.009440646
29	0x3c2e752f	0.010648056
30	0x3c5a26d3	0.0133149205
31	0x3c0c9edf	0.0085828
32	0x38e1c62f	0.000107657506
33	0xba466576	-0.00075682194
34	0xba4cac7f	-0.00078076863
35	0x3a312123	0.0006756952
36	0x3a7d388b	0.00096596096
37	0xba4cac7f	-0.00078076863
38	0x3ab4e759	0.0013801857
39	0x399cb964	0.00029892765
40	0x3ba19e4d	0.004932201
41	0xba8c5913	-0.0010707699
42	0xbad5513a	-0.0016274818
43	0xba930280	-0.0011215955
44	0x3c01542c	0.007893603
45	0xbad55133	-0.001627481
46	0xb8293702	-4.034397e-05
47	0x3b8e95f5	0.0043513724
48	0x3b1c9104	0.0023890147
49	0x3c03aa69	0.008036234
50	0x3b4b16b2	0.003098887
51	0x3c0632b8	0.008190803
52	0x3c66c78c	0.014085662
53	0x3b4612d3	0.0030223622
54	0xbc92416d	-0.017853463
55	0x3bf87440	0.0075822175
56	0x3b3ba9a0	0.002863504
57	0xbc4778b2	-0.012174772
58	0xbbb681cd	-0.0055696727
59	0x3bbc3914	0.005744109
60	0xbac336e1	-0.0014893675
61	0xbbb66fba	-0.005567518
62	0xbce7b939	-0.028286563
63	0x3bccd82b	0.006251355
64	0xbbbe1850	-0.005801238
65	0xbca188a1	-0.01971847
66	0xbc58f7af	-0.013242646
67	0x3c758ddd	0.014987436
68	0xbca14c98	-0.019689843
69	0xbc53e523	-0.012933048
70	0xbd2a3a4f	-0.041559514
71	0xbb5353e4	-0.0032246048
72	0x3a929685	0.0011183774
73	0x3c845eb4	0.01615844
74	0x3c095f84	0.008384589
75	0xbb4f2a8a	-0.0031611049
76	0xb9eb697c	-0.00044901285
77	0x3c095f42	0.008384528
78	0xbb69a91a	-0.003565377
79	0xbb50df57	-0.0031871402
80	0x3c5211ae	0.012821598
81	0xbb264d9a	-0.0025375844
82	0xba83fb93	-0.0010069482
83	0x3d170e13	0.036878657
84	0xbb1ac594	-0.00236163
85	0xba86e4f9	-0.0010291628
86	0x3d202fb3	0.03910799
87	0x3c088516	0.008332511
88	0x3c76db89	0.01506699
89	0x3d12e4d2	0.03586275
90	0x398133b0	0.00024643308
91	0x3cdace58	0.02670972
92	0x3bb69a61	0.0055726026
93	0x39807b3f	0.00024505888
94	0x3d2c66e5	0.042090315
95	0x3c8c873e	0.017154332
96	0x3ac52d72	0.0015043451
97	0x3b29897f	0.0025869308
98	0xbbd1c21e	-0.0064013144
99	0x3b8b8717	0.0042580473
100	0x3bae67e3	0.005322443
101	0xbbd1c21e	-0.0064013144
102	0x3b592683	0.0033134527
103	0x3ac6b9c8	0.0015161568
104	0xba9dc5af	-0.0012037064
105	0xbc3dd453	-0.011586267
106	0xbd5347d9	-0.05158219
107	0xbcb14f79	-0.02164434
108	0xbb2a3b03	-0.0025975115
109	0xbd5347d9	-0.05158219
110	0xbdff7f89	-0.12475497
111	0x38e63335	0.00010976793
112	0x3b7dba12	0.0038715643
113	0x3b65f788	0.0035090167
114	0x3b917d92	0.004440018
115	0x3c0ca52e	0.008584304
116	0x3b7f8ff2	0.003899571
117	0x3b917333	0.0044387816
118	0x3a227160	0.0006196704
119	0x3b3fb004	0.00292492
120	0x3a6d8adb	0.00090615236
121	0x3b6ed581	0.0036443176
122	0x398c7a7e	0.00026794145
123	0x3a8f2ede	0.0010924002
124	0xb9e33c39	-0.00043341683
125	0x398c8005	0.00026798263
126	0x3b1441e3	0.002262228
127	0x3a22d13c	0.0006210988
128	0x3b8f5b03	0.004374863
129	0x3bb6704f	0.0055675874
130	0xbaf1aedd	-0.0018438954
131	0x3bb61803	0.0055570616
132	0x3bc66e81	0.0060556536
133	0xbaf1aeeb	-0.001843897
134	0x3af536f2	0.0018708392
135	0x3a9dbbd5	0.0012034128
136	0x3936c79e	0.00017431236
137	0xbb95bb32	-0.0045694346
138	0x3b5eea03	0.0034013994
139	0xbb80d121	-0.00393118
140	0xbafcf85a	-0.0019300089
141	0x3b5eeac6	0.0034014448
142	0xbaa775ba	-0.0012776174
143	0x3a78b690	0.0009487653
144	0xba01c629	-0.00049504876
145	0x3d11c33c	0.03558658
146	0xbadfd4bb	-0.0017076948
147	0xb99bba22	-0.00029702584
148	0xbcbd1c88	-0.023084894
149	0xbb0e7e65	-0.0021742817
150	0x3c0896c6	0.008336728
151	0xbb1b6e12	-0.002371673
152	0xbaa4aa29	-0.0012562919
153	0xb94c7442	-0.00019498265
154	0x3b053e61	0.002033137
155	0x3b8c4bf9	0.0042815176
156	0xbb7fd21c	-0.0039035147
157	0x3b053ec9	0.0020331612
158	0xbb91e7a9	-0.004452665
159	0xba9b31ed	-0.001184044
160	0x3cb36794	0.021899976
161	0x3c64acb1	0.013957188
162	0xbcf2e0a1	-0.029648127
163	0xbccdb82e	-0.025112238
164	0x3cb3a178	0.02192758
165	0xbcf2e0a1	-0.029648127
166	0xbc4aac08	-0.012370117
167	0x3c9fc5d4	0.019503511
168	0xb6f863c2	-7.4025893e-06
169	0x3c8817a3	0.016612833
170	0x3b3cb40a	0.0028793835
171	0x3b400822	0.0029301723
172	0xbb58846c	-0.0033037914
173	0x3b3d11a2	0.0028849621
174	0x3cae4f43	0.02127803
175	0xba972ed6	-0.0011534344
176	0x3bf69221	0.007524744
177	0x3a4b69c6	0.0007759597
178	0x3a3e1164	0.0007250516
179	0x3c4b9291	0.012425081
180	0x3c3224ad	0.010873002
181	0x3a3e1164	0.0007250516
182	0x3ba9caab	0.0051816306
183	0x3bdd6f30	0.0067576393
184	0x399d5f40	0.0003001634
185	0x3c774f01	0.01509452
186	0xbc300aff	-0.010744809
187	0xbc79194f	-0.015203788
188	0xbbdcb140	-0.006734997
189	0xbc300885	-0.010744219
190	0xbc3a37c5	-0.011365836
191	0xbab8fe19	-0.0014113813
192	0xbaed5731	-0.001810765
193	0x3c1b226a	0.009468654
194	0xbb1c5ae5	-0.0023857888
195	0x3a34299f	0.0006872657
196	0x3a0d93ad	0.00054007286
197	0xbb1c7013	-0.0023870512
198	0x3b6ac0de	0.0035820524
199	0xbb2d9dbb	-0.002649172
200	0x3baff130	0.005369328
201	0x3c5be28a	0.01342071
202	0x3b9ccd74	0.004785234
203	0x3c054a29	0.008135357
204	0xba9b55fc	-0.0011851187
205	0x3b9b3319	0.004736316
206	0x3cbdd57c	0.023173086
207	0x39e0a19a	0.00042845012
208	0x3c11417d	0.008865711
209	0x3c5b8271	0.013397799
210	0x3aa0682a	0.0012238075
211	0xbcdc6403	-0.026903158
212	0xbb91e6c9	-0.0044525606
213	0x3969d766	0.00022300854
214	0xbc2f6220	-0.010704547
215	0x3c27ae0b	0.010234366
216	0x3b5b4185	0.00334558
217	0xbb55e292	-0.0032636267
218	0x3b62a4a8	0.0034583006
219	0xbbc0d42a	-0.005884667
220	0x3bd8cd4b	0.0066162697
221	0x3b62a4a8	0.0034583006
222	0x3b95c35c	0.004570408
223	0x3b7c759d	0.0038522251
224	0xbb80dcde	-0.0039325794
225	0x3bd04190	0.006355472
226	0xbba2280b	-0.004948621
227	0xbc6c8ac1	-0.014437378
228	0x3b8e14bd	0.0043359683
229	0xbba228dd	-0.004948719
230	0xbc8aed90	-0.016958982
231	0xbb4b9828	-0.0031066034
232	0xbcc8ec28	-0.02452667
233	0xbbfa4482	-0.0076375613
234	0x3ba0574c	0.004893219
235	0xba972c2b	-0.0011533549
236	0xbcffd97a	-0.03123163
237	0x3ba15fec	0.004924765
238	0xbcea9eba	-0.02864014
239	0xbcc5d538	-0.024149522
240	0xbb959547	-0.0045649144
241	0xbc0dfa8c	-0.008665692
242	0x3b348677	0.0027545968
243	0x3c05478b	0.008134733
244	0xbc1eb08d	-0.009685648
245	0x3b348e7c	0.0027550748
246	0xbb31e292	-0.0027143103
247	0xbb2677bc	-0.0025400957
248	0xbc94c535	-0.018160442
249	0xbc16cf22	-0.009204658
250	0xbbacb33e	-0.005270391
251	0xbd6bb879	-0.057548974
252	0xbc4517fb	-0.012029643
253	0xbbcdccc1	-0.006280512
254	0xbca06037	-0.019577129
255	0xbc43b6df	-0.011945455

lstm_layers.0.weight_hh_l0 f4 [256, 64]
0	0xbab5b7df	-0.0013864002
1	0xba9f18f0	-0.0012138169
2	0xba225792	-0.00061928586
3	0xbb020061	-0.0019836652
4	0xb95090d6	-0.00019890381
5	0xba0cacb2	-0.000536631
6	0xba2660df	-0.00063468324
7	0xbaa2aeb6	-0.0012411687
8	0x3ade39fd	0.0016954538
9	0xba77be51	-0.00094506616
10	0x3ac9ed2b	0.0015405765
11	0xbb1edd0b	-0.0024240639
12	0xb9ae9290	-0.00033297064
13	0xb926eef2	-0.00015920008
14	0x3a7bd321	0.0009606351
15	0x3a0c5cc1	0.00053543976
16	0x3a9137b3	0.0011079222
17	0x3a18a97c	0.0005823595
18	0xbb06e3ea	-0.0020582625
19	0x3a0cdbc3	0.0005373323
20	0x3a0d5a95	0.0005392221
21	0x3a4086c4	0.00073443004
22	0xba0b9fa6	-0.00053262187
23	0x3a9344e3	0.001123574
24	0xbaa430c4	-0.001252674
25	0x388f2c29	6.826997e-05
26	0xba8eeb28	-0.0010903822
27	0xba7c709f	-0.0009629819
28	0x3a809140	0.0009808913
29	0xbb01a783	-0.0019783683
30	0xba80ead6	-0.0009835612
31	0x3afecca6	0.0019439652
32	0x39e163ed	0.00042989795
33	0x3afb68b0	0.001918098
34	0x3ab758a3	0.0013988208
35	0xb9af7571	-0.00033466102
36	0x3a9e8d72	0.0012096597
37	0x3a25182a	0.0006297851
38	0xbaf27758	-0.0018498702
39	0xbaae98ec	-0.0013320721
40	0xbb0d0bbf	-0.0021521894
41	0xb9b116d7	-0.00033777088
42	0xbb3fb92c	-0.0029254658
43	0xb98dbb60	-0.0002703322
44	0xbb53d8a0	-0.0032325163
45	0xba5c66c3	-0.00084076467
46	0x39f25f0d	0.00046228655
47	0xbae992e4	-0.0017820266
48	0xb9c1cf0d	-0.00036966093
49	0x3a7c6dc4	0.00096293935
50	0xba1d733b	-0.00060062454
51	0x3abf6889	0.0014603297
52	0xb9bae569	-0.00035647608
53	0xba9bde51	-0.0011891817
54	0xb9750f69	-0.00023370761
55	0xba15febd	-0.0005721858
56	0x38eeaa86	0.00011380487
57	0x3a46eb60	0.0007588174
58	0x3a9f0d26	0.0012134656
59	0x3a84d2d0	0.0010133628
60	0x3a613c76	0.0008592078
61	0xbab3b854	-0.001371155
62	0x3aa842ad	0.0012837254
63	0xb9de7119	-0.00042427404
64	0xbafe1833	-0.0019385874
65	0xbae7e771	-0.0017692876
66	0xba899897	-0.0010497746
67	0xbb49225f	-0.0030690653
68	0xb9afb91c	-0.00033516518
69	0xba582ab6	-0.00082461105
70	0xb97fd9a2	-0.0002439977
71	0xbb171ec4	-0.002305911
72	0x3ae18698	0.001720625
73	0xbae24c2d	-0.0017265134
74	0x3b7e1842	0.0038771783
75	0xbb748c6a	-0.0037315139
76	0xbaa741dc	-0.0012760716
77	0xb9214e93	-0.00015383428
78	0x3ac566fd	0.00150606
79	0x39e9adac	0.0004457062
80	0x3a70d7c7	0.0009187427
81	0x3a4a3166	0.00077130494
82	0xbb624c68	-0.0034530405
83	0x3aa6bc24	0.0012720865
84	0xbad55848	-0.001627692
85	0x3aa91a9c	0.0012901607
86	0xbac3a2eb	-0.0014925873
87	0x3aca456a	0.0015432064
88	0xba5ea6f4	-0.0008493506
89	0x3aad1cc0	0.0013207421
90	0xbb47dd17	-0.003049677
91	0xba7121a7	-0.0009198435
92	0x39e5e110	0.00043845968
93	0xbb04ae74	-0.0020245584
94	0xba2340e4	-0.0006227626
95	0x3b1a5533	0.0023549318
96	0xb7329837	-1.0645067e-05
97	0x3b228b59	0.0024802296
98	0x3acc3684	0.0015580212
99	0xb9c7df7c	-0.00038122747
100	0x3a85deca	0.0010213491
101	0x3a928112	0.0011177382
102	0xbb9dbc5d	-0.0048137144
103	0xbab1e1b2	-0.0013571291
104	0xbb0582ba	-0.0020372109
105	0xbaca737f	-0.0015445797
106	0xbbbce9bd	-0.0057651685
107	0xb966078d	-0.00021937322
108	0xbaf586cb	-0.0018732188
109	0xb949533f	-0.00019199865
110	0x37d1bcec	2.5002715e-05
111	0xbaf88e37	-0.0018963282
112	0xb98f71a9	-0.0002735977
113	0x3abde7aa	0.0014488597
114	0xba35b0cb	-0.0006930946
115	0x3b8cc8e1	0.0042964076
116	0xb9b90e3f	-0.00035296564
117	0xba95d548	-0.0011431361
118	0xb965283a	-0.00021854127
119	0xbb211b6e	-0.0024583
120	0x3982a264	0.00024916523
121	0x39224d92	0.00015478421
122	0x3aaaa27d	0.0013018396
123	0x3a8d7050	0.0010790918
124	0x3a0605fc	0.0005112586
125	0xbb65753d	-0.0035012506
126	0x3a70f86d	0.0009192292
127	0x3a2ac9e0	0.0006515067
128	0xb9ae8e64	-0.00033293955
129	0xba10b794	-0.00055205193
130	0xb965976d	-0.00021895552
131	0xba79eefe	-0.0009534209
132	0xb96dbace	-0.00022671671
133	0xb78ec5fc	-1.7019913e-05
134	0x38211534	3.840514e-05
135	0xba29ef90	-0.0006482536
136	0x3a4dd71c	0.0007852183
137	0xba356157	-0.0006919107
138	0x3a5aed43	0.0008351395
139	0xbacbc867	-0.0015547395
140	0x389d8074	7.51027e-05
141	0x38bc528b	8.9799134e-05
142	0x399aadce	0.00029502664
143	0x3973baed	0.00023243921
144	0x3a4ddeed	0.0007853348
145	0x394ea420	0.00019706832
146	0xba836fb1	-0.0010027793
147	0x399d4fec	0.0003000492
148	0xb59a1ffe	-1.1483205e-06
149	0x39ccad7f	0.00039039177
150	0xb902754e	-0.00012441466
151	0x3a11d219	0.0005562618
152	0xb9f10fc0	-0.00045978837
153	0x3a033003	0.0005004408
154	0xb9eb75f9	-0.0004491059
155	0xb9c3894d	-0.00037295595
156	0x3a358979	0.0006925087
157	0xba5ca7f1	-0.0008417359
158	0xba0ef1a3	-0.0005452877
159	0x3a8a5a82	0.0010555538
160	0x395a6ef3	0.00020831432
161	0x3a62ca0a	0.0008651322
162	0x3a83d3b4	0.0010057599
163	0xb8254304	-3.940148e-05
164	0x3a009fd9	0.00049066317
165	0x39ef88bd	0.0004568751
166	0xba7fa08e	-0.00097514025
167	0xba455397	-0.00075274095
168	0xba4093ce	-0.00073462434
169	0xb87b42e9	-5.990538e-05
170	0xbacef8e8	-0.0015790733
171	0xb940e9e3	-0.00018397676
172	0xbad4c5f3	-0.001623331
173	0xb9dd4151	-0.0004220107
174	0x38b3e311	8.5776795e-05
175	0xba3b774a	-0.00071512593
176	0xb9e0feea	-0.00042914535
177	0x3a156613	0.0005699109
178	0x37fc1418	3.0050098e-05
179	0x3ac2143e	0.0014807058
180	0xb8dcd700	-0.00010530464
181	0xba2cf72b	-0.000659811
182	0xb9123856	-0.00013944632
183	0xb951ee14	-0.00020020484
184	0xb9399b76	-0.00017700889
185	0x394ef8d0	0.00019738381
186	0x3a087330	0.00052051526
187	0x397b05f9	0.0002393945
188	0x3a035f8f	0.0005011493
189	0xba4533c3	-0.0007522667
190	0x3a1a8cfa	0.0005895641
191	0x392d1e53	0.00016509862
192	0xbad9c730	-0.0016615149
193	0xbb041665	-0.002015495
194	0xba10b8db	-0.00055207097
195	0xbb4ac311	-0.0030939023
196	0xba35a05c	-0.00069284975
197	0xb9f873b0	-0.0004738844
198	0xbabf3545	-0.0014588019
199	0xbb6e5aa8	-0.0036369953
200	0x3b5d8d50	0.0033806153
201	0xbb0da16e	-0.0021611112
202	0x3b3973c9	0.0028297773
203	0xbb8b71b5	-0.0042554983
204	0xba719440	-0.00092155114
205	0xb8eb703c	-0.000112265785
206	0x3ab40bc2	0.0013736414
207	0x3a4b2eaa	0.0007750789
208	0x3aa69aa7	0.0012710885
209	0x3a828303	0.0009957257
210	0xbb89e439	-0.0042081145
211	0x3ab5148a	0.0013815325
212	0x39a8cf6d	0.00032198
213	0x3aab4cf5	0.00130692
214	0xba495422	-0.0007680078
215	0x3b15fffd	0.0022888177
216	0xba843e16	-0.0010089304
217	0x3a87bd25	0.0010356052
218	0xbad9a861	-0.0016605967
219	0xbb064c15	-0.0020492126
220	0x3add04c7	0.0016862386
221	0xbb4ed3c3	-0.0031559325
222	0xbaaf00fd	-0.0013351735
223	0x3b52657e	0.003210395
224	0x39818ce3	0.00024709766
225	0x3b7f23fe	0.0038931365
226	0x3b1e9792	0.002419923
227	0xb9b24540	-0.000340024
228	0x3afda5dc	0.0019351798
229	0x3ab4e644	0.0013801535
230	0xbb234df1	-0.0024918283
231	0xbb1a8734	-0.0023579122
232	0xbb23b883	-0.0024981804
233	0xba91ac97	-0.0011114058
234	0xbb59f567	-0.0033257843
235	0xb9aa1289	-0.00032438737
236	0xbba7cb27	-0.005120653
237	0xba73a613	-0.00092944613
238	0x39e35e6a	0.00043367158
239	0xbb2102b2	-0.0024568257
240	0xbada5457	-0.0016657215
241	0x3aee5ed4	0.001818622
242	0xba6e186c	-0.00090826186
243	0x3b28b6db	0.0025743756
244	0xb99bf572	-0.00029746775
245	0xbb00810f	-0.0019608175
246	0xb99329a0	-0.00028069038
247	0xbade5f33	-0.0016965627
248	0x39b7f16b	0.0003508435
249	0x3acfe4c5	0.0015861025
250	0x3b0fde50	0.0021952577
251	0x3ad2cfcc	0.0016083657
252	0x3aa32ba6	0.0012448921
253	0xbb3d3d2d	-0.0028875575
254	0x3adb714e	0.0016742141
255	0xb9177feb	-0.00014448135

lstm_layers.0.bias_ih_l0 f4 [256]
0	0x3bc69222	0.006059901
1	0x39e978af	0.0004453114
2	0x3bb3884a	0.0054788934
3	0x3c985eab	0.018599829
4	0x3aad6016	0.0013227488
5	0x3ba5693e	0.0050479462
6	0x3cac6624	0.021044798
7	0x3c83adf4	0.016074158
8	0x3bc4e729	0.0060090018
9	0x3b7a8bf7	0.0038230398
10	0x3cd6bdd2	0.02621356
11	0x3d113829	0.03545395
12	0x3c24ce2a	0.010058919
13	0xbac712bb	-0.0015188077
14	0x3c10ecea	0.008845547
15	0x3b397e06	0.0028303876
16	0x3bff243d	0.0077863024
17	0x3ae55d8b	0.0017499191
18	0x3b7323ec	0.0037100269
19	0x3b3b2407	0.002855541
20	0x3cd59352	0.026071224
21	0x3ba68043	0.005081208
22	0x3c89dae1	0.016828002
23	0x3b89343b	0.0041871346
24	0x3c1b2aab	0.009470622
25	0x3c186084	0.009300355
26	0x3b35c3dc	0.002773515
27	0x3bb00376	0.0053715063
28	0x3bb1ea21	0.0054295217
29	0x3c399fed	0.011329633
30	0x3ad150da	0.001596953
31	0x3c1b9d3a	0.009497935
32	0xba9488d4	-0.0011332282
33	0x3c70f37e	0.014706491
34	0x3b8106f3	0.003937596
35	0x3a2eca68	0.0006667734
36	0x3c1650bd	0.009174523
37	0x3b30a426	0.002695331
38	0x3be35357	0.006937425
39	0x3ba66c53	0.005078831
40	0x3b2e2581	0.0026572647
41	0x3bfe2594	0.0077559445
42	0x3c509fd9	0.012733423
43	0x3a519606	0.00079950725
44	0x3cac4fba	0.02103411
45	0x3aaa76ab	0.0013005337
46	0x3adccbc9	0.0016845401
47	0x3b4b9d92	0.003106926
48	0x3c1f17f0	0.009710297
49	0x3c17a186	0.009254819
50	0x3bac1e00	0.0052525997
51	0x3c89ce78	0.016822085
52	0x3a98f31f	0.0011669135
53	0x3bf1aba3	0.007375197
54	0x39a2e4e7	0.00031069593
55	0x3c1ddbb9	0.0096349055
56	0x3b96213a	0.0045815976
57	0x3b510111	0.0031891505
58	0x3b186f9d	0.0023259886
59	0x3b9ed4b4	0.0048471335
60	0x3ba1be67	0.004936028
61	0x3c2e3692	0.010633128
62	0x3c408d29	0.011752405
63	0x3b9ca9b9	0.0047809747
64	0x3e0a1380	0.13484001
65	0x3ed72f26	0.4202816
66	0x3cf7141d	0.030160958
67	0x3e5c41f7	0.21509539
68	0x3a61e767	0.00086175505
69	0x3d3374a9	0.043812428
70	0x3e9c5a0c	0.3053745
71	0x3ec91f27	0.3928158
72	0x3e8d0bc5	0.27548042
73	0x3d59ec79	0.053204034
74	0x3edd6c4d	0.4324669
75	0x3eb6f9d4	0.3573748
76	0x3c0a5365	0.008442734
77	0xbd5437d7	-0.051811066
78	0x3c867443	0.01641286
79	0x38eb5331	0.00011221169
80	0x3e74c551	0.23903395
81	0x3b94d58c	0.0045420583
82	0x3f070962	0.5274869
83	0x3dbfe007	0.09368902
84	0x3e26a7e8	0.16274989
85	0x3e3798da	0.17929402
86	0x3d0be84e	0.03415709
87	0x3e1ea22f	0.15491556
88	0x3d8a0bca	0.0674053
89	0x3ef82694	0.48466933
90	0x3eff1406	0.49819964
91	0x3e79b778	0.24386394
92	0x3cf129f5	0.029438952
93	0x3edf9157	0.43665573
94	0x3bb801f6	0.005615468
95	0x3f0d85bb	0.5528218
96	0xbd08e71f	-0.03342354
97	0x3ee38ac0	0.44441795
98	0x3e5b3611	0.21407343
99	0x3b3c25ab	0.0028708975
100	0x3bed6b69	0.0072454703
101	0x3ddc0443	0.10743
102	0x3ee10a17	0.4395301
103	0x3ec7a66f	0.38994166
104	0x3f0a5eee	0.540511
105	0x3d0dbd6c	0.034604475
106	0x3eefd8f2	0.46845204
107	0x3dbe0df9	0.09280009
108	0x3f0c6e3d	0.5485571
109	0x3bf3dd93	0.007442185
110	0x39eb87a7	0.00044923762
111	0x3e8eb500	0.27872467
112	0x3d9b0829	0.07569916
113	0x3db71e7a	0.0894136
114	0x3d89aaf1	0.067220576
115	0x3f1ea6d5	0.61973315
116	0x3b16a63a	0.0022987262
117	0x3c375654	0.011190016
118	0xbbcebe15	-0.0063092806
119	0x3ecdff77	0.40233967
120	0x3d981f13	0.07427802
121	0x3f064ab6	0.5245775
122	0x3dc7eca8	0.097619355
123	0x3cec17b9	0.028819906
124	0xba0a4895	-0.0005275098
125	0x3edeff6f	0.43554255
126	0x3d84483b	0.06459089
127	0x3c8db2f5	0.017297247
128	0xbce65369	-0.028115945
129	0x3b9ca87a	0.004780826
130	0x3a09534c	0.00052385475
131	0xbb984d3d	-0.0046478794
132	0xbc08f463	-0.008359048
133	0x3c3affb5	0.011413504
134	0xbcc874da	-0.024469782
135	0xbd06a408	-0.032871276
136	0x3d5b3119	0.05351362
137	0xba1ec3df	-0.0006056409
138	0xbc3efaa8	-0.011656441
139	0xbc2847fd	-0.01027107
140	0x3b7df1d3	0.0038748875
141	0xbbc6297b	-0.0060474253
142	0x3c9669c1	0.018360974
143	0x3cec83ea	0.028871495
144	0x3bc16f06	0.0059031276
145	0x3cdfbf59	0.027312921
146	0x3a3740a1	0.00069905265
147	0x3cad0ada	0.021123338
148	0x3c275697	0.010213516
149	0xbbd8399d	-0.006598665
150	0x3c801066	0.01563282
151	0x3ab634f8	0.0013901284
152	0xbc431f4a	-0.011909315
153	0xbbaa6d60	-0.005201027
154	0xba59b4a9	-0.00083048135
155	0xbca4cb1e	-0.020116385
156	0x3d28e40b	0.041233104
157	0xbd52cea4	-0.0514666
158	0xbcdba529	-0.026812153
159	0x3d1fc799	0.03900871
160	0x3c339395	0.010960479
161	0x3d669bf8	0.056301087
162	0x3bbe595c	0.0058089923
163	0x3b904e36	0.0044038547
164	0x3d563344	0.052294984
165	0x3ab4f12c	0.0013804785
166	0x3c83f65a	0.01610868
167	0xbc96e73a	-0.018420804
168	0xbce708a2	-0.028202359
169	0x3c813241	0.015771033
170	0xbb653b4e	-0.0034977975
171	0x3c0488e7	0.008089281
172	0xbd23df9e	-0.04000818
173	0xbc08da8e	-0.008352889
174	0x3b1aea94	0.0023638355
175	0xbd27975e	-0.04091584
176	0xbcf4b877	-0.029873116
177	0x3b9d737c	0.0048050266
178	0xbc0550e3	-0.008136961
179	0xbc897ac0	-0.016782165
180	0xbc162225	-0.009163414
181	0xbd2ccc07	-0.042186763
182	0xbb9a8274	-0.0047152583
183	0x3c2928b2	0.010324644
184	0xbc22295b	-0.009897555
185	0x3d0f027c	0.03491448
186	0x3cdf269b	0.027240088
187	0x3d046908	0.032326728
188	0x3cc1954b	0.023630759
189	0x3c57aada	0.013163293
190	0x3d1be4c3	0.03805996
191	0xbc53fd82	-0.012938859
192	0x3be08b3a	0.0068525346
193	0x3ab7459f	0.0013982541
194	0x3bba64ae	0.0056882715
195	0x3c9c29be	0.019062873
196	0x3aadc439	0.0013257331
197	0x3bcf5f62	0.006328509
198	0x3ca5a59e	0.020220574
199	0x3c87cf6a	0.016578395
200	0x3b0fc7b8	0.002193911
201	0x3b86b8ea	0.004111399
202	0x3cdddc13	0.027082479
203	0x3d25b761	0.040458087
204	0x3c27c19c	0.010239031
205	0x3ba97b98	0.005172204
206	0x3c15cee3	0.009143564
207	0x3b392562	0.0028251042
208	0x3c11bdff	0.008895396
209	0x3a72693a	0.00092472474
210	0x3bc5d7bd	0.006037681
211	0x3b2c8ed3	0.0026330247
212	0x3cc5fdb5	0.024168829
213	0x3ba53ddd	0.005042775
214	0x3c8d3211	0.017235788
215	0xbb60781a	-0.0034251274
216	0x3c0fdfbd	0.008781371
217	0x3c2adcf7	0.010428659
218	0x3c2a8949	0.010408708
219	0x3bb29297	0.005449604
220	0x3b996f9b	0.004682494
221	0x3c3a2790	0.0113619715
222	0x3aef3e3b	0.0018252799
223	0x3c02191e	0.007940559
224	0xba51971a	-0.0007995233
225	0x3c4f41cc	0.012649965
226	0x3b89fc62	0.0042109946
227	0x3a2cece0	0.00065965764
228	0x3bc7c897	0.00609691
229	0x3b542eb6	0.0032376475
230	0x3c6ee915	0.014581938
231	0x3b5c8c72	0.0033653048
232	0x3b7300d5	0.0037079353
233	0x3bfb5c3d	0.007670908
234	0x3c8efb4a	0.017453808
235	0x3a528383	0.0008030461
236	0x3ca658c2	0.020305995
237	0x3ab05909	0.0013454269
238	0x3addbc6a	0.0016917114
239	0x3aeec802	0.0018217566
240	0x3c2008b3	0.009767699
241	0x3c1afe08	0.00945998
242	0x3bb9f87c	0.0056753736
243	0x3ca5fc79	0.02026199
244	0x3a99a8ec	0.0011723316
245	0x3c01b853	0.0079174815
246	0x392ab586	0.00016280086
247	0x3c1dd0c6	0.009632295
248	0x3b90c55e	0.0044180593
249	0xb9427f39	-0.00018548676
250	0x3b19ee36	0.0023487932
251	0xba56a9f9	-0.000818878
252	0x3b8b4b78	0.00425094
253	0x3c5b947e	0.0134021025
254	0x3c42521d	0.011860398
255	0x3b9af679	0.004729089

lstm_layers.0.bias_hh_l0 f4 [256]
0	0x3bc6921a	0.006059897
1	0x39e978f1	0.00044531332
2	0x3bb38847	0.005478892
3	0x3c985eae	0.018599834
4	0x3aad6018	0.0013227491
5	0x3ba5693a	0.0050479444
6	0x3cac662b	0.021044811
7	0x3c83adf1	0.016074153
8	0x3bc4e733	0.0060090064
9	0x3b7a8bfa	0.0038230405
10	0x3cd6bdd2	0.02621356
11	0x3d11382e	0.035453968
12	0x3c24ce2b	0.01005892
13	0xbac712b9	-0.0015188075
14	0x3c10ece8	0.008845545
15	0x3b397e05	0.0028303873
16	0x3bff243d	0.0077863024
17	0x3ae55d86	0.0017499186
18	0x3b7323ed	0.003710027
19	0x3b3b2403	0.00285554
20	0x3cd59351	0.026071222
21	0x3ba68044	0.0050812084
22	0x3c89dae2	0.016828004
23	0x3b893435	0.0041871318
24	0x3c1b2aad	0.009470624
25	0x3c186081	0.009300352
26	0x3b35c3eb	0.0027735184
27	0x3bb00377	0.005371507
28	0x3bb1ea20	0.005429521
29	0x3c399fec	0.011329632
30	0x3ad150d7	0.0015969527
31	0x3c1b9d3b	0.009497936
32	0xba9488d4	-0.0011332282
33	0x3c70f37a	0.014706487
34	0x3b8106f2	0.0039375955
35	0x3a2eca72	0.000666774
36	0x3c1650bc	0.009174522
37	0x3b30a425	0.0026953307
38	0x3be35357	0.006937425
39	0x3ba66c4c	0.005078828
40	0x3b2e259b	0.0026572708
41	0x3bfe259a	0.0077559473
42	0x3c509fdd	0.012733427
43	0x3a519607	0.0007995073
44	0x3cac4fbe	0.021034118
45	0x3aaa76a9	0.0013005334
46	0x3adccbc7	0.0016845398
47	0x3b4b9d9b	0.0031069282
48	0x3c1f17ed	0.009710294
49	0x3c17a184	0.009254817
50	0x3bac1e04	0.0052526016
51	0x3c89ce7d	0.016822094
52	0x3a98f323	0.001166914
53	0x3bf1aba7	0.007375199
54	0x39a2e4e2	0.0003106958
55	0x3c1ddbb6	0.009634903
56	0x3b962139	0.004581597
57	0x3b510112	0.0031891507
58	0x3b186f9b	0.0023259881
59	0x3b9ed4af	0.004847131
60	0x3ba1be6d	0.0049360306
61	0x3c2e368e	0.010633124
62	0x3c408d25	0.0117524015
63	0x3b9ca9b9	0.0047809747
64	0x3e0a1380	0.13484001
65	0x3ed72f26	0.4202816
66	0x3cf7141f	0.030160962
67	0x3e5c41f7	0.21509539
68	0x3a61e75b	0.00086175435
69	0x3d3374a9	0.043812428
70	0x3e9c5a0d	0.30537453
71	0x3ec91f27	0.3928158
72	0x3e8d0bc6	0.27548045
73	0x3d59ec7a	0.053204037
74	0x3edd6c4e	0.43246692
75	0x3eb6f9d3	0.35737476
76	0x3c0a5365	0.008442734
77	0xbd5437d8	-0.05181107
78	0x3c867441	0.016412856
79	0x38eb5336	0.000112211725
80	0x3e74c551	0.23903395
81	0x3b94d590	0.00454206
82	0x3f070963	0.527487
83	0x3dbfe006	0.09368901
84	0x3e26a7e8	0.16274989
85	0x3e3798d7	0.17929398
86	0x3d0be84e	0.03415709
87	0x3e1ea22f	0.15491556
88	0x3d8a0bcb	0.067405306
89	0x3ef82696	0.4846694
90	0x3eff1406	0.49819964
91	0x3e79b77a	0.24386397
92	0x3cf129f7	0.029438956
93	0x3edf9157	0.43665573
94	0x3bb801fa	0.00561547
95	0x3f0d85bb	0.5528218
96	0xbd08e71d	-0.03342353
97	0x3ee38ac3	0.44441804
98	0x3e5b3615	0.2140735
99	0x3b3c25ae	0.0028708982
100	0x3bed6b6a	0.007245471
101	0x3ddc0443	0.10743
102	0x3ee10a17	0.4395301
103	0x3ec7a66d	0.3899416
104	0x3f0a5eee	0.540511
105	0x3d0dbd6c	0.034604475
106	0x3eefd8f3	0.46845207
107	0x3dbe0df8	0.09280008
108	0x3f0c6e3e	0.54855716
109	0x3bf3dd97	0.007442187
110	0x39eb87ad	0.0004492378
111	0x3e8eb4fd	0.27872458
112	0x3d9b082a	0.075699165
113	0x3db71e78	0.08941358
114	0x3d89aaf0	0.06722057
115	0x3f1ea6d6	0.6197332
116	0x3b16a63c	0.0022987267
117	0x3c375655	0.011190017
118	0xbbcebe17	-0.0063092816
119	0x3ecdff77	0.40233967
120	0x3d981f10	0.074278
121	0x3f064ab8	0.5245776
122	0x3dc7eca1	0.0976193
123	0x3cec17b9	0.028819906
124	0xba0a488c	-0.00052750926
125	0x3edeff6f	0.43554255
126	0x3d84483b	0.06459089
127	0x3c8db2f6	0.01729725
128	0xbce65366	-0.02811594
129	0x3b9ca876	0.0047808243
130	0x3a095301	0.0005238504
131	0xbb984d30	-0.0046478733
132	0xbc08f467	-0.008359051
133	0x3c3affba	0.011413509
134	0xbcc874d9	-0.02446978
135	0xbd06a409	-0.03287128
136	0x3d5b3119	0.05351362
137	0xba1ec423	-0.00060564483
138	0xbc3efa9f	-0.011656432
139	0xbc2847fa	-0.010271067
140	0x3b7df1b9	0.0038748814
141	0xbbc62973	-0.0060474216
142	0x3c9669c5	0.018360982
143	0x3cec83e9	0.028871493
144	0x3bc16efa	0.005903122
145	0x3cdfbf54	0.027312912
146	0x3a37400e	0.0006990441
147	0x3cad0adb	0.02112334
148	0x3c275696	0.010213515
149	0xbbd839ac	-0.006598672
150	0x3c801060	0.015632808
151	0x3ab63505	0.0013901299
152	0xbc431f43	-0.011909309
153	0xbbaa6d61	-0.0052010273
154	0xba59b475	-0.0008304783
155	0xbca4cb18	-0.020116374
156	0x3d28e40f	0.04123312
157	0xbd52cea2	-0.05146659
158	0xbcdba52a	-0.026812155
159	0x3d1fc799	0.03900871
160	0x3c339385	0.010960464
161	0x3d669bfa	0.056301095
162	0x3bbe5964	0.005808996
163	0x3b904e31	0.0044038524
164	0x3d563341	0.052294973
165	0x3ab4f13d	0.0013804805
166	0x3c83f663	0.016108697
167	0xbc96e739	-0.018420802
168	0xbce708a5	-0.028202364
169	0x3c81323a	0.01577102
170	0xbb653b5a	-0.0034978003
171	0x3c0488ea	0.0080892835
172	0xbd23df9d	-0.040008176
173	0xbc08da87	-0.008352882
174	0x3b1aea8e	0.002363834
175	0xbd279760	-0.040915847
176	0xbcf4b872	-0.029873107
177	0x3b9d7381	0.004805029
178	0xbc0550e0	-0.008136958
179	0xbc897ac2	-0.016782168
180	0xbc162224	-0.009163413
181	0xbd2ccc04	-0.042186752
182	0xbb9a8273	-0.004715258
183	0x3c2928b2	0.010324644
184	0xbc222962	-0.009897562
185	0x3d0f0281	0.034914497
186	0x3cdf2698	0.027240083
187	0x3d046905	0.032326717
188	0x3cc19547	0.023630751
189	0x3c57aad8	0.013163291
190	0x3d1be4c1	0.038059954
191	0xbc53fd87	-0.012938864
192	0x3be08b33	0.0068525313
193	0x3ab745a0	0.0013982542
194	0x3bba64ad	0.005688271
195	0x3c9c29ba	0.019062866
196	0x3aadc433	0.0013257324
197	0x3bcf5f60	0.0063285083
198	0x3ca5a59e	0.020220574
199	0x3c87cf5f	0.016578374
200	0x3b0fc7b5	0.0021939103
201	0x3b86b8e8	0.004111398
202	0x3cdddc14	0.02708248
203	0x3d25b761	0.040458087
204	0x3c27c19a	0.010239029
205	0x3ba97b98	0.005172204
206	0x3c15cede	0.009143559
207	0x3b392561	0.002825104
208	0x3c11be00	0.008895397
209	0x3a726937	0.00092472456
210	0x3bc5d7bb	0.00603768
211	0x3b2c8edc	0.0026330268
212	0x3cc5fdb5	0.024168829
213	0x3ba53ddb	0.005042774
214	0x3c8d320f	0.017235784
215	0xbb60781d	-0.003425128
216	0x3c0fdfc0	0.0087813735
217	0x3c2adcff	0.010428666
218	0x3c2a893d	0.010408697
219	0x3bb2928d	0.005449599
220	0x3b996f9b	0.004682494
221	0x3c3a2797	0.011361978
222	0x3aef3e3e	0.0018252803
223	0x3c02191f	0.00794056
224	0xba51971b	-0.0007995234
225	0x3c4f41cd	0.0126499655
226	0x3b89fc65	0.004210996
227	0x3a2cecde	0.0006596575
228	0x3bc7c893	0.0060969084
229	0x3b542ea5	0.0032376435
230	0x3c6ee917	0.01458194
231	0x3b5c8c6e	0.0033653039
232	0x3b7300c3	0.0037079311
233	0x3bfb5c4c	0.0076709148
234	0x3c8efb49	0.017453806
235	0x3a52837b	0.00080304564
236	0x3ca658c6	0.020306002
237	0x3ab0590e	0.0013454275
238	0x3addbc6f	0.001691712
239	0x3aeec80a	0.0018217575
240	0x3c2008ac	0.009767693
241	0x3c1afe06	0.009459978
242	0x3bb9f885	0.005675378
243	0x3ca5fc6b	0.020261964
244	0x3a99a8ee	0.0011723319
245	0x3c01b851	0.00791748
246	0x392ab581	0.00016280079
247	0x3c1dd0c7	0.009632296
248	0x3b90c560	0.00441806
249	0xb9427f25	-0.00018548647
250	0x3b19ee52	0.0023487997
251	0xba56a9eb	-0.0008188772
252	0x3b8b4b7c	0.004250942
253	0x3c5b947f	0.013402103
254	0x3c42521c	0.011860397
255	0x3b9af67b	0.00472909

lstm_layers.1.weight_ih_l0 f4 [256, 64]
0	0x39f50d0d	0.00046739765
1	0x39fbaa8e	0.00048001524
2	0x3a4930c2	0.0007674807
3	0x3a87f87c	0.0010373737
4	0xb72d93c2	-1.0346006e-05
5	0x3a697642	0.00089058664
6	0x39dcf3f8	0.0004214344
7	0x3983119f	0.00024999396
8	0xbb08a2c6	-0.0020848974
9	0xba7ca0b2	-0.00096369826
10	0x3a909aa4	0.0011032415
11	0xb98eeb21	-0.00027259535
12	0xba7ed6c5	-0.0009721334
13	0x3be2d8b7	0.006922807
14	0xbafbae3e	-0.0019201708
15	0x38da569b	0.000104111816
16	0xbb66e038	-0.003522886
17	0xbaf72166	-0.0018854558
18	0xba91b030	-0.001111513
19	0xba9f440f	-0.001215102
20	0x3b08f03e	0.0020895149
21	0xba220448	-0.00061804475
22	0x3a11fd79	0.00055690814
23	0x3b3a394e	0.0028415504
24	0x3a8d3a01	0.0010774733
25	0xbb979192	-0.0046255076
26	0x3a470c9f	0.0007593128
27	0x3b436451	0.0029814432
28	0x3a1c8e3f	0.0005972124
29	0x3ae11286	0.0017171658
30	0x3aaaf962	0.0013044293
31	0xb9c67e24	-0.00037859485
32	0xba5736ba	-0.0008209754
33	0x392a1d41	0.00016223361
34	0xba8c1a82	-0.0010689052
35	0x3980a62f	0.0002453788
36	0xba7a2db1	-0.0009543552
37	0xbb6b3270	-0.0035888217
38	0x381f1275	3.7925744e-05
39	0x3b011116	0.0019694022
40	0x3a536cb6	0.00080652104
41	0x3939c784	0.000177173
42	0xb81728e9	-3.6039306e-05
43	0x3aa7f88e	0.0012815164
44	0x3a1bda9f	0.0005945358
45	0x3b1062b1	0.002203148
46	0x3a70fb6e	0.00091927394
47	0x3aeb523d	0.0017953586
48	0xba47faf4	-0.00076286425
49	0x3a818ba6	0.0009883537
50	0x3aba3cee	0.0014208832
51	0x3ac6ff3f	0.001518227
52	0x3abb140c	0.0014272942
53	0x3a38d581	0.00070508575
54	0x3b838c5c	0.004014535
55	0x3a669936	0.0008796634
56	0x3b991385	0.0046715164
57	0xbc4445a8	-0.011979498
58	0xbb13f7d1	-0.002257813
59	0x3ab1672d	0.0013534777
60	0x3a8eaa7a	0.0010884546
61	0x3a3a2033	0.0007100135
62	0x3bb9e47a	0.0056729885
63	0xbaed269a	-0.0018093169
64	0x3ae3ed17	0.0017389384
65	0x3aa7fa18	0.0012815623
66	0x3a0d7ed0	0.00053976197
67	0x3b30e4ed	0.002699192
68	0x38a2ef9f	7.769395e-05
69	0x3ac62c1b	0.0015119346
70	0x3ad9762f	0.0016591008
71	0x3acf6c88	0.0015825192
72	0xb9ee434f	-0.00045445046
73	0x3ad8f4e3	0.0016552474
74	0xb994bca7	-0.00028369317
75	0x37e42c76	2.7200422e-05
76	0x3a5ed960	0.00085010193
77	0x387279df	5.7810797e-05
78	0xb8fe3ba5	-0.000121227735
79	0x39335c4b	0.00017105152
80	0xb9b8c316	-0.00035240565
81	0xb9ece063	-0.0004518061
82	0x3b0aa2f7	0.0021154264
83	0xb8d5fbc6	-0.00010203528
84	0x3a372ba8	0.0006987401
85	0xb891bf67	-6.94979e-05
86	0x3a192b6d	0.0005842958
87	0xb8e422fb	-0.00010878403
88	0x3b05490d	0.002033773
89	0xb9cceb6a	-0.0003908531
90	0x3a9ef262	0.0012126679
91	0x3b285038	0.002568258
92	0x3989b9ab	0.0002626901
93	0x3b60d6fa	0.0034307824
94	0x3b1731a6	0.0023070364
95	0x3822c6f8	3.8809114e-05
96	0xb803922e	-3.1368974e-05
97	0xb84dca3b	-4.906415e-05
98	0xb97bb29a	-0.0002400376
99	0x3993609f	0.00028110013
100	0x3993ac44	0.00028166373
101	0xb8f221e1	-0.0001154577
102	0x39e0ac43	0.00042852954
103	0x3b66c53c	0.0035212776
104	0x3b0fef0d	0.0021962554
105	0x3ad2f114	0.0016093575
106	0x3874ee7a	5.8396232e-05
107	0xb78d0976	-1.6812915e-05
108	0x3a31f563	0.00067885796
109	0x39a98d68	0.00032339548
110	0x36eee6a6	7.1198037e-06
111	0x3b51cfe3	0.003201478
112	0x3935e108	0.00017345336
113	0xb734ac7c	-1.0768996e-05
114	0x3a01340b	0.00049287145
115	0xb90782e7	-0.00012923368
116	0x38ea8cc8	0.00011184212
117	0x3ae3cbf5	0.001737951
118	0x3a3eced0	0.0007278742
119	0x3afe7810	0.0019414444
120	0xb9b7651f	-0.0003497982
121	0xba1b69ed	-0.0005928565
122	0xba4da4ef	-0.00078447064
123	0xb9fe0cd1	-0.00048456204
124	0x37f4fb95	2.9204219e-05
125	0x3ae8f49a	0.0017773092
126	0x39fa23a7	0.0004771028
127	0x39ca6a7b	0.00038607777
128	0xb801ee1e	-3.097776e-05
129	0xb9679b70	-0.00022087782
130	0x39856293	0.0002544118
131	0x3b19daf6	0.0023476458
132	0x3a877ebd	0.0010337454
133	0x39c8cc63	0.00038299253
134	0xb90676bc	-0.00012823468
135	0x3a1339a3	0.00056161935
136	0xb6f409b9	-7.2728985e-06
137	0x3b138d26	0.002251455
138	0xb7d955a9	-2.5908304e-05
139	0x3a53ceb7	0.0008079814
140	0x3a9c928a	0.0011945528
141	0xb9aaf94f	-0.00032610676
142	0x36991ddc	4.5632314e-06
143	0x39537177	0.00020164797
144	0x3925ee06	0.00015824297
145	0xb8c374af	-9.3200586e-05
146	0x3a7572fb	0.0009363142
147	0xb988462d	-0.00025992226
148	0xba39ff0b	-0.00070951943
149	0xb7c4a6d1	-2.34427e-05
150	0x3a8e2d76	0.0010847289
151	0x39526af6	0.00020067007
152	0x3a833ed9	0.0010013237
153	0x388bce8a	6.6665074e-05
154	0x39a1aa60	0.00030835252
155	0x39d8ee2c	0.00041376182
156	0x3a58721d	0.00082567503
157	0x3b19fdf6	0.002349732
158	0x3b907570	0.004408531
159	0xb8bf08e3	-9.109245e-05
160	0x3a6102f7	0.00085835106
161	0xb93b8051	-0.00017881511
162	0x390db4af	0.00013514118
163	0xb94c18ad	-0.00019464148
164	0xb86099e8	-5.3549098e-05
165	0x3989208f	0.00026154934
166	0x3a55e521	0.0008159448
167	0x3b5d6386	0.0033781244
168	0x399ed2a6	0.00030293054
169	0x3a85c2cb	0.0010205148
170	0x38d7e210	0.00010294106
171	0x3b09ea8e	0.0021044347
172	0x39c70ce5	0.00037965845
173	0xba50cee2	-0.0007965398
174	0xb99a7d4e	-0.00029466528
175	0x3991c19d	0.00027800808
176	0x3a112205	0.00055363803
177	0x3764207e	1.3597424e-05
178	0xb9f00740	-0.0004578177
179	0xb8d2f83d	-0.00010059818
180	0x3a609c49	0.000856821
181	0xb83c9fdc	-4.4971574e-05
182	0xbaca8031	-0.0015449581
183	0x3b0cafe8	0.0021467153
184	0xb828a613	-4.020899e-05
185	0x3ab0e5d0	0.0013496224
186	0xb8282b82	-4.009484e-05
187	0xb933710b	-0.00017112882
188	0x397902b1	0.00023747493
189	0x397a35bb	0.00023861874
190	0xb9181dc1	-0.00014506934
191	0x390837ce	0.0001299076
192	0xba1834a6	-0.0005806185
193	0xba5dbc3b	-0.00084585295
194	0xb9eb4811	-0.00044876387
195	0xbb83f989	-0.0040275496
196	0x392a3e00	0.0001623556
197	0xba659094	-0.00087572006
198	0xba45cb23	-0.00075452233
199	0xba6d242a	-0.00090462214
200	0x3aa5b03a	0.0012641021
201	0xbb203478	-0.0024445336
202	0xba06738f	-0.0005128914
203	0xb9e13dd7	-0.00042961419
204	0xb9ce6dc6	-0.0003937317
205	0x3b06bd32	0.0020559547
206	0xb96fa004	-0.00022852427
207	0x39aae32d	0.00032594186
208	0x39b1ee50	0.00033937627
209	0x3793626a	1.7569593e-05
210	0xba115e24	-0.0005545339
211	0x39312225	0.00016892755
212	0xbb5d55a5	-0.0033772972
213	0x3a1c6813	0.0005966436
214	0xba641e2d	-0.00087020063
215	0x393eef89	0.00018209046
216	0xba190197	-0.0005836724
217	0x3ac60964	0.0015109
218	0xb9782f6a	-0.00023668786
219	0xbab45ca7	-0.0013760523
220	0x3a884058	0.0010395152
221	0xbbcc27a6	-0.0062303124
222	0xbb7ae99f	-0.0038286222
223	0x38c28ccd	9.276867e-05
224	0xba9881fa	-0.0011635416
225	0x38886e89	6.505574e-05
226	0x3a4d5436	0.0007832678
227	0x394714af	0.00018985824
228	0x3a8421ad	0.0010080837
229	0x3ae38275	0.0017357605
230	0xb9999ff0	-0.00029301597
231	0xbb3930ba	-0.0028257803
232	0xba9ce080	-0.0011968762
233	0xba554ea0	-0.0008137021
234	0x390366f9	0.00012531494
235	0xbacb37e9	-0.0015504333
236	0xb9f253e3	-0.00046220337
237	0xba9d3ab7	-0.0011995648
238	0x392fb4f3	0.0001675671
239	0xba098773	-0.0005246319
240	0xbaa2e1e4	-0.001242694
241	0x39d04d12	0.00039730273
242	0xb9cd69cb	-0.0003917947
243	0xb92258b4	-0.00015482568
244	0xb73385cb	-1.07003825e-05
245	0xba379e3c	-0.0007004475
246	0xba930056	-0.001121531
247	0xbb29a63c	-0.0025886437
248	0xb90acac4	-0.00013236242
249	0xba620bf6	-0.0008622998
250	0xb8d25a97	-0.00010030454
251	0xb9b9c2dc	-0.0003543113
252	0x39b96348	0.0003535992
253	0xbb1da91d	-0.0024057098
254	0xba47d4b5	-0.00076229434
255	0xba61f25f	-0.0008619185

lstm_layers.1.weight_hh_l0 f4 [256, 64]
0	0xb9a4886d	-0.00031382163
1	0x3a22bcb5	0.0006207929
2	0xb946d4b5	-0.00018961991
3	0xb9603450	-0.00021381793
4	0x38c20a61	9.252574e-05
5	0x39a80410	0.00032046484
6	0x3926d096	0.00015908698
7	0xb9905b5b	-0.00027533885
8	0x38288596	4.0178733e-05
9	0xb97bd526	-0.0002401663
10	0x38f0711d	0.00011465161
11	0xb99b0a5a	-0.00029571616
12	0xb90ac74a	-0.00013234947
13	0xb884e208	-6.336352e-05
14	0xba7857fb	-0.00094735593
15	0xba3c1e05	-0.0007176104
16	0xb879019b	-5.936772e-05
17	0xba3c37ab	-0.0007179926
18	0xb8f2ca6b	-0.000115771625
19	0xb8259035	-3.947337e-05
20	0x3a7748ea	0.0009433167
21	0xba0f842f	-0.0005474714
22	0xb7507960	-1.2426026e-05
23	0x39d8d584	0.00041357812
24	0xb9e3e87f	-0.00043470037
25	0x3a011363	0.00049238483
26	0x3a00f1c8	0.0004918841
27	0xba0f3fe9	-0.00054645404
28	0xb8fdf215	-0.000121090714
29	0xba17d493	-0.0005791869
30	0xb867c1cc	-5.525518e-05
31	0xb9a34d5a	-0.00031147414
32	0xb98ec396	-0.00027230073
33	0x39b97a25	0.00035376954
34	0x39da2ac9	0.00041612078
35	0x39b978ad	0.0003537586
36	0xba0d433f	-0.00053887436
37	0xb9af5f32	-0.00033449527
38	0xb7c3a31b	-2.3321763e-05
39	0xb8ed8a84	-0.00011326841
40	0x39921880	0.00027865544
41	0xb93cad7f	-0.0001799371
42	0x392645d9	0.00015857014
43	0x3995e93d	0.0002859327
44	0xb97fa597	-0.00024380382
45	0x39b756aa	0.0003496905
46	0x380f9508	3.4232653e-05
47	0xb9f3ece8	-0.0004652508
48	0xb9c59e3b	-0.0003769266
49	0x3890cc8b	6.904554e-05
50	0x3a2b9292	0.0006544973
51	0xb9c1c0de	-0.00036955526
52	0x396e0037	0.00022697529
53	0x39b2f364	0.00034132146
54	0x37873488	1.6117716e-05
55	0xba2d218f	-0.0006604427
56	0x39b3b6cf	0.00034277744
57	0x3962b62f	0.00021620908
58	0xb9b8ac82	-0.00035223743
59	0xb8933df6	-7.021047e-05
60	0x398a77cc	0.00026410667
61	0xb90777ad	-0.00012919186
62	0x39a6b11b	0.0003179394
63	0xba83b207	-0.0010047563
64	0x377326b8	1.4492944e-05
65	0x3856b0e2	5.118631e-05
66	0xb8fa96ab	-0.00011948993
67	0x3696a9d1	4.4901176e-06
68	0x38824744	6.212157e-05
69	0xb6d80b36	-6.4386068e-06
70	0xb842e8ca	-4.6470006e-05
71	0xb7b95b21	-2.2096154e-05
72	0x38317121	4.2305448e-05
73	0x3936f9ea	0.00017449973
74	0x3924b0f0	0.00015706173
75	0x388bc430	6.664579e-05
76	0x37a341e5	1.9461799e-05
77	0x38e3c9f1	0.00010861818
78	0xb9171f01	-0.00014412032
79	0xb819fe31	-3.6714777e-05
80	0x393ee59f	0.00018205353
81	0x397adeed	0.00023924904
82	0xb8f9c45c	-0.0001190982
83	0xb65cae42	-3.2883986e-06
84	0x384d7fd4	4.8994858e-05
85	0xb81fc12e	-3.8088467e-05
86	0xb7c9a0d0	-2.4035951e-05
87	0xb8873d63	-6.448736e-05
88	0xb7dc8433	-2.6287604e-05
89	0xb91f91fd	-0.00015217807
90	0xb8b61a98	-8.68339e-05
91	0xb805f656	-3.193909e-05
92	0x3749afa2	1.2021426e-05
93	0xb92db1bf	-0.00016564781
94	0xb8553065	-5.082823e-05
95	0x37e77975	2.7593904e-05
96	0xb8f0eec4	-0.00011488565
97	0x390265d7	0.00012435704
98	0x38207068	3.825166e-05
99	0xb5adf6fc	-1.2961386e-06
100	0xb846cd70	-4.7398207e-05
101	0xb8e91038	-0.00011113327
102	0xb7854396	-1.5886308e-05
103	0xb799c285	-1.8329602e-05
104	0x38c5e5f5	9.436525e-05
105	0x3806ee8b	3.217025e-05
106	0xb8cd0e5b	-9.777836e-05
107	0xb816f060	-3.5986654e-05
108	0xb81bdef2	-3.7162514e-05
109	0x38536d7f	5.0408296e-05
110	0xb8012e70	-3.0799245e-05
111	0x386b7e54	5.614602e-05
112	0xb9c6c700	-0.0003791377
113	0xb8af820b	-8.368873e-05
114	0xb87f188f	-6.081961e-05
115	0x3894b5d7	7.09106e-05
116	0x3806cb1a	3.2137243e-05
117	0x387a0f53	5.9618917e-05
118	0x37db77ac	2.6162561e-05
119	0xb86a89cf	-5.591829e-05
120	0xb8efa4aa	-0.00011427079
121	0xb922864e	-0.00015499556
122	0x3910ca34	0.00013808237
123	0xb814f085	-3.550995e-05
124	0x3895d9a7	7.1454146e-05
125	0xb794c627	-1.7735247e-05
126	0x390bb7fb	0.00013324611
127	0xb9770ec2	-0.00023561253
128	0x380c2523	3.3413187e-05
129	0xb79905f9	-1.8241803e-05
130	0xb9852bc4	-0.00025400345
131	0x38b294e6	8.515436e-05
132	0x376c6388	1.408987e-05
133	0x3760f4ea	1.3408464e-05
134	0xb94db358	-0.00019617134
135	0xb922fe52	-0.00015544266
136	0x3808cdfe	3.2616772e-05
137	0xb8049335	-3.160835e-05
138	0x392f5089	0.00016719302
139	0xb92e544d	-0.00016625338
140	0x37ede61f	2.835976e-05
141	0x38b1a8be	8.4714484e-05
142	0x38f625f3	0.00011737263
143	0xb94b7ead	-0.00019406779
144	0xb824736e	-3.920815e-05
145	0x38faaf7f	0.00011953618
146	0xb8086657	-3.2520238e-05
147	0x38f2a696	0.00011570488
148	0xb8628396	-5.4005148e-05
149	0xb8ac4718	-8.2148414e-05
150	0xb79b66d9	-1.8525332e-05
151	0xb8ce4fe5	-9.837727e-05
152	0xb878d79b	-5.9328606e-05
153	0xb912280e	-0.00013938567
154	0xb8884385	-6.497562e-05
155	0x36568028	3.1963082e-06
156	0xb90f75d7	-0.00013681441
157	0xb9646975	-0.0002178306
158	0xb893cad7	-7.047288e-05
159	0xb8aa94b3	-8.133929e-05
160	0x3792a472	1.7481132e-05
161	0xb80b8950	-3.3268065e-05
162	0x3902a8a6	0.00012460593
163	0x38b44fc1	8.597924e-05
164	0x38dec813	0.00010623052
165	0x395352bd	0.0002015335
166	0xb8ba384d	-8.879658e-05
167	0xb925d434	-0.00015814678
168	0xb625b833	-2.4694134e-06
169	0xb894fcd2	-7.1042814e-05
170	0xb80b208b	-3.317049e-05
171	0xb97775c4	-0.00023599627
172	0xb89cdfe2	-7.480361e-05
173	0x38347867	4.3027478e-05
174	0xb8f09d50	-0.000114733935
175	0xb7dad2c9	-2.608578e-05
176	0xba16fbce	-0.0005759568
177	0x389fd71c	7.621778e-05
178	0xb91f55a1	-0.00015195321
179	0xb851071b	-4.98361e-05
180	0x38e1a016	0.000107586544
181	0x39068b36	0.00012831096
182	0x38d95a4b	0.00010364185
183	0xb90934c6	-0.00013084998
184	0xb8b5814d	-8.654837e-05
185	0xb951e532	-0.00020017175
186	0x3936b529	0.0001742436
187	0xb7b149da	-2.1134434e-05
188	0x38cf8162	9.8946286e-05
189	0xb7b28059	-2.127902e-05
190	0xb86d39c1	-5.655899e-05
191	0xb97802ee	-0.00023652214
192	0x387411e1	5.8190784e-05
193	0xb98eb146	-0.0002721643
194	0x390ad8e3	0.00013241502
195	0x38a2644d	7.7434444e-05
196	0xb87d508c	-6.0394916e-05
197	0xb9203277	-0.00015277589
198	0x383b8613	4.470914e-05
199	0x390f5685	0.00013669774
200	0xb8a72b24	-7.971216e-05
201	0x38c8d8db	9.577136e-05
202	0x398a80a1	0.00026417247
203	0x398298a5	0.0002490926
204	0x37e167fc	2.6870512e-05
205	0x3823822c	3.898346e-05
206	0x399cc44d	0.00029900894
207	0x39a5ed6c	0.00031648146
208	0xb90c9bfd	-0.0001340955
209	0x39e02d41	0.00042758326
210	0xb8735126	-5.801129e-05
211	0xb8c5f55f	-9.439396e-05
212	0xb943c4ba	-0.00018669936
213	0x394526d5	0.0001880185
214	0xb625e8c2	-2.4722399e-06
215	0xb6c01c25	-5.7253224e-06
216	0x38e6a32a	0.00010997646
217	0xb998c90a	-0.00029141485
218	0xb873423c	-5.79974e-05
219	0x39cbdd67	0.00038884135
220	0x398b38c2	0.00026554434
221	0x38b7923e	8.75336e-05
222	0xb7fe985c	-3.0350107e-05
223	0x38f0d28c	0.00011483309
224	0xb92f977c	-0.00016745733
225	0xb8b2ce68	-8.5261476e-05
226	0xb8914085	-6.9261565e-05
227	0xb9538bad	-0.00020174561
228	0x393f7e6d	0.00018262277
229	0x394c46c2	0.00019481315
230	0x39059928	0.00012740924
231	0x392273fe	0.00015492734
232	0xb8b83b22	-8.784818e-05
233	0x3904536f	0.00012619582
234	0xb8a52a61	-7.875707e-05
235	0x39c255ee	0.00037066586
236	0x38af2dc2	8.353173e-05
237	0xb94c8d16	-0.00019507515
238	0x37a2f664	1.942664e-05
239	0x3940e0a3	0.0001839423
240	0x399fe9c8	0.00030501024
241	0x38fe1265	0.0001211509
242	0xb8d481be	-0.00010133114
243	0x390a88c7	0.00013211659
244	0xb92179a0	-0.00015399465
245	0xb93371d9	-0.00017113182
246	0xb905602f	-0.000127197
247	0x39967948	0.0002870059
248	0x38b84e72	8.788415e-05
249	0xb9c4c893	-0.00037533473
250	0x395026da	0.00019850899
251	0x380c5126	3.3454176e-05
252	0xb883652d	-6.265412e-05
253	0x36b45a71	5.374947e-06
254	0xb8305b4c	-4.2046697e-05
255	0x3927ea2f	0.00016013601

lstm_layers.1.bias_ih_l0 f4 [256]
0	0x3a9b651f	0.0011855698
1	0x3997898a	0.0002890344
2	0x39610dda	0.00021462832
3	0x3a9de9b9	0.0012047804
4	0x3a00c1a8	0.00049116695
5	0x3a01792f	0.0004939017
6	0x3a0a6a1c	0.0005280094
7	0x38c59c67	9.422824e-05
8	0x3933da05	0.00017151989
9	0x3a45c238	0.00075438945
10	0x38e57b48	0.00010942534
11	0x3a070f9b	0.00051521667
12	0x395b0b45	0.00020889666
13	0x3a0f575a	0.00054680335
14	0x3b4cd391	0.0031254033
15	0x3908ea0f	0.00013057164
16	0x3990cdd0	0.00027619163
17	0x39e16ea9	0.00042997792
18	0x39c0a7f9	0.00036746243
19	0x38bfbf78	9.1432536e-05
20	0x3aecdde1	0.0018071496
21	0x39ce243c	0.0003931838
22	0x39e5bc60	0.00043818634
23	0x3a3c0ab6	0.0007173227
24	0x3a2db7f8	0.000662684
25	0x3a3c31e3	0.00071790646
26	0x39c4d3c5	0.00037541814
27	0x3b6a16c2	0.003571913
28	0x3a4ca414	0.0007806432
29	0x3a134c43	0.0005618969
30	0xb8a8a70e	-8.0419806e-05
31	0x394a891e	0.00019315301
32	0xb995c220	-0.0002856413
33	0x3a123ca2	0.0005578493
34	0x39a5feef	0.00031661193
35	0x3a257e61	0.00063130824
36	0x3a43d02c	0.00074696797
37	0x399922ae	0.00029208272
38	0x3a1e3a5a	0.0006035917
39	0x399301bb	0.00028039314
40	0x3a2a31b4	0.00064923917
41	0x39bae3d6	0.00035646436
42	0x3a3dd159	0.0007240973
43	0x3b87b6ae	0.00414165
44	0x39a168e0	0.0003078645
45	0x39cb3d84	0.0003876501
46	0x3a4d468b	0.0007830641
47	0xb7c4132e	-2.3373952e-05
48	0x3b8f80ab	0.004379352
49	0x384e2c98	4.915576e-05
50	0x3b6fd987	0.0036598162
51	0x3a57e59d	0.0008235814
52	0x3a072abe	0.00051562104
53	0x3a0b697e	0.0005318149
54	0x39c3ac02	0.00037321454
55	0x3a18cc1e	0.00058287557
56	0x3804637a	3.1563897e-05
57	0x3a3e4752	0.00072585524
58	0x39d977cb	0.00041478718
59	0xba0cc82d	-0.00053704047
60	0x3a0cd026	0.00053715927
61	0xb8071683	-3.2207474e-05
62	0x39b714b5	0.00034919908
63	0x3af44d13	0.0018638693
64	0xbbf543ee	-0.0074849045
65	0x3a54466c	0.0008097652
66	0xbb563bb0	-0.0032689385
67	0x3c9fe35d	0.019517595
68	0x3a1ed241	0.0006058552
69	0xbb30c02a	-0.0026970007
70	0x3b3635f8	0.0027803164
71	0x3cc5df23	0.024154251
72	0xba74a31c	-0.00093321665
73	0x394a3cbd	0.00019286848
74	0x3e072e84	0.13201338
75	0xb98816d4	-0.0002595695
76	0xba8bb616	-0.0010659124
77	0x3a85d158	0.0010209484
78	0x39a5eab1	0.0003164611
79	0x3ad13f7c	0.0015964354
80	0x3a3168b8	0.00067676185
81	0x3a6e81bd	0.0009098312
82	0x3a3895e4	0.00070413784
83	0xb8c161ab	-9.221149e-05
84	0xbcfc239e	-0.030778702
85	0x3b28bf37	0.0025748739
86	0xbbd4b4d0	-0.006491281
87	0x3b046669	0.0020202643
88	0xbb6b7eef	-0.0035933813
89	0xbbfa315e	-0.0076352796
90	0xbad10626	-0.0015947267
91	0x3cc0755c	0.023493461
92	0xba9e09ae	-0.0012057328
93	0x3b8682d9	0.0041049537
94	0x3a3e1f56	0.0007252594
95	0xba620479	-0.00086218823
96	0x3aaff291	0.0013423731
97	0xbb01102e	-0.0019693482
98	0xba9a9191	-0.001179265
99	0xbb0d7f35	-0.0021590714
100	0xbb496804	-0.0030732164
101	0x3c75ebe0	0.01500985
102	0x3bfd0869	0.00772195
103	0x3c57879e	0.013154892
104	0x3b71fd64	0.0036924714
105	0x3abaaa76	0.0014241475
106	0x3a4461d4	0.0007491384
107	0x3dd7d631	0.10538901
108	0x3bd6202e	0.006534598
109	0x3b38df6c	0.0028209342
110	0x3a692088	0.0008893092
111	0xbad3a9ff	-0.0016148685
112	0x3ef84b39	0.4849489
113	0x3aafb35b	0.0013404893
114	0xbd48aa8b	-0.048990767
115	0xbb1799da	-0.0023132474
116	0x39a62a67	0.0003169358
117	0xbabb5ab4	-0.0014293999
118	0x39a39eba	0.00031208043
119	0x3aa32206	0.0012446053
120	0xbba7ac73	-0.005116993
121	0xbb67de49	-0.0035380295
122	0xbb17bbd0	-0.0023152716
123	0x3b2c6fcd	0.0026311756
124	0x3aa2cd2f	0.0012420769
125	0xba7c02e9	-0.0009613471
126	0xb8fd9705	-0.0001209211
127	0x3bdd1774	0.0067471806
128	0x3c50ce96	0.012744566
129	0xbc27645f	-0.010216801
130	0x3b3f8bba	0.002922757
131	0xbd29079e	-0.04126703
132	0x3b38f758	0.00282236
133	0xb9f7d5c1	-0.0004727077
134	0x3ce378d6	0.02776758
135	0x3d0a7474	0.033802465
136	0x3b7b6c64	0.0038364166
137	0xbb152b35	-0.002276135
138	0xbbd582fa	-0.0065158578
139	0xbc467c17	-0.012114546
140	0xbc167fb9	-0.009185725
141	0x3c0c28eb	0.0085546775
142	0xbb8754be	-0.004129975
143	0xbcc19de2	-0.023634855
144	0xbca0b217	-0.01961617
145	0x3c205599	0.009786033
146	0x3c9c188b	0.019054672
147	0x3ca13ce9	0.019682365
148	0x3c50ef3a	0.012752349
149	0x3ca3f266	0.020013046
150	0x3be8fe8a	0.0071104215
151	0xbaf314ad	-0.001854559
152	0x3b12b034	0.0022382857
153	0x3d9d21a7	0.07672434
154	0x3d217420	0.039417386
155	0x3d23f2bc	0.04002641
156	0xbcb8307d	-0.022484059
157	0x3bc56516	0.0060240133
158	0x3d162656	0.036657654
159	0x3bc9b501	0.0061556106
160	0x3d2867f4	0.041114762
161	0xbc771591	-0.015080825
162	0x3ae2448a	0.0017262858
163	0xbc17cba3	-0.009264859
164	0xbc1196c6	-0.008886045
165	0x3d360440	0.044437647
166	0x3d1c14ba	0.038105704
167	0x3ccc48e9	0.02493711
168	0x3c2accb5	0.0104247825
169	0xbb3d3b78	-0.0028874557
170	0xbb95e533	-0.004574442
171	0x3c6af72f	0.01434116
172	0x3c80af62	0.015708629
173	0x3be91dd3	0.007114151
174	0x3c540bc2	0.012942256
175	0xbc9a1075	-0.018806675
176	0x3c49721b	0.012295271
177	0x3b8ce6de	0.0042999825
178	0x3d94f7d7	0.07273834
179	0xbc064aaf	-0.008196517
180	0x3a8963d2	0.0010482019
181	0xba4064c0	-0.00073392317
182	0xbba89f7e	-0.005145966
183	0x3c515251	0.012775973
184	0xbc131ac1	-0.008978547
185	0x3c9379a9	0.018002348
186	0x3c3f337b	0.011669989
187	0x3c8967fd	0.016773218
188	0xbb0ff128	-0.0021963809
189	0xba5cf88a	-0.0008429369
190	0xbc33c16a	-0.0109714065
191	0x3c392323	0.011299881
192	0x3a2d326c	0.000660694
193	0x3999d6ec	0.00029342563
194	0x391eb0b8	0.00015133887
195	0x3a990565	0.0011674581
196	0x3a018e4b	0.0004942163
197	0x39de41ff	0.0004239231
198	0x39fbf994	0.000480604
199	0xb894b3eb	-7.090702e-05
200	0x3929f652	0.00016208857
201	0x3a2fd2fe	0.00067071605
202	0x39099365	0.00013120247
203	0x3a050a14	0.0005075049
204	0x396076e6	0.00021406598
205	0x3a0f702a	0.0005471731
206	0x3b4f3cc5	0.0031621915
207	0x38202b0c	3.8187063e-05
208	0x39900807	0.000274718
209	0x39c29c4d	0.00037119017
210	0x39855c00	0.00025436282
211	0x38ba1d93	8.87468e-05
212	0x3af6fe1c	0.0018844041
213	0x39d30bf5	0.00040253965
214	0x39a07417	0.00030604072
215	0x3a37f32c	0.00070171314
216	0x3a2e32cd	0.0006645143
217	0xbb593ca2	-0.0033147712
218	0xbac10525	-0.0014726265
219	0x3b7ba144	0.0038395682
220	0x3a3e773b	0.00072656915
221	0x3a15f365	0.00057201675
222	0xb94f9c18	-0.00019799208
223	0x39500ef1	0.00019841992
224	0xba80b0c7	-0.0009818309
225	0x3a10e662	0.0005527494
226	0x39ddbf12	0.00042294763
227	0x3a235e42	0.0006232002
228	0x3a43e624	0.00074729533
229	0xba55c819	-0.0008155122
230	0x3a2198e2	0.0006164444
231	0x398b9ed6	0.00026630488
232	0x3a244e56	0.00062677765
233	0x39ba868b	0.00035576927
234	0x3a3e9087	0.0007269461
235	0x3b27fa4e	0.002563137
236	0x399b86c5	0.00029664315
237	0x39cb2c33	0.00038752108
238	0x3a4c1c88	0.0007786234
239	0xb7f5b5c3	-2.9290915e-05
240	0x3b14f4e6	0.0022728979
241	0x394a7192	0.0001930653
242	0xbc00cd5d	-0.007861462
243	0x3a5243c7	0.0008020964
244	0x3a06f880	0.0005148724
245	0x3a07e9a8	0.0005184659
246	0x39c30b5f	0.0003720177
247	0x3a011628	0.0004924261
248	0x380b2278	3.3172284e-05
249	0x39c191a3	0.00036920336
250	0x39f62cbb	0.00046954103
251	0xba177ee2	-0.00057791
252	0x3a0d32fe	0.00053863216
253	0xb81717d1	-3.6023386e-05
254	0x39aa68f0	0.0003250311
255	0x3b0db200	0.002162099
