transformers/results/pimentel_mlp/month_09_September/pimentel_mlp_model_20251203_081021.pt (torch, 432266 bytes, 43 tensors)

_network.0.weight f4 [128, 5]
0.35923693 0.3442121 -0.096446544 0.43304914 -0.07565776 0.16936322 -0.24063623 0.26947033
0.3627524 -0.2999629 0.49269256 0.09985423 0.25979647 0.083406806 0.20874543 -0.06280831
0.3357442 0.029166827 -0.22794999 0.12806676 -0.24008675 -0.040321182 -0.11964817 0.29565278
-0.3573128 -0.21970692 -0.14888038 -0.26014268 0.022008628 -0.44389433 0.4221304 -0.36937967
0.35028684 0.01615193 -0.1665589 0.28691068 0.07253991 0.35959154 0.06813627 -0.14492352
0.21805522 -0.096376926 0.14668895 0.39506516 0.25298026 -0.16820842 0.25114053 0.09944973
0.23687868 -0.31916988 -0.5144455 -0.2014536 -0.26355052 0.29656902 0.15037665 0.18282634
0.11108698 -0.011071821 0.39011022 -0.32791686 0.060881708 -0.29974222 0.12174932 -0.17980206
0.13790338 -0.0073241577 0.34906933 -0.28679547 -0.25631768 -0.3177246 0.3749875 0.09338832
0.4736042 -0.3803924 -0.45736724 -0.38079268 -0.2683364 0.22095588 0.12336986 0.3624218
-0.23512201 -0.30947277 0.26464918 -0.15131246 0.26708576 -0.09774543 0.26243982 -0.42841175
-0.19421498 0.14909296 0.15927778 -0.12093871 0.29098055 0.30944422 -0.26233765 -0.20604357
0.4107809 -0.16957921 -0.15434973 -0.4518146 -0.30380097 0.07388378 -0.08122907 -0.30391493
0.02705018 -0.43353274 -0.29944542 -0.14823054 -0.33996454 -0.3084139 0.53215843 0.071483545
0.048493277 -0.39418286 -0.3024467 -0.15566601 0.057516143 -0.4341163 -0.17765944 -0.2442371
0.024576452 -0.14191474 -0.07318665 -0.28977996 -0.32441854 -0.2386751 -0.1552909 -0.40910205
0.37256563 -0.0930057 0.445717 0.09660301 -0.3601394 0.30584008 -0.07564507 -0.15665805
-0.3540065 -0.5142084 0.1354382 -0.10022657 0.20655751 -0.38425273 0.31395632 -0.3350092
-0.05402246 0.14111735 0.14961912 0.38015836 0.45370686 -0.24009128 0.12191966 -0.1790923
-0.025922129 -0.3870226 0.3852628 -0.36559975 0.23172344 0.14701506 0.102322154 -0.21094835
0.5495142 0.13697395 0.0033147677 -0.25854626 0.1446489 -0.014225586 -0.206866 0.335354
0.13121858 -0.2731726 -0.1790588 -0.024022726 0.23774543 -0.10956383 -0.28397596 -0.110987335
-0.33219388 0.16226238 0.36779553 -0.42713955 0.1505886 0.18340744 0.09195624 -0.17825027
0.23669244 0.3000081 0.15881036 -0.107590735 -0.09786291 0.051177897 -0.026196867 -0.1289572
0.27948356 0.41347238 -0.030317867 -0.16504654 0.031143663 -0.008853763 0.04940658 0.12123719
-0.4138897 -0.18284921 0.36859372 0.18520953 -0.017002393 -0.24579342 -0.31443018 -0.5087617
-0.071891144 0.09327929 0.29979917 0.2182223 -0.38501638 -0.2546652 -0.068630986 0.51634806
0.015847536 -0.113846585 0.15250765 -0.07038653 -0.34492475 0.28421882 -0.18545906 -0.111982845
-0.41659632 0.37780485 0.30790174 0.16391513 -0.34133583 -0.36868972 -0.38459343 0.34466583
0.19916537 0.37693116 0.20935072 0.124399774 0.0028356616 -0.463158 -0.3522868 -0.4245022
0.31678885 -0.19540127 -0.11890683 -0.18981104 -0.06365389 -0.27549818 -0.33531243 0.09927951
-0.14448105 0.32327825 -0.16011949 -0.34821376 -0.063130885 -0.21501802 -0.1120377 -0.46140754
00000000: e7ed b73e 923c b03e c485 c5bd 9eb8 dd3e
00000010: 75f2 9abd 8d6d 2d3e 5869 76be 04f8 893e
00000020: afba b93e bd94 99be 3342 fc3e 6080 cc3d
00000030: 0b04 853e 30d1 aa3d 5dc1 553e a5a1 80bd
00000040: aae6 ab3e 45ef ee3c b96b 69be ef23 033e
00000050: 4dd9 75be d327 25bd 1a0a f5bd cd5f 973e
00000060: b4f1 b6be dafa 60be 1974 18be 6c31 85be
00000070: 704b b43c 1e46 e3be 7a21 d83e 551f bdbe
00000080: cc58 b33e 0d51 843c 6b8e 2abe f5e5 923e
00000090: ce8f 943d 621c b83e 078b 8b3d d566 14be
000000a0: de49 5f3e 4461 c5bd a135 163e fb45 ca3e
000000b0: a186 813e d43e 2cbe 7e95 803e 4dac cb3d
000000c0: 5390 723e 3c6a a3be b3b2 03bf da49 4ebe
000000d0: 18f0 86be e5d7 973e 56fc 193e d436 3b3e
000000e0: 9281 e33d 9566 35bc 87bc c73e b8e4 a7be
000000f0: 195f 793d d077 99be b557 f93d 081e 38be
00000100: 8b36 0d3e 7dff efbb 37b9 b23e dbd6 92be
00000110: 123c 83be ccac a2be 5dfe bf3e 6042 bf3d
00000120: 407c f23e cbc2 c2be 0a2c eabe 42f7 c2be
00000130: 6363 89be 4242 623e 56a9 fc3d 5a8f b93e
00000140: d3c3 70be 3773 9ebe 1980 873e a7f1 1abe
00000150: 77bf 883e c22e c8bd 835e 863e c958 dbbe
00000160: 4be0 46be d3ab 183e b719 233e b7ae f7bd
00000170: 67fb 943e 796f 9e3e 1f51 86be 16fd 52be
00000180: e051 d23e 2ca6 2dbe db0d 1ebe 3e54 e7be
00000190: cd8b 9bbe 6150 973d 6d5b a6bd bd9a 9bbe
000001a0: 5798 dd3c 01f8 ddbe e950 99be bfc9 17be
000001b0: d50f aebe 6de8 9dbe 893b 083f f765 923d
000001c0: e3a0 463d 56d2 c9be 4bda 9abe e966 1fbe
000001d0: 0c96 6b3d 7e44 debe 5bec 35be 4a19 7abe
000001e0: 8e54 c93c 1952 11be e2e2 95bd 0a5e 94be
000001f0: 301a a6be 3f67 74be 9404 1fbe d375 d1be
00000200: ecc0 be3e c679 bebd 0535 e43e cdd7 c53d
00000210: 3164 b8be 1297 9c3e cdeb 9abd f86a 20be
00000220: 5740 b5be 29a3 03bf 50b0 0a3e 9743 cdbd
00000230: d083 533e c6bc c4be e2be a03e 5386 abbe
00000240: a846 5dbd 1181 103e c135 193e 1ea4 c23e
00000250: 444c e83e 7dda 75be 04b1 f93d f963 37be
00000260: a55a d4bc d427 c6be 2a41 c53e e42f bbbe
00000270: e948 6d3e 1e8b 163e 478e d13d d802 58be
00000280: f6ac 0c3f e642 0c3e 933c 593b 2d60 84be
00000290: d71e 143e 6f12 69bc aed4 53be 85b3 ab3e
000002a0: 2a5e 063e 47dd 8bbe 315b 37be 4fcb c4bc
000002b0: 8a73 733e 0063 e0bd 4c65 91be 544d e3bd
000002c0: 5115 aabe 1c28 263e b24f bc3e 09b2 dabe
000002d0: e633 1a3e 29cf 3b3e 8e53 bc3d 3d87 36be
000002e0: 815f 723e a99a 993e 2f9f 223e 8858 dcbd
000002f0: 596c c8bd ea9f 513d d09a d6bc 5b0d 04be
00000300: 7818 8f3e a7b2 d33e 2d5d f8bc f601 29be
00000310: ff20 ff3c 600f 11bc 8e5e 4a3d 344b f83d
00000320: 5ae9 d3be d33c 3bbe 51b8 bc3e 91a7 3d3e
00000330: 9a48 8bbc 45b1 7bbe fefc a0be 353e 02bf
00000340: aa3b 93bd 3609 bf3d 477f 993e ab75 5f3e
00000350: de20 c5be 7a63 82be 678e 8cbd 632f 043f
00000360: b1d2 813c 6628 e9bd f72a 1c3e d026 90bd
00000370: fa99 b0be 2185 913e fbe8 3dbe 4357 e5bd
00000380: 1d4c d5be a36f c13e 4ca5 9d3e 5ed9 273e
00000390: 92c3 aebe e6c4 bcbe 6ee9 c4be 0a78 b03e
000003a0: 02f2 4b3e 1ffd c03e 0960 563e 4fc5 fe3d
000003b0: 82d6 393b 0c23 edbe ef5e b4be 5a58 d9be
000003c0: 2632 a23e 4517 48be 6d85 f3bd d35d 42be
000003d0: f85c 82bd 190e 8dbe 12ae abbe 0e53 cb3d
000003e0: d7f2 13be ba84 a53e 5df6 23be 1349 b2be
000003f0: c44a 81bd af2d 5cbe 0674 e5bd 9c3d ecbe

_network.0.bias f4 [128]
0.09074229 -0.41908258 0.38825256 0.27887198 -0.43879443 -0.2136594 0.14552703 -0.090586364
-0.048480496 -0.2017453 0.36074573 -0.25042117 0.37074238 0.029098723 0.09007903 0.34859103
-0.07376815 -0.25514147 -0.07224881 0.36268136 -0.34549043 0.09887148 -0.44306955 0.2346863
0.16432615 0.01985718 0.19199695 0.001037477 0.24740875 -0.35373226 -0.0657025 0.1975098
0.44855827 0.22807573 -0.32390574 0.34388497 -0.10010249 -0.0925479 -0.40788406 -0.060931172
0.31637487 0.062076136 -0.26080802 0.1378897 -0.14255057 0.40879434 -0.38752624 -0.13985631
-0.4357795 -0.1758251 0.14114223 0.42888722 0.075412475 0.43812868 0.087474175 0.25791714
0.35783574 0.3746929 -0.2500436 0.40966314 0.27121973 -0.21279742 -0.21207178 -0.37494865
0.11223499 -0.3618586 0.1890616 0.1471532 -0.38753006 0.12328851 -0.036424205 0.20436151
0.2565543 -0.44365177 0.40980202 0.37480298 0.17799643 -0.41091076 -0.16007142 -0.12407828
-0.11508416 0.252155 0.16307804 0.35349005 -0.1679237 0.15099932 0.15957843 -0.37387568
-0.4335176 -0.2321744 0.30579966 -0.4205797 -0.38886765 0.25041372 0.24111333 0.3675628
-0.33745995 -0.32729843 0.22840631 0.38828808 0.26824266 0.069144055 0.14757696 0.42350647
-0.2881709 -0.1950682 0.31379625 -0.3055922 -0.24601197 0.32699567 0.14136702 0.14324695
-0.18979946 -0.0060741673 0.40942025 -0.26216394 0.0032606032 0.2122131 -0.3090772 0.43378785
-0.22433415 -0.10732559 -0.12035547 -0.29118443 -0.43607557 0.25231162 0.11917397 -0.41833416
00000000: 18d7 b93d fe91 d6be 0ac9 c63e 4fc8 8e3e
00000010: aaa9 e0be 88c9 5abe 0a05 153e 5885 b9bd
00000020: 7c93 46bd 5296 4ebe aab3 b83e 3437 80be
00000030: f2d1 bd3e 7260 ee3c 5b7b b83d 867a b23e
00000040: c113 97bd e7a1 82be 2ff7 93bd 5fb1 b93e
00000050: 1fe4 b0be 217d ca3d 03da e2be 9b51 703e
00000060: 1d45 283e 86ab a23c d99a 443e f4fb 873a
00000070: b858 7d3e 651c b5be 088f 86bd 0240 4a3e
00000080: 6ea9 e53e af8c 693e f9d6 a5be b111 b03e
00000090: 8902 cdbd c189 bdbd 2ed6 d0be f792 79bd
000000a0: e3fb a13e 8c43 7e3d a188 85be f532 0d3e
000000b0: c7f8 11be 7e4d d13e d769 c6be 7e36 0fbe
000000c0: 7e1e dfbe 7f0b 34be 9787 103e 1b97 db3e
000000d0: db71 9a3d 6752 e03e a925 b33d b70d 843e
000000e0: 3f36 b73e bfd7 bf3e b705 80be 5ebf d13e
000000f0: 50dd 8a3e 91e7 59be 5829 59be 45f9 bfbe
00000100: 75db e53d 8845 b9be 5d99 413e 54af 163e
00000110: 576a c6be b07e fc3d 8c31 15bd 2544 513e
00000120: 165b 833e 5326 e3be 92d1 d13e 2de6 bf3e
00000130: b244 363e e562 d2be c3e9 23be c11c febd
00000140: 3eb1 ebbd 761a 813e eefd 263e a6fc b43e
00000150: 31f4 2bbe 919f 1a3e 8768 233e a26c bfbe
00000160: 05f6 ddbe 20bf 6dbe c691 9c3e 3956 d7be
00000170: a919 c7be 3a36 803e 6ae6 763e 3131 bc3e
00000180: 8dc7 acbe a993 a7be 58e3 693e b2cd c63e
00000190: 1a57 893e 669b 8d3d 6a1e 173e d7d5 d83e
000001a0: 238b 93be f5bf 47be e7a9 a03e 9576 9cbe
000001b0: 90ea 7bbe fa6b a73e 84c2 103e 54af 123e
000001c0: ca5a 42be cf09 c7bb 889f d13e 5a3a 86be
000001d0: d8af 553b 644e 593e 5e3f 9ebe 7119 de3e
000001e0: dab7 65be 85cd dbbd ee7c f6bd 2016 95be
000001f0: 4c45 dfbe fd2e 813e 7b11 f43d e52f d6be

_network.1.weight f4 [128]
0.9716534 0.98003596 1.0614958 0.9305419 0.98919344 0.9739827 1.037729 0.9851025
1.0064743 0.9602468 1.0003452 0.9644586 0.91409624 0.93710583 0.97560376 0.9709635
0.9415535 0.97545195 0.9361021 0.9342374 1.0861678 1.0414896 1.0203052 0.9552755
0.9687704 0.9570151 1.0148813 0.9584193 0.96872056 0.95635796 0.9656768 0.9915672
1.0203116 0.9283149 0.94267535 0.9434301 0.99443746 1.0798701 0.9607162 1.0356071
1.0038592 0.95444435 0.99380314 1.0656706 0.9731155 0.9697886 1.0089788 0.94043225
1.0021586 0.9267469 0.8878203 1.0044465 0.9925507 1.0826088 0.98178345 0.93888223
0.9527045 0.95220613 0.97039074 1.0029384 0.9685706 1.0765026 1.050351 0.94315034
1.0020735 0.9875185 1.0308282 1.0273572 0.9696338 0.9726943 0.9253061 0.97092295
0.94674146 0.94069815 0.9841226 0.89454645 0.99721944 1.0941882 0.96875286 1.0146148
0.9766276 0.97575194 0.96608835 0.94547313 0.97504306 1.1299078 0.96433985 1.018939
0.95812875 0.84642696 0.93354344 0.92894125 0.95039237 0.8833205 0.9624874 1.006427
1.0651222 0.9979651 0.97085845 0.95644194 0.95471925 1.0242269 0.9479182 0.9788852
0.9539336 1.0506 0.98456854 0.97105485 0.98384094 0.97628427 0.9265301 1.0500207
0.9796854 0.89750564 0.92370737 0.95273393 1.0082045 0.97624016 0.9632972 0.9787603
0.995144 0.94799995 1.0563211 0.944369 0.9706948 0.973853 1.0021852 0.9402136
00000000: 47be 783f a3e3 7a3f 18df 873f fe37 6e3f
00000010: c83b 7d3f ee56 793f 4ed4 843f ad2f 7c3f
00000020: 26d4 803f bcd2 753f 500b 803f c2e6 763f
00000030: 3602 6a3f 2be6 6f3f 2bc1 793f 1091 783f
00000040: a609 713f 38b7 793f 63a4 6f3f 2f2a 6f3f
00000050: 8c07 8b3f 884f 853f 5c99 823f ef8c 743f
00000060: 5601 783f f1fe 743f a1e7 813f f85a 753f
00000070: 12fe 773f e0d3 743f 9836 773f 59d7 7d3f
00000080: 9299 823f 0ca6 6d3f 2c53 713f a384 713f
00000090: 7493 7e3f 2f39 8a3f 7ff1 753f c68e 843f
000000a0: 757e 803f 7756 743f e269 7e3f e567 883f
000000b0: 191e 793f 1144 783f 3826 813f 2bc0 703f
000000c0: bc46 803f 493f 6d3f 3148 633f b491 803f
000000d0: cd17 7e3f ed92 8a3f 2956 7b3f 965a 703f
000000e0: 71e4 733f c8c3 733f 876b 783f 4960 803f
000000f0: 3ef4 773f d6ca 893f e771 863f 4d72 713f
00000100: f243 803f 03ce 7c3f 2ef2 833f 7180 833f
00000110: ec39 783f 7e02 793f dce0 6c3f 688e 783f
00000120: a65d 723f 98d1 703f 75ef 7b3f ff00 653f
00000130: c649 7f3f 5c0e 8c3f 3000 783f e6de 813f
00000140: 4404 7a3f e1ca 793f 9151 773f 870a 723f
00000150: 6c9c 793f d2a0 903f fade 763f 986c 823f
00000160: ed47 753f 70af 583f b4fc 6e3f 18cf 6d3f
00000170: ea4c 733f 4b21 623f 9365 763f 9ad2 803f
00000180: ed55 883f a47a 7f3f 2e8a 783f 61d9 743f
00000190: 7b68 743f de19 833f c4aa 723f 3898 7a3f
000001a0: fe34 743f 107a 863f af0c 7c3f 0d97 783f
000001b0: 00dd 7b3f c4ed 793f 1431 6d3f 1467 863f
000001c0: aacc 7a3f eec2 653f 1678 6c3f 5fe6 733f
000001d0: d80c 813f e0ea 793f a59a 763f 0990 7a3f
000001e0: c2c1 7e3f 20b0 723f 8835 873f 2bc2 713f
000001f0: 747f 783f 6e4e 793f 9b47 803f d7b1 703f

_network.1.bias f4 [128]
-0.022857301 -0.05600848 0.074684106 -0.0424239 -0.036788184 -0.04437848 0.0114273615 0.025877984
-0.019288722 -0.025115503 -0.043880537 -0.009655582 -0.061263386 -0.04410277 0.0013240675 -0.0309987
-0.07477452 -0.09648605 -0.06719952 -0.05830215 -0.09172045 0.011074028 0.048424136 -0.05676707
-0.021270907 -0.030030763 0.015959816 0.03063126 -0.022684887 -0.018598124 -0.0055120448 -0.030527681
0.023855567 0.008493258 -0.0021041676 -0.07444263 0.021926304 0.10098984 -0.079055026 -0.031141452
-0.08792462 0.010554501 0.014815323 0.10547077 -0.00687128 -0.036725894 -0.028882952 -0.06265472
-0.0016699925 -0.06458049 -0.0049605495 -0.0586255 0.066253096 0.11176593 -0.05128235 -0.026471796
-0.052324 -0.04796399 -0.043390058 -0.037399914 -0.040599756 0.07655964 0.078451835 0.024164407
-0.02358274 -0.04875539 0.012994362 -0.021001821 -0.03617894 -0.0044639 -0.056459583 -0.067584515
-0.018397518 -0.043011934 0.023628183 -0.08956373 0.015210065 0.14391083 -0.02755061 -0.030232003
-0.016153546 -0.08047305 -0.049207363 -0.047737565 -0.022836238 -0.026135955 -0.026883101 0.025082313
-0.03011274 -0.10136756 -0.05499543 -0.04475426 -0.0036790294 -0.10466756 -0.04068288 0.031026596
0.077535376 -0.07195158 0.028029222 -0.037727766 -0.054460958 0.018046293 -0.07518556 0.0059713544
-0.016750399 -0.06876436 -0.022961913 -0.0007526865 -0.0011418737 -0.0403265 -0.0881571 -0.006965026
-0.03487209 -0.036407948 -0.038645815 -0.010011538 0.018177751 0.01902245 -0.023793751 -0.017499078
-0.09137923 -0.016014816 0.045615043 -0.016892793 -0.07524791 0.00038930314 -0.0035444403 -0.052396093
00000000: 3c3f bbbc 2669 65bd fbf3 983d afc4 2dbd
00000010: 35af 16bd 36c6 35bd d439 3b3c 11fe d33c
00000020: 6203 9ebc 07bf cdbc 14bc 33bd 7232 1ebc
00000030: 51ef 7abd 1ba5 34bd 558c ad3a fcf0 fdbc
00000040: 6223 99bd 7a9a c5bd e79f 89bd 3cce 6ebd
00000050: eed7 bbbd d76f 353c 6358 463d 9684 68bd
00000060: 5340 aebc 1303 f6bc 29be 823c 68ee fa3c
00000070: a8d5 b9bc 185b 98bc 629e b4bb 3015 fabc
00000080: c06c c33c 4e27 0b3c 13e6 09bb 6175 98bd
00000090: cb9e b33c c3d3 ce3d 9ae7 a1bd 5c1c ffbc
000000a0: d311 b4bd c9ec 2c3c f8bb 723c 0f01 d83d
000000b0: 7928 e1bb e46d 16bd f19b ecbc 1e51 80bd
000000c0: a6e3 daba c742 84bd 1b8c a2bb 4b21 70bd
000000d0: b4af 873d 89e5 e43d 710d 52bd 61db d8bc
000000e0: b151 56bd e475 44bd c6b9 31bd a730 19bd
000000f0: ee4b 26bd 4dcb 9c3d 5bab a03d 6ff4 c53c
00000100: 9730 c1bc bbb3 47bd 4ee6 543c 030c acbc
00000110: 5e30 14bd e845 92bb 2a42 67bd c069 8abd
00000120: 64b6 96bc 482d 30bd e48f c13c 306d b7bd
00000130: a333 793c 5c5d 133e d1b1 e1bc 1ba9 f7bc
00000140: 7154 84bc 0ecf a4bd a98d 49bd 7788 43bd
00000150: 1013 bbbc 121b d6bc f339 dcbc 6c79 cd3c
00000160: feae f6bc cc99 cfbd e342 61bd 3e50 37bd
00000170: df1b 71bb f25b d6bd 17a3 26bd 7d2b fe3c
00000180: deca 9e3d 5a5b 93bd 8a9d e53c 6e88 1abd
00000190: 7412 5fbd d2d5 933c e3fa 99bd 5aab c33b
000001a0: 2238 89bc 54d4 8cbd 9f1a bcbc f04f 45ba
000001b0: ecaa 95ba 662d 25bd b68b b4bd df3a e4bb
000001c0: 09d6 0ebd 8020 15bd 134b 1ebd 6f07 24bc
000001d0: 82e9 943c f8d4 9b3c 1deb c2bc 3a5a 8fbc
000001e0: 0925 bbbd 8131 83bc d7d6 3a3d c162 8abc
000001f0: 941b 9abd 621b cc39 d749 68bb 499d 56bd

_network.1.running_mean f4 [128]
0.54029137 -0.406135 0.7663446 0.35009143 -0.57065034 -0.59547037 0.07022643 0.023643473
0.34341195 -0.17696913 0.33189693 -0.10707574 0.24630925 -0.15852273 -0.16165249 0.3952203
-0.19718088 -0.23895726 -0.017804906 0.13451393 -0.56837404 -0.5305958 -0.61976224 -0.056959584
-0.22812179 -0.004420556 0.46729615 -0.22737382 -0.037776634 -0.08868676 -0.114378445 0.1405138
0.6148243 0.09154058 -0.5801686 0.15451986 0.06298478 0.033423796 -0.23528981 -0.008165636
0.2346488 -0.18702443 -0.28508312 0.3416011 -0.4286388 0.29112887 -0.021809055 -0.5621143
-0.5708046 -0.3045794 -0.24288623 0.57782423 0.01365289 0.34319937 0.43606162 -0.029593565
-0.022737686 0.3980327 -0.5148121 0.049398955 -0.06665609 -0.13967867 0.32765916 -0.16876346
-0.041555464 -0.8920738 0.31074756 -0.12415244 -0.88493156 0.09431357 0.08065859 0.4177822
0.18974586 -0.6388118 0.426911 0.3635522 0.34903103 -0.35100022 -0.020097371 -0.4172602
-0.110051796 -0.096950926 0.3528804 -0.11429842 0.08278436 0.15409508 0.14374289 -0.27026075
0.10659963 -0.3140623 0.20408122 -0.47721055 -0.42921564 0.4364137 0.3367878 0.28834137
-0.41607362 0.09181225 0.31929386 0.34904295 0.5398104 -0.01511346 -0.33604735 0.5853984
0.16389403 -0.16371027 0.66573775 -0.4388057 -0.11632577 0.6671444 0.29194453 0.42013976
-0.30430236 -0.73257387 0.39118472 -0.5926448 0.18964154 0.20251372 -0.23865722 0.4049111
-0.4265193 0.030341126 0.20506176 -0.18557301 -0.59089017 -0.00563311 0.058479693 -0.9320609
00000000: 8950 0a3f edf0 cfbe 292f 443f 2f3f b33e
00000010: 2416 12bf bf70 18bf e0d2 8f3d f5af c13c
00000020: b1d3 af3e 6537 35be 65ee a93e 874a dbbd
00000030: 7e38 7c3e c853 22be 3b88 25be 515a ca3e
00000040: c9e9 49be 36b1 74be 98db 91bc 05be 093e
00000050: f680 11bf 20d5 07bf bda8 1ebf 744e 69bd
00000060: c298 69be 50da 90bb 7141 ef3e afd4 68be
00000070: acbb 1abd 67a1 b5bd 3f3f eabd d9e2 0f3e
00000080: 2065 1d3f a179 bb3d ee85 14bf 743a 1e3e
00000090: 2afe 803d 64e7 083d d0ef 70be 29c9 05bc
000000a0: c647 703e 5583 3fbe 6af6 91be 57e6 ae3e
000000b0: 8b76 dbbe d80e 953e e7a8 b2bc b9e6 0fbf
000000c0: 4020 12bf d5f1 9bbe 2bb7 78be 4aec 133f
000000d0: 5fb0 5f3c d4b7 af3e 7843 df3e 346e f2bc
000000e0: 6244 babc f1ca cb3e baca 03bf 8f56 4a3d
000000f0: fd82 88bd ed07 0fbe f1c2 a73e 54d0 2cbe
00000100: 1036 2abd f35e 64bf 4e1a 9f3e a243 febd
00000110: e08a 62bf 7927 c13d 5530 a53d 8ce7 d53e
00000120: bd4c 423e 2c89 23bf 1494 da3e 8423 ba3e
00000130: 32b4 b23e 4db6 b3be 3ea3 a4bc 21a3 d5be
00000140: d662 e1bd 358e c6bd bdac b43e 4a15 eabd
00000150: d98a a93d 1acb 1d3e 5631 133e 9e5f 8abe
00000160: e850 da3d c6cc a0be abfa 503e f154 f4be
00000170: 27c2 dbbe 9e71 df3e 736f ac3e 7ba1 933e
00000180: 9a07 d5be 1008 bc3d 7c7a a33e c2b5 b23e
00000190: 0431 0a3f 729e 77bc 660e acbe abdc 153f
000001a0: d6d3 273e aaa3 27be ca6d 2a3f 24ab e0be
000001b0: 353c eebd fac9 2a3f c179 953e 8f1c d73e
000001c0: 85cd 9bbe f689 3bbf 5d49 c83e 92b7 17bf
000001d0: 6431 423e c25f 4f3e 8f62 74be 8250 cf3e
000001e0: bd60 dabe f48d f83c b6fb 513e da06 3ebe
000001f0: 9444 17bf f495 b8bb 6788 6f3d 8b9b 6ebf

_network.1.running_var f4 [128]
0.03433859 0.013612654 0.0038313172 0.0025238073 0.022942802 0.013993229 0.005649879 0.008118519
0.005958235 0.03827919 0.007461536 0.0377093 0.020699304 0.024498083 0.019921783 0.02876867
0.034609023 0.0050770203 0.013911489 0.047870982 0.0038701433 0.0070663467 0.008642893 0.008109482
0.003790617 0.007250957 0.013489151 0.0069328155 0.019723259 0.037900876 0.0501147 0.018927028
0.0056040054 0.0064419596 0.0059368056 0.017614732 0.004758114 0.0014225345 0.006542064 0.00093507627
0.0047181286 0.018517824 0.006430313 0.004839597 0.033593994 0.024083268 0.011163247 0.014559709
0.0046830173 0.042718355 0.0092403125 0.0057262075 0.030278182 0.006771194 0.03372375 0.0132371085
0.004138948 0.007750911 0.03222718 0.0025532532 0.006952215 0.0038988905 0.008222883 0.0063816854
0.013310864 0.014264343 0.009100602 0.0033477698 0.006638712 0.004754379 0.045915652 0.010384857
0.011051194 0.008865756 0.025520777 0.046132054 0.005202637 0.005664921 0.0061390465 0.002953193
0.0127021475 0.034097124 0.016815169 0.0037109323 0.014441624 0.0051683253 0.017812446 0.0020597433
0.006096099 0.01792564 0.014869315 0.007857116 0.008322414 0.03211735 0.021948675 0.00912921
0.005238793 0.0075982786 0.0029905953 0.009094812 0.01672299 0.0028439749 0.013055804 0.026752865
0.0042983387 0.0031625843 0.010642184 0.06714308 0.015372078 0.024070185 0.014337395 0.007486289
0.019326735 0.010058949 0.040802956 0.0023976357 0.0084719155 0.008718005 0.0247744 0.005822416
0.0059585334 0.03070574 0.0075570303 0.026993603 0.005166047 0.015817652 0.0058290563 0.025670107
00000000: 9fa6 0c3d 9c07 5f3c d616 7b3b 7666 253b
00000010: 8bf2 bb3c db43 653c 9f22 b93b 8903 053c
00000020: 4c3d c33b a4ca 1c3d e77f f43b 1175 1a3d
00000030: 9691 a93c 34b0 c83c 0233 a33c 46ac eb3c
00000040: 31c2 0d3d 225d a63b 04ed 633c 5d14 443d
00000050: 3ba2 7d3b d08c e73b ec9a 0d3c a2dd 043c
00000060: 006c 783b 7099 ed3b 9a01 5d3c ac2c e33b
00000070: ac92 a13c f33d 1b3d 1245 4d3d db0c 9b3c
00000080: cea1 b73b 1317 d33b 8989 c23b c54c 903c
00000090: f4e9 9b3b 5674 ba3a cf5e d63b e81f 753a
000000a0: 889a 9a3b b1b2 973c 60b5 d23b 7b95 9e3b
000000b0: db99 093d 464a c53c 0de6 363c d88b 6e3c
000000c0: ff73 993b 71f9 2e3d ae64 173c e9a2 bb3b
000000d0: f309 f83c e4e0 dd3b ea21 0a3d 75e0 583c
000000e0: 03a0 873b 5bfb fd3b a600 043d 7b54 273b
000000f0: 68cf e33b 8784 7f3b 45b9 063c 751d d13b
00000100: cf15 5a3c feb4 693c b11a 153c 4266 5b3b
00000110: 8d89 d93b 9fca 9b3b 0d12 3c3d 3f25 2a3c
00000120: 1110 353c ad41 113c f310 d13c f7f4 3c3d
00000130: e27a aa3b cda0 b93b 0e2a c93b 5b8a 413b
00000140: ab1c 503c 6da9 0b3d f7bf 893c 1d33 733b
00000150: 909c 6c3c 0e5b a93b 68eb 913c c2fc 063b
00000160: c9c1 c73b cbd8 923c 6d9e 733c 22bb 003c
00000170: bc5a 083c 7b8d 033d b5cd b33c af92 153c
00000180: 2eaa ab3b fbfa f83b ddfd 433b 6802 153c
00000190: a7fe 883c fb61 3a3b 03e8 553c d328 db3c
000001a0: 14d9 8c3b 5c43 4f3b 8e5c 2e3c 5082 893d
000001b0: 2bdb 7b3c d62e c53c 65e7 6a3c 8b4f f53b
000001c0: 1a53 9e3c 4ace 243c 0021 273d a721 1d3b
000001d0: cacd 0a3c f7d5 0e3c aff3 ca3c f7c9 be3b
000001e0: cd3f c33b 9b8a fb3c f7a0 f73b b021 dd3c
000001f0: f147 a93b 0594 813c ab01 bf3b 1e4a d23c

_network.3.weight f4 [128, 128]
-0.03699079 0.11122822 0.020159667 0.010087533 -0.060546853 -0.059756763 -0.048855904 0.023295453
-0.056788094 0.009068678 -0.016911145 0.007321555 -0.003243486 -0.03855455 0.047269918 0.03590285
-0.04794626 -0.15711541 0.075047396 0.014257347 -0.04193245 0.06854332 -0.00097623863 0.027606854
0.027114581 -0.12787668 0.07065689 -0.14611383 -0.07627681 0.009772619 -0.08196265 0.09144227
-0.034630965 0.05038194 -0.08606537 0.046641428 -0.05476487 -0.023077121 0.057125777 0.04952469
0.06991308 -0.062091712 -0.022110686 0.07399846 0.013358991 0.04404988 0.0908865 -0.02427021
0.056341242 0.07052678 -0.019449152 0.04511792 0.017320355 0.12977247 -0.06724195 -0.05679278
-0.060242474 0.007725843 0.019991765 -0.04904087 0.04006119 -0.05116527 0.0491502 0.04273069
-0.065034054 -0.064150855 -0.06755127 0.048343595 -0.06903232 -0.024741415 0.03458416 -0.071327806
0.0038752267 -0.078783736 -0.049491413 -0.07281996 -0.051827114 -0.032946523 0.0071465387 -0.022025049
0.038417045 0.092062965 0.023735056 -0.058380723 -0.12199911 0.028254228 -0.03730792 0.02897784
0.0746584 0.044535294 0.031788334 0.115344435 -0.003917156 -0.06998958 0.10415086 -0.06374858
0.0041632922 0.06610816 0.09248725 0.05742966 6.5952496e-05 -0.04763845 -0.033118665 0.07995422
0.04001036 0.012559777 -0.0396275 -0.046327773 0.059361257 0.03319472 0.060277823 0.007271281
0.046366993 0.016836893 0.010007034 0.041943863 0.04871801 0.036474086 0.071089715 -0.07690784
-0.103222065 0.019259274 -0.0016233097 -0.04585083 -0.0070912493 -0.0023030534 0.06026008 0.040698253
-0.042261537 -0.037924934 -0.050668918 0.01415732 0.06150145 0.03127127 0.09443245 0.0065670037
0.0031145911 0.013022147 -0.14037064 -0.00083265104 -0.010998253 -0.08597365 -0.059410654 0.058968637
0.05938422 0.04709647 0.08076084 -0.06920112 -0.03200611 0.0073217815 -0.045632754 -0.062350612
-0.057504505 0.003316696 -0.07760147 -0.017039707 0.087958165 -0.033388373 -0.033897348 0.01158056
-0.022153812 -0.013714981 0.069311276 -0.03871243 -0.055781063 -0.06944121 -0.06769291 -0.063089155
-0.090898514 0.03071914 -0.0073706857 -0.08859593 -0.10841674 -0.021165079 -0.1116749 -0.07722737
-0.07592146 0.005545292 -0.06796066 -0.09767905 -0.06872003 0.01147574 -0.06522002 -0.02757481
0.0707152 0.042475495 0.045613457 -0.11961751 -0.07806116 -0.0071494635 0.07141782 -0.002528585
-0.11321674 -0.00920256 -0.0744537 -0.04654525 -0.057080228 0.103959225 0.027222507 -0.01448033
0.012031071 -0.032192674 0.01431675 0.021209564 0.026570803 -0.038063288 0.056019757 -0.015435376
-0.05894109 0.047076676 0.05119318 0.078285016 0.026394224 -0.0411554 0.036992263 0.08846853
-0.05082449 -0.029570596 -0.061854795 0.01794267 0.034780324 -0.023020463 0.0058419122 0.034049105
-0.06880967 -0.064726934 0.07787726 -0.043791775 -0.023792889 -0.006355674 0.009031324 -0.10692515
0.06960496 -0.17185248 -0.05461681 0.013950261 -0.048911795 -0.048016462 -0.0446025 -0.03541072
-0.03962737 -0.037180774 0.016488418 -0.08359751 -0.056978535 -0.0019501777 -0.009441807 0.0052200565
-0.09781831 0.014704489 0.024133751 0.046389543 -0.09158067 -0.03839531 -0.120595925 -0.0597452
00000000: a883 17bd 9fcb e33d e325 a53c 2e46 253c
00000010: faff 77bd 82c3 74bd 211d 48bd 1bd6 be3c
00000020: a29a 68bd cb94 143c 3e89 8abc a8e9 ef3b
00000030: aa90 54bb 60eb 1dbd 1a9e 413d de0e 133d
00000040: 4c63 44bd dde2 20be 73b2 993d a697 693c
00000050: 5cc1 2bbd 7160 8c3d 44ea 7fba c527 e23c
00000060: 661f de3c 1bf2 02be 8fb4 903d dd9e 15be
00000070: 0437 9cbd 561d 203c 09dc a7bd 1646 bb3d
00000080: 33d9 0dbd 4b5d 4e3d 0a43 b0bd 150b 3f3d
00000090: 2151 60bd 3b0c bdbc b8fc 693d 67da 4a3d
000000a0: 972e 8f3d e153 7ebd 7821 b5bc 818c 973d
000000b0: abdf 5a3c a66d 343d b422 ba3d 52d2 c6bc
000000c0: 13c6 663d 5870 903d d453 9fbc 91cd 383d
000000d0: 6be3 8d3c 13e3 043e 26b6 89bd 8c9f 68bd
000000e0: d0c0 76bd 1229 fd3b c5c5 a33c 14df 48bd
000000f0: 3417 243d ad92 51bd b851 493d 6006 2f3d
00000100: 9330 85bd 8661 83bd 5258 8abd ef03 463d
00000110: d160 8dbd 82ae cabc 1fa8 0d3d 5014 92bd
00000120: 84f7 7d3b 5e59 a1bd 82b7 4abd a222 95bd
00000130: ab48 54bd eff2 06bd 832d ea3b e06d b4bc
00000140: 315b 1d3d 828b bc3d 0570 c23c a020 6fbd
00000150: abda f9bd 6975 e73c 31d0 18bd ef62 ed3c
00000160: 81e6 983d a46a 363d 7c34 023d b439 ec3d
00000170: 7c5b 80bb b256 8fbd 0c4d d53d 9e8e 82bd
00000180: 3a6c 883b b763 873d f569 bd3d 5d3b 6b3d
00000190: fa4f 8a38 8920 43bd 70a7 07bd 0abf a33d
000001a0: e7e1 233d 86c7 4d3c 7250 22bd 31c2 3dbd
000001b0: ca24 733d 30f7 073d e1e5 763d ed43 ee3b
000001c0: 51eb 3d3d 86ed 893c 8bf4 233c 54cd 2b3d
000001d0: 898c 473d da65 153d 7c97 913d dc81 9dbd
000001e0: 1766 d3bd a0c5 9d3c 3cc5 d4ba 14ce 3bbd
000001f0: b65d e8bb d3ee 16bb 46d3 763d 36b3 263d
00000200: 6f1a 2dbd 2d57 1bbd 368a 4fbd 1bf4 673c
00000210: f2e8 7b3d 4e16 003d cd65 c13d 0530 d73b
00000220: 2b1e 4c3b d85a 553c 52bd 0fbe 4446 5aba
00000230: 0432 34bc f412 b0bd 9658 73bd 1989 713d
00000240: de3c 733d 3ae8 403d f065 a53d 51b9 8dbd
00000250: d718 03bd 8eeb ef3b 69e9 3abd 5b63 7fbd
00000260: d889 6bbd ed5c 593b 85ed 9ebd db96 8bbc
00000270: 6923 b43d 3fc2 08bd f2d7 0abd 64bc 3d3c
00000280: e97b b5bc cdb4 60bc 12f3 8d3d ed90 1ebd
00000290: af7a 64bd 3137 8ebd 95a2 8abd e334 81bd
000002a0: 0029 babd b5a6 fb3c cb85 f1bb c871 b5bd
000002b0: 9909 debd 6362 adbc cfb5 e4bd 6229 9ebd
000002c0: b67c 9bbd 48b5 b53b f52e 8bbd f40b c8bd
000002d0: 16bd 8cbd be04 3c3c 1392 85bd 91e4 e1bc
000002e0: 21d3 903d c9fa 2d3d 2dd5 3a3d 06fa f4bd
000002f0: 88de 9fbd 0c46 eabb 8243 923d 9eb6 25bb
00000300: 2ede e7bd 56c6 16bc 2e7b 98bd 3ba6 3ebd
00000310: f5cc 69bd 93e8 d43d bc01 df3c e83e 6dbc
00000320: f81d 453c 77dc 03bd cd90 6a3c aebf ad3c
00000330: 03ab d93c 40e8 1bbd f974 653d a9e4 7cbc
00000340: 366c 71bd 79d3 403d f1af 513d e553 a03d
00000350: b338 d83c 9192 28bd 3385 173d fd2e b53d
00000360: 572d 50bd 093e f2bc 745b 7dbd 82fc 923c
00000370: d075 0e3d 6995 bcbc 836d bf3b 1377 0b3d
00000380: 16ec 8cbd 8e8f 84bd 1d7e 9f3d 015f 33bd
00000390: 4ee9 c2bc 4243 d0bb 1ef8 133c 93fb dabd
000003a0: 0c8d 8e3d 19fa 2fbe e0b5 5fbd a38f 643c
000003b0: bc57 48bd e9ac 44bd 1cb1 36bd d50a 11bd
000003c0: 4f50 22bd de4a 18bd b812 873c 2c35 abbd
000003d0: 5362 69bd 1b9d ffba cfb1 1abc 020d ab3b
000003e0: f754 c8bd 19eb 703c 25b4 c53c f602 3e3d
000003f0: a58e bbbd 6744 1dbd fffa f6bd 62b7 74bd

_network.3.bias f4 [128]
-0.0055364277 -0.05785358 -0.04553918 0.050835405 -0.054219928 -0.043473065 0.045103658 -0.04488252
-0.068403736 0.019636193 0.038182568 -0.08023307 0.011336515 -0.06812341 0.03724914 0.048351806
0.029722158 0.0862304 -0.017136214 -0.03518491 0.023974836 0.026548829 -0.03962816 -0.058157034
-0.026981976 0.03660349 0.0372641 -0.03918725 0.074729316 -0.0656615 -0.01008122 0.02122023
-0.06372712 0.08031452 -0.043335576 0.052331243 0.003491802 -0.049896535 0.08262986 -0.009824992
0.0157682 0.08320172 -0.083258815 0.07103488 -0.043560043 -0.07178265 0.049438454 -0.027071059
-0.0706443 -0.043200154 0.057240512 0.038611893 -0.0043799565 0.045360476 0.017591164 -0.066259935
0.017090097 0.062958755 -0.00833705 -0.010004815 0.08673699 -0.025236912 0.08224107 0.0771636
0.07145424 0.02339256 0.02422224 0.022848716 -0.081572205 -0.03501187 -0.0494237 -0.013063834
-0.044221282 -0.028560575 -0.060129885 -0.06440105 0.028496977 0.08625474 -0.0358056 -0.058359098
-0.029746111 -0.03342331 -0.08604351 0.07755425 0.06017903 0.06556577 -0.045687884 -0.058531426
0.08472337 -0.053379633 -0.07428157 -0.073686466 0.026890563 -0.011879779 -0.0539089 0.07535301
-0.049250025 0.0055274046 0.04406568 0.04221961 0.07393238 -0.010938478 0.04528285 -0.007096242
0.011765866 -0.05184963 0.054659504 0.020088544 0.017762564 -0.006668266 0.03567575 -0.085345395
0.07226391 0.06933866 0.04737154 -0.0032481153 -0.08247968 -0.024014374 -0.07086215 -0.042394396
0.06953438 -0.010158643 0.08810479 -0.04457912 -0.041122947 -0.0709353 0.03372612 0.032250397
00000000: ec6a b5bb e0f7 6cbd 4b87 3abd c938 503d
00000010: b715 5ebd d010 32bd 9dbe 383d bcd6 37bd
00000020: 4217 8cbd 15dc a03c 5365 1c3d 3c51 a4bd
00000030: cabc 393c 4984 8bbd 8e92 183d 8b0c 463d
00000040: e27b f33c 9099 b03d 3f61 8cbc 0d1e 10bd
00000050: e066 c43c ee7c d93c 2351 22bd 1236 6ebd
00000060: 4e09 ddbc 8bed 153d 3ea2 183d cf82 20bd
00000070: af0b 993d 8979 86bd b42b 25bc 0cd6 ad3c
00000080: 5d83 82bd f07b a43d a580 31bd 4959 563d
00000090: b7d6 643b 4f60 4cbd d839 a93d 01f9 20bc
000000a0: 502c 813c aa65 aa3d 9983 aabd bc7a 913d
000000b0: 046c 32bd c802 93bd fa7f 4a3d 20c4 ddbc
000000c0: f5ad 90bd a5f2 30bd 0775 6a3d 8127 1e3d
000000d0: bd85 8fbb e8cb 393d 581b 903c 4ab3 87bd
000000e0: 8800 8c3c 85f0 803d 1f98 08bc 3ceb 23bc
000000f0: 2aa3 b13d a4bd cebc 026e a83d f307 9e3d
00000100: 9a56 923d c1a1 bf3c b86d c63c 3b2d bb3c
00000110: 540f a7bd 9b68 0fbd 8170 4abd b109 56bc
00000120: 6021 35bd def7 e9bc c14a 76bd b3e4 83bd
00000130: 7e72 e93c 53a6 b03d e5a8 12bd f309 6fbd
00000140: 1eae f3bc e1e6 08bd 9437 b0bd c3d4 9e3d
00000150: 497e 763d 5947 863d 3823 3bbd a6be 6fbd
00000160: 7283 ad3d 9aa4 5abd f020 98bd eee8 96bd
00000170: 9949 dc3c 68a3 42bc 94cf 5cbd ae52 9a3d
00000180: 65ba 49bd 3b1f b53b 377e 343d 78ee 2c3d
00000190: dc69 973d 4d37 33bc 827a 393d 9887 e8bb
000001a0: 9ec5 403c 4760 54bd a5e2 5f3d bb90 a43c
000001b0: cc82 913c 7881 dabb bc20 123d 91c9 aebd
000001c0: 1aff 933d 6d01 8e3d a908 423d 55de 54bb
000001d0: 1beb a8bd cbb9 c4bc 2d20 91bd bfa5 2dbd
000001e0: 0b68 8e3d 7070 26bc 4970 b43d 9898 36bd
000001f0: 8970 28bd 8746 91bd 6624 0a3d fe18 043d

_network.4.weight f4 [128]
0.96389145 1.0255349 1.0449383 1.0252964 0.9740041 0.94135314 0.9877218 0.96328145
0.9639267 1.0047381 0.98396367 1.0010283 0.912064 0.99506265 0.9674519 0.95770264
0.88998747 0.9868025 0.97789764 0.98589915 1.0181519 1.0438008 1.0587447 0.9774252
1.0159551 0.971779 1.018418 0.9559531 1.0001484 0.9679646 0.95827705 0.9588708
0.952395 0.99846596 0.925704 1.0148337 0.98401195 1.0618992 0.9550311 0.97769016
0.97891945 0.94453746 0.9594618 0.9970967 0.9718167 0.94344693 1.0526319 0.9238815
0.9580253 0.90189356 0.95389074 0.97503656 0.92942655 0.97579986 0.95324105 0.9699854
0.9291142 0.9320661 0.9414902 1.0146875 0.98764896 0.97951597 1.0468508 1.0091404
0.92433375 1.0207474 0.99405575 1.0153073 1.0318589 0.95643413 1.0030837 1.0066057
0.9645052 0.96282125 1.0381452 1.0015081 1.0473359 0.9657819 0.9995593 0.9732287
0.9408989 1.0358657 0.9503484 0.93687165 0.99781406 0.9765604 1.0253114 1.0163051
1.0139278 0.9777009 0.9693212 1.037526 0.9701381 0.9376068 1.0100504 0.9748911
1.0208609 1.0419631 0.9681512 0.97438455 0.9558486 0.9424425 1.0114933 0.9759694
0.97038716 1.0129236 0.9821349 0.9964056 0.94473666 0.99516386 1.0424926 0.932426
0.9870511 0.9514792 1.0160528 0.99648523 1.0055882 1.014742 1.0360137 0.9600054
1.0172526 0.92450804 0.9514062 0.98691756 1.000361 0.95584875 1.0455021 1.0037056
00000000: 97c1 763f ba44 833f 8ac0 853f ea3c 833f
00000010: 5558 793f 85fc 703f 56db 7c3f 9d99 763f
00000020: e6c3 763f 429b 803f 0be5 7b3f b221 803f
00000030: 077d 693f 6dbc 7e3f edaa 773f 002c 753f
00000040: 38d6 633f 179f 7c3f 8057 7a3f e363 7c3f
00000050: cd52 823f 449b 853f f284 873f 8a38 7a3f
00000060: d10a 823f 82c6 783f 855b 823f 58b9 743f
00000070: dd04 803f 87cc 773f a551 753f 8f78 753f
00000080: 29d0 733f 779b 7f3f f0fa 6c3f 12e6 813f
00000090: 35e8 7b3f 50ec 873f eb7c 743f e749 7a3f
000000a0: 779a 7a3f 35cd 713f 4a9f 753f bb41 7f3f
000000b0: fbc8 783f bd85 713f a4bc 863f 7f83 6c3f
000000c0: 2541 753f 7fe2 663f 2f32 743f ff9b 793f
000000d0: e6ee 6d3f 05ce 793f 9b07 743f f750 783f
000000e0: 6eda 6d3f e29b 6e3f 8005 713f 48e1 813f
000000f0: 90d6 7c3f 8fc1 7a3f 35ff 853f 832b 813f
00000100: 23a1 6c3f daa7 823f 707a 7e3f 97f5 813f
00000110: f413 843f ded8 743f 0c65 803f 75d8 803f
00000120: d0e9 763f 747b 763f f1e1 843f 6b31 803f
00000130: 1a0f 863f 7c3d 773f 1ee3 7f3f 8425 793f
00000140: c0de 703f 3f97 843f 084a 733f d2d6 6f3f
00000150: be70 7f3f ddff 793f 673d 833f 4916 823f
00000160: 63c8 813f 9b4a 7a3f 6f25 783f a7cd 843f
00000170: f85a 783f 0007 703f 5549 813f 7792 793f
00000180: 92ab 823f 0c5f 853f c2d8 773f 4471 793f
00000190: 7eb2 743f e943 713f 9d78 813f 21d9 793f
000001a0: 4b6b 783f 7ba7 813f 316d 7b3f 7014 7f3f
000001b0: 43da 713f 0fc3 7e3f 6670 853f 78b3 6e3f
000001c0: 62af 7c3f 2494 733f 050e 823f a819 7f3f
000001d0: 1db7 803f 11e3 813f 199c 843f eac2 753f
000001e0: 5535 823f 8fac 6c3f 5b8f 733f a1a6 7c3f
000001f0: d40b 803f 81b2 743f 03d3 853f 6d79 803f

_network.4.bias f4 [128]
-0.061043445 0.041917335 0.04971567 -0.0965645 0.013597214 -0.05793437 -0.014003567 -0.041117936
-0.016832316 0.007475619 0.009675617 -0.04690075 -0.072729565 -0.07339545 -0.037500504 -0.03900685
-0.072970726 0.0021645636 -0.04774085 -0.017336775 0.03373995 0.06246518 0.11500184 -0.011623359
0.034863994 -0.007876847 -0.042670295 -0.023123074 -0.013529 -0.04037742 -0.04994608 -0.032756034
-0.019663677 0.031510808 -0.07866197 0.027254531 0.0056812824 -0.12442216 -0.04610213 -0.025777087
-0.060774956 -0.06956726 -0.052366234 -0.08304561 -0.06610273 -0.067964576 -0.15792565 0.0068941736
-0.041105248 -0.037078984 -0.025157249 -0.035138067 -0.051769223 -0.0126280105 -0.024244538 0.0061905286
-0.048792366 -0.052009143 -0.07685688 -0.023534782 -0.01993046 -0.035365347 0.08360013 -0.046568368
-0.04799468 -0.04133801 -0.012346543 -0.007840275 -0.06650109 -0.03531238 0.010602968 0.030262236
0.0029327904 -7.777249e-05 0.06147466 0.014244999 0.07050393 -0.02232808 -0.0052281027 0.025661044
-0.051334005 0.022527482 -0.0123796705 -0.046312895 -0.12347352 -0.008797927 0.06415413 0.012439946
0.016139643 -0.039117485 -0.040847804 0.05751107 -0.052753225 -0.047581326 0.026525501 -0.017251046
-0.07513483 0.039191768 -0.017177789 -0.003211699 -0.0064140256 -0.007588463 -0.023917293 -0.12822407
-0.010951977 0.035171546 -0.040612362 0.0040397434 -0.058892068 -0.030382294 -0.090448685 -0.03486507
-0.037928283 -0.04064128 0.025470095 -0.043495577 -0.0026393563 -0.008375007 -0.06253215 -0.042113498
0.036818217 -0.07692966 -0.03518147 -0.061237175 0.0141008925 -0.032741845 0.056900956 -0.1510684
00000000: b108 7abd 83b1 2b3d a9a2 4b3d 9cc3 c5bd
00000010: d9c6 5e3c 974c 6dbd 386f 65bc 486b 28bd
00000020: ede3 89bc 0af6 f43b 7b86 1e3c 001b 40bd
00000030: 3df3 94bd 5b50 96bd 219a 19bd a6c5 1fbd
00000040: ad71 95bd 5adb 0d3b e98b 43bd da05 8ebc
00000050: e732 0a3d 7ddb 7f3d 1686 eb3d e76f 3ebc
00000060: 8ccd 0e3d e40d 01bc 0cc7 2ebd 9a6c bdbc
00000070: bda8 5dbc cb62 25bd 4394 4cbd 312b 06bd
00000080: b815 a1bc 7a11 013d 8719 a1bd e544 df3c
00000090: 0d2a ba3b 0cd1 febd 96d5 3cbd 782a d3bc
000000a0: 29ef 78bd 4879 8ebd fa7d 56bd d113 aabd
000000b0: de60 87bd 0331 8bbd 43b7 21be 85e8 e13b
000000c0: fa5d 28bd 22e0 17bd 9316 cebc efec 0fbd
000000d0: f70b 54bd b7e5 4ebc 7b9c c6bc ebd9 ca3b
000000e0: 81da 47bd 8a07 55bd 2467 9dbd 04cc c0bc
000000f0: 3445 a3bc 41db 10bd 8c36 ab3d 79be 3ebd
00000100: 1296 44bd 0c52 29bd 2849 4abc 7f74 00bc
00000110: b931 88bd b7a3 10bd 12b8 2d3c 82e8 f73c
00000120: 0f34 403b ca19 a3b8 dacc 7b3d db63 693c
00000130: 5d64 903d 61e9 b6bc 8150 abbb 1c37 d23c
00000140: 9b43 52bd 8e8b b83c 1ad4 4abc 97b2 3dbd
00000150: afdf fcbd 2e25 10bc 3e63 833d ead0 4b3c
00000160: 4937 843c a839 20bd 0750 27bd ba90 6b3d
00000170: c413 58bd a3e4 42bd 024c d93c 1152 8dbc
00000180: 4ae0 99bd 8c87 203d 6fb8 8cbc 5e7b 52bb
00000190: bf2c d2bb a4a8 f8bb 33ee c3bc 2c4d 03be
000001a0: ec6f 33bc 0a10 103d 2659 26bd d35f 843b
000001b0: cf38 71bd 4ae4 f8bc 293d b9bd adce 0ebd
000001c0: b05a 1bbd 7977 26bd a9a6 d03c 6b28 32bd
000001d0: 0df9 2cbb 5337 09bc db10 80bd 347f 2cbd
000001e0: b3ce 163d 4c8d 9dbd 721a 10bd d5d3 7abd
000001f0: 6e07 673c 501c 06bd fa10 693d adb1 1abe

_network.4.running_mean f4 [128]
0.091907926 -1.0218025 -0.16611922 0.7606569 0.029785458 -0.30705178 -0.4569427 -0.4172937
-0.19895376 -0.8576714 0.42212525 -0.7361759 -0.94052744 0.5763169 -0.2774231 0.46828842
-0.3696976 -0.35154682 -0.067461744 0.05088388 -0.606191 -0.5340607 -0.7151872 -0.1999243
-0.37259686 0.18182781 0.24099247 -0.22852911 -1.0130296 -0.14599565 0.9547711 -0.020041842
-0.23280217 0.52451044 0.10976406 -0.39504546 -0.065924205 0.99911195 -0.7285841 0.54266936
-0.5672248 -0.8116132 -0.53814316 0.56877685 0.34468082 -0.055709396 1.101549 -0.61636674
0.03880504 -0.35496873 -0.9127484 -0.23387799 -0.10474696 -0.3026546 -1.1876411 -0.2202883
-0.5655268 -0.5189313 0.64627355 0.45352253 0.18377908 -0.6169129 -0.5138806 -0.05948357
0.60196173 0.36589184 -0.19409862 -0.9309576 0.75748885 -0.05489234 -0.019374762 -0.58375883
-0.5917585 -0.4024583 -0.8770909 -0.9310818 -0.7144902 -0.12867628 -0.5497376 -0.36845127
-0.48434955 -0.47795078 -0.9608826 -0.33404747 0.7851472 -0.4351835 -0.73677254 -0.23646039
-0.06603257 -0.4596928 -0.011257051 -0.582121 0.0456616 -0.09477077 -0.52638155 0.10285239
0.46138358 -0.7209475 -0.45725876 -0.18420918 -0.1415576 0.24677448 0.7497005 0.9373853
0.10418548 -0.24225752 0.2588436 -0.79356813 -0.5814307 -0.81288576 0.99526376 -0.48306507
-0.4972771 0.09748927 -0.56735235 0.4465522 -0.99848145 -0.30324143 0.42085272 0.37768817
0.041662127 -0.10385884 -0.5970204 -0.020902751 -0.577497 -0.6727713 -0.8981395 1.3759888
00000000: 393a bc3d 6dca 82bf 281b 2abe 69ba 423f
00000010: a200 f43c e435 9dbe 65f4 e9be 85a7 d5be
00000020: 89ba 4bbe 5a90 5bbf cd20 d83e 0676 3cbf
00000030: 68c6 70bf 8189 133f 670a 8ebe 80c3 ef3e
00000040: 0149 bdbe f2fd b3be 6229 8abd 9e6b 503d
00000050: 552f 1bbf 34b8 08bf 8216 37bf f5b8 4cbe
00000060: 04c5 bebe 1231 3a3e bbc6 763e 8903 6abe
00000070: f4aa 81bf e27f 15be e16b 743f ca2e a4bc
00000080: b163 6ebe 5146 063f fbcb e03d 6643 cabe
00000090: 4503 87bd cdc5 7f3f 7d84 3abf 61ec 0a3f
000000a0: a535 11bf e2c5 4fbf c0c3 09bf 5c9b 113f
000000b0: 017a b03e 892f 64bd 8fff 8c3f 36ca 1dbf
000000c0: 09f2 1e3d 76be b5be e1a9 69bf b67d 6fbe
000000d0: 9385 d6bd 8bf5 9abe a004 98bf 4293 61be
000000e0: 5dc6 10bf afd8 04bf 2f72 253f 1b34 e83e
000000f0: 9530 3c3e 01ee 1dbf ae8d 03bf 0ba5 73bd
00000100: 2a1a 1a3f 2d56 bb3e cac1 46be 3d53 6ebf
00000110: caea 413f cad6 60bd d2b7 9ebc 3871 15bf
00000120: 7c7d 17bf 040f cebe 0789 60bf 605b 6ebf
00000130: d4e8 36bf b7c3 03be 9abb 0cbf a5a5 bcbe
00000140: aafc f7be f7b5 f4be 67fc 75bf 4508 abbe
00000150: 68ff 483f 5fd0 debe 209d 3cbf ac22 72be
00000160: 163c 87bd db5c ebbe 7e6f 38bc e205 15bf
00000170: a807 3b3d 2d17 c2bd f1c0 06bf 46a4 d23d
00000180: 783a ec3e 0490 38bf d21d eabe 55a1 3cbe
00000190: 7af4 10be 73b2 7c3e 5fec 3f3f 7cf8 6f3f
000001a0: 325f d53d 5b12 78be 2687 843e 4827 4bbf
000001b0: a4d8 14bf 4819 50bf 9bc9 7e3f 4e54 f7be
000001c0: 1b9b febe 74a8 c73d 013e 11bf 7da2 e43e
000001d0: 7b9c 7fbf 7642 9bbe 027a d73e 5860 c13e
000001e0: e8a5 2a3d f2b3 d4bd 54d6 18bf 3f3c abbc
000001f0: d8d6 13bf bd3a 2cbf 78ec 65bf 6720 b03f

_network.4.running_var f4 [128]
0.7201059 0.36022848 0.18888167 1.0312896 0.43379685 0.6627041 0.6026988 0.76586604
0.30586663 0.3036465 0.78446037 0.32203606 0.80332154 0.4922686 0.35198635 0.31322187
0.6755635 0.18737343 0.2479515 0.19118163 0.5817095 0.26461884 0.17855155 0.37275955
0.52601224 0.3537905 0.16692054 0.25400552 0.43792436 0.27425075 0.7975173 0.08346936
1.233865 0.19133699 0.89176476 0.6165154 0.39743972 0.22492056 0.531547 0.66973656
0.22645386 0.43859562 0.30927157 0.48571607 0.6917684 0.12823984 0.2096768 0.6423528
0.80905086 0.32794037 0.5026513 0.36982983 1.2722273 0.8394259 0.21525209 0.6076423
0.48541248 0.9523969 0.27159536 0.19475849 0.51022327 1.2365826 0.6062598 0.35218686
0.16410084 0.4468409 0.29396272 0.17914869 0.11855934 0.38025078 0.34647915 0.23374072
0.45572007 0.27564692 0.23891462 0.25335714 0.3750907 0.3336439 0.39454657 0.13442074
0.43704143 0.24753165 1.160816 0.340335 0.15482126 0.8447104 0.26180717 0.23106174
0.37006426 0.5939744 0.5361388 0.60446966 0.3303865 0.11743081 0.16169155 0.23554286
0.6134937 0.21202144 0.3029515 0.29780176 0.34924218 0.29086912 0.6540265 0.32601464
0.30686775 0.7493935 0.37913775 0.23083618 0.330791 0.26539707 0.32249317 0.92566717
0.4750603 0.769749 0.18677916 1.4790238 0.26535752 0.31686512 0.8531634 0.37773737
0.37136912 0.18845594 0.32251012 0.4982638 0.23589444 0.5618184 0.51409733 0.19658625
00000000: dc58 383f de6f b83e 326a 413e 4c01 843f
00000010: 9f1a de3e faa6 293f 784a 1a3f cc0f 443f
00000020: 8d9a 9c3e 8e77 9b3e 65d2 483f e9e1 a43e
00000030: 7ba6 4d3f a10a fc3e 8e37 b43e 9e5e a03e
00000040: bbf1 2c3f d2de 3f3e ffe6 7d3e 1ec5 433e
00000050: eaea 143f 1f7c 873e 38d6 363e 57da be3e
00000060: bda8 063f 0724 b53e 38ed 2a3e 030d 823e
00000070: 9f37 e03e 986a 8c3e 182a 4c3f fcf1 aa3d
00000080: 4aef 9d3f d8ed 433e b24a 643f f4d3 1d3f
00000090: 387d cb3e 9351 663e 7713 083f db73 2b3f
000000a0: 85e3 673e 9b8f e03e d858 9e3e c7af f83e
000000b0: bc17 313f 4e51 033e 84b5 563e 3c71 243f
000000c0: f51d 4f3f cde7 a73e c1ad 003f 565a bd3e
000000d0: 58d8 a23f 9ee4 563f 0b6b 5c3e 728e 1b3f
000000e0: fc87 f83e 49d0 733f 8c0e 8b3e c56e 473e
000000f0: fe9d 023f 5748 9e3f d833 1b3f d651 b43e
00000100: 0d0a 283e 55c8 e43e 4882 963e c172 373e
00000110: 3dcf f23d 3bb0 c23e b765 b13e ba59 6f3e
00000120: 2454 e93e 9821 8d3e 09a6 743e 07b8 813e
00000130: e30b c03e 60d3 aa3e 0202 ca3e 97a5 093e
00000140: e5c3 df3e f078 7d3e 9e95 943f 6440 ae3e
00000150: 7789 1e3e f13e 583f 970b 863e 739b 6c3e
00000160: 1079 bd3e b50e 183f 6440 093f 86be 1a3f
00000170: 6b28 a93e 917f f03d 7892 253e 2632 713e
00000180: ec0d 1d3f 261c 593e 761c 9b3e 7979 983e
00000190: dfcf b23e ccec 943e 486e 273f 64eb a63e
000001a0: c51d 9d3e 41d8 3f3f 581e c23e 5260 6c3e
000001b0: 705d a93e 20e2 873e d31d a53e 86f8 6c3f
000001c0: 1b3b f33e 450e 453f 0943 3f3e a750 bd3f
000001d0: f1dc 873e 253c a23e eb68 5a3f cb66 c13e
000001e0: 1824 be3e 98fa 403e 0c20 a53e 6f1c ff3e
000001f0: 508e 713e 55d3 0f3f e29b 033f e84d 493e

_network.6.weight f4 [128, 128]
0.04303784 0.052973434 0.02707144 -0.03501923 -0.009688379 0.091539495 0.11150632 0.06778637
-0.034492467 -0.03153409 0.07995559 -0.028258357 0.0031295621 -0.0078626415 -0.051222075 0.036458585
0.073160894 -0.04810743 0.06521861 0.041588135 -0.030354366 -0.012365438 0.004099731 0.092567235
-0.06441278 0.06330812 -0.007636645 0.024524946 -0.01671882 0.058067877 0.02282902 0.020555334
-0.0081114 0.032531552 -0.08332415 -0.110204265 0.09038783 -0.089639775 0.0009188603 -0.067517824
-0.10530989 -0.04905218 0.018657962 -0.13691838 -0.07102035 -0.072283044 -0.022773007 0.010650717
0.082848705 -0.0813529 -0.041190106 -0.018087776 0.08967563 0.07431622 -0.012768184 3.390567e-06
-0.010037537 -0.003798536 0.00773192 -0.03757346 -0.027102888 0.041220125 0.036853485 -0.07860948
-0.0207281 0.025684305 0.09861589 0.08579223 -0.004375651 -0.015719695 -0.03996147 0.08663026
0.052485973 -0.09054488 0.025463063 0.08540021 -0.0052846787 -0.058339905 0.035201613 0.07930545
-0.033832014 0.03743274 0.093126826 0.058866505 -0.078840084 0.022218648 -0.09256341 -0.10199188
-0.049562577 0.055067018 0.05536388 -0.008274708 0.051480915 -0.061470028 -0.011526697 -0.052908804
-0.15558232 -0.07420982 -0.05584324 -0.050852902 0.0384909 -0.04946829 -0.024992485 -0.020153575
-0.0055815 -0.05922885 -0.07829605 -0.11045504 0.038979687 -0.011587752 -0.1676557 -0.023101792
0.033005364 -0.024480034 0.081409134 0.07747824 0.0155684445 -0.022123672 0.08055999 0.0420207
-0.01725656 -0.008843635 -0.080233686 -0.019388553 0.004756977 0.0715189 0.027566865 0.13245949
-0.066191286 0.011288286 -0.0640768 0.05505964 -0.0023141496 -0.08202147 0.10476383 0.018226713
-0.013289217 0.1096564 -0.06656375 -0.04450195 -0.046471935 0.0014980199 -0.046414938 0.015733713
-0.062715605 -0.02336026 -0.025244825 -0.06355312 -0.038102493 0.046450816 -0.021331165 -0.010653556
0.02598184 -0.038691808 -0.08958599 -0.0700655 -0.1004521 -0.022799404 0.07450966 0.10291747
-0.077233635 0.06590563 0.053219568 -0.03446403 0.0023603803 -0.119205214 -0.027877033 0.0019574002
0.015817648 -0.076105915 0.008222035 -0.013899264 -0.050252125 -0.033877086 0.038209453 0.043260325
-0.05333411 -0.012187007 0.019697618 0.047308028 -0.078705266 -0.07488689 -0.03860716 -0.06464737
0.038815983 0.009826432 -0.08388597 -0.032426137 0.028511524 -0.082023434 -0.06443186 -0.103781015
-0.06733124 0.02547309 0.014218589 0.10054177 0.07280197 -0.09289977 -0.084858 0.0049449205
0.03941051 -0.053924564 -0.07201267 -0.049941804 0.04402833 0.01496768 0.06247718 0.054506477
-0.055583294 0.08427103 -0.031173654 -0.085885316 -0.074354894 0.014334949 0.027165473 -0.113077655
-0.0011549247 0.050952442 0.041097518 -0.03259811 -0.09458832 0.03605499 -0.08116694 -0.04808085
-0.05747069 0.08968807 0.029260991 -0.118013725 -0.046783764 0.008660671 0.06514339 0.0085625565
-0.077222206 -0.0026239878 0.057874355 0.0236057 0.009886211 0.092048086 0.062332544 -0.021877415
-0.04945338 -0.06617058 0.07870686 -0.057679538 0.15596902 0.047819722 -0.104882136 0.04802314
-0.12450125 -0.038028073 0.078923106 0.110258944 0.03256534 0.028226888 -0.035560306 0.046503015
00000000: 7248 303d acfa 583d edc4 dd3c 5370 0fbd
00000010: 02bc 1ebc 0f79 bb3d 6d5d e43d 95d3 8a3d
00000020: f947 0dbd e429 01bd c2bf a33d 127e e7bc
00000030: 5719 4d3b 4fd2 00bc 3dce 51bd 9955 153d
00000040: 61d5 953d 4c0c 45bd 5691 853d 5258 2a3d
00000050: b8a9 f8bc 6898 4abc 0957 863b e493 bd3d
00000060: d9ea 83bd b0a7 813d d23c fabb 8ae8 c83c
00000070: e8f5 88bc 95d8 6d3d ed03 bb3c a963 a83c
00000080: ade5 04bc ce3f 053d daa5 aabd c6b2 e1bd
00000090: 411d b93d 0f95 b7bd acdf 703a c946 8abd
000000a0: b6ac d7bd f0ea 48bd 95d8 983c 5534 0cbe
000000b0: 1e73 91bd 2209 94bd 758e babc 5880 2e3c
000000c0: 95ac a93d 599c a6bd f5b6 28bd d12c 94bc
000000d0: dba7 b73d 1a33 983d a531 51bc 7f89 6336
000000e0: 7b74 24bc dcf0 78bb 0c5c fd3b a1e6 19bd
000000f0: e006 debc 6fd6 283d aef3 163d 02fe a0bd
00000100: facd a9bc e467 d23c 21f7 c93d d6b3 af3d
00000110: 9f61 8fbb 97c6 80bc a3ae 23bd 356b b13d
00000120: 88fb 563d 986f b9bd ea97 d03c 4ee6 ae3d
00000130: 192b adbb d3f5 6ebd 912f 103d e56a a23d
00000140: 7093 0abd 1353 193d 47b9 be3d 011e 713d
00000150: e976 a1bd e203 b63c e391 bdbd 1ee1 d0bd
00000160: 2102 4bbd f48d 613d 3cc5 623d a492 07bc
00000170: a7dd 523d ffc7 7bbd 79da 3cbc e7b6 58bd
00000180: f950 1fbe 51fb 97bd e2bb 64bd 224b 50bd
00000190: a2a8 1d3d 439f 4abd 0abd ccbc 1c19 a5bc
000001a0: 04e5 b6bb f399 72bd ae59 a0bd 4136 e2bd
000001b0: 2aa9 1f3d 8eda 3dbc f0ad 2bbe f83f bdbc
000001c0: a230 073d 5a8a c8bc d5b9 a63d e9ac 9e3d
000001d0: ca12 7f3c b43c b5bc a3fc a43d e61d 2c3d
000001e0: a15d 8dbc e5e4 10bc 8f51 a4bd bed4 9ebc
000001f0: 6ae0 9b3b 8078 923d e8d3 e13c 76a3 073e
00000200: 4c8f 87bd 81f2 383c b33a 83bd 3886 613d
00000210: fda8 17bb dffa a7bd 6b8e d63d 3050 953c
00000220: 04bb 59bc 8993 e03d 9352 88bd ad47 36bd
00000230: 5b59 3ebd 3559 c43a 971d 3ebd fde3 803c
00000240: 0a71 80bd 045e bfbc 3cce cebc 2328 82bd
00000250: 5c11 1cbd 3643 3e3d b2be aebc 418c 2ebc
00000260: ded7 d43c 4d7b 1ebd dc78 b7bd 807e 8fbd
00000270: d5b9 cdbd d1c5 babc 8598 983d 65c6 d23d
00000280: ab2c 9ebd 88f9 863d c3fc 593d 282a 0dbd
00000290: 9cb0 1a3b dd21 f4bd 605e e4bc ba47 003b
000002a0: 0394 813c 6bdd 9bbd b7b5 063c bdb9 63bc
000002b0: 2cd5 4dbd b3c2 0abd 8481 1c3d bd31 313d
000002c0: de74 5abd 03ac 47bc e65c a13c 10c6 413d
000002d0: 3a30 a1bd 4c5e 99bd 8b22 1ebd d765 84bd
000002e0: 82fd 1e3d 0bff 203c 68cc abbd 45d1 04bd
000002f0: 0091 e93c e7fb a7bd daf4 83bd 248b d4bd
00000300: f6e4 89bd f1ac d03c 16f5 683c d8e8 cd3d
00000310: 3319 953d 3c42 bebd 08ca adbd 0009 a23b
00000320: ea6c 213d 01e0 5cbd 617b 93bd c78f 4cbd
00000330: 0d57 343d 003b 753c 12e8 7f3d 2f42 5f3d
00000340: 4fab 63bd 4a96 ac3d e45f ffbc a4e4 afbd
00000350: 6147 98bd 22dd 6a3c 208a de3c 4295 e7bd
00000360: d860 97ba 82b3 503d df55 283d 9985 05bd
00000370: 85b7 c1bd 66ae 133d da3a a6bd 6df0 44bd
00000380: 6366 6bbd 61ae b73d bfb4 ef3c 2eb1 f1bd
00000390: 55a0 3fbd 7de5 0d3c e669 853d f749 0c3c
000003a0: ad26 9ebd 36f7 2bbb a90d 6d3d be60 c13c
000003b0: c6f9 213c b583 bc3d 6950 7f3d 4438 b3bc
000003c0: a18f 4abd 7184 87bd 1031 a13d 6141 6cbd
000003d0: 58b6 1f3e 9dde 433d 72cc d6bd e9b3 443d
000003e0: 83fa febd 53c3 1bbd 70a2 a13d 71cf e13d
000003f0: 3c63 053d 133c e73c afa7 11bd f279 3e3d
