transformers/results/pimentel_mlp/pimentel_mlp/configs/hyperopt/trial_20/pimentel_mlp_model_20251209_022219.pt (torch, 432266 bytes, 43 tensors)

_network.0.weight f4 [128, 5]
0.31188318 0.40358466 -0.08300974 0.41060925 -0.0887415 0.11276673 -0.19261494 0.26720834
0.42834884 -0.30542952 0.40070346 0.03288929 0.3133295 0.07982924 0.24397346 -0.067302845
0.33185706 0.055298217 -0.22494467 0.116805114 -0.2683904 -0.04074439 -0.1734376 0.27246237
-0.32862508 -0.2536329 -0.06163659 -0.35026905 -0.003655429 -0.38720375 0.40852985 -0.4122952
0.32085764 0.070873745 -0.14259087 0.27225724 0.07417542 0.39526632 0.038933437 -0.089367226
0.13044338 -0.08964421 0.20396647 0.4102265 0.2504097 -0.19065942 0.23493706 0.07263279
0.25687644 -0.28421825 -0.50193363 -0.11868355 -0.29897287 0.35026753 0.13087007 0.25457072
0.15987392 0.0056172656 0.35422033 -0.24702524 0.07355881 -0.30233115 0.12012593 -0.1651938
0.14195919 -0.03598207 0.35635468 -0.32048327 -0.27053326 -0.26645935 0.5277668 0.11199482
0.33816648 -0.37080923 -0.44995725 -0.3692777 -0.3177825 0.15300138 0.14743872 0.3469602
-0.23879714 -0.28368708 0.23011434 -0.19928269 0.28661844 -0.017172253 0.2539978 -0.3681253
-0.25812656 0.11960727 0.13146093 -0.08650529 0.27665296 0.32358906 -0.29370114 -0.22444722
0.43279484 -0.22885668 -0.16256529 -0.40800062 -0.2657542 0.10835103 -0.025404975 -0.3215586
0.007522922 -0.37979087 -0.35119072 -0.23034896 -0.37957293 -0.2689162 0.46585736 0.047973286
0.12810482 -0.41072154 -0.2939824 -0.15991798 0.09137175 -0.42881736 -0.20932806 -0.23317136
0.021540236 -0.17742728 -0.081913285 -0.3104016 -0.2910917 -0.2901101 -0.123725794 -0.36592934
0.34834802 -0.068968154 0.46915323 0.12060358 -0.37886345 0.27110854 -0.06157011 -0.15031672
-0.35483196 -0.47513452 0.1357902 -0.07570422 0.22080529 -0.38689297 0.29130223 -0.32416525
-0.09346427 0.13563347 0.20995557 0.35319966 0.40986034 -0.3618078 0.11389581 -0.18298137
-0.009112807 -0.3087385 0.4587455 -0.3577635 0.20336208 0.110146664 0.145039 -0.25724238
0.5513533 0.018602114 0.04711675 -0.29525465 0.18540585 -0.059671964 -0.1888246 0.4050997
0.115980625 -0.23769963 -0.22723056 -0.034821942 0.22350654 -0.11107689 -0.27398908 -0.08074369
-0.32830715 0.18464875 0.3901598 -0.40140393 0.11501884 0.22394721 0.06329758 -0.1518263
0.25482368 0.33099616 0.106507406 -0.08351998 -0.05480453 0.018063795 -0.03608296 -0.13999219
0.26684454 0.41925862 -0.056188304 -0.10829254 0.004508956 -0.053769827 0.1302291 0.10578626
-0.4147156 -0.15796822 0.3639238 0.16829678 -0.060134415 -0.26602888 -0.28942156 -0.38209558
-0.15137245 0.16265263 0.31324685 0.19230995 -0.45540446 -0.21364775 -0.0908482 0.46867076
0.043959353 -0.107733056 0.1850218 -0.1300899 -0.35915592 0.30032116 -0.1557575 -0.11375586
-0.4218645 0.2928831 0.3229715 0.17572987 -0.2822795 -0.47355047 -0.37602615 0.3364351
0.19881564 0.38528642 0.23476043 0.21547033 -0.016522696 -0.3677424 -0.37318596 -0.40595514
0.2707179 -0.18790723 -0.053539604 -0.2447345 -0.07451579 -0.30627695 -0.30899724 0.12793688
-0.14092712 0.27779573 -0.100782335 -0.3659095 -0.102687344 -0.20450962 -0.1523278 -0.44092524
00000000: 27af 9f3e a6a2 ce3e 0301 aabd 603b d23e
00000010: 1bbe b5bd 3ef2 e63d da3c 45be 88cf 883e
00000020: 8a50 db3e 4261 9cbe 0129 cd3e ecb6 063d
00000030: b96c a03e 837d a33d 2ed4 793e 13d6 89bd
00000040: 2be9 a93e 6280 623d e557 66be 8537 ef3d
00000050: 776a 89be 97e3 26bd a099 31be 3080 8b3e
00000060: 8c41 a8be 2cdc 81be a676 7cbd 7756 b3be
00000070: ec8f 6fbb 923f c6be d32a d13e 5b18 d3be
00000080: 7447 a43e 4126 913d 5703 12be 4d65 8b3e
00000090: 48e9 973d 5960 ca3e ab78 1f3d 2a06 b7bd
000000a0: f392 053e 6297 b7bd 96dc 503e 3509 d23e
000000b0: b335 803e 393c 43be 5793 703e 80c0 943d
000000c0: 4f85 833e 0e85 91be b97e 00bf 5c10 f3bd
000000d0: f912 99be 4456 b33e ce02 063e 1857 823e
000000e0: fdb5 233e 0a11 b83b 5e5c b53e 2ff4 7cbe
000000f0: 00a6 963d 26cb 9abe 9504 f63d 9028 29be
00000100: c05d 113e ef61 13bd 1f74 b63e 6216 a4be
00000110: 5683 8abe 5c6d 88be ba1b 073f 8a5d e53d
00000120: 2824 ad3e b5da bdbe cc60 e6be f711 bdbe
00000130: 63b4 a2be 65ac 1c3e 2dfa 163e c4a4 b13e
00000140: 3d87 74be 6f3f 91be 18a3 6b3e c310 4cbe
00000150: a7bf 923e d3ac 8cbc 000c 823e eb7a bcbe
00000160: 2a29 84be a8f4 f43d b29d 063e af29 b1bd
00000170: 75a5 8d3e 77ad a53e ff5f 96be 7ed5 65be
00000180: 4997 dd3e 6859 6abe 8477 26be 75e5 d0be
00000190: ef10 88be 25e7 dd3d 181e d0bc 54a3 a4be
000001a0: d882 f63b f373 c2be 45cf b3be 99e0 6bbe
000001b0: 6257 c2be 62af 89be db84 ee3e a37f 443d
000001c0: e92d 033e 184a d2be dc84 96be 8ac1 23be
000001d0: 1d21 bb3d f38d dbbe 185a 56be 79c4 6ebe
000001e0: 2675 b03c 7faf 35be 27c2 a7bd f5ec 9ebe
000001f0: f909 95be 5089 94be f363 fdbd 175b bbbe
00000200: ac5a b23e 2d3f 8dbd da34 f03e 02ff f63d
00000210: 64fa c1be bdce 8a3e f130 7cbd a0ec 19be
00000220: 89ac b5be d544 f3be 960c 0b3e d00a 9bbd
00000230: c81a 623e d616 c6be 9125 953e fdf8 a5be
00000240: 326a bfbd 80e3 0a3e 98fe 563e 96d6 b43e
00000250: 37d9 d13e df3e b9be 3542 e93d 785f 3bbe
00000260: e24d 15bc f912 9ebe b1e0 ea3e c72c b7be
00000270: 263e 503e 9394 e13d 1b85 143e 46b5 83be
00000280: 7d25 0d3f 7663 983c 7efd 403d 9e2b 97be
00000290: 08db 3d3e 976a 74bd 3c5b 41be 3a69 cf3e
000002a0: 4087 ed3d 8867 73be 21af 68be 74a1 0ebd
000002b0: e6de 643e 487c e3bd 4c48 8cbe f35c a5bd
000002c0: e017 a8be 9014 3d3e 06c3 c73e d184 cdbe
000002d0: ff8e eb3d 6b52 653e 29a2 813d 5b78 1bbe
000002e0: 4078 823e 5478 a93e 8e20 da3d 860c abbd
000002f0: b77a 60bd 86fa 933c bacb 13bd 1d5a 0fbe
00000300: d99f 883e 11a9 d63e b525 66bd 7bc8 ddbd
00000310: ddbf 933b c03d 5cbd c75a 053e 77a6 d83d
00000320: 9a55 d4be 6cc2 21be 3854 ba3e fe55 2c3e
00000330: 814f 76bd f034 88be 102f 94be 08a2 c3be
00000340: 6101 1bbe 698e 263e e461 a03e e6ec 443e
00000350: c62a e9be 7ac6 5abe 9f0e babd 9df5 ef3e
00000360: b90e 343d 26a3 dcbd 5b76 3d3e 4936 05be
00000370: 49e3 b7be b2c3 993e e57e 1fbe d5f8 e8bd
00000380: a0fe d7be c6f4 953e 855c a53e 88f2 333e
00000390: f086 90be 3575 f2be 8086 c0be 3941 ac3e
000003a0: 5496 4b3e 4344 c53e 0a65 703e 41a4 5c3e
000003b0: 9b5a 87bc bb48 bcbe 3b12 bfbe 5ad9 cfbe
000003c0: 899b 8a3e c16a 40be 584c 5bbd ae9b 7abe
000003d0: bc9b 98bd 55d0 9cbe e334 9ebe e301 033e
000003e0: 334f 10be 3e3b 8e3e f866 cebd 7d58 bbbe
000003f0: be4d d2bd f86a 51be d2fb 1bbe f4c0 e1be

_network.0.bias f4 [128]
0.0920791 -0.41910157 0.38935718 0.28076524 -0.4387879 -0.21302976 0.14557292 -0.092363186
-0.04832128 -0.20112644 0.35772803 -0.25024763 0.37154412 0.028865755 0.08954638 0.34911537
-0.07349088 -0.254357 -0.0723446 0.363038 -0.33130077 0.10250282 -0.44305307 0.23394722
0.16585311 0.019073065 0.1941073 0.00063128315 0.24719931 -0.35401127 -0.06546348 0.19782205
0.44568083 0.22792527 -0.32140094 0.3440128 -0.09958356 -0.094439276 -0.40636683 -0.07087583
0.31648773 0.062446065 -0.26090533 0.1380163 -0.14463146 0.40782848 -0.388026 -0.14261083
-0.4385862 -0.17579354 0.14170444 0.43204805 0.07504008 0.43791705 0.08786006 0.25815946
0.35914725 0.3738805 -0.2503274 0.41082397 0.27166557 -0.21140504 -0.21272479 -0.3757328
0.11101295 -0.36167815 0.18887433 0.14633083 -0.38951418 0.12177317 -0.03644289 0.20415476
0.25606388 -0.4452681 0.41119125 0.37492257 0.17786884 -0.40862828 -0.16000995 -0.13006492
-0.114010796 0.25209156 0.16248573 0.35433936 -0.16738848 0.15005784 0.15913886 -0.38106695
-0.43415177 -0.23219113 0.30631047 -0.42080092 -0.38905814 0.2503053 0.24248157 0.36796364
-0.33940095 -0.3271534 0.23691416 0.3882163 0.26780334 0.07052217 0.14777733 0.42224288
-0.28880435 -0.20267534 0.31215045 -0.30613852 -0.24641745 0.32612252 0.14169815 0.14297402
-0.18975994 -0.006324801 0.4097823 -0.26732522 0.0035610294 0.21341069 -0.30878356 0.43480402
-0.2239038 -0.106835335 -0.12146581 -0.29168275 -0.43951476 0.25218093 0.119007215 -0.41924316
00000000: f893 bc3d 7b94 d6be d359 c73e 76c0 8f3e
00000010: cfa8 e0be 7924 5abe 1111 153e e928 bdbd
00000020: 89ec 45bd 17f4 4dbe 2128 b73e 7520 80be
00000030: 083b be3e e077 ec3c 1864 b73d 40bf b23e
00000040: 6382 96bd 153b 82be 6829 94bd 1ee0 b93e
00000050: 41a0 a9be 00ed d13d dad7 e2be dc8f 6f3e
00000060: 66d5 293e 1e3f 9c3c 10c4 463e b27c 253a
00000070: d121 7d3e f740 b5be b811 86bd dd91 4a3e
00000080: 4730 e43e 3e65 693e aa8e a4be 7222 b03e
00000090: 77f2 cbbd 6169 c1bd 500f d0be 5927 91bd
000000a0: ae0a a23e 72c7 7f3d 6295 85be 2554 0d3e
000000b0: 451a 14be e5ce d03e 58ab c6be 9308 12be
000000c0: 5f8e e0be 3903 34be f81a 113e 6735 dd3e
000000d0: 9dae 993d aa36 e03e faef b33d 7a2d 843e
000000e0: 26e2 b73e 446d bf3e ea2a 80be 8557 d23e
000000f0: c017 8b3e 907a 58be 87d4 59be 0d60 c0be
00000100: c25a e33d e12d b9be 4668 413e c0d7 153e
00000110: 676e c7be 3664 f93d 2445 15bd f20d 513e
00000120: ce1a 833e 2efa e3be a987 d23e daf5 bf3e
00000130: 4023 363e ba37 d1be a6d9 23be bd2f 05be
00000140: 7e7e e9bd 2512 813e a962 263e f86b b53e
00000150: e367 2bbe c3a8 193e 4cf5 223e 351b c3be
00000160: 2449 debe 83c3 6dbe bad4 9c3e 3873 d7be
00000170: a132 c7be 0428 803e 174d 783e bb65 bc3e
00000180: f6c5 adbe a780 a7be a099 723e 49c4 c63e
00000190: 851d 893e ed6d 903d f152 173e 3830 d83e
000001a0: 2ade 93be 208a 4fbe 2fd2 9f3e 30be 9cbe
000001b0: db54 7cbe 88f9 a63e 5219 113e c867 123e
000001c0: 6e50 42be 4740 cfbb fcce d13e dade 88be
000001d0: 2960 693b 5588 5a3e e118 9ebe a29e de3e
000001e0: 0a47 65be 7ccc dabd 11c3 f8bd 7157 95be
000001f0: 1408 e1be dc1d 813e 0eba f33d 0aa7 d6be

_network.1.weight f4 [128]
1.0400995 0.9757206 1.0441756 0.979361 0.9958732 0.9546741 0.9756876 1.0300605
1.0132368 0.954109 1.0057744 0.9933873 0.96856076 0.98093337 1.0272889 0.98333824
1.0015846 0.97021127 0.93435913 0.95716566 1.0231775 0.99496406 1.0285485 0.94832355
0.99295294 0.9764438 1.080706 0.9543951 1.0163493 0.9608077 0.9547769 1.0222518
1.0051967 0.96252936 0.98904306 0.96131593 0.9564878 1.053936 0.91916287 0.98977554
1.0062968 0.96914876 0.99720347 1.0565352 0.99957746 1.0031238 0.9772481 0.9954493
1.0236318 0.92982805 0.93801004 1.0165002 1.0263499 1.0294218 0.9991658 0.97921896
0.96798015 0.9352417 1.0026993 0.9851583 0.9697884 1.0631818 1.0576621 0.9928403
0.99916273 0.98262936 0.9842651 1.0370536 0.98880285 0.9778301 0.9809288 0.9470295
1.0211082 0.98396564 1.0593623 0.96167517 0.98181725 1.0095203 0.97222334 0.99108595
0.944846 1.031408 0.94941413 1.0098875 0.96860486 1.0348619 1.0078186 1.0469062
0.9596559 0.9291845 1.0069548 0.9473017 0.97211236 0.9203404 1.0186381 1.0352821
1.0198506 0.9900265 1.0000014 0.9755174 0.96263003 1.033473 0.9246978 0.99684525
0.9762953 1.0018363 1.019518 0.9434949 0.97964776 0.9824348 0.93455815 0.9828411
0.99077225 0.9373609 0.9361775 0.9907782 0.97849077 1.0124272 1.0112768 0.9887773
1.0139089 0.97977245 1.0739911 0.9796669 1.0181879 1.0157347 0.9647332 0.92222047
00000000: fb21 853f d3c8 793f 8ca7 853f 67b7 7a3f
00000010: 8cf1 7e3f 8665 743f aac6 793f 06d9 833f
00000020: beb1 813f 7d40 743f 37bd 803f a14e 7e3f
00000030: 99f3 773f 731e 7b3f 347e 833f 0ebc 7b3f
00000040: ed33 803f c45f 783f 2932 6f3f cf08 753f
00000050: 7bf7 823f f7b5 7e3f 7aa7 833f 55c5 723f
00000060: 2a32 7e3f 39f8 793f 9354 8a3f 3d53 743f
00000070: bc17 823f 7ef7 753f 426c 743f 26d9 823f
00000080: 49aa 803f 5368 763f ed31 7d3f cd18 763f
00000090: 62dc 743f 60e7 863f 424e 6b3f ee61 7d3f
000000a0: 55ce 803f 221a 783f ba48 7f3f 8c3c 873f
000000b0: 4fe4 7f3f 5c66 803f ee2c 7a3f c4d5 7e3f
000000c0: 5e06 833f 3609 6e3f 6d21 703f ae1c 823f
000000d0: 6f5f 833f 18c4 833f 54c9 7f3f 18ae 7a3f
000000e0: 8ccd 773f 006c 6f3f 7358 803f 5633 7c3f
000000f0: 0d44 783f 5716 883f 7961 873f c82a 7e3f
00000100: 21c9 7f3f 998d 7b3f ccf8 7b3f 2cbe 843f
00000110: 2f22 7d3f 1353 7a3f 261e 7b3f 8670 723f
00000120: acb3 823f 2ce5 7b3f 2f99 873f 5830 763f
00000130: 6058 7b3f f637 813f a1e3 783f cfb7 7d3f
00000140: 6de1 713f 2d05 843f ce0c 733f fe43 813f
00000150: 7df6 773f 5b76 843f 3300 813f 0601 863f
00000160: 02ac 753f 09df 6d3f e5e3 803f 5d82 723f
00000170: 5bdc 783f 6e9b 6b3f bc62 823f 2084 843f
00000180: 778a 823f 6072 7d3f 0c00 803f 82bb 793f
00000190: ec6e 763f d848 843f ffb8 6c3f 4031 7f3f
000001a0: 7dee 793f 2c3c 803f 917f 823f e288 713f
000001b0: 32ca 7a3f d980 7b3f 343f 6f3f 799b 7b3f
000001c0: 40a3 7d3f e2f6 6f3f 54a9 6f3f a4a3 7d3f
000001d0: 5f7e 7a3f 3797 813f 8571 813f 8220 7d3f
000001e0: c4c7 813f 5ed2 7a3f 8a78 893f 73cb 7a3f
000001f0: fb53 823f 9803 823f c1f8 763f a416 6c3f

_network.1.bias f4 [128]
0.011652213 -0.030269578 0.079284765 -0.011598183 -0.03366673 -0.035741784 -0.018985044 0.034148846
0.022582212 -0.0035440242 0.010262408 -0.00943548 -0.006908822 -0.01607134 0.04929511 -0.015807118
-0.04613263 -0.03191927 -0.055718545 -0.0053632287 -0.025925314 -0.022548039 0.048081603 -0.048887517
-0.0080114575 0.0036887887 0.035332475 -0.029634831 -0.046228413 -0.018496139 -0.007998256 -0.070738316
0.023418238 -0.04815953 -0.09575828 -0.016958509 -0.04089293 0.067434356 -0.08052912 -0.065522164
-0.04197793 -0.030735899 -0.03673285 0.10319128 0.034421213 -0.016381549 -0.03429728 0.003441819
0.043468717 -0.03149077 -0.08140218 -0.034020275 0.04136837 0.04573119 0.018305771 0.0076345922
-0.021838864 0.009866017 -0.0046572248 -0.03355855 -0.03065817 0.05854988 0.10684885 -0.016383285
0.008800138 0.017519165 0.0013679117 -0.06653062 0.026392616 0.0019527753 0.0047020013 -0.058072485
-0.029182782 -0.002305825 0.053809904 -0.038373433 0.0045308247 0.046643414 -0.02443178 -0.025251506
0.0056020436 0.0246936 -0.038692486 -0.014991662 -0.031527363 0.015251343 0.00058080204 0.0699853
-0.012450071 -0.07257382 0.03905157 -0.03786983 -0.020142687 -0.0392995 0.034723353 0.05789265
6.8803805e-05 -0.013965212 0.008867513 -0.014942001 0.00534227 0.049607113 -0.1152359 -0.055429164
-0.017648326 -0.03699377 0.033288427 -0.026084252 -0.045707542 0.0141027 -0.025543982 0.0035980998
-0.022870684 -0.07069085 0.0051687686 -0.024088208 0.0014033086 0.008492966 -0.012357835 -0.016641136
-0.047387943 -0.05348682 0.04588444 -0.015337293 -0.031131359 -0.07200301 -0.027996697 -0.031265914
00000000: ece8 3e3c e8f7 f7bc 0d60 a23d 4e06 3ebc
00000010: 20e6 09bd fa65 12bd 8686 9bbc a9df 0b3d
00000020: 55fe b83c dc42 68bb a923 283c 4697 1abc
00000030: 6663 e2bb 0ba8 83bc abe9 493d ee7d 81bc
00000040: 92f5 3cbd c8bd 02bd 2139 64bd 06be afbb
00000050: 5361 d4bc aab6 b8bc 37f1 443d 473e 48bd
00000060: 7d42 03bc 9bbf 713b c9b8 103d bfc4 f2bc
00000070: 015a 3dbd 3785 97bc 1e0b 03bc 40df 90bd
00000080: 9bd7 bf3c ed42 45bd eb1c c4bd 92ec 8abc
00000090: 587f 27bd 061b 8a3d 74ec a4bd 7c30 86bd
000000a0: 0df1 2bbd dac9 fbbc 2f75 16bd f355 d33d
000000b0: 42fd 0c3d 9932 86bc 4e7b 0cbd 2490 613b
000000c0: 410c 323d 77fc 00bd 30b6 a6bd d858 0bbd
000000d0: e171 293d a150 3b3d fcf5 953c 9a2b fa3b
000000e0: 6be7 b2bc 13a5 213c a29b 98bb b174 09bd
000000f0: d826 fbbc 00d2 6f3d 92d3 da3d 3d36 86bc
00000100: 742e 103c 5a84 8f3c 804b b33a 3541 88bd
00000110: 5435 d83c 44f4 ff3a 3f13 9a3b 6add 6dbd
00000120: bb10 efbc 531d 17bb c667 5c3d 762d 1dbd
00000130: 5077 943b 2a0d 3f3d 2825 c8bc 3fdc cebc
00000140: 5991 b73b 3c4a ca3c 037c 1ebd 979f 75bc
00000150: d622 01bd c5e0 793c f740 183a 7454 8f3d
00000160: 62fb 4bbc 95a1 94bd 8af4 1f3d 651d 1bbd
00000170: 4702 a5bc 83f8 20bd 133a 0e3d d820 6d3d
00000180: c34a 9038 58ce 64bc 0c49 113c 4bcf 74bc
00000190: 350e af3b d430 4b3d cd00 ecbd b109 63bd
000001a0: 3993 90bc c886 17bd 7259 083d a4ae d5bc
000001b0: d537 3bbd 030f 673c 9d41 d1bc 19ce 6b3b
000001c0: 4d5b bbbc 5dc6 90bd c65e a93b a254 c5bc
000001d0: 39ef b73a 1526 0b3c 8478 4abc fe52 88bc
000001e0: dc19 42bd ff14 5bbd 53f1 3b3d 4549 7bbc
000001f0: 3107 ffbc 5076 93bd 5459 e5bc b010 00bd

_network.1.running_mean f4 [128]
0.5122952 -0.42300293 0.80275863 0.36556953 -0.6751008 -0.64095575 0.11920147 0.051280785
0.35358968 -0.24424142 0.32406935 -0.07611235 0.30789733 -0.18175775 -0.08746393 0.38563922
-0.16583678 -0.24008131 -0.06628694 0.07203341 -0.54710513 -0.5823271 -0.6091656 -0.09635958
-0.24860702 -0.07089642 0.48390517 -0.24329063 -0.004497342 -0.22151212 0.065583654 0.041963503
0.6695527 0.06603015 -0.6411824 0.11373347 0.14400229 0.06260129 -0.28786126 0.012917121
0.1598793 -0.16973014 -0.26435095 0.33875296 -0.523059 0.22854286 -0.044842888 -0.54848236
-0.5751218 -0.2955983 -0.25901413 0.5699837 0.1132992 0.33072925 0.480898 -0.06549592
-0.0066579944 0.27848575 -0.45381224 0.029768143 -0.12001565 -0.158333 0.37423986 -0.15110423
-0.13587141 -0.92551184 0.28568083 -0.12671079 -0.90092945 0.06729271 0.015911827 0.51728684
0.19423655 -0.633884 0.46232885 0.26760647 0.39990488 -0.36461776 -0.018611299 -0.45896438
-0.109199055 -0.13778187 0.39797378 -0.13067612 0.11639953 0.096725985 0.1265386 -0.33450788
0.13448963 -0.45875007 0.22387345 -0.5127957 -0.36258918 0.4640293 0.38587058 0.37271404
-0.33751705 0.08933743 0.35367227 0.35662735 0.5189206 -0.0446385 -0.3178486 0.50698817
0.18413258 -0.1743071 0.6784256 -0.3582821 -0.05492659 0.5594809 0.22209045 0.5117447
-0.27507362 -0.780206 0.3875991 -0.606623 0.22354344 0.26059887 -0.18749478 0.42220542
-0.4330415 0.03463258 0.21610668 -0.07438924 -0.6286216 -0.0133104315 -0.019661427 -0.9342346
00000000: c725 033f d793 d8be 9781 4d3f ee2b bb3e
00000010: 68d3 2cbf ad15 24bf e61f f43d cd0b 523d
00000020: b509 b53e 6c1a 7abe 6bec a53e cbe0 9bbd
00000030: b8a4 9d3e b41e 3abe 4a20 b3bd 8172 c53e
00000040: 1ed1 29be e0d7 75be 72c1 87bd 4186 933d
00000050: 150f 0cbf 6413 15bf 47f2 1bbf 2c58 c5bd
00000060: d792 7ebe 2432 91bd 6bc2 f73e 2e21 79be
00000070: 705e 93bb 13d4 62be b950 863d ece1 2b3d
00000080: ce67 2b3f d13a 873d 8824 24bf 18ed e83d
00000090: 5675 133e 1b35 803d 8d62 93be 55a2 533c
000000a0: 66b7 233e bdcd 2dbe 0259 87be 0771 ad3e
000000b0: 32e7 05bf 2407 6a3e 2dad 37bd 5769 0cbf
000000c0: 2f3b 13bf a958 97be 809d 84be 74ea 113f
000000d0: 6909 e83d 5855 a93e 4338 f63e ba22 86bd
000000e0: 4e2b dabb af95 8e3e 145a e8be 52dc f33c
000000f0: c4ca f5bd 0c22 22be 5e9c bf3e 11bb 1abe
00000100: e021 0bbe 58ee 6cbf c244 923e 79c0 01be
00000110: 50a3 66bf c3d0 893d 8559 823c e96c 043f
00000120: f2e5 463e 3946 22bf 5eb6 ec3e b703 893e
00000130: 55c0 cc3e 2eaf babe b976 98bc 61fd eabe
00000140: c1a3 dfbd b116 0dbe 38c3 cb3e f6cf 05be
00000150: e062 ee3d 4618 c63d 5693 013e 9e44 abbe
00000160: a6b7 093e 4ae1 eabe 153f 653e 9446 03bf
00000170: 4aa5 b9be 4095 ed3e d490 c53e 60d4 be3e
00000180: 09cf acbe 8bf6 b63d 8814 b53e dc97 b63e
00000190: fbd7 043f dcd6 36bd 0dbd a2be fac9 013f
000001a0: 408d 3c3e 8f7d 32be 4dad 2d3f c070 b7be
000001b0: b4fa 60bd 243a 0f3f ae6b 633e b301 033f
000001c0: 73d6 8cbe 95bb 47bf 6473 c63e a54b 1bbf
000001d0: 92e8 643e 376d 853e a2fe 3fbe 4f2b d83e
000001e0: 9eb7 ddbe e4da 0d3d 124b 5d3e 6359 98bd
000001f0: 58ed 20bf ff13 5abc 0011 a1bc 002a 6fbf

_network.1.running_var f4 [128]
0.012127509 0.045803808 0.008083218 0.019318927 0.024081688 0.01591452 0.019831054 0.0049144947
0.010541926 0.013111435 0.011093113 0.01688409 0.0043073753 0.013466258 0.010116616 0.00859922
0.009699669 0.02239294 0.029038662 0.011654064 0.010772377 0.015139552 0.008914277 0.008611682
0.0063778404 0.016979769 0.0076658074 0.017937766 0.0072679427 0.032370184 0.027775362 0.008802581
0.01901212 0.01749318 0.0044053914 0.06075591 0.01841013 0.003149074 0.024058707 0.0006912156
0.013266687 0.009431263 0.013111255 0.0067368974 0.009360093 0.009724484 0.012881651 0.013559005
0.004085717 0.007867316 0.008498165 0.008382381 0.007953158 0.00792106 0.018648155 0.052863814
0.00469278 0.03828284 0.028602626 0.005349686 0.008971679 0.0034279071 0.014795597 0.011419862
0.018218895 0.013916488 0.030114925 0.0033896873 0.010427571 0.03214996 0.024465773 0.045140438
0.0066255303 0.02001078 0.008572015 0.036906347 0.022131614 0.022611983 0.00994974 0.017322432
0.0032727313 0.00995373 0.00963988 0.0052657677 0.0046482203 0.009500829 0.01534474 0.0022010307
0.016238933 0.054647524 0.010150883 0.013427603 0.018143808 0.016895501 0.007543013 0.005937632
0.0060770446 0.0107255485 0.0013577386 0.0044342503 0.00952382 0.0061348397 0.010514871 0.009731759
0.009668668 0.0049562394 0.010529063 0.016674126 0.00994789 0.015649574 0.0040972554 0.015988948
0.015179548 0.021289809 0.011582962 0.0029077686 0.022846228 0.0026322834 0.0075823995 0.008787264
0.012485145 0.010442488 0.0101510165 0.025947426 0.009693768 0.016245298 0.023850093 0.0137063395
00000000: 76b2 463c c69c 3b3d 796f 043c ba42 9e3c
00000010: f646 c53c 2b5f 823c bc74 a23c c509 a13b
00000020: 0bb8 2c3c 58d1 563c e3bf 353c 8150 8a3c
00000030: e224 8d3b 94a1 5c3c 2ac0 253c bee3 0c3c
00000040: 5ceb 1e3c 6671 b73c 7de2 ed3c b0f0 3e3c
00000050: a07e 303c e20b 783c 300d 123c 0318 0d3c
00000060: 34fd d03b 2819 8b3c 7431 fb3b 39f2 923c
00000070: ec27 ee3b 9996 043d 2889 e33c b338 103c
00000080: 4ebf 9b3c dc4d 8f3c 1a5b 903b 30db 783d
00000090: d7d0 963c b260 4e3b c416 c53c b232 353a
000000a0: 855c 593c 9685 1a3c 97d0 563c 31c1 dc3b
000000b0: 135b 193c 7153 1f3c 8f0d 533c 9726 5e3c
000000c0: 7ae1 853b eae5 003c e33b 0b3c 4156 093c
000000d0: f64d 023c 55c7 013c 04c4 983c ba87 583d
000000e0: e4c5 993b 78ce 1c3d 0e50 ea3c 6b4c af3b
000000f0: f3fd 123c bda6 603b 3b69 723c 5f1a 3b3c
00000100: cb3f 953c fb01 643c 93b3 f63c 8425 5e3b
00000110: 67d8 2a3c adaf 033d 726c c83c 2ee5 383d
00000120: fa1a d93b a6ed a33c a371 0c3c 1c2b 173d
00000130: 5c4d b53c c43c b93c 3c04 233c c6e7 8d3c
00000140: 527b 563b f814 233c 96f0 1d3c 768c ac3b
00000150: 1950 983b 5da9 1b3c 8168 7b3c 2b3f 103b
00000160: 8307 853c 15d6 5f3d e44f 263c 73ff 5b3c
00000170: 53a2 943c 6f68 8a3c 612b f73b 7890 c23b
00000180: f221 c73b 36ba 2f3c 26f6 b13a 304d 913b
00000190: cc09 1c3c c406 c93b 9146 2c3c f571 1f3c
000001a0: 5569 1e3c f367 a23b 1782 2c3c 2d98 883c
000001b0: 7afc 223c 8933 803c 4542 863b 41fb 823c
000001c0: a4b3 783c f767 ae3c 77c6 3d3c 4390 3e3b
000001d0: 0328 bb3c 6382 2c3b c775 f83b 75f8 0f3c
000001e0: 7e8e 4c3c f816 2b3c 7350 263c b28f d43c
000001f0: 9cd2 1e3c dc14 853c 4561 c33c 8e90 603c

_network.3.weight f4 [128, 128]
-0.062142566 0.06915265 0.07490254 0.032956686 -0.05213151 -0.038803417 -0.043014716 0.002879269
-0.0701015 0.0064873337 0.026034653 -0.045701444 0.014079367 -0.025487056 0.062551804 0.0490447
-0.06287796 -0.08715563 0.027537417 0.05373296 -0.04707631 0.11450078 0.004753145 0.042153522
0.025868993 -0.076957315 0.091722295 -0.08794269 -0.047186054 -0.03365932 -0.05405907 0.08889162
0.017213283 0.019439086 -0.06591933 0.043737777 -0.015619308 -0.01124458 -0.007135324 0.05850372
0.07704443 -0.031907704 -0.015923718 0.06032706 0.048254654 0.039311904 0.09772376 -0.07610627
0.05591976 0.066611856 0.00057719275 0.09173553 0.07411327 0.030408652 -0.04743548 -0.054067276
-0.019791612 -0.0057566594 0.019902991 -0.012546607 0.01566467 0.017406793 0.11843368 0.013400211
-0.07712158 -0.0205714 -0.05299043 0.07023871 -0.057359863 -0.0031297132 0.003328859 -0.038748812
0.04985628 -0.105062746 -0.0119218 -0.08642079 -0.0767414 -0.084100425 -0.0047510765 -0.009445106
0.059836246 0.13056944 0.046370063 -0.00938982 -0.053472944 0.0132685155 -0.09147935 0.10718167
0.09080399 0.025956323 0.06275288 0.058282845 0.011884536 -0.06192497 0.11217412 -0.008789855
-0.08929341 0.11364095 0.11105543 0.05411397 0.00019261942 -0.1055516 -0.018139869 0.114656456
0.05303426 0.039695367 -0.03537104 -0.030581728 0.054450784 -0.02095314 0.058766317 0.0062088445
0.06326556 0.044194654 0.040642202 0.067248404 0.0067456854 0.080967695 0.1054008 -0.0041575087
-0.07891503 0.03903752 0.054689053 -0.021972785 -0.015718875 -0.022191621 0.06388787 0.051724244
-0.034699 -0.025704166 -0.034333568 -0.03543775 0.08074159 0.039513804 0.10641738 0.011875101
0.025036037 0.024394844 -0.103431776 0.024187801 0.0031945852 -0.0554814 -0.061585598 0.076427974
0.06400257 0.03929813 0.09546608 -0.06334585 -0.015726663 0.021407256 -0.018526228 -0.047368407
-0.07558989 0.018400745 -0.05921414 -0.0026544926 0.119916536 -0.019010961 -0.02659521 0.049134713
-0.042524263 0.009126734 0.090863846 -0.027636208 -0.06944995 -0.047355972 -0.017851721 -0.058245912
-0.03465779 0.037292268 0.03382847 -0.03748581 -0.11637852 -0.043407667 -0.048223846 -0.039246976
-0.07568531 0.012832527 -0.0687328 -0.09035049 -0.061699722 0.02806506 -0.036644507 -0.02722373
0.06810743 0.06481176 0.051528607 -0.08635505 -0.075071394 -0.03038304 0.08473964 -0.008790601
-0.05801428 -0.011853851 -0.06827161 -0.023586214 -0.039928406 0.06907526 0.035865795 -0.022615066
0.018375922 -0.02998292 0.021699572 0.038451616 0.044340376 -0.024317853 0.0849192 -0.0036913867
-0.054389246 0.05802696 0.06995407 0.08516389 0.034316763 -0.023122255 0.045713387 0.087362
-0.105943285 0.0009677067 -0.052053176 0.03172346 0.034163814 -0.02507553 0.0068177716 0.055852205
-0.024431475 -0.09705851 0.07418111 -0.04226803 -0.011627956 0.014841525 0.0071206866 -0.1215327
0.019486887 -0.04940169 -0.02537683 0.026850885 -0.04442781 -0.035977747 -0.04033393 -0.053479027
-0.042805895 -0.035321843 0.021835385 -0.06447554 -0.030285519 0.02276335 0.0039277673 0.02739078
-0.06398261 0.021254797 0.06726798 0.04841843 -0.08061856 -0.03966247 -0.066603824 -0.057124507
00000000: 3489 7ebd e89f 8d3d 8166 993d 97fd 063d
00000010: da87 55bd 55f0 1ebd 3330 30bd 1eb2 3c3b
00000020: 6091 8fbd b393 d43b a046 d53c 7031 3bbd
00000030: 25ad 663c 3bca d0bc 291b 803d 18e3 483d
00000040: 29c6 80bd a77e b2bd 2696 e13c 1817 5c3d
00000050: 17d3 40bd 637f ea3d 45c0 9b3b 2ca9 2c3d
00000060: 36eb d33c cc9b 9dbd e6d8 bb3d 4c1b b4bd
00000070: 2a46 41bd 5bde 09bd 0b6d 5dbd cf0c b63d
00000080: df02 8d3c b83e 9f3c b700 87bd 6226 333d
00000090: 20e8 7fbc 303b 38bc 70cf e9bb 99a1 6f3d
000000a0: 78c9 9d3d a7b1 02bd 7572 82bc 8219 773d
000000b0: aca6 453d 8505 213d 6523 c83d 9bdd 9bbd
000000c0: 1e0c 653d cc6b 883d c04e 173a d6df bb3d
000000d0: b3c8 973d 911b f93c b54b 42bd a675 5dbd
000000e0: 0522 a2bc 5ca2 bcbb 990b a33c 4990 4dbc
000000f0: 3253 803c b198 8e3c 5b8d f23d 8f8c 5b3c
00000100: ebf1 9dbd 5a85 a8bc 7e0c 59bd 50d9 8f3d
00000110: 2df2 6abd e01b 4dbb fd28 5a3b 13b7 1ebd
00000120: 1936 4c3d 232b d7bd a753 43bc 62fd b0bd
00000130: 982a 9dbd d83c acbd ebae 9bbb a5bf 1abc
00000140: da16 753d ffb3 053e 89ee 3d3d c2d7 19bc
00000150: 7206 5bbd 3064 593c 8759 bbbd 1082 db3d
00000160: 71f7 b93d 5ba2 d43c 9584 803d feb9 6e3d
00000170: 5bb7 423c 0aa5 7dbd 8cbb e53d 5303 10bc
00000180: 77df b6bd 96bc e83d 0771 e33d 9ca6 5d3d
00000190: e2f9 4939 702b d8bd 109a 94bc 01d1 ea3d
000001a0: 743a 593d 9c97 223d 39e1 10bd 8886 fabc
000001b0: c907 5f3d eba5 abbc f3b4 703d 9073 cb3b
000001c0: 6091 813d 7405 353d 7078 263d 88b9 893d
000001d0: e90a dd3b 64d2 a53d 60dc d73d b63b 88bb
000001e0: 349e a1bd cee5 1f3d a101 603d 4500 b4bc
000001f0: dfc4 80bc 34cb b5bc a5d7 823d cddc 533d
00000200: 8a20 0ebd 8b91 d2bc 5ba1 0cbd 2d27 11bd
00000210: d95b a53d 3ad9 213d 5bf1 d93d c98f 423c
00000220: 6018 cd3c b2d7 c73c 0ad4 d3bd 7f25 c63c
00000230: 3f5c 513b 7740 63bd 2e41 7cbd 4586 9c3d
00000240: c813 833d 13f7 203d b883 c33d 78bb 81bd
00000250: 34d5 80bc 455e af3c 51c4 97bc 6005 42bd
00000260: dfce 9abd 29bd 963c 878a 72bd fff6 2dbb
00000270: cd96 f53d e0bc 9bbc 33de d9bc 7b41 493d
00000280: ec2d 2ebd 4c88 153c d316 ba3d 5465 e2bc
00000290: c63b 8ebd 56f8 41bd c63d 92bc 4493 6ebd
000002a0: 54f5 0dbd c7bf 183d b98f 0a3d b98a 19bd
000002b0: dd57 eebd 3dcc 31bd 5e86 45bd 70c1 20bd
000002c0: e600 9bbd 853f 523c c8c3 8cbd ad09 b9bd
000002d0: d9b8 7cbd b2e8 e53c 8d18 16bd 4d04 dfbc
000002e0: e97b 8b3d 07bc 843d a90f 533d ebda b0bd
000002f0: 08bf 99bd dae5 f8bc fa8b ad3d 7406 10bc
00000300: 62a0 6dbd a836 42bc fcd1 8bbd e037 c1bc
00000310: f88b 23bd 5477 8d3d 03e8 123d 3b43 b9bc
00000320: 1a89 963c be9e f5bc 4dc3 b13c 717f 1d3d
00000330: 419e 353d 3c36 c7bc 1eea ad3d 31eb 71bb
00000340: 42c7 5ebd adad 6d3d 1444 8f3d 686a ae3d
00000350: bc8f 0c3d e26a bdbc f63d 3b3d d9ea b23d
00000360: cbf8 d8bd b3ad 7d3a b635 55bd 75f0 013d
00000370: 5bef 0b3d 336b cdbc 9d67 df3b 48c5 643d
00000380: 8424 c8bc 9dc6 c6bd 44ec 973d 3e21 2dbd
00000390: 2f83 3ebc de29 733c a654 e93b 23e6 f8bd
000003a0: f7a2 9f3c 6d59 4abd 12e3 cfbc 63f6 db3c
000003b0: eff9 35bd 675d 13bd 3135 25bd d30c 5bbd
000003c0: 3c55 2fbd a3ad 10bd 1fe0 b23c c00b 84bd
000003d0: 5619 f8bc 347a ba3c 80b4 803b a162 e03c
000003e0: 5109 83bd 8a1e ae3c cbc3 893d 6752 463d
000003f0: 581b a5bd 1d75 22bd 9667 88bd 63fb 69bd

_network.3.bias f4 [128]
-0.005551377 -0.05779181 -0.045565926 0.05080222 -0.054136865 -0.043479383 0.045138348 -0.04493967
-0.06831761 0.019717013 0.038037285 -0.080162786 0.01126577 -0.068138294 0.037296668 0.048281398
0.02958649 0.08630199 -0.017163664 -0.035168692 0.023958828 0.026562216 -0.039433815 -0.058288064
-0.026993837 0.036775503 0.037394892 -0.039105203 0.074664995 -0.065762416 -0.010267388 0.021540338
-0.06369458 0.0803474 -0.04336511 0.05240256 0.0036872025 -0.049635403 0.08257349 -0.009939699
0.015716197 0.0832463 -0.0831454 0.07112201 -0.043752633 -0.07169101 0.04919224 -0.027174318
-0.070509695 -0.043385588 0.057067677 0.038793452 -0.0043152007 0.045460664 0.017556503 -0.066238746
0.017020721 0.06299572 -0.007981976 -0.0100815715 0.0867523 -0.025100814 0.08232765 0.07731794
0.07137399 0.023539029 0.024227805 0.022732744 -0.08105075 -0.035013925 -0.04962599 -0.01302254
-0.04417672 -0.028523272 -0.060197655 -0.06420581 0.028574817 0.08629056 -0.035887122 -0.058626983
-0.029639393 -0.0333792 -0.08607782 0.077671595 0.0600327 0.06553664 -0.045648765 -0.05841703
0.084886186 -0.05341156 -0.07426912 -0.07366029 0.027002377 -0.011809601 -0.054114167 0.07519568
-0.04885489 0.0056218575 0.044049997 0.04224185 0.07397689 -0.010928057 0.04563239 -0.007092632
0.011606772 -0.05187762 0.054749638 0.020068318 0.017673178 -0.0068032956 0.035844333 -0.0855708
0.07231946 0.06960511 0.04739163 -0.003288991 -0.082449086 -0.023903383 -0.07089411 -0.04241926
0.06950745 -0.010044473 0.08803773 -0.044623576 -0.041215397 -0.07081172 0.033577673 0.032766044
00000000: 53e8 b5bb 1bb7 6cbd 56a3 3abd fd15 503d
00000010: 9ebe 5dbd 7017 32bd fde2 383d a912 38bd
00000020: 1aea 8bbd 9385 a13c fccc 1b3d 632c a4bd
00000030: 1094 383c 178c 8bbd 64c4 183d b7c2 453d
00000040: 5e5f f23c 19bf b03d d09a 8cbc 0c0d 10bd
00000050: 4e45 c43c 0199 d93c 5a85 21bd 77bf 6ebd
00000060: 2e22 ddbc e9a1 163d 632b 193d c72c 20bd
00000070: f6e9 983d 72ae 86bd 8c38 28bc 5d75 b03c
00000080: 4e72 82bd 2d8d a43d 9d9f 31bd 11a4 563d
00000090: fea4 713b 7e4e 4bbd 4a1c a93d 1fda 22bc
000000a0: 41bf 803c 097d aa3d 2348 aabd 6ba8 913d
000000b0: f635 33bd bcd2 92bd cd7d 493d ad9c debc
000000c0: 6367 90bd 16b5 31bd ccbf 693d e2e5 1e3d
000000d0: 8766 8dbb f634 3a3d a8d2 8f3c 2ea8 87bd
000000e0: 0a6f 8b3c e603 813d d5c6 02bc 2d2d 25bc
000000f0: 31ab b13d 39a0 cdbc 669b a83d de58 9e3d
00000100: 872c 923d ecd4 c03c 6479 c63c 053a ba3c
00000110: f0fd a5bd c36a 0fbd 9f44 4bbd 7e5c 55bc
00000120: a6f2 34bd a3a9 e9bc d191 76bd 567e 83bd
00000130: bc15 ea3c 1bb9 b03d 60fe 12bd d922 70bd
00000140: 50ce f2bc a1b8 08bd 9149 b0bd 4912 9f3d
00000150: d9e4 753d 1338 863d 33fa 3abd b246 6fbd
00000160: cfd8 ad3d 14c6 5abd 691a 98bd 35db 96bd
00000170: 1734 dd3c 0f7d 41bc d1a6 5dbd 3100 9a3d
00000180: 111c 48bd 8f37 b83b c56d 343d ca05 2d3d
00000190: 3281 973d 980b 33bc 07e9 3a3d 4f69 e8bb
000001a0: 552a 3e3c a17d 54bd 2841 603d 5066 a43c
000001b0: 57c7 903c 2eee debb 82d1 123d be3f afbd
000001c0: 3a1c 943d 208d 8e3d ba1d 423d 1d8c 57bb
000001d0: 11db a8bd 07d1 c3bc ee30 91bd d1bf 2dbd
000001e0: ec59 8e3d 9391 24bc 204d b43d 36c7 36bd
000001f0: 7ad1 28bd bc05 91bd be88 093d b035 063d

_network.4.weight f4 [128]
1.0046828 0.9667756 0.98031783 0.9880708 0.9799149 0.9968142 0.96743906 0.9632468
0.9284928 1.0278529 0.9582953 0.9436456 0.970607 1.0060736 0.98876 0.9462255
0.9909871 1.0110234 0.97240543 0.97175944 1.0300162 1.0421875 1.0257231 1.0020465
1.0257369 0.9654016 1.0010375 0.9978418 1.0019176 0.99127483 1.04985 1.0087385
0.9856882 0.9877585 0.9879742 0.9800657 0.99452466 1.0163416 1.0014961 0.96300304
0.9965146 1.004813 0.96860653 0.99357784 0.97781146 0.9999436 1.0061911 0.97247607
0.9584918 0.96368474 0.9766091 0.96487683 0.9725038 0.94029754 0.95987946 0.99023867
0.9819683 0.9930922 0.9973945 0.97686315 0.97382486 1.012807 1.001241 1.0455633
0.9722181 0.9726409 0.9687976 0.9885548 1.0593318 0.97661537 1.0354172 0.9708996
0.9837604 0.98439944 1.029637 1.0101135 1.0137886 0.98331803 1.0150788 1.0091348
0.9676985 0.98840123 0.99953544 0.9611935 0.97787154 0.9890265 1.0419587 0.97046894
1.0208945 0.9945138 1.0043962 1.0071508 0.9965511 0.9833374 0.99497896 1.0093603
0.9616781 1.0036482 0.9583845 1.0042502 0.9793129 0.99693274 0.9970526 0.95517826
0.9746862 0.9980738 0.98895735 1.020521 0.9840369 1.0181494 1.0411475 0.9539185
1.0092888 1.0535794 1.0024186 0.996763 1.0194113 1.0143992 1.0041149 0.98269546
1.0264363 0.98945427 0.92450374 0.98417765 1.0183077 0.948844 1.049929 1.0100665
00000000: 7299 803f 9b7e 773f 1cf6 7a3f 35f2 7c3f
00000010: b4db 7a3f 372f 7f3f 16aa 773f 5897 763f
00000020: b4b1 6d3f af90 833f d752 753f c292 713f
00000030: b379 783f 05c7 803f 601f 7d3f d63b 723f
00000040: 55b1 7d3f 3769 813f 90ef 783f 3ac5 783f
00000050: 92d7 833f 6666 853f e54a 833f 0f43 803f
00000060: 594b 833f 8f24 773f ff21 803f 8f72 7f3f
00000070: d63e 803f 30c4 7d3f 7c61 863f 581e 813f
00000080: 1056 7c3f bedd 7c3f e1eb 7c3f 96e5 7a3f
00000090: 2b99 7e3f 7b17 823f 0631 803f 5e87 763f
000000a0: 951b 7f3f b69d 803f 99f6 773f 1e5b 7e3f
000000b0: da51 7a3f 4efc 7f3f dfca 803f 31f4 783f
000000c0: b85f 753f 0bb4 763f 0e03 7a3f 2b02 773f
000000d0: 02f6 783f 57b7 703f a9ba 753f 4880 7d3f
000000e0: 4662 7b3f 4a3b 7e3f 3f55 7f3f b413 7a3f
000000f0: 964c 793f a9a3 813f aa28 803f 05d5 853f
00000100: 49e3 783f fefe 783f 1f03 783f ed11 7d3f
00000110: 2f98 873f 7703 7a3f 8d88 843f e08c 783f
00000120: b9d7 7b3f 9a01 7c3f 25cb 833f 664b 813f
00000130: d3c3 813f bbba 7b3f 1aee 813f 542b 813f
00000140: 17bb 773f dd07 7d3f 8ee1 7f3f c710 763f
00000150: ca55 7a3f d730 7d3f e75e 853f a770 783f
00000160: acac 823f 7598 7e3f 0e90 803f 51ea 803f
00000170: f91d 7f3f 00bc 7b3f f1b6 7e3f b832 813f
00000180: 8930 763f 8b77 803f b058 753f 458b 803f
00000190: 40b4 7a3f fc36 7f3f d73e 7f3f 9086 743f
000001a0: 0985 793f c481 7f3f 4f2c 7d3f 6fa0 823f
000001b0: d8e9 7b3f b852 823f 5244 853f 0134 743f
000001c0: 6030 813f b1db 863f 414f 803f dc2b 7f3f
000001d0: 127c 823f d5d7 813f d686 803f ee91 7b3f
000001e0: 4462 833f e04c 7d3f 47ac 6c3f 11f3 7b3f
000001f0: e857 823f 71e7 723f 1364 863f dc49 813f

_network.4.bias f4 [128]
-0.031195588 -0.037672512 -0.007453896 -0.04984081 -0.016642397 -0.03323302 -0.028819047 -0.040059105
-0.0383218 0.012000082 -0.006864504 0.0008027528 -0.028203605 -0.06766073 -0.018526744 -0.04717624
-0.0015835458 0.013982649 -0.01485439 -0.012432891 0.058482267 0.040282138 0.03967552 0.040104896
0.017584292 -0.027756736 -0.012100576 -0.0015857015 0.026888257 0.01911724 -0.08678354 0.0010021914
-0.003359477 0.012331684 0.00969575 0.017754797 0.017839449 -0.063881904 -0.012390899 -0.015897015
0.0068469066 0.048572835 -0.024985945 -0.055114463 -0.05728613 0.030307176 -0.09255111 -0.003395446
-0.009653368 -0.02344295 -0.036216047 -0.016907923 -0.03605017 -0.014770069 -0.03859178 0.019851383
-0.0018154802 -0.013121199 -0.060801428 -0.0027990413 -0.018889872 -0.066585094 -0.0032626956 -0.0955771
-0.03672468 -0.014718439 -0.010846459 0.029792942 -0.13154732 -0.012463221 0.058615748 -0.0095972065
-0.00037723538 -0.027935429 0.03334442 0.0047998587 0.040657114 -0.0062763775 0.028792683 -0.008599615
-0.06663496 0.019399406 0.00741886 -0.013161835 -0.108953476 -0.0049554016 0.05489773 -0.0076566203
0.046360888 0.022388047 0.008810235 0.015737459 0.020884177 -0.05503669 0.010370562 -0.016844992
-0.087794855 0.018413411 0.005776482 -0.0115899965 0.00784416 0.016182296 -0.029139467 0.0045481836
-0.015217431 0.012567808 -0.058719795 0.037077114 -0.0036616186 -0.037166256 -0.12450226 -0.053715225
-0.014863716 -0.11016358 0.020753875 -0.06290329 0.009229194 0.018495234 -0.058166254 -0.015756411
0.015418109 -0.0044794246 -0.027257593 -0.040382747 0.008930635 -0.052442916 0.06277824 -0.04657398
00000000: e48d ffbc 7e4e 1abd d03f f4bb e125 4cbd
00000010: a355 88bc 591f 08bd ec15 ecbc 0415 24bd
00000020: 52f7 1cbd fe9b 443c a2ef e0bb d46f 523a
00000030: 3f0b e7bc b591 8abd 66c5 97bc df3b 41bd
00000040: fb8e cfba 7b17 653c d45f 73bc 53b3 4bbc
00000050: 1a8b 6f3d e2fe 243d cc82 223d 0845 243d
00000060: ef0c 903c 1862 e3bc 7f41 46bc 50d7 cfba
00000070: c344 dc3c c29b 9c3c 92bb b1bd f75b 833a
00000080: ac2a 5cbb d50a 4a3c ecda 1e3c 8272 913c
00000090: 0924 923c 84d4 82bd 3203 4bbc 753a 82bc
000000a0: 045c e03b 4ff4 463d 53af ccbc b4bf 61bd
000000b0: dca4 6abd c146 f83c 708b bdbd 2286 5ebb
000000c0: 2929 1ebc 6e0b c0bc 4757 14bd 7c82 8abc
000000d0: 58a9 13bd 29fe 71bc 6a12 1ebd 5e9f a23c
000000e0: 68f5 edba 4cfa 56bc eb0a 79bd 1f70 37bb
000000f0: efbe 9abc c45d 88bd f3d2 55bb edbd c3bd
00000100: 9e6c 16bd 9c25 71bc 59b5 31bc 5410 f43c
00000110: 57b4 06be 8a32 4cbc 1117 703d 9a3d 1dbc
00000120: adc7 c5b9 d7d8 e4bc 2994 083d 2248 9d3b
00000130: 1388 263d 12aa cdbb a2de eb3c 66e5 0cbc
00000140: e977 88bd 81eb 9e3c e919 f33b bda4 57bc
00000150: 0023 dfbd ec60 a2bb 71dc 603d 63e4 fabb
00000160: eae4 3d3d 2367 b73c ce58 103c d8eb 803c
00000170: 4b15 ab3c 276e 61bd 4ae9 293c 82fe 89bc
00000180: cacd b3bd b9d7 963c a548 bd3b f8e3 3dbc
00000190: cb84 003c bc90 843c e4b5 eebc ee08 953b
000001a0: 8852 79bc 35e9 4d3c 2b84 70bd 2cde 173d
000001b0: c4f7 6fbb a53b 18bd 0afb febd 7f04 5cbd
000001c0: f286 73bc 719d e1bd 0804 aa3c 71d3 80bd
000001d0: 0c36 173c 5183 973c bd3f 6ebd 9713 81bc
000001e0: 3c9c 7c3c 23c8 92bb 514b dfbc 6168 25bd
000001f0: cc51 123c 62ce 56bd e191 803d 5cc4 3ebd

_network.4.running_mean f4 [128]
0.5281703 -0.4181217 0.36966404 0.90588015 -0.3408265 0.30034631 -0.16842732 0.3206786
-0.07834495 -0.8887642 0.5933937 -0.84166056 -1.0198019 0.4538061 -0.29007852 0.31851545
-0.11958471 -0.10147533 -1.0166268 -0.21015495 -0.35054713 -0.49067107 -0.23740007 -0.30582932
-0.17131768 0.6493707 0.020298276 0.34176874 -1.2035712 -0.504967 0.85367066 -0.27338135
-0.41221356 0.30647513 -0.12039498 -0.17748342 -0.31638318 1.0597539 0.013509746 0.10949297
-0.58959866 -0.49834612 -0.3823861 -0.119506136 0.81627405 -0.12956527 1.1683371 -0.31770563
-0.261498 -0.089735255 -0.2708453 -0.20500489 0.5649795 -0.6097818 -0.8056172 -0.44992918
-0.39949483 -0.011087999 0.697436 -0.04647173 -0.3099916 0.2561673 -0.0066328524 0.40886486
0.73319894 0.08060849 -0.11405109 -0.62560403 0.921643 -0.12570359 -0.5718651 -0.49097314
-0.30115554 -0.1569261 -0.82361907 -0.8401066 -0.42270565 -0.27637276 -0.5565995 0.019953657
-0.048864413 -0.24788406 -0.6749444 -0.15498602 0.99618024 -0.275278 -0.29443827 -0.4730813
-0.090164766 -0.60731995 -0.3087316 -0.3149219 -0.14067411 0.44075608 -0.46834382 0.35627186
0.13994996 -0.49795684 -0.3490334 -0.4379665 -1.0193948 -0.18877587 0.10732816 0.5828804
-0.26759243 -0.071486324 0.14035349 -0.90556264 -0.6259483 -0.3147131 1.0441229 0.057357594
-0.27949655 1.0308932 -0.6757925 0.93215644 -0.7432933 -0.59712815 0.8652082 0.25239316
0.20504576 -0.17585379 -0.18431547 -0.5725471 -0.3351124 0.46264368 -0.4257671 0.91222084
00000000: 2b36 073f 0c14 d6be 9b44 bd3e c3e7 673f
00000010: d080 aebe fec6 993e 3678 2cbe fc2f a43e
00000020: 5173 a0bd 0d86 63bf a6e8 173f 1177 57bf
00000030: de88 82bf 4659 e83e 2c85 94be 7514 a33e
00000040: d4e8 f4bd 4cd2 cfbd d420 82bf dc32 57be
00000050: ea7a b3be 3d39 fbbe 0119 73be a995 9cbe
00000060: e76d 2fbe 283d 263f 9248 a63c 50fc ae3e
00000070: 9f0e 9abf 8445 01bf 298a 5a3f a4f8 8bbe
00000080: a80d d3be 4fea 9c3e a591 f6bd 37be 35be
00000090: fafc a1be 04a6 873f fb57 5d3c da3d e03d
000000a0: f0ef 16bf 3927 ffbe 1cc8 c3be a2bf f4bd
000000b0: 56f7 503f c2ac 04be 128c 953f 50aa a2be
000000c0: 11e3 85be 1ec7 b7bd 3cac 8abe cdec 51be
000000d0: 7fa2 103f a91a 1cbf ee3c 4ebf 1e5d e6be
000000e0: 968a ccbe 70aa 35bc 2a8b 323f 2459 3ebd
000000f0: 38b7 9ebe 5c28 833e 6658 d9bb bc56 d13e
00000100: edb2 3b3f 1016 a53d 9e93 e9bd 9627 20bf
00000110: ccf0 6b3f 71b8 00be c065 12bf d560 fbbe
00000120: 0f31 9abe 3cb1 20be b3d8 52bf 3a11 57bf
00000130: e06c d8be bb80 8dbe 4e7d 0ebf da75 a33c
00000140: 0d26 48bd 52d5 7dbe 28c9 2cbf a8b4 1ebe
00000150: ab05 7f3f 3df1 8cbe 9dc0 96be b637 f2be
00000160: 4ea8 b8bd 5279 1bbf 1112 9ebe 713d a1be
00000170: e00c 10be c8aa e13e c3ca efbe 4469 b63e
00000180: 0b4f 0f3e 33f4 febe 81b4 b2be 253d e0be
00000190: 877b 82bf 764e 41be dece db3d a637 153f
000001a0: e001 89be 6c67 92bd d3b8 0f3e f4d2 67bf
000001b0: 263e 20bf 1322 a1be d2a5 853f ccef 6a3d
000001c0: 2c1a 8fbe 4ff4 833f bd00 2dbf cea1 6e3f
000001d0: 7848 3ebf 64dd 18bf 497e 5d3f ad39 813e
000001e0: 84f7 513e 0413 34be 32bd 3cbe 7292 12bf
000001f0: da93 abbe a2df ec3e 25fe d9be 4e87 693f

_network.4.running_var f4 [128]
0.28352115 0.263661 0.25077987 0.26729986 0.15125827 0.26360595 0.13757326 0.5221904
0.251857 0.2121179 0.23152417 0.358803 1.194556 0.63502616 0.6077228 0.3849447
0.108357966 0.3753823 0.5064598 0.2734746 0.21695632 0.16854261 0.12751289 0.2224182
0.15947515 0.5115733 0.17944144 0.26883346 0.28850156 0.17858046 0.61045295 0.16163677
0.42407206 0.54390764 0.26644933 0.5360405 0.3808588 0.34434396 0.33750865 0.54081124
0.8429614 0.35371822 0.2525839 0.86722475 0.2839794 0.22905116 0.23267142 0.20360322
0.66002744 0.5010267 0.17632027 0.58896035 0.5014272 1.0690254 0.59948504 0.24982426
1.1339207 0.36682183 0.26231396 0.35172558 0.49586347 0.34500566 0.18344794 0.30768517
0.2673936 0.8802954 0.2945119 0.36638236 0.26563722 0.47046423 0.6021104 0.43665466
0.59081024 0.2908485 0.30835685 0.25343928 0.096456446 0.43524256 0.2310032 0.14236933
0.29094753 0.31626993 0.5246127 0.20462659 0.7581294 0.7926183 0.3521181 0.32307255
0.2839305 0.24420987 0.2136529 0.08873181 0.52759874 0.35832462 0.26022628 0.11874275
0.4432627 0.12233923 0.59109426 0.47996315 0.6397966 0.23105443 0.68714154 0.18327846
0.65205777 0.2817362 0.16448742 0.31428504 0.5072424 0.22703046 0.316299 0.1852804
0.21666129 0.4481107 0.17246798 0.30700952 0.122430906 0.3652419 0.4925215 0.29006845
0.24621396 0.11910628 0.20733558 0.6229329 0.13180377 0.2829198 0.11373544 0.7982276
00000000: af29 913e 93fe 863e 3866 803e 87db 883e
00000010: 73e3 1a3e 5cf7 863e 01e0 0c3e 45ae 053f
00000020: 67f3 803e 6f35 593e ac14 6d3e 07b5 b73e
00000030: 36e7 983f 1391 223f b993 1b3f 7917 c53e
00000040: c8ea dd3d 1c32 c03e 59a7 013f dd04 8c3e
00000050: cc29 5e3e 6f96 2c3e bd92 023e 99c1 633e
00000060: 744d 233e 78f6 023f 7fbf 373e 8aa4 893e
00000070: 7ab6 933e ccdd 363e a546 1c3f 1c84 253e
00000080: f91f d93e 883d 0b3f 0c6c 883e f339 093f
00000090: edff c23e da4d b03e efcd ac3e 9b72 0a3f
000000a0: 51cc 573f 8e1a b53e ad52 813e 7102 5e3f
000000b0: bf65 913e 638c 6a3e 6b41 6e3e 5d7d 503e
000000c0: 8ff7 283f 4943 003f 4d8d 343e 1bc6 163f
000000d0: 885d 003f d3d5 883f da77 193f eed1 7f3e
000000e0: 5024 913f 12d0 bb3e 044e 863e 6015 b43e
000000f0: d1e1 fd3e 95a4 b03e c7d9 3b3e e988 9d3e
00000100: d0e7 883e 0a5b 613f 44ca 963e 7896 bb3e
00000110: 9a01 883e b0e0 f03e e823 1a3f 3391 df3e
00000120: 573f 173f 18ea 943e f3e0 9d3e cbc2 813e
00000130: f58a c53d 1dd8 de3e 1a8c 6c3e 44c9 113e
00000140: 13f7 943e 22ee a13e 054d 063f a289 513e
00000150: c514 423f 08e9 4a3f d348 b43e c469 a53e
00000160: 575f 913e 2712 7a3e d3c7 5a3e 06b9 b53d
00000170: b610 073f 5376 b73e 613c 853e 662f f33d
00000180: 54f3 e23e fd8c fa3d f451 173f bbbd f53e
00000190: b6c9 233f 8899 6c3e 82e8 2f3f 59ad 3b3e
000001a0: 42ed 263f ba3f 903e 646f 283e f8e9 a03e
000001b0: a3da 013f ac7a 683e f1f1 a13e 25ba 3d3e
000001c0: 75dc 5d3e c46e e53e 729b 303e 5a30 9d3e
000001d0: 0ebd fa3d fc00 bb3e c72b fc3e da83 943e
000001e0: 831f 7c3e feed f33d c74f 543e 8878 1f3f
000001f0: 91f7 063e ddda 903e 20ee e83d a558 4c3f

_network.6.weight f4 [128, 128]
0.046666328 0.08558838 0.043100704 -0.076281615 0.025624609 0.09456036 0.04953905 0.06697681
-0.03168224 -0.052622378 0.09818024 0.019211149 0.04083133 -0.05873145 -0.009433636 0.053034812
0.058108628 -0.077884436 0.0343693 0.059994914 0.012827453 0.0042612217 -0.0049608108 0.07555285
-0.10266238 0.077872045 0.0010639688 0.051848505 -0.049558863 0.06304029 0.071200214 0.031754896
-0.006921482 -0.008176837 -0.09726099 -0.08840083 0.038489442 -0.080819964 -0.024650918 -0.04962883
-0.07416929 -0.025593033 -0.00055256864 -0.067179345 -0.074214645 -0.082821794 -0.008393657 0.020067621
0.04452637 -0.07967848 -0.0742069 -0.027089557 0.06230365 0.06755988 -0.0064898995 -0.015776867
0.017266482 0.030108197 -0.009528083 -0.03159601 0.009585556 -0.00048739932 0.06579805 -0.12077137
0.007494688 0.05239657 0.047747843 0.010513958 -0.063102804 0.0024037284 -0.033193145 0.083708726
0.04094575 -0.07745653 0.059593968 0.087600395 0.022938712 -0.09640476 0.041748177 0.09411492
-0.042380664 0.047672104 0.098169565 0.07301676 -0.086078115 0.04824965 -0.12779216 -0.066684656
-0.07243863 0.07571343 0.0638314 0.032722197 0.05197073 -0.118154086 -0.0027148274 -0.05759027
-0.10679789 -0.071582735 -0.10046631 -0.10044914 0.035367798 -0.042523365 0.010743598 -0.040599346
0.023708936 -0.10759679 -0.05567116 -0.090316564 0.031188637 0.0027886848 -0.07530523 -0.026845196
-0.009368586 -0.07254245 0.077121764 0.03706519 0.04014998 -0.035655126 0.024610361 0.010807878
-0.012426109 -0.008483748 -0.06737164 0.03228745 0.018556736 0.072343566 0.023361277 0.060237423
-0.050526105 -0.027304804 -0.08763131 0.084891975 -0.019808598 -0.092524536 0.05865775 -0.003894694
-0.06104139 0.08950566 -0.06725755 -0.0403344 -0.022002662 -0.002561016 -0.06944448 -0.016361592
-0.096437834 -0.084546946 -0.04819048 -0.07156145 -0.0010684915 -0.005319035 -0.059255783 -0.036047876
-0.030277273 -0.099475734 -0.055619165 -0.12824856 -0.09554184 -0.040697604 0.06380305 0.030766422
-0.041963253 0.032092933 0.052036658 -0.037220977 -0.020176493 -0.094015166 0.003101032 -0.03034743
0.02100667 -0.11520972 0.0050530294 0.025383072 -0.044161152 -0.012981938 0.07330106 0.021728922
-0.05414277 -0.06541965 0.030363603 0.04113208 -0.09540301 -0.04121537 -0.031913586 -0.07554871
-0.011590814 0.028208697 -0.04525751 -0.06898762 0.04443257 -0.08268994 -0.018223763 -0.10036713
-0.09616442 0.004656568 -0.007108295 0.06262839 0.07359563 -0.08625933 -0.06887086 0.032795705
-0.018958973 -0.090398364 -0.07921328 -0.055068243 0.00073890487 0.050994046 0.059938014 0.100151636
-0.069613814 0.08541534 -0.06140751 -0.08393481 -0.04163336 0.034822963 -0.02177703 -0.100696236
0.009794056 -0.024432108 0.045756813 -0.054916866 -0.061726898 0.0010332174 -0.04801153 -0.026592927
-0.01045224 0.062866725 -0.021018129 -0.04498914 -0.068292506 0.006984068 0.04941575 0.025823932
-0.09665973 0.0051452294 0.046733472 -0.00023726658 0.062198065 0.054524127 0.05502375 -0.006359851
-0.08062688 -0.10377458 0.07678422 -0.040343434 0.08956986 0.050430518 -0.094416715 0.056000404
-0.09947982 -0.07800054 0.045829665 0.092546746 0.015426533 0.046307538 -0.010273072 0.035475694
00000000: 3125 3f3d f648 af3d 5d8a 303d 8939 9cbd
00000010: b3ea d13c dda8 c13d 75e9 4a3d 232b 893d
00000020: 3dc5 01bd 908a 57bd b912 c93d b360 9d3c
00000030: c13e 273d 6490 70bd 8a8f 1abc 083b 593d
00000040: 5003 6e3d e081 9fbd d3c6 0c3d 3abd 753d
00000050: 3d2a 523c b8a1 8b3b 4c8e a2bb 74bb 9a3d
00000060: a740 d2bd 617b 9f3d de74 8b3a 195f 543d
00000070: 3cfe 4abd 441b 813d 6bd1 913d 6c11 023d
00000080: 99cd e2bb 24f8 05bc c530 c7bd 7f0b b5bd
00000090: 1ba7 1d3d f084 a5bd b9f0 c9bc 9a47 4bbd
000000a0: 12e6 97bd 7ba8 d1bc 41da 10ba 5395 89bd
000000b0: d9fd 97bd 799e a9bd 8d85 09bc da64 a43c
000000c0: 4861 363d 792e a3bd caf9 97bd ebea ddbc
000000d0: 1d32 7f3d d65c 8a3d 39a9 d4bb 7d3e 81bc
000000e0: 7072 8d3c 77a5 f63c ad1b 1cbc d16a 01bd
000000f0: bc0c 1d3c a189 ffb9 21c1 863d fb56 f7bd
00000100: 0096 f53b c99d 563d 3e93 433d bc42 2c3c
00000110: 0b3c 81bd df87 1d3b 89f5 07bd 7b6f ab3d
00000120: bbb6 273d 87a1 9ebd ce18 743d d667 b33d
00000130: f7e9 bb3c dc6f c5bd 2300 2b3d 53bf c03d
00000140: 5997 2dbd d343 433d 200d c93d d089 953d
00000150: b949 b0bd 6da1 453d f3db 02be f791 88bd
00000160: b45a 94bd a50f 9b3d 09ba 823d b607 063d
00000170: 43df 543d c5fa f1bd 3feb 31bb c6e3 6bbd
00000180: dab8 dabd f899 92bd 48c1 cdbd 47b8 cdbd
00000190: d3dd 103d fb2c 2ebd eb05 303c 804b 26bd
000001a0: 3e39 c23c b55b dcbd 7107 64bd e4f7 b8bd
000001b0: 507f ff3c 5ec2 363b a139 9abd 75ea dbbc
000001c0: b37e 19bc 2391 94bd 04f2 9d3d abd1 173d
000001d0: 4e74 243d 1c0b 12bd ab9b c93c 8713 313c
000001e0: e196 4bbc 6bff 0abc 24fa 89bd d83f 043d
000001f0: 4c04 983c dd28 943d 2660 bf3c 84bb 763d
00000200: 76f4 4ebd 53ae dfbc 0b78 b3bd d8db ad3d
00000210: a445 a2bc 817d bdbd 1c43 703d 1f3e 7fbb
00000220: 8906 7abd be4e b73d 54be 89bd af35 25bd
00000230: ed3e b4bc b8d6 27bb e838 8ebd bf08 86bc
00000240: 3381 c5bd f326 adbd 6163 45bd cf8e 92bd
00000250: a00c 8cba 4d4b aebb 31b6 72bd f0a6 13bd
00000260: 0b08 f8bc efb9 cbbd ecd0 63bd 9753 03be
00000270: 71ab c3bd 88b2 26bd 2cab 823d dd09 fc3c
00000280: a9e1 2bbd e173 033d 6424 553d 0675 18bd
00000290: 2c49 a5bc 068b c0bd af3a 4b3b 2c9b f8bc
000002a0: 2e16 ac3c 13f3 ebbd e293 a53b 29f0 cf3c
000002b0: 53e2 34bd 32b2 54bc de1e 963d da00 b23c
000002c0: cfc4 5dbd bdfa 85bd 17bd f83c 1d7a 283d
000002d0: a762 c3bd 73d1 28bd d2b7 02bd 48b9 9abd
000002e0: 66e7 3dbc ed15 e73c f05f 39bd 6249 8dbd
000002f0: edfe 353d 5859 a9bd 004a 95bc 488d cdbd
00000300: daf1 c4bd 2096 983b b3ec e8bb 5043 803d
00000310: 4eb9 963d bba8 b0bd 2a0c 8dbd ca54 063d
00000320: d94f 9bbc c722 b9bd 923a a2bd 3d8f 61bd
00000330: 11b3 413a 22df 503d 9081 753d 4d1c cd3d
00000340: b091 8ebd 3dee ae3d 7186 7bbd 03e6 abbd
00000350: be87 2abd 86a2 0e3d be65 b2bc d439 cebd
00000360: 4077 203c d825 c8bc 7f6b 3b3d 82f0 60bd
00000370: 58d5 7cbd 066d 873a bda7 44bd 69d9 d9bc
00000380: df3f 2bbc 45c0 803d 362e acbc 8846 38bd
00000390: f1dc 8bbd 9cda e43b 2b68 4a3d b68c d33c
000003a0: 89f5 c5bd 5099 a83b 996b 3f3d c3ca 78b9
000003b0: 66c3 7e3d b154 5f3d 9560 613d 4c66 d0bb
000003c0: b51f a5bd c487 d4bd 0c41 9d3d 283f 25bd
000003d0: 6770 b73d 3b90 4e3d 8d5d c1bd ae60 653d
000003e0: 13bc cbbd bfbe 9fbd e3b7 3b3d 2689 bd3d
000003f0: 92bf 7c3c f9ac 3d3d 6350 28bc f64e 113d
