checkpoints/mlp/2023_08.pt (torch, 18270 bytes, 19 tensors)

_network.0.weight f4 [32, 5]
000000 4a d9 4b be 61 36 91 3e c2 0f ba be e0 61 c7 be
       -0.19907108 0.283618 -0.36340147 -0.3894186
000010 69 b9 d6 3c 39 a3 30 3e 6b ec 8e be 71 f6 90 bd
       0.026211457 0.17249765 -0.27914748 -0.07078255
000020 66 78 6b be 3c 0e d7 be d6 9e 0b be ba 3b 15 3f
       -0.22995147 -0.42003047 -0.1363481 0.5829426
000030 ff d3 e8 3d 9c b1 8e be 17 e3 87 bd 5b 69 d4 3d
       0.1136856 -0.2786988 -0.06635111 0.103716575
000040 89 d3 ea 3e 97 02 99 3e e5 30 86 3e e4 05 2f bd
       0.45864514 0.29884788 0.2620918 -0.042730227
000050 45 4b a4 3e c9 24 1b 3f 68 90 5e be ae 7d f2 3d
       0.32088676 0.60603005 -0.21734774 0.11840378
000060 ba 9e 3e be e5 92 3f be 01 30 a5 bd d6 6b 34 3e
       -0.18615237 -0.1870838 -0.08065797 0.17619261
000070 f1 cc 60 be b3 56 8d be 41 32 7a be ec 24 08 bf
       -0.21953179 -0.2760521 -0.24433233 -0.5318134
000080 33 ec cd 3e f4 96 84 bd ad f3 4a 3e 82 42 31 3e
       0.40219268 -0.064741045 0.19819517 0.17310527
000090 1d e7 1a bf 8a a5 2d 3e d2 14 3f 3d 44 22 de bd
       -0.605089 0.1695768 0.046650715 -0.108463794
0000a0 08 4a 15 3c 69 45 af 3e b0 de c6 3e 34 08 44 bc
       0.009111889 0.34232643 0.38841772 -0.011964846
0000b0 74 34 c1 3d aa ee de bd a0 3b f5 3e ae b9 46 3d
       0.09433833 -0.10885365 0.47897053 0.04851692
0000c0 49 fa 30 be 38 08 4f 3c ae cc 9c 3d 19 8f fb be
       -0.17282976 0.012636237 0.07656227 -0.49132612
0000d0 5e 94 bc be 0f bf 8c be ee ff 49 3e bc ee 84 be
       -0.36831945 -0.27489516 0.19726536 -0.2596339
0000e0 cf f3 8e 3e 00 4f e6 be 40 12 d7 3d 62 d2 26 3e
       0.27920386 -0.44982147 0.10501528 0.16291192
0000f0 78 a6 3e be 8e 30 81 3e bf 1b 66 be 1a 83 f3 bd
       -0.1861819 0.25232357 -0.22471522 -0.1189024
000100 f3 33 9b 3e 2b a8 98 3c 6d 25 35 3e 39 15 c6 3e
       0.30313072 0.018634876 0.17690058 0.38688067
000110 7a 84 93 3e 8b 28 a3 3e 38 e1 80 be a5 a6 d8 bd
       0.2881201 0.3186687 -0.25171828 -0.1057866
000120 18 87 91 be e5 92 36 3e a3 e8 86 be c9 84 d2 bc
       -0.2842338 0.17829473 -0.26349363 -0.025698083
000130 18 ba 94 3e f1 72 c3 3e a0 9c 97 be 42 0e 92 be
       0.29048228 0.3817363 -0.29611683 -0.28526503
000140 fd 6c 9a 3e 04 fe 71 3e 89 06 7e 3e 04 f1 09 3f
       0.30161276 0.23632056 0.2480718 0.53883386
000150 69 03 1b 3e 86 eb ce 3c ab bc 1b bf c4 ee 3b 3c
       0.1513802 0.02525879 -0.6083476 0.0114705
000160 f5 97 34 3d 63 4a 8c 3d 43 02 b3 bd 40 8c d3 be
       0.04409023 0.06850126 -0.08740666 -0.4131794
000170 b8 54 de 3e 05 09 89 be b7 d4 7c be c7 5c e0 3d
       0.4342401 -0.26764694 -0.2469052 0.10955196
000180 b8 3f 25 bf 6e ba 86 be 20 e7 3f bb f7 e6 d2 bc
       -0.6455035 -0.2631411 -0.0029282048 -0.025744898
000190 d5 30 b1 3b 10 0a 2f bf ff 27 2a bd 7b 9a 92 be
       0.0054074326 -0.6837473 -0.04154205 -0.28633484
0001a0 55 74 e7 3d 19 54 61 3d 1e 62 b5 3e d5 c8 da be
       0.113014854 0.055011842 0.3542642 -0.42731348
0001b0 da 0b 50 3e 8e e7 95 be cd fb 8f 3e dc 62 d9 3e
       0.20317021 -0.29278225 0.28121796 0.42458236
0001c0 7d 24 97 be 98 de 0e 3e 99 b3 87 bc ed c4 96 be
       -0.29520026 0.139521 -0.016565131 -0.29447117
0001d0 07 d8 c0 3e 1d 08 06 be 42 84 c8 3e 8c 67 48 be
       0.37664816 -0.13089032 0.39163405 -0.1957075
0001e0 77 e8 49 bc 9b c0 3d 3f ce d7 b7 3e 50 d3 1b 3e
       -0.01232349 0.7412202 0.35906833 0.15217328
0001f0 80 b7 79 be 7e e4 c6 be cb ac eb be ab 7a eb be
       -0.24386406 -0.388462 -0.46030268 -0.45992026
000200 00 15 d2 bd a1 9b 7d be 3f 3d 34 be 79 45 86 be
       -0.10257912 -0.24766399 -0.17601489 -0.26224878
000210 c2 f5 b5 be 08 73 07 be cd 5b e7 be b5 87 82 3d
       -0.3553906 -0.13227475 -0.45187226 0.0637354
000220 45 48 bf 3e e4 7e 22 3e 73 bc c4 3e 4a d3 ae bd
       0.37359825 0.15868717 0.38425025 -0.08536394
000230 77 75 2f bc ef 5a 1f 3f 8b 45 ca bd 90 ac 5d 3c
       -0.010709158 0.6224813 -0.098765455 0.013529912
000240 47 bb ab bd ee 35 7b bd 7f ab 34 3f c8 dc 93 be
       -0.0838533 -0.06133073 0.7057418 -0.2887938
000250 17 3f 3b bc 7f d1 5b 3d c8 12 ba be 03 6e 13 3e
       -0.011428616 0.053666588 -0.36342454 0.14397435
000260 4f 2b 98 3e 3c 86 1e bb 52 b1 d7 3d 36 50 f8 3d
       0.29720542 -0.0024188897 0.10531868 0.12124674
000270 09 40 3e be 84 ec 4f bd f6 f2 bd bd f4 85 04 3f
       -0.18579115 -0.05076267 -0.09274857 0.51766896

_network.0.bias f4 [32]
000000 a8 65 84 be ba 5b 16 be df 66 6a 3e 82 e2 d3 3e
       -0.25858808 -0.14683428 0.22890805 0.4138375
000010 3f a2 d6 be e4 a5 ce be 98 8d 3f bd bd 39 1f 3e
       -0.4192066 -0.4036094 -0.046765894 0.15549369
000020 56 69 26 be af 6d 7d be 6a e9 83 3c b2 12 1b be
       -0.1625112 -0.24748872 0.016102511 -0.1514385
000030 91 24 ee bc e0 1f fb 3d fd bb 93 be 0a e1 6d 3e
       -0.02907017 0.12261939 -0.2885436 0.23230377
000040 80 98 27 be dd 4b f2 bd 5d 94 de 3e 33 55 40 bd
       -0.16366768 -0.11830876 0.43472567 -0.046956252
000050 ce b3 af bd 7e e1 35 3e a2 79 d0 be 02 c9 00 3e
       -0.08579217 0.177618 -0.40717798 0.12576678
000060 28 db b4 3d f7 50 cc 3e cc 3b b8 3e ef 77 af bd
       0.08830863 0.3990552 0.3598312 -0.085677974
000070 f7 f9 61 3e 67 97 be be 36 47 b7 be 38 ae 41 be
       0.2206801 -0.37224886 -0.35796517 -0.18914115

_network.1.weight f4 [32]
000000 d3 3a 7f 3f 27 0f 77 3f 1b b8 78 3f e9 a7 83 3f
       0.99699134 0.96507496 0.9715592 1.0285617
000010 99 a4 62 3f df 96 6b 3f 09 30 49 3f a0 3d 8f 3f
       0.88532406 0.92027086 0.7858892 1.1190681
000020 44 30 86 3f 62 7c 82 3f 85 5b 80 3f 29 ae 6d 3f
       1.048348 1.0194209 1.002793 0.9284387
000030 e4 32 7b 3f 98 44 7e 3f 83 55 74 3f bd 7b 73 3f
       0.9812453 0.99323416 0.9544298 0.95110685
000040 29 47 6f 3f f0 75 92 3f ce 78 70 3f 48 a2 86 3f
       0.93467957 1.1442242 0.93934333 1.0518274
000050 87 37 83 3f 4a bc 89 3f da 7d 69 3f 76 b3 72 3f
       1.0251321 1.0760586 0.9120766 0.94805086
000060 f9 89 86 3f ec 8d 51 3f ff 3d 60 3f 3d 92 79 3f
       1.0510856 0.8185718 0.875946 0.97488767
000070 3a 8e 8f 3f c8 cf 9a 3f 3b 82 6c 3f b9 28 4c 3f
       1.1215279 1.209466 0.92386216 0.7974964

_network.1.bias f4 [32]
000000 64 33 f8 3d 20 98 04 bd 1f 88 4e be 74 b7 c5 3d
       0.12119177 -0.03237164 -0.20169114 0.096541315
000010 8a a3 cc bd 4e e0 7f bd bd 0e 25 3e e0 37 bb 3d
       -0.0999213 -0.062469773 0.16118903 0.09141517
000020 bc 48 12 bc 32 27 92 3d 79 e3 58 3d a7 1e bc 3d
       -0.008928474 0.07136382 0.05295131 0.09185534
000030 21 d7 f9 bd f8 83 29 bd d9 97 a6 bd d6 38 f0 bc
       -0.12199236 -0.04138562 -0.081344314 -0.029323976
000040 3c d8 79 bd 06 cf 44 3e df e9 7d 3e ea 2e 3a be
       -0.060997233 0.19219598 0.24796246 -0.18181959
000050 e6 5d cb 3d d1 de d8 3c 39 84 74 be 20 8a 03 be
       0.09930019 0.026473435 -0.23878564 -0.1284566
000060 aa c4 05 bc 16 34 89 bc 9b b0 ea bc 28 41 e0 3d
       -0.008164564 -0.01674847 -0.028648665 0.109499276
000070 ad 18 d3 bd 3d 3c 2a bd 34 3a bf bd 83 09 e9 bd
       -0.10307441 -0.041561354 -0.09337273 -0.11378767

_network.1.running_mean f4 [32]
000000 a4 2b 02 bf ea 3c 0e bf 1a 0e 58 3e f3 0e 55 3f
       -0.5084784 -0.555617 0.2109913 0.83225936
000010 86 31 9a bd ad a0 45 bf 34 89 88 be 6a 78 d4 bc
       -0.07528977 -0.77198297 -0.26667178 -0.025936324
000020 72 e9 82 3d e4 98 49 be a0 ba 91 be 9d 6a 31 bd
       0.063921824 -0.1968723 -0.28462696 -0.043314565
000030 14 c7 2b 3d 1d b6 17 3f 52 91 f3 be 58 0c 4e 3d
       0.041937903 0.5926226 -0.47571808 0.05030474
000040 d6 c3 03 3f 1a 59 97 be e6 15 9d bc 16 dc a0 be
       0.51470697 -0.29560167 -0.019175481 -0.31417912
000050 49 a3 01 bf 6c 76 94 3e 62 d3 89 bd 45 c6 9f 3e
       -0.5063978 0.289966 -0.06729771 0.31205955
000060 1f 68 d3 3e 97 3b 41 be 64 c8 2a be c3 b8 a6 3e
       0.41290376 -0.18870388 -0.16678005 0.32562837
000070 8c 80 dc 3e c1 86 f3 bd 94 7e b9 be 56 88 09 bd
       0.43066823 -0.11890937 -0.36229384 -0.033577286

_network.1.running_var f4 [32]
000000 a8 66 b6 3c 1c fa 3d 3c 40 33 1f 3c 0a 68 65 3c
       0.022265747 0.011595275 0.009716809 0.014001856
000010 7d d9 d1 3c d1 0e 74 3b e6 52 b5 3c 71 22 03 3c
       0.025616402 0.0037240277 0.022134256 0.008003817
000020 f9 d8 ca 3b c6 88 c9 3b 08 b9 89 3c a2 e7 08 3c
       0.006190416 0.006150338 0.016811863 0.008356007
000030 8d 82 8d 3c 42 fa 39 3c 60 01 3b 3c ab 1b ae 3b
       0.017274166 0.01135117 0.011413902 0.005313357
000040 5e 49 fa 3c 57 b9 97 3b 46 51 dc 3b 62 47 df 3b
       0.030552562 0.0046302485 0.0067235557 0.0068139294
000050 56 8e 87 3c f3 24 d8 3c 3c cf 5c 3c c4 6b 89 3c
       0.016547363 0.026384806 0.013477143 0.01677502
000060 14 d4 95 3c 33 c5 93 3c 74 b4 82 3c 48 48 9c 3c
       0.018289603 0.018038368 0.015955187 0.019077435
000070 e6 59 c1 3b 1d b9 f4 3b a8 0c 4c 3c fb 2e ae 3c
       0.0059006093 0.0074683563 0.012454189 0.021262636

_network.3.weight f4 [32, 32]
000000 5d d8 ef bd 9d 7d df bc 01 3c c0 bd be a8 a6 bc
       -0.1171119 -0.027281577 -0.09386445 -0.020344134
000010 a5 b3 5a 3d d2 18 26 bd 01 65 8b bc 33 d1 38 be
       0.05339398 -0.040551014 -0.017015936 -0.18048553
000020 d3 d9 0c bd 93 6b 06 be 72 7a 42 3d 4e 90 f2 bd
       -0.03438742 -0.13126974 0.047480054 -0.1184393
000030 76 49 e0 3c 4b 19 92 bd d1 df 18 be d5 59 08 be
       0.027378779 -0.071337305 -0.14929129 -0.13315518
000040 79 af af 3c 62 de a3 3d 29 25 15 3d fc 6b f6 3c
       0.021445977 0.080014005 0.03641239 0.030080788
000050 e6 ab 16 3e e5 77 3f be 2d b2 ab bd 7f a1 da 3d
       0.14714012 -0.1869808 -0.08383594 0.10675334
000060 09 9d 55 be 03 fd b5 bd 89 e7 b8 bd 92 e5 1a be
       -0.20860685 -0.08886149 -0.09028537 -0.15126637
000070 5c af 90 3d 84 95 f0 3c f9 56 5a be 0c ed 14 bd
       0.07064697 0.02936817 -0.2132224 -0.036358878
000080 66 84 a8 be 7b 2c cd bd fb 59 be 3d 89 5d 30 3e
       -0.32913512 -0.100182496 0.09294506 0.17223181
000090 91 bf ea 3d d9 56 df 3d a3 e0 09 3d eb 0c 43 3e
       0.1146232 0.10905237 0.033661496 0.19047897
0000a0 eb cf ec 3d e7 75 9a 3d 3c 30 2c 3d 09 1f 26 be
       0.11563095 0.07542019 0.042038187 -0.16222776
0000b0 f8 9e 3a be be 41 86 3d bc 01 11 bd bd ec 8e 3d
       -0.18224704 0.06555508 -0.035402045 0.06978748
0000c0 c2 28 0f 3e 5b b9 2b 3e 2d 80 6b bd bd 32 3e 3e
       0.13980392 0.16769926 -0.057495285 0.18574043
0000d0 c1 8b 88 3d 10 8b 45 3e f2 70 14 3d ba c2 d6 bd
       0.06667281 0.1929133 0.036240526 -0.1048636
0000e0 e0 87 2a 3e ae 8c ba 3c 2b 67 81 3d 02 7c 97 bc
       0.16653395 0.02277216 0.06318506 -0.018491749
0000f0 c8 33 eb 3d c5 dc 47 3d 09 e1 de 3d b3 1b 99 3d
       0.11484486 0.048794527 0.10882766 0.07475986
000100 7b 49 2b be 40 5e f2 3d 35 8f d3 bd 8a 37 93 bd
       -0.1672725 0.11834383 -0.10330049 -0.071883276
000110 f6 ae 0b bd 45 68 e2 bd 2e 3e 02 bd 15 52 c1 3e
       -0.034102403 -0.11055044 -0.03179758 0.37757936
000120 15 4c 7f bd 7c 77 06 bd f5 b7 bf 3d 9f 65 1a 3c
       -0.062328417 -0.032828793 0.09361259 0.009423642
000130 8e 0e e6 ba 6b c9 7d bd 03 30 40 3d c3 90 99 bd
       -0.0017551945 -0.061959665 0.046920788 -0.07498314
000140 00 81 2a 3e 50 de 64 3e 48 34 50 be f2 bf 5f 3e
       0.16650772 0.2235043 -0.20332444 0.21850565
000150 62 cb bb bd 5d 8c 88 bd 52 e2 d5 3d 7b 7d bb bd
       -0.091696516 -0.06667397 0.10443558 -0.09154793
000160 6a 12 0c 3c 72 15 9f bd 64 e9 e1 bd 86 6e 36 bd
       0.008549312 -0.07767762 -0.11030844 -0.044538997
000170 0d 9c b8 bd 55 bb f0 bd b3 b9 31 3d 09 52 49 ba
       -0.09014139 -0.11754481 0.043389987 -0.00076797657
000180 f8 1c 70 3a ad 38 1c 3e 5e fa e7 3d 98 e2 3f 3d
       0.000915959 0.15255995 0.113270506 0.046846956
000190 cd a3 14 be aa b1 36 3d fa 70 c5 3d 30 d0 90 bd
       -0.1451561 0.044603027 0.09640689 -0.070709586
0001a0 3a aa 24 3e ba 16 38 bd 6f 65 14 3e e6 a7 17 bd
       0.16080561 -0.04494355 0.14491819 -0.037025355
0001b0 13 64 03 3d 4e df 08 be 04 56 83 3b 98 d5 c0 3d
       0.03207786 -0.13366434 0.0040080566 0.0941574
0001c0 b2 94 35 bd 27 69 51 3d 92 76 3f be ae a3 79 bd
       -0.04433126 0.05112567 -0.18697575 -0.060947113
0001d0 1c fe f8 bd f4 1c 69 3c 2e 5e 1c 3e 80 aa 88 bd
       -0.121578425 0.014228094 0.15270302 -0.06673145
0001e0 28 09 29 bd d9 62 0d 3d 35 0d 82 3d ff 33 59 3e
       -0.041268498 0.034518097 0.06350175 0.21211241
0001f0 56 7f 66 3e f5 54 6a be 50 e6 b2 bd ce 99 d3 bd
       0.22509512 -0.22883971 -0.08735335 -0.1033207
000200 b7 7c 8a bb a5 4d 95 3d 2a 92 88 be 26 20 29 bd
       -0.004226293 0.072902 -0.26674014 -0.041290425
000210 ab ef 9f bd 1e 82 2f be 46 a6 48 be 8d b5 73 bc
       -0.07809385 -0.1713948 -0.19594678 -0.014874828
000220 5b 08 28 be ee ea 31 be fc 3a d2 bd 1e 0f b0 ba
       -0.16409437 -0.17374775 -0.102651566 -0.001343224
000230 7d d0 22 be 76 88 48 bd b6 ac e3 bd 34 95 3a be
       -0.15899844 -0.048958264 -0.11116926 -0.18220979
000240 ec 3c e5 3d 13 95 3c be 0f a7 89 bd 25 eb b2 bd
       0.111932606 -0.18416242 -0.06721317 -0.087362565
000250 5a 94 02 bd 71 92 03 be 70 b6 08 3e 9b c6 be 3d
       -0.03187976 -0.12848832 0.13350844 0.09315225
000260 b4 3f f9 bd 60 50 2e 3d 27 84 2b 3e b8 f1 2d 3e
       -0.121703535 0.04255712 0.16749631 0.1698674
000270 4e c9 52 3c 31 d2 e7 3d aa 44 37 be 34 cf 24 3d
       0.012865378 0.11319388 -0.17897287 0.040236667
000280 9a 90 3b 3e bf 83 7b be 0f 11 7c bd 11 32 2e bb
       0.1831688 -0.24561976 -0.061539706 -0.0026580135
000290 4b eb fc 3c ef e8 fc bc 00 a3 fa 3d 47 ca 5f be
       0.030873915 -0.03087279 0.12238121 -0.21854506
0002a0 92 55 62 3e e4 77 8b bd 65 2c f8 bd c3 e9 c6 3d
       0.22102955 -0.06809977 -0.121178426 0.09712555
0002b0 42 e3 3c 3e 0d ac dc 3c fe c7 a5 bd 4f 5a e3 bd
       0.18446067 0.026937509 -0.08094786 -0.11101209
0002c0 6c 00 be 3d be 51 8e bd d9 d6 1b 3e 45 e6 19 3e
       0.09277424 -0.06949185 0.15218677 0.15029247
0002d0 d7 13 03 3e f8 23 06 be 7f 93 11 be 4c e0 d6 3d
       0.12800537 -0.13099658 -0.14216422 0.10492
0002e0 74 f6 32 3e ee 91 6b 3d c0 e2 00 be 93 03 01 3e
       0.17476827 0.057512216 -0.12586498 0.1259902
0002f0 d1 85 14 be dd 11 b4 bd cf 2c 1d bd f1 2a 13 be
       -0.14504172 -0.0879247 -0.03837281 -0.1437185
000300 42 d2 d5 3d 5b 4b a6 3d ce ee 68 3d b7 9a 04 be
       0.10440494 0.08119842 0.056868367 -0.12949644
000310 81 cd 5f 3d 25 b8 14 be 0c d2 2c be ad e2 5e 3e
       0.054639343 -0.1452337 -0.16877002 0.21766157
000320 76 ad 2e be 84 0c 3d be 57 48 f3 3d c6 70 e8 3d
       -0.17058358 -0.18461806 0.11879032 0.11349635
000330 a4 e2 b1 3d d7 71 00 3c 9b b6 9a 3d f5 7e fa bd
       0.086858064 0.0078396415 0.075543605 -0.122312464
000340 9d 30 9b ba 99 dd 20 be a5 92 a9 bd be 87 2d 3e
       -0.0011840049 -0.15709533 -0.08279923 0.16946313
000350 12 8e bf bd 0a 09 52 3e 4f 2c 02 3e 69 fc 55 bd
       -0.0935327 0.2051126 0.12712215 -0.05224267
000360 89 63 b6 bc a1 4a 8d bd 86 a9 b3 bd f8 1d b3 bd
       -0.022264259 -0.06899 -0.087725684 -0.087459505
000370 d6 c0 33 3c 96 62 32 3d 5a 0e 5a be 60 ed 34 3d
       0.010971269 0.04355105 -0.21294537 0.04417169
000380 1f 1f ba 3d da bf 2f 3e ac ba f0 3d 08 da 4a 3d
       0.09087967 0.1716303 0.11754355 0.049524337
000390 37 4d 22 bd 16 96 b7 bd ab 44 a1 3d 53 bd ef 3d
       -0.03962442 -0.089641735 0.078744255 0.117060326
0003a0 8c 20 5b 3e c1 eb 10 3e 72 10 f7 bd 26 b9 ad bd
       0.21399134 0.14152433 -0.120636836 -0.0848258
0003b0 1f 89 80 3b 18 cc 13 3e 89 38 3e bd fd 26 fc 3d
       0.003922596 0.14433324 -0.046440635 0.12312124
0003c0 31 96 1c bc 29 56 f9 bd 53 63 50 3e aa be 1a 3e
       -0.009557293 -0.12174637 0.20350389 0.15111795
0003d0 e3 11 8a bd ed bd 26 3e 20 7a 39 3d e3 4e 01 3e
       -0.06741693 0.16283388 0.045282483 0.12627749
0003e0 a3 3d 21 bc cf 2f a8 3d d7 b9 82 bb c9 d3 1a 3e
       -0.0098413555 0.08212244 -0.003989439 0.15119852
0003f0 f3 0f 3f bb fa f2 29 be c8 77 21 3d 28 4f c3 3d
       -0.0029153794 -0.16596594 0.039420873 0.09536582

_network.3.bias f4 [32]
000000 7e 1f 28 be 48 ee 1a be 8a 52 5a 3d c9 f6 97 bd
       -0.16418263 -0.1512996 0.05330137 -0.074201174
000010 89 f6 3e 3d af 1d 85 bd 3c 8f b9 3d 4f 4f ca bd
       0.046621833 -0.06499802 0.09060523 -0.09878408
000020 09 7e d4 3d ce 9d 26 3e 21 fe 2f be af f1 0a 3d
       0.10375602 0.16271135 -0.17186786 0.033921894
000030 28 2b 29 3c fd de f6 3d b8 c7 1d 3e 79 8c 2d 3d
       0.010325231 0.120542504 0.15408218 0.042370293
000040 e9 8f 5e bd 88 c9 df bd 0d 62 9a bd 3d 3e 56 bd
       -0.054336462 -0.10927111 -0.07538233 -0.05230545
000050 03 50 86 bc 1b 4a 1a 3c 55 17 f2 bd c5 09 0a 3e
       -0.016395574 0.009417082 -0.118208565 0.1348029
000060 0d 3f 3e 3d 55 ee 08 3e 07 81 00 be 36 54 0a 3e
       0.04644685 0.13372166 -0.1254922 0.13508686
000070 cd 47 2a 3e e4 de 4e bd 1e a3 46 3d 71 82 db bc
       0.16628952 -0.050505534 0.048495404 -0.026795598

_network.4.weight f4 [32]
000000 09 a9 68 3f b6 f1 7d 3f 8a bd 83 3f 66 98 93 3f
       0.9088293 0.99196947 1.0292218 1.1530883
000010 c8 fb 70 3f 70 8d 60 3f 84 5b 6c 3f 8c 04 72 3f
       0.9413419 0.87715816 0.9232714 0.9453819
000020 2f 76 81 3f 99 71 74 3f c9 bd 83 3f ce f4 78 3f
       1.0114192 0.95485836 1.0292293 0.9724854
000030 65 13 8a 3f 37 d9 76 3f f5 dd 92 3f cb 57 83 3f
       1.0787169 0.96425194 1.1473986 1.0261167
000040 e3 a3 65 3f cd d3 5a 3f ce 2e 8e 3f 85 3d 82 3f
       0.89703196 0.8547943 1.1108034 1.0175024
000050 b5 01 82 3f 5d 18 70 3f 49 cb 82 3f 2c a1 83 3f
       1.0156771 0.93787175 1.0218288 1.0283561
000060 0d 39 74 3f ff 13 57 3f 4e 68 7e 3f a2 46 88 3f
       0.9539955 0.84014887 0.99377906 1.0646555
000070 36 10 6c 3f f7 33 7c 3f bc ef 77 3f 44 39 82 3f
       0.92212236 0.9851679 0.9685018 1.0173726

_network.4.bias f4 [32]
000000 85 9b ab bd 48 1d d7 3d 56 1b 32 3d c6 c4 07 3d
       -0.08379272 0.10503632 0.0434831 0.033146642
000010 a9 74 f1 3b b6 7e 90 bd dd aa 6f bd 68 0d 84 bd
       0.0073686433 -0.07055418 -0.058512557 -0.064478695
000020 48 81 b8 3d 51 3f f5 bd be de 03 bc 5e b6 0a 3e
       0.090090334 -0.11974967 -0.008048711 0.1354613
000030 7b 47 ce 3d 86 a6 a5 bd 51 83 07 3e 07 39 77 3d
       0.100722276 -0.080884025 0.13233687 0.06035712
000040 2c 27 bc 3c 74 3f b2 bd 11 54 34 3d 5a 8d d2 3d
       0.022967897 -0.08703509 0.044025484 0.10280867
000050 e0 b7 c0 bd 43 21 e1 bd 34 e5 2c bd cc 29 8a 3c
       -0.094100714 -0.10992672 -0.042210773 0.016865633
000060 9d 25 53 bd f0 47 eb ba f3 b8 51 3d 58 3b 1e 3e
       -0.051549543 -0.0017950516 0.051201772 0.15452325
000070 fd 55 b0 bd 1f 20 9a bd 59 cd 10 3d 7a 5b dc bc
       -0.08610151 -0.07525658 0.035352085 -0.026899088

_network.4.running_mean f4 [32]
000000 a4 62 43 bf 52 ee cf 3e 60 a2 68 bd 6f 67 b4 3c
       -0.7632239 0.4061151 -0.056795478 0.022021977
000010 a4 01 14 bf 57 51 9d bc 66 83 45 bd 08 c2 f7 3e
       -0.57815003 -0.019203825 -0.048221014 0.48390222
000020 88 59 f9 3e 4b 75 b6 3d b8 0b 21 3f ce f6 0d 3e
       0.4870112 0.089090906 0.62908506 0.1386368
000030 2d 47 c4 3d a6 17 1a 3f d2 6c ef 3d e3 89 b9 be
       0.09583888 0.60192335 0.11690678 -0.36238012
000040 06 29 97 3e 74 23 f0 bb f3 71 ae bd fe 91 ca 3e
       0.29523486 -0.007328445 -0.08517828 0.39564508
000050 5b 0e a0 3e 95 3f 21 be c2 c1 93 3e 65 1e 6f 3d
       0.31260952 -0.15746911 0.28858763 0.058378596
000060 4a 51 94 3e b6 9a 88 be 9c 57 84 be 06 ec 9e bd
       0.2896827 -0.26680535 -0.2584809 -0.07759862
000070 c8 f8 cc 3e ee 35 53 bd df a8 89 be 22 07 5f be
       0.40033555 -0.051565103 -0.2688665 -0.21780065

_network.4.running_var f4 [32]
000000 00 9e 36 3e a7 3d d5 3e e1 6d 04 3f 0e 95 92 3d
       0.1783371 0.416486 0.5173016 0.07157336
000010 da f0 14 3f 16 86 7e 3e 72 09 af 3e e6 11 86 3e
       0.5818001 0.24855837 0.34186894 0.2618553
000020 a4 03 92 3e 56 1d 55 3e 3f 12 a4 3e 51 27 43 3f
       0.28518403 0.20811972 0.3204517 0.7623187
000030 96 93 8f 3e 92 cb 41 3e b8 76 25 3f c2 34 15 3f
       0.28042287 0.18925312 0.64634275 0.5828363
000040 f2 90 7b 3e a4 bf 79 3e e0 ed ea 3e 76 28 e5 3e
       0.24567011 0.24389511 0.4588461 0.44757432
000050 d4 38 88 3e fe 53 dc 3e 7a 60 82 3e 76 18 4c 3e
       0.26605856 0.4303283 0.2546423 0.19931206
000060 79 c0 c5 3e 6a 99 e2 3d 9c 41 36 3f e6 1b f1 3e
       0.38623407 0.11064418 0.7119386 0.47091597
000070 43 e5 35 3e 59 66 b2 3e 4d 7a 91 3e e9 c3 3c 3e
       0.17763238 0.3484371 0.2841362 0.18434109

_network.6.weight f4 [32, 32]
000000 2f f2 ad bd 83 7c 41 be 05 68 70 3d ee dd e0 3d
       -0.084934585 -0.18895154 0.05869295 0.1097983
000010 08 b2 88 bd 83 97 f2 bd 86 5f 10 3d d1 23 99 be
       -0.06674582 -0.11845305 0.03524735 -0.29910138
000020 78 5e 46 be 60 d1 82 bd 7b db 0b 3e 18 ab 17 3e
       -0.19371974 -0.06387591 0.13657944 0.14811361
000030 12 7e 7e bc 28 02 8a bd 13 e7 55 3e 90 9f e0 3d
       -0.015532987 -0.067386925 0.20888929 0.10967934
000040 7f bd 34 3d 52 7a 20 be c5 28 0d be eb 9f 58 be
       0.04412603 -0.15671661 -0.13785084 -0.21154754
000050 e2 aa c8 3d 01 a6 f3 3c 07 e5 53 bd 96 5a e9 bd
       0.09798218 0.029742243 -0.05173209 -0.11394231
000060 9d bc 13 bd fb 13 1b be 3b a6 b0 be 2f 26 9f bc
       -0.036068548 -0.1514434 -0.34501824 -0.019427387
000070 3b 0e dc bd 97 5f ca bd 13 37 74 be f8 80 80 3b
       -0.10744902 -0.098815136 -0.23849134 0.0039216243
000080 a3 cb 8a bd 81 0a 5a be c5 37 f5 bd 24 82 ae 3c
       -0.06777122 -0.2129307 -0.11973528 0.02130229
000090 2e d3 f4 bd 82 0d 0e bd c6 91 0f bd ba bf 45 bc
       -0.11954342 -0.03468085 -0.03505113 -0.012069637
0000a0 32 41 d6 3c 8c 1e 8b 3d 17 40 5f 3c d3 60 00 3e
       0.026154134 0.06792936 0.01362612 0.12536936
0000b0 3c b0 04 be ab 11 8d be 60 f5 1d bd 99 72 01 be
       -0.12957853 -0.27552542 -0.038564086 -0.12641372
0000c0 2f f6 8c 3d 94 90 85 ba c2 b0 a6 3d d4 ce 1d 3e
       0.06882893 -0.0010190182 0.081391826 0.1541093
0000d0 ca 60 06 be 24 01 02 3e 06 8c b3 bd ce f5 6c 3d
       -0.1312286 0.12695748 -0.08766942 0.057851605
0000e0 53 07 ab 3d b0 50 fc 3d 0c 90 47 3d 05 26 25 bc
       0.08351006 0.123200774 0.04872136 -0.010079865
0000f0 0f e5 16 be c7 f7 8c be 0a 4e 43 3d 70 49 50 3e
       -0.14735816 -0.2753279 0.047681846 0.20340514
000100 31 d1 e3 3c 63 90 88 3d 9a d9 07 3e 8f 69 9a bd
       0.027809711 0.066681646 0.13266602 -0.07539665
000110 4f 86 b8 bd 7b d6 c9 3d c0 88 1c be f7 c7 e5 bd
       -0.09009992 0.09855362 -0.15286541 -0.11219781
000120 48 a0 0e bd bc 5f 04 be 66 06 76 bc 07 63 de bd
       -0.034820825 -0.12927145 -0.015016174 -0.10858732
000130 13 2f bf 3c 3c ac a9 bd d1 9f bf 3d 74 58 1b be
       0.023337876 -0.08284804 0.093566544 -0.15170461
000140 fe 4e 3b bd 14 dc 16 3e ef c1 fb 3d f9 63 a8 3d
       -0.04572963 0.1473239 0.12292849 0.08222193
000150 23 7a 41 be 94 02 29 be 0c b4 4f 3e 49 0a 0e 3e
       -0.18894248 -0.1650489 0.20283526 0.13871111
000160 56 3e 00 3e b4 bb fa bd 44 b3 0d be e6 b9 56 3e
       0.1252378 -0.12242833 -0.13837916 0.20969352
000170 5f 23 da bb d0 e4 ee bd a6 75 22 3d 8c 34 f9 bd
       -0.0066570486 -0.11664736 0.03966298 -0.12168226
000180 3d 5f c5 3d 52 0b e4 3b a9 73 23 be 7b 5e 26 be
       0.09637306 0.0069593573 -0.1596209 -0.16246979
000190 aa 63 33 bc c8 9b 27 be fb 24 12 bd 6f db 2e bd
       -0.010949055 -0.1636802 -0.0356798 -0.042689737
0001a0 81 dd 48 be c2 be f7 bc f8 c6 87 be 23 74 cc 3d
       -0.19615747 -0.030242328 -0.2651899 0.09983089
0001b0 1a 3d 27 3e 2c f0 0f bd a5 2d 63 bc a2 e8 4c bd
       0.16331902 -0.035141155 -0.013865863 -0.050026543
0001c0 31 a9 32 bc fa b3 f5 3d 79 b1 1a 3e 6e 92 41 bd
       -0.010904596 0.119972184 0.15106763 -0.047258787
0001d0 66 02 01 be ab 0d 91 bb 22 eb 25 be 59 d0 67 3d
       -0.12598571 -0.004426678 -0.16202977 0.05659518
0001e0 e2 2c 24 bd 3d f4 3a be 3a 99 11 be 05 b9 34 be
       -0.040081866 -0.18257232 -0.14218608 -0.17648704
0001f0 70 95 1a be b8 28 22 3d b8 52 0b be f7 b1 dd 3d
       -0.15096068 0.039589614 -0.13605773 0.1082496
000200 8e 26 34 be cb 8e ba 3b ba c1 00 be 57 79 98 bb
       -0.17592832 0.005693292 -0.12573901 -0.0046531367
000210 e9 39 c1 3d 94 b0 e4 bc e7 7f c6 3d 7e 2d 91 3d
       0.094348736 -0.02791623 0.09692364 0.07088755
000220 f9 f7 ad bd 8a 14 ac bd a7 c1 00 3e 74 aa 97 3d
       -0.08494563 -0.08402355 0.12573873 0.07405558
000230 51 a4 40 3d 40 2b 01 be f3 a4 01 bf 80 2d 63 bd
       0.047031704 -0.12614155 -0.5064232 -0.055463314
000240 32 83 29 be 72 8a 2f bc 02 d6 bc bd 6e 88 87 bd
       -0.16553953 -0.01071416 -0.09220506 -0.06617819
000250 70 f8 48 bd 88 29 15 bd 13 55 42 3e b0 89 38 3d
       -0.049065053 -0.03641656 0.18977766 0.045053184
000260 0f a1 07 be fd 81 7c bb ad 86 b1 3c 1b 0f 47 3e
       -0.13245033 -0.0038529627 0.021670664 0.19439356
000270 21 50 83 3c 8f c8 63 3e bf a2 9f 3d 11 82 11 3c
       0.01602942 0.22244476 0.07794713 0.008881108
000280 db 6c 26 be cc 7e 11 be 2a 3f 94 3d 64 ee fe bd
       -0.16252463 -0.14208525 0.0723861 -0.12447813
000290 46 67 33 3b 1d 1a d7 bd 7b 1d bc 3b 3e 6e 12 be
       0.0027374788 -0.105030276 0.005740819 -0.14299867
0002a0 af ee b3 bd 01 46 63 be 07 f3 80 bd 41 65 52 be
       -0.0878576 -0.22194673 -0.06296354 -0.20546438
0002b0 f2 4b f5 3d 27 79 26 bd cc e0 1d 3e 39 fc 9a 3d
       0.11977376 -0.040642884 0.15417784 0.07567639
0002c0 f2 de f6 bd cd a7 b1 3d db 3b 79 bd 4f 8d 91 ba
       -0.12054242 0.086745836 -0.0608481 -0.0011104735
0002d0 8f c9 15 3c 40 66 1b 3d 51 6a 8b be bd 3f da 3d
       0.009142294 0.03793931 -0.2722955 0.10656688
0002e0 81 b4 9a 3d 77 56 99 3d 34 b6 d1 bd 87 95 43 3e
       0.0755396 0.07487195 -0.102398306 0.19100009
0002f0 e8 61 12 be 79 ea 0d 3e a6 ba 13 3e a4 0d 9c 3d
       -0.14295161 0.13858975 0.1442667 0.07619789
000300 31 f2 c0 3d 30 b2 49 3d 12 be ec 3d 0e bb 6c 3d
       0.09421194 0.0492422 0.115596905 0.057795577
000310 44 e2 df 3d 21 74 99 be a6 4f 4b 3d 21 ad 48 3d
       0.109318286 -0.29971412 0.049636506 0.048993234
000320 0d c1 9f bd 0e ec 07 be fc 50 12 3d 6b 2f 95 be
       -0.078004934 -0.13273641 0.035721764 -0.2913774
000330 c8 49 78 3d 8c 73 dc bd d3 56 59 bd a7 32 9e 3c
       0.06061724 -0.10764226 -0.053061318 0.019311262
000340 07 1e 2a 3e a4 80 9b 3d 4b 35 4b bd 7a 22 15 3e
       0.16613017 0.075928956 -0.04961137 0.14563933
000350 23 74 cb 3d 82 ea 64 be dd 39 e8 3d 01 3b 16 be
       0.09934261 -0.22355083 0.113391615 -0.14670946
000360 f5 40 22 3e d2 78 53 bc aa 2b 82 be 72 a3 80 bd
       0.15845092 -0.012907224 -0.25423938 -0.06281175
000370 15 85 bc 3c 25 5c c0 bc de 5d 83 be 09 67 1f 3e
       0.023012677 -0.023481438 -0.25657552 0.15566649
000380 44 a2 c5 bc 19 6c d1 3d b4 37 a9 bd 09 61 b0 3c
       -0.024125226 0.10225696 -0.08262578 0.021530645
000390 4b 3d 80 bd 9c 17 cb 3d 75 63 2b bb 88 3c 7d be
       -0.06261691 0.099166125 -0.002615181 -0.24730122
0003a0 18 ac 0f be 68 db 7b 3d 9e 10 78 3c 4c b2 6f be
       -0.14030492 0.06148854 0.015140681 -0.23407859
0003b0 84 fb 5c be 89 44 a1 3a 06 72 c1 3d 75 fa 1c 3e
       -0.2158032 0.001230375 0.09445576 0.15329917
0003c0 91 98 91 3c da 69 7a bd bc f2 1a 3d fb 3d 35 be
       0.017772945 -0.061136104 0.037829146 -0.17699425
0003d0 58 16 33 39 cf 19 5b bd 77 a9 76 3d 85 fc 34 bd
       0.00017079094 -0.05349141 0.060220208 -0.044186134
0003e0 42 0c 20 be 26 cd 08 3e 5d ac 4e bd 3a 4d ae bd
       -0.15629676 0.13359508 -0.050457347 -0.085108235
0003f0 4d eb 19 3d e9 20 21 3d 74 80 71 3d 7d 33 2b 3e
       0.037577916 0.039338026 0.058960393 0.1671886

_network.6.bias f4 [32]
000000 62 e5 24 3e d7 89 20 3e f8 9d dc bd 83 99 21 3e
       0.16103128 0.15677582 -0.10772318 0.15781216
000010 16 1e f9 bd b8 33 e5 bd 1f b8 27 bd 3b 38 bf 3d
       -0.121639416 -0.11191505 -0.040947076 0.09336897
000020 98 02 a2 bb 5b 6d 26 bd 26 bf d1 bc 0d 1b 25 3e
       -0.004944157 -0.040631633 -0.025603842 0.161236
000030 e2 d2 0a 3d 6f 30 44 bd 4f 1e 22 bd 3f 25 72 bc
       0.03389252 -0.047897752 -0.039579686 -0.014779388
000040 36 a4 a4 bd 32 43 12 3e 47 cb 3a bc b6 db 97 bd
       -0.08039133 0.14283445 -0.011401004 -0.074149534
000050 a9 e7 4c bd 71 57 e4 3c 45 e7 d9 bd 4f 35 09 bd
       -0.050025616 0.027873727 -0.10639814 -0.033498105
000060 f4 23 a2 bd a9 fb a2 bd d7 ec 17 bc 73 2d 8f 3d
       -0.07917014 -0.079581566 -0.009272776 0.069910906
000070 20 95 f3 3d 9b 8c 30 3e 2f ef 1f be 29 f7 04 3e
       0.11893678 0.17241137 -0.15618585 0.12984909

_network.7.weight f4 [32]
000000 d4 13 36 3f 7b 36 5d 3f 3f 8d 62 3f 5a a2 69 3f
       0.71124005 0.86411256 0.88496774 0.91263354
000010 e2 f5 5d 3f a3 33 61 3f 56 66 3e 3f 5d b1 57 3f
       0.8670331 0.87969416 0.743749 0.8425501
000020 ad 34 5f 3f 3b 37 65 3f 5d 43 59 3f 9a a3 64 3f
       0.8718975 0.895374 0.84868413 0.89312136
000030 49 b5 64 3f 78 68 63 3f ed 6b 5e 3f d8 3d 6a 3f
       0.8933912 0.8883128 0.8688343 0.91500616
000040 61 ee 60 3f fe a6 36 3f 0c c0 41 3f 63 ac 67 3f
       0.8786374 0.7134856 0.75683665 0.90497416
000050 07 1c 5c 3f bf b1 61 3f 5c f3 54 3f 3b a9 4a 3f
       0.85980266 0.88161844 0.83183837 0.79164475
000060 45 32 56 3f eb 12 5f 3f 6b 6a 64 3f 96 20 34 3f
       0.83670455 0.8713824 0.8922488 0.7036222
000070 f2 df 63 3f 48 55 60 3f 50 1f 67 3f 7d 5e 5e 3f
       0.8901359 0.8763013 0.90282154 0.8686293

_network.7.bias f4 [32]
000000 97 85 9b be 0c d5 b0 bd 38 38 e6 bd ff 35 a5 bc
       -0.30375358 -0.086343855 -0.112411916 -0.020167349
000010 e8 5d 86 bd 97 c0 0a be 97 92 7a be b8 cb 5e bd
       -0.0656088 -0.1355003 -0.24469982 -0.0543935
000020 d7 cd c4 bd 0f b8 5f bd 84 58 dc bd f1 97 88 bd
       -0.09609573 -0.05461889 -0.107590705 -0.066696055
000030 c9 4f 02 be 0a c0 44 3d 82 c7 e6 bd ea ef 7f bc
       -0.12725748 0.048034705 -0.11268522 -0.015621165
000040 53 cf 87 bc 0b 80 00 be 8e 1a 31 be 80 1b 2c bc
       -0.016578352 -0.12548845 -0.17295286 -0.010504603
000050 c8 b4 10 be 27 bd 7e bd e4 e8 44 be 9c 67 1d be
       -0.14131463 -0.06219211 -0.19229466 -0.15371555
000060 3b 64 43 be 81 ca 95 bd b0 02 b6 bc ad 90 92 be
       -0.19081204 -0.07314015 -0.022218078 -0.28626004
000070 30 34 de bd 4a 03 1b be 72 b7 da bd 8f 8c 08 be
       -0.10849798 -0.15137973 -0.10679521 -0.13334869

_network.7.running_mean f4 [32]
000000 7c 9f f4 be 68 48 54 bd 28 e8 1c be b2 27 d6 be
       -0.47777927 -0.051826864 -0.15322936 -0.4182716
000010 c2 37 a2 be ff 20 96 be 9e 64 58 be 21 f9 22 be
       -0.31683165 -0.2932205 -0.21132132 -0.15915348
000020 e9 ed 00 3f a5 3c c3 be e7 83 b4 3c 98 21 c6 3e
       0.5036302 -0.38132206 0.022035552 0.38697505
000030 f3 a9 a2 3e e0 fe 19 3e 5e 4d 93 be 78 c4 e2 bd
       0.31770286 0.15038633 -0.28769964 -0.1107263
000040 f7 92 6a bd 72 38 b6 3e e9 4a 0e bf 04 f6 79 be
       -0.057269063 0.3558994 -0.55583054 -0.24410254
000050 43 94 25 3b 88 7c 2d be 77 b4 3e bf 84 40 02 be
       0.0025265373 -0.16942036 -0.7449412 -0.12719923
000060 c6 93 8a bd 70 91 74 bd f8 bb 37 be e9 24 ad bd
       -0.06766467 -0.059709013 -0.17942798 -0.08454306
000070 b4 42 d5 be 13 70 c0 3c fe b6 29 be a6 ef 50 3d
       -0.41652453 0.023490941 -0.16573712 0.051009797

_network.7.running_var f4 [32]
000000 20 dc 97 3e 20 79 f7 3e b0 9b 3e 3e 40 2e 55 3f
       0.2966013 0.483346 0.18614078 0.83273697
000010 32 05 4d 3f 6a 01 bc 3e 2f 2c 30 3e f1 c5 46 3e
       0.8008605 0.3671983 0.17204355 0.19411446
000020 97 fc 54 3f 60 57 2c 3f 82 3b 04 3f 57 4b b3 3e
       0.8319792 0.67320824 0.516533 0.35018417
000030 b2 36 72 3f 3f 61 14 3f 32 1e 62 3e 34 d5 d9 3e
       0.9461471 0.57960886 0.22081831 0.42545474
000040 a8 50 e0 3e f0 98 df 3e 3c 3c 53 3f 58 30 30 3f
       0.43811536 0.4367137 0.82513785 0.68823767
000050 f9 76 bb 3e e4 41 90 3e 2e 00 99 3e 71 59 f2 3e
       0.36614206 0.2817527 0.2988295 0.47333863
000060 98 1b 22 3e d5 72 46 3e 98 ab a9 3f c3 5f 93 3e
       0.15830839 0.19379742 1.3255491 0.28783998
000070 c0 bc b7 3e bb 40 a9 3d 89 7a 60 3e ac ca 32 3d
       0.35886192 0.082642995 0.21921743 0.043650314

_network.9.weight f4 [1, 32]
000000 ec 3c 15 3c 9b 32 58 bc 34 76 1c 3c 4f df 3d bd
       0.009108763 -0.013195659 0.009549666 -0.04635554
000010 16 f2 d6 bc f5 eb d5 ba c2 46 17 3b a3 e7 dd bb
       -0.026238482 -0.0016320931 0.0023082946 -0.006771998
000020 bc f2 4f 3d 81 69 a2 bc 67 15 71 3c 05 17 4a 3c
       0.0507686 -0.019825699 0.014714575 0.01233459
000030 07 fd 89 3c 77 d2 de 3d 2b 97 d6 3b a6 2f 8a bd
       0.016844286 0.10879987 0.0065487823 -0.067473695
000040 27 3d 12 bd 34 12 2d 3d 56 af b0 bb ba c9 21 bd
       -0.03570285 0.042253688 -0.0053919954 -0.039499022
000050 2b 61 9d 3c 56 4c 80 bc 1a b9 25 3c 0c 12 2a 3c
       0.019211372 -0.0156614 0.010114932 0.010380279
000060 19 a6 8d bb 8c bb 2a bc 75 b6 a2 3d 8a 38 50 bb
       -0.004322779 -0.010420691 0.07944957 -0.003177198
000070 57 ad 84 bc 8a 27 f6 b8 3f 32 17 3c 37 a9 47 3a
       -0.016195936 -0.00011737559 0.009228288 0.00076164625
