checkpoints/mlp/2023_06.pt (torch, 18270 bytes, 19 tensors)

_network.0.weight f4 [32, 5]
00000000: 65bc 943c 3c2a 08bf cd6c 22bd 562f 1e3c
00000010: 418b a33d 6034 26be a928 a8be ddf2 973e
00000020: 84ec ccbe ef65 583e f52c da3e c84d ae3e
00000030: b7ae 413e d54c 333e 18e2 0c3e cf65 6ebe
00000040: a5d5 663d 1a29 bb3e eff3 803d ffaa 60bc
00000050: 1c4c a7bd 6767 14bd 8a15 dc3e 66bb ccbe
00000060: 65a1 66be 7abd abbe 0816 243e e942 463e
00000070: c3f2 663d db01 bc3e 04eb f4bd a676 ce3e
00000080: 4d46 03be d5d3 83be ad60 9e3e 22ed 8f3d
00000090: 63d1 02bf 2140 7a3e d3c5 873d fed0 98be
000000a0: 52a7 3f3e 6c16 21bf b782 e4bd 63a6 9fbd
000000b0: 5ccf 1bbd 4e50 20bb 8e99 0d3f 9c49 77bd
000000c0: 1775 913c a802 6e3e 15c5 ff3d f82e 7e3e
000000d0: ffb5 913e 9c0e 863d 172a dfbe 26da 5e3e
000000e0: f6b9 f33e c94c 81be eabe 93bc 9c5c 673e
000000f0: e950 fb3d 48b0 0c3e 090f 3abd e518 443e
00000100: 96e2 82be 5e33 9a3e 0b01 983d f062 d93d
00000110: 6af6 b23e eee4 8f3e d5dc dcbe 471e 023f
00000120: 3e91 b83d 4f69 0cbe 3412 cfbe f398 1cbe
00000130: eec2 003e ead8 5f3e 6e60 00be 0c2d b03e
00000140: 89ab 70be a5ac 06bf b29e 723e b145 63bb
00000150: d33b 81be 95d4 adbe 424a edbd d321 3ebd
00000160: dd22 b9be ebae 7b3e e03d 443c 1d46 23be
00000170: 9101 afbe e99d 22bd 285e 27bd 1457 ad3e
00000180: 50eb dbbe 19dc 523c d004 ffbd 90c7 a9be
00000190: 625d 7abd a77b 243d 95b5 c4be 17bd fcbc
000001a0: ae2e b33d 38d2 c2bd 0228 013f d733 4abe
000001b0: bd12 143d 3e21 edbd b5da 083e 337f 803e
000001c0: 6b7b 36be 482c a13b 19c7 d9bd 1a46 af3d
000001d0: fb9f bbbe 352e aa3d d1ff 82bc 5807 083e
000001e0: 4586 70be 9aa4 2e3f b66d 8f3e 08e2 30be
000001f0: 46fc cabd f2eb 003d af58 2abf fdb5 bd3d
00000200: 2724 253e c04a 9fbc 959c 353d fd37 8dbe
00000210: 37ef 2b3e fb01 70be 97f4 463e 27aa 0c3e
00000220: e1e7 3cbe 856f 82be 471e e93e 2b44 a03e
00000230: 5559 5fbe e0e8 f53e 1a8a 9a3e 2513 bebe
00000240: 6375 01bd ac11 c53e 5dc1 a7be c025 673e
00000250: aa9f af3e 04b7 9bbe ef1a 13be 82bf 0a3f
00000260: ad51 55bd ea73 d0bd 3cda a43e f5ef f63d
00000270: 2eb4 863e ed85 b73e dc66 b3be 1efa 4a3e
0.01815624 -0.53189445 -0.03965454 0.00965484 0.07985545 -0.16230917 -0.3284352 0.29677477
-0.40024197 0.21132635 0.42612424 0.34043717 0.18914305 0.17509778 0.13758123 -0.23281024
0.05635609 0.36554796 0.06296527 -0.013712644 -0.081688136 -0.036231425 0.42985183 -0.39986724
-0.22522505 -0.33542997 0.16024029 0.19361462 0.05638386 0.36720166 -0.11958888 0.40324897
-0.12819786 -0.25747553 0.30933133 0.07027651 -0.5110075 0.24438526 0.06629529 -0.29846948
0.18716171 -0.6292484 -0.111577444 -0.077954076 -0.03803955 -0.0024461928 0.5531243 -0.060372934
0.017756028 0.23243201 0.12488762 0.24822605 0.28459165 0.06545755 -0.435868 0.21762905
0.47602814 -0.25253895 -0.01803537 0.22593921 0.12271292 0.13739121 -0.045424495 0.19150122
-0.25563496 0.30117315 0.07422074 0.10614574 0.34953624 0.28104347 -0.4313723 0.5082745
0.09012078 -0.13712047 -0.40443575 -0.1529272 0.1257436 0.2186009 -0.12536785 0.34409368
-0.23502935 -0.52607185 0.2369335 -0.003467899 -0.25240955 -0.3395125 -0.11586429 -0.046418976
-0.3615941 0.24578445 0.011977643 -0.15944715 -0.34180883 -0.039701376 -0.04086128 0.33855498
-0.42952967 0.012869858 -0.1245209 -0.33160067 -0.061124213 0.040156987 -0.38419786 -0.030851884
0.08749138 -0.09512752 0.5045167 -0.19746338 0.036150683 -0.11578606 0.1336468 0.25097045
-0.17820518 0.004918609 -0.10633678 0.08558293 -0.36645493 0.083095945 -0.015991123 0.13284051
-0.2348872 0.6821991 0.2801339 -0.17273724 -0.099113986 0.031475015 -0.6654157 0.09263227
0.16127072 -0.019444823 0.04433878 -0.27581778 0.16790472 -0.23438255 0.19429241 0.13736783
-0.1844783 -0.25475708 0.45530912 0.31302008 -0.21811421 0.48029232 0.30183488 -0.3712398
-0.03160609 0.38490045 -0.32764712 0.22572994 0.34301502 -0.30413067 -0.14365743 0.5419847
-0.052079845 -0.10178359 0.3219775 0.12057487 0.2630934 0.35844365 -0.35039413 0.19821975

_network.0.bias f4 [32]
00000000: 0f93 6abd 1639 313e 6b5d bd3e f4e5 f5bd
00000010: a01f 413e 4574 d23e 8617 b0bc cbdf 62be
00000020: 1520 2fbe 9447 8ebe b73f 393e 810a 9e3e
00000030: 991e 61be 81ed b3be 4c74 013e 307e 8cbe
00000040: 4610 473e 7a42 823e 4872 69be cb45 91be
00000050: ec1e 80bc 854f a93e f207 41bd 6c87 d4bc
00000060: 3aeb cabe 9cf8 3ebe cb92 c13e 62ac 60be
00000070: 467f 473d 893b cc3e 19b1 5abe 3fc6 be3d
-0.057269152 0.17306933 0.36985335 -0.12006751 0.1885972 0.41104332 -0.021495592 -0.22155683
-0.17102082 -0.27788985 0.18090712 0.3086739 -0.21984328 -0.3514214 0.1264202 -0.27440023
0.19439802 0.25441343 -0.22797501 -0.2837356 -0.015639745 0.3306848 -0.047126718 -0.02594348
-0.3963259 -0.18649524 0.37807307 -0.21940759 0.04870536 0.39889172 -0.2135662 0.09315156

_network.1.weight f4 [32]
00000000: 020d 873f 2ab9 793f 4e20 6b3f b532 6a3f
00000010: cf4d 663f 6503 773f 258f 873f f6dc 753f
00000020: 3c8b 943f a0a2 833f af39 6c3f 58c2 7e3f
00000030: 5d9e 6f3f 2754 623f 1eed 473f 4eba 743f
00000040: 3888 7c3f 6177 6f3f d73c 853f 13de 833f
00000050: 3d0c 7c3f 87da 8a3f b6d0 7b3f 8fae 8e3f
00000060: 8395 8e3f 9b51 903f edfb 713f a87b 5b3f
00000070: 3726 763f ae06 773f 6d63 8c3f 8a77 5e3f
1.0550845 0.9754816 0.9184617 0.9148362 0.89962476 0.96489555 1.0590559 0.96040285
1.1604991 1.0284004 0.9227552 0.99515295 0.9360102 0.88409656 0.7809619 0.9559678
0.98645353 0.9354153 1.0409192 1.0302147 0.98456174 1.0847939 0.9836534 1.1147021
1.1139377 1.1274904 0.94525033 0.8573556 0.9615206 0.9649457 1.0967842 0.8690115

_network.1.bias f4 [32]
00000000: 79b8 843e e95f 4fbc 580a f43c abb4 6c3d
00000010: 3e8a 3dbd 878c b73d c94d 6d3d 160f 263d
00000020: a645 e23e aa19 743b 766f e9bc e3e1 7b3d
00000030: 7646 5fbd 0ebc 47bd 43f8 37bd d8e8 80bc
00000040: 8fd6 67bd 39b6 37bc fe03 26be 8ba2 f43b
00000050: bbc9 61be 8d95 15bd ba7a 36be f532 603e
00000060: 58c2 3a3d e345 6a3d e85e 563c 01cf 99bd
00000070: 6c84 a2bd 6a04 d83c 8177 9ebd de49 59bd
0.2592199 -0.012657144 0.029790089 0.057789486 -0.046274416 0.0896235 0.05793551 0.04054173
0.44193763 0.0037246742 -0.028495532 0.06149472 -0.054510556 -0.048763327 -0.044914495 -0.015736029
-0.056601103 -0.011212879 -0.1621246 0.0074656657 -0.2204961 -0.036519576 -0.17820254 0.21894439
0.045595497 0.057195555 0.013084151 -0.07510186 -0.07935414 0.026369292 -0.07737637 -0.05304896

_network.1.running_mean f4 [32]
00000000: 44e7 69be caac 22be 7a1f 633f 4848 e9bd
00000010: 94a4 3ebe d345 143f 5ef4 6f3d 5c99 f3be
00000020: f8f1 dfbe dc45 883d 5600 4d3e 354b 293f
00000030: ceda e9bd 2cc3 393e 1e48 e8bd d1f7 34be
00000040: 10c8 5abe dae8 6cbd 5ab8 bfbe 5302 11bf
00000050: 788f 3bbd de94 e43e 986c 2b3d 40f9 a1bd
00000060: 7417 aebe e641 adbe 459a 753e 5a9b 3d3e
00000070: d264 8dbd f693 063f d235 063d 30e8 1c3e
-0.22842127 -0.15886226 0.88719904 -0.1139074 -0.18617469 0.57919043 0.058582656 -0.4757794
-0.43739295 0.066539496 0.2001966 0.6613038 -0.11418687 0.18140858 -0.1134188 -0.1767266
-0.2136538 -0.057839252 -0.37445337 -0.5664417 -0.04579112 0.44644827 0.04185161 -0.07908869
-0.34002268 -0.3383934 0.2398463 0.18516293 -0.069039956 0.5256952 0.03276617 0.15322948

_network.1.running_var f4 [32]
00000000: f63a 8a3b bf52 113d a72a 843c 015c 9e3b
00000010: 345c 0c3c db67 b33c e4e1 bf3c c0df 3d3c
00000020: 33f4 d83b 0216 d03b 2a4b b23c 237d bb3b
00000030: 772b 8a3c 704a 4e3c a077 503c a683 b13c
00000040: 7622 da3b c9da 273d 44bd 6a3b a513 7b3c
00000050: 0f57 823b f550 bc3b b491 a23b 2789 5a3b
00000060: 3331 383c 420b f63b ea6d 4b3c 800e 1b3c
00000070: 65a2 983c 7c7f 3c3d 0252 8e3c 1ec4 9a3c
0.0042184545 0.035479303 0.01613362 0.004832745 0.008566905 0.021900108 0.023423143 0.011588991
0.0066209077 0.00635028 0.021764357 0.0057217046 0.016866429 0.0125909895 0.012723833 0.02166922
0.00665694 0.040980134 0.0035818378 0.015324508 0.0039776633 0.0057469555 0.004961217 0.003334591
0.011242199 0.0075086663 0.012416342 0.009463906 0.018632123 0.046020016 0.017373089 0.018892344

_network.3.weight f4 [32, 32]
00000000: 8193 11be e7bc c2bc d07c 0b3e db93 f33d
00000010: 7043 2bbe 7865 8bbd c096 013d 5ff7 133c
00000020: b27d 0f3e 7e5f d53d 705c a43d 61cb f13d
00000030: 754a f33d 86de 7abd f49d e4bd 1301 60bc
00000040: b341 b7bd 6867 06be 7433 ddbd 6167 90bc
00000050: 6e09 36be d8ad 0d3e 0687 f4bd c013 bdbd
00000060: 3a59 183d 7055 d5bd 023c 42bd 7390 093d
00000070: 4c51 043c b809 91bd ee02 10be c59f 9bbd
00000080: 6088 84bd 178c d0bd 62b1 d83d d484 d8bd
00000090: 822e 86bd 496b 393d 588d 653e bd2e eebd
000000a0: 1a93 9b3d d859 493e 2b1d 24be 518d 153e
000000b0: 8ff5 15be 79ee 03be 4a9d bd3d 9fba 933d
000000c0: 8690 e6bd 8745 0b3e c497 e8bc 2b62 57bd
000000d0: 0213 99bb 1b87 7ebd 1e45 d83c 3cee 633d
000000e0: e9dc 8d3d 554e 9fbd 1269 303e 8d04 febd
000000f0: 13f6 c03c 08ea d1bd b831 893e e82d 15be
00000100: b54c 19be e371 693e a6d4 1fbe 8a80 1dbe
00000110: fad8 7e3c e170 ef3d 58f4 b03d 89ce 1dbd
00000120: 5af0 77bc 3e8e f23d 0e48 d63d cc88 363e
00000130: 1a4a 473b fd14 14bc 67c2 293d 2078 02bd
00000140: 0057 1a3e 31f1 293e 6f2f 1f3e 9fe2 57be
00000150: 247d 2ebd c02f 1b3c 871d 093e 387f 9cbc
00000160: 0773 3c3e efd6 073d 5bc2 2fbd 78ec fbbd
00000170: 3848 cdbd 3db3 48be c7fe f33d 6e04 013e
00000180: 5f15 a9bd 1e93 c33d ef34 333e 42fc 6dbd
00000190: 8551 603d 2cd8 a63e 93b7 a1bd 01fb ab3d
000001a0: 8026 63bd e0e4 0cbe 4d29 093e 1083 9c3d
000001b0: ad2d 723e 6974 643b 8d50 06be cf74 173d
000001c0: 2881 a53d 98f0 6dbd 46a0 253e 4f07 0abe
000001d0: 9ee9 883d 5baf a03d afc3 3a3e 4445 4fbe
000001e0: bbef 75be cc79 8fbe 7f9f b9bd a756 c8bc
000001f0: 70c8 e43c 3daa fb3c 1bd1 42bd b5c3 103e
00000200: 21c0 8cbd 97a2 d6bd 0145 243e 9b5f 1fbe
00000210: 6f06 e6bd 7723 5e3e c080 783d 39e3 db3c
00000220: e18e 453c c438 cebd a6b5 593e e0d7 b43c
00000230: b65a 8d3c 196f a93b 2d11 50bd a9d6 6f3d
00000240: bb07 64be 6ea7 abbd 812c 02be 7be9 543e
00000250: 4e2d e2bd 0446 d5bd 1d56 d63d 42bc 80bc
00000260: 32b2 35be 0862 8abe 58ad 383e e07b 9fbd
00000270: 2780 babd 5a17 493e 05db eabd 9dad 983c
00000280: f29b 60be 44ed c5bd b026 a03c 6a7f 9cbd
00000290: 08b9 afbb 5276 193e 0d94 fc3d 0fc9 9e3d
000002a0: 138f 93bd f009 393e b7c7 dabd 89c4 e23d
000002b0: 0059 f83d 0f6c 70bd f56d ebbd e6e3 f93d
000002c0: 7578 a23c cba8 253d 1f7a 643d a6fe 8ebd
000002d0: 7581 1c3d 5ff7 10be f334 8e3d c3e7 17be
000002e0: c330 643e f2c3 623e 418d dfbd 86ce 123c
000002f0: f8e4 2a3d 6e92 9dbb a533 293e 7e92 983e
00000300: e8cd 84bb 7306 d63d 9358 6cbc 9e16 febd
00000310: 73bb dfbd 7b75 dd3d f31f cc3d 5b0d 1d3d
00000320: b71a 493d d584 3c3e 052a d63d fea5 9aba
00000330: 7ccd 6fbd d129 0fbc 46ce 033e 61b7 2c3e
00000340: 027c 6f3d 0716 8b3c 9660 0e3d a032 c63d
00000350: 83df 7b3e b20b 2c3e 45ea 8dbd 1079 c73d
00000360: 6d30 a4bd 766e 903d 4515 32bc 27b7 8d3d
00000370: 9762 d8bb 3a57 2bbe 7b58 523e bd2f d83d
00000380: 89eb 4cbe 5195 36be a46e 18be fa86 7a3e
00000390: 9d2a 0bbe 9bea 17be cb32 20bd 999b 533e
000003a0: 0d39 343d b005 ff3b 67ef ec3d fc36 90be
000003b0: 7d3e 843d d7d0 2d3d 7d15 01bc 0f56 1f3e
000003c0: cd20 82bd 4d26 f43c 5996 8a3d 1e9b 3d3d
000003d0: 9de1 c3bd 8c44 e43d 145f bf3b 48e5 88bd
000003e0: 9d10 2fbe 6434 fa3d daa0 3dbe faf3 963d
000003f0: ec3e 043e 86ef a53c 8ddf 49bd 12ea 113e
-0.14216425 -0.023771716 0.13621831 0.118934356 -0.16724944 -0.06806463 0.031637907 0.009031146
0.14012793 0.10418604 0.080254436 0.118063696 0.11879436 -0.06124737 -0.1116294 -0.013672131
-0.08948078 -0.13125384 -0.108008295 -0.01762742 -0.17777035 0.13835847 -0.11939816 -0.09232283
0.037194468 -0.104166865 -0.04742051 0.033585023 0.008076023 -0.07081932 -0.14063618 -0.07598833
-0.06471324 -0.1018297 0.10580708 -0.1057221 -0.065518394 0.04526833 0.224172 -0.11630008
0.07596417 0.19663179 -0.16026752 0.14604689 -0.14644454 -0.12883939 0.09258516 0.072133295
-0.112580344 0.13600741 -0.02839268 -0.052583855 -0.0046714554 -0.062140565 0.026400145 0.05564712
0.06926901 -0.077786125 0.17227581 -0.12403212 0.023554837 -0.10249716 0.26795745 -0.14568293
-0.14970668 0.2279735 -0.15608463 -0.15381065 0.015554661 0.11691452 0.08640355 -0.038527045
-0.015132988 0.11843537 0.10462962 0.17825621 0.0030409158 -0.009038207 0.041445162 -0.03185284
0.1507225 0.16595913 0.15545438 -0.21082543 -0.042599812 0.009471834 0.1339017 -0.019103631
0.18403254 0.03316396 -0.04290996 -0.12300962 -0.1002354 -0.19599624 0.11913829 0.12599346
-0.08256029 0.09549545 0.17500661 -0.0581019 0.054765243 0.325868 -0.07896342 0.083974846
-0.05545664 -0.13759184 0.13394661 0.07642186 0.23650236 0.0034859425 -0.13116665 0.03697663
0.08081275 -0.058090776 0.1617442 -0.1347935 0.06685184 0.078459464 0.1823871 -0.20241266
-0.24017231 -0.2802261 -0.090636246 -0.024455382 0.027927607 0.030720824 -0.0475627 0.14137156
-0.06872583 -0.1048023 0.16041948 -0.15563814 -0.11231696 0.21693216 0.06066966 0.026841747
0.012057991 -0.10069421 0.212607 0.022075593 0.017255168 0.0051707146 -0.05079763 0.058554325
-0.22268574 -0.08381544 -0.1271229 0.2079219 -0.110437974 -0.10413745 0.104656436 -0.015714768
-0.17743757 -0.27027917 0.18034875 -0.07787299 -0.09106474 0.19637814 -0.11467556 0.018637473
-0.21934488 -0.096643955 0.019549698 -0.0764149 -0.0053626336 0.14986542 0.12332926 0.07753193
-0.072050236 0.18070197 -0.10682624 0.11072642 0.121263504 -0.058696803 -0.11495582 0.12201671
0.019832829 0.040444177 0.055780526 -0.06982164 0.038209397 -0.14156865 0.06943693 -0.14834504
0.22284226 0.2214506 -0.10915614 0.008960372 0.041722268 -0.0048087155 0.16523607 0.29799265
-0.0040528663 0.10450449 -0.014425415 -0.12406658 -0.10924425 0.10813423 0.09967031 0.038342815
0.049097743 0.18410046 0.10457233 -0.0011798737 -0.058545575 -0.008737997 0.12871656 0.16866829
0.058467872 0.016978277 0.03476008 0.09677625 0.24596982 0.16801336 -0.06929449 0.09739888
-0.08017049 0.07052319 -0.010869329 0.06919699 -0.0066035497 -0.16732493 0.20541565 0.1055598
-0.20011725 -0.17830397 -0.14885956 0.24465552 -0.13590474 -0.14835589 -0.03911094 0.20664825
0.04399972 0.0077826604 0.115691 -0.2816695 0.06457231 0.042435493 -0.007878658 0.15560172
-0.063539125 0.02980342 0.06766958 0.04629051 -0.09564517 0.11145887 0.0058401916 -0.06684357
-0.17096181 0.12217024 -0.18518391 0.073707536 0.12914628 0.020255815 -0.04928546 0.14249447

_network.3.bias f4 [32]
00000000: 7ca8 3a3d dfb3 e63d 7c1c 14bd d2f0 0cbe
00000010: 43a6 00be bb39 1f3e f68b 1cbe 12c1 7e3d
00000020: 72ca b43d ac0d acbc e340 fdbd 1efc 99bd
00000030: 62c5 afbd 57ca eebc 4a09 bd3c e75a 87bc
00000040: 13ae 6a3d 1cb2 cf3d cc4f 43bd de9a d8bb
00000050: 3aac a53d c3d8 aebd 624c 4e3d 03dc 2bbc
00000060: 2e64 983d 3c7d 913d 5a4d 1d3e f78b 983d
00000070: 15ed 0c3e 4f43 723d f98b 03be e3f5 1c3e
0.045570835 0.112647764 -0.036159977 -0.1376374 -0.12563424 0.15549366 -0.15287766 0.062195845
0.08827676 -0.021002613 -0.12365892 -0.07518791 -0.0858257 -0.029149218 0.023075718 -0.016522838
0.057294916 0.101413935 -0.047683522 -0.0066102585 0.0808949 -0.08537438 0.050365813 -0.010489467
0.07440983 0.07103965 0.15361539 0.07448571 0.13762315 0.05914622 -0.12846364 0.15328173

_network.4.weight f4 [32]
00000000: 16db 653f 843b 853f fbe6 753f 62d5 7a3f
00000010: 1139 7b3f 58f2 8a3f 0de4 813f d04d 7e3f
00000020: 1e4f 733f a00d 6f3f 8f22 653f d9c9 8c3f
00000030: 32ba 823f 0a58 863f af89 623f 6974 8b3f
00000040: 5ec8 6a3f 4321 8e3f 67e6 723f 6f0a 6b3f
00000050: e0cd 803f 41fe 853f 2d29 723f 0a4a 6d3f
00000060: 7991 813f 1e74 703f 4eff 763f a134 823f
00000070: 8c14 863f f6f6 683f abf6 783f 3c51 6a3f
0.89787424 1.0408788 0.96055573 0.97981846 0.9813395 1.0855207 1.014772 0.9933748
0.950426 0.93380165 0.8950586 1.0999099 1.0213072 1.0495617 0.8849134 1.08949
0.91711986 1.1103901 0.94882816 0.91812795 1.0062828 1.0468217 0.9459408 0.926911
1.012252 0.9392718 0.96483314 1.0172311 1.047502 0.9100183 0.97251385 0.91530204

_network.4.bias f4 [32]
00000000: 3f52 bdbd 0707 a73d f28e 7ebd 2db3 00be
00000010: d830 01bc fdd6 f63c 64d4 00bd 0c40 593d
00000020: 0f6f 2fbe 1732 4bbd 3401 533d 73c9 133e
00000030: e53f a7bd c2c3 0abe 28c5 d1bd 0b51 6e3e
00000040: 5686 12bd 06b5 153e bded 613d 8b64 24bc
00000050: bf1f 933d e80b 003e 7f1f 903e e57b d83d
00000060: b619 2cbd 1313 e43d 58a8 3e3b 0dd5 a63d
00000070: 5dc1 87bb 8dac b3bd 4ad9 7539 5d3b 9fbc
-0.09244203 0.08155637 -0.062148042 -0.1256835 -0.00788518 0.030131811 -0.03145255 0.053039595
-0.17132209 -0.049608316 0.05151482 0.14432316 -0.08166484 -0.13551238 -0.10242683 0.23273103
-0.035772644 0.14619836 0.055158366 -0.010033737 0.071837895 0.12504542 0.2814903 0.10570506
-0.042016707 0.111364506 0.002909204 0.08146105 -0.0041429237 -0.08773146 0.00023445967 -0.019437486

_network.4.running_mean f4 [32]
00000000: f58d 24be 8980 7a3e d1d3 573e 1a33 e4bd
00000010: d706 90be 2886 e43e 9b6f df3e b00d 63bd
00000020: 1e9c 96be c018 f63e 6a4d c83e 9537 6a3e
00000030: 9e1d 743f 6837 d73e 2710 963e 6976 58bd
00000040: ae8a 3b3e 32df 373e ee7f 0f3f 34e6 d03d
00000050: d2db 01bf 0707 103d 0ee6 953e 1c3a b03e
00000060: 3a4d cb3e 8619 cc3d 9048 113e 6e22 093f
00000070: 5a0f 1b3e 0d27 673c 349d 13bf 0ebf acbd
-0.16069777 0.24463095 0.21076895 -0.11142559 -0.28130218 0.44633603 0.43639836 -0.055432975
-0.29415983 0.48065758 0.39121562 0.22872765 0.9535769 0.4203446 0.29309198 -0.0528473
0.18314621 0.17956236 0.5605458 0.10200158 -0.50726044 0.03516295 0.2927708 0.34419334
0.39707357 0.09965806 0.14187837 0.5356816 0.15142575 0.0141084315 -0.5766175 -0.08434878

_network.4.running_var f4 [32]
00000000: 32f4 783e 189b 183f 3334 d73e 8c94 653e
00000010: 36df c03e 607a c73e e820 693e d83f 933e
00000020: 8886 4f3e 7c4b cc3e f770 2e3e d212 ec3e
00000030: ff42 463f 14f9 f63d 040d 053e ba22 353f
00000040: c054 cc3e c4c5 843e 8298 043f 7707 773e
00000050: b594 423f fdeb c83e 4ea5 0b3f e094 193f
00000060: 4078 7c3e f422 643e 8a2e 4f3e 27f1 503f
00000070: 6de8 0f3e 3f5e 0d3e 66cc 393f 370c 5d3e
0.24311903 0.59611654 0.42032012 0.22419947 0.37670296 0.38960552 0.22766459 0.28759646
0.20266163 0.3990134 0.1703528 0.4610811 0.7744598 0.12059227 0.12993246 0.70756114
0.3990841 0.25932133 0.5179521 0.24123941 0.7600816 0.39242545 0.5454911 0.5999279
0.24655247 0.22278959 0.20232597 0.8161797 0.14053507 0.13805483 0.7257751 0.21586691

_network.6.weight f4 [32, 32]
00000000: 0436 f3bd b10b 9bbd e112 df3d dc0d 7abe
00000010: 4e0a 59be 2f4f ab3d 84b0 813d 213d bcbd
00000020: 7c58 ec3c b979 4bbe e07c 23be 79b4 a1bd
00000030: 30d9 10bb 387b 26be 2056 01be e358 ddbd
00000040: c28f e6bd 957e 863d 7823 fb3c 1b4b c0bd
00000050: 1f67 0e3e 6cae 223d c1e3 26be ddeb 75bd
00000060: dd4a a7bd d00f 343c f265 f0bd aa9d 87bd
00000070: c2a2 ce3c 61c8 a5bc fe31 66bd 54d1 ddbd
00000080: 2350 48be d010 833d b7c9 9abd 8a52 35be
00000090: cd5f f7bd 0275 ba3d aac7 3e3e de2a 9b3c
000000a0: b711 343d cfcd 8bbe 55f5 9dbd c67e d4bc
000000b0: 064e c4bd 29cd 55be 9a22 073e 99d2 28be
000000c0: 47fb 1f3e 50d2 6e3d 56ac bd3d e03e a8bc
000000d0: e0d3 7ebd 597a f03d b810 3cbe ca00 bebd
000000e0: 220a f73d e1b2 acbe ec26 38be 2a25 d8bd
000000f0: edb3 84be bb05 a83d a0db 35be 1e6c 13bc
00000100: 108a 9d3d 0f5d 05bc 945d f63d 47a0 cb3c
00000110: 4cb7 383e 90f0 62be d430 44bc 8580 4cbe
00000120: 7d9d ca3d a6ce d73d 3127 bbbe a201 073e
00000130: 70e7 f3bd c4d6 fc3c 6079 bebd cbaa 8e3d
00000140: adfc 52be e44b d73b bec8 4ebd 3749 63be
00000150: d445 4bbd 26f6 183d 9354 89bd ac33 8bbe
00000160: 80f4 f1bd 3652 a3bd 56f7 40be 9ade 7c3c
00000170: 23a2 3ebd db20 8dbb 52bb cabd 01e3 333e
00000180: 13e4 9e3d 46e6 b9be b6b1 80be d50d 383d
00000190: 80a7 8cbd 0241 56be 859a c4be a863 cd3c
000001a0: 70e1 90be ae68 3b3e 074d 86bc c451 c5be
000001b0: 906a 05be 2793 053d 33f8 f7bd 3f68 723d
000001c0: 75ef 6abd 3cdd 14be c612 7fbe 419b 05be
000001d0: 4111 743c ba5c cb3d cd03 80bd 488e 65be
000001e0: 54ed bcbd f47d 06bd 2b48 6e3d 3306 d1bd
000001f0: d2e6 073e 4626 113e 3a33 36be 78cd 933d
00000200: 4c45 e63d 58de 383e e259 9cbc 783d 3c3e
00000210: dc5c 20be 33e5 20bd 64c3 4e3d 7312 ffbc
00000220: ef1c 713e b08f 223d 6fca eebd d212 ad3d
00000230: 63c4 a1bc 7602 bc3d f3ca b6bd d0dc 04be
00000240: 2391 723e 95d4 83bd 0f51 b33b 22a4 d2bd
00000250: f67c 5c3d d7f4 053d 4871 21be 6bc2 fb3d
00000260: 461a 4d3e 3658 7e3c b9e4 9dbd 3ab6 5dbe
00000270: eda4 bb3d ddb4 0f3e 96bb 893c 50ed 84bb
00000280: 033a a83b 8634 70bb f4b6 c73d 9def 4bbe
00000290: 36f0 8bbc 6c28 e13d b9ff e9bd ec68 cfbd
000002a0: 98f5 db3d 378a 57be f80a 883d 8fc6 4bbd
000002b0: 7e4a 84bd 26d5 eebd ac1a 14bd 7207 423d
000002c0: 53fa 81bd f8cf 11be 7d85 56bd 19bd 12be
000002d0: 0d7d 13be c66e f4bd 898f 0b3e 8c46 33be
000002e0: e63d b23d b8b5 083e d8e7 bbbd 7da2 253d
000002f0: 4ff4 17be 4ffc dcbd cd32 96bd 9146 b33b
00000300: 24b7 5b3e 7784 833c 626c 01be d4d9 853e
00000310: 0d9f 253e 1490 3939 9243 733c 3385 a73d
00000320: 5223 393e c8ec e83d 3176 d63d 8343 9bbc
00000330: d671 c5bd 5559 b73d 879e 0a3e 3a97 65be
00000340: b009 c8bd 9e70 3fbe 5f5c 113e 2281 4fbd
00000350: 927c ea3d 4cf3 83be dd42 57bd 05e1 a0bd
00000360: df49 253e 3548 0fbe b5c6 1a3e 3c49 3abd
00000370: f0ab 2cbd b32d 1fbe e800 253e 83f4 8c3d
00000380: c6cc 0c3e 2ed9 d5bd adc7 6a3d 106a 7f3e
00000390: 4459 2dbd 4e97 9abd 4b43 d73c 43ff 2abd
000003a0: f46d 3bbd a14f 353e c165 fb3c e896 09be
000003b0: c93b 043d f86c 8dbd 9e3f b93d c9b1 04bd
000003c0: a081 813d 0df1 76be 1556 c2bd a2bd fb3d
000003d0: be9d fcbd a91f 113c 8d73 113e 9e3c 183e
000003e0: ee7c 2fbe e7f3 ba3d dadf 8f3e c982 2e3e
000003f0: f742 4b3e 37f8 783d 7eeb 28be 09f9 94be
-0.11875537 -0.07570589 0.10892273 -0.2441935 -0.21195337 0.083647124 0.06332496 -0.09191347
0.028850786 -0.19870652 -0.15965605 -0.078957506 -0.002210211 -0.16257942 -0.1263051 -0.108079694
-0.112578884 0.06567112 0.030656561 -0.09389325 0.13906525 0.039717123 -0.16297819 -0.06003939
-0.08168576 0.010990098 -0.117381945 -0.06621869 0.025224093 -0.02023715 -0.05620002 -0.10830942
-0.1956182 0.06399691 -0.07558005 -0.17707267 -0.120788194 0.09104349 0.18630853 0.01894134
0.043962207 -0.27305457 -0.07712809 -0.025939357 -0.09585194 -0.20879044 0.13196793 -0.16486587
0.15623198 0.05830604 0.09261386 -0.020537794 -0.06221378 0.11742086 -0.18365753 -0.09277494
0.120624796 -0.33730224 -0.17983598 -0.105539635 -0.25918522 0.08204218 -0.17759562 -0.008997945
0.07692349 -0.008139863 0.12029567 0.0248567 0.18038672 -0.2216208 -0.011974532 -0.19970901
0.0989332 0.10537462 -0.36553338 0.13184217 -0.119093776 0.030864127 -0.09300494 0.0696617
-0.206042 0.006570326 -0.05048441 -0.22195898 -0.04962714 0.03734412 -0.067055844 -0.2718786
-0.11814213 -0.07974665 -0.18844351 0.015433932 -0.046541344 -0.004306895 -0.0989901 0.17567064
0.077583455 -0.36308497 -0.25135583 0.044935066 -0.068678856 -0.20923236 -0.3839914 0.025071934
-0.28296995 0.18301651 -0.016394151 -0.38538945 -0.13028932 0.03261104 -0.12107887 0.059181448
-0.05735727 -0.14537519 -0.24909505 -0.13047506 0.014896692 0.099297956 -0.06250725 -0.22417557
-0.09224954 -0.032834962 0.058174293 -0.102062605 0.13271645 0.14174756 -0.17792979 0.072169244
0.11243686 0.18053567 -0.019085828 0.18382823 -0.15660423 -0.03928108 0.050479308 -0.031136727
0.23546194 0.039687812 -0.11659705 0.08450855 -0.019746965 0.09180157 -0.08925428 -0.12974858
0.23688178 -0.06437031 0.0054723094 -0.10285212 0.05383011 0.0327042 -0.1576587 0.12292942
0.20029554 0.015523961 -0.07709641 -0.21651545 0.091623165 0.14033838 0.01681308 -0.00405661
0.0051338687 -0.00366524 0.097516924 -0.19915624 -0.017082315 0.10994038 -0.11425728 -0.10127434
0.10740203 -0.21048819 0.06642717 -0.049749907 -0.06459521 -0.116617486 -0.03615825 0.04737038
-0.06346574 -0.1423949 -0.052373398 -0.14329948 -0.14403172 -0.11935191 0.13628973 -0.1750738
0.087032124 0.1335057 -0.0917508 0.040438164 -0.1483929 -0.107903115 -0.07333908 0.0054710587
0.21456581 0.016054375 -0.12639001 0.26142752 0.16173954 0.00017696648 0.014847653 0.081797026
0.1807988 0.113732874 0.10471762 -0.01895309 -0.09640853 0.089525856 0.13537036 -0.2242097
-0.09767473 -0.18695304 0.14195393 -0.05066026 0.11449541 -0.25771558 -0.052554 -0.07855419
0.16141461 -0.13992389 0.15114863 -0.045479998 -0.04215616 -0.15544777 0.16113627 0.068825744
0.1374999 -0.10441814 0.057319332 0.24942803 -0.04232146 -0.0754839 0.026277205 -0.041747343
-0.045759156 0.17706157 0.030688168 -0.13436472 0.032283578 -0.0690555 0.09045337 -0.03239611
0.06323552 -0.24115391 -0.09489075 0.12292029 -0.123347744 0.008857646 0.14204235 0.14866874
-0.171375 0.09128552 0.28100473 0.17042078 0.19849764 0.06078359 -0.16496083 -0.2909625

_network.6.bias f4 [32]
00000000: 41a5 f6bc 7698 fa3d 60b1 31bd 8777 13be
00000010: 4911 a6bd 4ce4 25be 1ed7 12be 7391 a13c
00000020: 1903 9c3d ae47 babd c98e 0a3e 4f4a ef3c
00000030: c578 dabb 9cbe abbc c180 09be cfcc 063e
00000040: b96a 3a3d 65ff 5e3d ee28 17be 7e36 e0bd
00000050: 6ec6 bcbd 3baf 463d 0a09 193e 8211 cd3d
00000060: dce8 14be 0246 a73d 7543 0ebe 7d45 303e
00000070: da07 9a3d 3a5e 5ebd a3e9 0ebe c497 40bc
-0.030108096 0.12236111 -0.04338205 -0.14401065 -0.08108766 -0.1620037 -0.14339873 0.019722676
0.07617778 -0.09095703 0.1353103 0.029210238 -0.006667229 -0.020964913 -0.13428022 0.13164066
0.045511935 0.054442782 -0.14761707 -0.109478936 -0.09217535 0.048506957 0.14944854 0.10013105
-0.14541954 0.0816765 -0.1389292 0.17214008 0.07521029 -0.05428908 -0.13956313 -0.011754934

_network.7.weight f4 [32]
00000000: 23fe 563f 8117 653f f502 553f ce20 683f
00000010: b5c6 553f 2e23 413f f08a 553f 510d 3d3f
00000020: 51df 483f c97d 573f 0e6b 603f a4f0 593f
00000030: 0a5e 653f a5d9 493f 760a 4e3f a95a 623f
00000040: ebe0 553f 5a8e 683f 3342 453f 5056 493f
00000050: c67e 5b3f 0579 593f 5307 573f de9e 643f
00000060: 946c 5e3f b72d 553f dd7c 473f 5c29 673f
00000070: f930 5f3f d903 633f 5fdb 5d3f ee0e 6f3f
0.8398153 0.8948899 0.8320764 0.90675056 0.8350633 0.75444305 0.83415127 0.73848444
0.78465754 0.8417631 0.8766335 0.85132813 0.8959662 0.78847724 0.8048471 0.88419586
0.8354632 0.9084221 0.77054137 0.7864733 0.85740316 0.84950286 0.8399555 0.8930491
0.8688443 0.8327288 0.779249 0.90297484 0.871841 0.88677746 0.8666286 0.93382156

_network.7.bias f4 [32]
00000000: 72bd 19be ec69 b1bc fb74 34be e035 70b7
00000010: 96a2 1bbe 234c 9bbe 76f5 9cbd c697 67be
00000020: 980e 76be d337 fcbd d87c 27bd 1d08 cfbd
00000030: 06fb 8a3a df0c 3bbe 4dbe 60be 2045 c9bd
00000040: 8f42 4bbd 54f9 58bc 2624 5abe 4115 72be
00000050: 8772 02be c4aa 13be 09a5 19be 61e0 a8bd
00000060: 3f23 35be 1e4e e9bc 695c 93bd e232 2ebd
00000070: 128d 24bd 65a6 bcbd cde9 31bd 6224 8bbb
-0.15013674 -0.021656953 -0.1762275 -1.43176585e-05 -0.1519874 -0.30331525 -0.076640055 -0.2261649
-0.24029005 -0.12315335 -0.040890545 -0.10108969 0.0010603375 -0.18266629 -0.21947594 -0.09827638
-0.049624022 -0.013243038 -0.21302852 -0.2364092 -0.12739001 -0.1442061 -0.15004362 -0.08245922
-0.17689227 -0.028479632 -0.0719536 -0.042528994 -0.040173598 -0.09211425 -0.04343586 -0.0042462805

_network.7.running_mean f4 [32]
00000000: cc7a 33bf 6530 05bf 817f 19bf 5559 9bbf
00000010: d4b7 be3d b888 27bf ed3d 36bd ac33 fc3d
00000020: 6ca8 83be 9e70 afbe e806 91be 29b9 54bf
00000030: 7916 10bf c84c 26bf eb32 20bf 4ef8 dc3d
00000040: 4048 4fbe 0807 3a3e 50cb 80be 873a 88bf
00000050: ad62 a2be 243d dbbe 1d7f 043f 10aa 0c3f
00000060: b838 11bf 4cac f13e 1004 873e 5053 2cbe
00000070: 64b0 d43e 5485 93be d20e a5be e24e 043d
-0.7010925 -0.5202697 -0.5996018 -1.2136637 0.09312406 -0.6544299 -0.04449265 0.12314543
-0.25714433 -0.34265608 -0.28325582 -0.8309503 -0.5628429 -0.6496091 -0.62577695 0.10789548
-0.20242405 0.18166745 -0.25155115 -1.0642861 -0.3171591 -0.42820084 0.5175646 0.54946995
-0.5672717 0.47201765 0.26370287 -0.16828656 0.41540825 -0.2881266 -0.3223787 0.03230179

_network.7.running_var f4 [32]
00000000: 12a7 d63e 2a1f b33f ce24 ab3e d680 3940
00000010: ce14 8a3e 8423 553e ee07 033f 883d 743f
00000020: 0cd1 d93e ad0e 443f 8e25 203f 76f0 8e3f
00000030: 9eef 823f bbf2 843f 5f87 c43e e5d4 9a3f
00000040: 254c 5e3f f89d c03f 4e29 a73e f406 8a3f
00000050: 4cff 793f f05f 9d3f 0712 4c3f 1a64 983f
00000060: d02c 903e e18d 803f 471a c23f 35c5 7c3f
00000070: c4ce df3f a91a be3f f039 e73e 9c1b db3f
0.4192434 1.3993886 0.33426517 2.8984885 0.26968998 0.2081433 0.51183975 0.9540639
0.42542303 0.76584893 0.62557304 1.1167133 1.0229375 1.0386575 0.3838453 1.209622
0.8683494 1.5048208 0.326487 1.0783372 0.9765518 1.2294903 0.7971501 1.1905549
0.2815919 1.0043298 1.5164269 0.98738414 1.7484975 1.4851886 0.4516139 1.7117801

_network.9.weight f4 [1, 32]
00000000: 22a7 ccbb dcf9 27bd 40ef f83b 37be 99bd
00000010: bc53 673c e73c d33b 4f80 efbc be4b 123c
00000020: 2ec9 37ba 9a2f 813c 8053 6cbd 36aa 39bc
00000030: c34f 16bd ef2a 2f3b a411 be3b 6de0 903d
00000040: 887e ad3d eaa6 6dbd 2606 8f3b 472d 9cbc
00000050: e2bd e73c 1c63 8c3c 4be7 f43c 8cad c33d
00000060: e844 63bc 661a 923d 7f7e 2d3d a003 3cbd
00000070: 934d 0abd 3061 b83d 4feb 03bd 2399 f1bd
-0.0062455097 -0.04100977 0.00759688 -0.07506984 0.014119085 0.006446469 -0.029235987 0.008929191
-0.0007010874 0.015769769 -0.05769682 -0.011332085 -0.03669716 0.0026728471 0.005800443 0.07074056
0.084713995 -0.05802051 0.0043647466 -0.019064559 0.028288785 0.017137103 0.029895445 0.09554586
-0.013871409 0.07133941 0.042356964 -0.045901895 -0.033765387 0.09002912 -0.03220683 -0.11796787
