checkpoints/mlp/2023_05.pt (torch, 18270 bytes, 19 tensors)

_network.0.weight f4 [32, 5]
0.39149737 0.06592663 -0.1268223 0.38193932 -0.062222373 0.061842024 -0.085910186 0.039177172
-0.14397497 -0.20418815 0.13313594 -0.54777384 0.4629103 0.1769556 -0.17191142 0.25346574
-0.19531833 -0.3313079 0.19664086 -0.15555753 -0.18332884 0.15059592 -0.11379829 -0.38305855
-0.07395602 0.34014162 0.096656926 -0.086032584 0.3544682 -0.35570478 -0.06357089 0.4094037
0.13181448 -0.10114596 0.068482466 0.082968876 0.19582585 -0.49194056 0.008015026 0.05871608
0.06923733 -0.5426834 0.0007750995 -0.0017028811 0.029183961 0.1858665 -0.3726169 0.13504644
-0.2849116 0.19381231 -0.1566587 0.17476796 -0.39542314 -0.16872235 0.25273937 0.08187467
0.34212425 -0.15373436 -0.21669643 0.42899883 0.054745257 0.28303435 0.1072172 0.44131693
-0.2737792 0.24688938 -0.24151307 0.42588246 0.20999041 -0.34899747 -0.023075646 0.5441806
0.19639747 0.24667114 -0.30611718 -0.15470181 -0.19064799 -0.47760963 -0.43149164 -0.19386011
-0.116872355 -0.15803789 0.34512022 0.04849049 0.41968626 -0.30017614 -0.113858074 -0.34398615
-0.23373555 -0.007905286 0.2625741 -0.4198198 -0.12752649 -0.29124832 0.22722788 0.42626497
0.10308707 -0.010431758 -0.038280647 0.21046342 -0.117263 0.3657693 -0.042182833 -0.09922813
-0.18642877 -0.14031276 -0.37679923 -0.17586301 -0.036819704 -0.3169842 -0.01775518 -0.166515
-0.35566977 0.048746284 -0.21458426 0.013774668 -0.46798512 0.09196803 -0.17973453 -0.024392422
-0.12598164 -0.40686336 0.429072 0.32832193 0.20594409 0.064898744 -0.40984017 0.048333462
0.3471172 -0.40518165 -0.13869795 0.41132623 -0.35106918 0.09655594 -0.0098834345 0.051110625
-0.30855918 -0.25329 0.08502867 -0.24085277 0.092578314 0.16733977 0.34462723 0.18017755
-0.2832369 -0.38644838 -0.5185696 0.14343745 0.21306561 0.15361272 -0.29016927 0.14971402
0.51537347 0.024098711 0.33204308 -0.46043763 -0.41996235 0.297292 -0.3248875 0.22181593
00000000: 5872 c83e 8a04 873d b4dd 01be 8d8d c33e
00000010: e3dc 7ebd 104e 7d3d aef1 afbd 3e78 203d
00000020: 2d6e 13be b316 51be ca54 083e e83a 0cbf
00000030: 9402 ed3e d933 353e 8c09 30be 43c6 813e
00000040: 8701 48be 30a1 a9be 395c 493e 794a 1fbe
00000050: 8eba 3bbe d135 1a3e 140f e9bd 4020 c4be
00000060: 4176 97bd 0b27 ae3e 11f4 c53d da31 b0bd
00000070: db7c b53e f01e b6be 7431 82bd 5d9d d13e
00000080: 60fa 063e 9d25 cfbd 8940 8c3d 96eb a93d
00000090: 9286 483e a2df fbbe 7551 033c 4680 703d
000000a0: 4dcc 8d3d 4ded 0abf 0c30 4b3a 3533 dfba
000000b0: 3413 ef3c ca53 3e3e a4c7 bebe 9d49 0a3e
000000c0: efdf 91be bc76 463e 236b 20be 5ff6 323e
000000d0: e774 cabe 8dc5 2cbe 0e67 813e e8ad a73d
000000e0: e92a af3e 8a6c 1dbe abe5 5dbe bca5 db3e
000000f0: 903c 603d e1e9 903e b194 db3d 4bf4 e13e
00000100: ca2c 8cbe 92d0 7c3e 344f 77be 440d da3e
00000110: ba07 573e ccaf b2be 2309 bdbc 6b4f 0b3f
00000120: 6b1c 493e 5c97 7c3e 64bb 9cbe 276a 1ebe
00000130: 3a39 43be 4089 f4be 79ec dcbe 4483 46be
00000140: c65a efbd afd4 21be 99b3 b03e f79d 463d
00000150: 1ee1 d63e b0b0 99be 6c2e e9bd f41e b0be
00000160: 5f58 6fbe 2c85 01bc 1d70 863e 9ff2 d6be
00000170: 4e96 02be 801e 95be 6dae 683e 673f da3e
00000180: 501f d33d f7e9 2abc 2bcc 1cbd b983 573e
00000190: 9527 f0bd 1d46 bb3e e8c7 2cbd 1e38 cbbd
000001a0: 2fe7 3ebe 26ae 0fbe d4eb c0be 6f15 34be
000001b0: 42d0 16bd c14b a2be 5073 91bc e882 2abe
000001c0: 591a b6be 2faa 473d fabb 5bbe 25af 613c
000001d0: bf9b efbe bc59 bc3d 540c 38be 9ed2 c7bc
000001e0: 5501 01be 6550 d0be 53af db3e d019 a83e
000001f0: 02e3 523e a2e9 843d 92d6 d1be 4ff9 453d
00000200: 58b9 b13e f873 cfbe d606 0ebe 5a99 d23e
00000210: 57bf b3be 1fbf c53d 21ee 21bc 6059 513d
00000220: 78fb 9dbe 3aaf 81be 8323 ae3d 1ca2 76be
00000230: b399 bd3d 1e5b 2b3e fb72 b03e 7780 383e
00000240: 6d04 91be 90dc c5be fac0 04bf 44e1 123e
00000250: df2d 5a3e a74c 1d3e 1191 94be a24e 193e
00000260: 84ef 033f a96a c53c 8d01 aa3e 7bbe ebbe
00000270: 4e05 d7be a836 983e a857 a6be b723 633e

_network.0.bias f4 [32]
-0.14781272 0.007972075 0.08220795 -0.27109507 0.0739402 -0.039566983 0.09370431 -0.00022277745
0.38670626 0.33562055 0.060218934 0.41099742 0.14065944 -0.21059737 -0.008034053 0.19586504
-0.11608686 -0.22552899 -0.041793816 -0.051238116 0.34624362 -0.23489518 0.07544393 -0.07707914
-0.41814914 0.29845405 0.15889928 0.20442401 0.10537995 -0.058296368 -0.24964432 -0.10415747
00000000: 385c 17be 4e9d 023c a45c a83d f9cc 8abe
00000010: f66d 973d fd10 22bd 0ce8 bf3d 5e99 69b9
00000020: 5dfe c53e 75d6 ab3e 21a8 763d 416e d23e
00000030: 0709 103e d6a6 57be 43a1 03bc d890 483e
00000040: f3be edbd 12f1 66be fe2f 2bbd 0fdf 51bd
00000050: d846 b13e 5d88 70be 5982 9a3d abdb 9dbd
00000060: a517 d6be f8ce 983e 7eb6 223e 8754 513e
00000070: 71d1 d73d 2cc8 6ebd c3a2 7fbe 8350 d5bd

_network.1.weight f4 [32]
0.938098 0.9599089 1.028871 0.9525731 1.0422405 1.0075921 1.0621334 0.93143994
1.2035626 0.99504787 0.9570008 0.9627781 0.94478136 0.99903774 0.97154474 1.0340965
1.0158348 0.9324299 1.0303189 0.8992433 0.98960954 1.0000904 0.9532988 1.0054123
0.8207519 1.0324221 1.0309807 1.0679297 1.0705354 0.9309532 1.0098945 0.95657134
00000000: 3127 703f 97bc 753f 0cb2 833f d5db 733f
00000010: 2368 853f c7f8 803f fdf3 873f d972 6e3f
00000020: 570e 9a3f 75bb 7e3f 01fe 743f a078 763f
00000030: 31dd 713f f0c0 7f3f 28b7 783f 465d 843f
00000040: e006 823f bab3 6e3f 7de1 833f cf34 663f
00000050: 0d57 7d3f f602 803f 640b 743f 5ab1 803f
00000060: cc1c 523f 6826 843f 2df7 833f ecb1 883f
00000070: 4e07 893f f352 6e3f 3944 813f dce1 743f

_network.1.bias f4 [32]
-0.05978519 -0.04740862 0.0872716 -0.053054623 -0.023631375 0.021668438 -0.027039133 0.028447187
0.33976746 0.1193416 -0.024602111 -0.035121072 -0.049461268 0.06871137 -0.078649625 -0.0069973324
0.16443172 -0.06474177 -0.025480498 -0.13070485 0.019632045 0.08122847 -0.053155266 0.20327175
0.14463593 0.046525907 0.057775658 0.06542307 0.15817304 0.057953343 -0.06708509 -0.052980553
00000000: 51e1 74bd 8b2f 42bd 74bb b23d ce4f 59bd
00000010: 9696 c1bc 0282 b13c 2c81 ddbc 130a e93c
00000020: 00f6 ad3e 5e69 f43d 5e8a c9bc 1ddb 0fbd
00000030: e697 4abd 8cb8 8c3d 0e13 a1bd e149 e5bb
00000040: ca60 283e 5597 84bd 7abc d0bc 7ed7 05be
00000050: 62d3 a03c 1d5b a63d 56b9 59bd 7826 503e
00000060: 711b 143e f391 3e3d 2ba6 6c3d 88fc 853d
00000070: 1df8 213e 7c60 6d3d e863 89bd 2302 59bd

_network.1.running_mean f4 [32]
0.24388205 -0.19263747 -0.005680607 -0.23259905 -0.23875673 0.18805467 0.2186665 0.09305101
0.20388491 0.17793596 0.037518628 0.63357794 0.44931236 -0.19450966 0.24272569 -0.37698427
0.045722827 -0.5890792 -0.20558064 0.23745543 0.2889103 -0.64450914 -0.1122811 -0.38457635
-0.2715758 0.19333813 0.29245764 0.008551985 0.23133498 -0.1950675 -0.068748 -0.53498346
00000000: 37bc 793e c242 45be 6324 babb 722e 6ebe
00000010: a57c 74be 6791 403e 1cea 5f3e 8791 be3d
00000020: 35c7 503e d834 363e 22ad 193d 2a32 223f
00000030: 450c e63e 8a2d 47be 158d 783e 1504 c1be
00000040: dc47 3b3d e5cd 16bf bb83 52be 8427 733e
00000050: 0dec 933e 8dfe 24bf a2f3 e5bd 31e7 c4be
00000060: fc0b 8bbe 6efa 453e 02bd 953e a01d 0c3c
00000070: 14e3 6c3e c6bf 47be c0cb 8cbd adf4 08bf

_network.1.running_var f4 [32]
0.032234598 0.0017621915 0.015943801 0.01937027 0.013857383 0.05250782 0.0045235716 0.005442383
0.003569924 0.013422884 0.017046625 0.021692093 0.03524917 0.030560218 0.022563536 0.020064525
0.021689476 0.016136184 0.013622977 0.0071524214 0.0036207559 0.008292352 0.009110699 0.004631214
0.012506302 0.036463052 0.005620903 0.011042056 0.017446335 0.012649743 0.026390493 0.052171398
00000000: 6d08 043d 56f9 e63a 939c 823c 67ae 9e3c
00000010: 140a 633c 7112 573d 783a 943b 0456 b23b
00000020: 63f5 693b a8eb 5b3c 5da5 8b3c 9eb3 b13c
00000030: 6f61 103d 6c59 fa3c 2ad7 b83c 5c5e a43c
00000040: 21ae b13c 0830 843c e832 5f3c dc5e ea3b
00000050: 344a 6d3b a5dc 073c 0b45 153c 70c1 973b
00000060: 3ce7 4c3c 485a 153d 8d2f b83b bde9 343c
00000070: 9eeb 8e3c de40 4f3c e030 d83c adb1 553d

_network.3.weight f4 [32, 32]
0.0041832807 0.057879154 -0.03741558 -0.06698883 0.17580953 -0.13797154 -0.13317525 0.13032596
0.2834107 0.11017471 -0.054190293 -0.14629102 0.11309179 -0.009589798 -0.03929554 0.22391939
-0.11375301 0.08332305 0.14041753 0.03073297 0.0474341 0.07023543 -0.16987996 0.063539915
0.07688548 0.043365378 -0.095937885 -0.0015501548 -0.1315651 0.08364171 0.034586255 0.04050754
-0.0708575 0.12039953 0.13123864 -0.14726637 -0.010404107 -0.09741975 -0.09056222 -0.21934006
-0.087538555 0.03664458 -0.23736353 -0.13246483 -0.23620638 0.15853618 -0.17686656 -0.0017072826
0.008052159 -0.21408843 0.10459656 0.03322892 0.12917995 0.21795136 0.12347799 -0.106270336
0.07162213 0.27060655 0.07107676 0.14826964 0.06381124 -0.02988303 0.07918541 -0.18451223
-0.1064649 -0.04905098 0.028567418 -0.042582747 -0.07169067 -0.13207547 -0.106134154 0.0453481
-0.16567816 0.07384311 -0.009131458 0.0008617411 0.11810037 0.1535623 -0.00884459 -0.17038278
0.16250539 0.11247922 0.098019436 0.034353532 -0.13419953 -0.084114775 -0.1548187 -0.03904056
0.047368266 0.104871295 0.013025522 -0.108850405 0.19105698 -0.058945097 0.08951274 -0.11239728
0.11745166 -0.038434513 0.13032159 0.11412891 -0.23523933 -0.04299208 -0.16642344 0.14262398
0.29400182 -0.03764743 -0.12919489 -0.16792932 -0.16079837 0.05939216 -0.12761243 -0.07007581
0.069718376 0.117666654 0.02105312 0.022085728 0.18155767 -0.16905798 0.06040769 -0.1577128
0.12098655 0.07527864 0.07988407 0.103900224 0.09542682 -0.0972885 -0.25837126 -0.1781735
-0.08826649 0.02393648 0.015457199 -0.055732798 -0.19166653 0.115647554 -0.16699097 -0.1340054
-0.12532547 0.07805699 -0.16905294 -0.0090631265 0.004726342 0.019084683 -0.17921354 0.030271063
0.08143369 0.03333683 0.078407206 -0.060730442 0.022820529 0.2232866 0.1996076 0.10711454
0.14815828 -0.042776212 0.020381164 0.136358 -0.06547858 -0.039122716 0.120101474 -0.1249492
-0.03255318 -0.097704165 -0.05272585 -0.16172038 0.024383092 0.0021794345 0.016252602 -0.0699254
0.104635924 0.03852906 0.0016306359 -0.015281682 -0.09667814 -0.16317375 0.052654818 0.07339299
0.13276711 0.04253921 0.13948077 0.08259517 0.025651924 -0.11495287 0.028305558 0.057473317
0.05384165 -0.16700445 0.071523085 0.11818621 -0.005228867 -0.21293828 0.081207365 0.047513228
0.005971346 0.1478393 -0.023348441 0.10242691 -0.02783447 -0.043752573 -0.033857316 0.1358911
-0.22111349 0.112413764 -0.045193322 -0.037311547 0.053665917 0.12532632 0.028178401 0.019584266
-0.15410642 0.07783981 0.13875061 -0.08146093 0.14149891 -0.0915589 0.14095886 0.088712715
-0.16526788 -0.033033665 -0.11257356 0.07203541 0.110587396 -0.081505276 -0.12985483 0.04528324
0.14980721 -0.06413912 0.0053678025 0.11409252 -0.032777283 0.06814591 0.20045415 -0.13074608
0.098573506 0.18916407 0.11099851 0.12554984 -0.08839072 0.058007773 0.062944315 -0.052162085
0.19796644 -0.03736125 0.13267002 -0.0846589 -0.06584309 0.0846745 -0.1486202 0.0041112276
0.10494458 0.14749248 -0.16435817 -0.068336524 -0.15000486 -0.045798257 0.13554905 0.09280387
00000000: e713 893b b112 6d3d 1441 19bd 7131 89bd
00000010: 6a07 343e 6948 0dbe 185f 08be 2b74 053e
00000020: 351b 913e 47a3 e13d a4f6 5dbd 50cd 15be
00000030: ab9c e73d 871e 1dbc 5cf4 20bd 204b 653e
00000040: 57f7 e8bd 46a5 aa3d 9dc9 0f3e b6c3 fb3c
00000050: 424a 423d 98d7 8f3d 03f5 2dbe 3721 823d
00000060: 2276 9d3d e59f 313d 157b c4bd 902e cbba
00000070: 00b9 06be 584c ab3d 51aa 0d3d 3ceb 253d
00000080: bd1d 91bd 0794 f63d 6c63 063e ffcc 16be
00000090: fd75 2abc 0284 c7bd af78 b9bd ae9a 60be
000000a0: 6a47 b3bd a118 163d 6d0f 73be dca4 07be
000000b0: 16e0 71be 4f57 223e 821c 35be e6c6 dfba
000000c0: 34ed 033c ff39 5bbe b936 d63d 0c1b 083d
000000d0: c047 043e a42e 5f3e 07e2 fc3d 43a4 d9bd
000000e0: a0ae 923d f18c 8a3e b190 913d ffd3 173e
000000f0: 78af 823d 42cd f4bc f62b a23d c6f0 3cbe
00000100: 450a dabd aee9 48bd 3806 ea3c 3f6b 2ebd
00000110: 8fd2 92bd cb3e 07be dd5c d9bd eebe 393d
00000120: 89a7 29be 0e3b 973d 1c9c 15bc 77e6 613a
00000130: 9bde f13d 703f 1d3e e6e8 10bc d378 2ebe
00000140: d067 263e 815b e63d 6abe c83d 4ab6 0c3d
00000150: 9a6b 09be 5e44 acbd cb88 1ebe ffe8 1fbd
00000160: 3a05 423d c3c6 d63d 0069 553c f6ec debd
00000170: 71a4 433e 6a70 71bd 7552 b73d 8c30 e6bd
00000180: 7f8a f03d 826d 1dbd 0673 053e 6bbc e93d
00000190: 94e2 70be 7718 30bd e86a 2abe 050c 123e
000001a0: 6887 963e 3134 1abd aa4b 04be aaf5 2bbe
000001b0: 54a8 24be 3245 733d d5ac 02be e883 8fbd
000001c0: 82c8 8e3d 37fb f03d 9877 ac3c 21ed b43c
000001d0: 41ea 393e 891d 2dbe 0e6e 773d 777f 21be
000001e0: ccc7 f73d b02b 9a3d 429a a33d a4c9 d43d
000001f0: 236f c33d 313f c7bd 3d49 84be 1d73 36be
00000200: 10c5 b4bd 7016 c43c 3140 7d3c 1348 64bd
00000210: 3b44 44be a0d8 ec3d aeff 2abe b638 09be
00000220: 5255 00be 58dc 9f3d 371c 2dbe 827d 14bc
00000230: 6edf 9a3b 7b57 9c3c c183 37be 05fb f73c
00000240: b5c6 a63d 338c 083d f593 a03d 7cc0 78bd
00000250: 1ef2 ba3c 3ea5 643e ef65 4c3e de5e db3d
00000260: ceb6 173e 1c36 2fbd 66f6 a63c 6ea1 0b3e
00000270: a219 86bd 243f 20bd c3f7 f53d 5ee5 ffbd
00000280: 7c56 05bd 1f19 c8bd 10f7 57bd 079a 25be
00000290: 0dbf c73c d8d4 0e3b 2d24 853c 0c35 8fbd
000002a0: 5c4b d63d a6d0 1d3d 10bb d53a 0560 7abc
000002b0: 30ff c5bd 0517 27be 94ac 573d 104f 963d
000002c0: 1af4 073e 983d 2e3d 0cd4 0e3e a827 a93d
000002d0: fc23 d23c 696c ebbd 0fe1 e73c 2469 6b3d
000002e0: 1089 5c3d 3703 2bbe b27a 923d 9d0b f23d
000002f0: ea56 abbb 7e0c 5abe 0c50 a63d 3b9d 423d
00000300: 48ab c33b 2f63 173e 3b45 bfbc 33c5 d13d
00000310: 1d05 e4bc e635 33bd f8ad 0abd 0927 0b3e
00000320: 936b 62be 3039 e63d a21c 39bd fed3 18bd
00000330: cbd0 5b3d 8b55 003e 64d6 e63c 2f6f a03c
00000340: 13ce 1dbe 7a6a 9f3d a414 0e3e fdd4 a6bd
00000350: 17e5 103e 3c83 bbbd 8557 103e 03af b53d
00000360: fc3b 29be 4f4e 07bd f78c e6bd 4d87 933d
00000370: a57b e23d 3dec a6bd aaf8 04be eb7a 393d
00000380: 1067 193e 5f5b 83bd 64e4 af3b 57a9 e93d
00000390: 7941 06bd 1590 8b3d da43 4d3e 4de2 05be
000003a0: e8e0 c93d 3ab4 413e 3053 e33d 2390 003e
000003b0: 3206 b5bd 8f99 6d3d f3e8 803d e9a7 55bd
000003c0: b7b7 4a3e 1c08 19bd a6da 073e a561 adbd
000003d0: bed8 86bd d369 ad3d e52f 18be 7ab7 863b
000003e0: 2fed d63d 4508 173e 824d 28be 05f4 8bbd
000003f0: e09a 19be f496 3bbd 5fcd 0a3e f50f be3d

_network.3.bias f4 [32]
0.04878843 0.11564798 0.10392571 -0.16932917 0.07153399 -0.13246608 0.12544493 0.08147585
-0.03804358 -0.1515835 -0.15049796 0.17077719 -0.15400948 0.16180559 -0.007030578 -0.014876339
-0.12416405 -0.1438965 0.014957782 -0.063896805 0.16735141 0.029863413 -0.17045015 -0.07261147
0.10070743 0.15438358 -0.05163138 -0.07982605 0.1373985 -0.11577322 0.024130393 0.080397256
00000000: 60d6 473d d9d8 ec3d 01d7 d43d a064 2dbe
00000010: 6a80 923d 30a5 07be a374 003e cfdc a63d
00000020: 96d3 1bbd b438 1bbe 231c 1abe 37e0 2e3e
00000030: a9b4 1dbe 5db0 253e c360 e6bb e3bb 73bc
00000040: b949 febd 9b59 13be 7c11 753c 54dc 82bd
00000050: 2b5e 2b3e 1ea4 f43c 7c8a 2ebe 53b5 94bd
00000060: b23f ce3d bb16 1e3e 6d7b 53bd d77b a3bd
00000070: 31b2 0c3e 831a edbd 1aad c53c 51a7 a43d

_network.4.weight f4 [32]
1.0998381 1.0256028 0.92197526 0.9679602 0.9680332 1.079144 0.968235 1.0315558
0.9678002 1.1034241 0.974244 1.0152222 0.97731024 1.0877335 1.032948 0.90555036
1.0633482 1.0197873 0.99453974 1.032007 1.0194472 1.0072637 0.9525252 1.0730659
0.8828189 0.97565335 0.9639385 0.9889431 1.042988 0.9869116 0.96126616 0.97600687
00000000: 7fc7 8c3f f446 833f 9206 6c3f 3dcc 773f
00000010: 06d1 773f 6421 8a3f 40de 773f 050a 843f
00000020: c1c1 773f 003d 8d3f 0e68 793f cdf2 813f
00000030: 0131 7a3f da3a 8b3f a437 843f 26d2 673f
00000040: cb1b 883f 6488 823f 289a 7e3f ce18 843f
00000050: 3f7d 823f 04ee 803f b1d8 733f 395a 893f
00000060: 6b00 623f 6bc4 793f acc4 763f 602b 7d3f
00000070: a180 853f 3da6 7c3f 8a15 763f 96db 793f

_network.4.bias f4 [32]
-0.029127458 0.0640495 -0.030821875 0.014902373 0.008941885 0.050979637 -0.0327462 0.07617565
-0.004919471 0.11035395 0.039057832 0.014770408 -0.08042194 0.10878896 0.08433874 -0.006542348
-0.010395262 0.067750074 -0.0643761 0.052618563 0.0419261 0.03656179 -0.040111564 0.038885754
-0.10962888 0.06661407 -0.039079517 0.004520856 0.08143965 0.05917584 -0.04390196 0.05410694
00000000: b59c eebc 622c 833d 287e fcbc 1529 743c
00000010: fc80 123c 06d0 503d e120 06bd fb01 9c3d
00000020: 8433 a1bb 4001 e23d 1bfb 1f3d 95ff 713c
00000030: 42b4 a4bd bfcc de3d cab9 ac3d 3161 d6bb
00000040: e450 2abc 8dc0 8a3d 9ed7 83bd 9086 573d
00000050: b4ba 2b3d d1c1 153d 064c 24bd ab46 1f3d
00000060: 1b85 e0bd f56c 883d d811 20bd b023 943b
00000070: d5c9 a63d 5e62 723d 8bd2 33bd 3d9f 5d3d

_network.4.running_mean f4 [32]
0.3451593 0.07674087 0.01316374 -0.19442804 0.09190214 -0.10666062 0.19687462 0.5196455
-0.25220692 -0.5296444 -0.53135973 -0.40144128 -0.9873072 0.28970844 0.2489886 -0.18172875
0.21690473 0.25242174 0.3146873 -0.21996523 0.35985234 0.05888234 0.010375451 -0.028926916
0.5407365 0.81482685 -0.35908008 -0.02002706 0.016224165 0.16047865 -0.062153183 0.030014083
00000000: b8b8 b03e 512a 9d3d baac 573c 2518 47be
00000010: 3037 bc3d e270 dabd 8099 493e 7d07 053f
00000020: 4421 81be c796 07bf 3107 08bf b689 cdbe
00000030: 2ac0 7cbf aa54 943e def6 7e3e 1a17 3abe
00000040: 461c 5e3e 6c3d 813e b21e a13e 913e 61be
00000050: 913e b83e 9c2e 713d ccfd 293c 24f8 ecbc
00000060: b56d 0a3f 7e98 503f 58d9 b7be ca0f a4bc
00000070: 8ae8 843c 8454 243e 5694 7ebd 18e0 f53c

_network.4.running_var f4 [32]
0.3401819 0.39648107 0.112248585 0.60858166 0.1198484 0.26477218 0.23976298 0.41453385
0.2371881 0.3181456 0.36161113 0.2850138 0.35485545 0.3824986 0.25665048 0.09963641
0.42991427 0.25193664 0.14903504 0.27944416 0.49310863 0.5878836 0.65309143 0.24400169
0.12941414 0.34130585 0.504861 0.19217868 0.3043577 0.16923285 0.1710583 0.8052112
00000000: 522c ae3e 91ff ca3e 96e2 e53d 02cc 1b3f
00000010: 1473 f53d 3890 873e 6d84 753e c83d d43e
00000020: 70e1 723e fbe3 a23e 1825 b93e 54ed 913e
00000030: 9daf b53e dbd6 c33e b167 833e 2d0e cc3d
00000040: b91d dc3e d7fd 803e a49c 183e 4e13 8f3e
00000050: bc78 fc3e 8a7f 163f 0031 273f 94db 793e
00000060: 2485 043e a4bf ae3e 923e 013f 7dca 443e
00000070: c6d4 9b3e 604b 2d3e e829 2f3e 5222 4e3f

_network.6.weight f4 [32, 32]
0.11749885 0.01087667 -0.13745956 0.14746492 -0.09818523 -0.059010047 -0.100707024 -0.2912717
0.038047854 -0.061713826 0.07983896 -0.10103531 -0.018541645 0.17111607 0.08743693 0.08258147
-0.06879406 0.16894414 -0.21067527 0.044655915 -0.1406103 0.105403975 0.023479031 -0.045678634
0.057867378 -0.09570576 -0.17399317 -0.15103693 -0.09275242 -0.021018561 0.030727642 -0.0150880525
0.29112914 -0.07648298 -0.074587665 0.042261384 0.035975408 0.14568971 0.021138199 0.020338073
0.15968639 0.11581535 -0.1651895 -0.0951354 -0.022922259 0.10771685 -0.15201889 0.05028273
-0.15223314 -0.006903403 0.023033893 0.090433024 -0.120785445 -0.07902757 -0.022468444 0.16803363
-0.00063119916 0.12833288 -0.104161106 0.21513182 -0.10190005 0.17355742 -0.072141886 -0.024506975
0.10700179 0.09866703 0.12578666 -0.04742729 0.14288579 -0.029729899 -0.18649746 0.10751941
0.17729339 -0.16669321 -0.042206313 -0.05021396 0.04290842 -0.14668253 -0.0622429 0.2165002
0.019610448 -0.13742772 0.026056804 0.08667377 0.15127075 -0.11338856 -0.04785705 -0.010741814
0.0018077457 0.14539471 -0.05245428 0.013322159 0.14909962 0.10615651 -0.10916046 -0.042312976
0.22967274 -0.20975007 -0.031596243 0.01862992 -0.0536109 0.1823227 0.039888 0.0288872
0.016054712 -0.11207676 0.11639987 -0.038529262 0.025063995 -0.31463012 -0.03394909 0.17657007
0.121985964 0.028651595 0.057827994 -0.1949079 -0.18463902 0.1033663 -0.027014373 0.12467825
0.1537413 0.01824391 0.1187233 -0.050080605 -0.15193914 -0.18094236 -0.3062736 -0.19925123
0.058788594 -0.23454693 0.028434016 -0.20598993 -0.18722473 -0.16444579 -0.050162237 -0.15187174
-0.13766871 -0.031155175 -0.07405536 -0.25042838 -0.07168666 0.123725325 -0.2516077 -0.010267942
-0.09647999 -0.1053951 -0.12139599 0.029561918 -0.0067426045 -0.08490435 -0.043571826 -0.012499738
0.09609625 -0.15355141 -0.17559609 -0.02311115 -0.03907872 0.19336638 -0.2408495 0.01867009
-0.059543863 -0.15106282 0.041500393 -0.09378324 -0.145772 0.10794633 -0.07842984 -0.11014608
0.022941692 0.2364123 -0.089195326 0.059521545 0.21737358 0.021586603 -0.23831482 -0.03393926
-0.15476224 -0.10086795 -0.12973933 -0.15048783 -0.06813646 -0.06751455 0.09169373 -0.008286464
-0.026097076 -0.120966926 0.0897522 -0.17306195 0.25654617 -0.113229044 -0.19699375 0.042958166
-0.02129445 0.08825075 -0.19569841 -0.15007862 -0.007731536 -0.13671547 0.030798536 -0.040557906
-0.11343192 -0.077412695 0.14965288 -0.12618905 -0.06621104 -0.14948972 -0.0005536281 0.02398394
0.010708017 -0.19800068 0.069467574 0.13870049 -0.018716644 0.040325813 0.07871497 -0.19092113
0.18574026 -0.10960992 0.15913247 -0.1539265 0.11515704 -0.03858308 -0.09408425 0.1121251
-0.18645482 0.19290814 0.10961011 0.09005712 -0.035857446 0.14663039 -0.042529736 -0.06004103
-0.16205451 -0.122113414 -0.048166655 0.1650016 0.17693454 0.10345961 0.0661009 0.14775339
-0.015412368 -0.18706366 -0.050659634 -0.035095647 0.08831668 -0.0806296 0.072124586 -0.01830296
-0.06630407 -0.09284859 0.12551166 -0.06694646 0.09498846 0.026223302 -0.11918294 0.049179975
00000000: 3da3 f03d 0f34 323c 33c2 0cbe 0b01 173e
00000010: 5615 c9bd 85b4 71bd 7c3f cebd 9021 95be
00000020: 11d8 1b3d a3c7 7cbd 9c82 a33d 9aeb cebd
00000030: a6e4 97bc 0d39 2f3e 2212 b33d 7920 a93d
00000040: e6e3 8cbd b1ff 2c3e 42bb 57be 1fe9 363d
00000050: 25fc 0fbe 0ade d73d 1957 c03c 8519 3bbd
00000060: 5806 6d3d 6201 c4bd 442b 32be 6da9 1abe
00000070: fbf4 bdbd 1e2f acbc 89b8 fb3c e133 77bc
00000080: e10e 953e 1ca3 9cbd 6bc1 98bd 461a 2d3d
00000090: f35a 133d af2f 153e 042a ad3c 089c a63c
000000a0: d484 233e 9930 ed3d 7027 29be 59d6 c2bd
000000b0: 76c7 bbbc a79a dc3d d7aa 1bbe 44f5 4d3d
000000c0: 01e3 1bbe f135 e2bb 93b1 bc3c f334 b93d
000000d0: 5c5e f7bd 35d9 a1bd be0f b8bc 0211 2c3e
000000e0: 0f77 25ba b269 033e 6b52 d5bd 844b 5c3e
000000f0: f9b0 d0bd 09b9 313e 20bf 93bd dac2 c8bc
00000100: c123 db3d f111 ca3d 38ce 003e 1e43 42bd
00000110: a750 123e 1e8c f3bc 31f9 3ebe 2333 dc3d
00000120: 668c 353e a0b1 2abe 87e0 2cbd 27ad 4dbd
00000130: bdc0 2f3d f233 16be 69f2 7ebd 3ab2 5d3e
00000140: 17a6 a03c dab9 0cbe 1475 d53c 0482 b13d
00000150: b8e6 1a3e 4338 e8bd c105 44bd 6ffe 2fbc
00000160: e1f1 ec3a 5ae2 143e 4dda 56bd 2f45 5a3c
00000170: 92ad 183e 9668 d93d 858f dfbd 5f50 2dbd
00000180: 552f 6b3e b9c8 56be 106b 01bd c69d 983c
00000190: 1a97 5bbd cdb2 3a3e 9961 233d d9a4 ec3c
000001a0: 2c85 833c 8088 e5bd 0e63 ee3d dcd0 1dbd
000001b0: 0253 cd3c 3317 a1be 330e 0bbd c9ce 343e
000001c0: c7d3 f93d c0b6 ea3c 0cdd 6c3d f095 47be
000001d0: 0312 3dbe b6b1 d33d 3f4d ddbc 4f57 ff3d
000001e0: 5c6e 1d3e 4174 953c 3425 f33d 5221 4dbd
000001f0: ef95 1bbe f448 39be e5cf 9cbe 8408 4cbe
00000200: 4fcc 703d 122d 70be 74ee e83c 06ef 52be
00000210: d7b7 3fbe 7a64 28be eb76 4dbd 4484 1bbe
00000220: 07f9 0cbe 2339 ffbc 56aa 97bd 2638 80be
00000230: 75d0 92bd b463 fd3d b9d2 80be df3a 28bc
00000240: 4d97 c5bd 63d9 d7bd 769e f8bd d62b f23c
00000250: 11f1 dcbb 55e2 adbd 5f78 32bd b3cb 4cbc
00000260: 1cce c43d 953c 1dbe 76cf 33be 9853 bdbc
00000270: 0211 20bd d601 463e 40a1 76be 04f2 983c
00000280: 44e4 73bd 36b0 1abe 51fc 293d 6d11 c0bd
00000290: 4145 15be f712 dd3d d39f a0bd 4594 e1bd
000002a0: 37f0 bb3c 1116 723e 0aac b6bd ddcc 733d
000002b0: 2e97 5e3e 63d6 b03c cd08 74be e503 0bbd
000002c0: fe79 1ebe db93 cebd 63da 04be 7b19 1abe
000002d0: 218b 8bbd 1245 8abd ecc9 bb3d f3c3 07bc
000002e0: 89c9 d5bc 82bd f7bd 00d0 b73d 2737 31be
000002f0: 055a 833e a1e4 e7bd bbb8 49be e7f4 2f3d
00000300: b371 aebc cfbc b43d 2a65 48be 36ae 19be
00000310: d358 fdbb 24ff 0bbe 364d fc3c 0c20 26bd
00000320: ff4e e8bd 8c8a 9ebd 9b3e 193e b437 01be
00000330: a799 87bd d513 19be 5a21 11ba f879 c43c
00000340: ae70 2f3c b1c0 4abe 0445 8e3d 8007 0e3e
00000350: a653 99bc ae2c 253d 5035 a13d d480 43be
00000360: b232 3e3e 2a7b e0bd 9ff3 223e e99e 1dbe
00000370: 74d7 eb3d 4b09 1ebd 3eaf c0bd d8a1 e53d
00000380: 03ee 3ebe b689 453e 447b e03d de6f b83d
00000390: 42df 12bd 4726 163e a933 2ebd 95ed 75bd
000003a0: 9ef1 25be 9916 fabd 664a 45bd 2ef6 283e
000003b0: 542e 353e a2e2 d33d e95f 873d aa4c 173e
000003c0: 2884 7cbc 9e8d 3fbe 7a80 4fbd 74c0 0fbd
000003d0: 60df b43d 2221 a5bd 0eb6 933d 17f0 95bc
000003e0: 6eca 87bd 6727 bebd 2186 003e 3a1b 89bd
000003f0: 4f89 c23d 40d2 d63c 2f16 f4bd f170 493d

_network.6.bias f4 [32]
0.11371925 -0.094996825 0.1746896 0.011751506 0.14391811 -0.110251576 -0.16096088 0.09618957
-0.066111565 0.022836544 -0.11658944 -0.12694785 -0.13865593 0.053494398 -0.03848902 -0.0105131315
-0.08971152 0.05470856 -0.030113861 0.14177713 0.15544541 0.031335443 0.06310972 0.117086515
0.12781094 0.10070514 0.05580268 0.12270494 -0.04349306 -0.018412696 -0.16696796 -0.16505581
00000000: a3e5 e83d b28d c2bd d5e1 323e 6389 403c
00000010: 455f 133e 94cb e1bd eed2 24be 0aff c43d
00000020: 8065 87bd b413 bb3c 72c6 eebd 9efe 01be
00000030: d2fb 0dbe f11c 5b3d aaa6 1dbd 453f 2cbc
00000040: acba b7bd 1516 603d 58b1 f6bc 062e 113e
00000050: 152d 1f3e 9859 003d ab3f 813d 0ecb ef3d
00000060: dfe0 023e 7f3e ce3d 5a91 643d ba4c fb3d
00000070: c725 32bd 39d6 96bc a6f9 2abe 6404 29be

_network.7.weight f4 [32]
0.8809116 0.90211344 0.8976413 0.89492357 0.7403846 0.9031442 0.9187461 0.9023324
0.8805215 0.90292627 0.9140752 0.8993343 0.9167655 0.91200835 0.7443838 0.7909031
0.82613975 0.8999117 0.9169897 0.82323545 0.92032874 0.9141491 0.9199149 0.9163878
0.9223627 0.90514916 0.8643996 0.9247158 0.934916 0.8643191 0.91040146 0.9116459
00000000: 6c83 613f e8f0 663f d2cb 653f b619 653f
00000010: d889 3d3f 7534 673f f232 6b3f 42ff 663f
00000020: db69 613f 2d26 673f d500 6a3f c63a 663f
00000030: 25b1 6a3f 6179 693f f08f 3e3f a078 4a3f
00000040: e57d 533f 9d60 663f d6bf 6a3f 8fbf 523f
00000050: aa9a 6b3f ad05 6a3f 8b7f 6b3f 6498 6a3f
00000060: f61f 6c3f dbb7 673f 4b49 5d3f 2dba 6c3f
00000070: a856 6f3f 0444 5d3f 1210 693f a061 693f

_network.7.bias f4 [32]
-0.10510765 -0.09530094 -0.021664202 -0.20765212 -0.23879315 -0.09249171 -0.05525795 -0.076468684
-0.09883466 -0.08236904 -0.051348343 -0.017327454 -0.083953425 -0.01986173 -0.22842142 -0.23999853
-0.22725219 -0.058762036 -0.070886225 -0.15725653 -0.04200749 -0.06929029 -0.042204004 -0.043430287
-0.059954062 -0.053302575 -0.16507988 -0.04104227 -0.05008246 -0.11412751 -0.06966406 -0.06088666
00000000: ae42 d7bd 242d c3bd 2079 b1bc c2a2 54be
00000010: 3186 74be 4b6c bdbd 2956 62bd 9d9b 9cbd
00000020: d469 cabd 19b1 a8bd a452 52bd 4ef2 8dbc
00000030: c6ef abbd 11b5 a2bc 4ee7 69be 2dc2 75be
00000040: ccb4 68be 76b0 70bd cc2c 91bd db07 21be
00000050: 0c10 2cbd 11e8 8dbd 1bde 2cbd f5e3 31bd
00000060: 6492 75bd cd53 5abd b30a 29be f01b 28bd
00000070: 4423 4dbd afbb e9bd 08ac 8ebd 4a64 79bd

_network.7.running_mean f4 [32]
-0.1580026 0.12927541 0.3342164 -0.25639367 -0.86676776 -0.5511792 -0.47026053 0.20444456
-0.02112365 -0.09006118 -0.5008778 0.10408662 -0.62888575 0.3095322 -0.7577082 -0.014024064
0.09295356 -0.20578358 -0.1828205 0.003181155 0.13168994 -0.29872105 0.40851495 -0.37564233
-0.13043013 -0.01019101 -0.35255516 -0.07396042 -0.17959967 0.009612071 0.033635505 -0.22431168
00000000: 6fcb 21be c660 043e 691e ab3e 0846 83be
00000010: 7ee4 5dbf 141a 0dbf fdc5 f0be ea59 513e
00000020: 810b adbc ff71 b8bd 8739 00bf 5e2b d53d
00000030: a8fe 20bf 017b 9e3e 2af9 41bf 30c5 65bc
00000040: 705e be3d eeb8 52be 4c35 3bbe ed7a 503b
00000050: bad9 063e f7f1 98be df28 d13e 3154 c0be
00000060: 7a8f 05be 32f8 26bc 1c82 b4be 9078 97bd
00000070: fae8 37be f37b 1d3c 62c5 093d f6b1 65be

_network.7.running_var f4 [32]
0.13263774 0.88834757 0.40101802 0.28130698 0.3810852 0.88222736 0.66878927 0.14567037
0.35712773 0.10743483 1.0557275 0.76286554 0.10825257 0.18937589 0.17400995 0.21549511
0.23697296 0.18859461 0.27755547 0.25799367 0.95055807 0.35467845 1.1443739 1.0159371
0.31043822 0.26226246 0.1717258 0.9743113 0.7692772 0.063143715 0.21636882 0.54282504
00000000: 30d2 073e bf6a 633f 3c52 cd3e 7807 903e
00000010: 991d c33e a7d9 613f c635 2b3f 9d2a 153e
00000020: 72d9 b63e cb06 dc3d 1422 873f 284b 433f
00000030: 86b3 dd3d c1eb 413e aa2f 323e c0aa 5c3e
00000040: 0aa9 723e f21e 413e c01b 8e3e bf17 843e
00000050: c657 733f 6a98 b53e d87a 923f 3a0a 823f
00000060: c2f1 9e3e 4447 863e e3d8 2f3e 776c 793f
00000070: 5aef 443f 7e51 813d ca8f 5d3e 95f6 0a3f

_network.9.weight f4 [1, 32]
-0.010030376 0.03906541 0.05694248 0.026008043 -0.009224027 -0.024779968 -0.039622445 0.0028562453
0.026785921 -0.00054672325 0.08371694 0.08559597 -0.002384376 0.03448636 -0.002787042 0.021784915
0.019282645 -0.014154397 -0.030123716 0.00068338204 -0.07020768 -0.051501863 0.03453219 -0.10297034
-0.040609583 -0.07592539 0.0028775234 -0.08518372 0.078778 0.00053977204 -0.01659143 -0.05763446
00000000: 7256 24bc 0d03 203d 853c 693d d20e d53c
00000010: 6020 17bc 5cff cabc 254b 22bd d82f 3b3b
00000020: 266e db3c fa51 0fba c973 ab3d f14c af3d
00000030: 3143 1cbb 9241 0d3d cea6 36bb 4776 b23c
00000040: a3f6 9d3c d8e7 67bc 03c6 f6bc fe24 333a
00000050: 0bc9 8fbd 9ef3 52bd a071 0d3d 1de2 d2bd
00000060: 3c56 26bd c57e 9bbd d594 3c3b cd74 aebd
00000070: 5c56 a13d 7d7f 0d3a c0ea 87bc 1d12 6cbd
