transformers/results/pimentel_mlp/configs/hyperopt/trial_16/pimentel_mlp_model_20251208_231600.pt (torch, 432266 bytes, 43 tensors)

_network.0.weight f4 [128, 5]
0	0x3ebcaf8f	0.3685269
1	0x3ebe4632	0.3716293
2	0xbde14825	-0.110000886
3	0x3ece9dd4	0.40354788
4	0xbdb77297	-0.08957403
5	0x3d993c80	0.074822426
6	0xbe6c8e78	-0.23101223
7	0x3e85047a	0.25979978
8	0x3ecba66a	0.397754
9	0xbea50d08	-0.32236505
10	0x3ec078d0	0.37592173
11	0x3da097f9	0.078414865
12	0x3eadd36f	0.33950374
13	0x3d9a90f4	0.07547179
14	0x3e640420	0.22267199
15	0xbda4fce9	-0.08056051
16	0x3eaa8a0b	0.33308443
17	0x3d8c460c	0.06849298
18	0xbe5765ec	-0.21034974
19	0x3dfb60b6	0.122743055
20	0xbe78ef22	-0.24309972
21	0xbd71629e	-0.05893194
22	0xbe2d8a71	-0.16947342
23	0x3e8f3c85	0.2797586
24	0xbeae4450	-0.34036493
25	0xbe809139	-0.25110796
26	0xbdcd5403	-0.100257896
27	0xbe82c2d5	-0.2553927
28	0x3d2622bb	0.040560465
29	0xbed76c00	-0.42074585
30	0x3ec7357a	0.38907987
31	0xbec820c9	-0.39087513
32	0x3eb35394	0.35024703
33	0x3d92f389	0.07175357
34	0xbe17ae26	-0.14812526
35	0x3e9163c0	0.28396416
36	0x3d962a6c	0.0733231
37	0x3eb63184	0.35584652
38	0x3d5c48a2	0.053780206
39	0xbe0c44be	-0.13698098
40	0x3df9632b	0.12177118
41	0xbdf09ca7	-0.11748629
42	0x3e4aa940	0.19791126
43	0x3ecefb8f	0.404263
44	0x3e817805	0.2528688
45	0xbe35dbdc	-0.17759651
46	0x3e8865fc	0.26640308
47	0x3d685eb6	0.05673095
48	0x3e7b5d68	0.2454735
49	0xbe8af0f0	-0.27136946
50	0xbef96420	-0.48709202
51	0xbe15edaa	-0.14641443
52	0xbea4bd3d	-0.32175627
53	0x3eb61ee1	0.35570434
54	0x3e02ae8e	0.127619
55	0x3e3fbd6f	0.18724607
56	0x3e170631	0.14748456
57	0xbc9683e6	-0.018373441
58	0x3eb6fa4f	0.35737845
59	0xbe9c140e	-0.3048405
60	0x3d03c119	0.032166574
61	0xbe992222	-0.29908854
62	0x3e098e29	0.13433136
63	0xbe21590f	-0.1575663
64	0x3e12d438	0.14338768
65	0xbd95e8fc	-0.07319829
66	0x3ec75a24	0.3893596
67	0xbe8215c9	-0.25407246
68	0xbe8c17fe	-0.27362055
69	0xbe7db326	-0.24775371
70	0x3edb46aa	0.4282735
71	0x3e172206	0.14759073
72	0x3edb5373	0.42837104
73	0xbebe9c86	-0.37228793
74	0xbeddc928	-0.43317533
75	0xbeae2caf	-0.34018466
76	0xbe9db796	-0.30804127
77	0x3e3d48b2	0.18484762
78	0x3e16918d	0.1470396
79	0x3ec1dd20	0.37864017
80	0xbe7bc90e	-0.24588415
81	0xbe95e28a	-0.29274398
82	0x3e76d973	0.24106388
83	0xbe3ddc88	-0.18541157
84	0x3e8e9da5	0.27854648
85	0xbdb53aa3	-0.08849075
86	0x3e8204be	0.25394243
87	0xbeb974e9	-0.36222008
88	0xbe63abb6	-0.22233471
89	0x3e0dd3da	0.13850346
90	0x3dade9fa	0.08491893
91	0xbddc1fd4	-0.10748258
92	0x3e87c5d3	0.26518115
93	0x3e9f35b1	0.3109565
94	0xbea6c257	-0.32570145
95	0xbe501a2d	-0.20322485
96	0x3ed180bf	0.40918538
97	0xbe39478c	-0.18093699
98	0xbe1eec17	-0.15519749
99	0xbee0e2d2	-0.4392305
100	0xbe8a2476	-0.26980942
101	0x3dd4a520	0.103830576
102	0xbd6f1a90	-0.05837494
103	0xbea1d98a	-0.31611282
104	0xbcb7488b	-0.022373458
105	0xbeb939fe	-0.36177057
106	0xbec0f915	-0.37690035
107	0xbe6be2b3	-0.23035698
108	0xbec32213	-0.38111934
109	0xbe8fa048	-0.28051972
110	0x3ed92238	0.4240892
111	0x3dafec5a	0.08590002
112	0x3e1287e2	0.14309648
113	0xbed76ccd	-0.42075196
114	0xbe995f21	-0.2995539
115	0xbe105ef2	-0.14098719
116	0x3d6bc62d	0.057562042
117	0xbedce6a9	-0.4314473
118	0xbe48e776	-0.19619545
119	0xbe845b65	-0.25850978
120	0x3bfeff32	0.0077818865
121	0xbe2f11d0	-0.17096639
122	0xbd2fa7fa	-0.042884804
123	0xbe9b4727	-0.30327722
124	0xbe9969e4	-0.299636
125	0xbe85c906	-0.2612993
126	0xbe2e7ed2	-0.17040566
127	0xbeb4aae3	-0.35286626
128	0x3ebe7087	0.37195227
129	0xbda898f9	-0.08232302
130	0x3ed3712b	0.41297278
131	0x3e0bc470	0.13649154
132	0xbec7f33e	-0.39052767
133	0x3e9930c8	0.2992003
134	0xbdd3fa93	-0.103505276
135	0xbe2b0e5a	-0.16704693
136	0xbeb97b1c	-0.36226737
137	0xbee87f85	-0.4540979
138	0x3e02ae7a	0.1276187
139	0xbdc57c64	-0.09642866
140	0x3e41958a	0.18904701
141	0xbebb401d	-0.36572352
142	0x3ea0d3db	0.31411633
143	0xbeaa2914	-0.33234465
144	0xbda6e1a7	-0.081485085
145	0x3dde0b5b	0.1084201
146	0x3e67e526	0.22646007
147	0x3eb2f4d9	0.3495243
148	0x3ed34b5f	0.4126844
149	0xbeb9ff8f	-0.36327788
150	0x3dea895c	0.114519805
151	0xbe3b056b	-0.18263786
152	0xba20afd8	-0.00061297184
153	0xbeabedb9	-0.33579805
154	0x3ed7b7fe	0.42132562
155	0xbeb3e859	-0.35138205
156	0x3e6652c7	0.22492515
157	0x3e18a1f6	0.14905533
158	0x3e06c431	0.13160779
159	0xbe7a88e4	-0.24466282
160	0x3eda7d75	0.4267384
161	0x3dc8f3de	0.09812139
162	0x3d5d78a1	0.05407012
163	0xbec025af	-0.3752875
164	0x3e4b935e	0.19880435
165	0xbd9b9ede	-0.07598661
166	0xbe4dcbc8	-0.20097268
167	0x3ec669ab	0.38752493
168	0x3db91d9b	0.0903885
169	0xbe810a59	-0.25203207
170	0xbe683781	-0.22677423
171	0xbcd3680d	-0.025806451
172	0x3e7750d6	0.2415193
173	0xbdd7b225	-0.10532025
174	0xbe8818df	-0.26581475
175	0xbe12f43b	-0.14350979
176	0xbea7af56	-0.32750958
177	0x3e23f392	0.16010883
178	0x3eb1d813	0.34735164
179	0xbeda4950	-0.42634058
180	0x3dcedd70	0.101008296
181	0x3e6f6ad4	0.23380595
182	0x3d98ef3e	0.07467507
183	0xbe1feb08	-0.15617001
184	0x3e77533c	0.24152845
185	0x3e9370d8	0.2879703
186	0x3e117a66	0.14206848
187	0xbd98b607	-0.07456594
188	0xbdb19693	-0.08671298
189	0x3d390ded	0.045179296
190	0xbda134fa	-0.078714326
191	0xbe068731	-0.13137509
192	0x3e908d34	0.2823273
193	0x3ec7ec0a	0.3904727
194	0xbd3fef04	-0.046858802
195	0xbde1f48f	-0.11032974
196	0x3b3a1ad2	0.0028397334
197	0xbd0dc9a3	-0.034616124
198	0x3dea6ead	0.11446891
199	0x3de97d74	0.114008814
200	0xbed908f6	-0.4238965
201	0xbe1c867e	-0.1528568
202	0x3ebddef6	0.37084168
203	0x3e287cf1	0.16453911
204	0xbd206315	-0.039156992
205	0xbe6fcc7e	-0.23417851
206	0xbe8e3dcd	-0.27781525
207	0xbed84951	-0.42243436
208	0xbe1bc852	-0.15213135
209	0x3e11be03	0.1423264
210	0x3e965590	0.29362154
211	0x3e53ffe2	0.2070308
212	0xbecf119c	-0.40443122
213	0xbe8188c9	-0.2529967
214	0xbda7eee3	-0.08199861
215	0x3edd8d85	0.43272033
216	0x3dbb4713	0.09144416
217	0xbde24872	-0.11048974
218	0x3e48b9cb	0.19602124
219	0xbe2296fa	-0.15877905
220	0xbe9dceaa	-0.30821735
221	0x3eab8dd1	0.33506635
222	0xbe4353a8	-0.19074881
223	0xbdc3416a	-0.09533961
224	0xbedddffa	-0.43334943
225	0x3e982d6f	0.29722163
226	0x3ead89df	0.3389425
227	0x3e29c779	0.16579999
228	0xbe9f68ca	-0.31134635
229	0xbee24c86	-0.44199008
230	0xbec3ea79	-0.38264826
231	0x3ea842a9	0.32863358
232	0x3e53b254	0.20673496
233	0x3ebe5d6c	0.3718065
234	0x3e74eb60	0.23917913
235	0x3dc8bd44	0.098017246
236	0xbc46fa12	-0.012144582
237	0xbeae6736	-0.3406312
238	0xbec5ba78	-0.38618827
239	0xbed4bdf3	-0.4155117
240	0x3e44ccd0	0.19218755
241	0xbe55e2f8	-0.20887363
242	0xbdc397e0	-0.09550452
243	0xbe881bc9	-0.26583698
244	0xbd98ebde	-0.07466863
245	0xbe9cb900	-0.30609894
246	0xbe964f48	-0.29357362
247	0x3e10ae05	0.14128883
248	0xbe0e7a26	-0.13913783
249	0x3e908301	0.28224948
250	0xbe1afd01	-0.15135576
251	0xbea37643	-0.31926164
252	0xbd8e9f01	-0.06963921
253	0xbe609df5	-0.21935256
254	0xbe09b08a	-0.1344625
255	0xbeddd70a	-0.43328124

_network.0.bias f4 [128]
0	0x3dbc6c3d	0.09200332
1	0xbed6672e	-0.41875595
2	0x3ec80ed0	0.390738
3	0x3e8fd611	0.28093007
4	0xbee031d4	-0.43788016
5	0xbe5a3322	-0.21308568
6	0x3e159736	0.14608464
7	0xbdbc934f	-0.092077844
8	0xbd46d0ed	-0.04853909
9	0xbe4e8171	-0.20166565
10	0x3eb7ddec	0.359115
11	0xbe800c45	-0.2500936
12	0x3ebdc10c	0.37061346
13	0x3cedeaae	0.029042568
14	0x3db8124d	0.089878656
15	0x3eb31089	0.34973553
16	0xbd965759	-0.07340879
17	0xbe823b62	-0.2543593
18	0xbd945560	-0.072428465
19	0x3eb99194	0.3624388
20	0xbeaa46fe	-0.33257288
21	0x3dd1f97f	0.10252666
22	0xbee1426b	-0.43995985
23	0x3e6fa832	0.23404005
24	0x3e29eb7b	0.16593735
25	0x3c9ad86d	0.018902028
26	0x3e4480d1	0.19189765
27	0x39839170	0.00025094626
28	0x3e7d8347	0.2475711
29	0xbeb5322f	-0.3538985
30	0xbd865fcb	-0.0656124
31	0x3e4bc488	0.1989919
32	0x3ee3bc99	0.44479826
33	0x3e693d62	0.22777322
34	0xbea634b5	-0.32462087
35	0x3eb01284	0.34389126
36	0xbdcc6dec	-0.099819034
37	0xbdc2cf26	-0.09512167
38	0xbed0109b	-0.4063767
39	0xbd8e28a9	-0.06941349
40	0x3ea1fcab	0.31638083
41	0x3d7caeb5	0.06169005
42	0xbe85a221	-0.26100257
43	0x3e0d0127	0.13769971
44	0xbe14042d	-0.14454718
45	0x3ed0e32b	0.40798315
46	0xbec6c7ef	-0.38824412
47	0xbe109c24	-0.14122063
48	0xbedca251	-0.43092588
49	0xbe338cb2	-0.1753414
50	0x3e113d65	0.14183576
51	0x3eddb0bb	0.43298897
52	0x3d99e93b	0.07515188
53	0x3ee04af3	0.43807182
54	0x3db29e16	0.08721559
55	0x3e844c75	0.25839582
56	0x3eb74856	0.35797375
57	0x3ebf5099	0.3736618
58	0xbe805337	-0.25063488
59	0x3ed29b5b	0.41134152
60	0x3e8ad719	0.2711723
61	0xbe559e5e	-0.20861194
62	0xbe5a9ee5	-0.21349676
63	0xbebfeb68	-0.37484288
64	0x3de60fc0	0.11233473
65	0xbeb9a4fb	-0.36258683
66	0x3e417e75	0.18895896
67	0x3e11c780	0.1423626
68	0xbec737e9	-0.38909844
69	0x3df9d012	0.121978894
70	0xbd150b53	-0.036387753
71	0x3e50f11e	0.20404479
72	0x3e837c49	0.2568076
73	0xbee3c45e	-0.44485754
74	0x3ed220e4	0.4104072
75	0x3ec004fc	0.37503803
76	0x3e3646c9	0.1780044
77	0xbed162a3	-0.40895566
78	0xbe23c2a6	-0.15992221
79	0xbe04f0d0	-0.12982488
80	0xbdecd8a9	-0.11564762
81	0x3e80e1ea	0.2517236
82	0x3e25b5eb	0.16182677
83	0x3eb545af	0.35404727
84	0xbe2b446f	-0.16725324
85	0x3e1a1728	0.15047896
86	0x3e22efc4	0.15911776
87	0xbebf68e0	-0.373847
88	0xbede0759	-0.4336498
89	0xbe6d873e	-0.23196122
90	0x3e9cb6ad	0.3060812
91	0xbed76ac2	-0.42073637
92	0xbec794fe	-0.3898086
93	0x3e8038ff	0.25043485
94	0x3e77036c	0.24122399
95	0x3ebbf0d7	0.36707184
96	0xbead2232	-0.3381515
97	0xbea7b0ac	-0.32751977
98	0x3e70d18d	0.23517437
99	0x3ec79446	0.3898031
100	0x3e88b43e	0.26700014
101	0x3d9003eb	0.07031997
102	0x3e179178	0.14801586
103	0x3ed9dece	0.425528
104	0xbe93cdc7	-0.28867933
105	0xbe51e469	-0.20497288
106	0x3ea0b392	0.31387
107	0xbe9c9f34	-0.30590212
108	0xbe7c4fa4	-0.24639755
109	0x3ea70a9c	0.32625282
110	0x3e105741	0.14095785
111	0x3e13d691	0.1443732
112	0xbe41dbf6	-0.18931565
113	0xbbc83943	-0.0061103418
114	0x3ed1c5ff	0.40971372
115	0xbe8755d5	-0.26432672
116	0x3b818437	0.003952529
117	0x3e59a986	0.21256074
118	0xbe9dcb93	-0.30819377
119	0x3ede4322	0.43410593
120	0xbe649c6f	-0.223253
121	0xbddb86f5	-0.107191004
122	0xbdf7b355	-0.12094752
123	0xbe952a64	-0.29133904
124	0xbee0d92b	-0.43915686
125	0x3e8134ee	0.25235695
126	0x3df35e5e	0.118832335
127	0xbed621df	-0.41822717

_network.1.weight f4 [128]
0	0x3f81c054	1.0136819
1	0x3f7dcc28	0.9913964
2	0x3f81d61d	1.0143467
3	0x3f80bce5	1.0057646
4	0x3f80dd96	1.0067623
5	0x3f7df4d3	0.992017
6	0x3f7ec06b	0.99512357
7	0x3f7f085b	0.99622124
8	0x3f7fb493	0.9988491
9	0x3f7d8f73	0.9904701
10	0x3f810d03	1.0082096
11	0x3f8066ed	1.003141
12	0x3f80bad7	1.0057019
13	0x3f7e400d	0.99316484
14	0x3f7f495d	0.9972132
15	0x3f7ed59a	0.9954468
16	0x3f7f4133	0.9970886
17	0x3f7c5fd0	0.985837
18	0x3f7de311	0.991746
19	0x3f804d08	1.0023508
20	0x3f803da8	1.0018816
21	0x3f7f4d5b	0.9972741
22	0x3f8108f3	1.0080856
23	0x3f801522	1.0006449
24	0x3f80f2b7	1.0074071
25	0x3f80151a	1.000644
26	0x3f80bf00	1.0058289
27	0x3f808a58	1.0042219
28	0x3f7f4c72	0.9972602
29	0x3f7d6e63	0.9899656
30	0x3f800f91	1.000475
31	0x3f804aeb	1.0022863
32	0x3f7d9cbb	0.99067277
33	0x3f7e9ab8	0.9945483
34	0x3f7e72a8	0.993937
35	0x3f80e5bb	1.0070108
36	0x3f7e74b6	0.99396837
37	0x3f822c37	1.0169743
38	0x3f7bc31a	0.98344576
39	0x3f79eee6	0.97630155
40	0x3f818abd	1.0120465
41	0x3f7d3a43	0.98917025
42	0x3f808f4d	1.0043732
43	0x3f80339d	1.0015751
44	0x3f80017e	1.0000455
45	0x3f7f7a74	0.99796224
46	0x3f8072d2	1.003504
47	0x3f7e6602	0.993744
48	0x3f803cff	1.0018615
49	0x3f7a4e91	0.9777613
50	0x3f7e1351	0.99248224
51	0x3f801ba3	1.0008434
52	0x3f7f3d51	0.99702936
53	0x3f7fa66b	0.9986331
54	0x3f7e0a64	0.99234605
55	0x3f7f206a	0.99658835
56	0x3f7c7468	0.9861512
57	0x3f7fd4c8	0.99934053
58	0x3f803c01	1.0018312
59	0x3f8040cd	1.0019776
60	0x3f7e6544	0.9937327
61	0x3f81fef2	1.0155928
62	0x3f819abc	1.0125346
63	0x3f8006af	1.000204
64	0x3f809305	1.0044867
65	0x3f806aad	1.0032555
66	0x3f7f0a6a	0.99625266
67	0x3f824b1c	1.0179172
68	0x3f80af83	1.0053562
69	0x3f806834	1.00318
70	0x3f7ff7ec	0.99987674
71	0x3f7d1746	0.9886364
72	0x3f8088e8	1.004178
73	0x3f8009c1	1.0002977
74	0x3f828415	1.0196558
75	0x3f7f5aca	0.9974791
76	0x3f7ea6e2	0.9947339
77	0x3f7f125e	0.996374
78	0x3f8070c4	1.0034413
79	0x3f803791	1.0016958
80	0x3f7c6fc1	0.9860802
81	0x3f8112f1	1.0083905
82	0x3f7923a2	0.97319996
83	0x3f802c6c	1.0013556
84	0x3f7f96be	0.9983939
85	0x3f8067fa	1.0031731
86	0x3f8036b5	1.0016695
87	0x3f82668f	1.0187548
88	0x3f8018a8	1.0007524
89	0x3f7e23d0	0.99273396
90	0x3f7d2bb9	0.9889484
91	0x3f7c20c0	0.9848747
92	0x3f7f8749	0.99815804
93	0x3f7c0e95	0.9845975
94	0x3f81055c	1.007976
95	0x3f8123af	1.0089015
96	0x3f80092b	1.0002798
97	0x3f803b04	1.001801
98	0x3f817ce2	1.0116236
99	0x3f7f45dd	0.9971598
100	0x3f7d0d8b	0.9884879
101	0x3f80d4e6	1.0064971
102	0x3f7c919d	0.9865969
103	0x3f7f35cb	0.99691457
104	0x3f7feb99	0.9996887
105	0x3f80f638	1.007514
106	0x3f813942	1.0095599
107	0x3f7e448b	0.9932334
108	0x3f7fc51a	0.9991013
109	0x3f7fc857	0.9991507
110	0x3f803766	1.0016906
111	0x3f7e2c02	0.992859
112	0x3f7ec137	0.9951357
113	0x3f7d5416	0.9895643
114	0x3f80368c	1.0016646
115	0x3f7ee87e	0.99573505
116	0x3f7f9da7	0.99849933
117	0x3f810ac3	1.0081409
118	0x3f807f92	1.0038931
119	0x3f80599f	1.002735
120	0x3f8038f4	1.0017381
121	0x3f7c84e0	0.9864025
122	0x3f828480	1.0196686
123	0x3f8039e6	1.0017669
124	0x3f80b247	1.0054406
125	0x3f80eb63	1.0071834
126	0x3f7f5c1b	0.99749917
127	0x3f7e4767	0.993277

_network.1.bias f4 [128]
0	0x3bc339f8	0.005957838
1	0xbb81a24b	-0.0039561144
2	0x3c66cfca	0.014087627
3	0x3c9b7a66	0.018979263
4	0x3bf54942	0.0074855397
5	0x3aa74245	0.0012760839
6	0xbb443116	-0.0029936484
7	0x3c13c0fa	0.009018177
8	0x3a505d28	0.00079484517
9	0x3c1335d3	0.008985001
10	0x3bca33f0	0.006170742
11	0x3c8ef8d9	0.017452644
12	0x3c53594b	0.012899707
13	0xbb4fa061	-0.0031681287
14	0x3c29566d	0.010335547
15	0xbca48864	-0.020084567
16	0xbc20a60f	-0.009805216
17	0xbcd38403	-0.025819784
18	0xbc158cec	-0.009127837
19	0xbc1e70eb	-0.009670476
20	0x3ad111aa	0.0015950699
21	0xbca09f48	-0.019607201
22	0x3d0b38e5	0.033989806
23	0xbc1d63a4	-0.009606276
24	0xbb29b038	-0.0025892388
25	0x3bf3ebc0	0.007443875
26	0xbc04937f	-0.008091806
27	0xbbe5b44c	-0.0070100185
28	0xbcb51693	-0.02210549
29	0xbba994bf	-0.0051752026
30	0x3c18455f	0.009293883
31	0xbce63c80	-0.02810502
32	0x3b86671f	0.0041016485
33	0xbc77fde6	-0.015136218
34	0xbba8ecfb	-0.0051552034
35	0xbbbb45c5	-0.0057151043
36	0xb9bffb49	-0.0003661758
37	0x3cd8ac9a	0.02644949
38	0xbbba85e6	-0.0056922315
39	0xbd131262	-0.035906203
40	0xbc942bca	-0.018087287
41	0xb8357ccb	-4.3269985e-05
42	0xbba6db35	-0.0050920495
43	0x3c362e5e	0.011119453
44	0x3c3aa7b9	0.011392527
45	0x3c5de00b	0.013542186
46	0x3afb3579	0.0019165716
47	0xbac015be	-0.0014654917
48	0x3cbdbc8f	0.0231612
49	0xba986ae8	-0.001162854
50	0xbb8ceec5	-0.0043009245
51	0xbc4f267e	-0.012643455
52	0xbcbeb302	-0.023278717
53	0xbbfd0a75	-0.007722194
54	0x3bf442b5	0.007454241
55	0x3c3d42cd	0.011551571
56	0xb950ac25	-0.00019900555
57	0xbba5c533	-0.0050589084
58	0x3b644167	0.0034829022
59	0xbb062a86	-0.0020472123
60	0xba069a5b	-0.0005134695
61	0x3cd8c94c	0.026463173
62	0x3d83ace1	0.064294584
63	0x3c2a74ee	0.010403855
64	0xba8ee70f	-0.0010902601
65	0x3bb8a14e	0.0056344634
66	0x3a697542	0.00089057174
67	0xbcd805dd	-0.026369983
68	0x3c4a0782	0.012330892
69	0x3be17461	0.0068803285
70	0x3ba63c5f	0.0050731148
71	0x3ae02a22	0.00171024
72	0xbbc72675	-0.0060775825
73	0xbbe47601	-0.006972075
74	0x3c8bb989	0.017056243
75	0x3994753c	0.00028316106
76	0x3a801098	0.000977057
77	0x3be11166	0.006868529
78	0x3c06d58c	0.0082296245
79	0xbc8b64bd	-0.01701581
80	0x3950847f	0.00019885784
81	0xbb2515e9	-0.0025190061
82	0xbc80fc84	-0.015745409
83	0xbbe120a3	-0.0068703457
84	0x3c9b5344	0.018960603
85	0xbc8bbb6e	-0.017057147
86	0x3c356d90	0.011073485
87	0x3cacad2a	0.021078665
88	0x3b0b3357	0.0021240318
89	0x3b15a512	0.0022833985
90	0x3a31c5ee	0.0006781508
91	0xbc3e56fa	-0.0116174165
92	0xbba9a6e9	-0.005177368
93	0xbc831e4b	-0.016005656
94	0x3c2b297e	0.010446904
95	0x3c557474	0.013028253
96	0xb9d0da8c	-0.00039835682
97	0x3c14a5f3	0.0090727685
98	0x3ba4ea74	0.005032832
99	0xbc325f18	-0.01088693
100	0xbbbc4310	-0.005745299
101	0x3c09130d	0.0083663585
102	0xbc5a05f8	-0.013307087
103	0xbc8cd93f	-0.017193435
104	0x3aa750e5	0.0012765197
105	0xbd10e38e	-0.035373263
106	0x3b11a69b	0.0022224549
107	0x3b8a055f	0.004212066
108	0xbc1e659b	-0.009667779
109	0xbae72d90	-0.001763748
110	0x3b83d2e0	0.004022941
111	0xbbd045c1	-0.0063559716
112	0x3ad8ecce	0.0016550065
113	0xbc032895	-0.008005281
114	0x3c9f0d8f	0.019415645
115	0xbca0b846	-0.019619118
116	0xbb038b80	-0.0020072162
117	0x3c4f31c1	0.01264614
118	0x3bddab98	0.0067648403
119	0xbc739b08	-0.014868505
120	0xbc560603	-0.013062957
121	0xbc1f5c71	-0.00972663
122	0x3d200257	0.03906473
123	0x3bebb6e2	0.007193432
124	0xbc471aa6	-0.01215235
125	0xbb464065	-0.0030250784
126	0xbb803ba0	-0.003913358
127	0x3c626c87	0.01381982

_network.1.running_mean f4 [128]
0	0x3f0414b3	0.51594085
1	0xbef3daf1	-0.47627977
2	0x3f4c61b4	0.79836583
3	0x3ebe5652	0.37175232
4	0xbf2c078f	-0.67199033
5	0xbf252029	-0.645022
6	0x3df8e629	0.121532746
7	0x3ceb4766	0.028720569
8	0x3eac8473	0.336948
9	0xbe637aa0	-0.22214746
10	0x3ea354c0	0.31900597
11	0xbe159cf6	-0.14610657
12	0x3e97e7be	0.29668993
13	0xbe2a5f90	-0.16638017
14	0xbdbd2349	-0.09235246
15	0x3edaaef2	0.42711598
16	0xbe2eb624	-0.17061669
17	0xbe78199b	-0.24228518
18	0xbdf38e06	-0.11892323
19	0x3d758b84	0.059947506
20	0xbf12d7c6	-0.57360494
21	0xbf17e755	-0.5933736
22	0xbf1d8e00	-0.615448
23	0xbde90a68	-0.11378938
24	0xbe7f26cb	-0.24917142
25	0xbd961697	-0.073285274
26	0x3ee53ccb	0.44772944
27	0xbe89dbe1	-0.26925567
28	0xbb09f455	-0.0021050174
29	0xbe62dcdf	-0.22154568
30	0x3cd0093d	0.02539503
31	0x3d8330dd	0.06405804
32	0x3f1e192f	0.6175718
33	0x3d0c3935	0.034234244
34	0xbf20bd34	-0.627887
35	0x3d5a4152	0.05328495
36	0x3e0581d2	0.13037804
37	0x3d789203	0.060686123
38	0xbe9bfd83	-0.30466852
39	0x3c57b819	0.013166451
40	0x3e32d099	0.17462386
41	0xbe311d8d	-0.17296429
42	0xbe8dcdad	-0.2769598
43	0x3ea83eb9	0.32860354
44	0xbefa387e	-0.48871225
45	0x3e79ed63	0.24406962
46	0xbd528cec	-0.051403925
47	0xbf1abcd0	-0.60444355
48	0xbf1fea09	-0.62466484
49	0xbe915c65	-0.28390804
50	0xbe81117a	-0.25208646
51	0x3f127dbb	0.572231
52	0x3dbc5bdc	0.09197208
53	0x3e977f09	0.29589108
54	0x3ee7de73	0.45286903
55	0xbda0859d	-0.07837985
56	0xbcb802b3	-0.022462225
57	0x3e9d7a46	0.3075735
58	0xbef50461	-0.47854903
59	0x3cbac5b0	0.022799343
60	0xbde01342	-0.10941173
61	0xbe3018ab	-0.1719691
62	0x3eb9ffcb	0.36327967
63	0xbe02fe58	-0.12792337
64	0xbddd93f8	-0.108192384
65	0xbf6edc37	-0.9330477
66	0x3e945c95	0.28976884
67	0xbdf176cc	-0.11790237
68	0xbf66fac2	-0.90226376
69	0x3da876b2	0.08225764
70	0xbcc9110a	-0.024544258
71	0x3eff7132	0.4989105
72	0x3e4140bd	0.18872352
73	0xbf19994a	-0.59999526
74	0x3ed04876	0.40680283
75	0x3e83cf35	0.25744024
76	0x3ec5772d	0.38567486
77	0xbeb7dca4	-0.35910523
78	0xbd2e351f	-0.04253113
79	0xbeebe60d	-0.46073952
80	0xbdc7dfe1	-0.097594984
81	0xbe084d76	-0.13310799
82	0x3ec55976	0.38544816
83	0xbe019ce1	-0.12657501
84	0x3db65616	0.08903138
85	0x3dca8451	0.098885186
86	0x3de43b79	0.11144156
87	0xbeaa769e	-0.33293623
88	0x3dbf0dc5	0.09328798
89	0xbeee8062	-0.46582323
90	0x3e506c9d	0.20353933
91	0xbf0ae8fd	-0.5426176
92	0xbec47547	-0.38370726
93	0x3ee95cb6	0.45578545
94	0x3ebe2f66	0.37145537
95	0x3eae1e78	0.3400762
96	0xbee320e8	-0.44361043
97	0x3dd98dcf	0.10622751
98	0x3eac4f20	0.33654118
99	0x3ea45559	0.32096365
100	0x3f0bd853	0.5462696
101	0xbdd0b78e	-0.1019126
102	0xbea631dc	-0.32459915
103	0x3f0509b5	0.51967937
104	0x3e227e59	0.1586851
105	0xbe34e01f	-0.1766362
106	0x3f2f524c	0.6848495
107	0xbec1606a	-0.3776887
108	0xbd8d8c8a	-0.06911571
109	0x3f11ec07	0.57000774
110	0x3e6274ee	0.22114918
111	0x3efe3eaf	0.496572
112	0xbe91d979	-0.2848623
113	0xbf46d6d1	-0.77671534
114	0x3ed543b2	0.4165321
115	0xbf192c82	-0.5983354
116	0x3e4b972b	0.19881885
117	0x3e6ec49e	0.23317191
118	0xbe86e3dd	-0.2634572
119	0x3ed0888c	0.40729177
120	0xbed9c9e3	-0.4253684
121	0x3d4e2df9	0.05033681
122	0x3e3061d8	0.17224824
123	0xbd8d1a17	-0.06889742
124	0xbf28d38b	-0.6594779
125	0x3bfd3696	0.0077274544
126	0x3c4b402e	0.012405438
127	0xbf712cbe	-0.94208896

_network.1.running_var f4 [128]
0	0x3c3fdba6	0.011710083
1	0x3d441eef	0.047881063
2	0x3c0e9575	0.0087026255
3	0x3c9bb271	0.019005986
4	0x3cdc7671	0.026911946
5	0x3ca88978	0.020573363
6	0x3ca07839	0.019588577
7	0x3bb00544	0.0053717215
8	0x3c2f4600	0.010697842
9	0x3c41573e	0.011800585
10	0x3c4c5201	0.012470723
11	0x3ca992d0	0.020699888
12	0x3b85683e	0.0040712645
13	0x3c6297eb	0.013830165
14	0x3c2028e7	0.009775377
15	0x3c12953f	0.008946716
16	0x3c13ae05	0.009013657
17	0x3caec209	0.021332758
18	0x3d03e50a	0.03220085
19	0x3c2d4323	0.010575089
20	0x3c1da28a	0.009621272
21	0x3c86ca90	0.016454011
22	0x3c1aa36c	0.009438377
23	0x3c0e3d80	0.008681655
24	0x3bc7e9d3	0.006100872
25	0x3cae29c3	0.021260148
26	0x3c18419a	0.009292984
27	0x3c9bd355	0.01902167
28	0x3be02ad7	0.0068410444
29	0x3d078193	0.033082556
30	0x3ce2203e	0.027603265
31	0x3c09922b	0.008396666
32	0x3ce61548	0.02808632
33	0x3c928062	0.017883483
34	0x3b9763cd	0.0046200515
35	0x3d788c4d	0.060680676
36	0x3c997a83	0.018735176
37	0x3ba704ef	0.0050970237
38	0x3cb5bab0	0.022183746
39	0x3a2c6617	0.0006576492
40	0x3c5b58be	0.013387857
41	0x3c2007f2	0.009767519
42	0x3c7847a9	0.015153804
43	0x3be7617d	0.007061182
44	0x3c232fdc	0.009960141
45	0x3c27a05b	0.010231103
46	0x3c5442c5	0.012955372
47	0x3c584a5c	0.013201322
48	0x3b9b97a0	0.0047482997
49	0x3c009745	0.0078485655
50	0x3bd71483	0.0065637245
51	0x3c03b2dc	0.008038249
52	0x3c051525	0.008122717
53	0x3c119ab4	0.008886982
54	0x3c95c7f1	0.018283816
55	0x3d5ec888	0.05439046
56	0x3bb99a42	0.005664141
57	0x3d275a34	0.04085751
58	0x3cdba07b	0.026809921
59	0x3bdb7cd9	0.0066982326
60	0x3bef8e12	0.0073106373
61	0x3b5fd568	0.00341543
62	0x3c8cce05	0.017188082
63	0x3c505ab7	0.012716941
64	0x3cb9541e	0.022623118
65	0x3c741f44	0.014900032
66	0x3cfb7943	0.03069747
67	0x3b4b678b	0.0031037058
68	0x3c2e50c8	0.010639377
69	0x3d0545c4	0.032537237
70	0x3cd2b11f	0.025719224
71	0x3d3c17ce	0.04592114
72	0x3bd6396f	0.0065376083
73	0x3cad9bd7	0.021192474
74	0x3c0ae2bc	0.008476909
75	0x3d20946c	0.039204046
76	0x3cc4fa20	0.02404505
77	0x3ccd35e8	0.025050119
78	0x3c1a753d	0.009427366
79	0x3cb11107	0.021614565
80	0x3b587365	0.0033027765
81	0x3c333eec	0.010940295
82	0x3c16b4e2	0.009198399
83	0x3bbc2292	0.005741426
84	0x3b9fd5ce	0.0048777824
85	0x3c0d6654	0.008630354
86	0x3cae9ba5	0.021314451
87	0x3b0903a6	0.0020906716
88	0x3c6cd711	0.014455573
89	0x3d6548e6	0.055977724
90	0x3c2b197d	0.010443089
91	0x3c6fa22e	0.014626069
92	0x3c9465df	0.018114982
93	0x3c750984	0.014955882
94	0x3bebe9c0	0.007199496
95	0x3bc8ad56	0.006124179
96	0x3c22281e	0.00989726
97	0x3c39b254	0.011334021
98	0x3ab2ee0d	0.0013651267
99	0x3b874df8	0.0041291676
100	0x3bff3d31	0.007789277
101	0x3bfeb1ce	0.007772661
102	0x3c2aef8e	0.010433091
103	0x3c215286	0.009846335
104	0x3c16957f	0.009190916
105	0x3b82f28a	0.003996198
106	0x3c20dac1	0.00981778
107	0x3c8cbdb1	0.017180296
108	0x3c0ed3a8	0.008717455
109	0x3c88ccc3	0.0166992
110	0x3b7c513e	0.0038500573
111	0x3c6cdc1b	0.014456774
112	0x3c9360c6	0.017990481
113	0x3cb50823	0.022098606
114	0x3c322282	0.010872485
115	0x3b4cdb60	0.0031258687
116	0x3cbd8463	0.023134416
117	0x3b2e6d7b	0.0026615548
118	0x3c057b24	0.008147035
119	0x3c11529c	0.008869793
120	0x3c35c6e6	0.011094784
121	0x3c2cf283	0.010555866
122	0x3c2a03a1	0.010376842
123	0x3ce13da8	0.02749522
124	0x3c1c0a2b	0.009523909
125	0x3c938f85	0.018012771
126	0x3ce10516	0.027468245
127	0x3c5a8ec5	0.013339703

_network.3.weight f4 [128, 128]
0	0xbd8a1306	-0.0674191
1	0x3d9c270b	0.07624634
2	0x3d5a4f3f	0.05329823
3	0x3d173eaa	0.036924995
4	0xbd750a77	-0.059824433
5	0xbd2375d6	-0.0399073
6	0xbcabacfc	-0.020956509
7	0xbc4c9a3a	-0.012487942
8	0xbd8f0bfc	-0.06984708
9	0x3b5b11d4	0.0033427374
10	0x3c28c664	0.010301206
11	0xbccba96a	-0.024861056
12	0x3cc2282d	0.023700798
13	0xbd0c68da	-0.03427968
14	0x3d0b9e92	0.03408677
15	0x3d1869f1	0.03721041
16	0xbd1bcd2c	-0.038037464
17	0xbda6b182	-0.08139326
18	0x3d093109	0.03349403
19	0x3ce98dcd	0.028509999
20	0xbd2f01da	-0.042726375
21	0x3ddbb8fa	0.10728641
22	0xbce45f7d	-0.027877564
23	0x3da0b30f	0.07846653
24	0x3d32d1a9	0.04365698
25	0xbda3607f	-0.079773895
26	0x3d61df17	0.055144396
27	0xbda92028	-0.082580864
28	0xbd1ea89e	-0.038735025
29	0xbccaa923	-0.024738854
30	0xbd5a0977	-0.053231683
31	0x3da8d964	0.08244589
32	0xbc161296	-0.009159705
33	0x3cc005f4	0.023440339
34	0xbd9c7a45	-0.076405086
35	0x3d25d072	0.040481992
36	0xbcb8bee9	-0.02255197
37	0xbd859132	-0.065218344
38	0xbaca7224	-0.0015445394
39	0x3d533a94	0.051569536
40	0x3d8f7410	0.07004559
41	0xbd144d14	-0.03620632
42	0xbd45da6e	-0.048304014
43	0x3ce4194e	0.027844097
44	0x3ceab96b	0.028652867
45	0x3cee331b	0.029077103
46	0x3d852cb5	0.06502668
47	0xbcde4f0d	-0.027137304
48	0x3d817a39	0.0632214
49	0x3d994d19	0.07485408
50	0xbc929043	-0.017891055
51	0x3d8d78e8	0.06907827
52	0x3d6e625e	0.05819928
53	0x3d9e3e60	0.07726741
54	0xbd3b2f82	-0.045699604
55	0xbd5c4295	-0.053774435
56	0xbce15983	-0.027508503
57	0xbc1b142f	-0.009465261
58	0x3d754fef	0.059890684
59	0xbd258785	-0.040412445
60	0x3d024752	0.031806298
61	0xbc7a079c	-0.015260603
62	0x3da597df	0.08085608
63	0x3b64157b	0.0034802842
64	0xbdb0f520	-0.08640504
65	0xbcc1ffa0	-0.023681462
66	0xbd816f56	-0.06320064
67	0x3d72070f	0.059088763
68	0xbd41655a	-0.047215797
69	0x3b27cdd0	0.0025604852
70	0x3c3fe056	0.011711201
71	0xbd29706b	-0.041366976
72	0x3d2806cf	0.04102212
73	0xbdb1deb5	-0.08685056
74	0xbd7b62a6	-0.061373375
75	0xbdb87ada	-0.09007807
76	0xbd266303	-0.04062177
77	0xbd307e7c	-0.043089375
78	0x3b994121	0.0046769534
79	0xbcb2f3aa	-0.021844704
80	0x3d32bcfd	0.043637265
81	0x3de266d0	0.11054766
82	0x3d183eca	0.037169255
83	0xbd0ed0a1	-0.034866933
84	0xbda2325b	-0.07919761
85	0x3d27d39f	0.040973302
86	0xbd726a41	-0.059183363
87	0x3d8ab37f	0.067725174
88	0x3d85b7f9	0.065292306
89	0x3cc000e3	0.023437923
90	0x3d8420f6	0.06451599
91	0x3d8e3e81	0.069455154
92	0x3cc3abf0	0.023885697
93	0xbd916830	-0.0709995
94	0x3db68b5d	0.089133
95	0xbc910680	-0.017703295
96	0xbd5be8d6	-0.053688847
97	0x3db32e6f	0.08749091
98	0x3daac749	0.08338792
99	0x3cec6548	0.028856888
100	0xbb142276	-0.0022603548
101	0xbd935203	-0.07193377
102	0xbc51790a	-0.012785206
103	0x3db9a3c7	0.09064441
104	0x3cd065e2	0.025439207
105	0x3ca861f2	0.020554516
106	0xbcf0c7ab	-0.029392084
107	0xbc936639	-0.01799308
108	0x3d6b6958	0.05747351
109	0xbbd4aa40	-0.006490022
110	0x3d6ac6d0	0.05731851
111	0xbb926801	-0.0044679646
112	0x3cf6330d	0.03005364
113	0x3d30d586	0.04317238
114	0x3c98b9a6	0.018643212
115	0x3d64df45	0.05587699
116	0x3d2a9738	0.04164812
117	0x3db287d8	0.087173164
118	0x3d6d25d3	0.0578974
119	0xbc7b048d	-0.015320909
120	0xbd9041c3	-0.07043793
121	0x3c799cee	0.015235169
122	0xbb8aeef7	-0.0042399126
123	0xbc8e2e22	-0.017355982
124	0xba95186d	-0.0011375077
125	0x3c3bf4bd	0.011471924
126	0x3d5d2451	0.053989712
127	0x3d341da7	0.04397359
128	0xbce75602	-0.028239254
129	0xbd035a6f	-0.032068666
130	0xbc7fee11	-0.015620724
131	0xbd02b093	-0.031906676
132	0x3da8351c	0.08213255
133	0x3d4b5822	0.049644597
134	0x3db144e4	0.08655718
135	0x3c05e968	0.008173324
136	0x3cce2e14	0.025168456
137	0x3cfa158f	0.030527858
138	0xbdc78199	-0.09741516
139	0x3c537744	0.012906853
140	0xbbcf65ad	-0.0063292594
141	0xbd4e4d47	-0.050366666
142	0xbd79f16c	-0.061021253
143	0x3d924272	0.0714158
144	0x3d891730	0.06693876
145	0x3d081545	0.03322341
146	0x3db55f1a	0.0885603
147	0xbcd5b5aa	-0.0260876
148	0xbc953e25	-0.01821811
149	0x3ca92af4	0.020650364
150	0xbcb112ed	-0.02161547
151	0xbcd103c7	-0.025514496
152	0xbd9588b7	-0.07301467
153	0x3cd44a0f	0.02591422
154	0xbd5038a0	-0.05083525
155	0x3b8fbc16	0.0043864353
156	0x3db85893	0.09001269
157	0xbcb96593	-0.022631442
158	0xbd086f70	-0.0333094
159	0x3d5c811c	0.053834066
160	0xbd19c1de	-0.0375384
161	0xbb4e23b4	-0.0031454386
162	0x3db6fbc2	0.08934738
163	0xbd0782f8	-0.033083886
164	0xbd885921	-0.06657625
165	0xbd6b084d	-0.057380963
166	0xbca90761	-0.020633401
167	0xbd6ccd70	-0.057813108
168	0xbd2d8320	-0.04236138
169	0x3cdeea55	0.027211348
170	0x3be54571	0.0069968035
171	0xbcd3cbbb	-0.025853982
172	0xbd7e1ad1	-0.062037293
173	0xbca540e9	-0.020172553
174	0xbd24dfa1	-0.04025233
175	0xbcfe7b02	-0.031064514
176	0xbdaf83f0	-0.08570087
177	0x3c52110f	0.01282145
178	0xbd9993ba	-0.0749888
179	0xbda789a9	-0.081805535
180	0xbd8839ce	-0.0665165
181	0x3d234c5c	0.039867744
182	0xbd346d65	-0.04404964
183	0xbd0a22af	-0.033724483
184	0x3d835a63	0.06413724
185	0x3d4ef47b	0.050526123
186	0x3d373bf3	0.044734906
187	0xbdba65e0	-0.09101462
188	0xbd75a50b	-0.05997185
189	0xbcd63a40	-0.026150823
190	0x3d861918	0.06547755
191	0x3c757e98	0.014983796
192	0xbd80791e	-0.06273101
193	0xbc521f3b	-0.012824829
194	0xbd98f7ed	-0.07469163
195	0xbcb2b3fc	-0.021814339
196	0xbcf4c800	-0.029880524
197	0x3d943294	0.072362095
198	0x3d0198d3	0.031639885
199	0xbcabc1a8	-0.020966366
200	0x3bde8f46	0.006791982
201	0xbd039be1	-0.03213108
202	0x3d19cbe0	0.037547946
203	0x3d1bbb40	0.038020372
204	0x3cf658cc	0.030071639
205	0xbcd884d7	-0.02643053
206	0x3da18202	0.07886125
207	0xbc47d504	-0.012196783
208	0xbd0a5e3c	-0.033781275
209	0x3d37a9fc	0.044839844
210	0x3d917f86	0.07104401
211	0x3da8953e	0.08231591
212	0x3c8dac15	0.01729397
213	0xbd124eaa	-0.03571955
214	0x3d4dccce	0.050244145
215	0x3dab6e7f	0.08370685
216	0xbdbbc9f4	-0.09169379
217	0xbbf91575	-0.007601435
218	0xbd841a50	-0.06450331
219	0x3cb4dcca	0.022077937
220	0x3d16df21	0.036833886
221	0xbd0f6707	-0.035010364
222	0x3b128852	0.0022359085
223	0x3d1cf4bd	0.038319338
224	0xbc22098f	-0.009889974
225	0xbdaf6015	-0.08563248
226	0x3d98c233	0.074589156
227	0xbd1470f8	-0.036240548
228	0xbc9d2bcc	-0.019185923
229	0x3c64da00	0.013967991
230	0xbb53e45c	-0.0032332158
231	0xbdc19258	-0.09451741
232	0x3d07dfa4	0.033172265
233	0xbd321746	-0.043479227
234	0xbd2e3511	-0.042531077
235	0x3c8ad13b	0.016945472
236	0xbd61b453	-0.05510361
237	0xbd0f650b	-0.03500847
238	0xbcd1e588	-0.025622144
239	0xbd1e9aec	-0.038721964
240	0xbd2e4092	-0.042542048
241	0xbcf1d50d	-0.029520536
242	0x3c7e535c	0.015522804
243	0xbd8c85e9	-0.06861479
244	0xbd3c1934	-0.045922473
245	0x3ba98ebe	0.005174487
246	0x3c7344b2	0.014847921
247	0x3d2687fb	0.040657025
248	0xbd8ca83f	-0.06868028
249	0x3c880ad8	0.016606733
250	0x3d662cb7	0.056194987
251	0x3d29b1b9	0.041429255
252	0xbdb833fb	-0.089942895
253	0xbd0cf4aa	-0.034413017
254	0xbd97006c	-0.07373127
255	0xbd888b96	-0.06667249

_network.3.bias f4 [128]
0	0xbbb6a34e	-0.0055736667
1	0xbd6cafbc	-0.05778478
2	0xbd3aaaaf	-0.045572933
3	0x3d503975	0.050836045
4	0xbd5dc818	-0.054145902
5	0xbd3203c7	-0.043460634
6	0x3d38cfa8	0.04511991
7	0xbd37aebd	-0.044844378
8	0xbd8c1317	-0.068395786
9	0x3ca0c5c9	0.019625561
10	0x3d1c0d15	0.038098413
11	0xbda3ee4a	-0.080044344
12	0x3c39ebd1	0.011347727
13	0xbd8b6f94	-0.06808391
14	0x3d18eacb	0.03733329
15	0x3d45c552	0.048283882
16	0x3cf43702	0.029811386
17	0x3db0c994	0.08632198
18	0xbc8c86d5	-0.017154137
19	0xbd0fce15	-0.035108645
20	0x3cc2e1b0	0.023789257
21	0x3cd8d945	0.02647079
22	0xbd21acc1	-0.03947139
23	0xbd6e46f7	-0.058173146
24	0xbcdc7a88	-0.026913896
25	0x3d1661e9	0.03671447
26	0x3d19043e	0.03735756
27	0xbd1fb4ad	-0.038990665
28	0x3d993918	0.07481593
29	0xbd86ae32	-0.06576194
30	0xbc28449b	-0.010270263
31	0x3cafd876	0.021465521
32	0xbd826071	-0.06366051
33	0x3da4da21	0.08049417
34	0xbd323c47	-0.043514516
35	0x3d5656a5	0.052328724
36	0x3b6319c3	0.0034652806
37	0xbd4ba7e1	-0.04972065
38	0x3da929f6	0.082599565
39	0xbc217e84	-0.009856824
40	0x3c80ed9b	0.0157383
41	0x3daa5e32	0.083187476
42	0xbdaac471	-0.083382495
43	0x3d91a7e1	0.071120985
44	0xbd324450	-0.04352218
45	0xbd9314b9	-0.07181687
46	0x3d48578a	0.04891161
47	0xbcdcdafc	-0.026959889
48	0xbd9073e3	-0.07053354
49	0xbd318bf6	-0.043346368
50	0x3d6915f4	0.0569057
51	0x3d1e9d27	0.03872409
52	0xbb8ef6f8	-0.004362937
53	0x3d3a25c4	0.045446172
54	0x3c8fb544	0.017542489
55	0xbd878523	-0.06617191
56	0x3c8b5833	0.01700983
57	0x3d80edb3	0.062953375
58	0xbc051dd7	-0.00812479
59	0xbc253e62	-0.010085674
60	0x3db1b1aa	0.08676465
61	0xbcd001c8	-0.025391474
62	0x3da8b216	0.08237092
63	0x3d9e838f	0.077399366
64	0x3d91e2a1	0.07123304
65	0x3cc07806	0.023494732
66	0x3cc6acc7	0.024252309
67	0x3cba53f6	0.022745114
68	0xbda62375	-0.08112232
69	0xbd0f6ef1	-0.03501791
70	0xbd4b132b	-0.049578827
71	0xbc54d30d	-0.012989772
72	0xbd355168	-0.04426709
73	0xbce8a9f7	-0.028401358
74	0xbd7654ae	-0.06013935
75	0xbd83c3d3	-0.06433835
76	0x3ce99f1c	0.028518252
77	0x3db08e37	0.08620875
78	0xbd12b2dd	-0.03581511
79	0xbd6eea7d	-0.058329094
80	0xbcf41319	-0.029794263
81	0xbd09004b	-0.033447545
82	0xbdb03270	-0.0860337
83	0x3d9f2a5d	0.07771752
84	0x3d75d6b4	0.06001921
85	0x3d8637a5	0.06553582
86	0xbd3b4b46	-0.045726083
87	0xbd6f1843	-0.058372747
88	0x3dad8477	0.08472531
89	0xbd5b1e34	-0.0534956
90	0xbd980ce6	-0.07424335
91	0xbd96956d	-0.073527195
92	0x3cdaebb5	0.026723722
93	0xbc40cd68	-0.011767723
94	0xbd5cdb29	-0.053919945
95	0x3d9a2b09	0.075277396
96	0xbd483786	-0.048881076
97	0x3bbcb956	0.0057593985
98	0x3d34d03a	0.044143893
99	0x3d2d723e	0.042345278
100	0x3d97764e	0.07395612
101	0xbc3357c2	-0.010946216
102	0x3d3a7a20	0.045526624
103	0xbbe619cf	-0.0070221196
104	0x3c403267	0.011730767
105	0xbd5442c0	-0.05182147
106	0x3d5f92df	0.054583427
107	0x3ca5374d	0.020167971
108	0x3c908f9d	0.017646605
109	0xbbdf66ef	-0.0068176906
110	0x3d1280e4	0.03576745
111	0xbdaeacd6	-0.085290596
112	0x3d93de94	0.07220188
113	0x3d8de7f7	0.069290094
114	0x3d417867	0.047233965
115	0xbb5a54e0	-0.003331475
116	0xbda8eff1	-0.0824889
117	0xbcc3e558	-0.02391307
118	0xbd9150a3	-0.07095458
119	0xbd2d4a4a	-0.042307176
120	0x3d8e4c0b	0.06948098
121	0xbc26cd8e	-0.010180844
122	0x3db439b4	0.088000685
123	0xbd367459	-0.04454455
124	0xbd28d2a4	-0.041216508
125	0xbd910a21	-0.0708201
126	0x3d09fb80	0.033687115
127	0x3d05d471	0.032673303

_network.4.weight f4 [128]
0	0x3f82140b	1.0162367
1	0x3f803a4a	1.0017788
2	0x3f7e34da	0.99299395
3	0x3f7f11e2	0.9963666
4	0x3f802ec7	1.0014275
5	0x3f80e020	1.0068398
6	0x3f7f8c9a	0.99823916
7	0x3f7e2882	0.9928056
8	0x3f7d21ef	0.98879904
9	0x3f807a13	1.0037254
10	0x3f7ecda8	0.99532557
11	0x3f7f5841	0.9974404
12	0x3f7c2d4e	0.9850663
13	0x3f7f9883	0.9984209
14	0x3f80efb3	1.007315
15	0x3f7a1d10	0.97700596
16	0x3f7ea3a4	0.99468446
17	0x3f7e61b6	0.99367845
18	0x3f7c7a27	0.9862389
19	0x3f7bb501	0.98323065
20	0x3f82878c	1.0197616
21	0x3f8119f7	1.0086049
22	0x3f810f67	1.0082825
23	0x3f7f4016	0.9970716
24	0x3f7f821c	0.99807906
25	0x3f7f90c2	0.9983026
26	0x3f812eba	1.0092385
27	0x3f8097d0	1.004633
28	0x3f807b49	1.0037624
29	0x3f807043	1.003426
30	0x3f830ee2	1.0238917
31	0x3f7f67ea	0.99767935
32	0x3f7c5f39	0.985828
33	0x3f7c8667	0.9864258
34	0x3f7e3651	0.9930163
35	0x3f7ec0ac	0.99512744
36	0x3f802ebf	1.0014266
37	0x3f802477	1.0011128
38	0x3f814d8c	1.010179
39	0x3f8000d1	1.0000249
40	0x3f809aff	1.0047301
41	0x3f816d76	1.011153
42	0x3f80fc14	1.0076928
43	0x3f7e78c6	0.99403036
44	0x3f7ecd18	0.995317
45	0x3f7d9ea6	0.99070203
46	0x3f808f21	1.004368
47	0x3f7d4995	0.989404
48	0x3f803935	1.0017458
49	0x3f7c7334	0.98613286
50	0x3f7e5841	0.99353415
51	0x3f7cefe9	0.98803574
52	0x3f803724	1.0016828
53	0x3f7e13a7	0.9924874
54	0x3f7b768e	0.98227775
55	0x3f7e9083	0.9943926
56	0x3f7f9e95	0.9985135
57	0x3f7fe4ce	0.99958503
58	0x3f7fecaa	0.99970496
59	0x3f7d4602	0.9893495
60	0x3f7f65f4	0.99764943
61	0x3f8087cb	1.0041441
62	0x3f7edf42	0.99559414
63	0x3f837d04	1.0272527
64	0x3f7d07da	0.98840106
65	0x3f810b77	1.0081624
66	0x3f7b0f47	0.98070186
67	0x3f7e1187	0.99245495
68	0x3f8204bc	1.0157695
69	0x3f7dda5c	0.99161315
70	0x3f804e4e	1.0023897
71	0x3f7dcc7c	0.99140143
72	0x3f803881	1.0017244
73	0x3f7ca71a	0.98692477
74	0x3f81a79e	1.0129278
75	0x3f81e22a	1.0147145
76	0x3f815452	1.0103858
77	0x3f8053af	1.0025538
78	0x3f7cc9a9	0.9874521
79	0x3f80a424	1.0050092
80	0x3f7fc13a	0.99904215
81	0x3f81b66a	1.0133793
82	0x3f80a243	1.0049518
83	0x3f7d677f	0.9898605
84	0x3f80f4b6	1.007468
85	0x3f80b37e	1.0054777
86	0x3f81c195	1.0137202
87	0x3f813b9d	1.0096318
88	0x3f7fd9af	0.99941534
89	0x3f805ac1	1.0027696
90	0x3f7eff56	0.9960836
91	0x3f80e0f5	1.0068651
92	0x3f8019bc	1.0007854
93	0x3f7d7026	0.9899925
94	0x3f812ce4	1.0091825
95	0x3f7fbe4f	0.9989976
96	0x3f7f832a	0.99809515
97	0x3f80aaa3	1.0052074
98	0x3f7f1fc1	0.9965783
99	0x3f7ff3ea	0.9998156
100	0x3f7d0fa6	0.98852
101	0x3f8055c9	1.002618
102	0x3f7eaa70	0.99478817
103	0x3f7f7b3f	0.99797434
104	0x3f7f452e	0.99714935
105	0x3f7fc29e	0.9990634
106	0x3f7cf8ed	0.9881733
107	0x3f81d9b1	1.0144559
108	0x3f7f7963	0.99794596
109	0x3f7f1af5	0.9965051
110	0x3f832ae2	1.0247462
111	0x3f7f4ef5	0.99729854
112	0x3f7fc53e	0.9991034
113	0x3f82313e	1.0171278
114	0x3f7dabbf	0.9909019
115	0x3f7ef9b4	0.99599767
116	0x3f8082fb	1.0039972
117	0x3f80883d	1.0041577
118	0x3f7dcc79	0.99140126
119	0x3f7f7e40	0.9980202
120	0x3f7e531e	0.99345577
121	0x3f80560b	1.0026258
122	0x3f7e0461	0.9922543
123	0x3f7fb9be	0.99892795
124	0x3f7d71ae	0.99001586
125	0x3f7e146c	0.9924991
126	0x3f7f52ef	0.9973592
127	0x3f821771	1.0163404

_network.4.bias f4 [128]
0	0xbcc4cd08	-0.024023548
1	0x3b382859	0.002810022
2	0x3b8cf5ab	0.004301747
3	0xbcd707c1	-0.026248815
4	0xbac4e4a0	-0.0015021749
5	0xbc85bda0	-0.016325772
6	0x3c55ce03	0.013049605
7	0xbc00eefd	-0.007869479
8	0xbc03e785	-0.008050804
9	0xbb718633	-0.003685367
10	0x3bfec61e	0.0077750823
11	0xbc413ddc	-0.011794534
12	0xbca6a81e	-0.020343836
13	0xbcc28ca9	-0.023748713
14	0x3b99fd5c	0.0046993922
15	0xbcaeb329	-0.021325665
16	0xbb825eca	-0.003978585
17	0xbc3694dc	-0.011143889
18	0xbba20874	-0.0049448553
19	0xbbd85e74	-0.0066030566
20	0x3cd569d8	0.026051447
21	0x3c5e0a02	0.013552191
22	0x3c08a3d3	0.00833984
23	0x3c5b6e74	0.013393033
24	0xba72e479	-0.00092656125
25	0x3c09d6fc	0.008413073
26	0x3c14d0c1	0.009082974
27	0x3bd6b252	0.006552019
28	0x3c2b544f	0.010457112
29	0x3b9c2bc2	0.0047659585
30	0xbcf306ea	-0.029666383
31	0xbbb389a0	-0.0054790527
32	0xbbe1e22f	-0.0068934183
33	0x3c8dd12f	0.01731166
34	0x3a848e05	0.0010113126
35	0x3bf29ca2	0.007403926
36	0x3ba66d6f	0.0050789635
37	0xbc829822	-0.015941683
38	0x3be44a33	0.006966853
39	0xba3669d2	-0.00069585175
40	0xbbc4c7ed	-0.0060052783
41	0x3c16d66f	0.009206398
42	0x3c5cbbb4	0.013472486
43	0x3bce2ba9	0.006291826
44	0xbbb29507	-0.0054498944
45	0xbbdaaf93	-0.006673762
46	0xbd445683	-0.047934067
47	0xbc79f947	-0.015257186
48	0x3a820d0b	0.00099221
49	0xbc12570e	-0.008931888
50	0xbc8808a0	-0.016605675
51	0x3a4e1ce9	0.00078625843
52	0x3c640ec5	0.013919537
53	0x3b937b07	0.00450075
54	0xbb57dc12	-0.0032937569
55	0xbc93b63f	-0.018031238
56	0x3c4a3deb	0.012343864
57	0x3a8af525	0.0010601623
58	0xbbecdae5	-0.0072282427
59	0xbc548d51	-0.012973146
60	0x3b7fff4d	0.0039062083
61	0xbd25cb39	-0.04047701
62	0xba64b783	-0.0008724855
63	0xbd083fbb	-0.033263903
64	0xbc24bd39	-0.01005488
65	0xbcf3e383	-0.029771572
66	0xbb82d507	-0.00399268
67	0x3cd01222	0.025399271
68	0xbd68c777	-0.05683085
69	0xbafb9010	-0.0019192714
70	0x3c93db39	0.01804887
71	0x3ce83fff	0.028350828
72	0x3c7b3ff4	0.015335072
73	0xbbf6d3e8	-0.0075325854
74	0x3c4585d7	0.012055836
75	0x3bbc7f9d	0.0057525174
76	0x3ceaa14b	0.028641364
77	0xbb809e72	-0.003925138
78	0xbc41d4f3	-0.011830556
79	0x3ca5fe90	0.020262986
80	0x3a2db6ff	0.0006626695
81	0x3b057014	0.0020360993
82	0x3bd38647	0.006455216
83	0x3c2a7f08	0.010406263
84	0xbd17508d	-0.036942054
85	0x3b569202	0.0032740836
86	0x3cbd5969	0.023113923
87	0x3c952f12	0.018210921
88	0x3c0fd6ea	0.008779267
89	0x3c146d87	0.0090593165
90	0x3bcb94f9	0.0062128273
91	0x3c1f43aa	0.009720722
92	0x3c29b5c2	0.010358276
93	0xbb8c3c20	-0.0042796284
94	0x3c477286	0.012173301
95	0x3b3135da	0.0027040155
96	0xbcfd4253	-0.030915415
97	0x3d15daa1	0.036585454
98	0xbab52726	-0.0013820871
99	0x3bd09a11	0.0063660224
100	0xbb3b7267	-0.0028602125
101	0x3c574e7e	0.013141273
102	0xbbc4fd04	-0.006011607
103	0x3c65395c	0.013990726
104	0xbc188106	-0.009308105
105	0xbc3821b5	-0.011238505
106	0xbb8031b7	-0.0039121765
107	0x3c46f1d2	0.012142615
108	0xbc3aa484	-0.011391763
109	0xbca2fea1	-0.019896807
110	0xbd88f147	-0.06686645
111	0xbc695b10	-0.014242902
112	0xbc55c3cd	-0.013047171
113	0xbd273a74	-0.04082723
114	0xb9439783	-0.00018653092
115	0xbc3700a9	-0.011169591
116	0x3bca04d0	0.0061651245
117	0x3b8b669a	0.0042541744
118	0xbcb3482b	-0.021884998
119	0x3a765e0d	0.000939817
120	0xba4fc660	-0.00079259835
121	0x3c370947	0.0111716455
122	0xbb84c281	-0.004051507
123	0xbcbdc9bd	-0.023167485
124	0xbcd87121	-0.026421132
125	0xbaec2561	-0.0018016511
126	0x3c14d724	0.009084497
127	0xbd1dc11f	-0.038514253

_network.4.running_mean f4 [128]
0	0x3e8d1ee6	0.27562636
1	0xbee562a8	-0.4480183
2	0xbd70d58e	-0.05879741
3	0x3f1ab913	0.6043865
4	0xbd4ddc00	-0.050258636
5	0x3e3ade13	0.18248777
6	0xbd4b5764	-0.04964389
7	0x3e400fd0	0.18756032
8	0x3d62b8f4	0.055352166
9	0xbec36406	-0.3816225
10	0x3f0b3a55	0.5438588
11	0xbf30b973	-0.69032973
12	0xbefb2dae	-0.49058288
13	0x3ed0c191	0.4077268
14	0xbd49f5ea	-0.049306788
15	0x3ec7c770	0.39019346
16	0x3e241241	0.16022588
17	0x3dd90bb4	0.10597935
18	0xbdcb0181	-0.09912396
19	0xbe15063c	-0.1455316
20	0xbe52b0d9	-0.20575275
21	0xbeb66228	-0.35621762
22	0xbe14c9ff	-0.1453018
23	0xbcccd588	-0.025004163
24	0xbd55b5a2	-0.05217517
25	0x3ed92c2a	0.42416507
26	0xbc5b258e	-0.013375653
27	0x3e3cbb5a	0.18430844
28	0xbf32ac8c	-0.69794536
29	0xbea2e5e2	-0.31816012
30	0x3f24bd20	0.6435108
31	0x3da1373a	0.07871862
32	0xbe7f5a0f	-0.24936698
33	0x3ede8273	0.434589
34	0x3e280864	0.16409451
35	0xbd899dae	-0.06719528
36	0xbdf8e276	-0.12152569
37	0x3f10991a	0.56483614
38	0x3e75b805	0.23995979
39	0x3d6b9ab5	0.057520587
40	0xbe8236ea	-0.2543252
41	0xbed660fd	-0.4187087
42	0xbed3ce89	-0.4136851
43	0xbe4adec6	-0.19811544
44	0x3ead8e18	0.3389747
45	0x3d71829a	0.058962442
46	0x3f381624	0.71908784
47	0xbe02a075	-0.12756522
48	0xbd9e0bc8	-0.07717091
49	0xbe3a1551	-0.18172194
50	0x3e6bf9a4	0.23044449
51	0xbe3d17d4	-0.18466121
52	0x3e678d5d	0.2261252
53	0xbeee04c2	-0.46488005
54	0xbf1213cb	-0.5706145
55	0xbd858619	-0.06519718
56	0xbeb542fc	-0.35402668
57	0xbcaa6894	-0.02080182
58	0x3eb127fb	0.34600815
59	0x3eb9707a	0.36218625
60	0xbe16e517	-0.14735828
61	0x3e9b8812	0.3037725
62	0xbc6da3aa	-0.014504353
63	0x3e6c4fdf	0.23077343
64	0x3ec4f258	0.38466144
65	0x3efbdba3	0.49191007
66	0x3dbf18a7	0.09330874
67	0xbf06ef08	-0.5270848
68	0x3f048cea	0.5177752
69	0xbe2910e9	-0.16510357
70	0xbd9459a9	-0.07243664
71	0xbea049c3	-0.31306276
72	0xbed484dc	-0.41507614
73	0xbe6eed2b	-0.2333266
74	0xbec6ba4b	-0.38814005
75	0xbf0eb0ab	-0.55738324
76	0xbe1a1562	-0.1504722
77	0xbdf68196	-0.12036435
78	0xbea53272	-0.3226505
79	0x3daac905	0.08339123
80	0x3cc6b189	0.024254577
81	0xbea04f8f	-0.31310698
82	0xbeddc91d	-0.433175
83	0x3ad19672	0.0015990271
84	0x3f24c6c7	0.6436581
85	0xbaed2892	-0.0018093756
86	0xbe5c263c	-0.2149896
87	0xbea05416	-0.31314152
88	0x3c488542	0.012238802
89	0xbed22d12	-0.4105001
90	0xbe2f59d2	-0.17124107
91	0xbe254bb1	-0.16142155
92	0xbbdc0ca5	-0.0067153745
93	0xbc4ec00c	-0.01261903
94	0xbec50728	-0.38482022
95	0x3e1f1112	0.15533856
96	0x3ddcc532	0.107797995
97	0xbeaecaf0	-0.34139204
98	0xbddd37b8	-0.10801643
99	0xbe454767	-0.19265519
100	0xbf05b968	-0.5223603
101	0x3ddfb1a1	0.10922552
102	0x3e581556	0.21101889
103	0x3e32c5af	0.17458223
104	0x3dd44e3e	0.10366486
105	0x3e33a1a9	0.17542137
106	0x3e834fd0	0.2564683
107	0xbf2dda1a	-0.6791092
108	0xbe2e532d	-0.17023917
109	0xbe889a5d	-0.2668027
110	0x3f06483c	0.5245397
111	0x3c0f0f08	0.008731611
112	0xbe7f81d1	-0.24951865
113	0x3f32c461	0.698309
114	0xbee589be	-0.4483165
115	0x3ef71584	0.48258603
116	0xbeeec775	-0.4663655
117	0xbe949b19	-0.2902458
118	0x3eb368e2	0.35040957
119	0x3e655387	0.22395144
120	0x3da63819	0.081161685
121	0x3d0f82bd	0.03503679
122	0x3dde4814	0.108535916
123	0xbdef8aa8	-0.116963685
124	0xbe34fafc	-0.17673868
125	0x3dfc4cfd	0.12319372
126	0xbe6a4749	-0.22878756
127	0x3f40875f	0.7520656

_network.4.running_var f4 [128]
0	0x3e10891e	0.14114806
1	0x3e1dcb64	0.15409619
2	0x3e2ddc5b	0.1697859
3	0x3dea2105	0.11432079
4	0x3db363ff	0.08759307
5	0x3de3334a	0.11093767
6	0x3d594a20	0.053049207
7	0x3e8e34d1	0.2777467
8	0x3df7daa3	0.121022485
9	0x3d83e565	0.06440238
10	0x3e30f921	0.17282535
11	0x3e7731a8	0.24140036
12	0x3eca0686	0.39458102
13	0x3e70a806	0.23501596
14	0x3e90d2ae	0.28285736
15	0x3e6be818	0.23037755
16	0x3d815929	0.06315834
17	0x3dcd1cd6	0.10015266
18	0x3ededee2	0.4352942
19	0x3e0018e0	0.12509489
20	0x3dd40cd4	0.10354009
21	0x3e14ec45	0.14543255
22	0x3d62c61f	0.055364724
23	0x3d9ffb84	0.07811645
24	0x3dca0707	0.098646216
25	0x3e0bb31e	0.13642547
26	0x3e01c4d6	0.12672743
27	0x3e4a2ca3	0.1974359
28	0x3dce349e	0.1006863
29	0x3e1a31d8	0.15058076
30	0x3e91b7f0	0.28460646
31	0x3d641009	0.055679355
32	0x3e6c2c50	0.23063779
33	0x3e2e220f	0.1700518
34	0x3e23f51d	0.16011472
35	0x3e98a4d1	0.29813245
36	0x3e31dd7f	0.1736965
37	0x3e11a47f	0.14222907
38	0x3e17f253	0.14838533
39	0x3ea04cdc	0.3130864
40	0x3edeb365	0.43496242
41	0x3db7ca07	0.089740805
42	0x3ddd08a2	0.10792662
43	0x3eaafb66	0.33394927
44	0x3e277a65	0.16355284
45	0x3da9d583	0.08292677
46	0x3dd3575e	0.10319398
47	0x3da29dbc	0.07940242
48	0x3e35eded	0.17766543
49	0x3e50e018	0.20397985
50	0x3d996e42	0.07491733
51	0x3e4595a3	0.19295363
52	0x3eba2352	0.36355072
53	0x3f0620db	0.52393883
54	0x3ef74f76	0.4830281
55	0x3e0f5e1b	0.14000742
56	0x3ed817b3	0.4220558
57	0x3e7a5395	0.24445947
58	0x3e013c74	0.12620717
59	0x3e9e7e30	0.30955648
60	0x3ec17c3a	0.3779009
61	0x3dce0833	0.100601576
62	0x3e1923d9	0.14955081
63	0x3e0cd7b5	0.1375416
64	0x3e01e786	0.12685975
65	0x3e799022	0.24371389
66	0x3ded426d	0.11584935
67	0x3e8ce251	0.27516416
68	0x3e0d52c3	0.13801102
69	0x3e6f6df8	0.23381793
70	0x3e38435a	0.17994443
71	0x3e1af2c0	0.15131664
72	0x3eaf0640	0.34184456
73	0x3e3e2961	0.18570472
74	0x3dfcc893	0.12342944
75	0x3d959aa9	0.0730489
76	0x3d2c27f2	0.042030282
77	0x3e4ff12f	0.20306848
78	0x3e7824d2	0.24232796
79	0x3dce218c	0.10064992
80	0x3e1f9bc4	0.15586764
81	0x3e024fe8	0.12725794
82	0x3eb8a818	0.36065745
83	0x3de8fe73	0.11376657
84	0x3ecbe55c	0.39823425
85	0x3e976483	0.29568872
86	0x3deea631	0.11652792
87	0x3ded4760	0.11585879
88	0x3e151bbf	0.14561366
89	0x3dc3b58e	0.09556113
90	0x3e07f7b3	0.13278084
91	0x3e056256	0.13025793
92	0x3e39aaaa	0.1813151
93	0x3e0477c1	0.12936307
94	0x3da79b93	0.0818397
95	0x3de753bc	0.11295268
96	0x3de6392d	0.11241374
97	0x3da8f31e	0.08249496
98	0x3e4d11c2	0.20026305
99	0x3e80f60d	0.25187722
100	0x3ea84b62	0.32870013
101	0x3db416f4	0.087934405
102	0x3e7d9697	0.24764477
103	0x3d8029ea	0.062579945
104	0x3e53ad9c	0.20671695
105	0x3e383a8d	0.17991085
106	0x3dbdc3a2	0.092658296
107	0x3e3b760a	0.18306747
108	0x3e3e1829	0.18563904
109	0x3e29e5b8	0.16591537
110	0x3e0cc9a4	0.13748795
111	0x3dc8f12b	0.09811624
112	0x3e068079	0.13134946
113	0x3ea557b4	0.32293475
114	0x3dfbe014	0.12298599
115	0x3e4ddc2a	0.20103517
116	0x3e26a428	0.16273558
117	0x3e47f3cb	0.19526593
118	0x3e83905c	0.25696075
119	0x3e2e4235	0.17017443
120	0x3e0b1b8e	0.1358473
121	0x3d5e3f09	0.054259334
122	0x3d8f3291	0.06992067
123	0x3e9f555f	0.3111982
124	0x3d843e96	0.0645725
125	0x3db97c6d	0.090569355
126	0x3d9eb216	0.07748811
127	0x3ec0bd63	0.3764449
