transformers/results/pimentel_mlp/pimentel_mlp/configs/hyperopt/trial_14/pimentel_mlp_model_20251209_021249.pt (torch, 9691 bytes, 7 tensors)

_network.0.weight f4 [128, 5]
000000 b3 48 03 3f ff 71 c4 3e 3c f3 38 bd 9a ba bd 3e
       0.51282805 0.38368222 -0.04515384 0.37056428
000010 a8 c4 63 bd 0f 7b 20 3d c0 9c 7a be 34 e3 66 3e
       -0.055607468 0.039179858 -0.24473858 0.22547609
000020 6e 3d db 3e ba 46 af be fc 87 c8 3e 9e 48 5b 3d
       0.42820305 -0.34233648 0.39166248 0.05353605
000030 ae 6f b5 3e 4b 6f 8d 3d 97 14 36 3e 57 d0 e2 3c
       0.35436767 0.06905993 0.17781292 0.027687235
000040 7c 2c a5 3e a3 9c 46 3d 86 23 61 be d0 8a 25 3e
       0.322605 0.048489224 -0.21986207 0.16166234
000050 62 68 6e be 09 18 82 bd fe eb 41 be 14 cd a1 3e
       -0.23282006 -0.063522406 -0.1893768 0.31601775
000060 33 c1 9b be eb 48 cf be 3f d7 23 3c a9 33 17 be
       -0.30420837 -0.4048532 0.010000049 -0.147658
000070 2b 04 da 3c ff 43 b9 be f6 38 b4 3e 88 5d c1 be
       0.026613316 -0.3618469 0.35199708 -0.3776667
000080 8a 99 b3 3e c9 40 f5 3d ee 62 28 be ca 57 e9 3d
       0.35078079 0.119752474 -0.16443989 0.113936976
000090 b9 7e 08 3e 1c 83 bd 3e ef b4 4e 3c 33 0f 1a be
       0.13329591 0.3701409 0.01261638 -0.1504486
0000a0 bf 17 73 3e 94 64 a4 bd 49 9f 3b 3e e9 0d a4 3e
       0.23739527 -0.08026996 0.18322481 0.32041863
0000b0 e2 c7 a6 3e 3d 72 be be 0f 25 31 3e 05 b9 d3 3b
       0.32574373 -0.37196532 0.17299293 0.006461265
0000c0 f7 96 28 3e 61 71 9b be 77 90 be be 5c 20 bd bd
       0.16463839 -0.3035994 -0.37219593 -0.09234688
0000d0 f7 a5 c5 be cd f5 e0 3e ed 4e 1f 3d c0 8e 8e 3e
       -0.38603184 0.4393753 0.03889363 0.27843285
0000e0 ed ee 49 3e 28 a6 b9 39 92 49 b7 3e e8 a7 63 be
       0.19720049 0.00035409746 0.35798317 -0.2223202
0000f0 8f db 10 be 46 72 9f be 1c 96 83 3d b0 ab 4f be
       -0.14146255 -0.3114187 0.064251155 -0.20280337
000100 79 f2 56 3d 8a 14 0e 3e 98 33 c3 3e 63 c8 6a be
       0.052477334 0.13875023 0.381253 -0.22928004
000110 92 f4 5f be e8 4d a5 be 69 b9 15 3f 45 29 fb 3d
       -0.2187064 -0.32286 0.5848604 0.12263731
000120 58 2a d5 3e 92 70 bc be ec fd db be f0 62 cd be
       0.41633868 -0.36804634 -0.42967165 -0.40114546
000130 d0 86 86 be c4 64 47 3e dd a4 22 3e d9 6e c5 3e
       -0.2627473 0.19472033 0.15883203 0.38561133
000140 af 43 a5 be 41 af 7c be 35 9e 66 3e 1e b1 3d be
       -0.322782 -0.24676229 0.22521289 -0.18524596
000150 ac 2e 9c 3e ce 6e a1 bd d9 f5 79 3e 0a 90 9c be
       0.30504358 -0.078824624 0.2441019 -0.30578643
000160 70 50 5f be a5 98 66 3e 2d ab 34 3c f3 77 9f bd
       -0.21808028 0.22519167 0.01102714 -0.077865504
000170 7e 95 77 3e 0f 05 a0 3e f1 ef b9 be c4 2b 2e be
       0.2417812 0.3125386 -0.36315873 -0.17008883
000180 73 2c d7 3e bd 32 5f be 56 02 77 be 53 4a b5 be
       0.420261 -0.21796699 -0.24121985 -0.35408267
000190 8d fb 4d be 17 9e f9 3d 5c 8d fd 3c be 8d b6 be
       -0.2011549 0.12188356 0.030951194 -0.35655016
0001a0 62 9e e5 39 fb 67 9a be 01 a1 c1 be 05 53 5c be
       0.00043796288 -0.30157456 -0.3781815 -0.21516044
0001b0 00 99 d0 be bc bc 89 be e8 d0 c4 3e 54 aa 8c bd
       -0.4074173 -0.26901805 0.38440633 -0.06868425
0001c0 43 74 09 3e ae 21 c1 be 61 b8 c3 be 12 76 5e be
       0.13423257 -0.37721008 -0.38226607 -0.21724728
0001d0 c9 89 b2 3d c1 ed a7 be ea d8 6c be b2 0a 66 be
       0.08717687 -0.3279858 -0.23129621 -0.22465017
0001e0 b5 2a 54 bd 91 9e 04 be 81 bf 5b bd 19 0a a3 be
       -0.05179854 -0.12951113 -0.05364943 -0.3184364
0001f0 29 fc 98 be d1 1d 45 be 7f 5d 45 be cd 16 96 be
       -0.29879883 -0.19249655 -0.19273947 -0.2931427
000200 d8 df d6 3e da 65 f5 bd cb 6c 95 3e 69 79 1c 3d
       0.41967654 -0.11982317 0.29184565 0.038201723
000210 fa 12 be be 5b 85 ae 3e 6a 7b 6a be a6 6d 34 be
       -0.37123853 0.34086117 -0.22898641 -0.17619953
000220 01 d0 f9 be 75 5d d8 be bc e3 f0 3d 7e bf 85 3b
       -0.48791507 -0.42258802 0.11762187 0.0040816655
000230 16 92 a7 3e 71 75 8d be 2e 10 b3 3e b1 5a a3 be
       0.32728642 -0.27628663 0.34973282 -0.3190513
000240 29 b6 85 bc 49 23 fa 3d 07 ea 5d 3e e2 5e b9 3e
       -0.016322212 0.12213761 0.21671306 0.36205202
000250 a8 cc dd 3e 08 f0 b2 be 3a 48 95 3e 35 0a 9e be
       0.43320203 -0.34948754 0.29156667 -0.30867162
000260 fe 1b d5 bd 54 4f 9c be 39 5b c2 3e 50 89 9e be
       -0.1040573 -0.30529273 0.37960222 -0.30964136
000270 24 72 76 3e 01 2c e7 3d 66 ab 1d 3e a9 bd 87 be
       0.24066979 0.1128769 0.15397415 -0.26511887
000280 a9 06 e7 3e 20 41 50 3d e2 32 54 3d 97 a1 bf be
       0.4512227 0.050843358 0.051806338 -0.3742797
000290 ec cc 5d 3e f5 32 3f be 08 8a 3f be d0 04 ba 3e
       0.21660203 -0.18671782 -0.18704998 0.36331797
0002a0 82 d6 9e 3d 19 ef 8c be de c4 78 be 02 ee 12 bd
       0.07755758 -0.27526167 -0.24293849 -0.035871513
0002b0 b3 ba 8d 3e e3 3a c3 bd 60 23 63 be db 97 6c be
       0.27681503 -0.09532716 -0.22181463 -0.23104803
0002c0 fe 40 98 be d4 24 2a 3d 94 e8 57 3e 97 10 0d bf
       -0.29737085 0.04153903 0.21084815 -0.5510344
0002d0 a7 da b4 bb a0 ae 89 3e d9 cc b4 3d df 29 19 be
       -0.0055192295 0.2689104 0.08828134 -0.14957379
0002e0 99 f6 55 3e 76 ae 9b 3e 41 f7 cb 3d e1 75 25 bd
       0.20894851 0.3040654 0.09959269 -0.04039562
0002f0 db 3c ae bd 0c da 48 3e 8f 84 a2 bd 47 2c de bd
       -0.08507701 0.19614428 -0.0793544 -0.10848289
000300 3a 94 93 3e f2 16 d3 3e d8 65 bc bc 08 7b 7d be
       0.28824025 0.41228443 -0.022997782 -0.24753964
000310 29 ef fa bb cd ce 0f bd bf e7 9f 3d 54 e8 85 3d
       -0.0076579046 -0.03510933 0.07807874 0.06538454
000320 b9 2f c1 be 30 1f 4a be 55 bb b9 3e 06 bf 5e 3e
       -0.37731722 -0.1973846 0.36275735 0.21752557
000330 27 ec f0 bc 24 1a a5 be ba 9d 96 be 47 4b 4c be
       -0.029409481 -0.32246506 -0.2941721 -0.19950591
000340 1d ea 18 be 4f df 39 3e a0 a1 b5 3e 40 71 50 3e
       -0.14933057 0.18151592 0.35474873 0.20355701
000350 59 63 cb be 27 f9 75 be e2 c4 07 3c 99 05 f3 3e
       -0.39724234 -0.24020825 0.008286687 0.47465208
000360 98 6b 7d 3c 85 27 c8 bd cd a6 5d 3e 12 c5 c2 bd
       0.015467547 -0.09773163 0.2164566 -0.095102444
000370 28 05 8b be a2 a2 9d 3e 7c 66 60 be cc 3c e9 bd
       -0.2715237 0.3078814 -0.21914095 -0.11388549
000380 43 d0 e6 be c6 66 38 3e 2d 5b 81 3e 13 c2 38 3e
       -0.45080766 0.18007955 0.25264874 0.18042783
000390 57 7c a3 be 25 06 ee be ce e5 b8 be c0 d3 c5 3e
       -0.319308 -0.46489063 -0.36112827 0.38638115
0003a0 8c c4 56 3e ea 28 a3 3e 91 dd 84 3e ab f5 66 3e
       0.20973414 0.31867152 0.25950292 0.22554652
0003b0 44 de ea 3b cf 84 c8 be ca c7 b6 be 9d 5a de be
       0.0071676094 -0.39163825 -0.35699302 -0.43428507
0003c0 12 e4 87 3e ea 76 03 be ea 61 a1 bd 76 5e 9b be
       0.2654119 -0.12838331 -0.07880004 -0.30345505
0003d0 8b 1b c3 bc d4 d2 3d be 20 d6 a2 be 44 4a 11 3e
       -0.023816844 -0.18537456 -0.3180399 0.14188486
0003e0 5b 22 1b be be 65 a2 3e 97 c6 41 be 18 c5 80 be
       -0.15149824 0.31718248 -0.18923412 -0.2515037
0003f0 5a a3 20 be 40 7f 6b be e2 a7 15 be 2b 7c 0c bf
       -0.15687314 -0.22997761 -0.14614823 -0.54876965

_network.0.bias f4 [128]
000000 b2 f9 c1 3d ad 6c d6 be bc b2 c5 3e b7 fb 8f 3e
       0.09471454 -0.41879788 0.38612926 0.2812173
000010 9c eb df be 18 46 59 be 87 51 15 3e 33 a8 bb bd
       -0.43734443 -0.21218145 0.14581881 -0.09162941
000020 3a 6e 42 bd 04 be 4e be 6b 04 b8 3e 42 f9 7f be
       -0.0474684 -0.20189673 0.3594087 -0.24997428
000030 ca b8 bd 3e df ca ef 3c 46 59 b8 3d 2e ce b1 3e
       0.37055045 0.029271541 0.090014026 0.34727615
000040 8b ed 96 bd f8 b6 81 be ad 09 94 bd c3 a3 b9 3e
       -0.073695265 -0.25334907 -0.07228408 0.36257753
000050 0f f9 a7 be 60 11 cd 3d df 53 df be 8b 53 6f 3e
       -0.32807204 0.1001308 -0.43618676 0.23371713
000060 f0 33 2a 3e cf e5 9c 3c 59 b3 43 3e c1 5d dc 3a
       0.16621375 0.01915255 0.19111384 0.0016812609
000070 92 f7 7c 3e cf 62 b5 be d5 31 86 bd f9 d8 49 3e
       0.24703816 -0.35426947 -0.065524735 0.19711675
000080 f3 bb e3 3e e6 34 69 3e e8 1f a9 be 8f fe af 3e
       0.4447933 0.22774085 -0.33032155 0.343739
000090 e6 48 cc bd 7d 0e c3 bd e2 f2 cf be 52 4d 89 bd
       -0.09974842 -0.09524248 -0.40614992 -0.06704201
0000a0 c7 f3 a1 3e 6f 80 80 3d 58 b1 84 be 7f 6e 0c 3e
       0.316313 0.06274497 -0.25916553 0.13714026
0000b0 40 61 12 be 73 05 d1 3e d5 69 c6 be 05 9c 0f be
       -0.1429491 0.4082447 -0.38752618 -0.1402436
0000c0 4c 45 de be 71 65 32 be 76 16 11 3e 34 f0 d9 3e
       -0.43412244 -0.1742151 0.14168724 0.42566073
0000d0 f2 99 98 3d ba 71 df 3e c2 10 b6 3d 91 3f 84 3e
       0.07451238 0.43641454 0.08889915 0.25829747
0000e0 42 7e b7 3e 58 68 bf 3e 35 d9 80 be 97 9e d1 3e
       0.35838515 0.37384295 -0.25165716 0.40941307
0000f0 be cb 8a 3e 2a f2 55 be c9 b0 5a be bd 59 c0 be
       0.27108568 -0.2089316 -0.213565 -0.37568465
000100 0b c2 e4 3d 60 cb b8 be 13 fc 3f 3e 22 d9 11 3e
       0.11169823 -0.36092663 0.18748502 0.14242986
000110 a0 71 c6 be 0c 82 f9 3d e9 88 14 bd c2 a1 50 3e
       -0.38758564 0.121830076 -0.03626338 0.20374206
000120 f8 90 83 3e 8b 1b e1 be 13 77 d2 3e f3 74 c0 3e
       0.2569654 -0.43966326 0.4110647 0.37589225
000130 21 ea 35 3e 19 3d d1 be 6f 90 23 be 95 c5 04 be
       0.17765094 -0.40866926 -0.15973066 -0.12965997
000140 60 ea e8 bd a0 23 81 3e 97 d0 24 3e cd 99 b5 3e
       -0.113728285 0.25222492 0.16095196 0.35468903
000150 cc ff 2a be 31 b1 1a 3e 7b d5 22 3e d9 1a c0 be
       -0.16699141 0.15106656 0.15901749 -0.37520483
000160 47 5c de be e7 73 6d be d5 ee 9c 3e a7 f1 d5 be
       -0.43429777 -0.23188744 0.30650964 -0.4178593
000170 1d b1 c7 be 00 b7 7f 3e 37 03 71 3e db f0 bb 3e
       -0.39002314 0.24972153 0.23536383 0.36707196
000180 55 6c ac be 67 aa a8 be e9 02 62 3e aa 44 c6 3e
       -0.336764 -0.32942507 0.22071423 0.38724262
000190 7e 19 89 3e 86 d4 8f 3d ad 30 17 3e 91 71 d6 3e
       0.26777261 0.070229575 0.14764662 0.4188352
0001a0 b2 27 94 be 95 ee 4f be 76 14 a0 3e ad 9a 9c be
       -0.28936535 -0.20305856 0.3126561 -0.30586758
0001b0 c0 ea 7b be 45 0d a7 3e 18 5e 0f 3e 9c d7 15 3e
       -0.24601269 0.3262731 0.14000738 0.1463303
0001c0 02 a0 42 be c3 e8 ca bb ad 9f d1 3e 26 f5 86 be
       -0.1900635 -0.006192298 0.40942135 -0.26358908
0001d0 3b a8 63 3b 5d 70 58 3e fa 5b 9d be 4d 3e de 3e
       0.0034737724 0.21136613 -0.30734235 0.43406907
0001e0 d2 c1 61 be a9 40 dc bd 4a d6 f7 bd 52 2a 95 be
       -0.22046593 -0.107545204 -0.12101419 -0.2913385
0001f0 f9 f8 df be e7 22 81 3e f5 3d f2 3d 4f f0 d6 be
       -0.4374464 0.2522194 0.118282236 -0.41980216

_network.1.weight f4 [128]
000000 de c9 7b 3f 29 40 7a 3f ff d4 79 3f 46 da 80 3f
       0.983549 0.9775415 0.9759063 1.0066612
000010 21 8a 78 3f 8a 4d 83 3f e3 f5 7a 3f 88 4d 80 3f
       0.9708577 1.0258038 0.98031443 1.0023661
000020 27 10 7d 3f cd 9b 80 3f f3 46 83 3f 7a 5f 7e 3f
       0.9885277 1.0047547 1.0256027 0.99364436
000030 04 5e 80 3f 4f d1 7a 3f 34 a8 78 3f f9 e4 7c 3f
       1.0028691 0.9797563 0.9713166 0.98786885
000040 8d 5f 81 3f 79 ca 7c 3f 5b a6 7a 3f d4 66 80 3f
       1.0107285 0.9874645 0.9791009 1.0031381
000050 84 d5 79 3f 6b 2c 7d 3f b6 ac 7c 3f 69 d7 7e 3f
       0.97591424 0.988959 0.98701036 0.9954744
000060 57 d7 7f 3f 87 f0 78 3f 74 5b 79 3f 13 4c 79 3f
       0.9993796 0.97242016 0.9740517 0.97381705
000070 f4 01 7f 3f ec 7e 81 3f c3 7e 7a 3f 7c 3b 78 3f
       0.99612355 1.0116858 0.97849673 0.96965766
000080 9f 7f 7d 3f b8 b9 7b 3f f5 8e 7d 3f ce f4 81 3f
       0.9902286 0.9833026 0.9904626 1.0152833
000090 5b e6 78 3f 4b ca 7d 3f da e1 7c 3f cc ac 7e 3f
       0.97226495 0.991368 0.9878212 0.9948242
0000a0 75 20 79 3f 38 44 7f 3f 2c ab 7b 3f 83 c3 80 3f
       0.9731515 0.9971347 0.9830806 1.0059665
0000b0 2d 42 78 3f d4 c2 78 3f 18 ae 79 3f fa 3e 7c 3f
       0.96975976 0.97172284 0.9753127 0.98533595
0000c0 90 73 80 3f 83 27 77 3f c5 a4 7d 3f 03 61 7a 3f
       1.0035267 0.96544665 0.99079543 0.9780428
0000d0 be aa 79 3f 8b 6c 79 3f 1f 68 7b 3f f2 52 7f 3f
       0.97526157 0.9743125 0.9820575 0.9973594
0000e0 a7 50 7e 3f d5 5b 7b 3f b7 f4 80 3f d3 55 7b 3f
       0.99341816 0.98187 1.0074681 0.9817783
0000f0 1b 98 7b 3f 2e fe 73 3f 40 78 7c 3f 76 ec 81 3f
       0.9827897 0.9530972 0.98620987 1.0150287
000100 d3 54 7f 3f e7 45 7d 3f 54 28 7c 3f ec d0 73 3f
       0.99738806 0.9893479 0.98499036 0.95240664
000110 de 92 7c 3f ac 68 7d 3f 0e d8 7b 3f d0 08 7a 3f
       0.986616 0.9898784 0.9837655 0.97669697
000120 12 81 7c 3f 0f da 78 3f 89 22 7b 3f 26 4f 7e 3f
       0.98634446 0.9720773 0.9809957 0.9933952
000130 bf e1 7e 3f 69 3b 7d 3f 20 ec 7c 3f 37 02 7c 3f
       0.9956321 0.9891878 0.987978 0.9844088
000140 ca d8 78 3f 19 b5 7c 3f b6 97 7b 3f ae d6 7c 3f
       0.97205794 0.98713833 0.9827837 0.98765075
000150 6b 25 73 3f 6a 1e 83 3f 17 b6 7d 3f 4e dd 88 3f
       0.9497897 1.0243657 0.9910597 1.0692537
000160 a7 0a 79 3f c4 c7 7c 3f 66 8d 7c 3f 0d 1b 7a 3f
       0.9728188 0.9874232 0.98653257 0.97697526
000170 4f 33 86 3f 3a da 7b 3f 16 08 76 3f e3 f0 7b 3f
       1.0484408 0.9837986 0.9610609 0.9841444
000180 94 e7 7c 3f cc 75 78 3f 13 0a 77 3f e0 db 7d 3f
       0.9879086 0.97054744 0.9649975 0.9916363
000190 de ce 81 3f 36 d4 76 3f fe 44 80 3f 1d 58 75 3f
       1.0141256 0.9641756 1.0021055 0.95837575
0001a0 d4 86 7b 3f d9 1b 79 3f b1 5d 7c 3f 4d ec 7b 3f
       0.98252606 0.9730812 0.9858046 0.9840744
0001b0 3a 68 78 3f b3 8a 7c 3f ec 41 7c 3f dc 2f 84 3f
       0.9703404 0.9864914 0.9853809 1.0327106
0001c0 74 46 80 3f e2 6a 7e 3f 9c 22 7e 3f fb b1 7e 3f
       1.00215 0.9938184 0.9927156 0.99490327
0001d0 33 07 7d 3f 51 cb 71 3f 6e a6 75 3f 44 07 81 3f
       0.9883911 0.9445086 0.95957077 1.0080342
0001e0 e7 f9 76 3f 0c 20 79 3f 2e 2e 7e 3f 87 5a 7c 3f
       0.9647507 0.97314525 0.99289215 0.98575634
0001f0 91 52 7d 3f 07 6e 83 3f b4 17 7d 3f 98 5e 7f 3f
       0.9895411 1.0267953 0.98864293 0.99753714

_network.1.bias f4 [128]
000000 8b fa 91 3d f7 f4 83 3d b9 8b 01 be e9 31 41 3d
       0.071278654 0.06443208 -0.12650956 0.04716674
000010 a5 ad 26 3b f1 d3 41 be bc b9 7c bc cf 80 8f bd
       0.002543309 -0.18928505 -0.015425142 -0.0700699
000020 d0 d6 99 3c f5 65 ae bd 57 51 a3 bd c7 49 83 3c
       0.018779188 -0.085155405 -0.07974499 0.01602639
000030 dd db c4 bc ef c6 b7 3c 2a 1e 73 3e 0f 68 71 3d
       -0.02403062 0.022433726 0.23741975 0.05893713
000040 fc 24 9c bd e1 72 6e 3c b0 6b ec 3c 0b ae 6e 3d
       -0.07624242 0.014553756 0.028859943 0.05827145
000050 55 bc d9 bd 11 60 a3 bb 90 8c 14 3e d9 51 2e 3d
       -0.106316246 -0.0049858172 0.14506745 0.042558525
000060 34 0a a6 bc 55 f8 43 bd 1d f0 2a bd 4d 77 9e bc
       -0.020268537 -0.04784425 -0.041732896 -0.019343996
000070 f8 82 37 bc 6c ad 9b bc 87 1f 97 bd 50 f7 28 3d
       -0.011200659 -0.019003592 -0.0737906 0.04125148
000080 58 7e 57 bd bb 0a 9f 3c 00 c4 61 be c8 1b 27 bd
       -0.052610725 0.019414296 -0.22047424 -0.04079798
000090 3e 0e 0c bd 34 28 a6 bb 64 ff cf 3c cc 0a b7 3d
       -0.03419327 -0.0050707106 0.025390334 0.08937606
0000a0 44 f4 16 3d 40 11 3b 3c 2c 99 90 3c dc d9 06 3e
       0.036854044 0.011417687 0.017651163 0.13169044
0000b0 f7 a3 a2 bd fd 13 dd bd 8f 47 99 3c 4f 08 51 bd
       -0.0794143 -0.10794828 0.01871088 -0.051033314
0000c0 fc c7 9a 3c 5b 4d 07 3e 57 e6 aa bb 9b 25 4e 3d
       0.018894188 0.13213103 -0.005215447 0.050328832
0000d0 34 8b 86 bc a8 f3 37 bd fa fd 46 bc 1b fd 3c bc
       -0.0164238 -0.044910103 -0.012145514 -0.011534954
0000e0 ea 3c 4e 3c 4a bd ff 3c e1 94 90 3d ad ba 67 be
       0.012587765 0.03121819 0.070596464 -0.22629805
0000f0 ed 54 95 3d 6a 46 90 3e a5 77 1c 3d 41 48 8d bd
       0.07291589 0.28178722 0.03820004 -0.06898547
000100 52 f3 46 bc ce 64 28 bd 23 1d 92 bd 24 3f d7 3e
       -0.012142973 -0.04111176 -0.07134464 0.4204036
000110 66 94 b7 3c df b7 cb bc 8d 99 c3 ba a8 e7 74 bd
       0.02240963 -0.02486795 -0.0014923081 -0.059791237
000120 cb 9a db bc 50 cf 98 3c c7 c0 e9 3d 2c 9b 5f bc
       -0.02680721 0.018653542 0.114137225 -0.013647836
000130 37 5a f6 3a f2 30 28 3e 39 3f bf 3c 01 44 12 bc
       0.0018795197 0.16424921 0.023345577 -0.008927346
000140 1a df ee b8 51 f1 c3 bb 49 31 15 bd 41 dd b6 bd
       -0.0001139028 -0.005979695 -0.036423955 -0.089289196
000150 47 d5 94 bd bf da 1e 3d c2 ae 28 bd 9b 2d 43 be
       -0.07267242 0.03878283 -0.041182287 -0.19060366
000160 75 0f 94 3c e8 0b df 3a f1 dd 04 bc 1f 01 b7 3c
       0.018073777 0.0017017098 -0.008109556 0.022339402
000170 e2 e3 ce 3d 15 7d 02 bc 6c 9c 47 bd 2a 85 b0 3d
       0.10102059 -0.007964392 -0.04873316 0.08619149
000180 c4 e2 ae bd 00 4f 5b 3d bf 76 b2 bd 13 5f 84 38
       -0.08539346 0.053542137 -0.08714055 6.3119594e-05
000190 9a fc 75 3d f4 a7 b3 bc d8 b6 54 bd 12 3c c1 3c
       0.060055353 -0.021930672 -0.051932186 0.023588214
0001a0 e2 0c b1 bc f6 65 af be 78 f1 d4 bc 3c 29 73 bd
       -0.021612588 -0.34257478 -0.025994048 -0.059365496
0001b0 60 32 04 bc ed e9 bc bd 3b c9 0a bd 42 7c 01 be
       -0.008068651 -0.09224305 -0.033883315 -0.12645057
0001c0 ee f7 73 3c b0 b1 69 3b 09 09 22 bd 4f 23 a3 3c
       0.014890654 0.0035658889 -0.039559398 0.019914297
0001d0 6b e2 0c bd 40 87 d3 3c c3 95 31 3d f4 20 5a 3d
       -0.034395617 0.025821328 0.043355715 0.053254083
0001e0 d9 b9 50 bd e2 19 0b 3e 83 42 dd 3d a0 1c 5a bd
       -0.050958488 0.13584092 0.10803702 -0.053249955
0001f0 ee f6 fd 3b 26 54 dc 3d 9f 88 8d bb 5c 48 31 3c
       0.0077503836 0.107582375 -0.004319265 0.0108204745

_network.1.running_mean f4 [128]
000000 fa bd 18 3f 4f df 00 bf 73 60 42 3f 2b bb dd 3e
       0.5966488 -0.5034074 0.7592842 0.4330686
000010 a6 ff 21 bf ff ce 1e bf 41 3b f9 3d 34 b4 38 bd
       -0.63280714 -0.620346 0.12169505 -0.04509373
000020 7e 95 d0 3e 0a 4d d1 be b8 18 b9 3e 16 42 08 bd
       0.40739053 -0.4087909 0.3615167 -0.03326615
000030 fc 12 06 3e 3e 95 d1 bd b3 2a 14 bd a5 9c db 3e
       0.1309318 -0.10233544 -0.036173534 0.42892948
000040 c8 93 2b be b7 6e 30 be 21 ab 2b be a7 2a b6 3d
       -0.16755593 -0.17229734 -0.16764499 0.08894854
000050 ff f5 06 bf b5 36 13 bf 86 d8 39 bf 8c d2 ec bd
       -0.5271911 -0.5750535 -0.72596014 -0.11563596
000060 72 8f 87 be 47 5c 51 bd e5 93 97 3e 87 7c 83 be
       -0.26476628 -0.051113393 0.29605022 -0.25680944
000070 d4 ca 13 3e 47 61 51 be 60 23 d6 3c a5 e8 9a 3d
       0.14432842 -0.20447265 0.026139915 0.07563905
000080 2f bf 1f 3f fc 63 09 bd c3 f7 1b bf 10 c8 0b be
       0.624011 -0.03354262 -0.6092493 -0.13650537
000090 3e a8 af 3d b9 c2 20 3e a9 12 8b be f4 e0 c2 bd
       0.085770115 0.15699281 -0.27162674 -0.09515563
0000a0 95 d3 4f 3e f0 32 25 be 19 80 39 be d3 54 bc 3e
       0.20295556 -0.16132712 -0.18115272 0.36783466
0000b0 3f 2d 02 bf 03 d1 11 3e 2b 1a 01 bd 4b d9 0b bf
       -0.5085029 0.14239888 -0.031519096 -0.5462844
0000c0 ce a3 0b bf a0 4e 66 be 62 88 86 be 83 61 d7 3e
       -0.5454682 -0.2249093 -0.26275927 0.42066583
0000d0 96 8e cc 3d 85 ca 89 3e b6 59 f8 3e ad 0f b6 3d
       0.099881336 0.26912323 0.48505944 0.08889709
0000e0 92 2a ca ba 50 c8 8d 3e 34 a3 d5 be a8 27 1b 3d
       -0.0015424064 0.2769189 -0.41726077 0.037879616
0000f0 f2 d5 0e be 61 34 38 be 2a fa 96 3e 08 07 0e be
       -0.13948801 -0.17988731 0.29487735 -0.1386987
000100 2a cb 0c bd 3f 95 6e bf 26 52 d7 3e 91 57 65 be
       -0.03437344 -0.9319648 0.42054862 -0.22396685
000110 53 35 6b bf ac aa bb bc b8 b0 61 bd 7e e2 d4 3e
       -0.9187824 -0.022908531 -0.055100173 0.4157905
000120 76 b0 63 3e 60 c2 1c bf 1a 53 dc 3e 63 76 98 3e
       0.22235283 -0.6123409 0.4303215 0.29777822
000130 97 73 9d 3e 4f f8 3d be aa dc 9e 3c 59 93 b8 be
       0.3075225 -0.18551753 0.01939233 -0.36049917
000140 48 56 f2 bd 85 f6 7c bd c2 1e cc 3e a9 f3 13 be
       -0.11832863 -0.061758537 0.39867216 -0.14448418
000150 48 ae 2e 3d 94 ee 7b 3e e3 f9 f2 3d e3 7d 5f be
       0.042646676 0.24602729 0.11864068 -0.21825366
000160 c6 87 e6 3d 10 ed 0e bf e8 05 15 3e a2 bc 08 bf
       0.112563655 -0.5583048 0.14553034 -0.5341283
000170 10 47 7f be 38 a4 e4 3e 9f 26 bd 3e 3b 0d b5 3e
       -0.24929452 0.4465654 0.36943528 0.35361657
000180 41 07 fa be c0 b4 03 3e c6 77 ba 3e 09 b9 74 3e
       -0.4883366 0.1286192 0.36419505 0.2389871
000190 bd 43 26 3f 3d f0 1c be d9 a7 72 be 28 4d ff 3e
       0.6494711 -0.15326019 -0.23696841 0.49863553
0001a0 41 86 1b 3e 30 c5 48 be 9f 5e 2c 3f c7 81 e0 be
       0.15187933 -0.19606471 0.6733188 -0.43849012
0001b0 0e ed 55 bd cf 59 08 3f fa 01 24 3e b8 18 08 3f
       -0.052228026 0.5326204 0.16016379 0.5316272
0001c0 b1 e6 7f be 3d 9f 4d bf de 8d d8 3e d0 8b 1c bf
       -0.24990346 -0.80321103 0.42295736 -0.61150837
0001d0 aa c2 5b 3e 68 92 66 3e b3 38 87 be 00 f4 03 3f
       0.21460977 0.22516787 -0.26410446 0.5154419
0001e0 cc 71 c4 be 7d 50 4c bd d6 32 42 3d 33 79 09 be
       -0.3836807 -0.049881447 0.047411762 -0.1342514
0001f0 8e 5a 22 bf d5 36 4f 3d 98 6c d8 3c d9 37 72 bf
       -0.63419425 0.0505894 0.026418969 -0.94616467

_network.1.running_var f4 [128]
000000 26 4e 42 3c 5b 73 56 3d 2c 4e ee 3b 4b 24 b0 3c
       0.011859452 0.052356105 0.0072725024 0.02150168
000010 47 2f d6 3c 1a 77 4f 3c e2 e7 b4 3c d0 e1 87 3b
       0.02614559 0.012662673 0.022083227 0.004146792
000020 f3 61 f4 3b 91 cd 3b 3c 9d 06 89 3c 4a 60 79 3c
       0.0074579655 0.011462585 0.016726786 0.015220711
000030 01 4c 89 3b 73 2f 34 3c 7b be 36 3c 2b 4a 15 3c
       0.0041899686 0.010997641 0.0111538125 0.009111921
000040 86 b8 2b 3c b2 89 c5 3c 4e 18 06 3d fb fb 4a 3c
       0.010481006 0.02411351 0.032738023 0.012389178
000050 db 0f 48 3c d8 a0 7b 3c 91 72 f2 3b 7f 57 ea 3b
       0.0122108115 0.015358172 0.0073989113 0.0071515436
000060 6a fc b6 3b 4a 61 dc 3c e5 87 94 3c 05 62 a5 3c
       0.0055842893 0.02690186 0.018131206 0.02018834
000070 82 aa dc 3b 7b a7 09 3d ad dd ae 3c 37 56 11 3c
       0.0067341933 0.033606987 0.021345938 0.008870653
000080 42 d3 d7 3c 66 59 8c 3c c1 d3 78 3b 90 a3 62 3d
       0.026345853 0.017132472 0.0037968012 0.055331767
000090 c4 af 8c 3c 56 a7 0d 3c 9f ee ac 3c 39 c0 7a 3a
       0.017173655 0.008645853 0.021109877 0.00095653866
0000a0 ac 4c 80 3c 89 93 f0 3b 5b 1b 8a 3c f1 96 ea 3b
       0.01566156 0.0073418063 0.016858747 0.007159107
0000b0 3f f6 29 3c 62 4b 03 3c 39 45 69 3c c7 4e 6b 3c
       0.010373651 0.008013578 0.014237695 0.014362044
0000c0 78 37 d0 3b ce 51 12 3c 3d ef c7 3b d1 f5 c7 3b
       0.0063542686 0.008930637 0.0061015175 0.0061023016
0000d0 db db 01 3c 9c 23 27 3c 28 ce 89 3c 7a af 3c 3d
       0.007925953 0.010201361 0.016821936 0.046065785
0000e0 29 92 8b 3b 9e d3 00 3d 0b 84 f8 3c 34 1d 64 3b
       0.004259367 0.031451814 0.0303364 0.0034807445
0000f0 c6 74 ed 3b 3f db 6a 3b 93 ec ad 3c a2 68 3b 3c
       0.0072465865 0.0035836247 0.021230971 0.011438521
000100 55 c9 d8 3c 95 c8 4a 3c 6f fc ea 3c d2 aa 8f 3b
       0.02646319 0.012376924 0.028684823 0.004384377
000110 dd 6f 1f 3c 40 a4 f7 3c 9a aa d6 3c 1f 43 2d 3d
       0.00973126 0.030229688 0.026204396 0.04230034
000120 29 e4 c9 3b 03 1f 9c 3c fa 91 0c 3c 4a aa 05 3d
       0.006161232 0.019057756 0.008579725 0.032633103
000130 2f 09 dc 3c 70 40 3e 3c 88 6c 14 3c 9a 4d b0 3c
       0.026859848 0.011612043 0.009059079 0.021521378
000140 dd 1f 55 3b d1 8c 4d 3c 55 8e 11 3c b5 9e fe 3b
       0.0032520213 0.01254578 0.008884032 0.007770384
000150 4b 54 c5 3b a5 48 19 3c d3 58 d0 3c 73 7d 07 3b
       0.0060220114 0.009355699 0.02543298 0.0020674139
000160 02 a4 7e 3c 67 43 62 3d d9 61 50 3c 24 fd 67 3c
       0.015542032 0.05524006 0.012718641 0.0141594745
000170 1b 52 85 3c 00 12 7a 3c b6 79 e4 3b 5b e0 e7 3b
       0.016274503 0.015263081 0.006972517 0.007076306
000180 e0 3c 68 3c 67 f8 6e 3c f1 7d 10 3b 92 00 85 3b
       0.01417467 0.014585591 0.0022047723 0.004058906
000190 0f 09 d6 3b 07 0f e7 3b 85 0d 11 3c 3f b7 2c 3c
       0.0065318416 0.007051352 0.008853321 0.010541736
0001a0 c5 ff 1a 3c 88 bf 8c 3b 3d f3 39 3c f0 f8 56 3c
       0.009460394 0.0042952932 0.011349496 0.013120875
0001b0 72 73 20 3c 02 09 81 3c da 4a d9 3b 08 f4 44 3c
       0.009793149 0.015751366 0.0066312375 0.012021072
0001c0 34 79 9e 3c a9 7f cd 3c ef c6 31 3c e3 dd 36 3b
       0.019344904 0.025085287 0.010850652 0.002790325
0001d0 ae ed d8 3c 8e 4d 3a 3b 58 9e 05 3c bc c4 b8 3b
       0.026480522 0.0028427574 0.008155428 0.005638687
0001e0 0d f0 41 3c b7 5b 47 3c f2 7b 6a 3c 2b f9 df 3c
       0.011837018 0.012167863 0.014311777 0.027340492
0001f0 0a bf 01 3c e7 a4 94 3c df d1 05 3d 70 e1 65 3c
       0.007919082 0.018145038 0.03267085 0.014030799

_network.3.weight f4 [1, 128]
000000 af f3 2e bd 6c d0 89 3d 8e 10 27 3c 11 63 3a 3d
       -0.042712864 0.067292064 0.010196818 0.045504633
000010 78 d8 9f bc 33 df 92 bd 4b 02 6a ba 64 5d b5 bc
       -0.0195124 -0.07171478 -0.0008926733 -0.022139259
000020 c8 2b 4b bd cc a2 93 bc 76 32 06 3d df 6b 5b bc
       -0.0496023 -0.018021964 0.032762967 -0.013392418
000030 88 a1 b2 3c 91 c5 71 bc c8 ea d5 bc e7 85 d5 3c
       0.02180554 -0.014756576 -0.026112929 0.026064826
000040 0e 44 7e bd ad 7a 9b bd 3c 99 d9 3c 66 0d fe 3c
       -0.06207662 -0.07591758 0.026562326 0.031012248
000050 67 e1 c3 bc db fb 98 3d 02 f8 26 bd af 1c 6b 3d
       -0.023911191 0.074699126 -0.040763862 0.0574004
000060 a1 6d 3d 3d f8 34 38 bd 97 ba ff 3c af 74 5a bd
       0.04624713 -0.04497239 0.031216903 -0.053333934
000070 c0 35 3d bd aa 5c d2 bc 2c 61 1e bd b8 33 5f 3d
       -0.046193838 -0.025678951 -0.03866689 0.054492682
000080 bf 64 7e bc 4f 97 ab 3c ce 92 b2 bd ba af 8a 3d
       -0.015526949 0.020946173 -0.08719407 0.067717984
000090 ab 7a a8 bb dc 6f 76 bd e6 c5 29 3c 03 57 30 3d
       -0.0051415763 -0.06016527 0.010362124 0.04305173
0000a0 90 07 4c 3d 14 3f 59 bd ac 51 e0 bc bd 04 04 bd
       0.0498119 -0.05303867 -0.027382694 -0.03223108
0000b0 2d 06 a0 bb fb c5 38 3c d7 89 a3 3c 2d 3e 5d bc
       -0.0048835487 0.011277671 0.019963188 -0.013503593
0000c0 03 48 5f 3d 4f 05 38 3d 9a 56 a7 bc ae dd 15 3d
       0.054512035 0.044926938 -0.020427037 0.036588363
0000d0 e5 66 9c 3c df 5c 5b 3d 0e ea fd bc 63 3d 31 bd
       0.019092033 0.053555366 -0.030995395 -0.043271434
0000e0 f3 a9 c6 bc 8c da 40 bc ea 11 82 3d eb a9 69 bd
       -0.02425096 -0.011770856 0.06351073 -0.057046812
0000f0 8e 3d 05 3d 63 49 21 bd e5 18 31 3d 2d b2 ab bc
       0.032529406 -0.039376628 0.043236632 -0.020958984
000100 e3 7c 9b bd ff 63 27 bd 7a c0 51 bd a3 ec 9a 3d
       -0.075921796 -0.040866848 -0.05120895 0.07564666
000110 11 40 43 bd ab 17 5b 3c c6 28 07 3c 04 f4 dd bc
       -0.04766852 0.013372342 0.008249467 -0.027093895
000120 bc 6f 86 3c 14 00 68 bd ef 6e 5f bd 82 b1 98 bd
       0.016410701 -0.0566407 -0.054549154 -0.07455732
000130 8d c9 d5 bc 95 70 26 bd 2d ca 1d 3c bb 31 12 bc
       -0.026097083 -0.04063471 0.009630722 -0.0089229895
000140 7d 4f 09 3c 14 02 8d 3d 07 0f 72 3c 32 ef f5 bc
       0.008380768 0.06885162 0.014774091 -0.030021284
000150 75 f5 b2 bc 1b eb 64 3d c9 d3 1b bd d2 f9 f1 3d
       -0.021845559 0.055888277 -0.03804377 0.118152276
000160 e1 cb e6 3c b2 37 cb 3c 2a f5 8f 3d 90 3d 79 3d
       0.028173389 0.024806831 0.07029183 0.060849726
000170 0f 7c 76 3d 43 4b 48 bd 49 4f 02 3d b7 8e 0b bd
       0.060176905 -0.0488999 0.031813893 -0.03407165
000180 86 71 11 bd c5 44 2b 3d 37 ce f9 3c 98 bd b0 3c
       -0.035508655 0.04181363 0.030493839 0.02157478
000190 39 96 99 3c 48 32 17 bd c3 fa 47 bc 09 40 1e 3d
       0.01874839 -0.036913186 -0.012205782 0.038635287
0001a0 ef 4c fc bb 78 74 d1 bc 52 21 d7 3b 25 c7 a2 bc
       -0.007699601 -0.025568232 0.0065652514 -0.01987035
0001b0 a0 c3 ba 3c 3f b8 b2 bb 63 20 32 3d eb 75 41 bd
       0.02279836 -0.0054540928 0.043487918 -0.047231596
0001c0 78 f2 31 3d 0e 28 07 3d 82 db 85 bc ea 7f 56 3d
       0.043444127 0.032997184 -0.016340021 0.052368082
0001d0 3c 7d 3d 3d ce eb 3b 3c fe 33 9f 3c eb 1f 11 bd
       0.04626201 0.011469794 0.019433971 -0.03543083
0001e0 c9 df 0b bd f8 9e 24 3c 22 13 5e 3c 1a f9 6c bc
       -0.034148965 0.010047667 0.013554366 -0.014463687
0001f0 13 1b 35 bc 27 25 bc 3c b3 98 5f 3d 68 e6 e7 3c
       -0.011053818 0.022966934 0.054588985 0.028308108
