transformers/results/pimentel_mlp/configs/hyperopt/trial_0/pimentel_mlp_model_20251203_063502.pt (torch, 26826 bytes, 43 tensors)

_network.0.weight f4 [16, 5]
0	0x3f020494	0.50788236
1	0x3e66874c	0.22512549
2	0xbdc691fe	-0.096958145
3	0x3ec25639	0.37956408
4	0xbe395665	-0.18099363
5	0xbdb299ea	-0.08720763
6	0xbdf3f2c8	-0.11911541
7	0x3ecdecdd	0.40219775
8	0x3eb919f0	0.361526
9	0xbe85c2d0	-0.26125193
10	0x3eba5b1d	0.3639764
11	0x3cf79d66	0.03022642
12	0x3ebdf66c	0.37102067
13	0x3d899656	0.067181274
14	0x3e285bd6	0.16441283
15	0xbe679e02	-0.22618869
16	0x3da8cd30	0.082422614
17	0x3e0a845d	0.13527055
18	0xbe6e2d7d	-0.2325954
19	0x3db88499	0.09009666
20	0xbe13c621	-0.14431049
21	0xbd65d6be	-0.056112997
22	0xbe0f015c	-0.13965362
23	0x3ea37c79	0.31930903
24	0xbec854c5	-0.39127174
25	0xbe795261	-0.24347831
26	0xb79fb702	-1.9039497e-05
27	0xbe262131	-0.16223599
28	0x3e08746b	0.1332566
29	0xbf00cc83	-0.5031206
30	0x3f156107	0.58351177
31	0xbe9fbf88	-0.31200814
32	0x3e16dc62	0.14732507
33	0x3e1254c4	0.14290148
34	0xbe1b585f	-0.1517043
35	0x3e88d559	0.2672527
36	0x3d948ffa	0.07254024
37	0x3eb1c72e	0.34722275
38	0x3dbe9cd8	0.09307259
39	0xbe2577cf	-0.16158985
40	0x3ddf68f8	0.10908693
41	0xbe7d5ecd	-0.24743195
42	0x3e068461	0.13136436
43	0x3ee2607b	0.44214234
44	0x3e5b5730	0.21419978
45	0xbe8e2039	-0.2775896
46	0x3e6d1bfa	0.23155203
47	0x3dea1c59	0.11431188
48	0x3e27d0f4	0.16388303
49	0xbe8ef145	-0.2791845
50	0xbf1c6881	-0.6109696
51	0xbdd3107f	-0.10305881
52	0xbe5b55a6	-0.21419391
53	0x3eb9195d	0.36152163
54	0x3d86d79b	0.06584092
55	0x3e8079e5	0.25092998
56	0x3e0c21da	0.13684788
57	0xbd7252fe	-0.05916118
58	0x3e9f7f22	0.31151682
59	0xbea1b2df	-0.3158178
60	0x3e779908	0.2417947
61	0xbe2a58f7	-0.166355
62	0xbdadb7a9	-0.08482296
63	0xbe000b23	-0.12504248
64	0x3e4e6b4a	0.20158115
65	0xbe7ed0d2	-0.24884346
66	0x3eb0777f	0.34466168
67	0xbe4cf5af	-0.20015596
68	0xbe908528	-0.2822659
69	0xbe6ce38f	-0.23133682
70	0x3f180e59	0.5939689
71	0x3e14e84e	0.14541742
72	0x3e49d622	0.19710591
73	0xbe9faf0b	-0.31188235
74	0xbedfabb2	-0.4368568
75	0xbef64b16	-0.4810416
76	0xbe81dcc4	-0.25363743
77	0x3e0c87df	0.13723706
78	0x3c96b3be	0.018396255
79	0x3eacaba4	0.337247

_network.0.bias f4 [16]
0	0xbe6c8f93	-0.23101644
1	0xbe9c1d84	-0.3049127
2	0x3e6b6739	0.22988595
3	0xbe3a947b	-0.18220703
4	0x3e8b1acf	0.2716889
5	0xbdd67978	-0.10472387
6	0x3e84bcc9	0.25925282
7	0xbeb0ded1	-0.34544995
8	0xbe6683b6	-0.22511181
9	0x3e0c1feb	0.1368405
10	0x3dc226d7	0.09480064
11	0xbde9fc42	-0.114250675
12	0x3e87917b	0.2647818
13	0x3e9c04ef	0.30472514
14	0xbea6d651	-0.32585385
15	0xbe749bdf	-0.23887585

_network.1.weight f4 [16]
0	0x3f661763	0.89879435
1	0x3f81fd62	1.0155451
2	0x3f73f714	0.95298886
3	0x3f7ec6bd	0.99522
4	0x3f86e43a	1.0538399
5	0x3f769ad2	0.9632999
6	0x3f8bcdba	1.0922158
7	0x3f6f4feb	0.9348132
8	0x3f78315b	0.9695031
9	0x3f861785	1.0475928
10	0x3f7f9ec3	0.99851626
11	0x3f94b212	1.1616843
12	0x3f7e8271	0.9941779
13	0x3f72e50b	0.9488074
14	0x3f7e70b5	0.9939073
15	0x3f7cb515	0.9871381

_network.1.bias f4 [16]
0	0x3d252d4a	0.040326394
1	0x3dabcbf7	0.083885126
2	0xbb1d6d50	-0.0024021454
3	0x3da125f5	0.07868568
4	0x3d1702a2	0.036867745
5	0xbdbe2742	-0.092848316
6	0x3e3f28af	0.18667863
7	0x3d2d5efb	0.04232691
8	0x3d109d06	0.035306
9	0x3d7aab7e	0.061198704
10	0x3e02dadc	0.127788
11	0x3e098b3c	0.1343202
12	0x3dc5d674	0.09660044
13	0x3da58317	0.08081644
14	0x3dfbb10b	0.12289628
15	0x3cd4e7ce	0.02598944

_network.1.running_mean f4 [16]
0	0x3df401d6	0.11914413
1	0xbeb2b458	-0.34903216
2	0x3f12f302	0.5740205
3	0xbe8e3398	-0.27773738
4	0x3d83c2ac	0.06433615
5	0xbefdb2fd	-0.4955062
6	0x3eb5bc4b	0.3549522
7	0xbe6dc517	-0.23219715
8	0x3db0b257	0.086277656
9	0x3ca64c2a	0.02029999
10	0xbbd70f54	-0.0065631066
11	0xbcc9db90	-0.024640828
12	0x3eb9a1ca	0.36256248
13	0x3d02a069	0.03189126
14	0xbee182f3	-0.4404522
15	0xbe9555b1	-0.2916694

_network.1.running_var f4 [16]
0	0x3c779e5c	0.015113439
1	0x3d0e87b9	0.034797404
2	0x3bdadbc2	0.006679029
3	0x3c05e8ee	0.008173211
4	0x3d04dd9b	0.032437902
5	0x3cd7dda0	0.026350796
6	0x3c99e0a6	0.018783879
7	0x3bd797dd	0.006579383
8	0x3c82edef	0.015982596
9	0x3c1d126c	0.009586912
10	0x3c6f502b	0.014606516
11	0x3c963288	0.018334642
12	0x3bb2ad78	0.005452808
13	0x3c4905c1	0.012269438
14	0x3c263daa	0.010146538
15	0x3c063d54	0.008193333

_network.3.weight f4 [16, 16]
0	0x3dfa4278	0.12219709
1	0xbdd2d355	-0.10294215
2	0xbe0722c5	-0.13196857
3	0xbe8d5a3e	-0.27607912
4	0xbe2ce07c	-0.16882509
5	0x3d30a1e2	0.043123133
6	0xbdae388a	-0.08506878
7	0xbe911a45	-0.28340355
8	0x3ccf9616	0.025340121
9	0xbe287ee4	-0.16454655
10	0xbe61964a	-0.22029987
11	0xbe3d5f14	-0.184933
12	0xbe1f4f0c	-0.15557498
13	0xbce9dc23	-0.028547352
14	0x3e81f585	0.2538263
15	0x3ce7a0e1	0.028274955
16	0x3cea0a2c	0.028569303
17	0xbe4ca140	-0.19983387
18	0xbe5a9172	-0.21344545
19	0x3d604909	0.05475715
20	0xbcbe5b07	-0.023236765
21	0xbe90c414	-0.28274596
22	0xbe2792ec	-0.1636464
23	0xbe282e65	-0.16423948
24	0xbe0a7738	-0.13522041
25	0xbd4bb0fd	-0.049729336
26	0xbdbfc4e8	-0.09363729
27	0xbe20e999	-0.1571411
28	0xbe1ae932	-0.1512802
29	0xbe6a2522	-0.22865728
30	0xbe0be039	-0.13659753
31	0xbda55f00	-0.080747604
32	0x3e1f0d29	0.15532364
33	0xbd79c23f	-0.060976263
34	0x3e5b81ce	0.21436235
35	0x3d7f967d	0.062399376
36	0xbe6d3b59	-0.2316717
37	0x3e38ff89	0.18066229
38	0xbd3bf896	-0.045891367
39	0xbdcaad0f	-0.098962896
40	0xbe38c056	-0.1804212
41	0xbe9f211d	-0.3107995
42	0xbd9ac8e6	-0.075578496
43	0xbde06e69	-0.10958559
44	0x3d963f97	0.073363476
45	0xbde8765e	-0.11350702
46	0x3e4378ba	0.19089022
47	0xbe769988	-0.24082005
48	0xbd7131de	-0.058885448
49	0x3d426008	0.047454864
50	0x3e017432	0.12641981
51	0x3dc5839b	0.096442424
52	0x3e6fb29b	0.23407976
53	0xbe3e80a6	-0.18603763
54	0x3ddd0202	0.107913986
55	0xbdc3775c	-0.0954425
56	0xbd1ba58b	-0.03799967
57	0xbe8553da	-0.26040536
58	0x3e84b0a9	0.2591603
59	0xbe281147	-0.16412841
60	0x3e146cab	0.14494579
61	0x3d95caf8	0.07314104
62	0x3de27976	0.11058323
63	0xbe1950f7	-0.14972292
64	0x3e188f86	0.148985
65	0x3d7582aa	0.059939064
66	0x3d382649	0.044958387
67	0xbe6a5fa9	-0.22888054
68	0x3df2860f	0.11841976
69	0xbd214c4d	-0.039379407
70	0xbdc48399	-0.09595413
71	0x3e7157a1	0.23568584
72	0x3d9098ab	0.07060369
73	0xbe07f549	-0.13277163
74	0xbdceba75	-0.100941576
75	0xbca9bc02	-0.020719532
76	0x3e178c82	0.14799693
77	0xbe1a2f23	-0.15057044
78	0xbe2f8a58	-0.17142618
79	0xbdd06690	-0.10175812
80	0xbe6d1afc	-0.23154825
81	0x3de8c340	0.11365366
82	0x3d75161b	0.059835535
83	0xbe28b3ac	-0.1647479
84	0x3d9afb91	0.07567514
85	0x3dce11b5	0.10061971
86	0xbcf50934	-0.029911615
87	0xbc398efa	-0.011325592
88	0x3ce8f2bb	0.028436055
89	0x3e6d1534	0.2315262
90	0x3e1cac73	0.15300159
91	0xbdd2c00a	-0.10290535
92	0xbe28a6c1	-0.16469862
93	0x3d0b8af7	0.034068074
94	0x3d34018a	0.04394678
95	0xbd94a27f	-0.07257556
96	0x3de73d61	0.11291004
97	0x3e879668	0.26481938
98	0xbd9f4041	-0.07775927
99	0xbdd69c34	-0.10479012
100	0xbb1c55a1	-0.002385475
101	0xbd05e50f	-0.03268915
102	0x3dd9c846	0.10633902
103	0x3e27a1b3	0.16370277
104	0xbe69b002	-0.22821048
105	0xbce092dc	-0.027413778
106	0x3e7a4ef7	0.24444185
107	0x3c4ac873	0.012376892
108	0x3d19ec5b	0.03757892
109	0xbe244a13	-0.16043882
110	0xbd1077ac	-0.035270378
111	0xbde6877f	-0.112563126
112	0xbc427ad1	-0.011870102
113	0xbc0bc48f	-0.00853075
114	0x3df067dd	0.1173856
115	0x3e8124a7	0.25223276
116	0xbe8528f2	-0.260078
117	0xbe2cd93f	-0.16879748
118	0xbdbfba4a	-0.09361704
119	0x3e09bd60	0.13451147
120	0x3bed53b8	0.007242646
121	0x3c96e290	0.01841858
122	0x3e12dee0	0.14342833
123	0xbe19484d	-0.14968987
124	0xbe609c9b	-0.2193474
125	0x3e30ed04	0.17277914
126	0xbe06e996	-0.13175043
127	0xbd2002e0	-0.03906524
128	0xbe50d5ce	-0.2039406
129	0x3e38a7f6	0.18032822
130	0x3d692752	0.056922264
131	0x3dc7fb42	0.097647205
132	0xbe1bee54	-0.15227634
133	0xbe6bace7	-0.23015176
134	0xbe8a1d41	-0.26975444
135	0x3dd9ae90	0.10628998
136	0x3dbe89d0	0.093036294
137	0x3e894739	0.2681215
138	0x3e233d7f	0.15941428
139	0x3dc6d443	0.097084545
140	0xbd3caa38	-0.04606077
141	0xbe40ad83	-0.1881619
142	0xbe671f86	-0.22570619
143	0xbe86dc87	-0.26340124
144	0x3d057e66	0.032591246
145	0xbe2b58a0	-0.16733027
146	0xbd2caad1	-0.04215509
147	0xbdd50bb4	-0.10402623
148	0xbddaa175	-0.10675327
149	0xbe6556fa	-0.2239646
150	0xbe71e38b	-0.23621957
151	0x3dabf52b	0.083963715
152	0xbd91a268	-0.07111055
153	0x3e3d9d45	0.18517025
154	0xbca51c60	-0.020155132
155	0xbe88f10f	-0.26746413
156	0xbc4a6ef3	-0.012355554
157	0xbe0afbd1	-0.13572623
158	0x3ce00b61	0.027349176
159	0xbe1b857b	-0.15187638
160	0x3c798a48	0.015230723
161	0xbde22628	-0.11042434
162	0x3e381f85	0.17980774
163	0x3d2b71d4	0.0418566
164	0x3e821abc	0.25411022
165	0xbdf5138a	-0.119666174
166	0x3e861a1e	0.261918
167	0xbd975cd1	-0.0739075
168	0x3da0da26	0.078541085
169	0x3dff05ef	0.124523036
170	0xbd0c68da	-0.03427968
171	0x3d6d9765	0.05800571
172	0xbdf07b4a	-0.117422655
173	0xbeb3a1b3	-0.35084304
174	0x3d1bd30d	0.03804307
175	0xbe5ff581	-0.21870996
176	0x3e53eeaa	0.20696512
177	0x3e359676	0.17733178
178	0x3e6c0f83	0.23052792
179	0xbc98ca68	-0.018651202
180	0xbe6ffc8a	-0.2343618
181	0x3d528960	0.051400542
182	0x3da3869d	0.0798466
183	0xbe5cf392	-0.2157729
184	0xbd563bfb	-0.052303296
185	0xbdfdb90b	-0.1238881
186	0xbc414b3a	-0.011797721
187	0xbe35446e	-0.17701885
188	0xbdbd5caf	-0.092461936
189	0xbdcefb40	-0.10106516
190	0xbe931520	-0.28727055
191	0x3e61d19d	0.22052617
192	0x3e85842e	0.26077408
193	0xbd815d78	-0.06316656
194	0xbdc3d989	-0.09562976
195	0xbe18db67	-0.14927445
196	0xbe2b5413	-0.1673129
197	0xbe0d2b25	-0.1378599
198	0x3e190515	0.14943345
199	0xbe1f54df	-0.1555972
200	0xbce311ef	-0.027718512
201	0x3b85707a	0.004072246
202	0xbdc4a0aa	-0.09600957
203	0xbd04c756	-0.032416664
204	0x3df89729	0.121382065
205	0xbd6ffc1e	-0.058590047
206	0xbda5e685	-0.08100609
207	0xbdc6c75d	-0.09705994
208	0xbdcd58af	-0.10026681
209	0x3e7e30ec	0.2482335
210	0xbdc5a900	-0.09651375
211	0x3df08460	0.117439985
212	0xbc8b95be	-0.017039176
213	0x3db4f834	0.088364035
214	0x3e994be0	0.299407
215	0x3da9cbcd	0.08290825
216	0xbe561c2f	-0.20909189
217	0x3d7b0aa8	0.06128946
218	0x3e71cb16	0.23612627
219	0x3e1df317	0.15424763
220	0x3e7944e4	0.24342686
221	0x3e3fc529	0.18727554
222	0x3cacc45e	0.021089729
223	0x3d074dd6	0.033033215
224	0xbe53406c	-0.20630044
225	0x3d4a9edf	0.049467918
226	0x3e5d9c64	0.2164169
227	0x3e1d8999	0.1538452
228	0xbe431afc	-0.19053262
229	0xbe744ae0	-0.23856688
230	0xbe17b6de	-0.14815852
231	0xbe485b5b	-0.195661
232	0x3bd40f28	0.0064715333
233	0xbdff5b5e	-0.12468599
234	0x3de6bb84	0.112662345
235	0x3d452c47	0.04813793
236	0xbe456716	-0.19277605
237	0xbe16586e	-0.14682171
238	0x3dbb1495	0.09134785
239	0xbe896770	-0.2683673
240	0x3b99ada0	0.004689887
241	0x3d905020	0.07046533
242	0xbe1e971d	-0.15487333
243	0x3df456ed	0.11930642
244	0xbabb2224	-0.0014277142
245	0x39b667bb	0.0003479103
246	0xbe041609	-0.1289903
247	0xbe3686bf	-0.17824839
248	0xbe951485	-0.29117218
249	0x3c430764	0.0119036175
250	0x3e50cbbd	0.2039022
251	0xbe1e0910	-0.15433145
252	0xbdf3af9f	-0.118987314
253	0x3d5d35fb	0.054006558
254	0x3a073e92	0.0005159165
255	0x3e09284d	0.1339428

_network.3.bias f4 [16]
0	0x3e427ad2	0.18992165
1	0x3e0e24fb	0.13881294
2	0xbe7df017	-0.24798618
3	0x3cc1778e	0.023616578
4	0x3e1b337e	0.15156361
5	0xbcbcbedb	-0.023040226
6	0xbe16d877	-0.14731012
7	0x3e744d77	0.23857675
8	0xbdbfed5f	-0.09371447
9	0xbe118769	-0.14211811
10	0xbe667c7d	-0.22508426
11	0x3c3847e4	0.011247609
12	0x3de2ead1	0.11079944
13	0x3d63e43e	0.05563759
14	0x3d4b8cd5	0.049694855
15	0xbe422db6	-0.1896275

_network.4.weight f4 [16]
0	0x3f809c36	1.0047672
1	0x3f82a763	1.0207332
2	0x3f84f7ae	1.0388086
3	0x3f7efcee	0.9960469
4	0x3f7960ee	0.9741353
5	0x3f832046	1.0244224
6	0x3f7ba425	0.9829734
7	0x3f719726	0.9437126
8	0x3f73a5cd	0.95174867
9	0x3f834c27	1.0257615
10	0x3f842245	1.0322958
11	0x3f606508	0.8765416
12	0x3f83e2aa	1.0303547
13	0x3f8e4c98	1.1117125
14	0x3f7bb4f3	0.9832298
15	0x3f71a40a	0.9439093

_network.4.bias f4 [16]
0	0x3dba6b35	0.09102479
1	0x3c8340ea	0.016022164
2	0x3ddc03f3	0.10742941
3	0x3d4bcb56	0.049754463
4	0x3d90edb7	0.070765905
5	0x3d30b3a5	0.043140072
6	0xbd167fe1	-0.03674305
7	0x3ba6ca08	0.005090002
8	0x3d27c5d2	0.04096014
9	0xbbd3946c	-0.0064569023
10	0x3dd725ca	0.105052546
11	0xbd3e38cb	-0.04644088
12	0x3dba421e	0.09094642
13	0xbdc9deb3	-0.0985693
14	0xbc14aba5	-0.009074126
15	0xbda7f20b	-0.08200463

_network.4.running_mean f4 [16]
0	0xbede14d0	-0.43375254
1	0xbf3b76b1	-0.73227984
2	0xbf0d3cc1	-0.5517083
3	0x3e1d5d99	0.15367736
4	0x3cb7e668	0.022448733
5	0x3a32d1e8	0.00068214396
6	0xbd15ffcd	-0.036620904
7	0x3daf1c9c	0.08550379
8	0xbe9c0518	-0.30472636
9	0xbf373e13	-0.7157909
10	0xbe287ff5	-0.16455062
11	0xbe49b979	-0.19699658
12	0xbe193ee6	-0.149654
13	0x3f3b29b6	0.7311052
14	0xbec83c2b	-0.39108405
15	0xbebd0bbe	-0.3692302

_network.4.running_var f4 [16]
0	0x3e60e9ad	0.2196414
1	0x3ee156a2	0.44011408
2	0x3e8353c3	0.25649843
3	0x3d804df7	0.062648706
4	0x3df21259	0.11819906
5	0x3df9550d	0.12174425
6	0x3e4bebfd	0.19914241
7	0x3e80d31a	0.25161058
8	0x3dd045d7	0.10169571
9	0x3e4cc8c4	0.19998461
10	0x3e89c6ee	0.26909584
11	0x3e23f852	0.16012695
12	0x3d867e1d	0.06567023
13	0x3e414d98	0.18877256
14	0x3e3a4f01	0.181942
15	0x3e53b254	0.20673496

_network.6.weight f4 [16, 16]
0	0xbe9b6920	-0.30353642
1	0x3d70d2f9	0.05879495
2	0x3e80667c	0.2507819
3	0x3e0d1f62	0.13781503
4	0xbe32f199	-0.17474975
5	0xbd363cda	-0.044491626
6	0xbe680681	-0.22658731
7	0xbdec4792	-0.115370885
8	0xbd2a0389	-0.041507278
9	0x3dc1b595	0.09458462
10	0x3e31364c	0.17305869
11	0xbe566939	-0.20938577
12	0x3e25b794	0.16183311
13	0xbe5f4f2e	-0.21807548
14	0x3dcb4f5d	0.09927247
15	0x3e438e6a	0.19097295
16	0xbe06f88e	-0.13180754
17	0x3e806740	0.25078773
18	0xbe5a8a66	-0.21341857
19	0xbe214ac7	-0.15751182
20	0x3dc54c1e	0.09633659
21	0xbd935f1b	-0.07195874
22	0xbd68cf20	-0.056838155
23	0xbd868152	-0.06567635
24	0x3e40a487	0.18812762
25	0x3d680ab8	0.056650847
26	0x3d131ce3	0.03591622
27	0xbdddce18	-0.10830325
28	0xbe947397	-0.28994438
29	0xbcfa4020	-0.030548155
30	0x3cba6bfa	0.022756565
31	0xbd4964f0	-0.049168527
32	0xbd652cbe	-0.055950873
33	0x3dc6404f	0.09680235
34	0x3d05f748	0.03270653
35	0x3dadbb4a	0.08482988
36	0xba807973	-0.000980182
37	0xbe6c80d7	-0.23096023
38	0xbe700f29	-0.23443283
39	0xbdf733e5	-0.12070445
40	0xbdfcb8fe	-0.12339972
41	0x3d8354f5	0.06412689
42	0xbdc80640	-0.09766817
43	0xbe018be1	-0.12651016
44	0x3e897c33	0.2685257
45	0x3e0fc2b7	0.14039122
46	0x3df7c403	0.12097933
47	0xbe1464e5	-0.14491613
48	0xbe0f68b7	-0.1400479
49	0x3dad0f5b	0.084501944
50	0xbe60db60	-0.21958685
51	0xbdaad3e2	-0.08341195
52	0xbd542c73	-0.051800203
53	0xbdd0977b	-0.101851426
54	0xbe3c5d74	-0.18395025
55	0x3e18f16f	0.1493585
56	0x3e1a7364	0.1508308
57	0xbcd815e5	-0.026377628
58	0xbdc97c61	-0.098381765
59	0xbe415e25	-0.1888357
60	0xbe150f9a	-0.14556733
61	0xbc95c00e	-0.018280055
62	0x3e4c122c	0.19928807
63	0x3c90a49a	0.017656613
64	0xbdb866a3	-0.090039514
65	0x3ded191c	0.11577055
66	0xbe21ebe5	-0.15812643
67	0x3e03b071	0.12860276
68	0xbe023dbc	-0.12718862
69	0x3d01587d	0.03157853
70	0xbe09dd76	-0.13463387
71	0x3d23b747	0.03996971
72	0xbcd7d742	-0.02634776
73	0x3e727509	0.23677458
74	0x3bb8a5f7	0.005635019
75	0x3e3f70ac	0.18695325
76	0x3e551286	0.20807847
77	0xbe70d42b	-0.23518436
78	0xbe23c058	-0.15991342
79	0x3e5baeac	0.21453351
80	0x3e366325	0.17811258
81	0xbe5a52b7	-0.21320616
82	0xbd8b9787	-0.06816011
83	0xbeac4865	-0.33648983
84	0xbe66640c	-0.22499102
85	0x3d58b641	0.052908186
86	0x3db63fae	0.08898865
87	0x3cd65a21	0.026166024
88	0xbd78c9d9	-0.060739372
89	0x3e374f6e	0.17901394
90	0x3cd96677	0.026538117
91	0xbe3cc0d5	-0.18432935
92	0xbd20fea7	-0.039305355
93	0x3daee132	0.08539046
94	0x3d406925	0.046975274
95	0xbdb1a7e4	-0.08674601
96	0x3d581e3b	0.052763205
97	0xbdde5bc4	-0.10857347
98	0xbe803deb	-0.2504724
99	0xbdb2a2e7	-0.087224774
100	0x3e0629f7	0.13101946
101	0x3e798b0a	0.24369445
102	0x3e4ff41e	0.20307967
103	0x3d92ade8	0.07162076
104	0x3e2bb55d	0.16768403
105	0x3b51c0ac	0.003200571
106	0xbe8229be	-0.25422472
107	0x3e041614	0.12899047
108	0xbe3eac2c	-0.18620366
109	0xbe491491	-0.19636752
110	0xbdac38ee	-0.08409296
111	0x3dd512f5	0.104040064
112	0x3e16ab39	0.14713754
113	0xbda0cfd5	-0.07852141
114	0xbdee58ce	-0.11638032
115	0x3d8ff3b7	0.07028907
116	0xbe0f22d0	-0.13978124
117	0xbe370428	-0.17872679
118	0x3cfcc26d	0.030854428
119	0xbccb7740	-0.024837136
120	0x3e421be9	0.1895596
121	0x3e966c0e	0.29379314
122	0x3cba0af3	0.0227103
123	0x3da55139	0.080721326
124	0x3d9d0946	0.076677844
125	0xbe06af8f	-0.13152908
126	0x3d08d38c	0.03340487
127	0xbc1092f1	-0.008824096
128	0x3dc86ec8	0.09786755
129	0x3e8779c0	0.26460075
130	0xbd664e74	-0.056227162
131	0xbe35e5d6	-0.17763457
132	0xbdabdb27	-0.08391409
133	0xbd855cf3	-0.06511869
134	0xbcad4f2f	-0.021155922
135	0x3df7f009	0.1210633
136	0x3e2694b1	0.16267659
137	0x3dd39d2e	0.10332714
138	0xbe780a45	-0.24222668
139	0xbd1c210e	-0.03811746
140	0xbd503c3c	-0.050838694
141	0xbe45f687	-0.19332324
142	0x3d6d3389	0.057910476
143	0xbe84bd71	-0.25925782
144	0xbd71f1ad	-0.05906837
145	0xbdd6089c	-0.10450861
146	0xbe4de565	-0.20107038
147	0xbe8ae5c0	-0.2712841
148	0x3e847e9c	0.25877845
149	0xbe365db1	-0.17809178
150	0x3e31712d	0.1732833
151	0x3cb2c822	0.021823946
152	0xbc521480	-0.01282227
153	0x3e4abc69	0.19798435
154	0xbc249b73	-0.010046828
155	0x3dce23af	0.100654
156	0x3dcb960c	0.099407285
157	0xbeac431e	-0.33644956
158	0x3dd8d3f3	0.10587301
159	0x3d777a71	0.060419504
160	0x3d4b7e38	0.04968092
161	0x3c80db22	0.01572949
162	0x3d10ae30	0.03532237
163	0xbdecefcc	-0.11569175
164	0xbd3b2efb	-0.0456991
165	0x3e683a60	0.22678518
166	0x3e553850	0.20822263
167	0xbd85034b	-0.06494769
168	0xbeb2915c	-0.34876525
169	0xbd7f4e97	-0.06233081
170	0xbdf1a9f8	-0.11799997
171	0x3da79af5	0.081838526
172	0xbe03ae50	-0.12859464
173	0x3c658017	0.01400759
174	0x3c8d52f6	0.017251473
175	0x3c55b1c2	0.013042869
176	0x3e926364	0.28591454
177	0xbda305c0	-0.07960081
178	0x3e5a10c6	0.21295461
179	0x3e1c2f73	0.15252475
180	0x3e4b7435	0.19868548
181	0xbdec55fc	-0.11539838
182	0xbcf858ac	-0.03031572
183	0x3d8ea3f3	0.069648646
184	0xbc7c97a7	-0.015417016
185	0x3e585c00	0.21128845
186	0xbcb91d83	-0.02259708
187	0xbe248a4a	-0.16068378
188	0x3e185524	0.14876229
189	0x3d959ae7	0.07304936
190	0x3dcfc782	0.10145475
191	0x3e491f55	0.19640858
192	0x3dc38c35	0.09548227
193	0x3e83e5e0	0.25761318
194	0xbd7f0e9a	-0.062269785
195	0xbe4b83f8	-0.19874561
196	0xbe713a4b	-0.23557393
197	0xbe4a01f8	-0.19727314
198	0xbe5885fe	-0.21144864
199	0xbda890b3	-0.08230724
200	0xbe4c5960	-0.19955969
201	0xbe74cb73	-0.23905735
202	0xbe16a46b	-0.14711158
203	0xbe84c617	-0.2593238
204	0xbe3a5745	-0.18197353
205	0x3dac789e	0.084214434
206	0x3e4f63bf	0.20252894
207	0xbdba80fb	-0.09106632
208	0xbda8c89e	-0.0824139
209	0x3de19adc	0.11015865
210	0xbe0accb3	-0.13554649
211	0xbdd9bb8d	-0.106314756
212	0x3cc9db90	0.024640828
213	0xbe55ca1a	-0.20877877
214	0xbce3f504	-0.027826793
215	0x3e5e1b1a	0.21690026
216	0x3d621dfd	0.05520438
217	0x3d2839ad	0.04107063
218	0xbe2a9b14	-0.1666072
219	0x3d2fcd50	0.04292041
220	0x3d2076d8	0.03917584
221	0x3dd299a7	0.10283213
222	0x3dc2c379	0.0950994
223	0x3e831095	0.2559859
224	0xbe2af0e3	-0.16693453
225	0x3beb0f56	0.007173459
226	0xbdf557c7	-0.11979633
227	0xbe568ba1	-0.20951702
228	0xbd015a65	-0.031580348
229	0xbe5ef666	-0.21773681
230	0x3e0d832c	0.1381957
231	0x3e1d5c5b	0.15367262
232	0xbd1ab845	-0.03777339
233	0x3e01dbed	0.12681551
234	0xbe533919	-0.2062725
235	0xbda81486	-0.082070395
236	0xbdcc457f	-0.09974193
237	0xbe8ccca6	-0.27499884
238	0xbe058a64	-0.13041073
239	0xbc45c11e	-0.0120699685
240	0x3e2f2579	0.17104138
241	0x3e8a53c8	0.27017045
242	0x3e2860c8	0.16443169
243	0xbda7cbbe	-0.081931576
244	0xbe98858a	-0.29789382
245	0x3e8a6e96	0.27037495
246	0x3d99b11a	0.075044826
247	0xbd4c47f9	-0.049873326
248	0xbc5dbde0	-0.013534039
249	0xbe5d6aaf	-0.21622728
250	0xbdd45ce6	-0.103692815
251	0x3e46d0ff	0.19415663
252	0xbd9f4014	-0.07775894
253	0x3d3ecb1b	0.046580415
254	0xbe001c68	-0.12510836
255	0xbda1d640	-0.07902193

_network.6.bias f4 [16]
0	0xbba24f2a	-0.0049532847
1	0xbe1e93a3	-0.15486006
2	0xbcfe6ce1	-0.031057777
3	0x3dd09303	0.1018429
4	0xbe79fd5a	-0.24413052
5	0x3d987f67	0.07446175
6	0xbe294f59	-0.16534175
7	0xbdf94c06	-0.121727034
8	0x3dc42c46	0.09578757
9	0x3e4ba816	0.19888338
10	0xbd8c4ec4	-0.06850961
11	0xbdd1cd22	-0.10244204
12	0xbe67b716	-0.22628435
13	0xbe03f5f1	-0.12886788
14	0xbe5e9c2f	-0.21739267
15	0xbd6ae452	-0.05734665

_network.7.weight f4 [16]
0	0x3f802012	1.0009787
1	0x3f71a222	0.9438802
2	0x3f81e600	1.0148315
3	0x3f75d3f1	0.9602652
4	0x3f763238	0.9617038
5	0x3f840a84	1.0315709
6	0x3f84685f	1.0344352
7	0x3f764f72	0.96214974
8	0x3f8149a1	1.0100595
9	0x3f8598c2	1.0437243
10	0x3f7f3b5d	0.99699956
11	0x3f764dc0	0.9621239
12	0x3f796422	0.97418416
13	0x3f82179c	1.0163455
14	0x3f864345	1.0489279
15	0x3f7098aa	0.93982947

_network.7.bias f4 [16]
0	0x3cb7a670	0.02241823
1	0xbbd58bdf	-0.006516918
2	0x3c8591c3	0.016304856
3	0x3d84ee30	0.06490743
4	0x3c6bd6b4	0.014394451
5	0xbcdb0a30	-0.026738256
6	0x3d4b10aa	0.04957644
7	0xbc31f435	-0.010861446
8	0x3d2dff4c	0.0424798
9	0x3e4149c8	0.18875802
10	0x3cfbc136	0.030731779
11	0xbd99726b	-0.074925266
12	0x3c450051	0.012024001
13	0x3d5ecf1b	0.05439673
14	0xbd8a018d	-0.06738577
15	0xbc2432cb	-0.010021876

_network.7.running_mean f4 [16]
0	0xbd3c280f	-0.04593664
1	0xbecaa5c2	-0.39579588
2	0xbe082e47	-0.13298903
3	0xbe59033b	-0.21192639
4	0xbe340f87	-0.17584048
5	0xbddeda71	-0.10881508
6	0xbe839c6b	-0.25705275
7	0xbc9ea92e	-0.01936778
8	0xbd5f84b8	-0.05456993
9	0x3ddc3f20	0.10754228
10	0xbe22c886	-0.15896806
11	0x3ed73b9e	0.42037672
12	0xbf5194c2	-0.8186761
13	0xbdc904d9	-0.09815378
14	0xbf39a06e	-0.7251042
15	0x3ca05b49	0.019574778

_network.7.running_var f4 [16]
0	0x3e35dc3e	0.17759797
1	0x3da9b003	0.08285525
2	0x3e4d1031	0.20025708
3	0x3daa9af0	0.08330333
4	0x3e3e1ff1	0.18566872
5	0x3da725ca	0.081615046
6	0x3e259924	0.161717
7	0x3dbfa5a5	0.09357766
8	0x3e51baa3	0.20481353
9	0x3e0e5858	0.13900888
10	0x3d93ffdd	0.072265364
11	0x3e4d6bdf	0.20060681
12	0x3e2732f9	0.16328038
13	0x3de5537b	0.11197563
14	0x3de1f1b2	0.11032428
15	0x3d919a14	0.07109466

_network.9.weight f4 [16, 16]
0	0x3dc7387f	0.09727573
1	0xbe8dd469	-0.2770112
2	0x3e783b17	0.24241291
3	0x3e240578	0.16017711
4	0xbe6a659b	-0.22890322
5	0xbe1a5518	-0.15071523
6	0x3d0c7fdb	0.03430162
7	0xbd4c611c	-0.0498973
8	0xbd7897cc	-0.06069164
9	0xbb67168a	-0.0035261237
10	0x3e50c6de	0.20388362
11	0xbe174497	-0.14772259
12	0x3e103cc2	0.14085677
13	0x3d96ad67	0.073572926
14	0xbd5db233	-0.054125022
15	0x3e281c71	0.164171
16	0xbdc7d5b5	-0.09757558
17	0xbde5d19d	-0.11221621
18	0xbd93c3dc	-0.072150916
19	0x3e48b3da	0.19599858
20	0xbe7096a3	-0.23494963
21	0x3da9c468	0.08289415
22	0xbe8fad1f	-0.28061768
23	0x3d9eb414	0.07749191
24	0x3d8261a4	0.0636628
25	0x3d231fd9	0.039825294
26	0x3df33662	0.11875607
27	0xbd3913a9	-0.045184765
28	0x3dc2b3af	0.09506928
29	0xbe543f67	-0.20727311
30	0xbc29b077	-0.010357014
31	0x3d8bf65b	0.06834098
32	0x3e69efe3	0.22845416
33	0x3df47e98	0.11938208
34	0xbe2ffd22	-0.17186406
35	0x3e195d20	0.1497693
36	0x3d1df7d3	0.03856642
37	0xbdcc7430	-0.099830985
38	0xbe26f74e	-0.16305277
39	0xbd8d2903	-0.06892588
40	0x3e352042	0.17688087
41	0x3d4764e0	0.048680186
42	0xbdb2a177	-0.08722203
43	0x3d2b1d3f	0.041775938
44	0xbdef9071	-0.11697472
45	0x3e9a53a5	0.3014194
46	0xbe9cadae	-0.30601257
47	0x3c90935c	0.017648391
48	0xbe7f01ed	-0.24903078
49	0xbdac5386	-0.08414368
50	0x3c1b2107	0.009468324
51	0x3e8c18f2	0.27362782
52	0x3da3de25	0.08001355
53	0x3e991ef2	0.29906422
54	0x3a6d1937	0.000904459
55	0x3e0fbdaa	0.14037195
56	0x3e67329e	0.22577903
57	0x3e70e552	0.23524979
58	0xbdff471b	-0.12464734
59	0x3e2db9fa	0.16965476
60	0x3e37de5e	0.1795592
61	0xbdfb3d5b	-0.12267562
62	0xbab7b4c2	-0.0014015662
63	0xbe3c6449	-0.18397631
64	0x3daaa4c2	0.08332206
65	0xbe1412b6	-0.14460263
66	0x3dd6040c	0.10449991
67	0x3ba59a3a	0.0050537856
68	0xbe224e75	-0.15850241
69	0x3df77a82	0.120839134
70	0x3c49bd57	0.012313209
71	0x3e092c69	0.13395847
72	0x3e0b8337	0.13624273
73	0xbe8adb18	-0.2712028
74	0x3e80f587	0.25187322
75	0x3e717d60	0.23582983
76	0x3de39b79	0.111136384
77	0xbe2c42ed	-0.16822405
78	0xbd797c2e	-0.060909443
79	0xbd49654d	-0.049168874
80	0xbdb8b941	-0.090197094
81	0x3e436843	0.19082741
82	0x3dc3d190	0.09561455
83	0x3e409b30	0.188092
84	0xbd4fc6fa	-0.05072687
85	0x3d8b6d0a	0.06807907
86	0x3e4f664e	0.2025387
87	0xbe168848	-0.14700425
88	0xbe5645c4	-0.20925051
89	0xbe61db3e	-0.2205629
90	0x3e48d201	0.1961136
91	0xbe85739f	-0.26064774
92	0xbe1d522e	-0.1536338
93	0x3da3cc0d	0.07997904
94	0x3dc90908	0.09816176
95	0x3e4799f7	0.19492327
96	0xbe745584	-0.23860747
97	0xbe57ea6f	-0.21085523
98	0x3d88dc2e	0.06682621
99	0x3e3f6b13	0.1869319
100	0x3e0cd19d	0.13751836
101	0x3caa8fea	0.020820577
102	0x3cf284b0	0.029604286
103	0x3e7c8d32	0.24663237
104	0xbe3caf22	-0.18426183
105	0xbe04bbca	-0.12962261
106	0x3e404c36	0.18779072
107	0xbe3c66e4	-0.18398625
108	0xbd88b168	-0.066744626
109	0x3e4f9640	0.2027216
110	0x3da921d5	0.08258406
111	0x3d457eaa	0.0482165
112	0xbd901488	-0.07035166
113	0x3c37b1af	0.011211797
114	0x3e84103f	0.25793645
115	0xbe05c059	-0.13061656
116	0x3c2041a5	0.009781276
117	0x3e432e41	0.19060613
118	0xbe15d5b4	-0.14632303
119	0x3e4b9837	0.19882284
120	0xbdfbef25	-0.123014726
121	0xbe0d21af	-0.1378238
122	0xbda0d9b0	-0.078540206
123	0xbe143417	-0.14472996
124	0xbe791334	-0.24323732
125	0x3e19ebc7	0.15031348
126	0x3d0b780f	0.034050044
127	0xbe4f19b3	-0.20224647
128	0xbe09436d	-0.13404627
129	0x3e37bc6e	0.17942974
130	0x3d9e6eba	0.07735963
131	0x3e0d96a5	0.13826998
132	0xbd744e03	-0.05964471
133	0xbdadd90d	-0.08488665
134	0xba3392e0	-0.0006850194
135	0xbd8bcee5	-0.068265714
136	0xbe536928	-0.20645583
137	0x3de66810	0.11250317
138	0xbca1a3b5	-0.019731382
139	0xbc7be034	-0.015373278
140	0x3e093c28	0.13401854
141	0xbd49b732	-0.049246974
142	0x3e39588d	0.18100186
143	0x3d851f70	0.06500137
144	0xbe49527c	-0.19660372
145	0xbe762eea	-0.24041334
146	0x3e1f0d8a	0.15532508
147	0x3d36ae4e	0.044599824
148	0xbdb995a0	-0.09061742
149	0x3ea697a4	0.32537568
150	0xbd7cd20c	-0.061723754
151	0x3de520f5	0.11187927
152	0x3d333a68	0.043756872
153	0xbe5c9545	-0.21541317
154	0x3e2c5f9d	0.16833349
155	0xbe5cfaaa	-0.21579996
156	0xbe2bebf0	-0.16789222
157	0xbdc8e80e	-0.09809886
158	0xbe67fe57	-0.22655617
159	0x3e6568e0	0.22403288
160	0xbcaaabcd	-0.020833874
161	0x3d94d35a	0.072668746
162	0xbe508890	-0.20364594
163	0x3e188d7e	0.14897725
164	0xbd3c9c7c	-0.046047673
165	0xbe2c3b93	-0.16819601
166	0x3da88a4f	0.08229505
167	0x3e02b320	0.12763643
168	0x3e6f61c2	0.23377135
169	0xbdaa6029	-0.08319122
170	0xbe26d3a0	-0.16291666
171	0xbcea4b6e	-0.02860042
172	0x3dc89b9f	0.09795307
173	0x3d8f76ed	0.07005105
174	0x3e4c626d	0.19959421
175	0xbd8d7317	-0.06906717
176	0x3e02ca12	0.12772396
177	0x3e32c6bd	0.17458625
178	0xbd837c0c	-0.064201444
179	0x3e1ba4bf	0.15199564
180	0x3dad662b	0.084667526
181	0x3e88d224	0.26722825
182	0xbe2a2b2f	-0.16618036
183	0xbe0f5144	-0.13995844
184	0xbde33b4c	-0.11095294
185	0xbd46de85	-0.048552055
186	0x3e11ad03	0.14226155
187	0xbdaed3bc	-0.08536479
188	0x3da8ecc3	0.08248284
189	0xbd931bf1	-0.07183064
190	0x3e2264f4	0.15858823
191	0x3b3e67b6	0.0029053516
192	0xbe62f993	-0.22165518
193	0xbe1254c5	-0.1429015
194	0xbe951671	-0.29118684
195	0x3e11ba0b	0.14231126
196	0xbe19a903	-0.15005879
197	0xbccf29fe	-0.025288578
198	0x3de0cdb7	0.10976737
199	0xbe0e8e70	-0.13921523
200	0x3d4faefc	0.050703987
201	0xbe540b63	-0.20707469
202	0xbd80e7c3	-0.06294205
203	0xbea51643	-0.32243547
204	0xbd841296	-0.064488575
205	0xbd17c9f8	-0.037057847
206	0xbc487f1e	-0.012237338
207	0x3ae4df97	0.0017461654
208	0x3dea5ba0	0.11443257
209	0x3e418b28	0.1890074
210	0x3dde7dea	0.1086386
211	0xbe3e5cc5	-0.18590076
212	0xbe5fc754	-0.21853381
213	0x3cde62d0	0.027146727
214	0xbdc68f4a	-0.09695299
215	0x3e06f950	0.13181043
216	0x3e24e295	0.16102059
217	0x3dd20b71	0.102560885
218	0x3e65862f	0.22414468
219	0x3e5dea94	0.21671516
220	0x3d80d8f3	0.0629138
221	0xbe4e04a0	-0.20118952
222	0x3e605a57	0.21909462
223	0xbe32a031	-0.1744392
224	0xbe29315c	-0.16522735
225	0x3e362cc5	0.17790516
226	0x3e44352e	0.19160911
227	0x3d93d4b8	0.07218307
228	0x3da7f97d	0.08201883
229	0xbe429196	-0.19000849
230	0xbd433529	-0.04765812
231	0x3e5e068f	0.2168219
232	0xbcfe236b	-0.031022748
233	0x3c281a4c	0.010260176
234	0xbdecaf49	-0.115568705
235	0xbdacf346	-0.08444838
236	0x3e4f6c59	0.20256175
237	0x3d15723c	0.036485896
238	0x3deb8195	0.11499325
239	0xbe34cddb	-0.17656653
240	0x3d579217	0.052629557
241	0x3d93967b	0.07206436
242	0xbba1b62c	-0.0049350467
243	0x3e252916	0.16128954
244	0x3e42b498	0.19014204
245	0x3e45926b	0.19294135
246	0x3e7b1e8d	0.24523373
247	0xbd86664c	-0.0656248
248	0xbe6e3ec2	-0.23266128
249	0x3d9198a4	0.07109192
250	0x3c9c351d	0.019068295
251	0xbddcfcf3	-0.10790434
252	0xbc3c7b23	-0.011503967
253	0x3b9bec7c	0.0047584157
254	0x3e4eb999	0.20187987
255	0x3d7efda2	0.0622536

_network.9.bias f4 [16]
0	0xbdb54ab0	-0.08852136
1	0xbdd242c3	-0.1026664
2	0xbd7dbd23	-0.061947953
3	0xbdc60eb8	-0.09670776
4	0x3e6646ff	0.2248802
5	0x3e079704	0.13241202
6	0x3e677f09	0.22607054
7	0x3a867892	0.0010259321
8	0x3d502aeb	0.05082218
9	0x3db1bfb9	0.08679146
10	0xbe72640b	-0.23670976
11	0x3cb76f24	0.022391863
12	0xbc881fcb	-0.016616723
13	0xbe0f7694	-0.14010078
14	0xbe46a3b3	-0.19398384
15	0x3e62f398	0.22163236

_network.10.weight f4 [16]
0	0x3f7d8b5f	0.9904079
1	0x3f7d68c0	0.9898796
2	0x3f818e8b	1.0121626
3	0x3f7c7ead	0.9863079
4	0x3f6e9715	0.9319928
5	0x3f87c182	1.0605929
6	0x3f84500f	1.0336932
7	0x3f68c536	0.9092592
8	0x3f8270fb	1.0190729
9	0x3f84ddce	1.038019
10	0x3f825633	1.0182556
11	0x3f829c75	1.0203997
12	0x3f6e5ac1	0.9310723
13	0x3f7f5a78	0.9974742
14	0x3f71bb98	0.9442687
15	0x3f832f60	1.0248833

_network.10.bias f4 [16]
0	0xbd7fc6c6	-0.062445424
1	0xbc82fd8c	-0.015990041
2	0x3cf7d88c	0.030254625
3	0x3d979ff2	0.07403554
4	0xbd972775	-0.07380573
5	0x3d816cb9	0.06319565
6	0x3da2ef90	0.07955849
7	0xbe1d1f7f	-0.15344046
8	0xbd27c8ad	-0.040962864
9	0xbdc237b1	-0.094832785
10	0x3dea0795	0.114272274
11	0x3e1a2d4c	0.15056342
12	0x3d1c9029	0.03822342
13	0xbcbcbbdc	-0.023038797
14	0x3ca3933c	0.019967668
15	0x3e0adaad	0.1355998

_network.10.running_mean f4 [16]
0	0xbc519412	-0.01279165
1	0xbe7bd005	-0.24591072
2	0x3c2f6ef0	0.010707602
3	0x3e9205cf	0.28520057
4	0x3ea2a4bd	0.3176631
5	0x3e196a53	0.14981966
6	0x3e9325ac	0.2873968
7	0xbe2dee80	-0.16985512
8	0x3e15471c	0.14577907
9	0xbe05cc81	-0.13066293
10	0xbe131ad7	-0.14365707
11	0x3e3ea2fb	0.1861686
12	0xbf17a995	-0.59243137
13	0x3e08862d	0.13332434
14	0xbd7d6e83	-0.06187297
15	0x3f0d77c7	0.5526089

_network.10.running_var f4 [16]
0	0x3d3975aa	0.04527823
1	0x3daaf9ed	0.08348451
2	0x3db376f6	0.087629244
3	0x3de6cce7	0.11269551
4	0x3e4ee733	0.20205383
5	0x3eb98320	0.36232853
6	0x3df0d59f	0.11759495
7	0x3d39cbd1	0.04536039
8	0x3d2f9b2e	0.0428726
9	0x3eafa2ef	0.34303996
10	0x3e4df150	0.20111585
11	0x3dc0a932	0.094072714
12	0x3e393e5b	0.18090193
13	0x3db666fa	0.0890636
14	0x3e3c46a6	0.18386325
15	0x3e0ec26f	0.13941358

_network.12.weight f4 [16, 16]
0	0x3e190d3f	0.14946459
1	0x3de62434	0.11237374
2	0x3e7711d8	0.241279
3	0xbdd3cf92	-0.10342325
4	0xbd340b1a	-0.0439559
5	0x3daeea9b	0.08540841
6	0xbc96f527	-0.018427445
7	0xbb072157	-0.0020619237
8	0xbe805bd3	-0.25070056
9	0x3dc4dd04	0.09612468
10	0xbe3f638a	-0.18690315
11	0xbd54f054	-0.051987007
12	0x3e797e06	0.2436448
13	0xbddf9861	-0.10917736
14	0xbdbdd703	-0.09269526
15	0x3d7584f3	0.059941243
16	0xbde6567a	-0.11246963
17	0x3d36951d	0.0445758
18	0x3e5221bf	0.20520686
19	0xbe0959de	-0.13413188
20	0xbe08ddca	-0.13365856
21	0xbe0a1f10	-0.13488412
22	0xbdca23c3	-0.09870102
23	0xbe2263f0	-0.15858436
24	0x3c028142	0.007965388
25	0x3e3c2681	0.18374063
26	0xbcc6c44f	-0.02426353
27	0xbd7b40f4	-0.06134124
28	0xbe03e6ff	-0.12881087
29	0xbdd6e0bb	-0.10492083
30	0xbdaa4f7d	-0.083159424
31	0xbe841069	-0.2579377
32	0xbe3d9bbc	-0.18516439
33	0x3df076ba	0.11741395
34	0xbe58c2d4	-0.21168071
35	0xbe5cc6dc	-0.21560234
36	0xbe0b27f5	-0.13589461
37	0x3d9097c2	0.070601955
38	0xbda9d2b4	-0.082921416
39	0xbde362d3	-0.111028336
40	0x3e77391f	0.24142884
41	0x3d19f7d2	0.037589855
42	0x3e23d433	0.15998916
43	0xbea0cf65	-0.3140823
44	0xbdc2bbab	-0.09508451
45	0xbd3593c4	-0.044330373
46	0x3e01176a	0.12606588
47	0x3d953ce6	0.07287006
48	0xbe57cb0b	-0.21073548
49	0xbe162637	-0.14663015
50	0xbe365561	-0.17806007
51	0xbd53ae18	-0.0516797
52	0xbdf1ce1f	-0.118068926
53	0x3e7d3142	0.24725822
54	0x3d48dcdc	0.049038753
55	0xbb42aff9	-0.0029706939
56	0xbcdfdfd0	-0.027328402
57	0xbd7de4dc	-0.061985835
58	0x3d84e8d2	0.064897195
59	0x3d396a53	0.045267414
60	0x3ddddae7	0.10832768
61	0xbdead5f8	-0.114665926
62	0x3e5b2bcd	0.21403427
63	0xbcb74e38	-0.022376165
64	0xbda931e1	-0.08261467
65	0x3e36565c	0.17806381
66	0x3e6edd23	0.23326544
67	0x3e53c5c8	0.20680916
68	0x3c65af76	0.014018884
69	0xbd93fafe	-0.07225607
70	0x3e28a865	0.16470487
71	0x3e4f400d	0.20239277
72	0xbe81ae5f	-0.25328347
73	0xbd084bc2	-0.033275373
74	0xbe162680	-0.14663124
75	0x3d7d5f4d	0.061858464
76	0x3dea903b	0.11453291
77	0xbd455bce	-0.048183255
78	0xbca5e21a	-0.020249415
79	0x3de7f415	0.11325852
80	0xbdb0a273	-0.08624735
81	0xbe7e524f	-0.24836086
82	0x3e3c061b	0.18361704
83	0xbe132b07	-0.14371882
84	0xbd489ae8	-0.048975855
85	0x3d8561ec	0.06512818
86	0x3a951546	0.0011374138
87	0xbea04654	-0.31303656
88	0x3d2f482c	0.042793438
89	0xbd38d3e4	-0.04512395
90	0xbdcb9f2f	-0.09942471
91	0x3e26c856	0.1628736
92	0xbd2237c2	-0.039603956
93	0xbe0c5fdb	-0.13708441
94	0xbdb85ecb	-0.09002455
95	0xbdf79ac2	-0.120900646
96	0xbcae997f	-0.021313427
97	0xba015f06	-0.0004935119
98	0x3df4b3d5	0.11948363
99	0xbe6af4f7	-0.22945009
100	0xbdbf4fc5	-0.09341387
101	0x3da4a4ab	0.080392204
102	0x3d312a4e	0.043253236
103	0x3da56b79	0.080771394
104	0xbe4561c6	-0.19275579
105	0x3de6cdd1	0.11269725
106	0x3e251470	0.16121078
107	0x3e3c3924	0.18381172
108	0xbe2bfb69	-0.16795124
109	0xbd710c14	-0.05884941
110	0xbe35ed39	-0.17766275
111	0xbdf7a2f3	-0.12091627
112	0x3e3fd6df	0.1873431
113	0xbd9f59b2	-0.0778078
114	0x3e20b9de	0.15695903
115	0xbde00d9f	-0.10940098
116	0xbd039970	-0.03212875
117	0xbe1f196f	-0.15537046
118	0x3e00b0d5	0.12567456
119	0xbdcc67a1	-0.09980703
120	0xbd875b00	-0.06609154
121	0xbe87ef7c	-0.265499
122	0x3cbc967a	0.023020972
123	0x3e4f7d50	0.20262647
124	0x3d97bf35	0.07409517
125	0xbe0581ee	-0.13037845
126	0x3c6fe29d	0.014641431
127	0xbb5d56a5	-0.0033773568
128	0xbe5fa8de	-0.21841761
129	0x3e5051f0	0.20343757
130	0x3d1d562a	0.03841225
131	0x3dd70104	0.104982406
132	0xbe0bd2e6	-0.1365467
133	0xbe02d43c	-0.12776273
134	0x3d8f9072	0.07009973
135	0xbd9acd31	-0.075586684
136	0x3b8d09a7	0.004304129
137	0xbe3f6aba	-0.18693057
138	0x3e7212c1	0.23639967
139	0xbdd745b0	-0.10511339
140	0xbe0b5a74	-0.13608724
141	0xbdb4c7ce	-0.08827172
142	0x3e371546	0.17879209
143	0xbc39622a	-0.011314908
144	0xbd837091	-0.06417955
145	0xbe0c6845	-0.1371165
146	0xbcb737c7	-0.022365464
147	0xbe5d3f1d	-0.21606107
148	0xbe41df92	-0.18932942
149	0x3e9130e5	0.28357616
150	0x3e22d04c	0.15899771
151	0x3e12086e	0.14261028
152	0xbe2ff9d9	-0.17185153
153	0x3e170439	0.14747705
154	0xbe3b0615	-0.18264039
155	0x3e1ce6cd	0.15322419
156	0x3e3a8ae6	0.18217048
157	0x3e6667f0	0.22500587
158	0x3dfcd990	0.12346184
159	0x3e2ecdb4	0.17070657
160	0xbcb1adc0	-0.021689296
161	0x3e07270f	0.13198493
162	0xbd7ce66e	-0.061743192
163	0x3e0406e0	0.12893248
164	0xbd8b7aa0	-0.06810498
165	0xbdcf0366	-0.1010807
166	0xbe591d89	-0.21202673
167	0xbd406ee8	-0.04698077
168	0xbe141ad5	-0.1446336
169	0xbd8d4f02	-0.06899835
170	0xbe708f01	-0.23492052
171	0xbe7532f7	-0.23945223
172	0xbbc53f2e	-0.0060194945
173	0x3e1c5dba	0.15270129
174	0x3e5068c5	0.20352466
175	0x3db69dbd	0.08916805
176	0xbe1f933e	-0.15583512
177	0xbe688801	-0.22708131
178	0x3d8dc22f	0.06921803
179	0x3e09dd4e	0.13463327
180	0xbe4cf53c	-0.20015424
181	0x3dedca53	0.11610856
182	0x3e86563d	0.2623767
183	0x3d42220f	0.047395762
184	0xbe00ad34	-0.12566072
185	0x3e539836	0.20663533
186	0x3dd12320	0.10211778
187	0x3e1fafbb	0.1559438
188	0xbda1d589	-0.07902057
189	0x3e00e23f	0.12586306
190	0xbe336d1d	-0.17522092
191	0x3e894918	0.2681358
192	0xbd813cf9	-0.06310458
193	0x3e2a4e33	0.16631393
194	0xbc2ebc32	-0.010664986
195	0x3ce7bb46	0.028287541
196	0xbd3f1b8c	-0.04665713
197	0x3dda551b	0.10660764
198	0xbdb3ebb8	-0.08785194
199	0xbe0a81c9	-0.13526072
200	0xbdfc3c92	-0.1231624
201	0x3e57cbd7	0.21073852
202	0xbde7f52a	-0.11326058
203	0x3db22677	0.08698743
204	0xbe264313	-0.16236524
205	0x3e2121e3	0.15735583
206	0x3dd1ef57	0.102507286
207	0x3e13f820	0.14450121
208	0xbde7dc9a	-0.11321373
209	0xbdf5903c	-0.11990401
210	0xbd31f499	-0.043446157
211	0xbe54aec8	-0.20769799
212	0x3e38e23c	0.18055052
213	0xbe826691	-0.25468877
214	0x3e24cb22	0.16093114
215	0x3e857158	0.26063037
216	0x3dd6782a	0.10472138
217	0x3de97657	0.11399525
218	0xbe4e41f4	-0.20142347
219	0x3e827a1a	0.2548378
220	0xbd9ee3d3	-0.07758298
221	0xbe886daf	-0.26646182
222	0x3e59c8c5	0.21267994
223	0xbe01f0ec	-0.1268956
224	0x3d10760e	0.035268836
225	0x3e4bf20b	0.19916551
226	0xbe2e7132	-0.17035368
227	0xbdfc8cdc	-0.12331554
228	0x3d22fe01	0.03979302
229	0x3d909a03	0.070606254
230	0x3e08ca2a	0.1335837
231	0xbe64bd59	-0.22337855
232	0x3db0f164	0.086397916
233	0xbdba4fbc	-0.090972394
234	0xbd5cfbe7	-0.05395117
235	0xbe3bc12d	-0.1833541
236	0x3e6b923a	0.23005
237	0x3db5aeda	0.08871241
238	0xbdd56678	-0.10419935
239	0x3e7816b2	0.24227408
240	0x3df02463	0.1172569
241	0xbd0338fe	-0.032036774
242	0xbdefdf2f	-0.11712491
243	0xbcfb956b	-0.030710896
244	0x3e8d59b6	0.27607507
245	0x3e49364b	0.19649617
246	0xbe3abfd9	-0.18237247
247	0x3e48bb40	0.1960268
248	0x3c8df46d	0.017328465
249	0x3e0cc516	0.13747057
250	0x3e21b22a	0.1579062
251	0x3e123108	0.14276516
252	0xbe1b1981	-0.15146448
253	0x3e79d229	0.24396576
254	0xbe45dbd4	-0.19322139
255	0x3d0af681	0.03392649

_network.12.bias f4 [16]
0	0xbe328c43	-0.17436318
1	0xbd60f1ee	-0.054918222
2	0xbc38ab74	-0.011271346
3	0xbcf66c24	-0.030080862
4	0xbd221de0	-0.039579272
5	0x3ca1d188	0.019753233
6	0x3e7c9562	0.2466636
7	0x3e14773c	0.1449861
8	0x3e0f1786	0.13973817
9	0x3dcd2488	0.100167334
10	0x3e460fc4	0.19341952
11	0xbc3f58d0	-0.011678889
12	0x3ca2a3e4	0.01985354
13	0x3d530c89	0.051525626
14	0xbe5f4bd3	-0.21806268
15	0xbe4e2d7f	-0.20134543

_network.13.weight f4 [16]
0	0x3f7f4236	0.99710405
1	0x3f81657c	1.0109096
2	0x3f856906	1.0422676
3	0x3f81f54d	1.0152985
4	0x3f78d2c6	0.97196615
5	0x3f842d58	1.0326338
6	0x3f7d043b	0.9883458
7	0x3f82e00f	1.0224627
8	0x3f7751a0	0.96608925
9	0x3f8474fc	1.0348201
10	0x3f7d06f9	0.98838764
11	0x3f766e69	0.9626222
12	0x3f819536	1.012366
13	0x3f7ffe53	0.9999744
14	0x3f8225bf	1.0167769
15	0x3f82d754	1.0221963

_network.13.bias f4 [16]
0	0xbcc07ba8	-0.023496464
1	0x3c2aea70	0.010431871
2	0xbcd69559	-0.026194261
3	0x3db10eee	0.08645426
4	0xbdffff2f	-0.12499844
5	0x3da04c0d	0.078270055
6	0xbc3af3c8	-0.011410661
7	0x3bd806d7	0.0065926122
8	0x3c31b0cf	0.010845377
9	0x3e146422	0.14491323
10	0x3c4187aa	0.01181213
11	0xbc869dc8	-0.016432658
12	0xbd054b79	-0.03254268
13	0x3d1405bf	0.036138292
14	0x3d088ae9	0.0333356
15	0xbc265121	-0.010151179

_network.13.running_mean f4 [16]
0	0xbdfb163b	-0.122600995
1	0xbeecb0a3	-0.46228513
2	0xbe6f372f	-0.23360895
3	0xbd7a0486	-0.06103947
4	0x3e557b4d	0.20847817
5	0xbe8d586f	-0.27606532
6	0x3e14603f	0.1448984
7	0x3defbcaf	0.117059104
8	0x3d713ea3	0.058897626
9	0x3eba2af0	0.36360884
10	0xbd57c2d7	-0.052676048
11	0x3e8a221a	0.26979142
12	0x3e026f3f	0.1273775
13	0xbd1b8845	-0.037971754
14	0xbdf1709c	-0.11789057
15	0x3db56123	0.08856418

_network.13.running_var f4 [16]
0	0x3e195d00	0.14976883
1	0x3dcf4980	0.10121441
2	0x3e11ea34	0.14249498
3	0x3db36a7c	0.08760545
4	0x3db55c23	0.08855464
5	0x3d482430	0.048862636
6	0x3daff7d9	0.08592195
7	0x3d861322	0.06546618
8	0x3e8a552d	0.2701811
9	0x3e971324	0.2950679
10	0x3e3632c1	0.17792799
11	0x3e529074	0.20562917
12	0x3dd1c77b	0.10243126
13	0x3de9cbe5	0.11415843
14	0x3e2bb2e7	0.16767465
15	0x3e3217f7	0.17391954

_network.15.weight f4 [16, 16]
0	0x3d47a9da	0.048745967
1	0xbdb65083	-0.08902075
2	0xbc665434	-0.0140581615
3	0x3d5100a5	0.051026005
4	0x3cc020fe	0.023453232
5	0x3e05c643	0.13063912
6	0xbdb6d6bd	-0.08927677
7	0x3e8400b7	0.25781795
8	0x3e6cf767	0.23141252
9	0xbe0fb650	-0.1403439
10	0xbe534a8b	-0.20633905
11	0xbe07ff60	-0.13281012
12	0xbdd25fdb	-0.10272189
13	0xbde759cf	-0.112964265
14	0x3d04604a	0.03231839
15	0xbddb7c5b	-0.10717078
16	0xbdad31ec	-0.084567875
17	0xbe079728	-0.13241255
18	0xbe0cc3a4	-0.13746506
19	0x3e65040a	0.22364822
20	0xbe28048e	-0.16407987
21	0xbe85a712	-0.26104027
22	0x3e340604	0.1758042
23	0xbc968689	-0.018374698
24	0x3e094597	0.13405453
25	0x3e45ed3c	0.19328779
26	0x3e5b9873	0.21444874
27	0xbe1a5e5d	-0.15075059
28	0x3e39c45c	0.18141311
29	0x3e59b701	0.21261217
30	0xbe012562	-0.12611917
31	0x3e7f0307	0.24903499
32	0x3e33009a	0.17480698
33	0x3bf65d19	0.0075184223
34	0x3e2e61a6	0.17029437
35	0xbdeac976	-0.11464207
36	0xbe5edfb8	-0.2176503
37	0x3d90a3af	0.0706247
38	0x3cfb2fc0	0.030662417
39	0xbe43790b	-0.19089143
40	0x3ca20376	0.01977704
41	0xbe630003	-0.22167973
42	0x3e3d2620	0.18471575
43	0x3e3f359b	0.18672793
44	0x3d5081e3	0.05090512
45	0xbdb2340a	-0.08701332
46	0x3e81ca06	0.25349444
47	0x3cc29aca	0.02375545
48	0x3d81f668	0.063458264
49	0x3dabfee6	0.083982274
50	0x3e3ebeca	0.18627468
51	0xbd209f0c	-0.03921418
52	0xbd953c69	-0.07286913
53	0x3dda8b34	0.10671082
54	0x3d859998	0.06523436
55	0x3e5d6a25	0.21622522
56	0xbe46f573	-0.19429569
57	0xbd25a053	-0.0404361
58	0x3ce2c02d	0.027679527
59	0xbdb4d10f	-0.08828937
60	0x3e1385b6	0.14406475
61	0x3b790196	0.003799533
62	0xbe141feb	-0.144653
63	0xbd2f725f	-0.042833682
64	0xbd775328	-0.06038204
65	0x3d7517b7	0.05983707
66	0xbe035257	-0.12824379
67	0xbe931d36	-0.28733224
68	0xbd2e3ffa	-0.04254148
69	0x3c9dcb6b	0.019262036
70	0xbc593cfe	-0.013259171
71	0x3e5b5dfe	0.21422574
72	0xbe6b3be5	-0.22972067
73	0x3df99fc7	0.12188678
74	0x3d323de5	0.04351606
75	0xbe6ec830	-0.23318553
76	0xbc2e5325	-0.01063994
77	0x3e14d6a3	0.14535002
78	0xbe1cf87d	-0.15329166
79	0xbe8d4230	-0.2758956
80	0x3eaae0e6	0.3337471
81	0x3e242ee8	0.16033518
82	0xbe174964	-0.1477409
83	0x3e2ee120	0.17078066
84	0x3d578ea4	0.052626267
85	0xbe90ef97	-0.28307793
86	0x3cb31184	0.021858938
87	0x3cdf0401	0.027223589
88	0xbd4c471d	-0.049872506
89	0x3e19a0bc	0.15002722
90	0xbe3eb70c	-0.18624514
91	0x3e14cf42	0.14532188
92	0x3e60b7d9	0.21945132
93	0x3d9c0c6d	0.076195575
94	0x3cd13d6f	0.02554199
95	0x3db396ae	0.08768974
96	0xbe2c341c	-0.16816753
97	0xbc50e627	-0.012750185
98	0xbc84aaf4	-0.016194798
99	0xbddabec0	-0.10680914
100	0xbe51ce53	-0.20488863
101	0x3e72799f	0.23679207
102	0x3e2fa4e3	0.17152743
103	0xbdf60e74	-0.120144755
104	0x3e11b11d	0.1422772
105	0x3dfeda1d	0.124439456
106	0x3e5fe13c	0.21863264
107	0x3e574f5f	0.21026371
108	0x3e4dfe96	0.20116648
109	0xbd298184	-0.04138328
110	0x3e463c3e	0.19358918
111	0x3e5a4da0	0.21318674
112	0xbe6f1b2a	-0.23350206
113	0xbe548c26	-0.20756587
114	0x3d80ef9a	0.062957
115	0x3e2b5ff0	0.16735816
116	0xbd9e8acf	-0.077413194
117	0x3d170a4e	0.03687506
118	0xbcd5bd14	-0.026091136
119	0x3d0551b2	0.032548614
120	0xbde8341d	-0.11338065
121	0x3e110bec	0.14164704
122	0x3e709346	0.2349368
123	0xbe2c754b	-0.16841619
124	0x3d383b60	0.0449785
125	0xbcd0087a	-0.025394667
126	0x3d9aa549	0.07551057
127	0x3e638842	0.22219947
128	0x3d0504d3	0.032475304
129	0xbd08b893	-0.03337915
130	0x3e7535f6	0.23946366
131	0x3d4e41ec	0.050355837
132	0xbd0e19e2	-0.034692653
133	0x3c7e293d	0.015512762
134	0xbe49037c	-0.19630235
135	0x3d77f4d8	0.060536236
136	0xbdacc1f3	-0.084354304
137	0x3ceca4ab	0.028887114
138	0xbc9d123c	-0.019173734
139	0x3dbd35e9	0.09238798
140	0xbe84af04	-0.25914776
141	0xbe98240f	-0.2971501
142	0x3d968263	0.07349088
143	0x3e1adc60	0.15123129
144	0xbe96710a	-0.29383117
145	0x3d1d1a1b	0.038354974
146	0xbdb6b75a	-0.0892169
147	0x3c18d27c	0.009327527
148	0x3e35c923	0.17752509
149	0x3e33f1d0	0.17572713
150	0xbe8fdded	-0.28099003
151	0x3d656dda	0.056012966
152	0x3db9b12f	0.09066998
153	0xbdb27eeb	-0.08715614
154	0x3e968152	0.2939554
155	0xbe2e94b4	-0.17048913
156	0xbd4998e1	-0.049218062
157	0xbe3bbe2b	-0.18334262
158	0x3d0d4eed	0.034499098
159	0x3df042ad	0.117314674
160	0xbd791615	-0.060812075
161	0xbe3ba398	-0.18324125
162	0xbdb3fd08	-0.08788496
163	0x3df40a04	0.11915973
164	0xbe3cebd4	-0.18449336
165	0xbddc64a4	-0.10761383
166	0xbda37b81	-0.07982541
167	0xbe37dffd	-0.17956538
168	0x3db564d6	0.088571236
169	0x3ad89e4c	0.0016526668
170	0x3e22dc57	0.15904365
171	0x3bf484b6	0.0074621094
172	0xbe1b4904	-0.15164572
173	0x3e19032c	0.14942616
174	0x3db554b3	0.08854046
175	0xbdccdd86	-0.1000319
176	0xbdd37aad	-0.10326133
177	0xbdcd78fd	-0.10032842
178	0xbe8750e6	-0.26428908
179	0x3dec376d	0.11534009
180	0x3d9c19cb	0.07622107
181	0xbe292662	-0.16518548
182	0xbe54e42c	-0.20790166
183	0xbde34cb4	-0.11098614
184	0x3e4bd768	0.1990639
185	0x3e74ffe1	0.23925735
186	0xbc988438	-0.018617734
187	0x3e784e1a	0.24248543
188	0xbdebf6aa	-0.11521657
189	0xbe6c9b92	-0.2310622
190	0x3dcf7be9	0.10131056
191	0x3d80b80e	0.06285106
192	0x3e8f25fa	0.2795866
193	0xbdc84f26	-0.09780721
194	0x3e634407	0.22193919
195	0x3e31a74a	0.17348972
196	0x3dfa14f1	0.122110255
197	0xbe8c8f10	-0.27452898
198	0x3d8c28d7	0.06843727
199	0xbe730187	-0.23731051
200	0x3e4948b7	0.19656645
201	0xbc85c179	-0.016327607
202	0xbe705e5e	-0.23473498
203	0x3a518287	0.00079921674
204	0xbdd34206	-0.10315327
205	0xbe5deb8a	-0.21671882
206	0xbd3c7e79	-0.04601905
207	0x3c2d9ddf	0.010596721
208	0x3e325d3e	0.17418382
209	0xbcccf3d5	-0.025018612
210	0x3df235b8	0.11826652
211	0x3cd2b59a	0.02572136
212	0x3b6d9afa	0.0036255703
213	0x3d646db7	0.055768695
214	0xbd881325	-0.066442765
215	0xbe017b25	-0.12644632
216	0xbe1a2386	-0.15052614
217	0xbe804519	-0.25052717
218	0xbe488a7d	-0.19584079
219	0xbc803d86	-0.015654337
220	0xbe778fe2	-0.2417598
221	0xbd993a4f	-0.074818246
222	0xbc217439	-0.00985437
223	0xbcb58586	-0.022158395
224	0xbe23cca0	-0.15996027
225	0xbc0ec3e0	-0.008713692
226	0x3d074a65	0.033029933
227	0x3dcbc2cd	0.09949265
228	0xbd81c51b	-0.06336423
229	0xbde4150d	-0.111368276
230	0xbdcbf7b5	-0.09959356
231	0x3cb5411f	0.022125779
232	0xbe0ec350	-0.13941693
233	0x3d287795	0.041129667
234	0xbd9e3e96	-0.07726781
235	0x3d97dc4c	0.07415065
236	0x3d52aa53	0.051431965
237	0x3e5654b3	0.20930748
238	0x3c7df76c	0.0155008845
239	0xbe36e418	-0.17860448
240	0x3e176257	0.14783607
241	0xbe632f67	-0.22186051
242	0xbdb3b82c	-0.08775362
243	0xbdcdfd8c	-0.10058126
244	0x3d0a15f9	0.03371236
245	0xbd342226	-0.04397788
246	0x3e882c71	0.26596406
247	0x3d6b989f	0.057518598
248	0x3ce3045e	0.027712043
249	0x3e9831fe	0.2972564
250	0xbe31070f	-0.17287849
251	0x3c94f87a	0.01818489
252	0x3e44a799	0.19204558
253	0x3e089c79	0.1334094
254	0xbdf28e61	-0.11843563
255	0x3ddb923f	0.107212536

_network.15.bias f4 [16]
0	0xbe123ce4	-0.1428104
1	0xbc1e39bc	-0.00965732
2	0xbd56243d	-0.052280653
3	0xbe55d367	-0.20881425
4	0xbe7422e1	-0.2384143
5	0xbe286ca7	-0.16447698
6	0x3de87ec6	0.11352305
7	0x3dea1b4e	0.11430989
8	0xbe5eadc7	-0.21745978
9	0xbdc022ab	-0.093816124
10	0x3b8ad1c4	0.004236432
11	0xbe5d0ae7	-0.2158619
12	0x3e104bd0	0.1409142
13	0x3e67b362	0.22627023
14	0x3d34c63e	0.04413437
15	0xbe3e2d9a	-0.18572083

_network.16.weight f4 [16]
0	0x3f81b444	1.0133138
1	0x3f818d39	1.0121223
2	0x3f78ee52	0.9723865
3	0x3f807619	1.003604
4	0x3f76a915	0.9635175
5	0x3f8162af	1.0108241
6	0x3f8be491	1.0929128
7	0x3f67750e	0.90412986
8	0x3f824cbf	1.0179671
9	0x3f4c8978	0.7989726
10	0x3f82a075	1.0205218
11	0x3f758570	0.95906734
12	0x3f6fe5d6	0.93710077
13	0x3f779a6b	0.9672
14	0x3f7f00ad	0.99610406
15	0x3f8b030b	1.0860304

_network.16.bias f4 [16]
0	0x3dbe40cd	0.092897035
1	0x3d6b90a0	0.057510972
2	0xbd3b3b7f	-0.045711037
3	0xbcf283e3	-0.029603904
4	0xbd7e047f	-0.062016007
5	0xbd27f927	-0.041009095
6	0xbd487986	-0.04894402
7	0x3d6a209b	0.05716
8	0x3d6bebe9	0.05759803
9	0xbe051355	-0.12995656
10	0x3d2bfc5d	0.04198872
11	0x3d1c13c5	0.03810479
12	0xbe2a9fd5	-0.16662534
13	0x3d6da0e0	0.05801475
14	0xbda08b7c	-0.078391045
15	0x3daaea6b	0.08345493

_network.16.running_mean f4 [16]
0	0xbe67f0e8	-0.22650492
1	0x3e46c9ea	0.19412962
2	0x3da6e17e	0.08148478
3	0xbdbf2827	-0.0933383
4	0xbf0f9cc7	-0.560986
5	0x3e03cce7	0.12871133
6	0x3f0c29a3	0.5475103
7	0x3e63915d	0.2222342
8	0xbe862be1	-0.26205352
9	0xbe142289	-0.14466299
10	0xbe3b19cd	-0.18271561
11	0xbea6ddd5	-0.3259112
12	0x3d46ac04	0.04850389
13	0xbdb3feaf	-0.087888114
14	0xbd7fa1ea	-0.062410273
15	0x3c57e77f	0.013177752

_network.16.running_var f4 [16]
0	0x3e740f89	0.23834051
1	0x3ea39683	0.3195077
2	0x3da0d8b1	0.078538306
3	0x3d837345	0.0641847
4	0x3e70c85e	0.23513934
5	0x3f0a9a87	0.5414204
6	0x3e27083d	0.16311736
7	0x3d9b9f21	0.07598711
8	0x3e56609d	0.20935293
9	0x3e9f3106	0.3109209
10	0x3de61d9a	0.11236115
11	0x3e4a3d3e	0.19749925
12	0x3e197339	0.1498536
13	0x3df8b97b	0.121447526
14	0x3d23b980	0.03997183
15	0x3f1fb2f8	0.6238246
