transformers/results/informer/month_01_January/informer_model_20251120_194709.pt (torch, 859750 bytes, 56 tensors)

input_embedding.weight f4 [36, 8]
-0.06614632 0.008898536 0.03199004 0.0023791504 0.00331714 0.03199004 0.00014351448 -0.056497384
0.021031614 0.008044765 -0.06344263 -0.03468629 -0.00989162 -0.06344263 -0.058555953 0.018132959
0.007126251 -0.006513067 0.0031805017 0.0012552897 -0.002688182 0.0031805017 -0.0013226193 0.006286994
0.011431136 -0.010427402 -0.0042505492 -0.00052777556 -0.0030896673 -0.0042505492 -0.011386902 0.010062758
0.006626138 -0.0061916444 -0.00081656803 -0.0019837513 -0.0040089088 -0.00081656803 -0.005855776 0.005759021
0.008522481 -0.008499342 -0.0020855467 -0.0009573886 -0.003926917 -0.0020855467 -0.008160263 0.007492257
0.0070822374 -0.009242934 -0.0019865294 -0.0039010984 -0.0048806635 -0.0019865294 -0.00966931 0.0061982265
0.0069148415 -0.006302624 -0.0022838742 -0.0023460665 -0.004288752 -0.0022838742 -0.0074580302 0.005985352
0.007682488 -0.010567 -0.0025305487 -0.0038577844 -0.005069592 -0.0025305487 -0.010967931 0.0067426017
0.006333423 -0.0066794627 -0.00053685333 -0.0027602396 -0.0038571558 -0.00053685333 -0.0062388293 0.005514948
-0.19264348 0.023150409 0.037736762 -0.00040498795 -0.0045470684 0.03771003 0.0010808633 -0.16724367
0.0065655266 -0.0067836763 0.00042132862 -0.002186056 -0.0028953243 0.00042132862 -0.004872839 0.0057844706
0.010542259 -0.015540623 -0.0038743867 -0.0035656367 -0.0051166 -0.0038743867 -0.013760923 0.009407198
0.006703428 -0.0065200576 0.0007374857 -0.0021090482 -0.002738895 0.0007374857 -0.0046299477 0.0058926526
0.013894122 -0.020937435 -0.004176966 -0.0044356673 -0.005111257 -0.004176966 -0.016416267 0.012534961
0.006675978 -0.0064243223 0.00084799825 -0.0021528576 -0.0026392112 0.00084799825 -0.0042565702 0.005856581
0.016769484 -0.021365128 -0.006410116 -0.004332869 -0.0039925217 -0.006410116 -0.018109815 0.015174534
0.006641512 -0.0065336027 0.0007744035 -0.0021424596 -0.0026433794 0.0007744035 -0.004342418 0.0058281245
-0.1683911 0.043507483 0.010529071 0.012407726 0.009287367 0.010464993 0.00212257 -0.14732036
0.0066468283 -0.0065979767 0.00068025786 -0.002188808 -0.0028240662 0.00068025786 -0.0043872846 0.0058369697
0.0209656 -0.019704837 -0.016096015 -0.006695071 -0.001986623 -0.016096015 -0.025150698 0.01895435
0.0066276914 -0.0063904026 0.0007674174 -0.002156541 -0.0027500573 0.0007674174 -0.004351494 0.0058132233
-0.30128872 0.045408323 0.0347173 0.0030604806 0.0062412308 0.033162177 -0.0023741657 -0.2306405
0.006700852 -0.006541918 0.0009057512 -0.002138635 -0.0026041733 0.0009057512 -0.0043059415 0.0058914
0.16497278 0.020579869 0.01489808 0.018708013 0.015653044 0.01496944 0.00061044435 0.12922455
0.006752655 -0.0064930855 0.0007866632 -0.0020718058 -0.0027157916 0.0007866632 -0.004284473 0.005936894
0.020432264 -0.018573375 -0.0051414156 -0.0003333378 -0.0005263721 -0.0051414156 -0.013720415 0.018496176
0.0066467286 -0.0064429855 0.00091277895 -0.002142852 -0.0027267858 0.00091277895 -0.004319355 0.0058313822
-0.024440335 0.0048633725 -0.003426154 -0.00029035416 -0.0011219606 -0.0043472857 -0.00067821203 0.0028551982
0.006651685 -0.0064943144 0.00079993595 -0.00210142 -0.0027428463 0.00079993595 -0.0042157895 0.005843603
0.025168337 -0.016523423 -0.024273403 -0.0080339 0.00037448565 -0.024273403 -0.02966916 0.022736376
0.006768706 -0.006380364 0.0008640409 -0.0020763846 -0.0026687938 0.0008640409 -0.0042760894 0.005955145
00000000: b977 87bd 2acb 113c fd07 033d 85eb 1b3b
00000010: 6064 593b fd07 033d 607c 1639 cd69 67bd
00000020: 7e4a ac3c 31ce 033c 36ee 81bd 3613 0ebd
00000030: 7610 22bc 36ee 81bd 5ed8 6fbd 928b 943c
00000040: 5383 e93b 916b d5bb f76f 503b 8888 a43a
00000050: 362c 30bb f76f 503b bd5b adba 2103 ce3b
00000060: a949 3b3c b2d7 2abc 3148 8bbb 6b5a 0aba
00000070: 047c 4abb 3148 8bbb 2190 3abc 44de 243c
00000080: 1320 d93b 47e3 cabb f40e 56ba d301 02bb
00000090: 2a5d 83bb f40e 56ba cfe1 bfbb 2bb6 bc3b
000000a0: e0a1 0b3c d340 0bbc abad 08bb 43f9 7aba
000000b0: 5ead 80bb abad 08bb a0b2 05bc 9b81 f53b
000000c0: 1d12 e83b ad6f 17bc 6f30 02bb 92a9 7fbb
000000d0: f9ed 9fbb 6f30 02bb 076c 1ebc 7e1a cb3b
000000e0: e595 e23b 3e86 cebb 0dad 15bb 77c0 19bb
000000f0: a988 8cbb 0dad 15bb 7e62 f4bb c620 c43b
00000100: 61bd fb3b 3621 2dbc 90d7 25bb e2d2 7cbb
00000110: d21e a6bb 90d7 25bb d6b2 33bc 0bf1 dc3b
00000120: 9a88 cf3b 65df dabb 9ebb 0cba 23e5 34bb
00000130: 56c8 7cbb 9ebb 0cba 186f ccbb bdb6 b43b
00000140: 5544 45be eda5 bd3c dd91 1a3d 9054 d4b9
00000150: 93ff 94bb d575 1a3d c1ab 8d3a ed41 2bbe
00000160: a123 d73b 9a49 debb c5e5 dc39 ef43 0fbb
00000170: 7bbf 3dbb c5e5 dc39 56ac 9fbb a88b bd3b
00000180: 70b9 2c3c 199e 7ebc 6ce9 7dbb 75ad 69bb
00000190: 27a9 a7bb 6ce9 7dbb 7f75 61bc a620 1a3c
000001a0: 6ea8 db3b 35a6 d5bb d453 413a f537 0abb
000001b0: 087f 33bb d453 413a d1b6 97bb 2717 c13b
000001c0: 2ca4 633c fc84 abbc eede 88bb 1359 91bb
000001d0: 557c a7bb eede 88bb 687b 86bc 705f 4d3c
000001e0: 2ac2 da3b 1f83 d2bb 334c 5e3a f516 0dbb
000001f0: 9ef6 2cbb 334c 5e3a b37a 8bbb 90e8 bf3b
00000200: 2860 893c ec05 afbc f30b d2bb bdfa 8dbb
00000210: b3d3 82bb f30b d2bb 095b 94bc 9c9e 783c
00000220: 0aa1 d93b d517 d6bb 5701 4b3a 8268 0cbb
00000230: 8c3c 2dbb 5701 4b3a d84a 8ebb daf9 be3b
00000240: b76e 2cbe e734 323d 2082 2c3c c649 4b3c
00000250: 0a2a 183c 5d75 2b3c d11a 0b3b 26db 16be
00000260: a3cd d93b d733 d8bb 5553 323a 1b72 0fbb
00000270: f813 39bb 5553 323a 36c3 8fbb 0d44 bf3b
00000280: 0dc0 ab3c 0a6c a1bc cadb 83bc 5362 dbbb
00000290: 0132 02bb cadb 83bc d608 cebc 2746 9b3c
000002a0: 1b2d d93b 9566 d1bb 832c 493a c154 0dbb
000002b0: 4e3a 34bb 832c 493a fa96 8ebb da7c be3b
000002c0: 8442 9abe 14fe 393d ba33 0e3d 5892 483b
000002d0: 3d83 cc3b 10d5 073d e497 1bbb 062d 6cbe
000002e0: d292 db3b 965d d6bb ef6f 6d3a 5728 0cbb
000002f0: c7aa 2abb ef6f 6d3a db18 8dbb a50c c13b
00000300: a0ee 283e 1d97 a83c 1417 743c 8c41 993c
00000310: d03a 803c 6242 753c 3a06 203a 7153 043e
00000320: 6045 dd3b f3c3 d4bb 1338 4e3a 22c7 07bb
00000330: 6cfb 31bb 1338 4e3a c464 8cbb 478a c23b
00000340: 9061 a73c 3127 98bc 5279 a8bb d8c3 aeb9
00000350: 3cfc 09ba 5279 a8bb 97cb 60bc 4b85 973c
00000360: cdcc d93b ae1f d3bb 8f47 6f3a 176f 0cbb
00000370: e0b3 32bb 8f47 6f3a 6089 8dbb 2e15 bf3b
00000380: 1937 c8bc ed5c 9f3b 5389 60bb ad3a 98b9
00000390: c00e 93ba ad73 8ebb 0aca 31ba 471e 3b3b
000003a0: 61f6 d93b 42ce d4bb cbb2 513a fab7 09bb
000003b0: 53c1 33bb cbb2 513a 9b24 8abb b27b bf3b
000003c0: d42d ce3c 215c 87bc 04d9 c6bc 9ea0 03bc
000003d0: 9d56 c439 04d9 c6bc bd0c f3bc a341 ba3c
000003e0: 05cc dd3b 5f12 d1bb ce80 623a f413 08bb
000003f0: eee6 2ebb ce80 623a 701e 8cbb 6123 c33b

input_embedding.bias f4 [36]
-0.10505805 0.008237413 -0.006267691 -0.0074765016 -0.007838513 -0.008224698 -0.011724391 -0.007872785
-0.0125754755 -0.008711267 -0.10327517 -0.007785377 -0.015388302 -0.007760658 -0.01872835 -0.007708463
-0.016193131 -0.007670366 -0.04617453 -0.007863386 -0.009637609 -0.0077044787 0.16983953 -0.007779553
-0.1325866 -0.0077009727 -0.008775079 -0.007801072 0.0034951956 -0.007778149 -0.0016899573 -0.0076074963
0.0010085697 -0.007856653 -0.0077505256 -0.01217923
00000000: ad28 d7bd 37f6 063c 3461 cdbb 71fd f4bb
00000010: 1b6d 00bc e2c0 06bc a917 40bc dbfc 00bc
00000020: 5e09 4ebc b4b9 0ebc ef81 d3bd 7a1c ffbb
00000030: 371f 7cbc 1e4d febb 326c 99bc 4697 fcbb
00000040: 75a7 84bc b257 fbbb 8121 3dbd 6ed5 00bc
00000050: 10e7 1dbc da75 fcbb 6aea 2d3e 9feb febb
00000060: c8c4 07be 7158 fcbb 59c5 0fbc 23a0 ffbb
00000070: a70f 653b d8df febb 8f81 ddba 4e48 f9bb
00000080: fc31 843a 31b9 00bc 1ff8 fdbb 658b 47bc

pos_encoder.pe f4 [1, 5000, 36]
0.0 1.0 0.0 1.0 0.0 1.0 0.0 1.0
0.0 1.0 0.0 1.0 0.0 1.0 0.0 1.0
0.0 1.0 0.0 1.0 0.0 1.0 0.0 1.0
0.0 1.0 0.0 1.0 0.0 1.0 0.0 1.0
0.0 1.0 0.0 1.0 0.84147096 0.54030234 0.56421673 0.82562673
0.3516952 0.93611455 0.21378069 0.9768817 0.1287962 0.9916711 0.07734904 0.9970041
0.04639924 0.99892294 0.02782201 0.99961287 0.016680235 0.9998609 0.009999838 0.99995
0.0059948075 0.99998206 0.0035938073 0.99999356 0.0021544343 0.9999977 0.0012915496 0.99999917
0.000774264 0.9999997 0.00046415895 0.9999999 0.00027825605 0.99999994 0.00016681016 1.0
0.9092974 -0.41614684 0.9316648 0.36331892 0.658454 0.752621 0.41767687 0.9085956
0.25544694 0.9668231 0.15423462 0.98803425 0.09269853 0.9956942 0.05562248 0.9984519
0.03335583 0.99944353 0.019998675 0.9998 0.0119894 0.9999281 0.007187568 0.9999742
0.0043088584 0.9999907 0.0025830972 0.99999666 0.0015485275 0.9999988 0.00092831784 0.9999996
0.0005565121 0.9999998 0.00033362032 0.99999994 0.14112 -0.9899925 0.974198 -0.22569513
0.8810815 0.4729644 0.60226107 0.7982992 0.3778425 0.9258699 0.23019603 0.9731443
0.13879815 0.9903207 0.08337989 0.99651784 0.05002214 0.9987481 0.029995512 0.99955004
0.017983561 0.9998383 0.010781236 0.9999419 0.0064632627 0.99997914 0.0038746402 0.9999925
0.00232279 0.9999973 0.0013924765 0.99999905 0.00083476806 0.99999964 0.00050043047 0.9999999
-0.7568025 -0.6536436 0.67698294 -0.7359987 0.99113256 0.13287666 0.75899875 0.65109205
0.49394402 0.8694937 0.30477816 0.9524234 0.18459877 0.98281395 0.11107274 0.99381226
0.06667453 0.9977748 0.039989352 0.9992001 0.023977075 0.9997125 0.014374765 0.9998967
0.008617637 0.99996287 0.005166177 0.99998665 0.0030970513 0.99999523 0.0018566349 0.9999983
0.001113024 0.9999994 0.0006672406 0.99999976 -0.9589243 0.2836622 0.14367247 -0.9896253
0.9745457 -0.22418885 0.8806429 0.47378063 0.6018175 0.79863364 0.3775341 0.9259957
0.23000178 0.9731902 0.1386796 0.9903373 0.08330838 0.9965238 0.04997919 0.99875027
0.029969728 0.9995508 0.017968109 0.99983853 0.010771971 0.999942 0.006457705 0.99997914
0.0038713105 0.9999925 0.0023207928 0.9999973 0.0013912797 0.99999905 0.0008340507 0.99999964
-0.2794155 0.96017027 -0.4397435 -0.8981234 0.8334404 -0.5526093 0.9615691 0.27456316
0.69966596 0.7144701 0.4480279 0.89401954 0.27490938 0.9614701 0.16617909 0.9860956
0.099919036 0.9949956 0.05996403 0.99820054 0.035961304 0.9993532 0.021561218 0.99976754
0.012926255 0.99991643 0.007749222 0.99996996 0.0046455674 0.9999892 0.0027849504 0.9999961
0.0016695355 0.9999986 0.0010008608 0.9999995 0.6569866 0.75390226 -0.8698001 -0.4934043
00000000: 0000 0000 0000 803f 0000 0000 0000 803f
00000010: 0000 0000 0000 803f 0000 0000 0000 803f
00000020: 0000 0000 0000 803f 0000 0000 0000 803f
00000030: 0000 0000 0000 803f 0000 0000 0000 803f
00000040: 0000 0000 0000 803f 0000 0000 0000 803f
00000050: 0000 0000 0000 803f 0000 0000 0000 803f
00000060: 0000 0000 0000 803f 0000 0000 0000 803f
00000070: 0000 0000 0000 803f 0000 0000 0000 803f
00000080: 0000 0000 0000 803f 0000 0000 0000 803f
00000090: a46a 573f 4151 0a3f 8270 103f 465c 533f
000000a0: 6511 b43e 34a5 6f3f 53e9 5a3e eb14 7a3f
000000b0: 27e3 033e 28de 7d3f 2c69 9e3d a93b 7f3f
000000c0: 210d 3e3d 6ab9 7f3f fcea e33c a1e6 7f3f
000000d0: fda4 883c e2f6 7f3f 5cd6 233c b9fc 7f3f
000000e0: 1770 c43b d3fe 7f3f 1586 6b3b 94ff 7f3f
000000f0: 6931 0d3b d9ff 7f3f 3749 a93a f2ff 7f3f
00000100: faf7 4a3a fbff 7f3f 5c5a f339 feff 7f3f
00000110: e5e2 9139 ffff 7f3f c3e9 2e39 0000 803f
00000120: b7c7 683f 3311 d5be 9681 6e3f f004 ba3e
00000130: 7190 283f c5ab 403f bed9 d53e b999 683f
00000140: f1c9 823e b881 773f aeef 1d3e d0ef 7c3f
00000150: bad8 bd3d d1e5 7e3f 66d4 633d 8b9a 7f3f
00000160: 1fa0 083d 88db 7f3f 43d4 a33c e5f2 7f3f
00000170: 306f 443c 4afb 7f3f b185 eb3b 4ffe 7f3f
00000180: 5331 8d3b 64ff 7f3f 2e49 293b c8ff 7f3f
00000190: f6f7 ca3a ecff 7f3f 5b5a 733a f9ff 7f3f
000001a0: e5e2 113a fdff 7f3f c3e9 ae39 ffff 7f3f
000001b0: c381 103e 2670 7dbf 0a65 793f a01c 67be
000001c0: 8f8e 613f 6428 f23e c82d 1a3f 565d 4c3f
000001d0: 9274 c13e cf05 6d3f 82b8 6b3e fc1f 793f
000001e0: 1a21 0e3e a885 7d3f 13c3 aa3d cb1b 7f3f
000001f0: 04e4 4c3d f5ad 7f3f 26b9 f53c 83e2 7f3f
00000200: 4352 933c 67f5 7f3f c8a3 303c 31fc 7f3f
00000210: c7c9 d33b a2fe 7f3f aded 7d3b 82ff 7f3f
00000220: f339 183b d3ff 7f3f c283 b63a f0ff 7f3f
00000230: 56d4 5a3a faff 7f3f 522f 033a feff 7f3f
00000240: cfbd 41bf 3055 27bf c14e 2d3f 696a 3cbf
00000250: ddba 7d3f d210 083e be4d 423f f8ad 263f
00000260: 3be6 fc3e 2497 5e3f e20b 9c3e 05d2 733f
00000270: 7607 3d3e b299 7b3f 1b7a e33d 7b6a 7e3f
00000280: a88c 883d 2b6e 7f3f e0cb 233d 94cb 7f3f
00000290: 926b c43c 29ed 7f3f 2284 6b3c 3bf9 7f3f
000002a0: fd30 0d3c 91fd 7f3f 0949 a93b 20ff 7f3f
000002b0: e6f7 4a3b b0ff 7f3f 545a f33a e3ff 7f3f
000002c0: e3e2 913a f6ff 7f3f c2e9 2e3a fcff 7f3f
000002d0: 107c 75bf 2c3c 913e e01e 133e 1558 7dbf
000002e0: d47b 793f c391 65be d071 613f 6093 f23e
000002f0: b610 1a3f 4173 4c3f 264c c13e 0e0e 6d3f
00000300: 9685 6b3e fe22 793f 0602 0e3e bf86 7d3f
00000310: 959d aa3d 2f1c 7f3f fbb6 4c3d 19ae 7f3f
00000320: 1383 f53c 90e2 7f3f db31 933c 6bf5 7f3f
00000330: ec7c 303c 33fc 7f3f 289b d33b a2fe 7f3f
00000340: d0b5 7d3b 82ff 7f3f 7118 183b d3ff 7f3f
00000350: 9a5b b63a f0ff 7f3f 32a4 5a3a faff 7f3f
00000360: 8c0f 8fbe b8cd 753f 0f26 e1be 6aeb 65bf
00000370: 5a5c 553f ce77 0dbf 6429 763f 8b93 8c3e
00000380: 4f1d 333f 83e7 363f ea63 e53e 77de 643f
00000390: ecc0 8c3e e822 763f da2a 2a3e c370 7c3f
000003a0: 5aa2 cc3d 08b8 7e3f d89c 753d 128a 7f3f
000003b0: 294c 133d 9cd5 7f3f 27a1 b03c c4f0 7f3f
000003c0: a5c8 533c 86fa 7f3f 30ed fd3b 08fe 7f3f
000003d0: d839 983b 4bff 7f3f b783 363b bfff 7f3f
000003e0: 51d4 da3a e9ff 7f3f 512f 833a f8ff 7f3f
000003f0: 4630 283f bdff 403f 38ab 5ebf 7d9f fcbe

encoder_layers.0.attention.query_projection.weight f4 [36, 36]
4.9408e-41 -4.911e-41 -5.0311e-41 -4.9886e-41 -4.9354e-41 -5.2861e-41 4.9715e-41 5.0024e-41
-5.4041e-41 -5.1175e-41 -5.0131e-41 -2.1305e-41 6.0902e-41 -3.6903e-41 -5.1007e-41 -5.1739e-41
-5.3206e-41 4.9333e-41 5.0022e-41 -4.9079e-41 2.5711e-41 5.0096e-41 4.9463e-41 -4.2964e-41
4.3302e-41 4.9533e-41 -4.985e-41 5.1234e-41 -4.9072e-41 -4.9529e-41 1.1945e-41 5.0458e-41
4.9193e-41 -4.1791e-41 -4.9466e-41 4.9188e-41 -4.9827e-41 4.9376e-41 4.9693e-41 -4.9411e-41
5.0003e-41 -4.9883e-41 4.9536e-41 -4.9955e-41 4.9617e-41 4.9883e-41 -4.905e-41 1.0796e-41
3.7237e-41 4.973e-41 -5.0133e-41 5.0382e-41 -1.6928e-41 -4.907e-41 -4.9574e-41 4.937e-41
-4.9492e-41 4.9509e-41 4.9396e-41 -4.9376e-41 5.4565e-41 -4.92e-41 -4.9585e-41 4.9762e-41
4.9155e-41 4.927e-41 4.9504e-41 -5.787e-41 -4.9379e-41 4.9686e-41 -4.9205e-41 4.9379e-41
4.982e-41 2.2358e-41 4.1216e-41 -4.9644e-41 4.9714e-41 5.3183e-41 5.0416e-41 -2.239e-41
-4.9672e-41 4.968e-41 4.9134e-41 5.047e-41 4.9526e-41 4.963e-41 -5.1254e-41 4.9682e-41
4.913e-41 4.9226e-41 4.9418e-41 4.9773e-41 -5.0689e-41 -4.9746e-41 -5.0862e-41 -4.9682e-41
-5.1139e-41 4.9331e-41 -4.9565e-41 4.9146e-41 2.8214e-41 4.9312e-41 5.1122e-41 4.982e-41
5.2424e-41 4.9532e-41 5.006e-41 4.9197e-41 5.0105e-41 6.2047e-41 -4.9875e-41 -5.0623e-41
-5.109e-41 4.9962e-41 -4.9462e-41 -5.0567e-41 5.0252e-41 -4.9261e-41 -5.1161e-41 3.581e-41
4.9547e-41 3.033e-41 5.0003e-41 -5.0047e-41 5.0466e-41 4.9201e-41 -4.9242e-41 4.9523e-41
-4.2877e-41 3.8159e-41 5.1002e-41 5.5362e-41 5.0346e-41 4.9697e-41 5.0061e-41 -4.9762e-41
5.5304e-41 4.9214e-41 5.1115e-41 -4.9647e-41 5.1785e-41 -4.9502e-41 -4.9658e-41 -4.9116e-41
3.0002e-41 -4.9819e-41 5.0797e-41 5.3367e-41 5.0678e-41 -5.1332e-41 5.0702e-41 -5.1608e-41
4.9617e-41 4.9351e-41 -5.1496e-41 1.5983e-41 6.2477e-41 5.0493e-41 5.0876e-41 -4.9631e-41
-5.2278e-41 -4.9277e-41 4.9823e-41 4.9712e-41 4.6372e-41 -4.962e-41 -5.0375e-41 -5.012e-41
4.9415e-41 5.0353e-41 -4.9146e-41 5.0047e-41 -5.2945e-41 4.9712e-41 -4.1923e-41 4.912e-41
5.5199e-41 -2.3124e-41 5.033e-41 -3.8226e-41 -4.971e-41 5.0255e-41 -2.622e-41 4.9446e-41
-4.9781e-41 -5.1304e-41 5.0193e-41 -4.9476e-41 -5.0406e-41 -5.0126e-41 -3.9014e-41 -4.9724e-41
-5.0814e-41 -4.9654e-41 4.9455e-41 -5.0789e-41 5.0417e-41 -4.9572e-41 -5.038e-41 -4.9673e-41
-4.3091e-41 -4.929e-41 5.0056e-41 -4.9341e-41 -3.9255e-41 4.9582e-41 -4.9216e-41 4.9837e-41
-5.1279e-41 -4.93e-41 -4.9876e-41 -5.0038e-41 4.9635e-41 -4.2503e-41 -4.9656e-41 -4.9557e-41
-4.9904e-41 5.093e-41 -1.1713e-41 4.6656e-41 4.9289e-41 -5.1478e-41 4.934e-41 -4.9617e-41
4.982e-41 -5.0085e-41 4.955e-41 -4.935e-41 5.096e-41 4.9103e-41 -2.3902e-41 -5.6262e-41
4.971e-41 4.9572e-41 5.0684e-41 4.9123e-41 4.992e-41 4.9188e-41 5.1386e-41 4.9146e-41
3.172e-41 4.9556e-41 4.9075e-41 4.9558e-41 -4.9582e-41 4.9418e-41 -4.9584e-41 -4.9118e-41
-4.6093e-41 4.9265e-41 4.9498e-41 4.943e-41 -4.9606e-41 5.0937e-41 5.0548e-41 -4.091e-41
00000000: bb89 0000 e688 0080 3f8c 0080 108b 0080
00000010: 9489 0080 5b93 0080 968a 0000 728b 0000
00000020: a596 0080 a88e 0080 bf8b 0080 643b 0080
00000030: c5a9 0000 df66 0080 308e 0080 3a90 0080
00000040: 5194 0080 8589 0000 718b 0000 d088 0080
00000050: ac47 0000 a68b 0000 e289 0000 c477 0080
00000060: b578 0000 148a 0000 f68a 0080 d28e 0000
00000070: cb88 0080 118a 0080 4c21 0000 a88c 0000
00000080: 2189 0000 7f74 0080 e489 0080 1e89 0000
00000090: e68a 0080 a489 0000 868a 0000 bd89 0080
000000a0: 638b 0000 0e8b 0080 168a 0000 418b 0080
000000b0: 508a 0000 0e8b 0000 bb88 0080 181e 0000
000000c0: cd67 0000 a18a 0000 c08b 0080 728c 0000
000000d0: 302f 0080 ca88 0080 318a 0080 a089 0000
000000e0: f789 0080 038a 0000 b289 0000 a489 0080
000000f0: 1b98 0000 2689 0080 398a 0080 b78a 0000
00000100: 0689 0000 5889 0000 ff89 0000 51a1 0080
00000110: a689 0080 818a 0000 2a89 0080 a689 0000
00000120: e18a 0000 533e 0000 e572 0000 638a 0080
00000130: 958a 0000 4194 0000 8a8c 0000 6a3e 0080
00000140: 778a 0080 7d8a 0000 f788 0000 b18c 0000
00000150: 0f8a 0000 598a 0000 e08e 0080 7e8a 0000
00000160: f488 0000 3989 0000 c289 0000 bf8a 0000
00000170: 4d8d 0080 ac8a 0080 c88d 0080 7e8a 0080
00000180: 8e8e 0080 8489 0000 2b8a 0080 0089 0000
00000190: a64e 0000 7689 0000 828e 0000 e18a 0000
000001a0: 2392 0000 138a 0000 8c8b 0000 2489 0000
000001b0: ac8b 0000 f6ac 0000 088b 0080 1e8d 0080
000001c0: 6b8e 0080 468b 0000 e189 0080 f68c 0080
000001d0: 158c 0000 5289 0080 9e8e 0080 d363 0000
000001e0: 1e8a 0000 8c54 0000 638b 0000 838b 0080
000001f0: ae8c 0000 2789 0000 4489 0080 0d8a 0000
00000200: 8677 0080 5f6a 0000 2c8e 0000 549a 0000
00000210: 588c 0000 898a 0000 8d8b 0000 b78a 0080
00000220: 2a9a 0000 3089 0000 7d8e 0000 658a 0080
00000230: 5b90 0000 fe89 0080 6d8a 0080 ea88 0080
00000240: a253 0000 e08a 0080 9a8d 0000 c494 0000
00000250: 458d 0000 188f 0080 568d 0000 dd8f 0080
00000260: 508a 0000 9289 0000 8d8f 0080 8e2c 0000
00000270: 29ae 0000 c18c 0000 d28d 0000 5a8a 0080
00000280: bb91 0080 5d89 0080 e38a 0000 948a 0000
00000290: 4481 0000 528a 0080 6d8c 0080 b78b 0080
000002a0: c089 0000 5d8c 0000 0089 0080 838b 0000
000002b0: 9793 0080 948a 0000 dd74 0080 ed88 0000
000002c0: df99 0000 7640 0080 4d8c 0000 8f6a 0080
000002d0: 928a 0080 178c 0000 1749 0080 d689 0000
000002e0: c58a 0080 048f 0080 eb8b 0000 eb89 0080
000002f0: 838c 0080 bb8b 0080 c16c 0080 9c8a 0080
00000300: a68d 0080 6a8a 0080 dc89 0000 948d 0080
00000310: 8b8c 0000 308a 0080 708c 0080 788a 0080
00000320: 1f78 0080 6789 0080 898b 0000 8b89 0080
00000330: 6d6d 0080 378a 0000 3289 0080 ed8a 0000
00000340: f28e 0080 6e89 0080 098b 0080 7c8b 0080
00000350: 5d8a 0000 7b76 0080 6c8a 0080 258a 0080
00000360: 1d8b 0080 f98d 0000 a720 0080 0f82 0000
00000370: 6689 0000 808f 0080 8a89 0000 508a 0080
00000380: e18a 0000 9e8b 0080 208a 0000 9189 0080
00000390: 0e8e 0000 e188 0000 a142 0080 d69c 0080
000003a0: 928a 0000 308a 0000 498d 0000 ef88 0000
000003b0: 288b 0000 1e89 0000 3e8f 0000 0089 0000
000003c0: 6c58 0000 248a 0000 cd88 0000 268a 0000
000003d0: 378a 0080 c289 0000 388a 0080 ec88 0080
000003e0: 7d80 0080 5589 0000 fb89 0000 ca89 0000
000003f0: 488a 0080 fe8d 0000 e88c 0000 0a72 0080

encoder_layers.0.attention.query_projection.bias f4 [36]
4.9162e-41 4.9561e-41 4.9762e-41 -4.9128e-41 -4.9634e-41 -6.1251e-41 4.9676e-41 4.9299e-41
4.9211e-41 -4.9673e-41 -4.9411e-41 4.9415e-41 -4.9519e-41 -4.9595e-41 4.9186e-41 4.9446e-41
-4.9556e-41 -5.0263e-41 -4.9987e-41 4.914e-41 5.0064e-41 5.0762e-41 4.9277e-41 4.962e-41
4.921e-41 4.9431e-41 -4.921e-41 3.1262e-41 4.9337e-41 4.9104e-41 4.9589e-41 -4.979e-41
-4.9712e-41 -4.9085e-41 -4.9585e-41 4.9452e-41
00000000: 0b89 0000 288a 0000 b78a 0000 f388 0080
00000010: 5c8a 0080 beaa 0080 7a8a 0000 6d89 0000
00000020: 2e89 0000 788a 0080 bd89 0080 c089 0000
00000030: 0a8a 0080 408a 0080 1c89 0000 d689 0000
00000040: 248a 0080 1d8c 0080 588b 0080 fb88 0000
00000050: 8f8b 0000 818d 0000 5d89 0000 528a 0000
00000060: 2d89 0000 cb89 0000 2d89 0080 2557 0000
00000070: 8889 0000 e288 0000 3c8a 0000 cb8a 0080
00000080: 948a 0080 d488 0080 398a 0080 da89 0000

encoder_layers.0.attention.key_projection.weight f4 [36, 36]
4.9382e-41 -4.9996e-41 -4.9386e-41 4.979e-41 4.958e-41 4.9651e-41 -5.036e-41 4.9474e-41
4.9076e-41 -4.9096e-41 -4.9955e-41 4.9683e-41 -5.1296e-41 5.032e-41 -4.9106e-41 -5.1635e-41
4.9679e-41 2.6798e-41 5.0869e-41 5.0465e-41 3.0031e-41 4.9665e-41 -5.0342e-41 -5.1477e-41
4.947e-41 5.2418e-41 -4.9281e-41 -1.325e-41 -4.9191e-41 -5.0354e-41 -4.9732e-41 -5.9587e-41
3.3553e-41 1.6455e-41 -3.5971e-41 4.9243e-41 -5.0437e-41 -5.6858e-41 -2.709e-41 5.0604e-41
-5.4338e-41 -4.9299e-41 -5.1796e-41 4.9904e-41 4.9198e-41 -5.0029e-41 -4.9572e-41 4.7078e-41
5.0937e-41 -4.9654e-41 -4.9666e-41 -5.1482e-41 -5.664e-41 4.9605e-41 -5.0206e-41 4.9746e-41
4.9068e-41 4.2368e-41 2.742e-41 3.571e-41 4.9427e-41 -5.3824e-41 -4.1903e-41 4.7465e-41
5.2787e-41 -5.0426e-41 3.8464e-41 -2.3903e-41 5.0517e-41 -4.9729e-41 1.6216e-41 4.9955e-41
-4.9694e-41 4.9529e-41 4.9446e-41 -4.9089e-41 -4.9452e-41 -4.9257e-41 -4.988e-41 4.9638e-41
4.996e-41 -4.9925e-41 4.9991e-41 4.9752e-41 4.9483e-41 5.1697e-41 -4.9752e-41 -5.0011e-41
3.7032e-41 4.9089e-41 4.9878e-41 5.0067e-41 5.3836e-41 5.0766e-41 -4.9644e-41 -4.9337e-41
5.0556e-41 5.0001e-41 -5.2959e-41 -6.0103e-41 -5.0136e-41 5.0318e-41 -4.9572e-41 4.9476e-41
5.0829e-41 3.1472e-41 -4.995e-41 5.2416e-41 6.0522e-41 -5.0635e-41 -4.9174e-41 -5.029e-41
-4.9728e-41 4.9218e-41 4.9721e-41 -4.9627e-41 4.9726e-41 5.0209e-41 4.909e-41 -4.9584e-41
-4.9047e-41 -4.9769e-41 4.1916e-41 -4.9977e-41 5.0372e-41 5.1247e-41 -4.9148e-41 5.1977e-41
2.7907e-41 4.9201e-41 -5.323e-41 4.9987e-41 -4.9316e-41 5.0109e-41 -5.016e-41 5.0263e-41
-4.9626e-41 -4.1476e-41 -5.0571e-41 5.0138e-41 -5.0681e-41 -4.9085e-41 -4.9778e-41 4.4892e-41
-4.9714e-41 -4.9086e-41 -4.9076e-41 -5.0677e-41 4.9633e-41 4.9167e-41 4.9816e-41 4.9268e-41
5.013e-41 -4.9582e-41 4.9549e-41 4.9048e-41 -5.1004e-41 -4.9686e-41 -5.1896e-41 4.9987e-41
-5.3877e-41 4.6691e-41 -4.9669e-41 3.7426e-41 -4.9131e-41 5.0494e-41 -4.9456e-41 4.9624e-41
5.7289e-41 -5.2287e-41 -5.0605e-41 -5.0506e-41 5.1164e-41 -4.9848e-41 -5.3688e-41 4.9127e-41
-5.3625e-41 -4.9121e-41 -5.0748e-41 -5.0968e-41 5.018e-41 -5.01e-41 -4.9309e-41 5.0217e-41
-4.9487e-41 4.9331e-41 4.9288e-41 4.9442e-41 -4.9711e-41 -5.0045e-41 4.9575e-41 -5.6229e-41
4.9449e-41 5.0744e-41 -5.1205e-41 4.9443e-41 5.04e-41 -5.0266e-41 -5.254e-41 5.0496e-41
-5.1318e-41 4.9682e-41 -3.9343e-41 -2.1584e-41 5.3052e-41 -4.9474e-41 5.0136e-41 4.9271e-41
-5.0507e-41 5.0591e-41 -5.1362e-41 4.9598e-41 4.9557e-41 4.9973e-41 -5.2183e-41 -5.0284e-41
4.85e-43 5.0136e-41 4.9253e-41 5.064e-41 -4.9223e-41 -4.9627e-41 -5.0633e-41 -5.5532e-41
5.0248e-41 4.911e-41 -4.9602e-41 5.1082e-41 5.0989e-41 5.7045e-41 5.1342e-41 -5.1407e-41
4.4182e-41 -4.9577e-41 4.713e-41 -4.9551e-41 4.9368e-41 -4.9732e-41 -5.5388e-41 5.0311e-41
-5.0015e-41 5.3748e-41 4.979e-41 5.087e-41 5.1957e-41 4.9704e-41 -3.6416e-41 -4.9872e-41
-4.9673e-41 5.0486e-41 -4.9144e-41 5.1444e-41 4.9345e-41 5.0485e-41 4.915e-41 4.961e-41
00000000: a889 0000 5e8b 0080 ab89 0080 cb8a 0000
00000010: 358a 0000 688a 0000 628c 0080 ea89 0000
00000020: ce88 0000 dc88 0080 418b 0080 7f8a 0000
00000030: fe8e 0080 468c 0000 e388 0080 f08f 0080
00000040: 7c8a 0000 b44a 0000 cd8d 0000 ad8c 0000
00000050: b753 0000 728a 0000 558c 0080 7f8f 0080
00000060: e789 0000 1f92 0000 6089 0080 f024 0080
00000070: 2089 0080 5e8c 0080 a28a 0080 1ba6 0080
00000080: 885d 0000 df2d 0000 4664 0080 4589 0000
00000090: 998c 0080 7f9e 0080 844b 0080 108d 0000
000000a0: 7997 0080 6d89 0080 6390 0080 1d8b 0000
000000b0: 2589 0000 768b 0080 308a 0080 3c83 0000
000000c0: fe8d 0000 6a8a 0080 738a 0080 838f 0080
000000d0: e49d 0080 478a 0000 f48b 0080 ac8a 0000
000000e0: c888 0000 1b76 0000 704c 0000 8c63 0000
000000f0: c889 0000 0a96 0080 cf74 0080 5084 0000
00000100: 2693 0000 918c 0080 396b 0000 a242 0080
00000110: d28c 0000 a08a 0080 342d 0000 418b 0000
00000120: 878a 0080 118a 0000 d689 0000 d788 0080
00000130: da89 0080 4f89 0080 0c8b 0080 5f8a 0000
00000140: 458b 0000 2c8b 0080 5b8b 0000 b08a 0000
00000150: f089 0000 1c90 0000 b08a 0080 698b 0080
00000160: 3b67 0000 d788 0000 0a8b 0000 918b 0000
00000170: 1396 0000 848d 0000 638a 0080 8889 0080
00000180: ee8c 0000 628b 0000 a193 0080 8ba7 0080
00000190: c28b 0080 448c 0000 308a 0080 eb89 0000
000001a0: b18d 0000 bb57 0000 3e8b 0080 1d92 0000
000001b0: b6a8 0000 268d 0080 1489 0080 308c 0080
000001c0: 9f8a 0080 3389 0000 9a8a 0000 578a 0080
000001d0: 9e8a 0000 f68b 0000 d888 0000 388a 0080
000001e0: b988 0080 bc8a 0080 d874 0000 518b 0080
000001f0: 6b8c 0000 db8e 0000 0189 0080 e490 0000
00000200: cb4d 0000 2789 0000 6294 0080 588b 0000
00000210: 7989 0080 af8b 0000 d38b 0080 1d8c 0000
00000220: 568a 0080 9e73 0080 f98c 0080 c48b 0000
00000230: 478d 0080 d488 0080 c38a 0080 247d 0000
00000240: 958a 0080 d588 0080 ce88 0080 448d 0080
00000250: 5b8a 0000 0f89 0000 de8a 0000 5789 0000
00000260: be8b 0000 378a 0080 1f8a 0000 ba88 0000
00000270: 2e8e 0080 818a 0080 aa90 0080 588b 0000
00000280: 3096 0080 2882 0000 758a 0080 5468 0000
00000290: f588 0080 c28c 0000 dd89 0080 558a 0000
000002a0: b39f 0000 c191 0080 118d 0080 ca8c 0080
000002b0: a08e 0000 f58a 0080 a995 0080 f288 0000
000002c0: 7c95 0080 ee88 0080 778d 0080 148e 0080
000002d0: e28b 0000 a98b 0080 7489 0080 fc8b 0000
000002e0: f389 0080 8489 0000 6589 0000 d389 0000
000002f0: 938a 0080 818b 0080 328a 0000 be9c 0080
00000300: d889 0000 748d 0000 bd8e 0080 d489 0000
00000310: 7f8c 0000 1f8c 0080 7692 0080 c38c 0000
00000320: 0e8f 0080 7e8a 0000 ac6d 0080 2b3c 0080
00000330: e393 0000 ea89 0080 c28b 0000 5989 0000
00000340: cb8c 0080 078d 0000 2d8f 0080 428a 0000
00000350: 258a 0000 4e8b 0000 7791 0080 2c8c 0080
00000360: 5a01 0000 c28b 0000 4c89 0000 2a8d 0000
00000370: 3789 0080 578a 0080 258d 0080 cd9a 0080
00000380: 128c 0000 e688 0000 458a 0080 658e 0000
00000390: 238e 0000 059f 0000 1f8f 0000 4d8f 0080
000003a0: 297b 0000 338a 0080 6183 0000 218a 0080
000003b0: 9e89 0000 a28a 0080 669a 0080 3f8c 0000
000003c0: 6c8b 0080 d495 0000 cb8a 0000 ce8d 0000
000003d0: d690 0000 8e8a 0000 8365 0080 068b 0080
000003e0: 788a 0080 bc8c 0000 fe88 0080 688f 0000
000003f0: 8e89 0000 bb8c 0000 0389 0000 4b8a 0000

encoder_layers.0.attention.key_projection.bias f4 [36]
4.9453e-41 1.9669e-41 -5.0241e-41 -5.3604e-41 -5.2798e-41 -1.1725e-41 -4.0789e-41 -5.6203e-41
-5.1468e-41 -1.464e-41 3.4497e-41 -4.315e-42 -5.0371e-41 -4.403e-41 5.053e-41 -4.9288e-41
5.0066e-41 -5.1911e-41 5.005e-41 5.0402e-41 -5.3387e-41 3.4293e-41 -5.031e-41 -5.3276e-41
-4.962e-41 5.1411e-41 -4.9958e-41 2.2208e-41 4.9516e-41 -5.5262e-41 5.3084e-41 -5.1118e-41
7.617e-42 -5.2669e-41 -4.9497e-41 -5.0092e-41
00000000: db89 0000 d436 0000 0d8c 0080 6d95 0080
00000010: 2e93 0080 af20 0080 b471 0080 ac9c 0080
00000020: 798f 0080 cf28 0080 2a60 0000 070c 0080
00000030: 6a8c 0080 bd7a 0080 db8c 0000 6589 0080
00000040: 908b 0000 b590 0080 858b 0000 808c 0000
00000050: d294 0080 985f 0000 3e8c 0080 8394 0080
00000060: 528a 0080 508f 0000 438b 0080 e83d 0000
00000070: 088a 0000 0c9a 0080 fa93 0000 7f8e 0080
00000080: 3c15 0000 d292 0080 fa89 0080 a38b 0080

encoder_layers.0.attention.value_projection.weight f4 [36, 36]
1.624781e-08 -1.141305e-08 -1.6935422e-08 -3.981358e-09 -2.2830331e-08 1.3471861e-08 -3.5296917e-08 -3.649563e-08
-1.728919e-08 -9.329694e-09 -2.2085267e-08 -3.2681218e-08 -4.0895514e-09 -4.282912e-08 -9.897024e-09 -2.6587625e-08
-8.7044985e-09 -1.9711539e-08 -1.0779315e-08 -2.5998498e-08 1.236863e-10 -1.899699e-08 -4.163964e-08 -1.9851928e-08
1.1561222e-08 -3.570027e-08 1.1665922e-09 -1.7583956e-08 -6.784549e-10 -2.6824187e-08 3.7643235e-09 -2.0021838e-08
2.115364e-10 -1.9493283e-08 2.7401836e-09 -1.7544277e-08 -7.186835e-08 7.345824e-08 4.890982e-08 6.153408e-09
4.8108664e-08 -4.2836614e-08 8.359905e-08 4.2335678e-08 4.3985054e-08 5.005189e-08 -6.4498242e-09 6.013255e-08
6.216404e-08 7.047711e-08 5.5244747e-08 5.8317756e-08 3.474591e-08 2.725317e-08 -6.897517e-08 6.841771e-08
2.0193784e-08 4.376846e-08 -7.375229e-08 5.9098127e-08 4.0225398e-08 6.241698e-08 1.2151366e-08 9.097842e-08
-3.83632e-09 4.8283038e-08 1.5666059e-08 6.7846685e-08 3.8247148e-09 3.1891375e-08 1.0620139e-08 3.8741238e-08
-7.292821e-08 3.899517e-08 -1.7217959e-08 -6.619829e-08 2.1297334e-08 -5.774462e-08 -6.5739385e-08 -5.255753e-09
-1.4284637e-07 -1.1982729e-07 -1.6973469e-07 -9.466524e-08 -4.0064343e-08 -1.1203307e-07 1.4740448e-08 -1.0788643e-07
-4.0847468e-09 -1.3168685e-07 -6.2756e-08 -1.2116703e-07 1.3651149e-09 -1.3684854e-07 -1.6125831e-07 -1.1571315e-07
6.2818586e-08 -9.926809e-08 2.164666e-08 -6.392557e-08 -8.736822e-09 -1.3545767e-07 3.6745934e-08 -1.00242325e-07
2.1284745e-09 -1.8037058e-07 2.7944216e-08 -1.4069659e-07 1.3790759e-07 -1.7564014e-07 -1.2277972e-07 1.0112094e-08
-1.7096767e-07 9.567098e-08 -2.656982e-07 -2.3177253e-07 -1.0733224e-07 -8.985784e-08 -4.1893195e-08 -2.169514e-07
-8.604716e-08 -2.6068966e-07 -1.014484e-07 -1.6291328e-07 -7.0360045e-08 -1.0533947e-07 4.6282306e-08 -1.8016392e-07
-2.7939409e-08 -1.1557233e-07 -6.500614e-08 -1.5075551e-07 -9.06011e-09 -2.1613947e-07 -1.4164089e-08 -1.9175712e-07
3.141202e-09 -1.4135686e-07 -1.4150544e-08 -1.7034758e-07 -4.6613464e-09 -8.927221e-08 -6.484348e-09 -8.903607e-08
5.4094096e-10 -1.4480491e-09 9.473755e-10 1.0858339e-09 -5.9590705e-10 -6.3626115e-10 1.9726245e-09 -1.2996331e-09
3.4854302e-09 2.400693e-09 3.891124e-09 3.0351124e-09 8.994832e-10 3.365254e-09 4.2719023e-10 3.1028795e-09
4.5012802e-10 3.411717e-09 1.8462379e-09 3.0631893e-09 -6.636027e-11 3.1035832e-09 4.5565094e-09 2.9998393e-09
-1.7673824e-09 3.2021101e-09 -5.8761024e-10 1.571044e-09 2.4613672e-10 3.115953e-09 -9.337358e-10 2.382601e-09
-8.383542e-11 4.3135757e-09 -7.428003e-10 3.934502e-09 -4.406305e-10 1.719869e-10 9.035378e-11 2.6118957e-10
-6.593958e-11 -1.6641483e-10 -2.34218e-10 -4.3351714e-10 -8.638647e-11 1.8789553e-10 -3.9820336e-10 -4.39318e-10
4.2597098e-10 -4.2947065e-10 3.3188696e-10 -6.794378e-11 1.9665189e-10 -2.2346053e-10 -8.550027e-10 -1.1267807e-10
1.1144537e-10 -6.3221574e-11 -1.4230728e-09 -1.047588e-10 6.246825e-10 -3.4563474e-10 1.1363076e-10 1.5745498e-10
-5.0410585e-11 -7.110905e-13 1.2456777e-10 -7.734932e-11 3.190112e-11 -1.6691011e-10 1.3066778e-10 -8.751891e-11
3.757136e-09 -3.8168473e-09 -1.9758954e-09 -9.142248e-10 -1.8398035e-09 1.9120685e-09 -1.868996e-09 -7.84554e-10
-2.809494e-10 -1.9053654e-09 2.3543139e-09 -4.2924032e-11 -3.8503987e-09 -8.4957014e-11 -3.207245e-09 -8.0079465e-10
-1.7757067e-09 4.5523318e-10 5.750942e-09 -1.1848569e-09 -1.027426e-09 -5.9035365e-10 8.524781e-09 -9.970359e-10
-4.0998165e-09 -1.4480793e-10 -1.0571581e-09 -3.2580627e-09 4.091397e-10 -9.921055e-10 -1.3877741e-09 -1.6612327e-09
-2.6818187e-10 7.7672757e-10 -1.1348057e-09 2.5981278e-10 2.188413e-08 -3.0759963e-08 3.9993214e-08 8.6939224e-08
00000000: 5091 8b32 2013 44b2 6379 91b2 65cc 88b1
00000010: 6e1c c4b2 df71 6732 5f99 17b3 5fbf 1cb3
00000020: 5583 94b2 6e48 20b2 04b6 bdb2 615d 0cb3
00000030: 1384 8cb1 1ef3 37b3 9207 2ab2 ce62 e4b2
00000040: ca8a 15b2 2252 a9b2 ee2f 39b2 4d53 dfb2
00000050: 99fe 072f d32e a3b2 45d7 32b3 da86 aab2
00000060: cb9e 4632 dd54 19b3 d055 a030 870b 97b2
00000070: 057e 3ab0 036b e6b2 5757 8131 7dfc abb2
00000080: 3496 682f 2f72 a7b2 d24d 3c31 46b4 96b2
00000090: 0b56 9ab3 18c0 9d33 ea10 5233 f36d d331
000000a0: 09a0 4e33 5bfb 37b3 1087 b333 92d4 3533
000000b0: 14ea 3c33 a3f8 5633 419d ddb1 3822 8133
000000c0: 0b7f 8533 3359 9733 3e46 6d33 0d79 7a33
000000d0: 883b 1533 5b1a ea32 801f 94b3 09ed 9233
000000e0: 9a76 ad32 eefb 3b33 c061 9eb3 14d3 7d33
000000f0: 4bc4 2c33 190a 8633 46c2 5032 ea5f c333
00000100: a1d0 83b1 c35f 4f33 0792 8632 1cb3 9133
00000110: 8c6a 8331 f0f8 0833 de73 3632 7164 2633
00000120: b59c 9cb3 a57b 2733 b1e6 93b2 e528 8eb3
00000130: 55f1 b632 e202 78b3 9c2c 8db3 1896 b4b1
00000140: 5061 19b4 e0a9 00b4 5140 36b4 c44a cbb3
00000150: 3613 2cb3 d596 f0b3 2d3d 7d32 31af e7b3
00000160: d059 8cb1 ce65 0db4 7ac4 86b3 241a 02b4
00000170: b69e bb30 a4f0 12b4 5926 2db4 fa7d f8b3
00000180: e2e6 8633 362d d5b3 82f1 b932 7447 89b3
00000190: f318 16b2 5272 11b4 95d2 1d33 cd44 d7b3
000001a0: 8544 1231 e3ab 41b4 fb09 f032 6212 17b4
000001b0: c013 1434 9897 3cb4 6fd5 03b4 76b9 2d32
000001c0: 3c93 37b4 ad73 cd33 48a5 8eb4 26dd 78b4
000001d0: 867e e6b3 dff7 c0b3 0eee 33b3 26f3 68b4
000001e0: edc8 b8b3 eaf4 8bb4 d9db d9b3 43ed 2eb4
000001f0: d818 97b3 fc36 e2b3 efc7 4633 1573 41b4
00000200: 69ff efb2 8f30 f8b3 8199 8bb3 5cdf 21b4
00000210: c9a6 1bb2 f713 68b4 5256 73b2 cce5 4db4
00000220: 9cdc 5731 e1c7 17b4 c01a 73b2 c9e8 36b4
00000230: a329 a0b1 ebb5 bfb3 eecc deb1 1934 bfb3
00000240: 56b1 1430 b304 c7b0 d034 8230 623c 9530
00000250: 3bcd 23b0 e6e4 2eb0 c78e 0731 c69e b2b0
00000260: 5684 6f31 70f9 2431 b0b2 8531 4392 5031
00000270: 813f 7730 2d42 6731 aed9 ea2f 6f3a 5531
00000280: e375 f72f 8f73 6a31 b9be fd30 3280 5231
00000290: 83ed 91ae d046 5531 7b8f 9c31 bb25 4e31
000002a0: 3de8 f2b0 1e0c 5c31 6585 21b0 32ec d730
000002b0: aa50 872f 6d20 5631 e854 80b0 29bb 2331
000002c0: 255b b8ae 9d36 9431 ed2d 4cb0 3f30 8731
000002d0: 3b3d f2af 021a 3d2f a8b0 c62e 2a97 8f2f
000002e0: af00 91ae 9cf9 36af 41c3 80af 1d54 eeaf
000002f0: 42f7 bdae e497 4e2f 24ea daaf 8384 f1af
00000300: 162e ea2f 9f1a ecaf f074 b62f f368 95ae
00000310: 9638 582f 8cb2 75af 7705 6bb0 1dc8 f7ae
00000320: 2a12 f52e 9506 8bae ec95 c3b0 f65d e6ae
00000330: 1fb6 2b30 c403 beaf 6ee0 f92e a31f 2d2f
00000340: 46b5 5dae 7827 48ab b6f6 082f cc17 aaae
00000350: 784d 0c2e 0585 37af b6ab 0f2f c474 c0ae
00000360: 1e18 8131 5825 83b1 52c8 07b1 da4c 7bb0
00000370: 55dc fcb0 7765 0331 ba6f 00b1 14a8 57b0
00000380: 1d74 9aaf 8bef 02b1 87c9 2131 2ac8 3cae
00000390: 774c 84b1 8cd2 baae 7366 5cb1 ea1e 5cb0
000003a0: 200d f4b0 6044 fa2f d299 c531 72d8 a2b0
000003b0: 5735 8db0 7246 22b0 6274 1232 1508 89b0
000003c0: 5ede 8cb1 cf37 1faf 724b 91b0 72e4 5fb1
000003d0: 4bed e02f 9c5a 88b0 f6bb beb0 6e51 e4b0
000003e0: 3e6f 93af 5881 5530 6df7 9bb0 66d5 8e2f
000003f0: b6fb bb32 f01c 04b3 01c5 2b33 58b3 ba33

encoder_layers.0.attention.value_projection.bias f4 [36]
-3.693311e-08 6.6308026e-08 -8.140279e-08 -2.3738991e-07 2.839784e-09 -3.665627e-10 -4.610441e-10 9.1992725e-08
5.0563617e-06 -2.5668503e-09 -6.7423924e-09 1.6609173e-08 3.6754105e-07 4.602107e-09 -2.5975611e-08 -2.898092e-08
-1.6900064e-07 4.7530654e-07 -4.033888e-08 3.4667193e-12 -1.08319596e-10 1.9864306e-08 -7.577751e-08 -4.5427377e-08
-5.0202782e-08 1.1245637e-12 1.5634704e-08 4.8202093e-08 8.8849705e-10 -1.5389714e-06 1.4840413e-07 2.6367969e-11
1.1141888e-10 3.8264805e-08 2.0472983e-09 3.379395e-10
00000000: 62a0 1eb3 3965 8e33 a8cf aeb3 3ee5 7eb4
00000010: 0226 4331 1d85 c9af 3076 fdaf 898d c533
00000020: d1a9 a936 8264 30b1 b6aa e7b1 f5ab 8e32
00000030: 7552 c534 9020 9e31 f920 dfb2 b8f1 f8b2
00000040: 8b76 35b4 a22d ff34 1141 2db3 ddf2 732c
00000050: 8332 eeae 12a2 aa32 20bb a2b3 ee1b 43b3
00000060: 8b9e 57b3 ad44 9e2b 144d 8632 c306 4f33
00000070: 6c3a 7430 a88e ceb5 0459 1f34 63ef e72d
00000080: 4103 f52e 9958 2433 74b0 0c31 c2c8 b92f

encoder_layers.0.attention.out_projection.weight f4 [36, 36]
-4.027424e-09 6.476463e-08 -1.9135141e-08 -8.892512e-08 -1.2398037e-09 5.493523e-10 -4.693424e-09 1.47845505e-08
5.8610465e-07 -2.6109488e-09 1.2824242e-10 -7.693156e-10 1.0694243e-07 -8.595428e-09 4.6014448e-10 1.43848204e-08
-4.4596632e-08 -2.4212937e-07 -5.696311e-10 -8.856313e-11 3.4049253e-11 8.646299e-09 -1.7679467e-08 -1.628836e-08
4.230541e-08 1.472809e-11 -6.5238983e-09 -5.9428604e-08 1.4521437e-10 1.1096427e-06 4.2664663e-08 6.6364904e-12
-3.161355e-11 -5.8096813e-08 1.326189e-09 -2.614535e-11 -2.924628e-09 5.7393848e-08 -1.43733425e-08 -8.3948876e-08
-1.2588743e-09 4.6636595e-10 -4.2014188e-09 6.9147257e-09 4.1202514e-07 -2.6647602e-09 -1.0033886e-10 -2.8181515e-10
7.770954e-08 -7.826761e-09 4.904157e-10 1.4027819e-08 -3.0491957e-08 -2.3347661e-07 -1.522169e-11 -8.39561e-11
3.859322e-11 4.885374e-09 -8.1173965e-09 -9.625237e-09 4.275288e-08 1.3822023e-11 -7.752319e-09 -5.5597706e-08
8.333908e-11 8.423506e-07 2.3943375e-08 5.174681e-12 -3.860848e-11 -5.575443e-08 1.2682723e-09 -5.1731255e-11
-2.4865188e-09 5.7567437e-08 -9.392239e-09 -7.8934164e-08 -1.1138812e-09 5.0302595e-10 -4.121785e-09 9.437427e-09
4.6073035e-07 -2.3246516e-09 1.2784675e-10 -6.8192946e-10 6.2671184e-08 -7.521617e-09 7.0426914e-10 1.2373081e-08
-2.8209664e-08 -2.1227794e-07 -2.1063986e-11 -7.63494e-11 2.8152005e-11 6.5893966e-09 -1.5370135e-08 -1.3699379e-08
3.471223e-08 1.29381e-11 -5.081042e-09 -5.255718e-08 1.1926332e-10 1.0213873e-06 3.3736534e-08 5.7372436e-12
-2.800226e-11 -4.923485e-08 1.1627279e-09 -2.8030914e-11 -2.4247138e-09 5.9104963e-08 -3.754751e-09 -8.030678e-08
-1.283665e-09 5.5835997e-10 -4.3980957e-09 7.666573e-09 5.0708303e-07 -2.4093536e-09 1.4522007e-10 -7.000023e-10
3.303024e-08 -8.261726e-09 1.7412398e-10 1.4237479e-08 -1.729527e-08 -2.437756e-07 -9.120787e-10 -8.490406e-11
3.3714493e-11 7.1897412e-09 -1.2677352e-08 -1.2002574e-08 3.9747103e-08 1.4181439e-11 -6.0424092e-09 -5.868325e-08
1.303444e-10 1.1694506e-06 3.5762476e-08 5.9031235e-12 -3.2704218e-11 -5.51081e-08 1.2037982e-09 -3.771057e-11
-2.8468623e-09 5.809285e-08 -4.085538e-09 -7.960308e-08 -1.3062171e-09 5.177926e-10 -4.26705e-09 5.065943e-09
4.6262105e-07 -2.41691e-09 1.0566317e-10 -6.83874e-10 2.9149213e-08 -8.025091e-09 6.4413913e-10 1.4421654e-08
-1.4425032e-08 -2.4300542e-07 -9.8164914e-11 -8.269837e-11 3.6970656e-11 6.7092443e-09 -8.775492e-09 -9.168745e-09
4.1831644e-08 1.37737625e-11 -7.281481e-09 -5.6706767e-08 1.1507789e-10 1.0206874e-06 3.297874e-08 5.612024e-12
-3.7401752e-11 -5.554652e-08 1.1936586e-09 -5.0725608e-11 -6.884107e-09 6.645449e-08 -2.8304216e-08 -1.00461556e-07
-1.2792981e-09 5.214298e-10 -4.6549187e-09 1.9840284e-08 8.8707964e-07 -2.755921e-09 -2.5492294e-10 1.8695806e-10
1.5437016e-07 -8.271099e-09 -8.592623e-10 1.4329116e-08 -6.2216465e-08 -2.433038e-07 -2.5378688e-09 -8.665479e-11
3.481338e-11 9.750809e-09 -2.0536778e-08 -1.863196e-08 4.482187e-08 1.476503e-11 -7.8257845e-09 -5.9080094e-08
2.0014719e-10 9.970047e-07 5.172902e-08 8.178319e-12 -3.4848267e-11 -5.932752e-08 1.4181406e-09 -2.7881619e-11
1.7085878e-09 4.4377693e-08 -1.6031302e-09 -4.071072e-08 -8.051253e-10 5.232896e-10 -3.4484724e-09 1.4312526e-08
-9.83764e-09 -1.3247617e-09 8.9251095e-10 -2.3656512e-09 3.4521758e-08 -6.8287704e-09 2.5364315e-09 9.716885e-09
-2.2789209e-08 -1.7988822e-07 2.6612998e-09 -5.8380266e-11 1.1160115e-11 4.897932e-09 -2.38007e-08 -1.725355e-08
2.226704e-08 9.858696e-12 -1.2189061e-09 -4.447258e-08 6.1286864e-11 1.2815135e-06 2.3427507e-08 3.2478228e-12
-8.267582e-12 -3.7101582e-08 7.0224304e-10 1.7684798e-11 -5.163018e-09 6.646228e-08 -1.4716131e-08 -1.0068627e-07
00000000: 9961 8ab1 bb14 8b33 9f5e a4b2 1af7 beb3
00000010: b765 aab0 3b01 1730 cb43 a1b1 24ff 7d32
00000020: ce54 1d35 4c6c 33b1 0801 0d2f c677 53b0
00000030: 39a8 e533 18ab 13b2 94f7 fc2f 1c21 7732
00000040: 848a 3fb3 02fe 81b4 3a94 1cb0 9cc0 c2ae
00000050: 0dc0 152e d38a 1432 8fdd 97b2 7cea 8bb2
00000060: 4ab3 3533 b68c 812d d128 e0b1 713e 7fb3
00000070: 36aa 1f2f 08ef 9435 4b3e 3733 3180 e92c
00000080: b109 0bae 1f86 79b3 2145 b630 18fa e5ad
00000090: 9afa 48b1 3481 7633 a1ee 76b2 6247 b4b3
000000a0: b404 adb0 9631 0030 125c 90b1 9296 ed31
000000b0: 4e34 dd34 f51e 37b1 c2a5 dcae f5ed 9aaf
000000c0: 45e1 a633 7576 06b2 f0cd 0630 00ff 7032
000000d0: 43f6 02b3 90b1 7ab4 33e4 85ad 159f b8ae
000000e0: 1abc 292e 34dc a731 b074 0bb2 3d5c 25b2
000000f0: 4a9f 3733 dc28 732d 0f2f 05b2 53ca 6eb3
00000100: bb43 b72e e41d 6235 0aac cd32 6211 b62c
00000110: 49cd 29ae a576 6fb3 5d4f ae30 3784 63ae
00000120: 4ddf 2ab1 1140 7733 815b 21b2 8482 a9b3
00000130: 3617 99b0 4e45 0a30 9b9f 8db1 3e22 2232
00000140: 4c5a f734 b4bf 1fb1 a991 0c2f 8572 3bb0
00000150: d995 8633 6c38 01b2 8996 4130 6391 5432
00000160: b551 f2b2 84ee 63b4 e147 b9ad e4e4 a7ae
00000170: aea0 f72d f268 e231 4907 84b2 825a 6bb2
00000180: 8016 1533 069c 632d 5195 aeb1 3bbb 61b3
00000190: a421 032f 9a16 8935 b6e5 1033 7fdc c92c
000001a0: 7c4f f6ad 4a76 53b3 dacd 9f30 0290 f6ad
000001b0: 04a0 26b1 98da 7d33 2403 81b1 1f75 acb3
000001c0: f26c b0b0 177b 1930 0f1e 97b1 f2b5 0332
000001d0: 7b1e 0835 cc91 25b1 d1ab 1f2f 486a 40b0
000001e0: 22dd 0d33 75ef 0db2 8b73 3f2f 1899 7432
000001f0: b390 94b2 43e0 82b4 d5b5 7ab0 bdb4 baae
00000200: 2547 142e a209 f731 95cb 59b2 e133 4eb2
00000210: 67b6 2a33 867b 792d 989d cfb1 ea0a 7cb3
00000220: b050 0f2f 04f6 9c35 4299 1933 9cb2 cf2c
00000230: add5 0fae ffaf 6cb3 e272 a530 54da 25ae
00000240: 88a2 43b1 c481 7933 c660 8cb1 42f2 aab3
00000250: 6e86 b3b0 6a54 0e30 5e9d 92b1 8210 ae31
00000260: 275e f834 bb16 26b1 145b e82e 5bfb 3bb0
00000270: cc63 fa32 b9de 09b2 430f 3130 1bc3 7732
00000280: f6d1 77b2 6976 82b4 efdd d7ae 0bdb b5ae
00000290: 4299 222e 2387 e631 06c3 16b2 9184 1db2
000002a0: 61aa 3333 834f 722d 9630 fab1 c08d 73b3
000002b0: 180f fd2e 8dfe 8835 82a4 0d33 9e74 c52c
000002c0: a17e 24ae 0b92 6eb3 210e a430 f517 5fae
000002d0: 3f89 ecb1 beb5 8e33 a121 f3b2 53bd d7b3
000002e0: 4dd3 afb0 5c54 0f30 19f1 9fb1 3f6d aa32
000002f0: a61f 6e35 ad62 3db1 3725 8caf 0490 4d2f
00000300: f2c0 2534 ae18 0eb2 3531 6cb0 1e2c 7632
00000310: dd9b 85b3 6b9f 82b4 a966 2eb1 4f8e beae
00000320: 621c 192e 8384 2732 da68 b0b2 1d0c a0b2
00000330: 2b82 4033 e4df 812d 2a72 06b2 40bf 7db3
00000340: 6d10 5c2f d2d0 8535 a92c 5e33 e0df 0f2d
00000350: a943 19ae 4ccf 7eb3 63e8 c230 d33f f5ad
00000360: 97d3 ea30 ca99 3e33 2155 dcb0 e9d9 2eb3
00000370: a84f 5db0 3bd7 0f30 2bfa 6cb1 28e3 7532
00000380: 6602 29b2 e912 b6b0 e054 7530 fa90 22b1
00000390: 1345 1433 80a2 eab1 604d 2e31 50ef 2632
000003a0: 00c2 c3b2 4c27 41b4 15e2 3631 2b61 80ae
000003b0: b154 442d aa4a a831 4b72 ccb2 f534 94b2
000003c0: bd45 bf32 9f6f 2d2d 7286 a7b0 1e02 3fb3
000003d0: 70c5 862e 7800 ac35 a23d c932 938b 642c
000003e0: e171 11ad 9f59 1fb3 f607 4130 a08e 9b2d
000003f0: 6366 b1b1 06ba 8e33 3bd2 7cb2 dd38 d8b3

encoder_layers.0.attention.out_projection.bias f4 [36]
-0.0005481182 0.0001015469 -0.00075140083 -0.0027530552 -0.0016887975 -0.0011527607 -0.0015163207 -0.001788977
-0.0011892567 -0.0014497794 -0.002402554 -0.0009334496 -0.0023515366 -0.0008094245 -0.0026275215 -0.0005666274
-0.0029106154 -0.00043433096 -0.001859 -0.00065865146 -0.0029944575 -0.00066875026 0.00010090945 -0.0006290014
0.0014167371 -0.00059724564 -0.0030916699 -0.00062151183 -0.003151801 -0.0005956173 -0.0029199559 -0.0007126084
-0.003158251 -0.00057579356 -0.003125451 -0.00064247305
00000000: 97af 0fba 94f5 d438 a8f9 44ba 9a6c 34bb
00000010: a45a ddba 3b18 97ba 48bf c6ba 1b7c eaba
00000020: d5e0 9bba 8606 beba 2b74 1dbb beb2 74ba
00000030: 3d1c 1abb 8f2f 54ba 7f32 2cbb b989 14ba
00000040: 06c0 3ebb eab6 e3b9 b0a9 f3ba 5aa9 2cba
00000050: a93e 44bb 124f 2fba 599f d338 92e3 24ba
00000060: cfb1 b93a 7a90 1cba 9d9d 4abb f4ec 22ba
00000070: 728e 4ebb 3323 1cba bb5c 3fbb 57ce 3aba
00000080: a9fa 4ebb daf0 16ba 5ed4 4cbb a36b 28ba

encoder_layers.0.feed_forward.0.weight f4 [8, 36]
5.041e-41 5.1433e-41 5.1149e-41 5.4351e-41 -5.3212e-41 5.0297e-41 5.2582e-41 5.263e-41
5.1135e-41 -5.3084e-41 5.2407e-41 5.0604e-41 4.927e-41 5.1365e-41 5.2406e-41 5.3122e-41
5.399e-41 5.5025e-41 4.991e-41 5.2413e-41 5.205e-41 5.4635e-41 4.9724e-41 5.3982e-41
5.0272e-41 5.5386e-41 5.5292e-41 5.4344e-41 4.951e-41 5.4799e-41 5.181e-41 5.3101e-41
5.035e-41 5.3958e-41 5.2643e-41 5.4632e-41 -5.0748e-41 -5.1837e-41 -5.1519e-41 5.1395e-41
-4.9467e-41 5.2305e-41 -5.2928e-41 2.4691e-41 -5.8099e-41 -5.3574e-41 -5.587e-41 -5.3985e-41
5.28e-41 -4.9619e-41 -4.971e-41 -5.3321e-41 -4.9256e-41 5.0161e-41 4.9208e-41 -5.2142e-41
-4.9484e-41 5.4492e-41 4.9527e-41 -4.9186e-41 5.0021e-41 -4.9825e-41 -5.3667e-41 -4.9819e-41
-5.0929e-41 5.1733e-41 4.9254e-41 -5.3698e-41 -5.3324e-41 -4.9369e-41 4.908e-41 5.0705e-41
4.9345e-41 1.2313e-41 5.0794e-41 4.9492e-41 8.688e-42 4.9819e-41 4.9512e-41 4.9815e-41
-5.0071e-41 -4.9488e-41 5.061e-41 5.0115e-41 5.2652e-41 4.9089e-41 4.9841e-41 -5.4139e-41
4.9256e-41 -4.9921e-41 4.9267e-41 -4.9958e-41 5.0109e-41 4.9159e-41 4.9473e-41 5.0032e-41
4.9406e-41 -4.988e-41 -4.5203e-41 4.9148e-41 -4.9858e-41 -4.958e-41 5.0377e-41 5.2847e-41
-4.9902e-41 4.4603e-41 -3.4965e-41 -5.0092e-41 5.015e-41 4.9771e-41 5.4012e-41 5.2004e-41
5.1812e-41 -5.0455e-41 5.2058e-41 -5.0253e-41 -2.0033e-41 4.9904e-41 -1.7043e-41 5.0487e-41
5.2044e-41 5.1182e-41 5.316e-41 -5.0492e-41 5.1543e-41 -5.0769e-41 4.9109e-41 -5.0642e-41
-5.224e-41 -5.0365e-41 5.0343e-41 -4.9991e-41 4.9365e-41 -5.0992e-41 5.0528e-41 -5.0618e-41
4.9588e-41 -4.9979e-41 5.007e-41 -5.0225e-41 5.5093e-41 -4.9844e-41 -5.1945e-41 -5.1516e-41
-5.1104e-41 5.3e-41 -4.935e-41 -5.151e-41 5.0291e-41 -4.9131e-41 -4.9504e-41 4.913e-41
4.9218e-41 5.2767e-41 5.1293e-41 4.9717e-41 5.212e-41 5.1366e-41 -5.1608e-41 -5.0302e-41
-5.2222e-41 -4.9628e-41 4.9874e-41 -5.0801e-41 -4.9462e-41 5.0908e-41 4.9733e-41 -5.183e-41
4.9878e-41 5.3088e-41 4.966e-41 -5.1771e-41 5.1538e-41 -5.1251e-41 -4.9626e-41 -4.9485e-41
5.0384e-41 6.0137e-41 5.0272e-41 -5.0109e-41 5.3615e-41 5.5039e-41 5.0895e-41 5.362e-41
-5.035e-41 5.058e-41 5.2309e-41 5.587e-41 5.2268e-41 -5.532e-41 4.9626e-41 6.3051e-41
5.0235e-41 5.409e-41 5.0688e-41 -5.377e-41 5.4774e-41 -5.3008e-41 4.9781e-41 -5.2898e-41
5.3865e-41 5.8997e-41 4.9166e-41 5.4918e-41 5.0595e-41 -5.544e-41 5.4875e-41 5.3266e-41
4.9211e-41 5.3778e-41 4.9987e-41 5.3562e-41 5.1949e-41 5.013e-41 5.068e-41 -5.2992e-41
5.1373e-41 5.0871e-41 -5.2039e-41 -5.1991e-41 5.253e-41 -5.09e-41 -4.9708e-41 4.9214e-41
5.2278e-41 5.3094e-41 5.1236e-41 6.0647e-41 5.3629e-41 5.147e-41 -5.2832e-41 4.9417e-41
-5.9297e-41 -5.1858e-41 -4.96e-41 -5.0374e-41 -4.9907e-41 5.2341e-41 5.016e-41 5.1543e-41
-5.0315e-41 -4.9956e-41 5.1021e-41 -5.1508e-41 5.034e-41 -5.0417e-41 4.9631e-41 -5.1666e-41
5.2058e-41 -4.9927e-41 -4.9208e-41 -5.0284e-41 5.7722e-41 5.0951e-41 5.3555e-41 3.0104e-41
00000000: 868c 0000 608f 0000 958e 0000 8297 0000
00000010: 5594 0080 358c 0000 9492 0000 b692 0000
00000020: 8b8e 0000 fa93 0080 1792 0000 108d 0000
00000030: 5889 0000 2f8f 0000 1692 0000 1594 0000
00000040: 8196 0000 6399 0000 218b 0000 1b92 0000
00000050: 1891 0000 4d98 0000 9c8a 0000 7b96 0000
00000060: 238c 0000 659a 0000 229a 0000 7d97 0000
00000070: 048a 0000 c298 0000 6d90 0000 0694 0000
00000080: 5b8c 0000 6a96 0000 bf92 0000 4b98 0000
00000090: 778d 0080 8090 0080 9d8f 0080 458f 0000
000000a0: e589 0080 ce91 0000 8b93 0080 d444 0000
000000b0: f5a1 0080 5895 0080 be9b 0080 7d96 0080
000000c0: 2f93 0000 518a 0080 928a 0080 a394 0080
000000d0: 4e89 0080 d48b 0000 2c89 0000 5a91 0080
000000e0: f189 0080 e797 0000 108a 0000 1c89 0080
000000f0: 708b 0000 e48a 0080 9a95 0080 e08a 0080
00000100: f88d 0080 3690 0000 4d89 0000 b095 0080
00000110: a594 0080 9f89 0080 d188 0000 588d 0000
00000120: 8e89 0000 5322 0000 988d 0000 f789 0000
00000130: 3818 0000 e08a 0000 058a 0000 dd8a 0000
00000140: 948b 0080 f489 0080 158d 0000 b38b 0000
00000150: c692 0000 d788 0000 f08a 0000 eb96 0080
00000160: 4e89 0000 298b 0080 5689 0000 438b 0080
00000170: af8b 0000 0989 0000 e989 0000 788b 0000
00000180: b989 0000 0c8b 0080 027e 0080 0189 0000
00000190: fc8a 0080 358a 0080 6e8c 0000 5193 0000
000001a0: 1b8b 0080 567c 0000 7861 0080 a38b 0080
000001b0: cc8b 0000 be8a 0000 9096 0000 f790 0000
000001c0: 6e90 0000 a68c 0080 1e91 0000 168c 0080
000001d0: d837 0080 1d8b 0000 822f 0080 bd8c 0000
000001e0: 1491 0000 ad8e 0000 3094 0000 c08c 0080
000001f0: ae8f 0000 868d 0080 e588 0000 2b8d 0080
00000200: a091 0080 668c 0080 568c 0000 5b8b 0080
00000210: 9c89 0000 258e 0080 da8c 0000 1a8d 0080
00000220: 3b8a 0000 528b 0080 938b 0000 028c 0080
00000230: 9499 0000 f28a 0080 cd90 0080 9b8f 0080
00000240: 758e 0080 be93 0000 9189 0080 978f 0080
00000250: 318c 0000 f588 0080 ff89 0080 f488 0000
00000260: 3389 0000 1893 0000 fc8e 0000 978a 0000
00000270: 4a91 0000 308f 0000 dd8f 0080 398c 0080
00000280: 9391 0080 588a 0080 078b 0000 9d8d 0080
00000290: e189 0080 e98d 0000 a38a 0000 7b90 0080
000002a0: 0a8b 0000 fd93 0000 6f8a 0000 5190 0080
000002b0: ab8f 0000 de8e 0080 568a 0080 f289 0080
000002c0: 738c 0000 a3a7 0000 238c 0000 af8b 0080
000002d0: 7595 0000 6d99 0000 e08d 0000 7995 0000
000002e0: 5b8c 0080 ff8c 0000 d191 0000 be9b 0000
000002f0: b491 0000 369a 0080 568a 0000 c3af 0000
00000300: 098c 0000 c896 0000 4c8d 0000 e495 0080
00000310: b098 0000 c493 0080 c58a 0000 7593 0080
00000320: 2796 0000 76a4 0000 0e89 0000 1799 0000
00000330: 0a8d 0000 8b9a 0080 f898 0000 7c94 0000
00000340: 2e89 0000 e995 0000 588b 0000 4f95 0000
00000350: d090 0000 be8b 0000 468d 0000 b893 0080
00000360: 358f 0000 cf8d 0000 1091 0080 ee90 0080
00000370: 6f92 0000 e38d 0080 918a 0080 3089 0000
00000380: bb91 0000 0194 0000 d38e 0000 0fa9 0000
00000390: 7f95 0000 7a8f 0000 4693 0080 c189 0000
000003a0: 4ca5 0080 8f90 0080 448a 0080 6c8c 0080
000003b0: 1f8b 0080 e891 0000 d38b 0000 ae8f 0000
000003c0: 428c 0080 428b 0080 3a8e 0000 958f 0080
000003d0: 548c 0000 8b8c 0080 5a8a 0000 0690 0080
000003e0: 1e91 0000 2d8b 0080 2c89 0080 2c8c 0080
000003f0: e8a0 0000 088e 0000 4a95 0000 eb53 0000

encoder_layers.0.feed_forward.0.bias f4 [8]
-4.9403e-41 -5.3666e-41 -4.9282e-41 -4.9086e-41 -4.9113e-41 -4.9383e-41 -4.9104e-41 -4.9113e-41
00000000: b789 0080 9995 0080 6189 0080 d588 0080
00000010: e888 0080 a989 0080 e288 0080 e888 0080
