transformers/results/pimentel_mlp_gg/configs/hyperopt/trial_32/pimentel_mlp_gg_model_20251208_214839.pt (torch, 432431 bytes, 43 tensors)

_network.0.weight f4 [128, 5]
0.3331286 0.35588267 -0.12285219 0.42815667 -0.110487185 0.14733247 -0.19920151 0.22861648
0.3759597 -0.3563728 0.42138526 0.07030671 0.3159259 0.06715216 0.19700366 -0.052302256
0.3368898 0.091600865 -0.22743168 0.11525621 -0.26617154 -0.04793906 -0.1461463 0.29896203
-0.2893913 -0.17139316 -0.15198267 -0.30824003 0.036700834 -0.43362182 0.43267378 -0.35335883
0.35407138 0.071140036 -0.15270704 0.28395277 0.009626712 0.37828583 0.053092953 -0.04243864
0.14446245 -0.10460615 0.18750022 0.4177327 0.22999255 -0.18000081 0.26126325 0.08770515
0.22216125 -0.2982726 -0.46082684 -0.16428988 -0.32919014 0.3670832 0.12979946 0.2999512
0.12698124 -0.073665254 0.3098613 -0.26155072 0.12354217 -0.29471278 0.13757734 -0.15744843
0.11936148 -0.028464027 0.32704598 -0.3406645 -0.23616613 -0.2918853 0.566608 0.036448948
0.36168098 -0.36212584 -0.40085965 -0.39220497 -0.28458685 0.16497825 0.13882512 0.35962588
-0.25104558 -0.26210943 0.20655465 -0.2471148 0.27087012 -0.13883013 0.22313616 -0.4066177
-0.15250807 0.14371027 0.10970743 -0.114194065 0.26058885 0.32839313 -0.30929476 -0.2382326
0.3924471 -0.19417307 -0.16926149 -0.42268845 -0.3261262 0.090591006 -0.038403533 -0.27196857
-0.013278713 -0.3203898 -0.38104343 -0.2714139 -0.37378228 -0.2911263 0.5596324 -0.008486769
0.13290435 -0.34254044 -0.2666037 -0.14221644 0.066529706 -0.41231224 -0.17096499 -0.28559285
0.014734623 -0.17639957 -0.0740318 -0.30731434 -0.2942495 -0.22066927 -0.1794776 -0.3705593
0.38624045 -0.040311422 0.46701157 0.104322225 -0.34243393 0.30752036 -0.016937416 -0.16230386
-0.34978366 -0.48241258 0.1279337 -0.07081123 0.25099733 -0.35146227 0.31105033 -0.31836578
-0.08964426 0.11475893 0.21242373 0.38308764 0.40526026 -0.33970845 0.18039334 -0.19767977
-0.047310553 -0.30023345 0.39980322 -0.35385102 0.25920162 0.13681707 0.081627145 -0.21968648
0.49241197 0.10202587 0.062250067 -0.33548602 0.153122 -0.064631 -0.21590687 0.37664565
0.12073725 -0.23673497 -0.2348429 -0.01146465 0.23217994 -0.12997687 -0.26252916 -0.08727389
-0.3117174 0.17728375 0.37046465 -0.42986798 0.14382035 0.22190441 0.08107854 -0.15356767
0.2295695 0.32275933 0.12013983 -0.09365988 -0.03967733 0.021937922 0.017521037 -0.12616235
0.2790636 0.41380182 -0.054352414 -0.1444509 0.0032357106 -0.059207164 0.092751704 0.111526854
-0.43878636 -0.15339501 0.33673242 0.1656252 -0.033895634 -0.25164378 -0.2733243 -0.4429937
-0.12831119 0.14067249 0.37378496 0.1544047 -0.4283485 -0.20160438 -0.048277136 0.43916604
0.027191786 -0.14202453 0.19407147 -0.09586069 -0.3249763 0.33021346 -0.1870946 -0.11029868
-0.4230866 0.35014248 0.30316404 0.170956 -0.28266448 -0.43330702 -0.3491368 0.31124067
0.21870457 0.40914696 0.22290383 0.20756574 -0.04925194 -0.36396325 -0.3643388 -0.39615268
0.27868965 -0.19504818 -0.09847005 -0.23844956 -0.101818494 -0.33957896 -0.26163992 0.13388075
-0.15684225 0.2707066 -0.11108099 -0.35512125 -0.11025201 -0.20610708 -0.13207893 -0.4493928
00000000: d58f aa3e 4136 b63e ee99 fbbd 5a37 db3e
00000010: 1b47 e2bd 53de 163e 7bfb 4bbe 701a 6a3e
00000020: ca7d c03e 7f76 b6be cfbf d73e f7fc 8f3d
00000030: 0ac1 a13e 1287 893d 54bb 493e e43a 56bd
00000040: d27c ac3e 3c99 bb3d dae3 68be 730b ec3d
00000050: a347 88be bf5b 44bd 60a7 15be 8d11 993e
00000060: 192b 94be b081 2fbe 58a1 1bbe a3d1 9dbe
00000070: 9d53 163d ae03 debe 6b87 dd3e 73eb b4be
00000080: d848 b53e deb1 913d 3c5f 1cbe 4262 913e
00000090: 5bb9 1d3c aeae c13e ff77 593d 24d4 2dbd
000000a0: f7ed 133e c03b d6bd 0f00 403e 0fe1 d53e
000000b0: 2b83 6b3e 2252 38be 4cc4 853e c29e b33d
000000c0: 3d7e 633e 30b7 98be 7ff1 ebbe 9b3b 28be
000000d0: 9c8b a8be 54f2 bb3e 26ea 043e 3493 993e
000000e0: 5f07 023e cfdd 96bd 24a6 9e3e fae9 85be
000000f0: ad03 fd3d 98e4 96be 13e1 0c3e 293a 21be
00000100: cb73 f43d 642d e9bc 9272 a73e 946b aebe
00000110: 89d5 71be fd71 95be 390d 113f 7e4b 153d
00000120: 402e b93e 8f68 b9be 7a3d cdbe 17cf c8be
00000130: 5eb5 91be 0ff0 283e 2c28 0e3e e220 b83e
00000140: 0c89 80be 3533 86be 1083 533e aa0b 7dbe
00000150: 7daf 8a3e 7c29 0ebe ce7d 643e 3230 d0be
00000160: 132b 1cbe c928 133e 4aae e03d 94de e9bd
00000170: e76b 853e 2523 a83e e25b 9ebe 3ff3 73be
00000180: d4ee c83e 4ed5 46be e252 2dbe 9f6a d8be
00000190: 03fa a6be c787 b93d 064d 1dbd 773f 8bbe
000001a0: f68e 59bc 220a a4be 2018 c3be c3f6 8abe
000001b0: 6460 bfbe 820e 95be 1244 0f3f 170c 0bbc
000001c0: 1418 083e 7661 afbe 4880 88be 30a1 11be
000001d0: ba40 883d 971a d3be 7211 2fbe 3a39 92be
000001e0: 7d69 713c 17a2 34be fc9d 97bd 4e58 9dbe
000001f0: dfa7 96be 20f7 61be fac8 37be f3b9 bdbe
00000200: 4fc1 c53e 971d 25bd 241c ef3e e4a6 d53d
00000210: 8053 afbe 4f73 9d3e 56c0 8abc fc32 26be
00000220: d816 b3be c8fe f6be 0d01 033e 7a05 91bd
00000230: b982 803e ddf2 b3be fd41 9f3e d700 a3be
00000240: 6997 b7bd bb06 eb3d 9b85 593e 1024 c43e
00000250: 467e cf3e 44ee adbe 08b9 383e 916c 4abe
00000260: b6c8 41bd 33b8 99be 02b3 cc3e f62b b5be
00000270: 13b6 843e c619 0c3e 222c a73d 7ef5 60be
00000280: 6c1d fc3e f0f2 d03d edf9 7e3d d3c4 abbe
00000290: 03cc 1c3e 425d 84bd b116 5dbe b3d7 c03e
000002a0: 1745 f73d a76a 72be a87a 70be 3ad6 3bbc
000002b0: 94c0 6d3e a818 05be 396a 86be a7bc b2bd
000002c0: 6c99 9fbe df89 353e 8bad bd3e a817 dcbe
000002d0: a445 133e e93a 633e 810c a63d d840 1dbe
000002e0: 4414 6b3e b640 a53e df0b f63d c0d0 bfbd
000002f0: b284 22bd 28b7 b33c 4788 8f3c b430 01be
00000300: 6de1 8e3e d5dd d33e a3a0 5ebd f0ea 13be
00000310: 370e 543b 3683 72bd 9bf4 bd3d 3168 e43d
00000320: 9ba8 e0be 9513 1dbe 3168 ac3e a799 293e
00000330: 26d6 0abd 74d7 80be 2af1 8bbe 12d0 e2be
00000340: 0264 03be 730c 103e be60 bf3e 441c 1e3e
00000350: 7f50 dbbe 6171 4ebe 3fbe 45bd 5fda e03e
00000360: 4fc1 de3c e16e 11be acba 463e 9c52 c4bd
00000370: 4b63 a6be bd11 a93e ba95 3fbe 46e4 e1bd
00000380: cf9e d8be e045 b33e 5138 9b3e 170f 2f3e
00000390: 66b9 90be 6bda ddbe 0fc2 b2be f05a 9f3e
000003a0: 17f4 5f3e b67b d13e e740 643e 1d8c 543e
000003b0: 67bc 49bd 6459 babe 9d8a babe 86d4 cabe
000003c0: 69b0 8e3e b6ba 47be aaaa c9bd 1f2c 74be
000003d0: 3786 d0bd 4bdd adbe abf5 85be 0918 093e
000003e0: 419b 20be 0e9a 8a3e 6e7e e3bd 74d2 b5be
000003f0: cecb e1bd bc0d 53be b33f 07be d016 e6be

_network.0.bias f4 [128]
0.09082415 -0.41907975 0.391465 0.2802316 -0.4377933 -0.21380539 0.1455263 -0.09149826
-0.048900496 -0.20205 0.35894278 -0.24982661 0.37154946 0.02874719 0.08998331 0.3487909
-0.073531836 -0.25398433 -0.0718824 0.36273122 -0.32638314 0.1018342 -0.4399986 0.23418903
0.16457276 0.01879274 0.19381557 0.00038405453 0.24710177 -0.35426015 -0.065774836 0.19913813
0.44512567 0.22819412 -0.3243369 0.3438259 -0.10006246 -0.095166795 -0.4059949 -0.06954549
0.31638995 0.06240496 -0.26002315 0.13956708 -0.14363609 0.40794715 -0.38758612 -0.14139675
-0.4327085 -0.17564072 0.14050901 0.41978866 0.075196646 0.43821272 0.08739531 0.25817123
0.35801944 0.37346926 -0.24999845 0.40969056 0.27103564 -0.208961 -0.21390304 -0.37548488
0.11212052 -0.3626536 0.18894476 0.14568269 -0.38846284 0.12181494 -0.036480203 0.20390137
0.25658038 -0.4440635 0.41088167 0.37468922 0.17758237 -0.40967712 -0.15940094 -0.12991893
-0.11508507 0.2520026 0.1618368 0.3534638 -0.16708602 0.15050341 0.15950638 -0.37628177
-0.43352357 -0.23194139 0.30587652 -0.42045435 -0.3895456 0.2502318 0.24191381 0.36762115
-0.3361847 -0.32662985 0.23086187 0.38698795 0.2673761 0.06908921 0.1468729 0.4265704
-0.289099 -0.20010218 0.3127146 -0.30565605 -0.24753734 0.3259751 0.14097083 0.14365283
-0.18904093 -0.0046462114 0.4090724 -0.2713199 0.0034400169 0.21286862 -0.30905536 0.43617788
-0.22302294 -0.10732829 -0.12021345 -0.29111406 -0.4389796 0.2514301 0.11924535 -0.41855702
00000000: 0302 ba3d 9f91 d6be 1a6e c83e 847a 8f3e
00000010: 7226 e0be cdef 5abe d904 153e 7163 bbbd
00000020: e34b 48bd 32e6 4ebe 59c7 b73e 8cd2 7fbe
00000030: bb3b be3e 3a7f eb3c 2b49 b83d b994 b23e
00000040: dc97 96bd 3c0a 82be 1437 93bd e8b7 b93e
00000050: b11b a7be 738e d03d 7f47 e1be 40cf 6f3e
00000060: c385 283e 3bf3 993c 9777 463e ed5a c939
00000070: 3f08 7d3e 9661 b5be f5b4 86bd deea 4b3e
00000080: 83e7 e33e b8ab 693e 7c0f a6be f309 b03e
00000090: 8ced ccbd cfe6 c2bd 90de cfbe de6d 8ebd
000000a0: ddfd a13e 589c 7f3d c121 85be acea 0e3e
000000b0: 5715 13be 73de d03e b071 c6be 4fca 10be
000000c0: f88b ddbe 29db 33be 98e1 0f3e 8aee d63e
000000d0: b300 9a3d 6b5d e03e 50fc b23d 052f 843e
000000e0: 534e b73e 5d37 bf3e 98ff 7fbe f6c2 d13e
000000f0: 2fc5 8a3e dff9 55be 6609 5bbe 8e3f c0be
00000100: 719f e53d bcad b9be bc7a 413e d82d 153e
00000110: 9ae4 c6be 1c7a f93d 446c 15bd 85cb 503e
00000120: 815e 833e 4b5c e3be 155f d23e 44d7 bf3e
00000130: 27d8 353e 33c1 d1be 003a 23be 7809 05be
00000140: b9b1 ebbd 7c06 813e 8cb8 253e 35f9 b43e
00000150: 9918 2bbe 911d 1a3e a455 233e 01a8 c0be
00000160: cdf6 ddbe 0b82 6dbe d99b 9c3e cb45 d7be
00000170: 8572 c7be 621e 803e 41b8 773e d738 bc3e
00000180: 6720 acbe 073c a7be 0e67 6c3e 4923 c63e
00000190: 85e5 883e a57e 8d3d d965 163e 6f67 da3e
000001a0: c904 94be 96e7 4cbe 211c a03e f37e 9cbe
000001b0: 6e7a 7dbe 35e6 a63e a85a 103e ba19 133e
000001c0: f293 41be 3f3f 98bb f071 d13e 71ea 8abe
000001d0: e871 613b 3bfa 593e 813c 9ebe b552 df3e
000001e0: 2060 64be efce dbbd 7832 f6bd e70c 95be
000001f0: efc1 e0be 72bb 803e e836 f43d 1b4d d6be

_network.1.weight f4 [128]
1.0244479 0.9867309 1.0386178 0.9596864 0.99838525 0.95334524 0.98635525 1.0316638
0.99817693 0.9615295 1.0082221 1.0027488 0.98976004 0.96655226 1.0136148 0.98045474
0.9865137 0.9571008 0.93349 0.9924262 1.0262841 0.96271586 1.0418711 0.95576984
0.9862508 0.9742759 1.0763947 0.97557986 1.0119398 0.9622327 0.9923074 1.0058491
1.0038724 0.95712787 0.95994264 0.9842576 0.96812683 1.0370786 0.9478459 0.9922245
1.0046462 0.97337306 1.0084239 1.0654252 0.96205 1.0021518 0.97962385 0.993287
1.0355904 0.9582911 0.9561858 0.9907797 1.0008321 1.0287842 0.9687305 0.9489886
0.9509968 0.963585 0.9627843 1.020724 0.9818374 1.0402716 1.056262 0.98815566
0.99913657 0.9686869 1.0058056 1.0486181 0.9570221 0.9956404 0.9834393 0.97307104
0.94699794 0.99575245 1.0332136 0.94348544 0.98421603 1.0392376 0.96616095 0.9901325
0.97225684 1.008211 0.9409031 1.0123737 0.99276686 1.016777 1.0030305 1.0395689
0.9080436 0.9585849 0.97635525 0.96367335 0.9809886 0.96430516 0.9877434 1.0150584
1.0375992 0.9867483 0.9953804 0.9695639 0.9407681 1.0379122 0.98438907 1.0078086
0.95800334 1.0000027 0.99225855 0.969393 0.99679166 0.9651162 0.93814915 0.994541
0.9830741 0.9684608 0.8993941 1.0004296 0.9911394 1.0059749 1.0287681 1.0304173
1.0062101 0.9576437 1.0693216 0.9802469 1.0000435 1.0220616 1.0057551 0.97428894
00000000: 1c21 833f 659a 7c3f 6ef1 843f 02ae 753f
00000010: 2d96 7f3f 6f0e 743f c781 7c3f 8f0d 843f
00000020: 8688 7f3f cc26 763f 6c0d 813f 135a 803f
00000030: ea60 7d3f f86f 773f 21be 813f 15ff 7a3f
00000040: 298c 7c3f 8f04 753f 33f9 6e3f a50f 7e3f
00000050: 475d 833f 8c74 763f 085c 853f 55ad 743f
00000060: ef7a 7c3f 256a 793f 4dc7 893f 9abf 793f
00000070: 3e87 813f e254 763f dc07 7e3f aabf 803f
00000080: e47e 803f 5506 753f cdbe 753f 4ef8 7b3f
00000090: 29d7 773f febe 843f 07a6 723f 6d02 7e3f
000000a0: 3f98 803f fa2e 793f 0914 813f da5f 883f
000000b0: e948 763f 8346 803f a1c8 7a3f 0f48 7e3f
000000c0: 3a8e 843f 9152 753f 98c8 743f bda3 7d3f
000000d0: 441b 803f 33af 833f b9fe 773f ebf0 723f
000000e0: 8774 733f 82ad 763f 0879 763f 16a7 823f
000000f0: b259 7b3f 9f27 853f 9833 873f c5f7 7c3f
00000100: 6ac7 7f3f ddfb 773f 3dbe 803f 1e39 863f
00000110: 66ff 743f 4ae2 7e3f aec2 7b3f 2f1b 793f
00000120: 756e 723f a2e9 7e3f 5840 843f 4388 713f
00000130: 95f5 7b3f bd05 853f 5356 773f 5379 7d3f
00000140: d3e5 783f 0f0d 813f 07df 703f 7695 813f
00000150: f825 7e3f c025 823f 4e63 803f 9810 853f
00000160: 8c75 683f d265 753f 6bf2 793f 4cb3 763f
00000170: 1222 7b3f b4dc 763f c0dc 7c3f 6fed 813f
00000180: 0dd0 843f 899b 7c3f 40d1 7e3f 5735 783f
00000190: 2ed6 703f 4fda 843f ec00 7c3f dfff 803f
000001a0: b53f 753f 1700 803f a804 7e3f 242a 783f
000001b0: bd2d 7f3f db11 773f 8b2a 703f 3d9a 7e3f
000001c0: bfaa 7b3f 0ced 773f b13e 663f 140e 803f
000001d0: 50bb 7d3f c9c3 803f acae 833f b7e4 833f
000001e0: 7ecb 803f 2328 753f 88df 883f 76f1 7a3f
000001f0: 6d01 803f ead2 823f 95bc 803f 006b 793f

_network.1.bias f4 [128]
0.006090011 -0.035626292 0.03706812 0.015985936 0.024376478 -0.027934061 0.029916488 -0.008088363
0.0154783465 0.010750129 -0.062385622 0.0026608903 -0.035040107 -0.038441487 0.012020449 -0.0050142347
-0.010901435 -0.0023487243 -0.014808794 -0.033096377 0.020368818 -0.050176546 0.038768824 -0.07074476
-0.006432321 -0.023173092 0.091876864 -0.015920471 0.0043056738 0.0018051651 -0.032245148 -0.04069581
0.01737488 0.022859162 0.0074498667 -0.027346833 -0.021806726 0.031222321 -0.07263769 0.012089007
-0.0077622845 -0.0010369888 -0.023974407 0.070521444 -0.002346968 -0.032719873 -0.041503713 -0.03967859
0.047650546 -0.0178093 -0.050301373 -0.019793691 0.015383398 0.07394452 -0.02948246 -0.06322034
0.00942219 0.0016766445 -0.043665987 -0.04220324 -0.03611707 0.05455402 0.050095033 -0.0012361967
0.018098097 -0.07419879 0.0064012525 -0.07577184 -0.004253202 -0.023328267 -0.025223292 -0.027446104
-0.01799677 -0.024219826 0.030640692 -0.067081824 0.01253664 0.026640225 -0.008935532 0.038553897
-0.020883204 0.007914665 0.014939227 -0.022031663 -0.008045097 0.0174195 -0.01689312 0.06310234
-0.016574932 -0.029936673 -0.05555665 -0.0276265 -0.016454358 -0.0058338414 -0.008398874 0.022896683
0.025348784 -0.031005312 0.021822928 -0.009679707 -0.038471017 0.041265115 -0.019801108 -0.024405628
0.006710395 -0.025966825 -0.005562087 -0.037442844 -0.0037168686 0.0023262699 -0.0093388455 -0.022616653
-0.020060746 -0.03558501 -0.06118344 0.010040758 -0.033338692 -0.01364914 0.029217884 -0.026124641
-0.044280183 0.024338892 0.042854812 0.0033192309 0.00019035376 -0.033071116 -0.04238263 -0.041287635
00000000: b78e c73b e0ec 11bd bed4 173d f0f4 823c
00000010: 2eb1 c73c f9d5 e4bc 6c13 f53c 0e85 04bc
00000020: e498 7d3c 4f21 303c 1188 7fbd 5562 2e3b
00000030: 3786 0fbd d274 1dbd 6bf1 443c 734e a4bb
00000040: ef9b 32bc 0eed 19bb 95a0 72bc 1190 07bd
00000050: 82dc a63c ec85 4dbd 0fcc 1e3d a1e2 90bd
00000060: 38c6 d2bb 7fd5 bdbc f029 bc3d a66b 82bc
00000070: 9c16 8d3b 4a9b ec3a 7d13 04bd a6b0 26bd
00000080: c455 8e3c 2343 bb3c 031e f43b 7706 e0bc
00000090: 05a4 b2bc f4c5 ff3c 12c3 94bd f810 463c
000000a0: c35a febb 92eb 87ba fa65 c4bc 8c6d 903d
000000b0: 97cf 19bb 4605 06bd ccff 29bd 0486 22bd
000000c0: 382d 433d cfe4 91bc d008 4ebd 6126 a2bc
000000d0: a60a 7c3c 3970 973d 3385 f1bc aa79 81bd
000000e0: 875f 1a3c dbc2 db3a 1bdb 32bd 4edd 2cbd
000000f0: 7eef 13bd 0974 5f3d 7330 4d3d e107 a2ba
00000100: 7642 943c 89f5 97bd 99c1 d13b 442e 9bbd
00000110: 725e 8bbb ec1a bfbc 14a1 cebc a7d6 e0bc
00000120: f66d 93bc a868 c6bc 3002 fb3c 3262 89bd
00000130: 7b66 4d3c 9a3c da3c 5666 12bc b1ea 1d3d
00000140: 4113 abbc 83ac 013c a9c3 743c bf7b b4bc
00000150: 95cf 03bc 57b3 8e3c 7163 8abc cd3b 813d
00000160: 27c8 87bc c13d f5bc 5f8f 63bd f850 e2bc
00000170: 4acb 86bc cf29 bfbb 6e9b 09bc d391 bb3c
00000180: 41a8 cf3c dafe fdbc ffc5 b23c a297 1ebc
00000190: c993 1dbd 9c05 293d ef35 a2bc 50ee c7bc
000001a0: e0e2 db3b 61b8 d4bc 2b42 b6bb ab5d 19bd
000001b0: b596 73bb 5574 183b f501 19bc 8f46 b9bc
000001c0: 6f56 a4bc 96c1 11bd 7d9b 7abd fe81 243c
000001d0: 278e 08bd a4a0 5fbc 585a ef3c 5803 d6bc
000001e0: 235f 35bd 5b62 c73c 8788 2f3d 7487 593b
000001f0: b399 4739 9475 07bd 6999 2dbd 391d 29bd

_network.1.running_mean f4 [128]
0.51393473 -0.3961241 0.7481338 0.34960705 -0.5704562 -0.5566154 0.18342127 0.076286756
0.28984585 -0.18853535 0.29914495 -0.052369133 0.2957645 -0.12932394 0.02578834 0.31607714
-0.25770956 -0.27208027 -0.027781866 0.13357194 -0.5631963 -0.52300084 -0.48078907 -0.051094342
-0.18727395 -0.019871816 0.53059965 -0.23210575 0.049580738 -0.13918741 -0.040594142 0.11401583
0.6055124 0.10537821 -0.58028084 0.18301253 0.088325314 0.06786561 -0.2478875 -0.039983176
0.17260747 -0.19833104 -0.20651358 0.36587766 -0.40530285 0.3656713 -0.086908005 -0.46566555
-0.5667903 -0.3611879 -0.21908656 0.50111455 0.091986775 0.4091116 0.42340308 0.02414588
0.011358614 0.33315432 -0.50905704 0.045918137 -0.023563014 -0.15023044 0.29772568 -0.15507059
-0.058052924 -0.8940869 0.29494283 -0.114346355 -0.83792454 0.062060114 0.08807359 0.42078364
0.14583857 -0.52720845 0.5456358 0.35404685 0.35113528 -0.269814 -0.04220249 -0.42880967
-0.0906554 -0.15990129 0.29524615 -0.07391346 0.049034346 0.097802565 0.16380824 -0.3242261
0.008220116 -0.37439978 0.20654659 -0.48618674 -0.40293196 0.38587904 0.42034772 0.30936545
-0.33732006 0.008815963 0.3717154 0.37662846 0.46343058 -0.021368168 -0.2699894 0.5281082
0.08845694 -0.21020791 0.62979496 -0.43516284 -0.18766022 0.6150001 0.21304132 0.3591985
-0.18367346 -0.69228697 0.32732192 -0.5676356 0.20731968 0.22850135 -0.1866337 0.3857102
-0.39568627 -0.028915046 0.22946243 -0.20533113 -0.6356786 -0.030594802 0.027971676 -0.92617154
00000000: 3a91 033f c7d0 cabe b285 3f3f b2ff b23e
00000010: 6b09 12bf 597e 0ebf c9d2 3b3e 3b3c 9c3d
00000020: ad66 943e 690f 41be 8729 993e 0481 56bd
00000030: 726e 973e 7f6d 04be 1242 d33c ddd4 a13e
00000040: 82f2 83be 1b4e 8bbe cc96 e3bc 15c7 083e
00000050: a22d 10bf 62e3 05bf fc29 f6be 4d48 51bd
00000060: bec4 3fbe 38ca a2bc 61d5 073f 21ad 6dbe
00000070: 2c15 4b3d 2587 0ebe 0b46 26bd 2281 e93d
00000080: dc02 1b3f 88d0 d73d 498d 14bf a367 3b3e
00000090: e7e3 b43d 20fd 8a3d 39d6 7dbe 66c5 23bd
000000a0: 03c0 303e 4b17 4bbe 4c78 53be 5154 bb3e
000000b0: db83 cfbe 4539 bb3e d3fc b1bd b76b eebe
000000c0: 2b19 11bf 9fed b8be 3a58 60be 0b49 003f
000000d0: 9063 bc3d 1377 d13e 4ac8 d83e 95cd c53c
000000e0: 7b19 3a3c 3493 aa3e 9051 02bf a814 3c3d
000000f0: 3907 c1bc 02d6 19be 806f 983e d3ca 1ebe
00000100: e7c8 6dbd e1e2 64bf bf02 973e 6c2e eabd
00000110: 3982 56bf bf32 7e3d ed5f b43d f470 d73e
00000120: b556 153e 22f7 06bf caae 0b3f a145 b53e
00000130: 01c8 b33e 1025 8abe 85dc 2cbd f18c dbbe
00000140: 8aa9 b9bd 2abd 23be 812a 973e f15f 97bd
00000150: 3dd8 483d b64c c83d 59bd 273e f700 a6be
00000160: aaad 063c 54b1 bfbe f380 533e 78ed f8be
00000170: 194d cebe f091 c53e d137 d73e 2665 9e3e
00000180: 37b5 acbe d470 103c 7b51 be3e 72d5 c03e
00000190: c646 ed3e 4c0c afbc 0d3c 8abe 1932 073f
000001a0: ea28 b53d be40 57be 3e3a 213f aacd debe
000001b0: 002a 40be a670 1d3f 8127 5a3e dee8 b73e
000001c0: e514 3cbe b839 31bf bd96 a73e 9150 11bf
000001d0: 9c4b 543e 42fc 693e e81c 3fbe cf7b c53e
000001e0: 6497 cabe 3fdf ecbc 33f8 6a3e 5342 52be
000001f0: d5bb 22bf f3a1 fabc db24 e53c 9419 6dbf

_network.1.running_var f4 [128]
0.015261411 0.0312964 0.0059221326 0.014402305 0.017307378 0.013056997 0.012172955 0.004674488
0.016685218 0.016528549 0.017172296 0.015375939 0.006638298 0.02306664 0.016638607 0.020364244
0.015065493 0.011871176 0.023526274 0.028534384 0.007916146 0.00824233 0.0111196 0.010901905
0.0035641068 0.018032936 0.0074040773 0.014221328 0.004554219 0.032751318 0.02494496 0.010578051
0.017865015 0.011573631 0.0038761124 0.03829354 0.009640959 0.0027815283 0.02144229 0.0009844705
0.011154682 0.012943574 0.013629063 0.0055968426 0.023812557 0.027066514 0.008897271 0.015342669
0.003369419 0.013503442 0.003654531 0.0037515345 0.011222066 0.008628279 0.035261814 0.029060578
0.0020742535 0.037071895 0.025391439 0.0021279342 0.0054862043 0.0041307556 0.0073175943 0.009537217
0.016715666 0.015001288 0.01899797 0.003780575 0.011209533 0.027688483 0.03014429 0.024222167
0.010447989 0.017281255 0.013388136 0.03357491 0.022634562 0.011707932 0.012208206 0.010382026
0.0061191022 0.014107171 0.016085807 0.0024981585 0.011158508 0.007777229 0.017308732 0.0027151185
0.0044204732 0.03919653 0.014123324 0.009919166 0.013828704 0.032902654 0.013587175 0.0063014827
0.0049043675 0.007311178 0.0016922669 0.008554014 0.021334268 0.0038359002 0.0024116752 0.0092787035
0.0019519924 0.0037333956 0.019507946 0.028771576 0.008691566 0.018237114 0.0058118147 0.007245637
0.03372648 0.008558877 0.031283215 0.0018133457 0.026139516 0.005575811 0.014861318 0.009120121
0.013026072 0.029439675 0.010718798 0.020121254 0.0077313124 0.0137573425 0.020934768 0.013200981
00000000: ff0a 7a3c a730 003d 730e c23b a5f7 6b3c
00000010: 34c8 8d3c 04ed 553c 1371 473c 732c 993b
00000020: 70af 883c e166 873c eaac 8c3c 5deb 7b3c
00000030: 1486 d93b 40f6 bc3c b04d 883c ead2 a63c
00000040: 42d5 763c 527f 423c 2cba c03c f1c0 e93c
00000050: b9b2 013c d60a 073c fc2e 363c e79d 323c
00000060: ca93 693b cfb9 933c e79d f23b 9300 693c
00000070: 8f3b 953b 3f26 063d 5f59 cc3c 904f 2d3c
00000080: a759 923c 549f 3d3c 6006 7e3b b0d9 1c3d
00000090: 1df5 1d3c 4d4a 363b bea7 af3c 5909 813a
000000a0: 21c2 363c 4911 543c 6f4c 5f3c b865 b73b
000000b0: 8d12 c33c 98ba dd3c dcc5 113c d15f 7b3c
000000c0: 78d1 5c3b 8a3d 5d3c db80 6f3b 4edc 753b
000000d0: c2dc 373c a05d 0d3c b16e 103d 7310 ee3c
000000e0: 33f0 073b b3d8 173d b501 d03c d074 0b3b
000000f0: 9ec5 b33b 4a5b 873b 6ec8 ef3b fd41 1c3c
00000100: 4bef 883c f6c7 753c a1a1 9b3c 86c3 773b
00000110: 30a8 373c f5d2 e23c 28f1 f63c 916d c63c
00000120: 0b2e 2b3c 6b91 8d3c ea59 5b3c d885 093d
00000130: 1e6c b93c a0d2 3f3c ed04 483c 6019 2a3c
00000140: c082 c83b c421 673c 62c6 833c 25b8 233b
00000150: 2dd2 363c 20d8 fe3b 0bcb 8d3c 21f0 313b
00000160: 9ed9 903b 8a8c 203d 8465 673c ff83 223c
00000170: ca91 623c efc4 063d be9c 5e3c ab7c ce3b
00000180: d1b4 a03b 9b92 ef3b 0ecf dd3a 2326 0c3c
00000190: 34c5 ae3c ba63 7b3b 320d 1e3b b405 183c
000001a0: ffd9 ff3a fcab 743b 21cf 9f3c 5eb2 eb3c
000001b0: 1267 0e3c 0066 953c 0971 be3b cf6c ed3b
000001c0: c724 0a3d 883a 0c3c d422 003d c9ad ed3a
000001d0: 8a22 d63c 4bb5 b63b e37c 733c 8f6c 153c
000001e0: 4e6b 553c 792b f13c e69d 2f3c 54d5 a43c
000001f0: f356 fd3b 7a66 613c 647f ab3c ed48 583c

_network.3.weight f4 [128, 128]
-0.038411234 0.0865355 0.0757883 0.04585992 -0.052523185 -0.054084715 0.009440096 -0.0007016299
-0.04623534 0.026207654 0.007861607 -0.013039414 0.036686264 -0.042779747 0.02680378 0.06220521
0.0055509782 -0.09266553 0.04935225 0.029884418 -0.016926391 0.09447583 -0.020409996 0.0443405
0.046489514 -0.084443554 0.08823198 -0.123564616 -0.01101568 0.0030205247 -0.032705393 0.105779245
0.008767566 0.037798125 -0.05173527 0.055220895 -0.024667377 -0.046574496 0.011838953 0.04555061
0.093022436 -0.05104688 -0.090556346 0.06730395 0.035493266 0.027932366 0.06880825 -0.047228836
0.08085317 0.1101998 -0.015412662 0.044062164 0.08275935 0.112479664 -0.03268458 -0.04974492
-0.021460652 0.008028303 0.0632443 -0.031760268 0.040611967 0.026571319 0.115579806 -0.0100523885
-0.059579637 -0.04631555 -0.05595419 0.08102092 -0.07489132 0.01087316 0.030007558 -0.037869614
0.0125770625 -0.104374036 -0.036068197 -0.0639948 -0.0175677 -0.010588117 0.022194365 -0.01392684
0.054222904 0.108309 0.06706461 0.0071748164 -0.093691476 0.029618982 -0.067573465 0.1065822
0.08457349 0.040098462 0.04642339 0.08428465 0.035194453 -0.068522766 0.09230985 -0.028259752
-0.03370552 0.0788881 0.08242278 0.03528246 0.020859813 -0.086296275 -0.0053346064 0.09137618
0.056126133 0.0037641984 -0.013119874 -0.005733916 0.07934827 0.0199708 0.060035028 0.02333129
0.014482262 0.042151824 0.027683409 0.093224436 0.06235782 0.09409833 0.063185036 -0.024904545
-0.09215457 0.02300326 0.022941334 -0.0042060255 -0.034099627 0.050730396 0.077521645 0.04076182
-0.039038364 -0.033743076 -0.041882556 -0.00077084283 0.080798976 0.036849577 0.059420146 -0.018140903
0.032993954 0.013588694 -0.0859925 -0.005867914 0.00039557437 -0.035929393 -0.059964575 0.086321324
0.075917006 0.051129512 0.08098257 -0.039608005 -0.023734318 0.008301513 -0.045252256 -0.018903527
-0.069985546 0.04392534 -0.09370096 0.0075723273 0.08553408 -0.032395393 -0.032328747 0.026456106
-0.018342018 -0.0123522105 0.060022898 -0.028647488 -0.038946405 -0.09223905 -0.019274019 -0.040134758
-0.06285968 0.043092214 0.027506681 -0.078529194 -0.0787998 -0.014720338 -0.055701166 -0.021927895
-0.087604105 0.024959104 -0.06446952 -0.19013962 -0.06396269 -0.01631607 -0.044887863 -0.027185513
0.055103477 0.06278263 0.04894097 -0.11202061 -0.07116976 -0.03563942 0.08091878 0.011580649
-0.08480214 -0.0059346543 -0.064052776 -0.056765977 -0.01470699 0.0873079 0.029341545 -0.0008254349
0.02618871 -0.007883876 0.02967595 0.01778042 0.026330907 -0.058945015 0.08575226 -0.007921804
-0.03563967 0.06201974 0.08655505 0.050967764 0.040286165 -0.023520809 0.03454548 0.089047745
-0.076148845 -0.008247021 -0.054832246 0.012007246 0.048755746 -0.009660617 0.0069900597 0.043267336
-0.060129136 -0.076115504 0.077050224 -0.04105811 -0.0026240186 -0.00063931564 -0.009961565 -0.12511897
0.07865369 -0.086267844 -0.033476003 0.026293177 -0.0414907 -0.040457245 -0.049960993 -0.034179423
-0.021478403 -0.060011815 0.032918043 -0.08089529 -0.046182282 0.0073969406 0.050966457 0.04154649
-0.06818106 0.034986097 0.04922457 0.052273355 -0.08132451 -0.033759918 -0.06159393 -0.05915613
00000000: 1955 1dbd 8639 b13d e536 9b3d 9dd7 3b3d
00000010: 8d22 57bd ef87 5dbd a2aa 1a3c 96ed 37ba
00000020: 4561 3dbd 6fb1 d63c f8cd 003c 44a3 55bc
00000030: 5644 163d d139 2fbd 9a93 db3c e4ca 7e3d
00000040: fbe4 b53b 6dc7 bdbd 9625 4a3d 2bd0 f43c
00000050: 37a9 8abc 8b7c c13d dd32 a7bc 629e 353d
00000060: ca6b 3e3d bef0 acbd f8b2 b43d 720f fdbd
00000070: 1c7b 34bc fff3 453b 17f6 05bd caa2 d83d
00000080: d6a5 0f3c 35d2 1a3d 5de8 53bd 4e2f 623d
00000090: 3d13 cabc e6c4 3ebd 2bf8 413c 4793 3a3d
000000a0: 8c82 be3d 8916 51bd 9b75 b9bd a7d6 893d
000000b0: 6361 113d 6bd2 e43c 57eb 8c3d 0673 41bd
000000c0: 5996 a53d 6fb0 e13d 6485 7cbc 877a 343d
000000d0: bc7d a93d bd5b e63d 44e0 05bd 54c1 4bbd
000000e0: 40ce afbc 2589 033c 3a86 813d 0e17 02bd
000000f0: bc58 263d 18ac d93c 1bb5 ec3d c6b2 24bc
00000100: c709 74bd 60b5 3dbd 3930 65bd 4cee a53d
00000110: 9f60 99bd 5725 323c 69d2 f53c 2b1d 1bbd
00000120: 0610 4e3c 0ec2 d5bd 3fbc 13bd b50f 83bd
00000130: 23ea 8fbc c879 2dbc f5d0 b53c 672d 64bc
00000140: d618 5e3d 1cd1 dd3d 2c59 893d b91a eb3b
00000150: 51e1 bfbd 82a3 f23c f563 8abd c547 da3d
00000160: de34 ad3d 493e 243d 7426 3e3d 6e9d ac3d
00000170: 0f28 103d aa55 8cbd f20c bd3d ff80 e7bc
00000180: cd0e 0abd 1690 a13d 46cd a83d 5784 103d
00000190: 33e2 aa3c 1abc b0bd eccd aebb 6f23 bb3d
000001a0: 84e4 653d c5b0 763b bdf4 56bc 93e3 bbbb
000001b0: 5981 a23d ce99 a33c 4ae7 753d 4321 bf3c
000001c0: 0247 6d3c 64a7 2c3d 51c8 e23c 74ec be3d
000001d0: ea6a 7f3d a0b6 c03d 2867 813d 9e04 ccbc
000001e0: 89bb bcbd 5571 bc3c 77ef bb3c b3d2 89bb
000001f0: 0dac 0bbd adca 4f3d abc3 9e3d def5 263d
00000200: b1e6 1fbd 2e36 0abd 0b8d 2bbd 6312 4aba
00000210: ef79 a53d 95ef 163d 8a62 733d 3b9c 94bc
00000220: ab24 073d 1da3 5e3c d61c b0bd a147 c0bb
00000230: 1865 cf39 b32a 13bd 6a9d 75bd 3cc9 b03d
00000240: 607a 9b3d 2e6d 513d 31da a53d 013c 22bd
00000250: 796e c2bc 1203 083c 6e5a 39bd 92db 9abc
00000260: 9554 8fbd 0feb 333d 4ae6 bfbd 4921 f83b
00000270: 7e2c af3d 08b1 04bd 266b 04bd 7aba d83c
00000280: 0042 96bc ed60 4abc 92da 753d 23ae eabc
00000290: 4486 1fbd d4e7 bcbd 8ce4 9dbc 5864 24bd
000002a0: 93bc 80bd 7681 303d b155 e13c ead3 a0bd
000002b0: ca61 a1bd 932d 71bc e826 64bd 21a2 b3bc
000002c0: c869 b3bd 0977 cc3c 9808 84bd f6b3 42be
000002d0: dffe 82bd 47a9 85bc 56dc 37bd 27b4 debc
000002e0: 2fb4 613d 2e94 803d 5476 483d 106b e5bd
000002f0: 73c1 91bd a4fa 11bd bfb8 a53d c3bc 3d3c
00000300: bfac adbd 7d77 c2bb 1a2e 83bd 7183 68bd
00000310: 96f5 70bc 7cce b23d ae5d f03c 0062 58ba
00000320: b589 d63c 5f2b 01bc fa1a f33c 3ea8 913c
00000330: eab3 d73c 5470 71bd e29e af3d 74ca 01bc
00000340: e7fa 11bd 6908 7e3d c643 b13d 93c3 503d
00000350: 1b03 253d b6ae c0bc 907f 0d3d aa5e b63d
00000360: edf3 9bbd 831e 07bc c797 60bd 0aba 443c
00000370: 1bb4 473d 9147 1ebc df0c e53b 1739 313d
00000380: f849 76bd 72e2 9bbd 82cc 9d3d 8c2c 28bd
00000390: baf7 2bbb bf97 27ba d535 23bc 301f 00be
000003a0: 3015 a13d 32ad b0bd 221e 09bd ca64 d73c
000003b0: 27f2 29bd 7fb6 25bd e6a3 4cbd b9ff 0bbd
000003c0: 7af3 afbc f3ce 75bd 12d5 063d 6eac a5bd
000003d0: a229 3dbd 0962 f23b 34c2 503d a72c 2a3d
000003e0: 83a2 8bbd 954d 0f3d b49f 493d 961c 563d
000003f0: 778d a6bd d747 0abd eb49 7cbd b34d 72bd

_network.3.bias f4 [128]
-0.0056598885 -0.057772152 -0.045680434 0.050939105 -0.054182857 -0.043442458 0.045047425 -0.044994596
-0.06838532 0.019854644 0.03806427 -0.0801127 0.011358021 -0.06810628 0.037263643 0.048341155
0.029689506 0.086349085 -0.017126508 -0.035164073 0.02380913 0.026438013 -0.039649203 -0.058073223
-0.026910616 0.036632042 0.03736713 -0.039128516 0.07472888 -0.065594174 -0.010332455 0.021310912
-0.06364948 0.08039051 -0.04333895 0.052337643 0.0035399424 -0.049637962 0.08259579 -0.009834375
0.015696907 0.08309189 -0.08314779 0.07118037 -0.04358892 -0.07170484 0.048772443 -0.027125103
-0.07042976 -0.043313988 0.057114292 0.038760416 -0.004316525 0.045295298 0.01744578 -0.06606915
0.016950417 0.0628858 -0.0081598265 -0.010097704 0.08673719 -0.025204338 0.08243198 0.07712031
0.07138914 0.023321938 0.02429521 0.02260625 -0.080996186 -0.03495316 -0.04957886 -0.012957488
-0.04422607 -0.028415568 -0.060119726 -0.06430661 0.028882843 0.08632146 -0.035872765 -0.05828839
-0.029759813 -0.03340832 -0.08604813 0.07746321 0.060078133 0.06549822 -0.0456749 -0.05843544
0.084678695 -0.0534817 -0.07425546 -0.07350093 0.026901951 -0.011775836 -0.05406347 0.07525454
-0.04889366 0.0057959403 0.044075545 0.042283528 0.07395056 -0.010874221 0.045441072 -0.0072127213
0.011907361 -0.051805668 0.054664455 0.020217406 0.017746268 -0.006727297 0.035844643 -0.08529782
0.072205916 0.069174625 0.04729281 -0.0033035052 -0.08248106 -0.02398429 -0.07098988 -0.042385757
0.06949716 -0.010075224 0.08802532 -0.044555265 -0.04118222 -0.070752814 0.033541612 0.032729194
00000000: 9676 b9bb 7ea2 6cbd 681b 3bbd 86a5 503d
00000010: d8ee 5dbd b8f0 31bd a683 383d 414c 38bd
00000020: 9a0d 8cbd 35a6 a23c 48e9 1b3d 2112 a4bd
00000030: fe16 3a3c 4e7b 8bbd c3a1 183d 6001 463d
00000040: 6837 f33c cad7 b03d e44c 8cbc 3408 10bd
00000050: 5d0b c33c 8894 d83c 3467 22bd 30de 6dbd
00000060: a773 dcbc 7b0b 163d 470e 193d 3945 20bd
00000070: 740b 993d 3d56 86bd 7549 29bc 3994 ae3c
00000080: a95a 82bd c8a3 a43d 2f84 31bd ff5f 563d
00000090: 61fe 673b 2d51 4bbd fb27 a93d 5c20 21bc
000000a0: cd96 803c 152c aa3d 6349 aabd 04c7 913d
000000b0: 4c8a 32bd fdd9 92bd 9dc5 473d 7735 debc
000000c0: 7a3d 90bd 026a 31bd adf0 693d 3ec3 1e3d
000000d0: a371 8dbb 9087 393d 74ea 8e3c 434f 87bd
000000e0: 9adb 8a3c 45ca 803d cbb0 05bc d770 25bc
000000f0: 45a3 b13d 5479 cebc 19d2 a83d 41f1 9d3d
00000100: 7834 923d a60d bf3c c006 c73c be30 b93c
00000110: 54e1 a5bd 0b2b 0fbd 3413 4bbd a54b 54bc
00000120: 6526 35bd c4c7 e8bc 1a40 76bd 2fb3 83bd
00000130: b69b ec3c 4ec9 b03d 52ef 12bd cfbf 6ebd
00000140: daca f3bc 2ad7 08bd 013a b0bd 08a5 9e3d
00000150: 7d14 763d ee23 863d 9b15 3bbd 005a 6fbd
00000160: 066c ad3d a10f 5bbd 3f13 98bd a887 96bd
00000170: 7b61 dc3c 70ef 40bc a871 5dbd 0d1f 9a3d
00000180: b844 48bd dfeb bd3b 8f88 343d 7e31 2d3d
00000190: 6473 973d ca29 32bc 6b20 3a3d b158 ecbb
000001a0: 1817 433c 2e32 54bd d6e7 5f3d f99e a53c
000001b0: 9f60 913c a870 dcbb d5d1 123d a0b0 aebd
000001c0: b2e0 933d 6dab 8d3d 1bb6 413d 9f7f 58bb
000001d0: d4eb a8bd b47a c4bc 2463 91bd b09c 2dbd
000001e0: 8754 8e3d 8d12 25bc 9e46 b43d 957f 36bd
000001f0: b0ae 28bd dae6 90bd ee62 093d 0c0f 063d

_network.4.weight f4 [128]
0.97836083 1.0320594 0.99628705 0.976549 1.0270332 1.0263255 0.98740685 0.98193455
0.9878484 1.0059466 0.93664783 0.98651636 0.9687359 0.99912095 0.98663473 1.0106516
0.9826883 1.0284936 0.96027815 1.0057201 1.009757 1.0425135 1.0489658 0.9870741
1.0050923 0.9955656 1.0022467 0.97326565 1.0044631 0.99042815 1.0244324 0.9858422
0.9947082 0.9999304 0.97744066 0.99675524 1.0258564 0.9798442 0.9633661 0.99020344
0.98367345 0.98386884 0.99161637 0.9698681 0.96387553 0.9623859 1.0047498 0.96330035
0.9772221 1.0467448 0.9577747 0.9575353 0.97286093 0.9800668 0.98041004 1.0198992
0.9587037 0.99299693 0.9678051 0.99962866 0.97959834 0.99094564 1.0253229 1.0521183
0.97849023 0.99548626 1.0058874 0.9650524 1.0198107 1.0118312 1.0268748 1.0215609
0.9788029 0.98288804 1.0099077 0.9735701 1.0375619 0.99261016 0.9840629 1.0190574
0.9658495 0.9789186 0.9911356 0.9489289 0.9917259 0.98290205 1.0312225 1.0048407
0.99859816 0.9864235 0.9590212 1.0449054 0.96974236 0.9551643 0.9860607 0.9895947
1.0108842 1.0271717 1.0327116 0.99285024 0.94653684 1.0111891 1.0075676 0.9956749
0.96735966 0.9757741 0.9667349 1.0044857 0.9443564 0.9924064 1.0393633 0.9804176
1.005857 1.0244381 0.9755729 1.0137972 1.0044955 1.0056067 0.9805502 0.98127085
1.0165151 0.98937595 0.9493095 0.96876764 1.034125 0.97315305 1.0373956 1.0003737
00000000: db75 7a3f 861a 843f ab0c 7f3f 1eff 793f
00000010: d375 833f a25e 833f b2c6 7c3f 1060 7b3f
00000020: a2e3 7c3f dcc2 803f 27c8 6f3f 568c 7c3f
00000030: 13ff 773f 64c6 7f3f 1894 7c3f 085d 813f
00000040: 7691 7b3f aea5 833f cad4 753f 70bb 803f
00000050: b83f 813f 1571 853f 8344 863f e3b0 7c3f
00000060: dda6 803f 63dd 7e3f 9f49 803f f027 793f
00000070: 3f92 803f b38c 7d3f 9a20 833f 2860 7c3f
00000080: 32a5 7e3f 70fb 7f3f 8d39 7a3f 5a2b 7f3f
00000090: 434f 833f 12d7 7a3f 299f 763f f97d 7d3f
000000a0: 06d2 7b3f d4de 7b3f 92da 7d3f 4749 783f
000000b0: 8cc0 763f ec5e 763f a49b 803f da9a 763f
000000c0: 3a2b 7a3f bcfb 853f b930 753f 0921 753f
000000d0: 6a0d 793f a8e5 7a3f 27fc 7a3f 0f8c 823f
000000e0: 9b6d 753f 0c35 7e3f 13c2 773f aae7 7f3f
000000f0: f5c6 7a3f 9dae 7d3f c83d 833f d0ab 863f
00000100: 567e 7a3f 30d8 7e3f ebc0 803f ad0d 773f
00000110: 2889 823f af83 813f a270 833f 82c2 823f
00000120: d492 7a3f 8d9e 7b3f a844 813f e43b 793f
00000130: d4ce 843f b31b 7e3f 8ceb 7b3f 7970 823f
00000140: ea41 773f 699a 7a3f 10bb 7d3f 01ed 723f
00000150: c0e1 7d3f 789f 7b3f 19ff 833f 9f9e 803f
00000160: 21a4 7f3f 4086 7c3f 6a82 753f 76bf 853f
00000170: 0941 783f a685 743f 796e 7c3f 1456 7d3f
00000180: a764 813f 5d7a 833f e52f 843f 6f2b 7e3f
00000190: 3d50 723f a56e 813f faf7 803f 8de4 7e3f
000001a0: e2a4 773f 55cc 793f f07b 773f fd92 803f
000001b0: 57c1 713f 590e 7e3f db09 853f a6fc 7a3f
000001c0: ecbf 803f ca20 833f 25bf 793f 1bc4 813f
000001d0: 4f93 803f b8b7 803f 5705 7b3f 9134 7b3f
000001e0: 2b1d 823f be47 7d3f f305 733f 2801 783f
000001f0: 355e 843f 8f20 793f 61c9 843f 3f0c 803f

_network.4.bias f4 [128]
-0.04249702 0.042748515 -0.0015016133 -0.025877807 0.01691447 -0.058597058 -0.0056468006 -0.008102022
-0.0043946994 -0.021526696 -0.009306566 0.011271715 -0.022186793 -0.08633181 -0.028277414 0.008778508
-0.013809964 0.044241264 -0.0049544964 0.015211073 0.0057220072 0.05005089 0.07231268 0.017844148
0.0059122085 -0.05115101 -0.04698052 -0.012147364 -0.007933941 0.029155897 -0.070432365 0.0031972933
0.0016875365 -0.016851325 -0.047878735 0.008737081 0.03951319 -0.06585636 -0.0377527 -0.011214865
-0.007869269 0.0065335953 0.009274368 -0.04311505 -0.047306515 0.0038455015 -0.12683834 -0.016640838
-0.024845066 0.07182779 -0.033284005 -0.02941809 -0.036472905 0.0005467636 -0.0075012487 0.060258307
-0.015628465 -0.06583412 -0.044177216 -0.0146674765 -0.015673487 -0.021878494 0.033457864 -0.107670665
0.016794926 -0.090027824 -0.0029576095 -0.021812443 -0.09259945 -0.0018288663 0.06761692 0.003085503
-0.022341194 -0.027566262 0.049185034 -0.03424599 0.0489713 0.0069821407 -0.012969977 -0.024370356
-0.03262294 -0.04016923 0.0059231548 -0.009137327 -0.08358272 -0.014692391 0.046058454 0.024078107
-0.01957366 -0.012120165 -0.0088657625 0.052785728 -0.011898889 -0.010777736 0.0077203116 -0.0042627077
-0.096919425 0.04065431 0.028756557 -0.022825146 -0.04825413 0.04390683 -0.0017755632 -0.06384941
-0.002423018 -0.025446372 -0.061507706 0.018303722 -0.006097725 0.0085009 -0.03317961 -0.01717561
-2.861456e-05 -0.09824947 -0.013138351 -0.07457266 -0.009345132 -0.0114537645 -0.019708604 -0.011786773
0.016104762 0.0069931354 -0.015846917 -0.029125405 0.045208693 -0.015917575 0.057667293 -0.057498485
00000000: 5b11 2ebd 1119 2f3d c8d1 c4ba b2fd d3bc
00000010: 3790 8a3c 7803 70bd cc08 b9bb 58be 04bc
00000020: 6901 90bb c158 b0bc 917a 18bc 00ad 383c
00000030: 14c1 b5bc bbce b0bd 09a6 e7bc bbd3 0f3c
00000040: 3043 62bc 5436 353d 5459 a2bb dd37 793c
00000050: ad7f bb3b 2902 4d3d ac18 943d e42d 923c
00000060: 33bb c13b b983 51bd a56e 40bd bd05 47bc
00000070: 5cfd 01bc 59d8 ee3c d83e 90bd ae89 513b
00000080: 5430 dd3a ca0b 8abc 7e1c 44bd f925 0f3c
00000090: 95d8 213d b3df 86bd 93a2 1abd 8ebe 37bc
000000a0: 1bee 00bc c517 d63b 85f3 173c 6899 30bd
000000b0: 7ac4 41bd cf04 7c3b e9e1 01be 5e52 88bc
000000c0: e187 cbbc 731a 933d cf54 08bd 35fe f0bc
000000d0: 9d64 15bd af54 0f3a 09cd f5bb 6ad1 763d
000000e0: 4407 80bc 0ad4 86bd 2bf3 34bd db4f 70bc
000000f0: af65 80bc 873a b3bc 1d0b 093d 7082 dcbd
00000100: 8395 893c 8260 b8bd 74d4 41bb 02b0 b2bc
00000110: c8a4 bdbd 92b6 efba bd7a 8a3d 2636 4a3b
00000120: e104 b7bc a4d2 e1bc 3f76 493d 8645 0cbd
00000130: 2196 483d 71ca e43b 0780 54bc 57a4 c7bc
00000140: a29f 05bd 7e88 24bd 0617 c23b bab4 15bc
00000150: 6b2d abbd 5bb8 70bc caa7 3c3d 733f c53c
00000160: f158 a0bc a893 46bc b441 11bc d935 583d
00000170: 8ff3 42bc 1a95 30bc abfa fc3b 2fae 8bbb
00000180: b17d c6bd 2285 263d df92 eb3c cdfb babc
00000190: 1fa6 45bd a6d7 333d 04ba e8ba 7bc3 82bd
000001a0: 7fcb 1ebb e974 d0bc 81ef 7bbd b0f1 953c
000001b0: 6dcf c7bb 5c47 0b3c 58e7 07bd ddb3 8cbc
000001c0: 4d09 f0b7 0537 c9bd 3d42 57bc 8db9 98bd
000001d0: 531c 19bc 92a8 3bbc f073 a1bc 4f1d 41bc
000001e0: 22ee 833c ac26 e53b 65d1 81bc 6798 eebc
000001f0: c02c 393d 9365 82bc 8a34 6c3d 8883 6bbd

_network.4.running_mean f4 [128]
0.7559099 -0.53412795 -0.25821906 0.29615676 -0.24922435 0.40602753 -0.42451662 -0.33258098
-0.615814 -1.017943 0.5431273 -1.2299033 -0.78990954 0.58104336 0.08820696 0.09336557
-0.24757692 -0.09113985 -0.32682282 -0.5436197 -0.66125274 -0.44071332 -0.3867849 0.045113325
-0.11199601 0.5785631 0.07524317 0.10966633 -0.94158345 -0.52116287 0.87750036 -0.025025222
-0.019980473 0.5537462 0.88194305 -0.29092368 -0.24052782 0.7839285 0.18424445 -0.09408865
-0.9150376 -0.4461794 -0.54913974 0.06801771 0.34460354 -0.025751032 1.2465205 -0.50088274
0.040830757 -0.5763487 -0.50245684 -0.1194174 0.65755934 -0.64586097 -0.7619812 -0.6501334
-0.50594616 0.3566226 0.21589388 -0.038143795 -0.21145143 0.18615574 -0.1794127 0.4186878
0.18507403 1.203248 0.17198367 -0.46158147 0.8198589 -0.07472725 -0.55611604 -0.4603622
-0.31561852 -0.16795515 -0.5400253 -0.77532524 0.007816179 -0.539353 -0.23002309 -0.023755996
-0.7471091 -0.2244914 -0.87053245 0.23535417 0.6136508 -0.17828047 -0.39528984 -0.52718055
0.13987316 -0.40570012 -0.4845315 -0.3484607 -0.24943016 -0.34890142 -0.182301 0.34010023
0.27012578 -0.63488644 -0.46507645 -0.099966876 -0.47798252 -0.16231078 0.71861684 0.78207743
-0.061404258 -0.35718542 0.38306987 -0.80989444 -0.32669133 -0.4718143 -0.04854762 -0.55827206
-0.34769112 1.2133554 -0.5177463 1.1747371 -0.7194015 -0.44083586 0.3119982 0.14528495
-0.100602396 -0.34971347 -0.44393054 -0.5025108 -0.7274528 0.039184235 -0.45402458 1.0841829
00000000: 5083 413f 9cbc 08bf 4a35 84be dca1 973e
00000010: ab34 7fbe d7e2 cf3e 3e5a d9be 0e48 aabe
00000020: fca5 1dbf f54b 82bf 640a 0b3f 796d 9dbf
00000030: 8337 4abf 42bf 143f daa5 b43d 7336 bf3d
00000040: ce84 7dbe 88a7 babd 5255 a7be a92a 0bbf
00000050: dc47 29bf 2da5 e1be ac08 c6be c0c8 383d
00000060: 2a5e e5bd b61c 143f 1719 9a3d be98 e03d
00000070: 9d0b 71bf ee6a 05bf dda3 603f b201 cdbc
00000080: 17ae a3bc 50c2 0d3f 05c7 613f f3f3 94be
00000090: ed4c 76be 8aaf 483f 94aa 3c3e 8db1 c0bd
000000a0: e73f 6abf a071 e4be 6c94 0cbf de4c 8b3d
000000b0: e06f b03e d4f3 d2bc fc8d 9f3f da39 00bf
000000c0: 273e 273d 978b 13bf 03a1 00bf 1c91 f4bd
000000d0: cf55 283f 2557 25bf 3311 43bf 246f 26bf
000000e0: b085 01bf 3d97 b63e 4913 5d3e ab3c 1cbd
000000f0: b986 58be 9c9f 3e3e f6b7 37be 3f5e d63e
00000100: 0c84 3d3e 0804 9a3f 7d1c 303e 6854 ecbe
00000110: 46e2 513f 9a0a 99bd 9f5d 0ebf 98b4 ebbe
00000120: c098 a1be 6ffc 2bbe 193f 0abf b77b 46bf
00000130: 6e0f 003c 0a13 0abf 2c8b 6bbe ef9b c2bc
00000140: 8b42 3fbf 13e1 65be 37db 5ebf af00 713e
00000150: 3818 1d3f 288f 36be 6e63 cabe 4ef5 06bf
00000160: e93a 0f3e edb7 cfbe 8314 f8be 7169 b2be
00000170: 9f6a 7fbe 35a3 b2be 1dad 3abe 9e21 ae3e
00000180: ed4d 8a3e eb87 22bf 801e eebe 6fbb ccbd
00000190: 20ba f4be cc34 26be 46f7 373f 3a36 483f
000001a0: 0883 7bbd 02e1 b6be bc21 c43e 3e55 4fbf
000001b0: 1644 a7be a591 f1be dfd9 46bd ebea 0ebf
000001c0: 9204 b2be 3b4f 9b3f 068b 04bf c95d 963f
000001d0: b22a 38bf 3db5 e1be 3abe 9f3e 94c5 143e
000001e0: a108 cebd a50d b3be dd4a e3be 8ca4 00bf
000001f0: 593a 3abf a67f 203d e975 e8be 81c6 8a3f

_network.4.running_var f4 [128]
0.35495356 0.24055097 0.26644027 0.21702775 0.18635216 0.5229492 0.19943501 0.28812099
0.30286577 0.19579194 0.40682992 0.3207737 0.33076876 0.51339227 0.48476738 0.17994048
0.20085768 0.2511024 0.4394067 0.37389317 0.1940176 0.28772524 0.13063285 0.1193526
0.111667275 0.35460424 0.1252245 0.4057031 0.38493752 0.21035872 0.77387565 0.12822986
0.22268623 0.16465457 0.3457019 0.6682473 0.40522423 0.42933384 0.8118134 0.32892117
0.62377244 0.31119794 0.10602013 0.8079709 0.5219449 0.15649623 0.20266925 0.36569765
0.5507449 0.38702133 0.30561897 0.33509704 0.60108286 0.44563192 0.57981884 0.2459941
0.6804286 0.4171816 0.39055684 0.23814599 0.53517526 0.52659005 0.2329963 0.21502489
0.11526628 0.21980456 0.27442256 0.25279856 0.19842653 0.16575268 0.5888493 0.45465884
0.37887836 0.25571144 0.18416663 0.39498934 0.05856899 0.28253984 0.55390227 0.09888362
0.34451768 0.22699179 0.5059318 0.12110104 0.5253032 0.56046915 0.17689176 0.35217303
0.22245634 0.29054672 0.6583288 0.21191071 0.27033475 0.21625513 0.13857433 0.17728217
0.4325781 0.19230747 0.392243 0.80468094 0.72797257 0.2671433 0.81054586 0.12012819
0.40477192 0.6947377 0.23182407 0.15059792 0.42426655 0.13756096 0.4617026 0.4390707
0.46793023 0.2682001 0.24098168 0.23048165 0.13973822 0.23201716 0.73185974 0.23418078
0.2355983 0.10267302 0.43876183 0.5735309 0.22202493 0.48571637 0.22490837 0.50302917
00000000: 79bc b53e fe52 763e dc6a 883e 863c 5e3e
00000010: 1ad3 3e3e 00e0 053f b138 4c3e 9884 933e
00000020: 3911 9b3e af7d 483e 034c d03e 733c a43e
00000030: 865a a93e ad6d 033f 6e33 f83e 5142 383e
00000040: a3ad 4d3e 7e90 803e eaf9 e03e ed6e bf3e
00000050: 8dac 463e b950 933e 9ec4 053e 236f f43d
00000060: d0b1 e43d b08e b53e da3a 003e 51b8 cf3e
00000070: 8816 c53e 4768 573e b71c 463f b04e 033e
00000080: dc07 643e 359b 283e d7ff b03e 4112 2b3f
00000090: 8d79 cf3e a5d1 db3e 01d3 4f3f 5b68 a83e
000000a0: 8daf 1f3f 5655 9f3e 1521 d93d 2ed7 4e3f
000000b0: 2e9e 053f 8c40 203e 8788 4f3e b93c bb3e
000000c0: 9efd 0c3f a927 c63e 177a 9c3e d791 ab3e
000000d0: 91e0 193f de29 e43e 026f 143f e1e5 7b3e
000000e0: 9230 2e3f d498 d53e 11f7 c73e 8bdc 733e
000000f0: 3f01 093f 9bce 063f 9596 6e3e 7c2f 5c3e
00000100: ba10 ec3d 7214 613e 1d81 8c3e d06e 813e
00000110: 5330 4b3e 12bb 293e d4be 163f 0bc9 e83e
00000120: 58fc c13e 9cec 823e 2d96 3c3e 0b3c ca3e
00000130: 0ae6 6f3d 10a9 903e 8acc 0d3f 7f83 ca3d
00000140: 9f64 b03e 8970 683e bf84 013f d203 f83d
00000150: 457a 063f e87a 0f3f 1d23 353e 0650 b43e
00000160: 98cb 633e 8ac2 943e 3c88 283f 1fff 583e
00000170: 5169 8a3e fc71 5d3e 6ee6 0d3e 7589 353e
00000180: e07a dd3e 40ec 443e 13d4 c83e 92ff 4d3f
00000190: 695c 3a3f 02c7 883e ef7f 4f3f c505 f63d
000001a0: 443e cf3e 54da 313f 4a63 6d3e 5736 1a3e
000001b0: 7739 d93e c8dc 0c3e 4864 ec3e e0cd e03e
000001c0: 8d94 ef3e 8651 893e e7c3 763e 6203 6c3e
000001d0: 8917 0f3e e895 6d3e 295b 3b3f 16cd 6f3e
000001e0: ae40 713e 3b46 d23d 64a5 e03e ecd2 123f
000001f0: 815a 633e d1af f83e 614e 663e 85c6 003f

_network.6.weight f4 [128, 128]
0.036889657 0.08310665 0.06863484 -0.09432736 0.014305348 0.07659865 0.047728594 0.041442603
-0.031094717 -0.07887321 0.092265464 -0.0034006212 0.036949143 -0.047557373 -0.012675746 0.056126144
0.08107779 -0.019836007 0.06685828 0.054469943 0.021661649 0.009667822 -0.0084703965 0.08687355
-0.039833665 0.065646246 0.00969626 0.05220061 -0.073098436 0.04860489 0.068035595 0.035349112
0.039395574 0.012181093 -0.05882656 -0.061145153 0.09521575 -0.08965412 -0.048530716 -0.049364135
-0.073796876 -0.036190137 0.0013089152 -0.08180844 -0.053879473 -0.0658496 -0.017165026 -0.033178523
0.06310248 -0.071457535 -0.10429035 -0.014353472 0.09636267 0.079696685 0.0072243395 -0.01839776
0.0037592563 0.020544425 0.00025088261 -0.04284721 -0.008231335 -0.0023884408 0.06885274 -0.1356538
-0.01245556 0.028113252 0.072108194 0.047567923 -0.06179681 0.01419436 -0.026871936 0.10072612
0.048930667 -0.0894522 0.06581626 0.1013003 0.025782939 -0.0816606 0.059638068 0.023005648
-0.009812882 0.048283067 0.09038124 0.053007692 -0.060755882 0.048875205 -0.061506487 -0.091651335
-0.06471296 0.059347335 0.059865825 0.0046920436 0.07703571 -0.08648796 -0.0307347 -0.058917575
-0.07583255 -0.049329057 -0.056704886 -0.09088578 0.0040088287 -0.028154168 -0.03461015 -0.029325282
0.002889988 -0.096883714 -0.07676147 -0.09551061 0.054246113 0.030075744 -0.109391965 -0.03626981
0.012430262 -0.0878792 0.037020158 0.05350216 0.03275577 0.004078152 0.036238752 0.01964574
-0.008784531 0.001635467 -0.0845731 0.029345158 0.024491781 0.057127066 0.038875498 0.07253098
-0.072785795 -0.025483865 -0.08027293 0.10955698 -0.050026663 -0.10375736 0.09322159 0.04855029
-0.024882946 0.09191034 -0.055539005 -0.03239931 -0.03229434 -0.0005663823 -0.050440434 0.021166954
-0.0972635 -0.06433843 -0.021374729 -0.083795086 -0.010993818 0.03160476 -0.012950174 -0.011714363
-0.02580001 -0.09376544 -0.021819564 -0.06470418 -0.06981052 0.018084964 0.06937376 0.10007039
-0.09937783 0.06609014 0.07073516 -0.027683185 -0.053094395 -0.09864416 0.010795973 -0.046309993
0.038634546 -0.072246686 0.0106347175 0.0017429709 -0.013245048 -0.020972498 0.06312315 0.041497078
-0.08260604 -0.043094404 0.036532257 0.024201637 -0.072426714 -0.08818895 -0.027237363 -0.019672446
0.03462509 0.02568316 -0.06976086 -0.04890775 0.038776465 -0.08680629 -0.045874745 -0.12879388
-0.061232347 0.045098722 0.018455034 0.08685626 0.09008647 -0.09105729 -0.08576606 0.038140967
0.023419295 -0.08265264 -0.06679915 -0.02150804 0.0076139867 0.015523339 0.053699534 0.10501581
-0.054761585 0.08894069 -0.027968224 -0.053850673 -0.032132667 0.0382514 -0.07332626 -0.10359189
0.0045639533 -0.026789164 0.060146853 -0.10896377 -0.059858207 -0.013903887 -0.0497299 -0.021306902
-0.03608998 0.06606112 0.038509697 -0.08975931 -0.010790242 -0.018532222 0.068792544 0.016015274
-0.061291836 0.00587224 0.025319705 -0.03729475 0.019912926 0.065475754 0.07629146 0.018068189
-0.05960988 -0.0700667 0.03699686 -0.013846577 0.09205514 0.03625459 -0.09164339 0.033858143
-0.099719755 -0.022417208 0.05175208 0.112539664 0.018326012 0.045806378 -0.005467274 0.028940868
00000000: 9c19 173d d233 aa3d 6c90 8c3d b42e c1bd
00000010: fa60 6a3c c1df 9c3d 0f7f 433d b8bf 293d
00000020: 59ba febc 4788 a1bd adf5 bc3d f5dc 5ebb
00000030: fc57 173d 85cb 42bd efad 4fbc 87e4 653d
00000040: 1d0c a63d 1f7f a2bc feec 883d e01b 5f3d
00000050: c573 b13c c965 1e3c 6bc7 0abc c3ea b13d
00000060: a028 23bd 8a71 863d 10dd 1e3c 4fd0 553d
00000070: a2b4 95bd ec15 473d 3f56 8b3d 3bca 103d
00000080: 415d 213d 3593 473c 1ef4 70bd 5773 7abd
00000090: 7a00 c33d 949c b7bd 25c8 46bd 0c32 4abd
000000a0: d122 97bd 1c3c 14bd e88f ab3a 2f8b a7bd
000000b0: b9b0 5cbd 28dc 86bd ab9d 8cbc 34e6 07bd
000000c0: df3b 813d 5458 92bd 2e96 d5bd d32a 6bbc
000000d0: cb59 c53d 0438 a33d 27ba ec3b e6b6 96bc
000000e0: db5d 763b c84c a83c e588 8339 8e80 2fbd
000000f0: b9dc 06bc 6387 1cbb aa02 8d3d d4e8 0abe
00000100: 6812 4cbc c34d e63c 76ad 933d 95d6 423d
00000110: a71e 7dbd 768f 683c 8922 dcbc 7f49 ce3d
00000120: 866b 483d b732 b7bd adca 863d 8876 cf3d
00000130: be36 d33c ac3d a7bd 0c47 743d 5776 bc3c
00000140: 36c6 20bc 77c4 453d cd19 b93d 981e 593d
00000150: 29db 78bd 5e31 483d 3aee 7bbd b2b3 bbbd
00000160: 3a88 84bd 3116 733d de35 753d b7bf 993b
00000170: e6c4 9d3d 9920 b1bd 56c7 fbbc 8e53 71bd
00000180: 194e 9bbd 440d 4abd 6243 68bd 5322 babd
00000190: 7e5c 833b 92a3 e6bc 5fc3 0dbd 933b f0bc
000001a0: f465 3d3b f86a c6bd 1e35 9dbd 119b c3bd
000001b0: 2c31 5e3d 6861 f63c e508 e0bd a78f 14bd
000001c0: 4ca8 4b3c 03fa b3bd 73a2 173d 1525 5b3d
000001d0: ea2a 063d 05a2 853b 166f 143d 1af0 a03c
000001e0: feec 0fbc 2b5d d63a a934 adbd 4265 f03c
000001f0: fda2 c83c 12fe 693d ea3b 1f3d 1f8b 943d
00000200: b810 95bd 8ac3 d0bc 2266 a4bd 695f e03d
00000210: c2e8 4cbd bd7e d4bd f6ea be3d abdc 463d
00000220: 52d7 cbbc 7d3b bc3d de7c 63bd 24b5 04bd
00000230: 1247 04bd 4679 14ba a19a 4ebd 5266 ad3c
00000240: 1632 c7bd dec3 83bd 0e1a afbc c29c abbd
00000250: 6a1f 34bc fe73 013d f72c 54bc 99ed 3fbc
00000260: 8b5a d3bc 1808 c0bd f1be b2bc a083 84bd
00000270: d1f8 8ebd eb26 943c d413 8e3d b4f1 cc3d
00000280: 9b86 cbbd 445a 873d 98dd 903d d9c7 e2bc
00000290: 8279 59bd f305 cabd 98e1 303c 8caf 3dbd
000002a0: 423f 1e3d 12f6 93bd 3d3d 2e3c 6674 e43a
000002b0: c201 59bc 84ce abbc b646 813d d7f8 293d
000002c0: 5b2d a9bd c283 30bd d9a2 153d 8342 c63c
000002d0: 7554 94bd 699c b4bd e420 dfbc 1c28 a1bc
000002e0: 0ad3 0d3d 7e65 d23c c8de 8ebd 7e53 48bd
000002f0: 12d4 1e3d 7fc7 b1bd 28e7 3bbd 8be2 03be
00000300: c5ce 7abd 70b9 383d 032f 973c b2e1 b13d
00000310: 417f b83d 3f7c babd 1ea6 afbd b439 1c3d
00000320: d2d9 bf3c ca45 a9bd fecd 88bd a131 b0bc
00000330: c07e f93b 9a55 7e3c 0bf4 5b3d 8712 d73d
00000340: af4d 60bd 8926 b63d 9e1d e5bc 8692 5cbd
00000350: 8b9d 03bd 80ad 1c3d 142c 96bd fc27 d4bd
00000360: 378d 953b f374 dbbc 8c5c 763d 6628 dfbd
00000370: e12d 75bd 21cd 63bc 94b1 4bbd d08b aebc
00000380: 16d3 13bd 0d4b 873d 58bc 1d3d bbd3 b7bd
00000390: 8ec9 30bc e3d0 97bc 1be3 8c3d 7732 833c
000003a0: 260d 7bbd eb6b c03b 456b cf3c 61c2 18bd
000003b0: 6f20 a33c 2718 863d b23e 9c3d bd03 943c
000003c0: 7d29 74bd 217f 8fbd 058a 173d c1dc 62bc
000003d0: 6887 bc3d b17f 143d 88af bbbd d6ae 0a3d
000003e0: df39 ccbd 4ba4 b7bc fdf9 533d 327b e63d
000003f0: 6f20 963c 789f 3b3d d226 b3bb 6615 ed3c
