transformers/results/lstm_option_pricer/configs/hyperopt/trial_31/lstm_option_pricer_model_20251125_191918.pt (torch, 763790 bytes, 49 tensors)

lstm_layers.0.weight_ih_l0 f4 [256, 8]
000000 b9 74 6e 3b 07 73 a3 3b 33 93 76 bb 44 ff ce 3c
       0.003638549 0.0049880776 -0.0037624359 0.025268205
000010 e0 aa eb bc 33 93 76 bb 08 9e d8 bc 24 dd 12 3b
       -0.028768003 -0.0037624359 -0.026442543 0.0022409642
000020 25 1b 69 b7 de 88 b2 b7 69 0f 5f b6 e5 38 50 b7
       -1.3894202e-05 -2.1282987e-05 -3.323856e-06 -1.2411013e-05
000030 49 48 37 b7 69 0f 5f b6 cb 38 cd b7 4f f3 45 b7
       -1.092448e-05 -3.323856e-06 -2.446435e-05 -1.1798765e-05
000040 3d 0f 08 bb 51 5e 1c bb 47 79 26 ba 7d 92 34 bc
       -0.0020761036 -0.0023859928 -0.0006350469 -0.011021254
000050 4b 9d 9f 3a 47 79 26 ba 4c e2 24 bb 08 8d 1d bb
       0.0012177614 -0.0006350469 -0.0025159298 -0.002404036
000060 b8 69 cc 3b c0 36 ab 3d 6e 3e 85 3b f8 d7 3b 3b
       0.0062381886 0.08360052 0.00406628 0.0028662663
000070 ad 54 fc bb 04 13 85 3b 6c 78 93 3c 7e a0 9e bb
       -0.007700524 0.0040611047 0.018001758 -0.0048409095
000080 78 d0 58 3c 21 66 01 3c 62 5e d7 3c 76 31 4c 3d
       0.013233297 0.007897885 0.026290122 0.049851857
000090 8e 7c b0 3b 62 5e d7 3c 06 6f 72 3d e7 c4 46 3c
       0.005385942 0.026290122 0.05918791 0.012131906
0000a0 79 60 8d bb 6e e0 a8 ba 9b ea f8 ba 03 27 a9 bb
       -0.004314479 -0.0012884268 -0.0018990816 -0.0051621213
0000b0 95 98 2b bc 9b ea f8 ba d2 1a 31 bc 57 a8 91 bb
       -0.01047339 -0.0018990816 -0.010809617 -0.0044451165
0000c0 0b 3e 89 bb 8b 47 73 3c ac b8 e9 3a 74 8e a9 bb
       -0.0041883043 0.0148486 0.0017831526 -0.0051744524
0000d0 f9 10 a1 bb ac b8 e9 3a dd b7 7c 3b d4 ae b0 bb
       -0.0049153534 0.0017831526 0.003856174 -0.005391935
0000e0 66 6e 66 3a 1c 1e 56 3a 69 9f 0f bb e5 ed c0 bb
       0.00087902544 0.0008167939 -0.0021915084 -0.0058877342
0000f0 a6 07 f3 bb 69 9f 0f bb db 08 2d bc 49 fa fc 39
       -0.0074166832 -0.0021915084 -0.010561193 0.00048251663
000100 7c 52 8b bb 77 92 14 b9 6b ce 82 3b 11 6c 26 bb
       -0.0042517763 -0.00014168942 0.003991892 -0.0025394002
000110 ab b9 96 bb 70 ce 82 3b d6 2c 11 3b 3f e5 c4 bb
       -0.00459977 0.0039918944 0.0022151968 -0.0060087736
000120 0c 52 90 ba 3a d0 aa 3a c8 a3 10 3b 47 4f 6d bb
       -0.001101078 0.0013032027 0.0022070277 -0.0036210583
000130 b7 c3 ad 38 c8 a3 10 3b 48 9d 99 3a 13 97 6f ba
       8.2857376e-05 0.0022070277 0.0011719847 -0.0009139638
000140 a2 74 02 3d 2d c6 d7 3d 0b 48 86 3c 53 7c b0 3d
       0.03184951 0.10535846 0.016391775 0.08617463
000150 29 6a 42 3c f8 45 86 3c ea e8 6d 3d ee 49 b5 3c
       0.011866131 0.016390786 0.058083452 0.022129979
000160 5b 62 d0 ba ad 0f 80 3d cf 5c 88 bc 22 bf da bc
       -0.0015898453 0.0625299 -0.016645817 -0.026702467
000170 2d d4 33 3c 04 64 88 bc bb 68 d2 3c 98 27 11 bc
       0.01097588 -0.016649254 0.025684705 -0.008859538
000180 93 e3 91 b7 2c 74 dc b7 a9 3c a2 b6 ae b9 99 b7
       -1.739132e-05 -2.628014e-05 -4.835038e-06 -1.8325485e-05
000190 d0 43 17 b7 a9 3c a2 b6 3b a8 ef b7 cb 6f 78 b7
       -9.01609e-06 -4.835038e-06 -2.8569359e-05 -1.4807981e-05
0001a0 6c a5 d4 3c cd f1 1b 3c db f8 86 be 56 24 11 be
       0.025957786 0.009518099 -0.26361737 -0.14174017
0001b0 7f e7 f8 bb db f8 86 be 3b cb 81 be e4 73 b5 3c
       -0.007595956 -0.26361737 -0.25350365 0.022149988
0001c0 84 0f 8e bb 12 c2 d0 ba ac a9 10 bb e1 14 2b bc
       -0.0043353457 -0.0015926978 -0.0022073789 -0.01044199
0001d0 95 3f 6d 39 ac a9 10 bb dc eb 9f bb e0 05 95 bb
       0.00022625767 -0.0022073789 -0.0048804116 -0.0045478195
0001e0 ea b0 04 ba 87 9c 75 ba 34 d1 a1 b9 94 fc 62 b9
       -0.00050617626 -0.00093693327 -0.00030864181 -0.00021647132
0001f0 88 4a 41 ba 34 d1 a1 b9 af ad 7c ba 36 c4 d1 b9
       -0.0007373472 -0.00030864181 -0.0009638918 -0.00040009775
000200 0e 08 92 3b 68 d0 9f 3b 4c d9 da bb 99 f3 55 3d
       0.0044565266 0.004877139 -0.006678736 0.052234266
000210 3c 81 43 3c 4c d9 da bb 1d da 01 3c 42 27 80 3b
       0.011932667 -0.006678736 0.007925537 0.00391093
000220 aa f0 31 bc a0 8f 02 3c 0a 12 2c bc 9b a0 e9 bc
       -0.010860601 0.007968813 -0.010502348 -0.028518965
000230 a0 ef 88 ba 58 a2 2b bc da 7f 43 3c e3 75 42 bc
       -0.001044739 -0.0104757175 0.011932338 -0.011868927
000240 ff d7 38 bc 39 d4 19 3b 1a 1f 35 3a cd 24 d5 bc
       -0.011281966 0.0023472442 0.00069092365 -0.026018525
000250 55 6b ff ba e2 1b 35 3a 32 33 6d bb 10 95 28 bc
       -0.0019486943 0.0006908757 -0.0036193845 -0.0102894455
000260 b6 0f 68 b7 e9 76 aa b7 a0 00 60 b6 5d db 60 b7
       -1.3831936e-05 -2.0320951e-05 -3.3378965e-06 -1.3402515e-05
000270 01 06 74 b7 a0 00 60 b6 c8 a8 d2 b7 95 f2 46 b7
       -1.4544931e-05 -3.3378965e-06 -2.5112546e-05 -1.18582e-05
000280 12 6b b5 3a 9d 9d 10 3b 4d ff 7f bb 81 2e 79 bb
       0.0013841114 0.00220666 -0.0039062083 -0.0038022103
000290 56 c0 03 bb 4d ff 7f bb 4b 62 9a bb b2 7d c5 3a
       -0.0020103655 -0.0039062083 -0.0047114245 0.0015067367
0002a0 d9 00 27 ba 68 8c 80 3a bc 1e f4 ba bf 78 18 bb
       -0.0006370671 0.0009807469 -0.0018624882 -0.002326533
0002b0 dd f9 db bb bc 1e f4 ba 9f ec ec bb cb e4 75 ba
       -0.0067131356 -0.0018624882 -0.007230356 -0.0009380101
0002c0 71 f8 e2 b7 c4 a9 12 b8 a9 35 28 b7 2e d3 29 b8
       -2.7056989e-05 -3.496722e-05 -1.0026074e-05 -4.0489416e-05
0002d0 12 94 9f b7 a9 35 28 b7 1b bf 20 b8 d4 71 c8 b7
       -1.9023228e-05 -1.0026074e-05 -3.8324953e-05 -2.3894863e-05
0002e0 0f 03 19 bc 74 54 eb bb b9 e0 e9 3b 60 67 03 3c
       -0.009339108 -0.0071816985 0.0071373847 0.008020252
0002f0 b4 40 77 bc b9 e0 e9 3b af d4 ea ba d2 cc 0a bc
       -0.01509111 0.0071373847 -0.0017916168 -0.0084716845
000300 d5 20 37 3b 1c e5 83 bb 37 7f fc b9 eb 7a a5 3c
       0.0027943153 -0.0040251147 -0.00048159968 0.020200213
000310 dd 18 2b bb 37 7f fc b9 f4 08 75 bb d4 28 43 3b
       -0.002610735 -0.00048159968 -0.003738937 0.0029778974
000320 6d 8e f1 b7 d0 f2 38 b8 e2 b8 ec b6 d3 2c 04 b8
       -2.8795761e-05 -4.4095155e-05 -7.0548713e-06 -3.1513e-05
000330 50 b1 98 b7 e2 b8 ec b6 57 89 49 b8 36 b2 cc b7
       -1.820238e-05 -7.0548713e-06 -4.8050042e-05 -2.4401681e-05
000340 8d 8a 68 b6 ac f1 85 b5 a8 75 be b5 19 23 dd b6
       -3.4651341e-06 -9.979608e-07 -1.4190346e-06 -6.590399e-06
000350 74 d9 af b6 a8 75 be b5 c8 d1 cc b6 9e a9 66 b6
       -5.2407213e-06 -1.4190346e-06 -6.1040955e-06 -3.43714e-06
000360 4a 0c a4 3b 06 12 8d 3b 4b f6 8b b8 84 7f 7e 3b
       0.005006348 0.004305127 -6.673912e-05 0.003883333
000370 3f 1a af 3b 4b f6 8b b8 51 2a 48 3c 12 07 90 3b
       0.005343705 -6.673912e-05 0.01221712 0.004395374
000380 99 3c 20 bb b3 80 15 bb c4 23 9a b9 19 a1 d0 ba
       -0.0024450182 -0.0022812306 -0.00029399816 -0.0015917151
000390 f7 ca 0e bb c4 23 9a b9 6d e1 af bb 85 c2 10 bb
       -0.0021788457 -0.00029399816 -0.005367449 -0.00220886
0003a0 1f ab e2 bc 22 0b 84 3c 13 c2 a9 bb 25 4a b6 bc
       -0.027669488 0.01611859 -0.005180606 -0.022252152
0003b0 f0 68 59 bc 11 c2 a9 bb a6 5f 5e bc 19 0a a0 bc
       -0.013269648 -0.005180605 -0.013572609 -0.019536065
0003c0 e5 6b aa ba e7 87 81 3b 4c cc b1 3b 4d 0e 02 3c
       -0.0013002126 0.0039529684 0.0054259654 0.00793798
0003d0 4d 98 51 bc 4c cc b1 3b 08 39 8e bc 56 8c a1 ba
       -0.012792659 0.0054259654 -0.017361179 -0.0012325149
0003e0 a5 38 ca bc 2f c4 94 bd 7e 0d e7 bc 64 55 af bc
       -0.024685213 -0.072639816 -0.028204676 -0.021403022
0003f0 a0 62 81 bd ca e4 e7 bc 46 3c f1 bd c7 87 35 bc
       -0.06317639 -0.028307337 -0.11779074 -0.011079735

lstm_layers.0.weight_hh_l0 f4 [256, 64]
000000 99 36 58 ba f8 0e d0 37 75 eb 2f bb a8 05 9c ba
       -0.0008247882 2.4802503e-05 -0.0026843224 -0.0011903541
000010 49 13 b0 b7 87 90 35 bb 9b a7 24 3b 12 92 53 3a
       -2.0989815e-05 -0.0027704553 0.0025124315 0.00080707774
000020 89 35 bc ba 6d e3 39 38 6d 11 8d 3b aa be b7 ba
       -0.0014359216 4.4319244e-05 0.004305056 -0.0014018614
000030 b5 b0 0c b8 a0 83 29 ba 07 06 e6 3a 88 4d 9f 39
       -3.3543172e-05 -0.0006466452 0.0017549404 0.00030384609
000040 bb 25 06 ba ad d5 c9 b9 82 98 0c 38 b9 47 da 37
       -0.00051173166 -0.00038496908 3.3520635e-05 2.6021024e-05
000050 b5 bd a5 ba b2 ef 4f 3a 14 0f 1c 38 9e 3d 69 3a
       -0.0012645038 0.0007932141 3.720734e-05 0.00088974263
000060 32 eb f9 38 41 78 19 38 24 68 2f b8 69 5d 90 ba
       0.00011917054 3.6590038e-05 -4.182024e-05 -0.0011014167
000070 0b ef 50 ba 38 88 3e 3a 4a 93 3e 3a 15 f6 a1 ba
       -0.00079701905 0.0007268223 0.00072698726 -0.0012356663
000080 52 53 3b ba c2 62 06 3a f6 8c 20 3a 58 df da 39
       -0.00071458996 0.00051264104 0.00061245204 0.00041746604
000090 80 3c 15 3b 31 64 06 37 18 f1 c9 bb e3 cb 35 b8
       0.0022771657 8.01035e-06 -0.006162774 -4.3343647e-05
0000a0 d5 c6 31 3a b1 64 6c ba 36 42 96 ba 52 ae 52 39
       0.00067816424 -0.000901769 -0.0011463824 0.000200921
0000b0 33 b7 22 ba b7 7b 7b 3a b9 fc 11 38 18 7b d5 3a
       -0.00062071084 0.0009593325 3.480606e-05 0.0016287295
0000c0 59 dd 3b b8 39 b1 16 b9 a2 4b 7d b7 63 53 d3 3a
       -4.479042e-05 -0.00014371135 -1.5097585e-05 0.0016122874
0000d0 af ee ba ba 9d 28 86 3a 13 73 13 3b 38 b6 26 bb
       -0.0014261807 0.0010235492 0.002249901 -0.00254382
0000e0 52 f3 05 3b 78 c5 cf ba e8 14 d0 b9 70 52 c5 38
       0.002043922 -0.0015851697 -0.00039688428 9.409047e-05
0000f0 db f1 4d ba d3 22 f9 37 f0 78 15 bb de 5a 1a 3b
       -0.00078561687 2.969933e-05 -0.002280768 0.0023552696
000100 61 bb 99 35 e7 89 87 b1 38 76 ba 34 c6 5b 4a 36
       1.1453923e-06 -3.944695e-09 3.4731215e-07 3.0153765e-06
000110 e1 e9 96 b4 2b a1 9b 34 f8 5d c0 b4 f4 a4 ff b4
       -2.8109847e-07 2.8988265e-07 -3.5831158e-07 -4.761747e-07
000120 2c 2d 12 b6 bd 1e 85 33 97 b9 0f b5 71 43 9c 36
       -2.1781989e-06 6.1988864e-08 -5.354172e-07 4.6570135e-06
000130 54 8d 8d 31 0d 4d 99 35 1b 49 31 b4 d8 54 70 32
       4.1197072e-09 1.1421813e-06 -1.6511005e-07 1.398913e-08
000140 c8 ef 3e b3 26 d3 90 b5 f5 72 db 35 4c c7 53 b1
       -4.4455902e-08 -1.0790288e-06 1.6350228e-06 -3.0817828e-09
000150 6e 07 a6 33 3c 1a 39 34 bb fe 9d 31 8f 3b fc 32
       7.731329e-08 1.7239012e-07 4.598261e-09 2.9363745e-08
000160 4e af 80 33 38 7d d5 31 7e 36 1f 30 0b 4c 70 33
       5.992352e-08 6.2133516e-09 5.79213e-10 5.5948515e-08
000170 a6 78 5b b3 75 da 35 36 9f 9c 91 b2 1b f1 a2 b6
       -5.109964e-08 2.709826e-06 -1.6951445e-08 -4.8560446e-06
000180 00 f1 93 b5 3c cf 02 33 38 71 00 b4 f2 77 79 36
       -1.1022494e-06 3.0456462e-08 -1.1962118e-07 3.7173709e-06
000190 6a 53 60 34 08 55 dd 31 64 a8 55 36 59 0e 37 b3
       2.0891972e-07 6.4416135e-09 3.183749e-06 -4.2621057e-08
0001a0 bf ea 0d 36 72 7b 9f 35 16 b4 8a 36 8b eb 22 35
       2.1147277e-06 1.188235e-06 4.1336853e-06 6.0692463e-07
0001b0 d6 bb 15 34 14 36 22 b4 5d f7 0d 31 24 6b cb b3
       1.394504e-07 -1.5107099e-07 2.065881e-09 -9.472413e-08
0001c0 c3 77 0f b2 f6 b4 cb b3 9d eb 09 32 7d 4d 9e b6
       -8.350926e-09 -9.485841e-08 8.028022e-09 -4.7177878e-06
0001d0 11 44 b1 b3 db f8 9f 34 ed 00 3f b5 fb f8 ec 34
       -8.254586e-08 2.9797124e-07 -7.115439e-07 4.4139583e-07
0001e0 07 e2 42 36 74 8d 63 b6 56 2b 50 b5 ac 22 97 33
       2.9039818e-06 -3.3907972e-06 -7.75491e-07 7.037792e-08
0001f0 60 e4 4e b4 5f 35 86 b4 03 03 35 b5 0a 99 25 36
       -1.9268327e-07 -2.4998278e-07 -6.7432137e-07 2.4675996e-06
000200 7e 44 a6 ba fb 5c 4a 36 6e 5d 43 39 a4 92 95 3a
       -0.0012685207 3.0154467e-06 0.00018631454 0.00114115
000210 9c ab b6 b8 5f 9f be b9 23 56 97 b8 1e 03 94 3a
       -8.710401e-05 -0.00036358365 -7.216285e-05 0.0011292433
000220 04 92 24 ba c5 57 6f 3a 14 ca 72 b9 df 70 0f 3b
       -0.00062778615 0.0009130205 -0.00023154198 0.0021887345
000230 a3 e0 02 b7 28 df 91 39 94 5a 4b 3a f0 33 2e 39
       -7.800906e-06 0.0002782282 0.00077573326 0.00016613281
000240 99 0c 3f ba 9b 04 3d ba 98 9b 8e 3a a0 83 9e 36
       -0.0007287949 -0.0007210464 0.0010880111 4.72409e-06
000250 fa 6e 68 3a a8 08 71 ba 4d 0b ec 37 87 ae d8 ba
       0.00088666345 -0.00091947103 2.8138655e-05 -0.0016531505
000260 5b ab ef 39 32 b4 09 38 09 cc e7 b7 e4 f4 45 b9
       0.00045713302 3.2831165e-05 -2.7632357e-05 -0.00018878613
000270 67 7f 07 ba e4 7f 54 3a 15 d5 a4 39 13 6b 8b ba
       -0.0005168826 0.00081062154 0.00031439276 -0.0010636769
000280 d2 ba 42 ba 21 d9 21 39 8a a2 8c ba 62 9b 1a 3b
       -0.0007428351 0.00015435043 -0.0010729593 0.002359115
000290 ba 6f 81 39 99 75 5f 37 16 61 23 3b ca d0 3c b9
       0.0002468804 1.3319216e-05 0.0024929694 -0.00018006857
0002a0 0f fb 84 39 01 71 f4 3a 88 a5 86 3a 2c cc 03 ba
       0.00025364055 0.00186494 0.0010272721 -0.00050276774
0002b0 2d a2 49 38 c8 ee f9 b6 65 e7 74 37 c6 8d 72 39
       4.8073172e-05 -7.448576e-06 1.4597409e-05 0.00023131733
0002c0 3b 82 1e b8 0a 7b c7 b9 90 2d 23 37 ce f7 2e bb
       -3.7791422e-05 -0.0003804791 9.726165e-06 -0.0026697996
0002d0 64 5f ef 38 95 37 2d 3a ec 63 3f 3a e0 24 8c 3a
       0.00011414176 0.00066077086 0.00073009613 0.0010692142
0002e0 d9 03 45 3a 07 d3 00 ba 58 7f 29 ba 07 86 c1 b9
       0.0007515527 -0.0004914258 -0.0006465814 -0.00036911687
0002f0 f5 5b 69 ba 62 e7 fa 3a d7 74 ab 39 69 7b 28 ba
       -0.00089019473 0.0019142444 0.00032702714 -0.0006427081
000300 03 4f 7a bb 86 d1 a1 b6 de e4 35 bb a1 90 e7 b9
       -0.0038194067 -4.8225656e-06 -0.0027754824 -0.0004416751
000310 ef 12 e0 b9 49 30 f1 39 2a b6 06 bb ff 92 6a 3b
       -0.00042738716 0.00046003077 -0.0020555356 0.0035793183
000320 5a b1 21 3b 37 bf 86 3a cc 7b d3 bb d3 a2 03 bb
       0.002467236 0.0010280375 -0.0064539667 -0.0020086064
000330 ee 6e 64 37 a3 b1 6e ba 47 f5 b6 b9 34 f3 5e 3a
       1.3615687e-05 -0.00091054494 -0.0003489649 0.0008504868
000340 c5 cf 8f 3a a2 d7 e8 3a 11 75 d4 3a be e5 b7 b5
       0.0010971954 0.0017764459 0.0016209205 -1.3701426e-06
000350 6d a9 87 3a bc a5 31 bb 25 3d 08 39 96 07 95 bb
       0.0010350175 -0.0027106842 0.00012992749 -0.0045480235
000360 76 5f 40 ba fb 1a 10 38 69 c5 63 b7 d8 41 6e bb
       -0.00073384435 3.4357403e-05 -1.35762175e-05 -0.0036355164
000370 af da bd 38 f8 0b 9c bb 3a b0 a6 ba 6a f3 49 3c
       9.052955e-05 -0.004762169 -0.0012717315 0.012326101
000380 1d 14 29 3b c9 7b 96 39 08 f6 d2 ba f7 02 d3 3a
       0.0025799342 0.00028702457 -0.0016095052 0.0016098906
000390 fd 2f 92 3a 3e 6d df 36 01 c7 c2 bb c6 33 e6 ba
       0.0011153218 6.6586354e-06 -0.0059441333 -0.0017563037
0003a0 23 ec 55 bb 7c d5 a2 3b 9f e2 c3 bb d0 d5 bd bb
       -0.003264197 0.004969297 -0.005977943 -0.0057933107
0003b0 88 71 f2 ba 10 85 1f bb d8 2f f3 38 62 56 a1 3a
       -0.001849697 -0.0024340786 0.000115960545 0.0012309069
0003c0 67 d4 1a b9 25 85 5a b9 83 b2 94 38 da 77 b7 b9
       -0.0001476571 -0.000208397 7.09044e-05 -0.00034993776
0003d0 43 b3 c8 39 11 6f 11 b7 5d 2c 67 3b 1e d5 e1 3b
       0.00038280533 -8.668533e-06 0.0035274245 0.0068918606
0003e0 0e fc 56 bc ce 91 00 3c f2 29 2a 38 f9 34 77 ba
       -0.013121618 0.007847263 4.0570223e-05 -0.0009430196
0003f0 70 8c e9 3a f6 4a 26 3c e6 0d c4 3a 48 05 4f bc
       0.0017818343 0.010149708 0.0014957755 -0.0126355365

lstm_layers.0.bias_ih_l0 f4 [256]
000000 a9 ef 5e 3b 02 f0 28 b8 f7 7e 44 bb f5 d2 e2 3c
       0.003401736 -4.0277846e-05 -0.0029982904 0.027688483
000010 7d f8 ad 3c 05 ad 39 bc 20 b8 b0 39 ec 82 c9 bb
       0.021236653 -0.011332755 0.0003370652 -0.0061496403
000020 e5 06 03 bc 32 5a 65 bb 95 a6 f5 3d 19 77 0b 3d
       -0.007997249 -0.0034996388 0.119946636 0.034049127
000030 51 6c 3d b8 f0 bc dd 3c 52 80 0a bc f1 97 f1 ba
       -4.516199e-05 0.027067631 -0.0084534455 -0.0018432123
000040 56 ee 15 3d 62 7d 18 bb a5 ba 09 bb a5 ab 3e b8
       0.036604248 -0.0023268093 -0.002101579 -4.5459386e-05
000050 0b 27 ce ba 43 a5 84 bb 06 45 91 b8 06 69 53 3c
       -0.0015728188 -0.004048021 -6.9269954e-05 0.0129034575
000060 db 48 17 3c d7 76 99 b8 f7 8a 32 b7 00 e2 21 3c
       0.009233679 -7.317744e-05 -1.0641982e-05 0.009880543
000070 ec 0e a3 bb 89 30 d7 bb 2c d1 80 3a 5c 41 56 bc
       -0.004976144 -0.006567065 0.0009827963 -0.013077106
000080 1c eb 38 bb ac 6e 1f bb 72 05 6b bb b3 31 74 3c
       -0.0028216308 -0.002432744 -0.00358614 0.014904427
000090 7a d8 6a 3c 77 2a 47 b8 3f b9 3f 3d 62 7c 44 bb
       0.014333839 -4.7484846e-05 0.046807524 -0.0029981364
0000a0 16 38 89 3b 93 cf f3 3c ed a6 97 3c c2 1f 91 bb
       0.004187594 0.029762065 0.018512214 -0.0044288347
0000b0 87 91 ce bb 80 f7 41 3c 4e 42 b1 b8 1b fd 8c bb
       -0.0063039693 0.011838794 -8.452368e-05 -0.0043026335
0000c0 f6 d6 05 b9 0c 61 6e 3c d8 a7 be b8 e6 a3 21 3d
       -0.00012763948 0.014549505 -9.091169e-05 0.039462946
0000d0 b7 cd 59 3c 7c be 38 3c 84 30 2f bc a4 cc 46 3d
       0.013293675 0.011275884 -0.010692719 0.048535004
0000e0 5b 3f 28 3b 3f f4 4a bc 82 c6 77 bb 61 52 f2 3b
       0.0025672528 -0.012387334 -0.003780753 0.0073950742
0000f0 75 39 b2 3b e8 91 4a 3d e6 10 93 3d ad 26 95 3d
       0.0054389783 0.049455553 0.071809575 0.072827674
000100 b7 18 c4 3c 51 dc 0b b8 d6 33 4e 3c 5c d0 9a 3e
       0.023937566 -3.3345368e-05 0.012585601 0.3023709
000110 a8 ba 03 be 6c d6 9f bb 59 4d 69 3b 62 3d 0e bb
       -0.12864172 -0.004877856 0.0035599081 -0.0021704067
000120 d0 cd b0 3d 41 7e 95 ba 2b 45 b2 3e 8a 4c 45 3e
       0.086330056 -0.0011405424 0.34818396 0.19267479
000130 c1 b8 1b b8 bc 2c 92 be 77 49 e0 bb 73 9b 69 bb
       -3.7126945e-05 -0.28549755 -0.006844695 -0.0035645633
000140 09 a3 54 be 51 84 74 3d 33 3d 4d 3d 0b f0 1b b8
       -0.20765318 0.0596965 0.050107192 -3.7178437e-05
000150 e0 8b 0f bb 9a 00 46 39 e9 c0 6e b8 ee f6 0a 3d
       -0.002190344 0.00018882976 -5.6923283e-05 0.033926897
000160 11 04 c1 bc 52 bb 7a b8 c2 7f 2b b7 55 97 be bc
       -0.02356151 -5.97791e-05 -1.022214e-05 -0.02326552
000170 37 50 aa bb b3 82 92 3a 33 dc 7b bd d9 37 c4 3e
       -0.0051975506 0.0011177867 -0.061489295 0.38323858
000180 dd fe de 3c 1b e2 97 bb 2c f7 df bb 05 e9 84 3e
       0.027221138 -0.004635108 -0.006834885 0.2595903
000190 fc c4 d7 3b ec fe 2d b8 ea 08 cd 3e 64 ed 49 bb
       0.0065847617 -4.148383e-05 0.40045863 -0.0030811662
0001a0 60 90 2d bc 6e 76 40 3e b6 0c b7 3e 6f 22 bb ba
       -0.010593504 0.18795177 0.35751885 -0.001427723
0001b0 5f ec a3 bb f7 7e 3b bd 85 2f 81 b8 83 cb c2 bb
       -0.005002543 -0.04577538 -6.1600505e-05 -0.0059446706
0001c0 2f 9f d9 b8 85 93 b7 bd d3 c3 95 b8 32 df e6 3e
       -0.000103770166 -0.08963684 -7.141349e-05 0.4509216
0001d0 67 1d c9 3c 44 18 fa bc de a2 27 3b a4 f3 27 3e
       0.024550153 -0.030529149 0.0025579254 0.16401535
0001e0 ca 04 0d 3f 9b fe ac 3e af 01 ad 3b 08 ef 2a bd
       0.5508543 0.33788 0.0052797417 -0.041731864
0001f0 9e 5f 87 bd 22 0a 2b 3e ba a7 ae 3c a3 c5 27 3e
       -0.066100344 0.16703084 0.021320213 0.16383986
000200 58 9c 0a bd 93 a5 9b 39 3c a2 2d 3d 4b e4 04 3d
       -0.033840507 0.00029687266 0.042391047 0.03244428
000210 a8 12 cc bc 25 de 1a 3d 7b c5 50 bd c0 35 14 3d
       -0.02491124 0.03780951 -0.050969582 0.036184072
000220 97 eb 5a 3d e8 47 8a 3c 1f 63 7d bd 6d 22 14 bc
       0.053447332 0.01687999 -0.061862107 -0.009041411
000230 27 76 8e 38 f8 a1 89 b9 43 a5 a5 3a 48 ff 31 3c
       6.793095e-05 -0.00026251352 0.0012637753 0.010864086
000240 83 1e f4 ba 15 93 10 bd d6 05 71 3c 5b 9d 88 39
       -0.0018624816 -0.03529652 0.014710864 0.0002605718
000250 06 ee 61 3b 92 88 2a bd 1a c6 b9 b9 0a e2 34 bd
       0.0034474148 -0.04163415 -0.00035433547 -0.04416088
000260 60 18 b3 39 28 b5 63 b7 27 0f 13 3a 54 e7 10 bd
       0.000341597 -1.3572433e-05 0.0005609863 -0.03537686
000270 c1 27 b1 3c 4a 73 b0 bd 7e da 35 b9 f7 d5 ae 3d
       0.021625401 -0.0861574 -0.000173429 0.08536904
000280 be 86 2b 3d 3d 02 2d bd cf 41 8b bc eb 51 68 3b
       0.041876547 -0.042238463 -0.016999153 0.0035449218
000290 01 68 82 3b ef 05 b5 b9 c8 09 85 3d 49 ef 29 3c
       0.0039796834 -0.0003452743 0.06496006 0.010371991
0002a0 07 24 54 bd 92 95 32 3d e7 4e 2d 3d a2 48 2a bd
       -0.05179217 0.043599673 0.042311575 -0.041573174
0002b0 74 b3 14 3b 12 56 3f bd f0 f7 a7 b8 55 2d 25 bc
       0.002268997 -0.046712942 -8.0093625e-05 -0.010081609
0002c0 c0 6d b0 39 df 2b b1 bc da 52 a5 b9 5e 6b 02 bd
       0.00033651106 -0.021627365 -0.00031532982 -0.031840675
0002d0 c0 17 1b 3c ba 2f 15 3d a6 7f 4c 3c 50 32 2e 3d
       0.009466112 0.03642247 0.012481606 0.04252845
0002e0 05 49 88 bd f0 31 21 3d 62 3f 04 3d db 70 ed bc
       -0.06654552 0.039354265 0.03228701 -0.028984478
0002f0 37 4b c4 3c 5f 4e 75 3d ba af 54 3d d9 26 62 bd
       0.023961646 0.059889194 0.0519254 -0.05521283
000300 2b c8 3c 3b 92 f0 28 b8 73 79 3c bb 57 be 1d 3d
       0.0028805833 -4.027837e-05 -0.0028758913 0.0385116
000310 72 a8 bb 3c 49 38 38 bc a0 36 39 3a 61 f5 c8 bb
       0.02290747 -0.011243888 0.00070653297 -0.006132767
000320 14 0d 0b bc 8c cf 64 bb c3 7f 03 3e 2d c8 05 3d
       -0.008487005 -0.0034913747 0.12841706 0.032661606
000330 67 6c 3d b8 4e fa 9e 3d c4 39 0a bc 9b 97 f1 ba
       -4.516207e-05 0.077625856 -0.008436624 -0.0018432023
000340 81 2d 13 3d 91 85 6b bb f8 36 64 bb a2 ac 3e b8
       0.035932068 -0.0035937766 -0.0034822803 -4.5460307e-05
000350 e6 35 cb ba f0 49 84 bb ec 44 91 b8 10 8f 65 3c
       -0.0015503734 -0.0040371343 -6.9269765e-05 0.01401116
000360 b6 5c 16 3c d9 76 99 b8 90 8b 32 b7 19 8f 22 3c
       0.009177377 -7.3177456e-05 -1.0642121e-05 0.009921812
000370 cf ea a2 bb bb 96 f2 bb 54 1f 67 3a 9e 7b 8a bc
       -0.004971839 -0.0074032224 0.0008816619 -0.016904648
000380 86 f5 3e bd 01 37 1f bb d9 2e 6b bb e1 fc 03 3c
       -0.04662087 -0.002429426 -0.0035886078 0.0080558965
000390 53 58 68 3c 68 2a 47 b8 03 f2 9c 3d 97 f8 44 bb
       0.014181214 -4.748479e-05 0.076633476 -0.0030055398
0003a0 d2 01 6d 3b 5d 37 02 3d 1a ee 2b 3d 97 15 96 bb
       0.0036164415 0.03179108 0.04197512 -0.0045802104
0003b0 b1 59 ce bb ad 54 41 3c 53 42 b1 b8 15 1e 8d bb
       -0.006297313 0.011799973 -8.4523715e-05 -0.0043065646
0003c0 dc d6 05 b9 5b 54 7c 3c b9 a7 be b8 89 ab 4e 3d
       -0.0001276391 0.015400971 -9.091147e-05 0.050456557
0003d0 47 85 55 3c 3b 42 38 3c 6d d3 25 bc e6 da 50 3d
       0.013032264 0.011246259 -0.010121209 0.050990008
0003e0 72 10 2a 3b 4e 09 57 3b 2d 87 7c bb 49 b2 f6 3b
       0.0025949744 0.0032811943 -0.003853272 0.0075285775
0003f0 99 c7 ae 3b fa 58 54 3d 84 e9 8b 3d aa 77 8c 3d
       0.0053338525 0.051842667 0.06831649 0.068587616

lstm_layers.0.bias_hh_l0 f4 [256]
000000 9e ef 5e 3b 02 f0 28 b8 ea 7e 44 bb ed d2 e2 3c
       0.0034017335 -4.0277846e-05 -0.0029982873 0.027688468
000010 7d f8 ad 3c 02 ad 39 bc 4f b8 b0 39 e7 82 c9 bb
       0.021236653 -0.011332752 0.00033706657 -0.006149638
000020 ea 06 03 bc 35 5a 65 bb 95 a6 f5 3d 19 77 0b 3d
       -0.007997254 -0.0034996395 0.119946636 0.034049127
000030 4e 6c 3d b8 f0 bc dd 3c 54 80 0a bc ed 97 f1 ba
       -4.5161978e-05 0.027067631 -0.008453447 -0.0018432118
000040 55 ee 15 3d 74 7d 18 bb b6 ba 09 bb a5 ab 3e b8
       0.036604244 -0.0023268135 -0.002101583 -4.5459386e-05
000050 06 27 ce ba 45 a5 84 bb 07 45 91 b8 0c 69 53 3c
       -0.0015728183 -0.004048022 -6.926996e-05 0.012903463
000060 d6 48 17 3c d7 76 99 b8 f6 8a 32 b7 01 e2 21 3c
       0.009233674 -7.317744e-05 -1.0641981e-05 0.009880544
000070 ea 0e a3 bb 7f 30 d7 bb 30 d1 80 3a 6b 41 56 bc
       -0.004976143 -0.0065670605 0.0009827968 -0.01307712
000080 1e eb 38 bb ab 6e 1f bb 73 05 6b bb b0 31 74 3c
       -0.0028216313 -0.0024327438 -0.0035861402 0.014904425
000090 7e d8 6a 3c 77 2a 47 b8 37 b9 3f 3d 59 7c 44 bb
       0.014333842 -4.7484846e-05 0.046807494 -0.0029981344
0000a0 10 38 89 3b 87 cf f3 3c e8 a6 97 3c c1 1f 91 bb
       0.0041875914 0.029762043 0.018512204 -0.004428834
0000b0 88 91 ce bb 80 f7 41 3c 4d 42 b1 b8 1a fd 8c bb
       -0.00630397 0.011838794 -8.452367e-05 -0.004302633
0000c0 f6 d6 05 b9 0c 61 6e 3c d8 a7 be b8 e8 a3 21 3d
       -0.00012763948 0.014549505 -9.091169e-05 0.039462954
0000d0 b8 cd 59 3c 79 be 38 3c 84 30 2f bc a8 cc 46 3d
       0.013293676 0.011275881 -0.010692719 0.04853502
0000e0 69 3f 28 3b 52 f4 4a bc 84 c6 77 bb 5f 52 f2 3b
       0.002567256 -0.012387352 -0.0037807534 0.0073950733
0000f0 73 39 b2 3b f0 91 4a 3d e3 10 93 3d aa 26 95 3d
       0.0054389774 0.049455583 0.07180955 0.07282765
000100 b5 18 c4 3c 51 dc 0b b8 d3 33 4e 3c 57 d0 9a 3e
       0.023937562 -3.3345368e-05 0.012585598 0.30237076
000110 a5 ba 03 be 74 d6 9f bb 4d 4d 69 3b 5a 3d 0e bb
       -0.12864168 -0.0048778597 0.0035599053 -0.002170405
000120 d3 cd b0 3d 43 7e 95 ba 2b 45 b2 3e 84 4c 45 3e
       0.08633008 -0.0011405427 0.34818396 0.1926747
000130 c5 b8 1b b8 bb 2c 92 be 78 49 e0 bb 71 9b 69 bb
       -3.712696e-05 -0.28549752 -0.0068446957 -0.0035645629
000140 0a a3 54 be 61 84 74 3d 2d 3d 4d 3d 0b f0 1b b8
       -0.2076532 0.05969656 0.05010717 -3.7178437e-05
000150 de 8b 0f bb 60 00 46 39 ea c0 6e b8 e8 f6 0a 3d
       -0.0021903436 0.00018882891 -5.6923287e-05 0.033926874
000160 12 04 c1 bc 50 bb 7a b8 c2 7f 2b b7 53 97 be bc
       -0.023561511 -5.9779093e-05 -1.022214e-05 -0.023265516
000170 3d 50 aa bb a1 82 92 3a 33 dc 7b bd e0 37 c4 3e
       -0.0051975534 0.0011177846 -0.061489295 0.3832388
000180 cb fe de 3c 20 e2 97 bb 2d f7 df bb 08 e9 84 3e
       0.027221104 -0.0046351105 -0.0068348856 0.2595904
000190 f6 c4 d7 3b ed fe 2d b8 e9 08 cd 3e 67 ed 49 bb
       0.006584759 -4.1483832e-05 0.4004586 -0.003081167
0001a0 5b 90 2d bc 70 76 40 3e bd 0c b7 3e 6b 22 bb ba
       -0.010593499 0.1879518 0.35751906 -0.0014277225
0001b0 60 ec a3 bb f8 7e 3b bd 85 2f 81 b8 86 cb c2 bb
       -0.0050025433 -0.045775384 -6.1600505e-05 -0.005944672
0001c0 30 9f d9 b8 85 93 b7 bd d3 c3 95 b8 30 df e6 3e
       -0.00010377017 -0.08963684 -7.141349e-05 0.45092154
0001d0 6a 1d c9 3c 46 18 fa bc f4 a2 27 3b a1 f3 27 3e
       0.024550159 -0.030529153 0.0025579305 0.16401531
0001e0 c9 04 0d 3f 97 fe ac 3e ab 01 ad 3b 09 ef 2a bd
       0.55085427 0.33787987 0.00527974 -0.041731868
0001f0 9d 5f 87 bd 1e 0a 2b 3e b3 a7 ae 3c a6 c5 27 3e
       -0.06610034 0.16703078 0.0213202 0.1638399
000200 6d 9c 0a bd 65 a5 9b 39 45 a2 2d 3d 4a e4 04 3d
       -0.033840586 0.00029687132 0.04239108 0.032444276
000210 9f 12 cc bc 20 de 1a 3d 70 c5 50 bd b3 35 14 3d
       -0.024911223 0.03780949 -0.05096954 0.036184024
000220 9c eb 5a 3d f5 47 8a 3c 1e 63 7d bd 64 22 14 bc
       0.05344735 0.016880015 -0.061862104 -0.0090414025
000230 cb 76 8e 38 51 a5 89 b9 c6 a5 a5 3a 57 ff 31 3c
       6.7932146e-05 -0.00026253847 0.0012637905 0.0108641
000240 27 1e f4 ba 0c 93 10 bd e7 05 71 3c bf 9d 88 39
       -0.0018624709 -0.035296485 0.01471088 0.0002605747
000250 23 ee 61 3b 94 88 2a bd 51 c6 b9 b9 1a e2 34 bd
       0.0034474216 -0.041634157 -0.00035433707 -0.04416094
000260 6a 1b b3 39 bc b9 63 b7 2b 0f 13 3a 4c e7 10 bd
       0.00034161966 -1.3573499e-05 0.0005609865 -0.035376832
000270 e0 27 b1 3c 48 73 b0 bd 77 d7 35 b9 f2 d5 ae 3d
       0.02162546 -0.08615738 -0.00017341772 0.085369006
000280 c7 86 2b 3d 3e 02 2d bd cf 41 8b bc 0f 52 68 3b
       0.04187658 -0.042238466 -0.016999153 0.0035449301
000290 12 68 82 3b 19 06 b5 b9 bc 09 85 3d 67 ef 29 3c
       0.0039796913 -0.00034527553 0.06495997 0.010372019
0002a0 0c 24 54 bd 8b 95 32 3d e4 4e 2d 3d 97 48 2a bd
       -0.05179219 0.043599647 0.042311564 -0.041573133
0002b0 78 b3 14 3b 0d 56 3f bd 57 f8 a7 b8 53 2d 25 bc
       0.002268998 -0.046712924 -8.0094374e-05 -0.010081607
0002c0 a3 6d b0 39 db 2b b1 bc a0 52 a5 b9 42 6b 02 bd
       0.00033651022 -0.021627357 -0.00031532813 -0.03184057
0002d0 d5 17 1b 3c b2 2f 15 3d a1 7f 4c 3c 5a 32 2e 3d
       0.009466131 0.03642244 0.012481601 0.042528488
0002e0 00 49 88 bd e1 31 21 3d 51 3f 04 3d dc 70 ed bc
       -0.06654549 0.03935421 0.032286946 -0.02898448
0002f0 3c 4b c4 3c 6f 4e 75 3d b3 af 54 3d d8 26 62 bd
       0.023961656 0.059889253 0.051925372 -0.055212826
000300 3d c8 3c 3b 8c f0 28 b8 6d 79 3c bb 5e be 1d 3d
       0.0028805875 -4.0278348e-05 -0.00287589 0.038511626
000310 74 a8 bb 3c 4d 38 38 bc f8 36 39 3a 68 f5 c8 bb
       0.022907473 -0.011243892 0.0007065381 -0.0061327703
000320 16 0d 0b bc 8c cf 64 bb c6 7f 03 3e 27 c8 05 3d
       -0.008487007 -0.0034913747 0.1284171 0.032661583
000330 69 6c 3d b8 50 fa 9e 3d c3 39 0a bc 97 97 f1 ba
       -4.5162076e-05 0.07762587 -0.008436623 -0.0018432018
000340 82 2d 13 3d 96 85 6b bb 10 37 64 bb a3 ac 3e b8
       0.03593207 -0.0035937778 -0.003482286 -4.546031e-05
000350 ea 35 cb ba ee 49 84 bb ec 44 91 b8 12 8f 65 3c
       -0.0015503739 -0.0040371334 -6.9269765e-05 0.014011161
000360 c0 5c 16 3c da 76 99 b8 90 8b 32 b7 19 8f 22 3c
       0.009177387 -7.317746e-05 -1.0642121e-05 0.009921812
000370 cf ea a2 bb bd 96 f2 bb 57 1f 67 3a ad 7b 8a bc
       -0.004971839 -0.0074032233 0.00088166207 -0.016904676
000380 84 f5 3e bd 03 37 1f bb d1 2e 6b bb d1 fc 03 3c
       -0.04662086 -0.0024294264 -0.003588606 0.008055882
000390 4e 58 68 3c 68 2a 47 b8 fb f1 9c 3d a0 f8 44 bb
       0.01418121 -4.748479e-05 0.076633416 -0.0030055419
0003a0 ca 01 6d 3b 64 37 02 3d 0f ee 2b 3d 95 15 96 bb
       0.0036164396 0.031791106 0.041975077 -0.0045802095
0003b0 af 59 ce bb ac 54 41 3c 53 42 b1 b8 13 1e 8d bb
       -0.006297312 0.0117999725 -8.4523715e-05 -0.0043065636
0003c0 dc d6 05 b9 5b 54 7c 3c b8 a7 be b8 81 ab 4e 3d
       -0.0001276391 0.015400971 -9.091146e-05 0.050456528
0003d0 43 85 55 3c 3a 42 38 3c 70 d3 25 bc f1 da 50 3d
       0.01303226 0.011246258 -0.010121211 0.05099005
0003e0 46 10 2a 3b 49 09 57 3b 23 87 7c bb 4b b2 f6 3b
       0.002594964 0.003281193 -0.0038532696 0.0075285784
0003f0 99 c7 ae 3b fa 58 54 3d 7f e9 8b 3d ad 77 8c 3d
       0.0053338525 0.051842667 0.06831645 0.06858764

lstm_layers.1.weight_ih_l0 f4 [256, 64]
000000 2e 60 99 3b 83 41 1b 00 56 8d 99 3a 94 85 e5 8e
       0.004680655 2.50306e-39 0.0011715095 -5.658149e-30
000010 22 79 c6 bb a8 89 3a 3b 24 2f 62 3a c4 fa 2e b1
       -0.0060569206 0.0028463397 0.00086282403 -2.5462876e-09
000020 65 ff 06 bb c2 28 ef 39 81 d0 8b ba 1a bb 31 3a
       -0.0020599004 0.00045616 -0.0010666997 0.00067798945
000030 f7 46 24 00 82 8f fb ba 62 c0 29 3a 5d 10 66 b9
       3.331535e-39 -0.0019192549 0.00064755057 -0.00021940605
000040 91 eb 28 bb de 1a f4 ba b7 af ee 3a 02 81 01 00
       -0.0025775174 -0.001862373 0.0018210326 1.38115e-40
000050 ea b1 98 3a f8 a1 5b b9 82 1a 24 00 0b 37 f0 39
       0.0011649702 -0.00020945806 3.315587e-39 0.00045817377
000060 c0 46 c3 39 d7 be 20 80 21 02 11 98 a5 e1 29 39
       0.0003724601 -3.007196e-39 -1.8741886e-24 0.00016201155
000070 01 db 04 3b 99 58 2b bb f8 42 0f bb 59 66 34 b9
       0.0020272138 -0.0026145338 -0.0021859985 -0.00017204265
000080 17 dc 8b 39 eb 22 ba 39 82 5c 2d ba a3 41 17 3b
       0.00026676126 0.000355027 -0.0006613211 0.0023079894
000090 6c 4e 4e 3a 86 1e 24 80 cf 7c 74 3a 5c ab 33 39
       0.0007869962 -3.317028e-39 0.0009326459 0.00017134607
0000a0 bb dd 9a 39 a2 5c 9b 3a 28 53 d5 2d ff 05 53 39
       0.0002953837 0.0011853168 2.4252225e-11 0.00020124762
0000b0 8a 71 1d ba a8 c4 89 38 9a 4f 23 80 4e f8 f1 3a
       -0.00060059933 6.569299e-05 -3.242798e-39 0.0018460841
0000c0 24 e4 24 00 2f 3d 43 38 9e 26 24 80 40 b7 56 bb
       3.387919e-39 4.6548605e-05 -3.319931e-39 -0.0032763034
0000d0 e1 59 0e b9 24 16 be b9 94 98 36 b9 01 ed 19 3b
       -0.00013575658 -0.0003625612 -0.00017413712 0.0023487213
0000e0 24 af 2a ba ca 4c 80 ba 1c e5 d2 ba 1c bf 23 3a
       -0.00065110833 -0.000978851 -0.0016090008 0.0006246434
0000f0 a4 98 4a ba 69 22 81 3a 4f 9b c8 ba f5 06 07 3a
       -0.00077284337 0.0009852174 -0.0015305075 0.0005150878
000100 81 e8 a2 bb c5 e1 23 80 d6 0e ce ba b3 0e 4f 90
       -0.0049715643 -3.295233e-39 -0.0015720974 -4.0834876e-29
000110 47 ca ba bb 79 5c a1 bb a1 07 f9 ba b2 3f b0 b1
       -0.005700383 -0.0049243537 -0.0018999466 -5.1295155e-09
000120 4b fc 88 ba e4 5a 2b ba 43 fb 81 bc c7 0f 7c 3b
       -0.0010451166 -0.0006536676 -0.015866881 0.0038461552
000130 4d 0c 1c 80 83 4d a1 3b 1e 14 85 ba af f1 2c 3a
       -2.575807e-39 0.00492257 -0.001015309 0.0006597293
000140 06 0c a1 39 87 1c 2d bb 63 dd b6 3b e7 0d 24 80
       0.0003071727 -0.0026414709 0.0055805906 -3.311065e-39
000150 fb 30 b9 ba f4 68 21 ba d0 2e 24 80 75 f9 8c bc
       -0.0014128977 -0.0006157302 -3.322871e-39 -0.017208794
000160 f9 f7 8d 3b f7 f6 23 80 9f 7f 8e 18 70 67 95 3a
       0.004332539 -3.302837e-39 3.6835004e-24 0.0011398625
000170 4f f9 20 39 76 b5 3d 3c d2 af 3f bb 65 ef 17 3a
       0.00015351664 0.011578908 -0.0029249084 0.00057958654
000180 5c a5 52 bb ec 12 86 b9 1f da ad bb bf 5c 4b 3c
       -0.003214202 -0.0002557257 -0.005305543 0.012412249
000190 92 db e1 3a 4b 22 24 00 32 d9 5b ba 80 b3 69 ba
       0.0017231575 3.31838e-39 -0.00083865516 -0.0008914992
0001a0 34 cd 54 3c 8c bd 68 3a 63 1f 3f b1 f0 d6 b4 ba
       0.012988377 0.00088783423 -2.7812e-09 -0.0013796967
0001b0 45 5e 98 ba d5 4d 12 bb 06 7f 0e 00 68 df 73 ba
       -0.0011624774 -0.0022324224 1.331264e-39 -0.00093030045
0001c0 dc 41 24 00 57 b0 f4 ba 68 35 24 80 8e c1 31 bc
       3.329704e-39 -0.0018668276 -3.325236e-39 -0.01084937
0001d0 69 95 84 3a 6e 6e 96 3a c4 94 da b9 15 81 f7 3b
       0.0010115328 0.0011477002 -0.0004169104 0.0075532296
0001e0 26 72 4e bc 98 4e bd 39 92 12 33 bc 06 ee df ba
       -0.012600457 0.00036107446 -0.0109297205 -0.0017084486
0001f0 40 1d db 3a 07 aa 25 39 3e 57 32 ba b6 80 e4 bb
       0.0016717091 0.00015798966 -0.0006803161 -0.0069733514
000200 32 9c 2b 38 dc 32 24 80 ac c3 2d 38 f1 37 77 8c
       4.0915045e-05 -3.324323e-39 4.1428648e-05 -1.9045022e-31
000210 3c 56 73 b9 5f 1d b9 37 1a 5f c0 b7 53 88 1e ad
       -0.0002320641 2.2067396e-05 -2.2932469e-05 -9.01153e-12
000220 8c 57 0a b9 da 94 25 37 e1 0b e0 b9 c0 98 a1 b7
       -0.0001319332 9.869424e-06 -0.0004273346 -1.9263825e-05
000230 b2 06 24 00 53 63 49 b9 74 d9 4a b7 91 bc 92 b7
       3.30848e-39 -0.00019205855 -1.2090768e-05 -1.7492364e-05
000240 b8 4e 0b ba c3 f5 ea b9 b4 ed 0b b8 2d 2a 24 80
       -0.0005314159 -0.00044815065 -3.336156e-05 -3.321208e-39
000250 db f5 63 b7 1d ba 94 36 b5 aa 27 80 04 94 05 ba
       -1.3587497e-05 4.43241e-06 -3.642822e-39 -0.00050956034
000260 50 39 24 b9 7b f0 23 80 5a 55 11 0d 0f b2 18 38
       -0.0001566161 -3.30051e-39 4.4784313e-31 3.6405454e-05
000270 b1 cf dc 37 7d db 36 b9 eb b8 90 b8 34 cd 8b b8
       2.6322758e-05 -0.00017438638 -6.900899e-05 -6.6662586e-05
000280 f2 1d ea b8 51 75 1f b6 ca 74 c1 b8 db 7d 7b b8
       -0.00011163567 -2.3761133e-06 -9.224711e-05 -5.9960275e-05
000290 66 b1 36 37 5f 56 24 00 b2 00 9f 37 29 4c 1b b8
       1.0889349e-05 3.337062e-39 1.89546e-05 -3.702581e-05
0002a0 c5 d3 1c b8 20 e2 c7 b6 cc 15 32 ad fe ff 91 b6
       -3.7390524e-05 -5.9569866e-06 -1.01229684e-11 -4.351138e-06
0002b0 d0 68 82 b6 9c 0f 83 38 57 46 24 00 8c 78 33 b8
       -3.8865037e-06 6.249474e-05 3.331311e-39 -4.2789194e-05
0002c0 7f 33 24 00 e6 c1 a2 b8 59 12 24 80 07 86 2c ba
       3.324551e-39 -7.760878e-05 -3.31266e-39 -0.0006581251
0002d0 b9 eb 85 b8 1d e5 9e b6 d7 75 18 b7 8e ef af 38
       -6.385841e-05 -4.7354392e-06 -9.087343e-06 8.389271e-05
0002e0 0f 3e c5 b9 aa 85 a6 b9 21 6d 98 b8 b5 f0 6d b6
       -0.00037621005 -0.00031761575 -7.268252e-05 -3.5455862e-06
0002f0 4e 21 7f b9 a1 25 54 b6 d0 8c 7f b9 5c 12 a4 b9
       -0.00024331102 -3.1612365e-06 -0.00024371152 -0.00031294196
000300 28 e1 d8 37 86 47 24 00 06 7e ba 37 7f aa 5b 8c
       2.5854053e-05 3.331736e-39 2.2231612e-05 -1.6922453e-31
000310 a3 bb 40 b9 8a 6c 4f 37 5a 8a 6e b7 50 6d 2c ad
       -0.00018380447 1.2363433e-05 -1.4218118e-05 -9.80134e-12
000320 55 d3 e5 b8 48 39 8a b6 a2 8e 8e b9 7b a6 bd b7
       -0.000109589346 -4.119389e-06 -0.0002719062 -2.260808e-05
000330 21 02 24 00 70 54 2c b9 38 5f 3f b7 9b 97 3e b7
       3.306842e-39 -0.00016434654 -1.1406657e-05 -1.1360181e-05
000340 04 82 c2 b9 8c 12 a1 b9 d6 51 0f b8 b4 25 24 80
       -0.00037099433 -0.00030722131 -3.4170072e-05 -3.319603e-39
000350 02 6b 27 b7 c3 5d d5 36 b3 19 24 80 e6 cf a8 b9
       -9.97889e-06 6.35881e-06 -3.315297e-39 -0.00032198353
000360 63 ec be b8 32 4a 24 00 a4 05 ec 0e 6d fb 7a 37
       -9.1039365e-05 3.332694e-39 5.8183923e-30 1.4959701e-05
000370 6e 35 70 37 d5 fb dc b8 a7 93 4b b8 c7 c2 a2 b8
       1.4317555e-05 -0.00010537325 -4.8536484e-05 -7.761042e-05
000380 57 fc a2 b8 4a 45 7b 35 7d b5 78 b8 c1 f2 77 b8
       -7.771764e-05 9.3605615e-07 -5.929683e-05 -5.911547e-05
000390 90 4b 4f 37 3b 3d 24 00 87 fb 05 37 88 e7 d0 b7
       1.2355755e-05 3.328043e-39 7.985981e-06 -2.4903347e-05
0003a0 c1 fa 9a b7 db c6 40 b7 d1 f7 f3 ac fe 60 1a b6
       -1.8474997e-05 -1.1490391e-05 -6.9339885e-12 -2.3004245e-06
0003b0 9c b9 66 b6 e2 8c f9 37 a3 3a 24 00 09 30 10 b8
       -3.438071e-06 2.9748717e-05 3.327113e-39 -3.437701e-05
0003c0 9d 9e 21 80 65 d3 76 b8 96 1c 24 00 ec 9e e9 b9
       -3.087471e-39 -5.8847847e-05 3.316333e-39 -0.0004455963
0003d0 33 15 4b b8 12 1d ad 35 ac 7c 16 b7 fc dd 89 36
       -4.8418715e-05 1.2897965e-06 -8.969724e-06 4.1087605e-06
0003e0 47 62 81 b9 c3 16 8c b9 29 4c 2c b8 b3 8c 28 b7
       -0.0002467802 -0.0002671984 -4.1078925e-05 -1.0046339e-05
0003f0 30 08 38 b9 8c 06 39 b7 ae 36 4b b9 ab fd 4d b9
       -0.00017550658 -1.1028384e-05 -0.00019379958 -0.00019644822

lstm_layers.1.weight_hh_l0 f4 [256, 64]
000000 da 68 94 39 50 ae 90 39 41 bb 09 ba 1b 34 de b9
       0.0002830688 0.00027595693 -0.0005254038 -0.0004238196
000010 a6 c7 e4 b8 94 df e1 b8 6e cd 06 b9 86 c0 cb b8
       -0.000109090746 -0.00010770481 -0.00012855764 -9.7156546e-05
000020 97 d0 80 b8 0b 01 49 b9 86 bc b3 b9 d3 f3 0b ba
       -6.1423685e-05 -0.00019169242 -0.00034282 -0.0005338762
000030 26 d8 61 3a 10 59 61 ba b7 f7 f3 b8 ba 62 ae 39
       0.00086152775 -0.000859634 -0.000116332834 0.00033261423
000040 c0 ba 94 b9 b0 90 c8 39 ad 9d 63 ba e5 35 f1 39
       -0.000283679 0.00038254773 -0.00086828583 0.00046007257
000050 e0 22 f3 39 1c b3 68 39 0f 06 f5 b9 ad 5f d0 b9
       0.00046374556 0.00022191968 -0.00046734556 -0.00039744136
000060 e3 57 07 ba 39 8a 36 3a b5 c8 e2 39 4f 8a 47 b9
       -0.00051629375 0.0006963346 0.00043255617 -0.00019029643
000070 e6 3c cd b9 7d 1f 10 ba 7d 58 1a 39 ab ab 46 b9
       -0.0003914602 -0.0005497856 0.00014719549 -0.00018946703
000080 eb a1 d5 38 49 07 f1 38 2b 70 bf 38 db 5e 11 ba
       0.00010186791 0.000114931325 9.1284826e-05 -0.00055454456
000090 5c 58 1c b9 43 ee 49 ba 4b 02 10 ba cd 5b cd 38
       -0.00014910236 -0.0007703045 -0.0005493506 9.792261e-05
0000a0 6a 74 22 b9 1e ad 63 b9 3d 85 10 3a 4c a5 b3 b9
       -0.00015492892 -0.00021712898 0.0005513018 -0.00034264696
0000b0 39 5a 53 ba 1b dc cc b9 42 9f 4d 3a 46 11 ac b9
       -0.00080624555 -0.00039073903 0.00078438607 -0.00032819266
0000c0 a0 5c 90 3a 36 e8 91 39 bb d7 7c ba f1 ab 2b ba
       0.0011013933 0.00027829566 -0.00096451835 -0.00065487536
0000d0 79 f6 f6 38 41 d7 e0 b9 dc df 7c ba 57 ea c4 b9
       0.00011776103 -0.00042884986 -0.0009646395 -0.0003755863
0000e0 52 f4 9d b8 da cd a7 39 50 93 7f b9 aa 51 1d 39
       -7.5318516e-05 0.00032006094 -0.00024373573 0.00015003109
0000f0 97 98 e5 b9 5d f8 15 3a 81 71 a2 39 cb 6c 33 38
       -0.00043791972 0.0005720908 0.00030983615 4.2778247e-05
000100 64 3a 3b 3a 99 2c a9 ba 5f df 2a ba 9b d8 e1 b9
       0.0007142185 -0.0012906968 -0.000651827 -0.00043076728
000110 9c a1 22 39 be 13 82 3a 61 51 20 ba 39 da 0e ba
       0.00015509728 0.0009924097 -0.0006115642 -0.0005449388
000120 d7 43 1a b9 4c e2 14 36 d1 13 de b9 cd 02 86 ba
       -0.00014711857 2.218544e-06 -0.00042357904 -0.0010224223
000130 15 d5 83 3a 19 0e a9 39 66 90 8b 38 1d 48 d1 39
       0.001005801 0.00032244695 6.654933e-05 0.00039917315
000140 19 d0 a9 b9 18 43 89 39 b0 c9 06 ba 38 fe 05 3a
       -0.00032389237 0.00026180665 -0.0005141748 0.0005111429
000150 55 ef 1a 3a c5 b2 29 39 67 9c 01 bb dc 51 d2 b9
       0.0005910297 0.00016183693 -0.001977706 -0.0004011531
000160 db a6 41 ba f9 de 01 bb 51 a4 09 3a 1c 01 66 3a
       -0.0007387229 -0.001981674 0.00052506203 0.0008773969
000170 85 b9 01 ba 42 ab 6e ba 2f 66 b6 39 f6 13 cf ba
       -0.0004948604 -0.0009104499 0.00034789878 -0.0015798796
000180 12 22 08 3a 12 f5 05 39 c4 a9 08 3a f3 33 4e 3a
       0.0005193065 0.00012775164 0.00052132853 0.00078660174
000190 7e 74 b5 ba e1 ba 00 ba 22 25 4b ba 2c 74 39 3a
       -0.0013843921 -0.00049106596 -0.00077493687 0.0007074501
0001a0 c8 00 84 3a 43 38 5e b9 83 1d a7 ba 5a 68 87 b9
       0.0010071034 -0.00021192529 -0.0012749884 -0.00025826955
0001b0 4a de ad 38 cb 29 ba 38 f2 76 16 ba 23 c3 37 3a
       8.2906874e-05 8.876956e-05 -0.000573977 0.00070099736
0001c0 79 0d d1 3a a0 4b 4c ba d9 96 9b 39 27 3f ab 39
       0.001594945 -0.00077932514 0.00029676294 0.00032662714
0001d0 63 e4 82 3a b3 1f 03 ba 73 c6 95 3a f8 3c 88 b6
       0.0009986277 -0.0005001977 0.001142694 -4.0602135e-06
0001e0 21 4e 70 3a 1d 40 df 3a dc 6f 1e b8 3a 4e a1 3a
       0.00091669156 0.0017032657 -3.7774313e-05 0.0012306639
0001f0 a5 e6 7c 3a 64 e8 59 39 a3 7b 11 b8 a0 8c 6d b9
       0.0009647406 0.00020781305 -3.468584e-05 -0.00022654468
000200 22 71 16 37 7b 51 19 b8 d1 cc d5 36 ce 8f 97 36
       8.9670375e-06 -3.6553927e-05 6.3717384e-06 4.5168917e-06
000210 35 c6 1d b7 af c9 34 38 97 37 ba 35 fc aa 87 35
       -9.404078e-06 4.3103177e-05 1.3874259e-06 1.0108047e-06
000220 da 39 b1 34 0b 97 5f 35 1b 43 2c 36 74 75 a5 b6
       3.3010912e-07 8.329377e-07 2.5669058e-06 -4.9310565e-06
000230 78 b7 9d 37 f4 8d fa b6 16 ba bb 34 aa ad 27 b6
       1.8801293e-05 -7.467106e-06 3.496686e-07 -2.4986025e-06
000240 f6 1c 49 b6 aa ac 88 b6 75 fb 18 37 eb 08 ab b6
       -2.9968191e-06 -4.0732166e-06 9.118453e-06 -5.0972353e-06
000250 12 57 9d b6 81 5e 03 b6 1b 22 d6 37 28 96 8c 36
       -4.689101e-06 -1.957553e-06 2.552667e-05 4.1898056e-06
000260 52 16 d4 36 d9 2e 01 36 db 6a 8e b6 21 6f 1a b9
       6.3206908e-06 1.9249767e-06 -4.2443694e-06 -0.00014727983
000270 f1 9c 8f 36 fa de c7 36 b7 fd 11 b6 be 77 fa b6
       4.2800025e-06 5.95662e-06 -2.1754365e-06 -7.4645204e-06
000280 b6 cd 73 b5 fd 20 d4 b5 80 7d 8b b5 cb 22 04 b9
       -9.0823903e-07 -1.5804832e-06 -1.0392832e-06 -0.00012601462
000290 70 05 be b6 a8 29 1c b7 bb 2a d6 36 8b e2 c9 37
       -5.6630743e-06 -9.308023e-06 6.3826715e-06 2.406656e-05
0002a0 a7 64 f0 36 30 12 1c 36 bd 5c 67 37 34 00 78 36
       7.164275e-06 2.3256398e-06 1.3790265e-05 3.6954998e-06
0002b0 65 df 96 b7 07 4a 4b 35 7e 8f 8e 37 32 82 b2 37
       -1.798542e-05 7.5731117e-07 1.6994538e-05 2.127988e-05
0002c0 dc ef 12 b9 78 e4 09 36 27 e0 20 b7 1a 9d 62 36
       -0.00014013 2.0547577e-06 -9.588933e-06 3.376807e-06
0002d0 13 91 81 b9 ef 45 1b b6 24 95 32 b8 28 c5 3e 37
       -0.00024712886 -2.3137507e-06 -4.2577405e-05 1.13707865e-05
0002e0 32 66 0b 35 f7 cc b5 b8 2d 22 f8 35 6a 40 28 37
       5.193025e-07 -8.66893e-05 1.8487386e-06 1.0028578e-05
0002f0 b4 e8 1f b7 3f 80 2e 37 f5 45 5c 37 6c f3 43 36
       -9.531319e-06 1.0401068e-05 1.312931e-05 2.9198955e-06
000300 08 7c 13 37 89 5b db b7 25 bf 8f 36 9c e2 4d 36
       8.790761e-06 -2.6149459e-05 4.2839843e-06 3.0679284e-06
000310 1a ce ba b6 6d f1 02 38 68 80 5e 35 cb 40 1e 35
       -5.5672253e-06 3.121926e-05 8.28883e-07 5.8953873e-07
000320 6a 0d 68 33 62 a6 fd 34 ae d8 c6 35 a3 61 0c b6
       5.402891e-08 4.7245982e-07 1.4815212e-06 -2.0918458e-06
000330 69 ac 5c 37 22 97 f4 b6 28 23 72 33 08 48 bb b5
       1.3153164e-05 -7.289361e-06 5.637699e-08 -1.395355e-06
000340 40 c6 09 b6 18 24 3d b6 81 c3 2e 37 71 e7 65 b6
       -2.0529988e-06 -2.8184204e-06 1.04167275e-05 -3.4258376e-06
000350 22 d2 4d b6 4d 1e a7 b5 ea c1 9b 37 a8 4b 3c 36
       -3.0669694e-06 -1.2451288e-06 1.8567738e-05 2.805822e-06
000360 dd 58 8b 36 b6 a6 1a 36 9e 9e 39 b6 c2 b7 e4 b8
       4.152868e-06 2.3044827e-06 -2.7659476e-06 -0.00010906115
000370 e3 13 31 36 64 8b 80 36 c9 17 72 b6 0b 5b 22 b6
       2.638663e-06 3.8309245e-06 -3.6074655e-06 -2.4192875e-06
000380 04 5a 33 b5 c9 aa 89 b5 45 b3 16 b5 1b 93 c3 b8
       -6.6813686e-07 -1.0257e-06 -5.6140226e-07 -9.325725e-05
000390 94 0e 1a b6 82 6f 12 b6 f1 46 8d 36 6b 0f 60 37
       -2.2956274e-06 -2.1820601e-06 4.210386e-06 1.335503e-05
0003a0 e1 e6 be 36 af 52 8b 36 64 48 33 37 52 52 2b 36
       5.689319e-06 4.1521484e-06 1.0686086e-05 2.5528902e-06
0003b0 fd ee 26 b7 87 ed 27 b4 72 69 55 37 22 8d 5d 37
       -9.950015e-06 -1.5639499e-07 1.272034e-05 1.32054865e-05
0003c0 7e 87 f1 b8 63 7d e8 b5 72 9d b1 b6 0f 87 53 36
       -0.00011517013 -1.7321839e-06 -5.29334e-06 3.1520065e-06
0003d0 eb c4 3f b9 f1 1e 0e 36 d2 01 04 b8 4e 9b de 36
       -0.00018288537 2.117766e-06 -3.1472948e-05 6.6341954e-06
0003e0 42 c1 1a 36 0d 3a 89 b8 d7 4d a9 35 96 2f 0d 37
       2.306028e-06 -6.543482e-05 1.2614136e-06 8.415334e-06
0003f0 8b cf 09 b7 b2 2a 13 37 65 ab 39 37 28 4c 9e 35
       -8.214159e-06 8.771824e-06 1.1066765e-05 1.1794082e-06
