transformers/results/pimentel_mlp/month_12_December/pimentel_mlp_model_20251209_003348.pt (torch, 432266 bytes, 43 tensors)

_network.0.weight f4 [128, 5]
000000 ca 79 aa 3e 6b 54 bf 3e 0a ad d7 bd 85 72 01 3f
       0.33296043 0.37369093 -0.105310515 0.5056537
000010 03 28 7c bd 0c 5a 15 3e 50 a4 34 be 27 c9 7e 3e
       -0.061561596 0.14585131 -0.17640805 0.24881421
000020 1a 63 fc 3e d9 d3 a5 be a0 d1 13 3f a6 5b 04 3e
       0.49294358 -0.3238819 0.5774174 0.12925586
000030 f7 83 38 3e 20 83 ce 3d 1f a3 38 3e 3a 95 27 bd
       0.1801909 0.10083604 0.18030976 -0.040913798
000040 69 a1 c3 3e ff 89 bc 3c 68 e7 5c be 7c 7f f2 3d
       0.38209084 0.02301502 -0.2157265 0.11840722
000050 aa c5 68 be b2 97 94 bb 19 f7 44 be ab 5f 89 3e
       -0.22731653 -0.004534685 -0.19234885 0.268308
000060 d3 e1 b0 be 4d eb 7f be a3 ff e5 bd 86 ad 95 be
       -0.3454729 -0.24992104 -0.112303995 -0.2923395
000070 ed 39 9b bd 46 b5 ce be 52 e7 c7 3e 1d 69 bf be
       -0.07579408 -0.40372676 0.3904367 -0.37384883
000080 b5 52 b7 3e b9 0b 5b 3d bb 95 37 be b2 89 bb 3e
       0.35805288 0.053477976 -0.17928211 0.3662849
000090 cd da 31 3d d2 8a ae 3e e6 ae 12 3d f5 41 a8 bd
       0.043421555 0.34090286 0.035811327 -0.08215705
0000a0 7d 7d a4 3e e1 ca 94 bd 8a 0f 25 3e c4 56 dd 3e
       0.3212699 -0.072652586 0.16119209 0.4323026
0000b0 d5 2c 52 3e 30 f1 13 be eb af 84 3e 94 a2 34 3d
       0.20524915 -0.14447474 0.25915465 0.04410036
0000c0 c2 de 90 3e a4 40 a9 be 34 95 fc be b2 6c 60 be
       0.2829495 -0.3305713 -0.49332583 -0.21916464
0000d0 ee 0f 8e be 2d ab 87 3e f9 53 2a 3e ee b6 5b 3e
       -0.27746528 0.26497784 0.16633596 0.21456501
0000e0 49 1c e7 3d 07 8d 9c bb 72 9e e0 3e 54 99 87 be
       0.11284692 -0.004777554 0.43870884 -0.26484168
0000f0 76 76 a8 3d 3b ab 7c be 56 56 20 3e a5 b2 6a be
       0.0822572 -0.24674694 0.15657935 -0.2291971
000100 3e 8d f4 3d e9 f8 84 3b ad c4 af 3e 7b ee 78 be
       0.11941002 0.0040579927 0.3432974 -0.24309723
000110 af 73 92 be 71 b1 9e be 3d 30 07 3f cf 31 ab 3d
       -0.28603885 -0.30994752 0.5280798 0.083591096
000120 0c 3e bc 3e b8 c3 a4 be ab b1 d6 be d8 a1 f3 be
       0.36766088 -0.32180572 -0.41932425 -0.47584414
000130 a9 6f 50 be b7 e5 22 3e 23 db 05 3e ab 98 a3 3e
       -0.20355095 0.15907942 0.13071875 0.31952414
000140 09 46 9d be 79 62 83 be 2a 92 7d 3e 3a 46 07 be
       -0.30717495 -0.25661066 0.24762788 -0.13210383
000150 35 cd 82 3e fb 42 fd bb 73 42 6a 3e 96 58 14 bf
       0.25547186 -0.007728932 0.22876911 -0.5794767
000160 d3 f9 3e be 1f 23 1f 3e a0 1b 42 3e 65 75 e9 bd
       -0.18649988 0.15540741 0.1895585 -0.11399344
000170 7a b9 96 3e 94 46 a1 3e 04 bc 84 be ba 33 70 be
       0.29438382 0.3149916 -0.25924695 -0.23457232
000180 30 d1 d4 3e 4f 80 0d be ce b7 de bd 76 9c ec be
       0.41565847 -0.13818477 -0.10874902 -0.4621312
000190 27 ab 91 be 04 fa d8 3d f8 3b e5 bd 2a 6d 9d be
       -0.2845089 0.10594562 -0.11193079 -0.30747348
0001a0 3c 28 ed 3c 09 2e e3 be 18 5e a2 be e5 e5 2c be
       0.02894985 -0.4437106 -0.31712413 -0.16884573
0001b0 b0 b5 b9 be 1c c0 8c be 7d 2c 19 3f 06 e9 86 3d
       -0.3627143 -0.27490318 0.5983351 0.065874144
0001c0 38 23 05 bd dc 4a 98 be 9b 15 b5 be 0b ca 0c be
       -0.03250429 -0.29744613 -0.35368046 -0.13748948
0001d0 51 6d ea 3d 23 43 b7 be 2d b9 50 be e5 a3 9c be
       0.11446632 -0.3579341 -0.20383139 -0.30593792
0001e0 41 c1 e0 3c a1 93 f5 bd 80 5d d6 3a ce d6 a2 be
       0.0274359 -0.119910486 0.001635477 -0.31804508
0001f0 34 90 a0 be d0 6f 7d be de e0 18 be 6e 36 c4 be
       -0.31360018 -0.24749684 -0.1492953 -0.38322777
000200 8b 3e d3 3e c1 0a cb bd 24 98 b0 3e 6c 12 b3 3d
       0.41258654 -0.099141605 0.34491074 0.08743748
000210 10 86 d9 be e4 94 b4 3e 52 03 33 be 84 6e 35 be
       -0.42485094 0.35269845 -0.17481735 -0.1771794
000220 36 c8 83 be ba ea 27 bf 43 dc dd 3d 13 32 c7 bd
       -0.25738686 -0.6559254 0.10833027 -0.09726348
000230 1a 00 87 3e 70 d5 aa be 1e 22 9f 3e 99 e7 b1 be
       0.26367265 -0.33365965 0.31080717 -0.34747007
000240 cf 54 83 bd 33 c2 f7 3d 22 83 76 3e d5 2a 94 3e
       -0.0641266 0.120975874 0.2407346 0.28938928
000250 02 68 0d 3f 22 83 a7 be 60 da 1b 3e 36 f1 06 be
       0.5523683 -0.32717234 0.15220022 -0.13177952
000260 8f 6c 5a bd 53 14 b0 be 56 46 cc 3e 3c 9c b8 be
       -0.053326186 -0.34390506 0.39897412 -0.36056697
000270 66 97 5b 3e e0 f9 30 3e 52 67 b7 3d 48 6a 75 be
       0.21444473 0.1728282 0.08955254 -0.23966324
000280 18 eb 09 3f 21 41 ec 3d 0e 41 00 bb 44 da 92 be
       0.5387435 0.1153586 -0.0019570026 -0.28682148
000290 21 48 24 3e 01 24 54 bd a0 c6 50 be 3b 76 cf 3e
       0.1604314 -0.05179215 -0.2038827 0.4051989
0002a0 53 03 26 3e 72 41 6e be 40 fb 40 be e5 6d 9f bb
       0.16212206 -0.23267153 -0.18845844 -0.0048653954
0002b0 90 a6 45 3e 7a 36 16 be fa 89 96 be 32 56 4c be
       0.1930182 -0.14669219 -0.29402143 -0.19954756
0002c0 23 8a a7 be 8a 5e 2b 3e 22 70 b6 3e 4d 02 c7 be
       -0.32722577 0.16735283 0.35632426 -0.38868943
0002d0 96 0e 13 3e f8 54 88 3e 68 6f a5 3d be 1a d3 bd
       0.14361033 0.26627326 0.0807789 -0.10307835
0002e0 ff ca 6b 3e 83 9a a1 3e 39 72 20 3e 53 36 d5 bd
       0.23026656 0.31563196 0.15668572 -0.10410752
0002f0 f4 d1 e7 bd 6c 1c dd 3b be 1c 8a bc 29 6f b4 bd
       -0.11319342 0.006747773 -0.016859408 -0.088102646
000300 9a c6 74 3e 4a 7a f8 3e b1 34 7d bd 87 88 1e be
       0.23903885 0.485308 -0.06181783 -0.15481769
000310 fa 8c 87 3c c0 09 04 3c 0f 80 89 3d 4e e5 02 3e
       0.016546715 0.008058965 0.06713878 0.12782785
000320 ab 9d dc be 1b 1e 50 be 50 b7 a6 3e 9a df 05 3e
       -0.4308904 -0.20323984 0.3256173 0.13073578
000330 11 c3 38 3d f7 69 57 be 44 b2 7d be 85 99 0c bf
       0.045107905 -0.21036516 -0.24775034 -0.5492175
000340 1e 1a bc bd 0f a1 9a 3d e5 d3 03 3f b0 ff 46 3e
       -0.09184669 0.07550251 0.514952 0.19433475
000350 a4 47 9c be b4 ad 5f be ba 5b f5 3b 58 81 f2 3e
       -0.30523407 -0.21843606 0.0074877413 0.47364306
000360 82 4d 1d bc 70 9c c9 bd ef 1a 94 3e ae cf f3 bd
       -0.009600999 -0.09844291 0.289268 -0.11904846
000370 a0 9a a6 be 6b bd 99 3e a2 95 4e be 26 ae 0f be
       -0.32539845 0.30027327 -0.20174268 -0.14031276
000380 4b 2f d8 be ab 7c ac 3e 87 47 83 3e 93 f8 d1 3d
       -0.42223582 0.33688864 0.2564051 0.1025249
000390 89 aa b7 be 53 96 e2 be 94 3d c3 be f3 f1 b1 3e
       -0.35872295 -0.44255313 -0.38132918 0.34754905
0003a0 b6 fb 67 3e 22 34 bb 3e 61 32 59 3e ce aa fe 3d
       0.22654614 0.36563212 0.21210624 0.12434922
0003b0 ef ae 76 3b 9a 91 f0 be f2 cc c4 be 33 34 cd be
       0.003764089 -0.46986085 -0.3843761 -0.40078887
0003c0 e0 09 b3 3e 2e be 57 be 53 f9 ad bd 99 85 11 be
       0.34968472 -0.21068642 -0.084948204 -0.1421112
0003d0 cb 93 aa bd e7 a8 89 be 87 52 b5 be 29 b2 4c 3e
       -0.083289705 -0.26886675 -0.35414526 0.19989838
0003e0 a0 63 00 be c1 10 87 3e 11 c2 2e be a5 46 b2 be
       -0.12538004 0.2637997 -0.17066218 -0.34819523
0003f0 4a 5a d3 bd 33 74 3f be cc 23 0e be c9 cd e7 be
       -0.10319956 -0.1869667 -0.13880843 -0.4527419

_network.0.bias f4 [128]
000000 7f 46 ba 3d 71 d9 d6 be 3e 08 c9 3e 70 44 90 3e
       0.09095477 -0.4196277 0.392641 0.28177214
000010 8a 79 e0 be 8a 7d 5b be 66 58 15 3e c1 03 bb bd
       -0.43842727 -0.21434608 0.14584503 -0.091315754
000020 fa 4b 41 bd ba 21 4f be 83 97 b6 3e 54 80 7f be
       -0.047191598 -0.2022771 0.3566247 -0.24951297
000030 2f e5 bd 3e 94 14 ea 3c 57 fa b7 3d 11 94 b2 3e
       0.37088916 0.028574266 0.089832954 0.3487859
000040 6c ab 97 bd 73 5b 82 be 37 fc 94 bd d0 b6 b9 3e
       -0.07405743 -0.25460395 -0.07274669 0.36272287
000050 f6 88 a5 be 81 31 d3 3d 95 05 e5 be 99 81 70 3e
       -0.32331055 0.103121765 -0.4473082 0.23486938
000060 5d 66 26 3e 42 65 9f 3c 27 67 44 3e b5 f8 1f b8
       0.16249986 0.019457463 0.19179974 -3.814018e-05
000070 c0 63 7d 3e 82 63 b5 be 76 3f 86 bd 36 8c 48 3e
       0.24745083 -0.3542748 -0.06555073 0.19584736
000080 bb 8e e5 3e 96 79 68 3e 37 b1 a3 be 7c 1e b0 3e
       0.44835457 0.22702631 -0.31971142 0.34398258
000090 62 bd cc bd b3 aa ba bd c8 03 d0 be 50 0a 84 bd
       -0.099970594 -0.091145895 -0.40627885 -0.064472795
0000a0 9a 21 a0 3e 84 75 80 3d 1d 1c 86 be 8e 81 0d 3e
       0.31275636 0.06272414 -0.26193324 0.13818952
0000b0 2d 67 12 be 20 1b d1 3e 3c fc c5 be 98 bb 10 be
       -0.14297171 0.40841007 -0.38669002 -0.14134061
0000c0 db 2c e1 be 66 3c 34 be f5 50 10 3e 31 72 cf 3e
       -0.43979535 -0.17601165 0.14093383 0.4051681
0000d0 2e 4e 9b 3d c2 df e0 3e 93 be b2 3d 5f 21 84 3e
       0.07583271 0.43920714 0.087277554 0.2580671
0000e0 9c 85 b7 3e b3 e3 be 3e ca a4 7f be 1e 16 d2 3e
       0.35844123 0.37283096 -0.24965206 0.410325
0000f0 c9 bb 8a 3e 89 7b 5e be 6b 2c 54 be 87 04 c0 be
       0.27096394 -0.21726812 -0.20720069 -0.37503454
000100 60 1a e8 3d 5c 5c b9 be 08 75 42 3e 7a b1 0a 3e
       0.11333156 -0.36203277 0.18989956 0.13544264
000110 2d d3 c8 be 1e fa fa 3d bb 95 15 bd 12 df 50 3e
       -0.39223614 0.12254737 -0.036519747 0.20397595
000120 33 8a 83 3e ef e5 e2 be 5d df d3 3e e9 e3 bf 3e
       0.25691375 -0.4431605 0.4138135 0.3747857
000130 01 bc 38 3e 21 ca d3 be e5 87 23 be 5f a5 f3 bd
       0.18040468 -0.4136515 -0.15969808 -0.118967764
000140 dc 93 ed bd 18 e1 80 3e 3f 80 25 3e 35 de b8 3e
       -0.116004676 0.25171733 0.16162203 0.3610703
000150 3b 8f 2b be e4 52 19 3e 86 9b 24 3e f7 31 c3 be
       -0.16753857 0.14973027 0.16074952 -0.38124058
000160 99 f5 dd be ff 90 6d be de 70 9c 3e a9 8b d7 be
       -0.4335144 -0.23199843 0.3055486 -0.4209874
000170 c3 aa c7 be 22 54 80 3e 8f 55 77 3e cf 86 bc 3e
       -0.38997468 0.25064188 0.24153732 0.368216
000180 19 bc b1 be e1 94 a6 be 05 91 69 3e 61 73 c6 3e
       -0.3471382 -0.3253546 0.22809227 0.38759902
000190 19 61 88 3e ae 27 8e 3d c2 6f 18 3e 02 6e d9 3e
       0.2663658 0.06941162 0.14886382 0.42466742
0001a0 92 a4 93 be 15 f0 52 be b6 2a a2 3e bf ad 9c be
       -0.28836495 -0.20599397 0.3167321 -0.30601308
0001b0 cc 3d 7c be cc 14 a7 3e 4e 5c 10 3e 9c f2 11 3e
       -0.24632949 0.32633054 0.14097711 0.14252704
0001c0 71 56 42 be 50 e9 9f bb a4 dc d1 3e 95 bf 87 be
       -0.18978287 -0.004880108 0.40988648 -0.26513353
0001d0 e8 a2 59 3b c1 1a 59 3e 51 78 9e be 94 8c de 3e
       0.0033208672 0.21201612 -0.3095117 0.43466628
0001e0 2b bb 66 be d0 51 dc bd 4e c7 fc bd 0f 35 95 be
       -0.22532336 -0.10757792 -0.12342702 -0.29142043
0001f0 3c 30 e3 be 7f 69 81 3e 18 e2 f4 3d 3b 18 d6 be
       -0.44372737 0.252758 0.119571865 -0.4181536

_network.1.weight f4 [128]
000000 cf 95 71 3f 04 41 71 3f 9d 4a 8a 3f 1b e4 67 3f
       0.94369215 0.9423983 1.080402 0.90582436
000010 b9 40 7b 3f ba b2 72 3f de 24 7f 3f 95 ec 7f 3f
       0.98145634 0.94803965 0.9966563 0.9997037
000020 f5 95 81 3f 28 6c 69 3f 28 83 7e 3f 29 20 74 3f
       1.0123888 0.9118066 0.9941888 0.9536157
000030 e9 e6 6e 3f 99 61 4c 3f a2 13 76 3f 79 c7 84 3f
       0.9332109 0.7983642 0.9612371 1.0373374
000040 31 d1 68 3f a2 e0 70 3f 31 3b 67 3f ae e8 5f 3f
       0.909442 0.9409276 0.90324694 0.87464416
000050 35 50 87 3f 2b ad 80 3f 5f 91 85 3f 2d 4a 71 3f
       1.0571352 1.0052847 1.0434989 0.9425381
000060 e7 82 6b 3f 9d 90 6b 3f 73 36 8b 3f bd 53 6e 3f
       0.91996616 0.9201754 1.0875992 0.93096524
000070 74 ca 75 3f 47 b1 6c 3f f0 c8 70 3f df ca 81 3f
       0.96012044 0.92458004 0.94056606 1.0140036
000080 34 07 81 3f 23 9d 60 3f 09 f8 66 3f 9b 51 6d 3f
       1.0080323 0.8773977 0.9022222 0.92702645
000090 0d c1 70 3f d0 d4 8a 3f 1e a9 58 3f f4 f0 87 3f
       0.9404457 1.0846195 0.8463305 1.0620408
0000a0 c2 cb 7a 3f d6 64 59 3f ff a9 86 3f aa e8 8a 3f
       0.9796716 0.8491949 1.0520629 1.0852253
0000b0 4d bb 80 3f 7b 60 6c 3f 1a 38 80 3f 1a b7 7e 3f
       1.005716 0.9233472 1.0017121 0.9949814
0000c0 ff 0a 81 3f b1 96 52 3f a0 4b 5b 3f 6b ea 7f 3f
       1.0081481 0.82261187 0.8566227 0.9996707
0000d0 0d 39 78 3f bb b8 8e 3f dc b6 6f 3f 3e ed 5e 3f
       0.9696205 1.1150125 0.93638396 0.8708075
0000e0 8d 35 6b 3f f1 9c 63 3f e8 7a 76 3f 16 9b 76 3f
       0.91878587 0.8891135 0.9628129 0.9633039
0000f0 a7 a8 78 3f 1f e7 88 3f ff ee 8d 3f 32 c7 78 3f
       0.97132343 1.0695533 1.1088561 0.9717895
000100 df ff 7e 3f 36 40 75 3f 27 19 83 3f da a1 86 3f
       0.9960918 0.95801103 1.0242051 1.0518143
000110 f3 bd 7b 3f 11 63 84 3f 99 8d 55 3f 8b a4 7c 3f
       0.98336715 1.0342733 0.83419186 0.9868857
000120 5a 1c 5f 3f 6b 93 77 3f 70 d0 86 3f dc 18 71 3f
       0.87152636 0.96709317 1.053236 0.9417856
000130 d6 c2 87 3f 71 0e 8b 3f db 17 4f 3f 24 af 80 3f
       1.0606334 1.0863782 0.80895776 1.0053449
000140 cd 5a 7c 3f 7e 18 75 3f 14 7e 6d 3f b0 cc 75 3f
       0.9857605 0.957405 0.92770505 0.96015453
000150 2d 31 72 3f 79 0a 82 3f f6 44 83 3f e9 5b 86 3f
       0.94606286 1.0159446 1.025542 1.0496799
000160 a5 ec 6a 3f fa 50 55 3f 10 75 72 3f 73 f8 5a 3f
       0.9176734 0.83326685 0.94709873 0.85535353
000170 fc 77 6e 3f 19 f8 3a 3f e0 45 53 3f a8 1b 75 3f
       0.9315183 0.73034817 0.82528496 0.95745325
000180 aa b9 86 3f c5 80 7e 3f dd db 75 3f 14 00 70 3f
       1.052541 0.99415237 0.9603861 0.9375012
000190 87 f4 56 3f 04 51 84 3f a0 e0 6d 3f 85 fb 76 3f
       0.8396687 1.0337224 0.92920876 0.9647754
0001a0 01 40 7a 3f 03 39 83 3f 03 41 7a 3f 3e 6b 65 3f
       0.9775391 1.0251774 0.9775545 0.89616764
0001b0 f6 97 66 3f 1e b0 6e 3f 1e 5b 63 3f 14 dc 87 3f
       0.90075624 0.93237484 0.8881091 1.0614038
0001c0 31 1c 73 3f c0 ce 78 3f d4 78 6e 3f a4 67 56 3f
       0.9496489 0.97190475 0.9315312 0.83751893
0001d0 79 ba 71 3f 46 2c 6c 3f dd f4 7b 3f 42 6d 6d 3f
       0.9442516 0.92255056 0.98420507 0.9274484
0001e0 d7 be 7e 3f 96 1b 50 3f 3d 63 87 3f 48 4a 63 3f
       0.9950995 0.8129209 1.057716 0.8878522
0001f0 0b e2 8c 3f 61 48 82 3f 4d 35 83 3f 56 0a 49 3f
       1.1006483 1.0178338 1.0250641 0.78531396

_network.1.bias f4 [128]
000000 9b b0 ac 3b 46 a4 03 3c a5 6c 76 3d 3a 49 e3 bd
       0.0052700764 0.008034771 0.060162205 -0.11097951
000010 7d 97 74 3d 4f 74 aa 3c 4a fb 3f bd 6d e5 62 bd
       0.059714783 0.020807413 -0.046870507 -0.05539458
000020 3f cc 9f bc b1 aa 52 bd 7e 86 be bd 9f 70 7c 3c
       -0.019506572 -0.051432315 -0.09302996 0.01540771
000030 68 9f 65 bd 8c 01 b2 bd 80 67 8c bc 91 73 03 bd
       -0.056060225 -0.08691701 -0.017139196 -0.032092635
000040 cb 21 cc bd 2d 8a 01 be 45 7f 0e be c9 9d ba bc
       -0.09967383 -0.12650366 -0.13915737 -0.022780316
000050 58 39 8e bd 6a a7 99 bc a2 f8 f2 3d 6e de b6 bd
       -0.06944531 -0.018756587 0.11863829 -0.08929144
000060 1d a0 8f bd 5f 7e 95 bb fe 15 e4 3c 3d 81 9b bd
       -0.07012961 -0.0045621837 0.027842518 -0.075930096
000070 40 5e bd bd e5 94 7c 3d 29 0c a9 bd 1e 23 d1 bc
       -0.092464924 0.061665434 -0.082542725 -0.02552944
000080 4b 25 30 3c 99 7b 9e bd d2 c4 03 3d 3d d0 36 3c
       0.010751079 -0.07738418 0.032170124 0.011158046
000090 eb 32 82 bc 49 34 c2 3d 82 14 19 3c 6d 5a b2 bd
       -0.01589342 0.09482629 0.009343268 -0.087086536
0000a0 1c 94 ef 3c f6 28 0e be bf c7 0a 3d 67 ea 30 3e
       0.029245429 -0.13882813 0.0338819 0.17276917
0000b0 1a b6 7f 3c e0 e0 b8 bd 31 c6 fb 3b da 22 7b bd
       0.015607381 -0.090272665 0.0076835384 -0.061312534
0000c0 5a 80 6a 3c 8d 52 bb bc 17 6b 31 be db 73 9e bc
       0.014312828 -0.022866512 -0.17326008 -0.019342354
0000d0 36 5c 04 3d 2e a6 26 3e a7 1c a8 bd e1 89 50 be
       0.0323145 0.1627433 -0.0820859 -0.20365097
0000e0 d2 b0 1e bd f2 40 09 be c4 ae 17 bd 0f 1d 9b bd
       -0.038742848 -0.13403681 -0.037031904 -0.07573902
0000f0 35 ca 5a bd 93 40 b7 3c fc 7a e6 3d d8 d4 c4 bb
       -0.053415496 0.022369659 0.11253926 -0.0060068183
000100 b6 bb 81 bc 89 24 4e bd ad a0 41 3c da 05 0b be
       -0.015836578 -0.05032781 0.011818093 -0.13576451
000110 d4 28 45 bd e4 f5 ab 3b 00 16 4d bd 9d ff a0 3b
       -0.04813464 0.0052478183 -0.05006981 0.004913284
000120 6d c4 be bd 58 02 b5 bd af 3a a1 3d 58 da 88 bd
       -0.09314809 -0.08838338 0.07872521 -0.06682271
000130 78 85 4c 3d 7b ef ae 3d 04 dc 07 be 86 c9 1d 3b
       0.049931973 0.08541771 -0.13267523 0.0024076416
000140 5b 7d 7e 3d 14 c8 8c bd d0 05 72 bd 74 92 2e 3d
       0.062131267 -0.068740994 -0.059087574 0.042620137
000150 1a 4e bd bd 32 24 5b bd 97 fa c2 3d 68 09 13 3d
       -0.09243412 -0.053501315 0.095204525 0.035897642
000160 5c ca b5 bd 33 77 c4 bd 28 c1 b2 bd 33 57 81 3c
       -0.088764876 -0.09593048 -0.08728248 0.01578865
000170 c2 ba 35 bd 84 8f 1d be cf b3 09 be 87 1c f5 3b
       -0.04436756 -0.15386778 -0.13447498 0.0074802074
000180 f6 d1 c9 3d 3b b0 53 bc 96 0a b1 bd ed c3 53 bd
       0.098545 -0.012920435 -0.08644597 -0.05170052
000190 bc c2 d2 bd bd ed a1 3c 95 a4 26 bd c4 d8 18 3d
       -0.10291049 0.019766683 -0.0406843 0.0373161
0001a0 b8 64 ae bd 93 0e 11 bd 7c 74 f8 bc 14 d6 59 bd
       -0.08515304 -0.03541429 -0.030328982 -0.053182676
0001b0 7d ff 1f be d8 f2 e3 3b 24 98 be bd a5 78 a5 3c
       -0.15624805 0.0069564395 -0.09306362 0.02019913
0001c0 a2 a1 b8 bd 12 1d 57 3c 74 9a 59 bd 8b be 3f bd
       -0.09015204 0.0131294895 -0.053125814 -0.046812575
0001d0 29 d7 db 3c b2 79 f0 bc 6a ea 06 3c cd 52 9e bd
       0.026835995 -0.029354904 0.0082346 -0.07730637
0001e0 6e cb 0e bc 7f c0 40 bc 0b ef 8a 3d 43 87 21 be
       -0.008715494 -0.011764645 0.06783875 -0.15774255
0001f0 85 cd 17 bd ca f0 d2 bd a7 4d 2d bd 76 95 ce bd
       -0.037061233 -0.10299833 -0.042310383 -0.10087101

_network.1.running_mean f4 [128]
000000 8d 21 3e 3f ee dc 58 be 3b 20 4e 3f f1 ad c3 3e
       0.74269944 -0.21178028 0.8051793 0.38218644
000010 b4 60 ec be 82 93 14 bf 55 30 8a 3d cc 2a af 3d
       -0.4616753 -0.5803758 0.067475 0.08553085
000020 1a 3a cf 3e ab 6d a4 bb 4d 0f 91 3e a8 31 d8 3d
       0.40474015 -0.0050179563 0.28331986 0.10556346
000030 82 60 17 3e 87 0d cd bd 88 88 ab bc db 6c 95 3e
       0.14782909 -0.10012346 -0.020939127 0.29184613
000040 22 56 9c be e3 2c 86 be 2d 78 b1 3d e9 ff 90 3e
       -0.30534464 -0.2620612 0.086655 0.28320244
000050 0e 6e 12 bf d3 81 17 bf 15 4c 0c bf 67 0a d4 bc
       -0.5719918 -0.5918247 -0.5480359 -0.025883866
000060 26 44 6a be 2c 81 8f 3d b5 18 00 3f 12 63 6d be
       -0.22877559 0.070070595 0.500377 -0.23182324
000070 da da c7 bd 3e 12 0a 3e 05 e5 53 be a6 74 51 3e
       -0.097585395 0.13483521 -0.20692833 0.20454654
000080 a0 98 0a 3f 2c fc 2b 3e b9 f0 10 bf ef 6c 66 3e
       0.5413914 0.16795415 -0.56617314 0.22502492
000090 f8 41 ec 3d 79 c9 65 3c 06 01 f1 bd 55 ae 5e bc
       0.1153602 0.014025086 -0.11767773 -0.013591369
0000a0 40 e6 47 3e bd c3 7b be cf b7 28 be 6e fc e0 3e
       0.19521427 -0.24586387 -0.16476367 0.4394259
0000b0 d3 45 ab be cf 55 8d 3e 6f 3b 3c 3d 50 b7 0d bf
       -0.3345171 0.2760453 0.045955118 -0.5535784
0000c0 90 52 16 bf 28 df e5 be b3 39 9d be ce c4 11 3f
       -0.5871973 -0.44896817 -0.30708084 0.56940925
0000d0 66 86 9c bd 17 84 d8 3e 07 2d af 3e a6 af 03 3e
       -0.07642822 0.42288277 0.3421404 0.12859973
0000e0 49 e8 95 bd 78 3e d6 3e bd 8c 23 bf 7f 6d b5 3b
       -0.073196955 0.41844535 -0.63886625 0.0055367346
0000f0 71 d6 5a bd 8b 9b 34 be 1d c6 a9 3e 71 f9 c6 bd
       -0.053427164 -0.1763746 0.3315896 -0.09715546
000100 ce 83 1b 3d 67 b1 6c bf 3a 64 91 3e c6 03 2d be
       0.037967496 -0.92458194 0.2839678 -0.1689597
000110 37 40 5f bf 1b ce 8d 3d f3 79 82 3e 38 2f c1 3e
       -0.8720736 0.06924077 0.25483665 0.37731338
000120 5b cb 44 3e e9 ae 1b bf b1 eb 08 3f 8d 78 04 3f
       0.19218199 -0.60813767 0.53484637 0.51746446
000130 ef 68 ee 3e 2c 2c a1 be fb e1 b3 bd 64 44 d8 be
       0.46564433 -0.31479013 -0.08783337 -0.42239678
000140 65 8e 0f bd 22 6c 54 be 1c 8c 56 3e b7 1a 17 be
       -0.035047907 -0.20744374 0.20951885 -0.14756285
000150 60 2d 28 3d 0f a3 1e 3d b0 17 87 3e 2a 2f 9b be
       0.041058898 0.038729724 0.2638526 -0.3030942
000160 58 20 2c 3e e0 1a 6b be e8 35 53 3e 4b f9 d9 be
       0.16809213 -0.22959471 0.20626032 -0.42573008
000170 71 b8 eb be 37 d0 8e 3e 8f b0 03 3f 2b 75 76 3e
       -0.46039155 0.2789323 0.5144128 0.24068134
000180 88 37 b0 be 2b 20 a6 3d 6d 0f d0 3e 32 21 e8 3e
       -0.34417367 0.08111604 0.4063677 0.45337826
000190 3f de 0e 3f fb e6 02 bb 4a 0f d5 be 7e e7 30 3f
       0.5580787 -0.00199741 -0.41613227 0.6910323
0001a0 21 1d 83 3e 1c 9a 1a be 06 c7 44 3f ec 91 0e bf
       0.2560816 -0.1509785 0.76866186 -0.5569141
0001b0 f8 6f 43 be 8e 31 4f 3f a2 f0 c9 3e 3d 2a c3 3e
       -0.19085681 0.8093499 0.394414 0.38118163
0001c0 dd f5 7f be f4 90 31 bf 15 20 87 3e d5 cc 1a bf
       -0.24996133 -0.69361806 0.26391664 -0.604688
0001d0 ba 34 a4 3d 4e 53 39 3e ae 3f ca bd 76 6c de 3e
       0.08017869 0.18098184 -0.09875427 0.43442124
0001e0 74 ac a5 be 97 03 6a bd 12 29 44 3e 5e 67 29 be
       -0.32358134 -0.05713233 0.19156292 -0.16543338
0001f0 17 3e 19 bf 52 2b cb bd 47 e7 0d 3d 80 14 85 bf
       -0.59860367 -0.09920372 0.03464439 -1.0396881

_network.1.running_var f4 [128]
000000 14 56 0a 3d 7b 33 9e 3c 44 d8 52 3b ee 42 84 3b
       0.033773497 0.019311657 0.0032172361 0.004036299
000010 ba 40 9d 3c aa 14 12 3c 08 4c cf 3b ba 98 9e 3b
       0.019195903 0.0089160595 0.0063262023 0.004839984
000020 ed e3 79 3b db 2e 14 3d 9e c8 24 3c 49 ac e4 3c
       0.003813024 0.036177497 0.0100575965 0.027914183
000030 e9 73 7d 3c 13 2e a5 3c b4 84 93 3c aa 4d 97 3c
       0.01546953 0.020163571 0.018007614 0.01846965
000040 28 6e ce 3c dd 2e 03 3c 30 f9 40 3c b2 18 3c 3d
       0.025199011 0.008006779 0.011778161 0.04592199
000050 d3 d3 3c 3b e4 3b dd 3b 6d 0d 38 3c 81 aa 29 3c
       0.002881278 0.0067515243 0.01123367 0.010355593
000060 e3 d5 24 3b 14 c7 14 3c e8 c0 a6 3c 76 f4 2e 3c
       0.00251519 0.009080667 0.020355657 0.010678401
000070 19 82 75 3c c0 72 57 3d 2d c3 13 3d a1 ea 8b 3c
       0.014984631 0.05259967 0.036074806 0.017079653
000080 28 cd ca 3b 89 4d ca 3b ec 0b b7 3b 2e 3b 48 3c
       0.0061890073 0.0061737937 0.005586138 0.012221141
000090 42 da 22 3b 43 7a fe 3a 14 66 fa 3b a0 f9 7d 3a
       0.002484933 0.0019415099 0.007641563 0.0009688381
0000a0 43 4e ca 3b 82 a5 74 3c 69 51 a7 3b 60 bc 08 3c
       0.0061738803 0.014932038 0.0051061404 0.008345693
0000b0 47 b7 f6 3c 5e 87 c8 3c a3 ba 0c 3c 57 16 2d 3c
       0.03011669 0.02447861 0.00858942 0.010564408
0000c0 f4 36 4f 3b a1 07 05 3d b8 e1 d5 3b 1b 7a b9 3b
       0.0031618448 0.03247798 0.006527152 0.005660308
0000d0 d7 ea a7 3c 65 a0 0b 3c e4 e3 d9 3c f5 e7 67 3c
       0.020497723 0.008522128 0.026597925 0.014154424
0000e0 e6 ca 62 3b ca 6c 09 3c 8d d3 08 3d 54 ee 86 3b
       0.00346058 0.008387754 0.033404876 0.0041177664
0000f0 a9 fa 9a 3b 23 f1 5d 3b aa 07 00 3c 8d 84 b2 3b
       0.004729588 0.0033865653 0.007814327 0.00544793
000100 42 2b 32 3c a1 24 32 3c 22 27 e4 3b 99 bf 97 3b
       0.010874571 0.010872991 0.006962673 0.0046309945
000110 41 04 90 3b 16 e1 b4 3b 39 16 48 3d a6 ae 51 3c
       0.0043950384 0.0055199964 0.04884932 0.012797987
000120 3a 1c 1f 3c b1 de bf 3b a8 0a 1f 3c c1 45 2b 3d
       0.00971132 0.0058554043 0.0097071305 0.04181457
000130 d4 8d 90 3b a4 c4 cd 3b a5 d6 f3 3b 18 4e 54 3b
       0.0044114385 0.006279545 0.007441359 0.003239518
000140 15 29 08 3c 07 d7 c3 3c 87 21 96 3c 4f 31 46 3b
       0.008310576 0.023906244 0.018326534 0.0030241793
000150 f3 06 66 3c 8a 9a cd 3b bf ca 46 3c 1a 07 02 3b
       0.014039743 0.006274526 0.012133299 0.0019840659
000160 59 5f 9f 3b 0c 80 8c 3c fa 88 50 3c 5c ed 34 3c
       0.0048636612 0.017150901 0.01272797 0.011042919
000170 f1 b4 d7 3b 60 c2 03 3d 0a 7e e6 3c 3c ec 47 3c
       0.006582849 0.032167792 0.028136272 0.012202319
000180 93 2d 7d 3b 31 aa c8 3b 59 d7 3a 3b 82 7b 45 3c
       0.00386319 0.006123804 0.0028509705 0.012053372
000190 6d 21 39 3c 1a 24 66 3b 67 58 0d 3c 55 61 f0 3c
       0.011299473 0.0035116733 0.008627034 0.029343287
0001a0 4f e5 61 3b 20 32 30 3b 98 00 ac 3b c5 db 4c 3d
       0.0034468954 0.0026885346 0.005249094 0.050014276
0001b0 db 4a 83 3c 4b 86 c8 3c 20 5f 51 3c bc 37 cf 3b
       0.016026905 0.024478098 0.012779027 0.0063237827
0001c0 a0 6d 98 3c 6d 6d aa 3b 79 15 84 3d 19 62 35 3b
       0.01860696 0.005201033 0.06449408 0.002767688
0001d0 7d 83 4c 3c 75 8c c9 3b b8 5b ef 3c 14 04 f9 3b
       0.012482521 0.006150777 0.02921854 0.007599363
0001e0 d5 27 f4 3b 6c a7 ca 3c e8 9a db 3b 7c eb 3e 3c
       0.0074510374 0.024738036 0.006701816 0.011652824
0001f0 44 92 c1 3b 44 bf 48 3c ca c4 85 3b e9 7c 7c 3c
       0.005907329 0.0122526325 0.004082297 0.01541064

_network.3.weight f4 [128, 128]
000000 1e 12 0e bd d5 00 94 3d d2 d5 af 3d b9 48 b3 3d
       -0.034685247 0.07226721 0.08585705 0.08754105
000010 49 b1 80 bd f4 fb 78 bd 62 78 25 bd 6e 6c 5f bc
       -0.062838145 -0.060787156 -0.04039801 -0.0136366915
000020 5c 03 83 bd fe 60 4a 3d 7b dd ec 3b 6f 49 59 bc
       -0.06397125 0.049408905 0.007228551 -0.013262137
000030 53 67 f1 bc 40 ab 77 bc 3d a8 0d 3d e4 94 76 3d
       -0.029468214 -0.015116513 0.034584273 0.060200587
000040 ab 3c 50 bd c3 90 cf bd 4b b2 3a 3d 8a 9b 58 3d
       -0.050839107 -0.10135033 0.04558019 0.05288271
000050 ee 0a 2b bd 41 9e c1 3d 40 1b a4 3c 7d 40 20 3d
       -0.04175847 0.09454013 0.020032525 0.039124
000060 79 48 5c 3c 3b 46 f5 bd 5e 73 b1 3d be 0a 0f be
       0.013445013 -0.11976286 0.08664583 -0.13968942
000070 b0 4f db bd 5b a7 fc 3b bc 14 e6 bd 10 e4 11 3e
       -0.107085586 0.00771038 -0.112344235 0.14247155
000080 a0 87 13 bc d3 48 46 3d bc ef 32 bd 13 85 65 3d
       -0.0090045035 0.048409294 -0.04368566 0.056035113
000090 8e ce 1b bc fa 5e 67 3d 2e 2f ef 3c 9d 0d 87 3d
       -0.009509696 0.05648706 0.029197302 0.065943934
0000a0 6a 96 a6 3d 00 09 d9 bd ff 93 40 3d a4 6c a4 3d
       0.08134158 -0.1059742 0.04701614 0.08028534
0000b0 f6 34 5d 3d 6a 7e 2c 3d 79 f8 cb 3d 44 8b c5 bc
       0.054005586 0.042112745 0.09959502 -0.024114259
0000c0 d9 b7 11 bd f0 5f 92 3d b8 a2 19 bd 6c e9 5e 3d
       -0.03557572 0.07147205 -0.037508696 0.054421827
0000d0 60 d4 ec bb 93 ed 14 3e 89 c1 cd bd ec 7a 79 bd
       -0.0072274655 0.14543752 -0.100466795 -0.060908243
0000e0 eb 6f 31 bd ae f9 8b 3c 17 01 bf bb b8 64 c6 bc
       -0.043319624 0.01708683 -0.0058289873 -0.024217948
0000f0 92 bf e1 3c 92 dd 39 bd b3 38 0c 3e 96 c3 df 3c
       0.027557168 -0.04537732 0.13693504 0.027314942
000100 ee 8c 53 bd 5f b3 aa bd dd 90 cc bd 5c d6 3f 3d
       -0.051648073 -0.083349936 -0.09988568 0.04683529
000110 a3 93 f1 bd 01 c7 e5 3c ba 95 1d 3d e6 ad 0e be
       -0.117957376 0.028048994 0.03847287 -0.13933524
000120 18 2c 46 bd a3 03 22 be ae f3 c1 bb 62 da 12 bd
       -0.048381895 -0.158217 -0.0059189415 -0.035852797
000130 88 1f e4 bc bf a4 1f bd 35 62 5d 3c c4 e4 5a 3c
       -0.027847067 -0.038975473 0.013512184 0.013360206
000140 0e 4c c9 3d 94 af b4 3d bc 44 83 3c 3c c4 26 bd
       0.098289594 0.08822551 0.016023986 -0.040714487
000150 38 bf 1d be 66 67 89 bd c8 5c 32 bd dd 90 fd 3c
       -0.15404975 -0.06709175 -0.043545514 0.030952865
000160 f2 f8 de 3d fa 99 13 3d 26 cb d5 bb 94 3c b4 3d
       0.10887326 0.036035515 -0.0065244613 0.08800617
000170 1d f2 db bc 5c 41 c2 bd 5a f6 bc 3d bb 5b e8 bd
       -0.026848847 -0.094851226 0.09226675 -0.11345621
000180 35 c2 b4 bc 77 46 a3 3d 62 0c da 3d 99 64 94 3d
       -0.022065261 0.079724245 0.10646893 0.0724575
000190 2c 2b e0 bc c2 6f 0f be ef da 8c bd b6 49 c9 3d
       -0.027364336 -0.14007476 -0.06877696 0.09828512
0001a0 58 d4 a4 3d e8 7a 78 3c 68 f1 7c bd 83 dc a1 bd
       0.08048314 0.015166022 -0.06175366 -0.079033874
0001b0 73 26 ff 3c bb 73 16 3d a5 26 83 3d d8 86 00 3d
       0.031146264 0.036731463 0.06403855 0.031378597
0001c0 c9 4b 79 3d cf f2 04 3d 69 3a 37 bc 2b d3 35 3d
       0.06086329 0.032458123 -0.01118336 0.04439084
0001d0 f5 86 3d bb 25 bd 87 3a 36 45 a6 3d b5 6e 94 bd
       -0.0028919552 0.0010356052 0.0811867 -0.07247678
0001e0 59 5e a7 bd bb d0 4b 3c b5 74 b3 bd 79 3e f5 bd
       -0.08172292 0.012439902 -0.087624945 -0.11974806
0001f0 6c e9 82 bd ab 51 b8 3b e6 cb 9b 3d 2e b2 4f bc
       -0.06392178 0.00562497 0.0760725 -0.012676759
000200 87 27 02 bd 3a 55 9c bd e8 cf dd bd f5 6d f6 bc
       -0.031775977 -0.07633443 -0.108306706 -0.030081728
000210 b0 89 10 bd 49 36 c9 ba 1f 91 c6 3d 3e df 13 bd
       -0.03528756 -0.0015351261 0.096956484 -0.036101572
000220 0a 25 db bc 66 c7 43 3d 16 57 b4 bd be 6b 09 3d
       -0.02675106 0.047797583 -0.08805673 0.033550017
000230 fd 4e 89 bc 06 09 08 bd 95 92 ca bd 58 36 b0 3d
       -0.016761297 -0.03321173 -0.098912396 0.08604115
000240 14 41 94 3d c5 fd 32 3d 3b 7f 90 3d f1 3b ae 3b
       0.07238975 0.043699045 0.07055517 0.005317204
000250 0e ae 26 3c af 99 3d 3c 3a 18 66 bd 04 9f d2 bc
       0.010173334 0.011572286 -0.056175448 -0.02571059
000260 60 7d ca bd 7e 3b a9 3c 63 b4 91 bd 5c 8a f3 3c
       -0.09887195 0.02065825 -0.07114484 0.02972906
000270 64 35 46 3d c4 91 b5 bc fa 88 06 bd cd 90 ff 3b
       0.04839076 -0.022164233 -0.032845475 0.007799244
000280 5c d3 cf bd d2 d7 56 3c ea db cc 3d 27 f9 02 be
       -0.101477355 0.013112979 0.10002883 -0.12790357
000290 3c c0 d0 bd 88 01 29 be f0 07 8b bd ce b2 ee bc
       -0.10192916 -0.1650449 -0.06788623 -0.029137995
0002a0 36 11 86 bd 6c 8c f5 3c 25 8e 6a bd 5f a9 a5 bd
       -0.065462515 0.029974185 -0.057264466 -0.080889456
0002b0 de 25 47 bd d5 64 e5 bc 81 8e 02 be 4b 4e 9b bd
       -0.048620097 -0.028002182 -0.12749673 -0.075832926
0002c0 c9 52 00 be cb c6 b6 3c 15 1c 90 bd 37 fc 70 bd
       -0.1253158 0.022311589 -0.07036606 -0.05883428
0002d0 cc 84 c9 bd 6e 8f a1 3d b9 e3 81 bd ce 56 8d bd
       -0.09839782 0.07888685 -0.06342263 -0.06901322
0002e0 82 d1 6d 3d 7b ac 33 3d b4 9f 4f 3d 8f 94 bc bd
       0.05806113 0.043865662 0.050689414 -0.09208023
0002f0 6f 2c e3 bd 03 e6 fb bd 8d 7d 53 3d 18 34 52 3a
       -0.110924594 -0.12299731 0.051633406 0.0008018627
000300 0d a4 3d be 17 51 73 bc 47 a4 dd bd ea d5 10 bd
       -0.18519612 -0.014850876 -0.10822349 -0.035360254
000310 61 f2 a0 bd e7 94 f5 3d d5 2b 27 3d 75 e9 1b bd
       -0.0785873 0.119912915 0.040813286 -0.03806444
000320 24 7c ee 3c 17 55 55 bd 1c f6 44 3d c2 e9 0e 3d
       0.02911193 -0.0520831 0.04808627 0.034890898
000330 62 59 9e 3d be b7 a2 3c f6 c3 64 3d ac 27 62 bd
       0.07731892 0.019863006 0.055850945 -0.055213615
000340 1c bf 0e bd 05 35 6b 3d 01 b8 8a 3d 17 97 9a 3d
       -0.034850225 0.05742361 0.06773377 0.07548349
000350 46 21 6a 3d 9d 9c 47 bd c0 b1 1b 3d 76 ce 6a 3b
       0.05716064 -0.048733342 0.038011312 0.0035828627
000360 c2 f4 cd bd 1a 32 a2 bd eb 4a 9c bc 50 7b 65 3c
       -0.100564495 -0.07919712 -0.019078692 0.014006451
000370 d9 56 16 3c 81 b8 e4 bc 71 ac 9e bc 4e 3a 25 3d
       0.0091759795 -0.02792001 -0.019369336 0.040338807
000380 42 a1 96 3c a8 91 aa bd 41 f2 5e 3d 95 19 35 bd
       0.01838744 -0.08328563 0.05443025 -0.04421385
000390 c7 2c c8 bc 01 1a 8a 3c 2a b3 83 bc 5f cd 26 be
       -0.024435414 0.016858103 -0.016076643 -0.1628928
0003a0 91 90 80 3d fb 81 bb bd e2 96 2a bd c2 6e ae 3c
       0.06277574 -0.09155651 -0.0416478 0.021293048
0003b0 fb 2f f4 bc 34 d7 31 bd 12 89 16 bd 72 79 35 bd
       -0.029808035 -0.043418124 -0.036751814 -0.044305272
0003c0 b1 3b 93 bd 62 0c c0 bd 44 44 de 3c 39 8d 8b bd
       -0.071891196 -0.09377362 0.027132161 -0.068140455
0003d0 af 2f 76 bd aa b4 27 3b 02 39 85 3d 20 46 91 3d
       -0.06010407 0.0025589862 0.06505014 0.070934534
0003e0 0e 8d d1 bd 2a f4 0e 3d 05 90 03 3e 80 7f 6a 3d
       -0.10231982 0.03490082 0.12847908 0.0572505
0003f0 f3 1f 5e bd 44 0f 51 bd 5e 61 ce bd c4 9f 80 bd
       -0.054229688 -0.05103995 -0.10077165 -0.06280473

_network.3.bias f4 [128]
000000 0d f4 bb bb c5 cd 6b bd 9f 9a 3a bd 6d e0 50 3d
       -0.00573588 -0.057569284 -0.045557614 0.05099528
000010 c3 af 5d bd 66 01 32 bd 40 9d 38 3d 02 f2 37 bd
       -0.054122698 -0.043458365 0.04507184 -0.04490853
000020 c9 01 8c bd eb 3b a1 3c ee 33 1c 3d fb 17 a4 bd
       -0.06836278 0.019681891 0.03813546 -0.080123864
000030 cf 40 39 3c b9 ab 8b bd f6 76 18 3d 8f e0 45 3d
       0.0113069555 -0.06819863 0.037222825 0.04830986
000040 48 81 f3 3c d1 a1 b0 3d 2d b9 8c bc 29 d4 0f bd
       0.029724732 0.08624614 -0.017178142 -0.03511444
000050 99 fa c3 3c 2c 01 d9 3c b2 8a 21 bd 62 1f 6f bd
       0.023923205 0.026489817 -0.03943891 -0.05837954
000060 c4 1d dc bc 85 d7 15 3d 41 f7 18 3d 55 71 20 bd
       -0.026869662 0.03658249 0.037345175 -0.03917058
000070 07 39 99 3d 35 a9 86 bd 94 74 28 bc d2 f0 ae 3c
       0.0748158 -0.065752424 -0.010281701 0.021355066
000080 bd 43 82 bd e5 cf a4 3d 8c 94 32 bd 63 b1 56 3d
       -0.06360576 0.08047465 -0.043598697 0.052415263
000090 fd 35 6e 3b 99 a6 4c bd 7f 69 a9 3d 51 86 20 bc
       0.0036348097 -0.049963567 0.08272075 -0.0097976485
0000a0 f2 8d 81 3c 7f 6e aa 3d d4 7a aa bd 1a 9e 91 3d
       0.015814755 0.08321857 -0.08324209 0.071102336
0000b0 c7 f2 32 bd 68 f7 92 bd 41 ff 48 3d 82 a7 dd bc
       -0.04368856 -0.07176095 0.049071554 -0.027057413
0000c0 15 91 90 bd c0 49 31 bd 16 14 6a 3d f6 c4 1e 3d
       -0.07058922 -0.043283224 0.05714806 0.038762055
0000d0 d5 b3 8f bb 1d d2 39 3d dd d6 8d 3c 83 b5 87 bd
       -0.0043854513 0.045366395 0.017314369 -0.066264175
0000e0 63 6b 8a 3c 2e f2 80 3d 7b f3 0a bc e3 4f 25 bc
       0.01689691 0.06296192 -0.008480902 -0.010089847
0000f0 48 d9 b1 3d d1 ec cf bc 70 e1 a8 3d 82 96 9e 3d
       0.08684021 -0.025381478 0.08246124 0.07743551
000100 22 c5 91 3d f0 0b c0 3c d7 ab c6 3c 86 e8 ba 3c
       0.07117678 0.023443192 0.024251861 0.022815954
000110 05 69 a5 bd a9 2e 0f bd 7b cd 4a bd be 5e 56 bc
       -0.080766715 -0.034956608 -0.049512368 -0.013084112
000120 e5 1f 35 bd 21 e2 e8 bc d3 4d 76 bd ba 5f 83 bd
       -0.04421987 -0.02842814 -0.060132813 -0.06414743
000130 a9 06 ea 3c 57 a2 b0 3d b2 a8 12 bd 1a 07 6e bd
       0.028567629 0.08624714 -0.03580541 -0.05811224
000140 42 bd f3 bc 76 9e 08 bd ed 40 b0 bd 2b 16 9f 3d
       -0.029753331 -0.033354245 -0.086061336 0.077679
000150 49 8a 75 3d 55 2b 86 3d 87 0c 3b bd 82 68 6f bd
       0.059946332 0.06551234 -0.045666244 -0.058449276
000160 9f 4a ad 3d 94 33 5b bd dd 1e 98 bd d9 a9 96 bd
       0.084614985 -0.053515986 -0.07427762 -0.073566146
000170 ed d0 dc 3c 54 83 40 bc d9 e3 5b bd 46 07 9a 3d
       0.026955092 -0.011750061 -0.05368409 0.075209185
000180 9a 23 48 bd 8e b0 a7 3b 90 3d 34 3d 52 32 2d 3d
       -0.048862077 0.0051174825 0.044004023 0.042284317
000190 40 cc 97 3d 63 08 36 bc 66 80 3a 3d 95 1b e6 bb
       0.074120045 -0.011110398 0.045532607 -0.007022331
0001a0 e2 27 40 3c 67 43 54 bd 2f 98 60 3d be 1d a5 3c
       0.011728259 -0.051822092 0.054832634 0.020155784
0001b0 6e 3d 91 3c ff ce d3 bb 32 02 11 3d be f0 ae bd
       0.017729487 -0.006463885 0.035402484 -0.08542012
0001c0 33 d2 93 3d 03 95 8d 3d 2a 49 42 3d a0 25 4c bb
       0.07217827 0.06913187 0.047433056 -0.0031150356
0001d0 18 ee a8 bd 3e c7 c3 bc 3c 58 91 bd 2f 77 2d bd
       -0.08248538 -0.023898717 -0.070969075 -0.04234999
0001e0 5d 74 8e 3d 8d 59 2a bc c0 3e b4 3d 35 a1 36 bd
       0.06955788 -0.010397327 0.08801031 -0.044587333
0001f0 97 b4 28 bd b8 28 91 bd 2a 74 0a 3d fa e1 03 3d
       -0.04118785 -0.070878446 0.03380219 0.03219793

_network.4.weight f4 [128]
000000 e6 54 75 3f b5 84 83 3f 94 f7 87 3f f1 9d 70 3f
       0.9583267 1.0274874 1.062243 0.93991
000010 38 a3 70 3f f5 b2 6d 3f 15 8a 86 3f c9 bc 7a 3f
       0.9399905 0.9285119 1.0510889 0.97944313
000020 75 96 70 3f 2d 78 7d 3f e0 6c 75 3f 10 63 80 3f
       0.9397958 0.990115 0.95869255 1.0030231
000030 b0 f1 70 3f 38 a4 78 3f b9 7c 75 3f 81 84 71 3f
       0.94118786 0.9712558 0.95893437 0.9434281
000040 67 e0 61 3f d3 58 70 3f 4d 5f 79 3f 45 87 6b 3f
       0.88233036 0.93885535 0.9741104 0.9200328
000050 f4 f7 84 3f 22 05 83 3f 63 1c 6d 3f 8c de 89 3f
       1.0388169 1.0235941 0.9262144 1.0771041
000060 cc 80 7e 3f 67 4a 6d 3f e4 a7 78 3f 70 05 7e 3f
       0.9941528 0.92691654 0.9713118 0.99227047
000070 aa 11 70 3f 06 c0 79 3f db ac 62 3f 9a 8f 71 3f
       0.93776953 0.9755863 0.88545007 0.94359744
000080 24 39 63 3f fb 35 82 3f a5 43 80 3f 6a c6 65 3f
       0.88759065 1.0172724 1.0020643 0.8975588
000090 e8 b2 7b 3f e6 7f 86 3f 7b 4d 6e 3f 77 1b 64 3f
       0.98319864 1.0507782 0.93086976 0.8910441
0000a0 06 0c 76 3f a5 b9 7a 3f 69 15 89 3f 2b 4e 6d 3f
       0.96112096 0.9793952 1.0709659 0.926974
0000b0 4d a6 78 3f e5 dd 81 3f 92 32 89 3f 26 0b 69 3f
       0.97128755 1.0145842 1.0718558 0.91032636
0000c0 93 70 7d 3f ad 20 73 3f 28 1a 83 3f 89 15 59 3f
       0.989999 0.94971734 1.0242357 0.84798485
0000d0 ec d0 5f 3f 9e a0 7a 3f 2e 49 6f 3f d6 23 7d 3f
       0.87428164 0.9790133 0.9347104 0.98882806
0000e0 31 ed 79 3f 18 76 71 3f 7d 8f 80 3f 9b 18 79 3f
       0.9762755 0.9432082 1.0043789 0.9730317
0000f0 78 47 72 3f 4b a2 75 3f 2f 08 89 3f 4b 4d 6d 3f
       0.946403 0.95950764 1.0705622 0.92696065
000100 bb fd 6a 3f 95 af 7a 3f 43 38 83 3f 90 25 85 3f
       0.9179341 0.97924167 1.0251545 1.0402088
000110 58 6b 8a 3f d5 21 7b 3f f0 96 81 3f f1 26 69 3f
       1.0814009 0.980985 1.0124187 0.91075045
000120 af 65 7d 3f 3c 63 78 3f 81 24 87 3f ef 38 82 3f
       0.9898328 0.9702642 1.0558015 1.0173625
000130 6b 69 7f 3f cd d8 69 3f 86 36 6b 3f 23 45 7d 3f
       0.9977023 0.91346437 0.9188007 0.9893362
000140 ff 9e 67 3f c7 54 73 3f 82 14 69 3f 4a 9f 70 3f
       0.90476984 0.95051235 0.9104692 0.93993056
000150 fb 19 5c 3f a4 54 71 3f 32 40 85 3f 40 c9 7c 3f
       0.85977143 0.94269776 1.0410216 0.98744583
000160 38 52 84 3f f8 ed 80 3f f4 3b 74 3f 2f 6b 83 3f
       1.0337591 1.0072622 0.9540398 1.0267085
000170 00 92 6d 3f 65 2f 6e 3f 2b a4 7a 3f c9 b7 82 3f
       0.92800903 0.9304107 0.9790675 1.0212337
000180 ce e4 63 3f 2d 24 89 3f 8d fd 67 3f d3 b4 78 3f
       0.89021003 1.0714165 0.9062126 0.97150916
000190 5d 9e 8d 3f 2a 12 60 3f 07 30 7f 3f c1 80 72 3f
       1.1063954 0.87527716 0.9968266 0.9472771
0001a0 88 a4 79 3f 0c 79 74 3f 23 58 7c 3f 34 53 78 3f
       0.9751668 0.954972 0.98571986 0.9700196
0001b0 74 6a 76 3f 33 cb 75 3f 9b bd 85 3f 75 95 5d 3f
       0.96256185 0.9601318 1.0448488 0.8655618
0001c0 2d 68 6e 3f e7 d8 80 3f fa a6 79 3f 9f 19 80 3f
       0.9312771 1.0066193 0.9752041 1.0007819
0001d0 a5 21 79 3f e2 73 78 3f 23 cc 83 3f 96 61 62 3f
       0.9731696 0.97051823 1.0296673 0.88430154
0001e0 f6 5f 86 3f af 2a 78 3f ff b8 68 3f b0 16 77 3f
       1.0498035 0.9694013 0.9090728 0.96518993
0001f0 a4 e1 86 3f d6 fd 5f 3f 9a 6f 88 3f f4 ef 81 3f
       1.053761 0.874967 1.0659058 1.0151353

_network.4.bias f4 [128]
000000 14 2c 4f bd a3 e0 b3 3c 94 ed a3 3d 0d f3 b5 bd
       -0.050579146 0.021957701 0.08004299 -0.08884249
000010 82 8d b1 bb 52 6d 0e be e7 ec 16 bc 42 5d dc 3d
       -0.0054184804 -0.1390889 -0.009211755 0.10759975
000020 cb 18 74 bd df 35 09 bc 00 06 97 3c 81 a2 58 bc
       -0.059593957 -0.00837466 0.018435478 -0.013222338
000030 66 13 40 be 7f f0 6a bd 88 28 8a bd da 43 e9 bd
       -0.187574 -0.05735826 -0.06746012 -0.11389895
000040 6d 55 9f bd 24 37 10 bd 26 50 ff bc b9 f1 d7 bc
       -0.077799655 -0.035208836 -0.031166147 -0.02636038
000050 28 68 0c 3c ee 6d 3a 3d 85 c8 a7 bd 82 19 df bb
       0.008569755 0.045514993 -0.08192543 -0.0068084607
000060 c6 71 1e bd 19 a5 b0 bd 6b c9 82 bd 2d 1c e4 3c
       -0.03868272 -0.0862524 -0.06386074 0.027845467
000070 22 4c fe bd cc 08 02 bd 5e b7 9f bd a0 1f 2f bc
       -0.12416865 -0.03174667 -0.077986464 -0.010688692
000080 5b d5 ae bd f6 6a c2 3c e1 eb 07 be 79 0a 11 3d
       -0.08536788 0.023732644 -0.13273574 0.035410378
000090 80 ac ea 3c b4 f8 1c be 3f 58 3b bd 6f ab 90 bd
       0.028646708 -0.15329248 -0.045738455 -0.07063948
0000a0 29 05 89 bd 65 03 27 bd 9c d2 e9 bc 14 bd b6 bd
       -0.06690437 -0.04077472 -0.02854281 -0.089227825
0000b0 8a 6c 0e be 28 5d 5c 3c 17 45 33 be 4a d6 2c bd
       -0.13908592 0.013449945 -0.17506824 -0.04219655
0000c0 d7 8b cf bd 02 ed 0f 3b ac f3 87 3c ce 2a cb bd
       -0.10134094 0.0021961336 0.016595684 -0.09920274
0000d0 7b 56 aa bd b1 7f e1 3b 03 bb 79 bd 83 dc 6b 3d
       -0.08317276 0.006881677 -0.060969364 0.057583343
0000e0 b0 de ab bc 92 82 70 bd d4 9f 15 be 4d ea ca bc
       -0.02098021 -0.05871827 -0.14611751 -0.024769926
0000f0 e5 c5 ad bd e9 97 10 bd a2 bf 61 3d 14 57 85 bd
       -0.08485011 -0.035301123 0.055114396 -0.065107495
000100 d9 0f 25 be a9 ed 1d bd b4 02 81 3d 65 e6 79 3d
       -0.16119327 -0.03855673 0.06299344 0.061010737
000110 ff 85 5b be ed 11 7f bd 14 ad ce 3c c4 f1 0a bd
       -0.21437834 -0.062272955 0.025229014 -0.033921972
000120 cb b6 cf 3b 6c 86 06 bd b8 d6 93 3d 2c 58 4f 3d
       0.0063389293 -0.03284304 0.07218689 0.050621197
000130 ef 6e 84 3c 01 86 5e bd 1c bd 92 bd 77 0b 82 3d
       0.016166179 -0.054327015 -0.07164976 0.06349843
000140 cd 50 9b bd 20 5f f6 bc b6 36 93 bd 38 f7 2a bd
       -0.07583771 -0.030074656 -0.0718817 -0.041739672
000150 47 cf 3b be fb 1e cf bd 05 97 9b 3d b6 c3 06 3d
       -0.18340789 -0.10113331 0.07597164 0.03290149
000160 58 21 d1 3c 1b d1 b7 bd ce de 16 bd 49 19 8a 3d
       0.025528595 -0.089754306 -0.036833577 0.06743104
000170 96 71 7a bd 23 e9 51 bd 8c c4 36 3c 25 9e ea 3c
       -0.06114348 -0.051247727 0.011155259 0.028639862
000180 e5 16 b5 bd 47 8b 8f 3d 8e 01 70 bb 5f f3 a2 bd
       -0.088422574 0.07008987 -0.003662202 -0.079565756
000190 a8 ab b7 bd 2f b0 89 bd b2 1c d5 bd 48 d1 b3 bd
       -0.08968288 -0.067230575 -0.10405864 -0.087801516
0001a0 19 34 cb bc f3 82 06 bd ca 0c 9c bd bb f1 51 3b
       -0.024805116 -0.032839727 -0.07619627 0.0032034952
0001b0 66 6e 53 bd 02 ae 23 bc 2e 06 46 be 8f 89 25 be
       -0.051618956 -0.009990217 -0.19338295 -0.16165756
0001c0 be e6 9a bd 08 0b a2 bd c9 a6 da bc f3 2a cd bc
       -0.07563542 -0.0791226 -0.026690857 -0.025044894
0001d0 73 03 9a bd 02 d9 6a bd 6a 22 d1 bc 06 e8 42 be
       -0.07520189 -0.05733586 -0.025529105 -0.19033822
0001e0 49 85 41 3d dc dd 95 bd 06 63 a0 bd a0 1d b9 bd
       0.04724625 -0.07317707 -0.07831387 -0.09038854
0001f0 4a 15 a4 3d c5 03 27 3a eb 87 d9 3d 1f 89 3c be
       0.08011873 0.0006371106 0.106216274 -0.18411683

_network.4.running_mean f4 [128]
000000 11 a7 dd 3d 6e 8d 86 bf db b9 50 be 83 e5 26 3f
       0.10822881 -1.0511911 -0.20383398 0.6519396
000010 e8 30 8b bf a7 6f 89 3d 4f 67 a7 3e 7c 41 43 bf
       -1.08743 0.06710749 0.32696006 -0.76271796
000020 70 4c 44 be 48 90 e7 bf 2e 22 39 3f c4 ff ca bf
       -0.19169784 -1.8090906 0.7231778 -1.5859303
000030 17 9e c4 be 7f 09 9c 3e a5 cf bd 3d 79 93 bc 3e
       -0.38401863 0.30475995 0.09268121 0.36831263
000040 65 f9 17 be 5e 71 ab 3e 72 b8 4a bf ad 77 0a bf
       -0.1484123 0.3348493 -0.7918769 -0.5408886
000050 86 de 73 bf 25 98 44 bf ab 87 80 bf 57 10 48 3e
       -0.9526142 -0.76794654 -1.0041403 0.19537483
000060 04 47 5c be bc 16 96 3f 74 f2 2e be 19 ea bb bc
       -0.21511465 1.1725688 -0.17084676 -0.022938775
000070 4c bb 82 bf b2 42 1e bf 08 29 18 3e 1a 2b 52 bf
       -1.0213408 -0.6182052 0.14859402 -0.8209702
000080 9a 00 20 bf 11 6a 0a 3f 54 51 96 3f fd 53 14 bf
       -0.6250092 0.54068094 1.1743569 -0.57940656
000090 66 fb da be 06 25 c2 3f f0 f8 78 bf 8f 1e 89 bd
       -0.42769927 1.5167549 -0.9725485 -0.06695282
0000a0 93 5e b7 be 1d ad 21 bf b5 15 94 bf f9 7b af 3e
       -0.35814342 -0.63154775 -1.1569124 0.3427427
0000b0 9a af 66 3f bf 6c ad be 74 82 b7 3f 0f de a9 bf
       0.90111697 -0.3387203 1.4336686 -1.3270892
0000c0 37 ac 7a 3f a7 74 42 bf ef e0 6b bf f2 c0 4e bf
       0.9791903 -0.7595925 -0.92140096 -0.8076316
0000d0 97 1b f9 3d 0f b7 ff be 17 ab a4 bf af 85 6e bf
       0.121634655 -0.4994435 -1.2864712 -0.93172735
0000e0 ad ec ec bf c7 f8 ea be 89 df a4 3f d3 67 e4 3e
       -1.8509728 -0.45892927 1.2880718 0.44610462
0000f0 0b 69 02 3f 63 04 8a be 5d 44 28 be e0 ac db be
       0.5094153 -0.26956472 -0.16432329 -0.4290533
000100 9d 58 c3 3f e2 9d 9b be 3f 7f 86 be c3 84 38 bf
       1.5261418 -0.30393893 -0.26268956 -0.7207758
000110 0b 60 98 3f 6e 7e 3d be 97 16 98 3e f2 18 a6 bf
       1.190431 -0.1850526 0.29704735 -1.2976363
000120 76 93 b5 bf 42 b7 d2 be d2 04 b0 bf b9 c1 b7 bf
       -1.4185627 -0.4115544 -1.3751471 -1.4355994
000130 f7 3a fc be 88 73 8a be ae cc 87 3d 69 e6 e7 be
       -0.49263737 -0.27041268 0.066308364 -0.45292976
000140 29 2c 88 bf 79 66 8a 3e 33 16 a7 bf 72 dc 9a be
       -1.0638477 0.27031305 -1.305365 -0.3024631
000150 23 5d 24 3f 6f fd 43 bd c1 17 19 bf 55 61 5b bf
       0.64204615 -0.047849115 -0.5980187 -0.8569539
000160 ef 06 f1 bc ac 5e 09 bf 6a 01 a6 bf eb 36 2e bf
       -0.029422252 -0.5366008 -1.2969182 -0.6805255
000170 3a 08 cf be a3 7a 3d bf fb 5f b6 be cf e8 50 3e
       -0.40435964 -0.74015254 -0.35620102 0.2040131
000180 96 38 1f be 42 6e 4e bf a1 56 81 bf ee 9c c9 be
       -0.1554893 -0.8063699 -1.0104562 -0.3937754
000190 96 a1 72 be d3 cd ac bc 57 3f 83 3f bf 2b 28 3f
       -0.23694453 -0.021094238 1.0253705 0.6569175
0001a0 23 6d 90 3e a3 87 3b 3f 06 c6 44 3e 18 a0 a7 bf
       0.28208265 0.7325384 0.19216165 -1.3095732
0001b0 04 8b 02 bf 4a c3 99 bf 07 a3 a8 3f a9 39 60 bf
       -0.5099337 -1.2012722 1.3174752 -0.8758798
0001c0 37 20 30 bf 45 2d 74 3f 2b 3c 7e bf 2c 67 85 3e
       -0.68799156 0.95381576 -0.9931056 0.26055276
0001d0 62 f9 89 bf 0d 84 81 bf bf d2 d4 3e 99 78 e0 3e
       -1.077923 -1.0118424 0.41567037 0.4384201
0001e0 98 c4 dc bd 7a f4 ca be 8f d2 bf be 98 bc b1 3c
       -0.10779685 -0.39639646 -0.3746533 0.021696374
0001f0 a7 aa b2 bf fb 79 07 3c bb cf 72 bf 1d bc d1 3f
       -1.3958329 0.0082688285 -0.9484822 1.6385533

_network.4.running_var f4 [128]
000000 70 53 df 3f 63 60 75 3e b6 79 da 3e 66 2e 5d 3f
       1.7447338 0.2396255 0.42670983 0.86398923
000010 fa 05 97 3f bb 75 03 3f a6 52 56 3e 2e d6 2c 3f
       1.1798699 0.5135152 0.20929965 0.6751431
000020 d5 25 15 3f ab a6 7b 3f e7 ca f4 3f 3a 82 73 3f
       0.5826085 0.9830119 1.9124421 0.95120585
000030 ec 73 69 3f dc bf 5a 3f 86 8c 52 3f c1 2e 38 3f
       0.9119251 0.85449004 0.8224567 0.7194634
000040 b0 16 93 3f ef 9f 8d 3e cc 17 ff 3e b7 d9 22 3f
       1.1491299 0.27661082 0.49822843 0.63613456
000050 d2 41 ba 3e c1 4e 84 3f b9 4e 8e 3f 41 48 17 3e
       0.36378342 1.0336534 1.1117774 0.14773656
000060 36 24 74 3f 87 62 cf 3e ea 54 6d 3f ee 58 58 3f
       0.95367754 0.40504858 0.92707694 0.84510696
000070 b4 9e be 3f 9e f8 30 3f c5 c2 06 3f 99 5f ff 3e
       1.4892182 0.6912936 0.52640945 0.49877623
000080 7f 2e 92 3f 3c ae e9 3e 6b 85 5e 3f 67 a1 68 3f
       1.142044 0.45640743 0.8692233 0.9087128
000090 7e ca 4b 3f 9b 72 a8 3e bb 84 40 40 1b 8d 9b 3f
       0.79605854 0.32899937 3.0081012 1.2152437
0000a0 b8 15 d6 3e ac 2e 0a 3f 09 6e aa 3e d5 3a 2a 3f
       0.41813445 0.53977466 0.33287075 0.6649602
0000b0 cf cc 19 3f 74 51 38 3e db 39 9b 3e 9d 30 df 3f
       0.6007814 0.17999822 0.30317578 1.7436711
0000c0 6d 49 2f 3f a3 9f 16 3f 65 d0 ea 3e ab a4 39 3f
       0.68471414 0.58837336 0.45862117 0.7251689
0000d0 1b cb 13 40 43 07 17 3f 7f 34 be 3e b3 5a e8 3f
       2.3092716 0.58995456 0.37149426 1.8152679
0000e0 bb 76 7f 3f 6a 49 0a 3f dd 19 b8 3e e5 56 06 3f
       0.99790543 0.5401827 0.35957232 0.5247634
0000f0 27 fc 34 3f 8b f8 10 40 c7 e1 3a 3e 36 64 78 3f
       0.70697254 2.2651699 0.1825019 0.9702791
000100 20 d8 cb 3e 4c fb ad 3f 15 0b de 3e 16 e1 8d 3e
       0.39813328 1.3592315 0.4336783 0.2771079
000110 41 24 a8 3e dc 79 41 3f 39 ab b2 3e da cc ef 3f
       0.3284016 0.7557657 0.34896258 1.8734391
000120 e1 62 3d 3f 4f 2a 80 3e 54 55 e8 3e af 70 18 3f
       0.73979 0.2503228 0.453776 0.5954694
000130 63 c9 45 3e 3d 2f b5 3e 4f 94 3f 3f 68 69 8f 3e
       0.19315104 0.35387602 0.74835676 0.28010106
000140 06 2b 31 40 a3 a4 7f 3e f0 69 05 40 3c cb 6a 3e
       2.768251 0.24965148 2.084591 0.2292909
000150 b6 f8 48 3f e1 4b 0f 3f 67 53 40 3f 03 a6 08 3f
       0.785045 0.5597516 0.7512726 0.53378314
000160 4b 8f ff 3e 89 81 1b 3e 7e 6c 63 3f f1 f2 00 3f
       0.4991401 0.15186132 0.8883742 0.503707
000170 2b b9 b9 3e b5 c1 7c 3f a0 92 14 3f 37 68 f3 3e
       0.36274084 0.98733073 0.5803623 0.47540447
000180 f1 d4 e9 3f a2 ef b0 3e 6d 19 c6 3f 56 dc 10 3f
       1.826811 0.34557825 1.5476509 0.56586206
000190 53 54 e8 3e ff c3 31 3e ed d8 e8 3f e8 40 4b 3f
       0.45376834 0.17359923 1.81912 0.79395914
0001a0 3a 4d b9 3e 5e ac ad 3f 5d 85 92 3e 20 c4 e9 3e
       0.36191732 1.3568227 0.28617373 0.45657444
0001b0 50 51 47 3f b5 b6 b1 3e 48 42 25 3f 46 73 d1 3f
       0.7785845 0.34709707 0.6455426 1.6363304
0001c0 22 d8 8b 3f bf 44 00 3f 53 8a 24 3f 2b 89 e6 3f
       1.0925333 0.501049 0.64273566 1.801061
0001d0 22 4c 01 3f ac 48 e3 3e e9 6d 98 3f a9 c6 07 3f
       0.50506794 0.44391382 1.1908542 0.53037506
0001e0 20 41 76 3f 9f 97 7d 3e 20 82 a4 3f 1d 50 15 3f
       0.9619312 0.2476487 1.2852211 0.5832537
0001f0 10 15 91 3f 9c f0 3b 3f 9e 81 a7 3e cb fa e5 3e
       1.1334553 0.73414016 0.32716078 0.44917902
